cebra_models/necab1/01/B/cebra_trialID_hybrid_model_1000_32_B.pt (torch, 478324 bytes, 31 tensors)

module.net.0.weight f4 [32, 403, 2]
000000 cf 39 64 bb d9 27 b7 3c 31 1a cd 3a 7d 1e 8a 3c
       -0.0034824496 0.022357868 0.0015648064 0.016860241
000010 72 6f 1e bd 0b 62 f9 bc 36 23 b3 3c e0 76 8e 3c
       -0.0386805 -0.030442258 0.021867376 0.017390668
000020 c7 bb 98 3d 45 f7 2a 3d 6e 05 93 3b e5 7f ae 3b
       0.07457691 0.04173972 0.0044867313 0.005325305
000030 67 c1 0a 3c 4e 95 44 3b d0 3b 7a 3c 51 a5 09 3c
       0.008468962 0.002999622 0.0152730495 0.008401231
000040 8f f0 ef 3b 4b 28 7b 3b 73 e0 d9 ba 91 6b be 3c
       0.007322378 0.0038323577 -0.0016622677 0.023244651
000050 a0 6e 54 bc 16 44 c5 3c 1e 14 8a bd ee 51 87 bb
       -0.012965828 0.024080317 -0.06742118 -0.00412964
000060 65 ca af bc dd a7 09 3b 7f ee e8 3c 53 3a 07 bc
       -0.021458814 0.0021004595 0.028434036 -0.008253652
000070 b3 a8 d9 3c 96 32 92 bb cd 29 7c 3c 27 54 bb 3c
       0.0265697 -0.0044615967 0.015390825 0.022867275
000080 29 25 0f 3d 36 6f a2 ba a5 5d f9 3c de e6 5f 3d
       0.034947548 -0.0012392763 0.030440161 0.05466353
000090 29 4e f8 bc d0 8d 22 bd c6 4e 11 3c be ad 3d b9
       -0.030310707 -0.039686024 0.008868879 -0.00018089169
0000a0 2c cb 4f 3b 53 a1 c5 3c 77 be 04 bc 82 e0 e3 3b
       0.0031706793 0.024124777 -0.008102051 0.0069542537
0000b0 9a ba b2 3c 69 cf 61 3c a2 90 23 3d 6e c2 42 3c
       0.021817494 0.013782361 0.039932854 0.011887176
0000c0 08 79 5d 3d 7b 28 47 3d 12 d7 45 bc 1a 3f 93 bc
       0.054070503 0.04862259 -0.012075203 -0.017974425
0000d0 f8 4b 8a bc 99 e2 ca bb 1f d2 94 3a e8 d8 18 bc
       -0.016881928 -0.0061915633 0.0011354125 -0.009329058
0000e0 59 61 32 39 06 c3 06 3c b1 16 35 3d a8 4b 8f 3b
       0.00017011668 0.008225208 0.044211093 0.0043730326
0000f0 c1 b7 80 bc 2e e6 39 bc fb f5 5e bc b1 61 1d bd
       -0.01571262 -0.011346383 -0.013608451 -0.038423244
000100 63 03 fa 3c 20 6c 44 3b 40 c9 fa 3a 49 fe 28 bb
       0.030519193 0.0029971674 0.0019133464 -0.0025786331
000110 78 37 83 bc c1 ff 2f bc 59 8f 2a bb cd 43 2b 3a
       -0.01601766 -0.010742129 -0.0026025383 0.00065332354
000120 ee fd 61 3a 75 6b fc bc a1 5d e7 3c b6 76 d2 3c
       0.00086209073 -0.030812958 0.028242888 0.025691371
000130 7c 7a e6 3c 25 45 9c 3c aa 7f 01 3d 4e e7 cc 3c
       0.028134577 0.01907594 0.03161589 0.025012638
000140 87 9d 29 3b cf bf 9d 3b f2 a0 78 bc 9e a8 69 3b
       0.0025881247 0.004814125 -0.015175091 0.0035653482
000150 fa e0 3b 3c 2e 1e 1b bb 28 fc 0c bc b2 a4 39 bc
       0.011467213 -0.0023669112 -0.008605041 -0.01133077
000160 e6 c3 93 bc 07 fa 98 b9 14 b4 cb 3b 32 ec d1 bc
       -0.018037748 -0.00029177984 0.0062165353 -0.025625322
000170 8a b0 bf 3c d2 e7 c4 bb ee 73 08 bc ce 22 b7 3c
       0.02339961 -0.0060090804 -0.008328421 0.022355463
000180 8c de 6b 3b 5b 43 17 3d d6 a2 70 3b 29 e1 39 bd
       0.0035990803 0.03692947 0.0036718152 -0.045380745
000190 f3 f2 04 3b 0e 82 2a bc bf 92 f7 3b a1 4b fe 3b
       0.002028641 -0.010406984 0.0075553353 0.0077604805
0001a0 fb 75 fe 3c 46 3e 5d 3c c8 9e a3 3b c8 63 b6 3b
       0.031062117 0.013503617 0.0049932934 0.005566094
0001b0 ba 50 2d 3c 39 41 08 bd 97 78 ee 3b a3 c8 fd 3b
       0.010578329 -0.033265326 0.007277559 0.007744865
0001c0 bf ce 44 3d 5b c1 ba 3b c2 42 f5 3a 43 55 71 bb
       0.04804873 0.0056993193 0.0018711912 -0.0036824502
0001d0 2b c1 88 3a 9d dd 9b 3a c6 f3 16 3c 89 85 bd bc
       0.0010433545 0.0011891607 0.009213394 -0.023134964
0001e0 e1 b3 45 bc 47 29 17 3c 19 9c 8e bc 34 a0 0a bc
       -0.012066812 0.00922615 -0.017408418 -0.008461047
0001f0 91 eb fd b9 93 7e 34 3c 47 be 8b 3c 49 86 62 bb
       -0.0004843143 0.011016506 0.017058505 -0.0034564903
000200 2b 7c 89 3c 2a d4 2e 3c cf 55 df 3b 3c 88 82 bc
       0.01678284 0.010670701 0.006815649 -0.015934102
000210 1c f4 74 bc ab a3 2c 3c 61 75 14 3c ee 51 c0 3a
       -0.014950778 0.010537068 0.009061188 0.0014672854
000220 78 12 05 3d 2c 81 37 bc 38 02 84 bc 86 05 11 bb
       0.032488316 -0.011200231 -0.01611434 -0.0022128536
000230 3d 78 d3 bc 36 d4 45 bc e6 92 50 3c 4b dd e6 3b
       -0.02581417 -0.012074521 0.012730336 0.007045423
000240 97 46 d0 bb 79 93 02 3d 1b 80 af 3c d2 95 5d 3b
       -0.006356071 0.031878922 0.02142339 0.0033811224
000250 fa fa 25 3c f8 71 2e 3c 78 b1 e4 bc 47 ae 2d bd
       0.010130638 0.010647289 -0.027916655 -0.042402532
000260 9d b1 4f bc c0 e9 cb 3c 3e 48 11 bd cc 16 2d bd
       -0.012676624 0.024891734 -0.035469286 -0.04225807
000270 ed c1 a8 bb 30 cf 43 3d 69 bc 4d 3c db 43 5d bc
       -0.005150071 0.04780501 0.0125571275 -0.013504948
000280 9f d7 c2 bb b7 c0 b6 3b 35 6b 47 3c b6 bc 65 3d
       -0.005946114 0.0055771726 0.012171556 0.056088172
000290 a8 5f ef 3c a7 07 50 3d bd 15 22 bc c6 5c 82 bc
       0.029220417 0.050788548 -0.009892878 -0.015913378
0002a0 54 79 52 3c 66 a7 55 3c 66 da 18 bd 8e 7e ce ba
       0.01284631 0.013040399 -0.037317656 -0.0015754269
0002b0 fc 55 11 3d 16 9f f3 3c ca 87 06 bc 47 62 07 3a
       0.03548239 0.029738944 -0.008211086 0.0005164486
0002c0 9e e6 b0 b7 39 be 0a 3d d5 04 49 bd 3c 45 2a 3b
       -2.1088224e-05 0.033872817 -0.049076874 0.0025981208
0002d0 4a f9 01 3d 02 86 da 3c 3d ee c7 bb 73 eb 8f bb
       0.03173188 0.026675228 -0.0061013983 -0.0043920814
0002e0 c7 89 cb 3c 1a ba 03 3d 8b ac 3d bc ce 62 65 3c
       0.02484597 0.032159902 -0.011576782 0.014000608
0002f0 99 46 30 3d 2a 12 09 ba c6 3c 37 ba 20 e5 29 3c
       0.043036077 -0.0005228842 -0.0006989952 0.010369569
000300 23 5c ca 3b 4e a2 b1 3c b4 81 1f 3b 3f b1 8a 3c
       0.0061755343 0.021683838 0.0024338784 0.01693022
000310 9c de cb bb 6a 03 9a 39 fb b8 7b 3c 06 06 51 bc
       -0.0062216055 0.00029375713 0.015363927 -0.012757784
000320 25 60 b3 3c d4 a3 88 bc 7a 02 4e bc 3f 36 7b 3c
       0.021896431 -0.016679682 -0.012573833 0.0153327575
000330 41 8d 60 bc e4 10 c4 3c 96 07 4c 3c 39 48 b8 bc
       -0.013705553 0.023933835 0.0124529805 -0.022495376
000340 1c 33 2a bc 3f ca 80 bc 69 e7 43 3b 43 83 29 bc
       -0.010388162 -0.015721438 0.002989257 -0.010346237
000350 22 ec aa bc 00 ba 0e 3c 4a db 5b 3c 71 71 8d ba
       -0.02086455 0.008711338 0.013418982 -0.0010791254
000360 a7 c2 97 3c 3e 37 e2 3b ef 07 97 3c ef 36 86 bb
       0.018525435 0.006903558 0.0184364 -0.004095904
000370 ea 5a 71 bb 8c c6 39 3c d1 4e 99 bc c3 a1 03 3b
       -0.003682787 0.011338841 -0.01871434 0.0020085431
000380 65 39 d4 3c 49 8f a2 3c 46 36 da ba 5d bf 76 bc
       0.025906274 0.019843714 -0.0016648255 -0.015060273
000390 a2 59 c7 3c 3f 6e cb bb 0d 0a 12 bc f8 d4 ac bc
       0.024334732 -0.0062082107 -0.008913529 -0.021097645
0003a0 55 98 d1 3c 32 88 21 3c 25 ab ff bc 24 d7 24 bd
       0.025585333 0.009859132 -0.031209538 -0.040244237
0003b0 dc f8 77 ba 0b a4 69 3c c9 74 d7 3b bc 55 fa 3b
       -0.0009459385 0.014260302 0.006575201 0.007639615
0003c0 19 16 17 3c 0b e3 06 bd 0b 1c a0 bb 8e 39 02 3a
       0.009221577 -0.03293137 -0.0048861555 0.0004967683
0003d0 f8 9a 90 3c 28 af ca bc 90 74 6c 3c 4b 9b 78 bc
       0.01765202 -0.024741724 0.014432088 -0.0151737435
0003e0 9d 79 da bc 83 df 47 bc 16 52 a1 3c 83 1c a0 bc
       -0.026669318 -0.012199285 0.019692462 -0.019544845
0003f0 58 17 c3 bb 46 a6 85 bc 4a b8 f9 3c 5f ed 98 3c
       -0.0059537105 -0.016314637 0.030483384 0.018667875

module.net.0.bias f4 [32]
000000 d8 00 35 3d 82 42 f6 bc 65 03 eb bc b7 92 aa bc
       0.044190258 -0.03006101 -0.028688142 -0.020821912
000010 1d 29 43 bd 6a eb 5a bc 59 a7 ba 3c ce 52 1a bd
       -0.04764663 -0.013361791 0.022784876 -0.037676625
000020 c0 ca 85 bc 78 66 8b 3c c5 cc 3e bd d6 15 28 bc
       -0.01633203 0.017016634 -0.046582002 -0.010259112
000030 02 ce 52 bd 3b 83 aa bc 8d 19 25 3b f3 48 52 3c
       -0.051465996 -0.020814529 0.0025192231 0.012834775
000040 f4 bb 80 3b f3 cc 9f 3b df 39 9b 3c 8e 86 d9 bc
       0.0039286558 0.004876727 0.018948494 -0.026553418
000050 b2 01 2b bd 76 fe 0c 3b 2c 9c b4 ba ca 45 0b 3c
       -0.041749664 0.0021513975 -0.0013779453 0.008500526
000060 83 03 88 3a cc af 3a 3b 7f 80 b2 bc 92 c2 a3 3c
       0.0010377023 0.002848613 -0.021789787 0.01999024
000070 ba d3 20 3b b8 3c 62 3d c5 60 1f bd 22 63 9f 3d
       0.0024540261 0.055233687 -0.038910646 0.0778258

module.net.2.module.0.weight f4 [32, 32, 3]
000000 67 3d 95 3d e7 f1 88 bc 2c b9 0a 3e ed 0e e3 3c
       0.07287102 -0.01671691 0.135472 0.027717078
000010 c4 ff c1 3d bf 1b fe 3c 5d b2 ca bc ad 49 e9 bd
       0.094726115 0.03101909 -0.024743253 -0.11391006
000020 76 29 57 3a 0e a6 0a be f3 3f bd bb 30 81 9d bd
       0.0008207777 -0.13539907 -0.0057754456 -0.07690656
000030 6f 0a 3d 3d ea 35 a2 bc 66 e3 34 3d 74 fb 28 3c
       0.04615253 -0.019801099 0.044162177 0.010313857
000040 8b e4 8b bd 52 65 c8 bc 6a 5f 5f 3d ec ee 53 3d
       -0.068307005 -0.024462376 0.054534353 0.051741526
000050 ed 23 ab 3d 4f 8c 3c 3d 7f 2d 22 3c bb 27 c8 bd
       0.08356462 0.046032246 0.009898542 -0.09773203
000060 84 65 5c be 5f 21 4c be eb b0 31 be be f8 2e 3b
       -0.215231 -0.19934605 -0.17352645 0.0026698555
000070 8e d6 f7 bd bf af 10 be a5 15 af bd 0b f6 dc bc
       -0.1210147 -0.14129542 -0.0854905 -0.026972791
000080 3c 65 75 3c 75 1a c2 3d 92 d5 9a 3d 96 4d 76 bc
       0.014977749 0.094777025 0.075602666 -0.015033146
000090 63 bc 28 3a 1f 74 8d bc 5e 0a 19 3e 33 f8 eb bd
       0.0006436763 -0.017267285 0.14945361 -0.115219496
0000a0 df 3e 94 3c 8e b8 88 bc 05 69 85 bd da 2f 20 3c
       0.018096386 -0.016689565 -0.065141715 0.009777034
0000b0 73 b0 c1 3d f0 db f5 39 df 11 c2 3d 1a 41 d2 ba
       0.09457483 0.00046893908 0.09476065 -0.001604113
0000c0 20 8e ea 3d e3 dc ba bc 1c 78 92 3d ed cf 06 be
       0.114528894 -0.022810405 0.07151815 -0.13165255
0000d0 6a 0f 36 be 04 79 00 be ee 58 38 3c 01 3f 5b 3d
       -0.17779317 -0.12546164 0.011251671 0.053526882
0000e0 e8 ce 5f bd ce 10 ad bc 23 25 aa bd 19 db b8 3c
       -0.05464068 -0.021126177 -0.083078645 0.022565411
0000f0 af 7b 0e be 43 30 18 be 91 c2 1b be 85 be 86 3d
       -0.13914369 -0.1486216 -0.1521094 0.065793075
000100 a3 d7 b1 3d a9 7d 00 bd 26 90 66 bd 24 ba fa bd
       0.086837076 -0.03136984 -0.056289814 -0.12242535
000110 cf b0 d8 3c 41 6e ed bc e4 ba 37 bc cc 77 b9 3c
       0.026451496 -0.028983237 -0.011213992 0.022640131
000120 c9 7a 58 bd 34 54 41 3d 7c 16 07 3e 03 ec 14 bd
       -0.052851472 0.047199443 0.13192171 -0.03635789
000130 0b 09 35 be 3e 17 22 bd f2 d8 90 3c 18 97 95 bd
       -0.17679231 -0.039572947 0.017681573 -0.073042095
000140 36 13 6d bd 1e 05 92 3d a6 ab 09 3e 0e 41 68 3e
       -0.05787965 0.07129882 0.13444385 0.22681066
000150 5f 59 b2 bd 30 c6 97 3d 17 e5 9c bd b5 44 b1 3d
       -0.087084524 0.07410848 -0.07660883 0.08655683
000160 0c f4 6a 3d 02 05 ec 3c 52 85 aa bd 4a 65 1f bd
       0.057361647 0.028810982 -0.0832621 -0.038914956
000170 4e 5b 45 3d 9d b4 0c 3e 0c 46 3b 3d 75 93 59 3d
       0.048182778 0.13740773 0.0457211 0.05311914
000180 a8 c8 a4 bd 01 69 8c 3d a6 cb 6e 3d 7d 8d 17 3e
       -0.08046085 0.068559654 0.058299683 0.14800067
000190 19 f0 8d 3d 2d 08 5d 3d 3c f3 03 bc b6 6f c5 bc
       0.069305606 0.053962875 -0.008053597 -0.02410112
0001a0 e0 ad 19 3d b9 99 43 bd d9 15 a8 bb c6 d3 32 bd
       0.037519336 -0.047754023 -0.0051295576 -0.043658994
0001b0 1e f2 fc 3d 25 03 8e bb a7 3f 07 3e 3b 38 81 38
       0.12350868 -0.004333871 0.13207875 6.161673e-05
0001c0 7d 9f e3 3d 1f a6 3d 3c 4d 9e dd bd 2a ec 0b 3d
       0.11114404 0.011575251 -0.10821209 0.03416077
0001d0 cc db e7 bc 4c c9 6d 3d 4c 36 76 bd e2 79 8a 3b
       -0.02830305 0.0580533 -0.060110375 0.0042259553
0001e0 24 17 2f 3c 35 69 45 ba 87 34 22 3d 06 5f 15 be
       0.0106866695 -0.00075306307 0.039600875 -0.1458703
0001f0 3b 4e db bd ec 27 80 bd 67 8f 92 bd cf eb 10 bb
       -0.10708281 -0.062576145 -0.07156258 -0.002211321
000200 9d 24 40 3d 0f 1d c2 bd 90 cc 3f bd 2b 65 97 bd
       0.046909917 -0.09478199 -0.046825945 -0.07392343
000210 78 29 f9 3d 68 99 cf 3d de 03 09 3e d0 df 57 bc
       0.12166113 0.10136682 0.13380381 -0.01317592
000220 56 fa dc bd cd ed d8 bd 7d 46 ae bc a2 0d d9 bd
       -0.10789935 -0.10592232 -0.021273846 -0.105983034
000230 f0 c2 ce bd 0d 17 5c 3d 73 4e 00 bc c7 ef b7 bd
       -0.10095775 0.05373292 -0.007831204 -0.08981281
000240 6a 7a 24 3e 0e 68 13 3e c4 5a 0e 3e 1d 09 9d bd
       0.16062322 0.14395162 0.13901812 -0.07667754
000250 76 59 93 bb ec 4f a2 bd 9d d8 96 bd 7a f9 65 bc
       -0.0044967486 -0.079254 -0.073655345 -0.014036531
000260 07 10 68 bb 1f c0 b3 3d 48 ef fe 3c cb 78 07 3e
       -0.0035409944 0.087768786 0.031119958 0.13229673
000270 aa 88 d2 bd 81 3d 93 bd af 34 82 bd ba 7f 64 3d
       -0.10279973 -0.07189465 -0.06357705 0.055785872
000280 9b cd 0d 3d 2e 97 61 bd fe e1 85 3d 9e eb 8e bd
       0.03461991 -0.055075817 0.06537245 -0.06978534
000290 68 10 ba bd 92 24 13 bd d8 8b 2b bd fc 97 25 bd
       -0.090851605 -0.035923548 -0.041881412 -0.040428147
0002a0 6a 51 8f bb fc 01 4c 3d 53 ab dd bb cd 3b 92 3d
       -0.004373719 0.04980658 -0.006764808 0.07140312
0002b0 de e3 19 3d 20 2c 0a bd 5c cb b5 3d 3b 6d 09 3c
       0.037570827 -0.033733487 0.08876678 0.008387859
0002c0 eb 86 7d 3a 7f 59 14 3d c8 d5 c8 3d 2e fe 31 3d
       0.00096712884 0.036218163 0.098064005 0.043455295
0002d0 3c 9e 89 3c b6 d9 a5 bd d8 5f c9 bd ac c4 ce bd
       0.016799085 -0.08098166 -0.09832734 -0.10096106
0002e0 db c5 0d be 60 54 76 3c 1e 42 1a bd 23 ca b7 3c
       -0.13845007 0.015034765 -0.03766071 0.022435253
0002f0 02 92 5a bd f0 57 d3 bd 23 7f 3d bd f1 59 31 3d
       -0.0533619 -0.10319507 -0.046263825 0.043298665
000300 36 b2 5e 3c 44 89 e0 bd 20 dc e4 bd 8b d3 f2 3b
       0.0135922935 -0.10963681 -0.11174798 0.007410472
000310 3d ff 46 3d 4a 0f b3 3c 55 b3 68 bd f0 77 25 3d
       0.048583258 0.021857876 -0.05681165 0.040397584
000320 40 02 ae bd ee 85 a2 bc b0 0d b3 bd c9 1d c3 bd
       -0.08496523 -0.019839253 -0.08742845 -0.095271654
000330 de df 73 3d 2b 02 9c bc 75 25 8c 3d 93 fd 9b 3d
       0.05953967 -0.019044003 0.06843082 0.07616725
000340 71 ba f4 bc 6c 97 b1 bd 46 43 a0 3c fd 07 a6 bc
       -0.029874058 -0.086714596 0.019563328 -0.020267481
000350 cd 20 a3 3d fd 9f 60 bd ea 3e 83 3d e3 1d 0a 3d
       0.07965241 -0.054840077 0.06408484 0.03371991
000360 49 fd bb bd 79 82 52 3d 68 f5 9f 3b be 82 8f bd
       -0.0917917 0.05139396 0.0048815496 -0.07007359
000370 3b ee 5d 3d 4d bf 15 3c 31 74 c5 bd 3c a4 96 bd
       0.054182272 0.009139848 -0.096413024 -0.07355544
000380 a1 89 53 3d 27 00 6c bd eb f7 a1 b9 b2 1d 91 bd
       0.051644925 -0.057617333 -0.00030893026 -0.07085742
000390 ee ca ac bd 10 92 9b bd 18 c2 fa bc 41 69 a4 3d
       -0.08437143 -0.075962186 -0.03061013 0.08027888
0003a0 57 3f 53 bd 90 64 83 3d 8b c0 c4 bd 2a 64 45 bd
       -0.051574077 0.06415665 -0.09607037 -0.048191227
0003b0 b3 64 b2 3c 64 a2 9e bd ed ee 9b bd c2 78 7f 3d
       0.021776533 -0.07745817 -0.07613931 0.062371023
0003c0 ad 06 04 3b 5e c9 d4 bd a7 0b 5a bd 90 01 af bc
       0.002014558 -0.1038997 -0.05323377 -0.02136305
0003d0 29 93 9a bc 0a 9f 70 bd d6 a2 5e bd 4f 1a aa 3d
       -0.018869 -0.05874542 -0.05435451 0.08305799
0003e0 76 75 9c 3c f2 2c 46 bd 79 b2 50 3c e9 ea 8d bd
       0.019098978 -0.048382707 0.012737864 -0.06929571
0003f0 a8 d0 a8 ba 5e 06 cf bd 07 d3 b8 bd 7b b9 d1 bd
       -0.0012879567 -0.10108636 -0.09024625 -0.10240456

module.net.2.module.0.bias f4 [32]
000000 fe cc 49 bc 41 68 95 3d 09 df 35 3d 4b 58 79 bd
       -0.01231694 0.072952755 0.044402156 -0.06087522
000010 28 37 1f 3d 2f 0e aa 3d 96 5c ba 3d 32 1b ce bd
       0.03887096 0.083034866 0.090996906 -0.10063781
000020 41 3a 92 bd 1a 02 8d 3d b0 40 cc 3b e5 56 38 3d
       -0.07140017 0.068851665 0.0062332973 0.045004744
000030 66 bd a5 3c 6d a6 95 3b 79 23 e1 3d a1 af 47 3d
       0.020231914 0.0045669586 0.10993094 0.048751477
000040 8c 0f 7f bd 69 b9 8d 3d b1 29 d8 bb 98 c3 06 bd
       -0.062270686 0.0692013 -0.006596767 -0.032901376
000050 0d 53 88 bd 1c c3 1e 3c ff 79 0d 3b 23 f8 7f 3d
       -0.06656466 0.009690072 0.0021587608 0.0624925
000060 ed 6e 69 3d 3c 65 c8 3d 68 19 27 bc eb 22 00 bd
       0.056990553 0.09784934 -0.010198928 -0.0312833
000070 10 e8 e8 3d 64 c8 95 3c 68 00 1b bc 93 c6 ec 3d
       0.113723874 0.01828403 -0.009460546 0.115613125

module.net.3.module.0.weight f4 [32, 32, 3]
000000 e7 8a 67 3d 5d c0 30 bd 1b f3 ae 3d b5 ba 00 bc
       0.056528952 -0.043152202 0.085424624 -0.007857014
000010 4a 2d bb bc 14 ce ec 3d 6c a2 89 bd 84 83 8f bd
       -0.022848744 0.11562744 -0.06720433 -0.070075065
000020 f4 1d 8c bd 5c 2d 02 be 94 97 5f 3d 70 f6 43 be
       -0.068416506 -0.12712616 0.054587916 -0.19136977
000030 83 d6 7f bc 79 9a cf 3c fd f7 8c 3d 43 95 73 bc
       -0.015615108 0.025342213 0.068832375 -0.01486713
000040 b5 63 92 3d 19 00 23 3d 10 f9 84 bd 96 c4 20 3d
       0.07147924 0.039795015 -0.064928174 0.03924998
000050 f7 af 46 bd 49 16 a8 3d ef cc 9c bd 24 ff 0e 3d
       -0.048507657 0.082073756 -0.076562755 0.03491129
000060 fe cc 12 be 5d 03 00 3d 16 cb 02 be 34 0f c0 bc
       -0.14336011 0.031253207 -0.12772784 -0.02344475
000070 e6 1a 3a bd 07 be 69 bd c5 ce fe bd 79 15 d3 3c
       -0.04543581 -0.05706599 -0.12441782 0.025767075
000080 b5 65 e7 bd 92 56 87 bc de 84 db 3d cc 48 62 bd
       -0.11298696 -0.016520772 0.10718702 -0.055245206
000090 a3 ee 77 3d 3a 5f d3 3d ab 10 04 3e 8d 76 bb bd
       0.060530316 0.103208974 0.12896983 -0.09153471
0000a0 56 dc 3f 3d d6 cb 09 3d 0f 1b f6 bc c5 f6 8e bd
       0.046840988 0.03364166 -0.0300422 -0.06980661
0000b0 e0 9e 84 3d 9f b0 16 3d 40 77 a2 ba 65 57 43 3d
       0.064756155 0.036789533 -0.0012395158 0.047690768
0000c0 51 4c a5 3d 45 b2 6f 3d 8f 60 a4 3d 94 4d 47 3d
       0.08071197 0.05851962 0.080262296 0.04865797
0000d0 48 f5 36 3d 03 e1 1b bd 36 e5 ba 3c f3 b6 cb 3c
       0.044667512 -0.038056385 0.022814374 0.02486751
0000e0 16 72 73 3d 6b 2b bb 3d 2a 5b c0 bb d7 34 5a bd
       0.059434973 0.09139141 -0.0058702426 -0.05327305
0000f0 aa 57 a7 bd 25 5a 9e bc 6b e2 ca 3c 68 74 e8 3d
       -0.081710175 -0.019330094 0.024766168 0.11350328
000100 0b 16 95 3d 2e 39 05 3c f7 85 0a bd 3d f2 ca bd
       0.07279595 0.0081313085 -0.033819165 -0.099094845
000110 1c ca a3 bb 3c 0e 80 3d 48 5b 3e bd ab 80 88 3d
       -0.0049984585 0.06252715 -0.04647377 0.066651665
000120 e2 ae c8 3d b4 42 70 3d 73 c3 f3 bc bc ea 8d bd
       0.09798981 0.058657363 -0.029756283 -0.06929538
000130 be 4f c5 3d 76 b3 78 3c 05 3d ff 3b 71 30 ae bd
       0.0963435 0.015179506 0.0077892565 -0.08505333
000140 ee 3d 37 bd e0 f2 af bc 51 05 e7 3d 61 6c 42 3e
       -0.044736795 -0.021478117 0.11280311 0.18986656
000150 2e 05 0c 3d c6 c2 66 bd 8c 30 94 3d a8 c1 53 3d
       0.034184627 -0.056338094 0.07235822 0.051698357
000160 5a 62 69 bd 34 0b 26 bd d1 a9 d5 3d 3b cd 44 bd
       -0.05697856 -0.040538028 0.104327805 -0.048047286
000170 d2 de 87 bb 14 0c 84 3d be ba a3 3d 10 5a e1 3d
       -0.0041464353 0.06447616 0.079946026 0.11003506
000180 b4 48 54 3d ff 6e 17 3d c7 44 fa bb 7a 5e f1 3d
       0.051827148 0.03697109 -0.0076375934 0.11785598
000190 46 7a 12 3d 90 7a e7 3d e9 28 0d bd 95 12 cc bd
       0.03576114 0.11302674 -0.034462843 -0.09964482
0001a0 d6 fc 36 bd ee 62 66 bd 2c cd 16 be d9 83 46 3b
       -0.044674717 -0.05624669 -0.14726704 0.003029099
0001b0 79 ba 82 3d 88 ef 56 bd 60 68 c1 3d a7 98 59 3d
       0.06383223 -0.05247453 0.09443736 0.053124096
0001c0 9a 4e 2a bc a2 f1 3f bd 0b da d0 bd ac 9a 0f bd
       -0.010394717 -0.0468613 -0.101978384 -0.035059616
0001d0 67 c2 4d bd 34 84 88 3d 0f f5 c7 3d 46 70 b5 3d
       -0.050234225 0.06665841 0.09763538 0.08859305
0001e0 83 f6 87 3d c3 fe a6 bd ad 5b cb 3b dd f1 e7 bd
       0.06638815 -0.08154061 0.006205997 -0.11325429
0001f0 5b 31 be bd 63 ab 40 be e8 26 12 be d8 9d 0a bd
       -0.092867576 -0.18815379 -0.14272654 -0.033841938
000200 74 87 78 bd 64 cb 85 bd 4c 16 66 bd 2b 54 e7 ba
       -0.060676053 -0.06532934 -0.056173608 -0.0017648985
000210 97 9e 52 3d a4 78 f2 3d ab de a7 3d be 2d e2 bd
       0.051420774 0.118394166 0.081967674 -0.11043881
000220 39 80 51 3c 43 03 e5 3c 51 d1 12 be 73 9a c5 3c
       0.012786918 0.027955657 -0.1433766 0.024121499
000230 8f a9 3d 3a 6d de 07 bd 7d 0b 46 bd 6c 64 83 3c
       0.0007235044 -0.033171106 -0.0483508 0.016039096
000240 74 9d f9 3d 61 f3 02 3e e4 be 87 3d 63 2a 86 3d
       0.12188235 0.12788154 0.06628206 0.065510534
000250 b7 a8 f5 bc 30 01 17 3d c1 67 6b 3d 25 10 9c bd
       -0.029987676 0.036866367 0.057471994 -0.07620267
000260 4a 2a c6 bc 2a cc 1e 3e 0f c6 2a 3e eb 78 02 3e
       -0.024190087 0.1550757 0.16677116 0.12741439
000270 7f cb b0 bd c0 9a a6 3d 2f 34 9e bd 4c 5f 3e 3d
       -0.08632564 0.08134985 -0.07724797 0.0464776
000280 f0 34 27 bc 29 39 c8 3d a0 17 e3 bd e1 3b 8c bc
       -0.010205492 0.097765274 -0.110884905 -0.017118396
000290 6b 8b cb bd e4 a1 09 bd e7 45 bc bc 33 a8 87 3d
       -0.09938701 -0.033601657 -0.02298255 0.06623878
0002a0 b5 1e de bb 35 87 1e be dd 13 25 be 63 2e c4 bd
       -0.006778563 -0.15481265 -0.16120858 -0.0957916
0002b0 8a 1c d6 bd bd 51 f0 bd 7c 60 76 bd 37 35 9f 3d
       -0.10454662 -0.1173434 -0.06015061 0.07773822
0002c0 2d 54 73 3d 5d 45 d9 3d a6 a1 ea 3d ba 24 33 3e
       0.05940645 0.10608933 0.11456613 0.17494479
0002d0 12 d9 31 be eb f6 8b 3c d7 21 76 bb cc ac 87 bc
       -0.17367962 0.017085513 -0.0037556791 -0.016561888
0002e0 8b 2c 42 bd cd 00 00 be 92 41 c0 bd 47 40 50 bd
       -0.04740576 -0.12500305 -0.093875065 -0.05084255
0002f0 bd e3 f4 bd 65 38 79 bd 73 8f 5e 3d 53 cb 49 3d
       -0.119575 -0.060844798 0.054336023 0.04926617
000300 17 24 5e 3b 1b 97 e3 bc af dc f6 3c 43 c6 c2 bd
       0.0033896023 -0.027782014 0.030134527 -0.09510472
000310 fe 2c 39 be f3 2e 34 be 19 8d 4c 3c 7a 4d 57 bd
       -0.1808357 -0.17596035 0.012484812 -0.05256412
000320 ed 90 5e 3d 00 55 0b 3c 10 ce 02 3d 08 c0 cb 3d
       0.05433743 0.008504152 0.031934798 0.099487364
000330 14 3d bf 3d 1e f5 04 3d 79 73 c8 3d 9a f9 a7 3d
       0.093378216 0.032460324 0.0978765 0.082019046
000340 c9 bf c6 bc b5 77 db bd 85 e6 75 bd 60 63 3d 3d
       -0.024261372 -0.10716192 -0.060034294 0.04623735
000350 60 e3 15 bd 0a 3a 15 3d bc 6e 02 3d 68 87 05 3c
       -0.036593795 0.036432303 0.031843886 0.008149959
000360 4b 0e 1b bd bd 6d c1 3c 49 89 4a bd a6 35 d1 3d
       -0.037855428 0.023611898 -0.04944733 0.10215311
000370 2b 01 55 3d 04 96 9e 3d 52 84 76 bd 51 87 dd bc
       0.052003067 0.07743457 -0.060184784 -0.027042063
000380 4a c5 87 bd ef 4d 5c 3d 1a 22 9c bb f1 25 a7 3d
       -0.06629427 0.05378526 -0.0047648074 0.081615336
000390 32 c0 55 3c 2a 8a a9 bc dc f2 a2 bc 91 d1 f6 bc
       0.013046311 -0.020695765 -0.019891195 -0.030129226
0003a0 7f 89 a6 bd fc 67 f6 3c 3a c5 4b 3c 73 9d 47 3d
       -0.08131694 0.03007888 0.012437159 0.04873414
0003b0 17 45 d5 3d a9 45 07 3d 3d a5 ef 3a aa 25 84 3c
       0.104135685 0.033025417 0.0018283498 0.01613124
0003c0 f7 6f d9 bd e4 f9 04 bb 9c 7a 8b 3c 46 ce f3 3d
       -0.10617059 -0.0020290548 0.017026238 0.11904578
0003d0 d7 fd 44 bb 69 c9 f2 bb 11 b6 c4 bd 87 01 bc 3d
       -0.0030058527 -0.007409264 -0.09605039 0.09179979
0003e0 4e c0 97 3c 12 c9 b3 3c b6 75 a1 3d 17 24 d7 bd
       0.018524315 0.021946464 0.0788378 -0.105049305
0003f0 9e ad 08 3c 28 95 6d 3d 48 16 80 3d 48 69 c8 3b
       0.008342175 0.058003575 0.0625425 0.006116066

module.net.3.module.0.bias f4 [32]
000000 b1 ac b6 bc 33 7f 36 3d 94 d7 aa 3d ef 0f 1d 3d
       -0.022299143 0.0445549 0.083418995 0.038345274
000010 a1 43 cb bd 56 9d 32 3d 38 39 91 3d 35 67 b0 3c
       -0.099250086 0.04360708 0.07090992 0.021533588
000020 06 e5 72 3c 06 d9 e0 ba 9c d3 99 bd a1 15 8b 3d
       0.014825111 -0.0017154522 -0.075110644 0.06791235
000030 51 6d 36 bd 84 9c 95 3d 4d 2e 14 3c 46 48 49 3c
       -0.044537846 0.073052436 0.009044242 0.012285298
000040 16 14 8e bd 13 f0 d2 bd eb d0 c2 3d 41 08 97 3c
       -0.06937425 -0.10299697 0.09512504 0.018436553
000050 59 8e 7f 3d e1 5e c7 3c a5 4e 9e 3c e4 53 6a 3d
       0.062391613 0.024337234 0.01932461 0.05720891
000060 26 67 0d 3c 49 8c 58 3c 88 74 86 bd 49 a7 25 bc
       0.00863055 0.01321704 -0.06565195 -0.010110685
000070 cb ea f5 bc 3b 55 59 3d 4a b6 c6 bb f5 1b dd 3d
       -0.030019185 0.053059798 -0.006064211 0.10796348

module.net.4.module.0.weight f4 [32, 32, 3]
000000 f6 9e 41 bd 5e fa a9 3c ee 57 96 bd 37 e7 d5 3c
       -0.047270738 0.020749267 -0.0734099 0.026111228
000010 ab 72 d3 3c c6 2a c6 3d fa dd 39 3d 81 6c b7 3b
       0.025811514 0.09676127 0.04537771 0.0055976515
000020 64 57 79 bd 84 66 c5 bd 67 9d 97 bd ff 70 b4 3b
       -0.060874358 -0.09638694 -0.07403069 0.0055066342
000030 f3 49 74 3d 45 5d c1 bd 99 ce 8d bd 5d aa 92 3d
       0.059640836 -0.09441618 -0.06924171 0.071614005
000040 ec 54 46 3d 63 95 41 3d c7 37 ac 3d 88 40 2a bd
       0.04842083 0.047261607 0.08409076 -0.041565448
000050 ef 4a 19 3c 73 21 81 3c 7d 35 17 bb 5c 86 d6 bd
       0.0093562445 0.01576302 -0.0023072653 -0.10474846
000060 33 c7 85 bd 84 ff 11 3d 4b 20 04 bd e1 2e 98 3c
       -0.06532135 0.03564407 -0.03225736 0.018577041
000070 28 f8 c6 bd 77 f3 cb bd 86 87 38 bd b9 23 03 bd
       -0.09715301 -0.099585466 -0.04505112 -0.03201649
000080 58 55 b3 3d 4d e7 32 bd 9b 99 93 bd 64 5d 83 bd
       0.087565124 -0.043677617 -0.07207032 -0.06414297
000090 45 1c 26 bd f6 6a 1c 3c 1f 57 9f bd 3a ac bb 3d
       -0.040554304 0.009546986 -0.07780289 0.09163709
0000a0 07 45 1e 3d cf 6a 48 3b 4d 93 1e 3d 78 ac 0a bd
       0.03864005 0.003058124 0.038714696 -0.033855885
0000b0 e2 55 31 bd cb 39 ab bc 01 55 86 3d c7 f8 96 3d
       -0.043294795 -0.020901581 0.06559182 0.07371669
0000c0 53 f6 6a 3d 34 c0 b7 3d 4a c9 2d 3d 0f bb 77 3b
       0.05736382 0.08972207 0.042428292 0.0037800705
0000d0 99 ef 94 3c dc 6a 14 3d 6d d8 8f 3d 69 2e 81 bd
       0.018180655 0.03623472 0.07023702 -0.0630768
0000e0 8b 16 c8 3c b4 45 9b bd 46 f8 9f bd 61 09 c6 bc
       0.024424812 -0.07581654 -0.07811026 -0.024174394
0000f0 de 3b 80 bd df 48 25 3d e1 62 cc bd 9a bf 14 3d
       -0.06261419 0.0403527 -0.09979797 0.036315538
000100 05 97 cd bc b0 57 84 bd 3f 9c 61 3d 1d 3f bd 3c
       -0.025096426 -0.064620376 0.05508065 0.023101384
000110 3c f0 aa 3d 56 45 57 bd ff 21 3e bc d9 b3 9b 3d
       0.08346602 -0.05255636 -0.011604785 0.076026626
000120 cb b5 3b 3d ca c4 df bd c3 ff da 3b e6 f3 8f bd
       0.04582767 -0.109262064 0.006683321 -0.07028942
000130 ac 71 ba bd 46 5f 19 bd a9 97 15 bd 72 22 da bd
       -0.091037124 -0.037444375 -0.036521588 -0.10651101
000140 24 5b 86 3b cc 6e 36 bd 31 14 df bc 4b fa 95 bd
       0.0041002203 -0.044539258 -0.027231308 -0.0732313
000150 d1 7a 87 bd a0 1d 80 3c 87 34 9e 3d 12 6e 38 3d
       -0.06615222 0.015639126 0.077248625 0.045026846
000160 dd 55 99 3d 46 fd 05 bd 9a 69 83 3d 49 d0 49 3d
       0.0748708 -0.032712243 0.06416626 0.0492709
000170 5a 6c 9c bb 53 b2 ab 3d c7 1c 80 3d 59 e0 15 bd
       -0.0047736587 0.08383622 0.06255489 -0.036590908
000180 8f e5 3d bd 3b e1 46 3a 97 1f d1 3d 8b f5 02 3e
       -0.046361502 0.00075866625 0.102111034 0.1278898
000190 51 09 72 3c 08 75 24 3e bb 25 8e bd 75 19 ee bd
       0.014772729 0.16060269 -0.0694079 -0.11625949
0001a0 f1 74 e9 bd 5e 24 9b bd 0c c0 17 bd 29 5a 8a bd
       -0.11399258 -0.07575296 -0.037048385 -0.06755478
0001b0 19 df 17 bb 73 d5 83 bd 46 33 68 bd cd b9 a2 3d
       -0.0023173748 -0.064371966 -0.056689523 0.07945595
0001c0 99 dc a9 3d a5 50 4f 3d d4 f9 5b ba 2c b8 97 3d
       0.08294029 0.050614018 -0.00083914143 0.07408175
0001d0 70 bb 9e bd 5e be f8 3d bd e6 f5 3c b7 23 87 3d
       -0.077505946 0.12145685 0.030017251 0.06598609
0001e0 c6 9e aa 3b ad c2 bf 3d 49 29 01 3e f9 b6 58 bd
       0.0052069155 0.09363303 0.12613405 -0.05290887
0001f0 9f 2a ba bd d9 3c 6b 3d fe 9b fc bc 11 27 09 bd
       -0.090901606 0.057431076 -0.030836102 -0.033484522
000200 3d d3 86 bc 08 f4 78 3c d1 59 f4 3c d9 60 0d 3d
       -0.016458148 0.0151949 0.029827984 0.03451619
000210 80 6e 55 3e e9 2a 84 3d ab 70 45 3e b9 e8 c1 bd
       0.20842934 0.06453497 0.1928126 -0.094682164
000220 48 0a b0 3c dc e6 44 bb 32 a6 be ba 06 f5 09 3d
       0.021489277 -0.003004483 -0.001454538 0.03368094
000230 71 e3 f1 3c c5 d0 67 3d 9b 78 73 3d 23 49 b0 bc
       0.029527398 0.056595583 0.05944119 -0.02151925
000240 9b fb 6b bd 2a d3 35 3d d1 df ba 3d ad 3a 92 bd
       -0.057612997 0.044390835 0.09124721 -0.07140098
000250 5b 59 96 bd 2d 3d 15 3d 16 0c 31 bd 68 c6 f3 3c
       -0.07341262 0.036435295 -0.043224417 0.029757693
000260 2f ba e1 bc 30 69 84 3d e3 2c 97 3d ca 08 17 3e
       -0.0275546 0.064653754 0.07381608 0.14749447
000270 34 0d ee ba d2 76 b5 3d 37 62 ff 3c 07 9c 15 3d
       -0.0018161894 0.08860554 0.031174762 0.036525752
000280 04 ae 5e 3a 51 ce f2 3d 4f d4 ec bd fb 13 f6 bd
       0.0008494558 0.11855758 -0.11563932 -0.1201553
000290 af 9e fa 3c bf 66 60 bd f2 49 59 bc 34 6b 34 3d
       0.030593244 -0.054785486 -0.013262259 0.04404755
0002a0 39 2a 3e bd 34 e5 a3 3d 2c 10 e9 bd 78 39 c5 3d
       -0.046426985 0.080027014 -0.11380038 0.09630102
0002b0 c9 d0 e9 3d 40 9d 03 3d 60 a9 97 3d 81 91 4f 3d
       0.11416776 0.032132387 0.074053526 0.050675873
0002c0 7d ce 1e bd 33 cb a8 bc 98 bb 35 3d 10 bb b9 bc
       -0.03877114 -0.020604705 0.044368356 -0.022672206
0002d0 2a 5c 70 3d 80 e4 d2 3d a6 e4 b0 3d df d9 74 bc
       0.058681644 0.10297489 0.08637361 -0.014944523
0002e0 44 3f f5 bc 7f 10 51 bd 42 75 f1 bc 85 81 d3 bd
       -0.029937394 -0.051041123 -0.029474858 -0.10327438
0002f0 91 94 b5 bd 09 d6 01 3c 9b 2c 95 3d a7 94 02 bd
       -0.088662274 0.007924565 0.072838984 -0.031880047
000300 bc 3b e2 3c 49 0a 5e bd ec 23 b9 3d b6 46 99 3c
       0.027616374 -0.054209027 0.09040055 0.018710475
000310 0c 85 d5 3c ed e4 f8 3c 0a 55 d3 bd 26 43 0a be
       0.026064418 0.030382598 -0.10318954 -0.13502178
000320 f2 09 d8 b9 91 76 7f 3d f9 99 00 3d 1e f5 ec bc
       -0.0004120614 0.062368933 0.03139684 -0.028925475
000330 b1 52 38 3c cc e3 69 3d c8 32 9a bd 4d d5 a1 3d
       0.011250184 0.05710201 -0.07529217 0.07902012
000340 9b 0c 3c 3e 9b 66 88 3c 9a ff 1d bd b0 d8 bc bc
       0.18364184 0.016650489 -0.03857384 -0.023052543
000350 06 e4 06 bd d6 04 c6 bd 65 02 bc 3d dc 0c 0a 3a
       -0.032932304 -0.09668891 0.09180144 0.00052661984
000360 e0 c6 c8 3d 13 a1 93 3d 21 2b 6c 3d 36 87 82 ba
       0.098035574 0.07208457 0.05765832 -0.0009958509
000370 44 3c 00 3c b2 9a a2 3d a6 46 c4 3c 7e e3 bd 3d
       0.007826868 0.07939662 0.023959469 0.09271906
000380 ff 54 9e bd 2b bb 8f 3d db bc a3 3d 1e 47 9c 3d
       -0.077310555 0.07018121 0.07995006 0.07630752
000390 8c b6 f0 3d e8 f1 28 bd e2 1f 35 3d ea a0 a6 bd
       0.11753568 -0.041246325 0.04421986 -0.08136161
0003a0 48 a8 fd 3c ec 27 52 3b 42 a9 e4 bd 28 6d 85 bd
       0.030964032 0.0032067252 -0.11165096 -0.065149605
0003b0 fc d1 93 bd 69 ac 77 bd 17 ec 93 bd 63 2b 89 bd
       -0.07217786 -0.060467158 -0.07222765 -0.066977285
0003c0 9f 03 a8 3d c8 c4 fc bc 03 57 92 bd 74 c8 7d 3d
       0.08203816 -0.030855551 -0.071455024 0.061958745
0003d0 08 70 43 bb a7 bb 74 3c 53 29 23 3c f2 96 45 3d
       -0.0029821415 0.014937318 0.009958583 0.048239656
0003e0 d7 85 fd 3d 40 9c d4 bb 73 34 f8 3c b1 a3 2d bd
       0.123790435 -0.006488353 0.030298447 -0.042392436
0003f0 45 f1 59 3c 4c d8 ff 3d 9f 86 8e 3d de 36 16 be
       0.013302152 0.12492427 0.06959271 -0.14669368

module.net.4.module.0.bias f4 [32]
000000 e3 8a 90 bd e4 04 29 3d af c4 32 bd 7d 5d ae bd
       -0.070577405 0.04126443 -0.043644603 -0.08513925
000010 65 cb 29 bd 0f 55 08 3d 9b 9f 22 3c 3a be 61 3d
       -0.041453738 0.033284243 0.009925748 0.055113055
000020 49 a5 f8 bc b6 63 44 3d 20 36 30 bd ff c2 c6 3d
       -0.030352252 0.047946654 -0.043020368 0.09705161
000030 38 15 18 3c 49 c8 cb 3d 1f 31 26 3d 50 d4 e7 3c
       0.009282403 0.09950311 0.04057419 0.02829948
000040 70 6e 62 bd 1e e3 8d 3c 37 ce f0 3d 97 96 a7 bc
       -0.055281103 0.017320212 0.11758082 -0.020457549
000050 6d da 1a bd 6b d4 63 3d ab d6 79 3d fc 60 5f 3c
       -0.037805963 0.0556225 0.06099574 0.013633963
000060 af 0a 23 bd 46 24 58 bd ac b0 9c bd 9d d0 ed 3d
       -0.03980511 -0.052768968 -0.07650885 0.116120555
000070 da 1c ec 3d 9d ac d1 3d f5 52 1b bc 27 15 c1 3d
       0.115289405 0.102380015 -0.009480228 0.094278626

module.net.5.weight f4 [32, 32, 3]
000000 53 3c ce 3d 66 d2 6e bd fa 63 d8 3d 56 d8 07 3e
       0.100701 -0.05830612 0.10565944 0.1326612
000010 48 f9 0f 3e 67 12 ad 3d 5e 12 94 bc 0a 8f 2f 3d
       0.14059937 0.084507756 -0.018075164 0.042861022
000020 e7 23 8c bc 39 27 f6 bc 01 32 ec bd 8d 11 58 3d
       -0.017106963 -0.030048 -0.11532975 0.052751113
000030 62 e6 13 bd e7 e6 c1 bd fd fb 43 bb 26 81 d9 3b
       -0.036108382 -0.09467869 -0.0029904835 0.00663771
000040 0c 73 87 bd b1 09 0c 3e ac ff ab bc 76 e4 d7 3c
       -0.0661374 0.13675572 -0.020995937 0.026354056
000050 38 cf 4e 3d 13 bd ac 3c 6b 94 8e 3d f5 b5 ab bd
       0.050490588 0.021086251 0.06961902 -0.08384315
000060 1a 1a 3d be 15 4f 25 bc 0d 87 05 be dd cc a0 3d
       -0.18466988 -0.010089655 -0.13039799 0.078515746
000070 0c 22 f6 bc 11 e2 99 3d 53 9b 4f bd d0 90 42 3b
       -0.030045532 0.07513822 -0.050685238 0.0029688366
000080 6b 05 86 3d 21 1a db bd 04 fd b9 bd 85 2a f0 bd
       0.06544002 -0.10698343 -0.09081462 -0.1172686
000090 55 ff 0e 3d df 35 cc 3c ce 80 d1 3d ed 6f 33 bd
       0.034911472 0.024928031 0.10229646 -0.043807913
0000a0 b3 9b a2 bd a1 88 2e be 81 1a d6 3d 8b 53 10 3c
       -0.079398535 -0.17044307 0.10454274 0.008808981
0000b0 21 7a 09 bd 99 62 50 bc f1 94 34 bd 26 76 2e 3d
       -0.033563737 -0.01271882 -0.044087354 0.042593144
0000c0 a4 a8 89 bc 54 7a cb bd ca 14 08 bd 62 78 48 be
       -0.016804047 -0.099354416 -0.03322295 -0.19577172
0000d0 fb 25 31 be 27 9e a8 bd 6d c7 00 3e 0c 4a f9 bc
       -0.17299645 -0.0823329 0.12576075 -0.030430816
0000e0 c6 6d bc 3d 9e 18 80 3d 5f c5 f4 bd 14 60 cb bd
       0.09200625 0.06254695 -0.11951708 -0.09930435
0000f0 87 05 1f 3c 54 14 10 bd e0 64 f4 3c ca 2f fc 3d
       0.009705908 -0.035175636 0.029833257 0.123138025
000100 af 11 39 3d c6 cf 26 3d 69 d2 23 bc 01 29 0d be
       0.04518288 0.040725492 -0.009998896 -0.13785173
000110 44 d5 53 be a9 b3 0a bd 51 44 9b 3d 22 0b 95 3d
       -0.20686823 -0.033862744 0.0758139 0.07277514
000120 ef b5 e3 3c 34 b2 98 3c 5a a3 1c 3d e1 72 3f 3d
       0.027796714 0.018639661 0.03824172 0.046740416
000130 be b1 8f bd 23 f8 1b bc 8b 35 ee bd 2a 37 da bd
       -0.070163235 -0.00951961 -0.11631306 -0.10655053
000140 cc 42 91 bb 19 ab 09 3e 60 6c a4 3d 6b 24 3e 3e
       -0.0044330116 0.13444175 0.080284834 0.1856858
000150 2a 47 d2 bc 90 d3 fb bd 42 90 5c bd b4 7c 14 bc
       -0.0256687 -0.12296212 -0.053848512 -0.009062935
000160 73 9d b8 3d ea 60 31 bd f3 d6 21 3b 55 81 44 3d
       0.09014406 -0.043305315 0.002469477 0.047974903
000170 8d 9d 80 bd b5 e6 c4 3d 90 13 38 3b f4 18 f7 3d
       -0.062800504 0.096143164 0.0028087832 0.12065306
000180 e7 2c 42 3d 40 f2 04 3d 5b 34 d3 bc 2c 68 01 3e
       0.047406103 0.03245759 -0.025781801 0.12637395
000190 12 29 df 3d 3f 50 0a 3e da f7 e8 3d 49 a1 84 3d
       0.108965054 0.13507174 0.11375399 0.06476075
0001a0 e8 92 9e bd ed 0c e3 3d 45 46 91 bd 23 43 5a bc
       -0.07742864 0.1108645 -0.07093481 -0.013321671
0001b0 b5 e9 8e 3d 70 58 c8 3d d4 5e 38 3c 96 96 70 3d
       0.0697817 0.09782493 0.011253078 0.05873736
0001c0 1d 68 47 3d 17 91 0d bd df 25 99 ba be 4d c5 bc
       0.048683275 -0.034562197 -0.001168426 -0.024084922
0001d0 e3 30 06 3c 4b a6 b1 3d 79 66 b2 bd 4a 9f de bc
       0.008190366 0.08674296 -0.08710951 -0.027175564
0001e0 3d e7 1c 3e 1f 14 fb 3d 72 48 dd 3d ba 0a ec 3a
       0.15322585 0.12259697 0.108048335 0.0018008568
0001f0 df 79 76 3d 99 1d 88 bd b9 95 99 bd c2 e5 e8 3c
       0.06017482 -0.0664627 -0.074992605 0.02842987
000200 a7 6e 8f bd 69 0d 96 bd 3e 13 98 bd 8d 7f a5 bd
       -0.07003527 -0.073267765 -0.07425545 -0.08080969
000210 3e 14 4c bc 3b 1e 8c bd ad f0 d8 3d 35 59 3e bd
       -0.012455998 -0.068417035 0.1059278 -0.046471793
000220 45 f8 0f 3b d5 05 55 3d cc f6 f8 bd 7b b2 3c bd
       0.0021968049 0.052007515 -0.12156448 -0.04606865
000230 0f a0 f9 bd 67 6d 53 bd 1e d5 a3 bd 04 5a a8 bd
       -0.12188732 -0.051618006 -0.07999633 -0.08220294
000240 4a 7d c2 3d ab 9c 9d 3d 83 18 5a 3d 78 22 42 bd
       0.09496553 0.07695898 0.053246032 -0.047396153
000250 81 42 23 3d 28 5e c3 3d 87 af 01 be b8 8b 91 bd
       0.039858345 0.09539443 -0.12664615 -0.07106727
000260 ac 9e 67 bd a3 01 03 bd 0f 01 19 bc dd 82 80 3d
       -0.056547806 -0.031983983 -0.009338631 0.0627496
000270 f7 17 d7 ba cd 98 b2 3d d4 b0 15 3d a4 0f bb 3c
       -0.001641034 0.08720551 0.03654559 0.022834606
000280 90 fd 42 3d 7c 3a e4 3d b5 12 cb 3d b0 6b 03 bd
       0.047605097 0.111439675 0.099156775 -0.03208512
000290 59 a3 09 3e f6 23 3d bd 7a 53 b5 bd 89 26 0e 3c
       0.13441218 -0.046176873 -0.088538125 0.00867618
0002a0 da 09 34 be 5b 7b 33 bd d9 36 b8 bd f6 40 c8 bc
       -0.17581883 -0.043818813 -0.08994836 -0.024445038
0002b0 28 f7 a6 3b e6 24 78 bc b6 c8 b1 3c 66 b2 d2 3d
       0.0050953813 -0.015145516 0.021702152 0.10287933
0002c0 6d 75 17 3d df 9b b8 bd dc a6 7d bd 64 68 8f bd
       0.03697722 -0.09014105 -0.061926708 -0.07002333
0002d0 31 bb 42 3d 52 28 8d bd e3 03 8f bc 9b f0 8b bd
       0.0475418 -0.06892456 -0.017457908 -0.06833001
0002e0 80 86 ec bd 2b 95 22 3d 70 af a6 3d 98 9f c5 bd
       -0.11549091 0.03969304 0.08138931 -0.09649581
0002f0 5c f9 99 bc 05 e8 06 be 1e 4d c4 bd 29 76 10 be
       -0.018795662 -0.13174446 -0.095850214 -0.14107575
000300 ae e9 29 3b 32 bc fe bb 84 dd 7b bd 09 89 98 bd
       0.0025926637 -0.0077738995 -0.06149055 -0.074480124
000310 00 a2 fe bc 45 ee 24 be 0f a6 60 3c 16 59 18 bd
       -0.031083107 -0.16106518 0.013711466 -0.037194334
000320 7f f9 32 3c 98 90 bb bd 18 5f 89 3d f3 01 14 bd
       0.010923742 -0.091584384 0.06707591 -0.03613467
000330 1b 3b d1 bd c9 47 b2 3b bd 20 c3 bc e1 33 40 bd
       -0.102163516 0.0054406864 -0.023819322 -0.046924476
000340 90 2e 71 3d a3 6d 1f 3d 00 79 31 3c e0 19 cc 3d
       0.058882296 0.038922917 0.010832071 0.09965873
000350 c7 26 5c bd f8 eb 69 3d 90 7c 6b 3d fd a4 29 bd
       -0.05374792 0.057109803 0.05749184 -0.04141711
000360 c7 17 00 3d 7e d5 7b bd ef f5 70 bd a4 cd 2c bd
       0.031272676 -0.0614829 -0.05882829 -0.0421883
000370 80 68 13 bd 06 c9 03 bd 71 eb 81 3d 59 51 d1 bd
       -0.03598833 -0.032174133 0.06343735 -0.10220594
000380 ea 7f cb 3d 79 60 47 3d c4 18 92 bd 13 93 9f 3d
       0.09936507 0.048675988 -0.0713363 0.07791724
000390 40 8c fe bd 3d 43 c6 bd 7d c6 ed bd 68 2f 49 3d
       -0.12429094 -0.096807934 -0.11610124 0.049117476
0003a0 2f 10 09 bd e5 32 04 3c b1 b1 0b 3e a1 fe 09 3e
       -0.0334627 0.008068775 0.13642003 0.1347604
0003b0 3d 8d 93 3d 74 1d be bd 03 56 ae bc 04 d6 a4 bd
       0.072046734 -0.092829615 -0.021281248 -0.08048633
0003c0 f4 00 18 bd 8f 60 dc bd 00 c5 63 3d d4 cc 06 3c
       -0.037110284 -0.107606046 0.055607796 0.008227546
0003d0 3f 37 94 3d 28 8d 41 3d f9 58 d0 3d 06 05 22 bd
       0.072371 0.047253758 0.1017322 -0.039555572
0003e0 b2 42 6c bc 19 89 a5 bd 68 12 2b bc 2b 88 f1 bd
       -0.014420198 -0.0808279 -0.0104414 -0.1179355
0003f0 4d 03 8b 3d a9 1f be 3b 57 53 f0 bc 30 69 fd bd
       0.06787739 0.005802114 -0.029336615 -0.123735785

module.net.5.bias f4 [32]
000000 5d 3c a2 bd 97 cf a6 3d 3e 7d 90 bb 00 d2 9d bd
       -0.0792167 0.08145063 -0.0044094613 -0.0770607
000010 36 c6 a2 3c a8 2f 81 3d 5e f0 c3 bc 3f 4a 90 3c
       0.019869905 0.06307918 -0.023918327 0.017613528
000020 5f bf 84 bd 66 2e d1 3d b4 87 4c bd cc 8d 0c 3d
       -0.06481814 0.10213928 -0.049934104 0.034314916
000030 d2 37 9b bd 53 d1 6a bd 90 5b eb bb f8 05 61 3d
       -0.07579006 -0.057328533 -0.007182546 0.054937333
000040 83 fd bf 3d c5 64 78 bd 0c ac 17 3d 3d 63 b0 bd
       0.093745254 -0.060642976 0.03702931 -0.08612678
000050 15 f5 cb 3d 23 a8 eb 3c 2c f7 d0 3d f9 2a 8d 3d
       0.09958855 0.028766697 0.10203394 0.06892962
000060 79 e6 83 3d d4 4a b6 bc 6a 36 59 bd 56 54 0c 3d
       0.064404435 -0.022252478 -0.05303041 0.034260117
000070 e3 35 09 bd df 35 44 bc 6f 87 b1 bd 4f 21 33 bd
       -0.033498656 -0.0119757345 -0.0866841 -0.043732937

exp_avg f4 [32, 403, 2]
000000 93 51 b0 39 e9 3f b3 39 af df 4e b9 56 46 15 ba
       0.00033630113 0.00034189157 -0.0001972902 -0.000569438
000010 af 96 56 b8 29 2d 43 b9 a4 09 c0 b9 1b 6a 81 b9
       -5.116191e-05 -0.00018613473 -0.00036628277 -0.00024683852
000020 2c 9f b7 37 cd 82 c8 38 23 02 d0 ba e4 51 ca ba
       2.188942e-05 9.561107e-05 -0.0015869777 -0.0015435782
000030 d2 fe 05 ba 4c 33 05 ba 5c ff d0 ba ba ec d6 ba
       -0.00051115185 -0.0005081191 -0.0015945244 -0.0016397454
000040 ed 14 c4 b9 bd f5 bb b9 a8 6f 5d 39 a8 b0 6b 39
       -0.00037399624 -0.0003585051 0.00021117798 0.00022477156
000050 3d 5c e9 37 4f 93 50 39 be f0 b1 36 54 f2 cd 37
       2.7818716e-05 0.00019891303 5.303037e-06 2.4550747e-05
000060 c5 a4 1e 39 98 e0 bc 37 0b 36 ea b9 9d 5f b7 b9
       0.00015129436 2.2515931e-05 -0.00044672223 -0.00034975717
000070 54 4a 81 ba b5 86 a3 ba 04 ef ed 38 d9 d4 d2 39
       -0.000986407 -0.0012476059 0.00011345561 0.00040212905
000080 5b 70 16 ba e8 2c cd b9 b1 1d 9b b8 8e e3 52 b8
       -0.0005738788 -0.00039134105 -7.3965064e-05 -5.027983e-05
000090 40 99 3a b7 14 8f 4f b7 ea 69 d7 ba 63 3b b0 ba
       -1.1122145e-05 -1.2371474e-05 -0.0016434763 -0.0013445433
0000a0 90 36 c7 b9 50 d6 e3 b9 f9 ba 2c 39 ab 93 95 38
       -0.0003799689 -0.0004345649 0.00016472851 7.132379e-05
0000b0 3d 03 b0 ba 5e 0c c3 ba c7 7d 1b b9 e0 15 83 b7
       -0.00134287 -0.0014881005 -0.00014828808 -1.5626603e-05
0000c0 66 94 38 39 58 56 e9 38 1a 37 15 38 2e 82 ca 37
       0.0001760289 0.000111263886 3.5575686e-05 2.4140896e-05
0000d0 38 96 e2 38 45 dd 98 38 bc 62 d9 b9 bf 12 c9 b9
       0.000108045 7.2891395e-05 -0.00041463028 -0.00038351674
0000e0 a6 43 06 39 c9 80 0b b9 a0 2a 8b 39 58 88 e4 39
       0.00012804437 -0.00013304049 0.00026543904 0.00043589133
0000f0 91 3a 59 b8 e6 9e 03 38 ac ff 3f b7 3e 1e a1 b7
       -5.1791376e-05 3.138082e-05 -1.1444015e-05 -1.9206778e-05
000100 1a df b7 39 2f 0b 15 3a 8f a3 1c b9 7e 35 8c b9
       0.00035070704 0.00056855654 -0.0001493825 -0.00026742736
000110 c1 cf 55 39 68 d0 a8 38 08 75 01 bb d0 a2 1a bb
       0.00020390657 8.049683e-05 -0.0019753594 -0.002359558
000120 65 28 33 b9 b0 d0 d0 b8 06 5e 8a b8 d8 0c 25 b8
       -0.00017085818 -9.957084e-05 -6.597866e-05 -3.9351027e-05
000130 15 b5 bf b9 fa 03 44 b9 11 39 c3 39 b8 a5 97 38
       -0.00036565276 -0.00018693498 0.00037235816 7.2311086e-05
000140 84 73 1f 3a 90 35 a2 3a a9 8d 04 b9 ff d7 69 b9
       0.0006082582 0.0012375582 -0.00012641273 -0.00022301076
000150 0d 41 d2 39 b6 30 4f 39 ca 05 28 b9 c1 4f 28 b9
       0.00040102788 0.00019759205 -0.00016023885 -0.00016051439
000160 85 b1 b5 38 4a 58 6b b9 8b 48 53 39 c1 9b 66 38
       8.663818e-05 -0.00022444237 0.00020149552 5.498133e-05
000170 e7 29 a5 b8 a7 7d a8 b9 b8 55 5a ba 0e a3 05 ba
       -7.875618e-05 -0.00032137075 -0.0008328813 -0.00050978444
000180 da 40 b2 b7 78 a3 5d b7 1a 4b 4b 38 5c 52 b6 b9
       -2.1249452e-05 -1.3210687e-05 4.8468915e-05 -0.00034775108
000190 f9 60 23 ba f3 ee b0 ba 37 77 44 b9 ff 36 01 ba
       -0.00062324066 -0.0013498947 -0.00018736428 -0.00049291545
0001a0 dc ee 27 38 6a 70 4a b8 8e f0 f2 b6 49 16 0b b6
       4.0038358e-05 -4.8265247e-05 -7.2401663e-06 -2.0725586e-06
0001b0 50 dd 47 39 b2 51 0b 39 14 26 8d ba a8 03 af ba
       0.00019060564 0.00013286507 -0.0010768794 -0.001335253
0001c0 14 cb 66 39 6b 7f 03 39 e8 f9 6a ba a3 1a 90 ba
       0.00022010162 0.000125406 -0.00089636305 -0.0010994266
0001d0 80 66 38 36 64 8f fb b9 ef 1a 6f b8 b6 52 06 b8
       2.74778e-06 -0.00047981285 -5.7007124e-05 -3.202512e-05
0001e0 92 a8 94 ba be db 4b ba 42 e5 5a ba 62 b9 8e ba
       -0.0011341742 -0.00077765796 -0.0008350202 -0.0010888989
0001f0 db 32 f7 b9 8e c7 91 b9 4f 39 13 ba 58 00 c5 b9
       -0.00047149402 -0.00027805235 -0.00056161446 -0.00037575024
000200 a8 12 d1 38 c8 7d 1f 39 64 91 75 ba bd 8c c1 ba
       9.9693716e-05 0.00015210279 -0.0009367673 -0.0014766675
000210 e9 7d 44 ba 86 ba 32 ba 5a 0c 28 ba 38 3d 49 ba
       -0.0007495569 -0.0006817955 -0.0006410532 -0.0007676664
000220 11 88 82 39 8f ff 04 39 ba 3f 30 b9 54 12 77 38
       0.0002489691 0.00012683704 -0.00016808408 5.890646e-05
000230 a7 53 58 b9 a7 13 75 b9 70 ad 5d ba 29 00 c8 ba
       -0.00020630528 -0.00023372342 -0.0008456325 -0.0015258837
000240 4d a7 12 b8 cb d1 79 38 92 30 d5 39 20 0e 80 39
       -3.4964924e-05 5.956161e-05 0.00040662714 0.00024424586
000250 1c b6 42 ba bb fd 80 ba 10 6b 36 39 8e 73 88 39
       -0.0007427649 -0.0009841243 0.00017396756 0.00026026036
000260 55 08 a8 b9 d4 71 60 b8 c4 e9 2a 39 ba 24 86 39
       -0.00032049665 -5.3511772e-05 0.00016299548 0.00025585835
000270 b6 65 36 b9 9c e7 9f b9 98 af 0d ba a4 3a 23 ba
       -0.00017394763 -0.00030499406 -0.00054048887 -0.00062266947
000280 8a 21 9b b9 fe 66 87 b9 95 0b 9d b5 15 3b de 36
       -0.00029588892 -0.00025825942 -1.1700782e-06 6.6229936e-06
000290 90 1a 3c 39 61 54 14 39 6c d3 25 b9 fc 68 21 b9
       0.00017938972 0.00014145813 -0.00015814387 -0.00015393266
0002a0 89 28 f0 ba 31 1f 1f bb 50 94 81 37 06 b0 74 b8
       -0.0018322627 -0.0024280066 1.5447062e-05 -5.8338068e-05
0002b0 61 71 50 39 b7 31 f1 37 cd 17 83 38 ac 85 14 b9
       0.00019878663 2.8752589e-05 6.251e-05 -0.00014164177
0002c0 57 fb 09 38 f5 50 fc 37 8c a8 cc 37 00 5f 32 38
       3.2897424e-05 3.007844e-05 2.439718e-05 4.2526983e-05
0002d0 41 8b 3b 3a 81 de 2d 3a 98 ae 0a 39 65 a0 f0 b8
       0.00071542343 0.0006632582 0.00013225747 -0.000114739676
0002e0 3a da 18 b8 94 8a 64 b8 4d c4 2c b8 b7 2e 27 b8
       -3.6442863e-05 -5.4488497e-05 -4.1190815e-05 -3.985941e-05
0002f0 f2 42 63 ba bb 20 dc ba 32 58 ac b9 ec ab e4 b9
       -0.00086693384 -0.0016794422 -0.00032872107 -0.0004361564
000300 aa c9 35 ba c8 b6 54 ba 2a c7 b6 ba 5e c5 25 ba
       -0.00069346523 -0.0008114395 -0.0013944854 -0.00063236605
000310 58 fa 11 3a 4b 2a 7a 39 c2 2b 29 ba 2a b0 80 ba
       0.0005568615 0.00023857613 -0.0006453359 -0.0009818126
000320 9a 1d 8a 38 80 5f 70 35 44 06 3d ba 70 32 38 ba
       6.5858665e-05 8.954594e-07 -0.00072107115 -0.0007026559
000330 8d 17 f8 b7 74 a3 1c 37 50 91 c9 36 de 4d 18 b9
       -2.957487e-05 9.3363815e-06 6.0071834e-06 -0.00014524857
000340 1f 93 08 b9 4f 7f 04 39 fe b6 15 b9 60 fd 94 b6
       -0.00013024778 0.00012635927 -0.00014277917 -4.4402404e-06
000350 a1 dd 64 39 f0 6a 6a b7 0d c6 71 ba 27 a3 fc ba
       0.00021826338 -1.3972385e-05 -0.0009222932 -0.0019274697
000360 70 e8 fd b9 70 c1 39 ba ac 41 39 38 49 86 cf b8
       -0.000484291 -0.00070860144 4.41686e-05 -9.895542e-05
000370 25 f2 63 b9 f5 5c 23 b9 79 c8 37 bb 9d 84 37 bb
       -0.00021738613 -0.0001557952 -0.0028043075 -0.0028002628
000380 6c 03 a9 b7 80 38 d4 34 7c a1 58 b8 14 cd 14 b9
       -2.0147963e-05 3.9529186e-07 -5.1648807e-05 -0.00014190777
000390 32 5b f9 b9 f2 cd 76 ba ec 68 ce b9 55 fe e7 b9
       -0.00047560927 -0.00094148435 -0.00039369555 -0.00044249246
0003a0 38 68 43 38 12 bc 33 39 e7 7a 99 b9 65 18 07 ba
       4.6588684e-05 0.00017140832 -0.00029274003 -0.00051534764
0003b0 ff b0 20 b9 b4 dd fb b7 90 a3 76 36 a5 e1 13 39
       -0.00015324725 -3.002477e-05 3.6752062e-06 0.00014103072
0003c0 6e 2f 0c ba 68 d7 49 ba c2 0c 78 ba 9e 05 7e ba
       -0.0005347644 -0.00076996395 -0.000946235 -0.0009690168
0003d0 eb c1 3d 39 fe a4 8a 37 86 27 a3 ba 23 56 d6 ba
       0.00018096685 1.6527712e-05 -0.0012447692 -0.0016352575
0003e0 c0 ad 08 ba be 5c 2c ba df bb 7d 38 31 e9 6e 38
       -0.0005213879 -0.0006575099 6.049487e-05 5.69608e-05
0003f0 0a 02 77 ba a4 39 9c ba 88 c7 85 ba 62 7f 40 ba
       -0.0009422606 -0.0011919034 -0.001020656 -0.00073432
