cebra_models/necab1/01/B/cebra_trialID_hybrid_model_1000_32_necab1_B_2024-05-07_14-11-02.pt (torch, 195443 bytes, 31 tensors)

module.net.0.weight f4 [32, 12, 2]
0	0x3d7af708	0.061270744
1	0x3dd89460	0.10575175
2	0xbf20bdae	-0.6278943
3	0xbf0b6a5a	-0.54459155
4	0x3d05f4d4	0.03270419
5	0xbda2775d	-0.07932923
6	0x3df065e7	0.11738186
7	0x3c01af88	0.007915385
8	0x3c31fef5	0.010864009
9	0x3c741159	0.014896714
10	0x3da4a902	0.08040048
11	0xbe36b1f2	-0.17841318
12	0xbd5a8011	-0.05334479
13	0xbc9420f0	-0.018082112
14	0xbda90237	-0.082523756
15	0x3d9b8b6f	0.07594954
16	0xbe7a29b4	-0.24429971
17	0xbd408e5c	-0.047010764
18	0x3e1a4660	0.15065908
19	0x3d3a2094	0.045441225
20	0xbc8fcf45	-0.017554889
21	0xbd0b0e2e	-0.03394907
22	0xbe9b1960	-0.30292797
23	0xbeba8cde	-0.36435598
24	0x3da210cc	0.0791336
25	0xbd04d131	-0.032426063
26	0x3da49e4d	0.08038006
27	0x3d9ae649	0.07563455
28	0xbdb53182	-0.088473335
29	0x3d207c09	0.03918079
30	0xbe0d037f	-0.13770865
31	0x3bd0b170	0.0063688084
32	0x3d2e9a9f	0.042627927
33	0x3d6dd925	0.058068413
34	0x3c42c83c	0.01188856
35	0xbcf076f5	-0.029353598
36	0x3ba133e0	0.004919514
37	0x3d18ffa7	0.037353184
38	0xbe755258	-0.23957193
39	0xbe6c5164	-0.23077923
40	0xbe50454e	-0.20338938
41	0x3caa2f40	0.020774484
42	0x3aa0bcad	0.0012263261
43	0x3e1d7845	0.1537791
44	0x3d03554d	0.03206377
45	0x3cbdf9c7	0.023190392
46	0xbe458c52	-0.19291809
47	0xbd37edbf	-0.044904467
48	0x3e64c775	0.22341712
49	0x3e08b409	0.13349928
50	0x3c789573	0.01517235
51	0x3d165bac	0.03670852
52	0x3e93cb98	0.28866267
53	0xbc273352	-0.010205107
54	0xbb18a0ff	-0.002328932
55	0x3dfc7fea	0.12329085
56	0x3d959a7f	0.073048584
57	0xbbcffda1	-0.0063473736
58	0x3e1896cb	0.14901273
59	0x3d6de20b	0.0580769
60	0x3db54211	0.08850492
61	0xbd120dde	-0.035657756
62	0x3d2d35aa	0.042287506
63	0x3dd4afbe	0.10385083
64	0x3da94766	0.08265571
65	0x3d8dfdc6	0.06933169
66	0xbc012eba	-0.007884676
67	0x3e9ad655	0.30241647
68	0x3c086241	0.008324207
69	0x3c878139	0.01654111
70	0x3e6a4e89	0.22881521
71	0x3e5e7a37	0.21726309
72	0x3dac89fe	0.084247574
73	0x3d93d859	0.072189994
74	0xbe30a3f6	-0.17250046
75	0xbe8ce441	-0.27517894
76	0xbee9b8f8	-0.45648932
77	0xbe07c8ae	-0.13260147
78	0x3da13023	0.078705095
79	0x3e163832	0.14669874
80	0x3cbfa8cf	0.023395924
81	0xbde330de	-0.11093305
82	0xbe1b30d0	-0.15155339
83	0xbe2b557a	-0.16731825
84	0x3bb1243c	0.005405931
85	0xbc49d7df	-0.012319534
86	0x3d810f37	0.0630173
87	0xbe269a82	-0.16269878
88	0x3de07a4a	0.10960825
89	0x3daf2754	0.08552423
90	0x3e09b194	0.13446647
91	0x3ddeca1f	0.10878395
92	0x3d4902a2	0.049074776
93	0x3d2fcdd4	0.042920902
94	0xbe3eaee6	-0.18621406
95	0xbe1aee03	-0.15129857
96	0xbd0decbc	-0.034649596
97	0xbeefff18	-0.4687431
98	0xbc200d78	-0.009768836
99	0xbdf9f392	-0.122046605
100	0xbdf4e1dd	-0.119571425
101	0x3eb1578a	0.346371
102	0xbe54b87e	-0.20773503
103	0x3d015245	0.0315726
104	0x3d8346fb	0.06410023
105	0xbe9e317e	-0.30897135
106	0xbe23e2a1	-0.16004421
107	0x3e930db7	0.287214
108	0xbda62f88	-0.081145346
109	0x3cb75cfa	0.022383202
110	0x3dfff49a	0.12497826
111	0x3e394376	0.1809214
112	0x3d4dd04e	0.050247483
113	0x3d42692f	0.047463592
114	0x3e879e13	0.2648779
115	0xbd4e151b	-0.050313096
116	0x3d2133f8	0.039356202
117	0xbdb147dc	-0.08656284
118	0xbeb0c575	-0.34525648
119	0xbe391533	-0.18074493
120	0x3da4eca2	0.080529466
121	0xbd0a05ef	-0.033697065
122	0xbdf7cb7b	-0.12099358
123	0xbe5d50da	-0.21612874
124	0x3c355d10	0.011069551
125	0x3de3701b	0.11105367
126	0x3db14c21	0.086570986
127	0x3e30a628	0.17250884
128	0xbd962c93	-0.073327206
129	0xbdc38a5b	-0.095478736
130	0xbd0084b3	-0.03137655
131	0x3b942f8d	0.00452227
132	0xbe8faddb	-0.2806233
133	0x3d31e29b	0.043429
134	0x3e02dd80	0.12779808
135	0x3e59015e	0.21191928
136	0xbe911a19	-0.28340223
137	0xbdf30647	-0.11866432
138	0xbe815e53	-0.25267276
139	0x3e53af0f	0.20672248
140	0x3ca95ec7	0.020675076
141	0xbeb47f07	-0.35253164
142	0x3e6f9dc3	0.23400025
143	0x3e08e9fe	0.13370511
144	0x3ddb9736	0.107222006
145	0xbd913702	-0.0709057
146	0x3dd970f5	0.10617248
147	0xbcdc9abb	-0.02692925
148	0x3e7431f8	0.23847187
149	0x3ced3e3c	0.02896034
150	0x3ac398e7	0.0014922888
151	0x3dbe859d	0.093028285
152	0x3dbcf488	0.09226328
153	0xbc99d1d1	-0.018776806
154	0xbe4303a6	-0.1904436
155	0x3db33eac	0.08752188
156	0xbe6d0669	-0.23146977
157	0xbcf85d32	-0.030317876
158	0xbdfebbeb	-0.12438186
159	0xbef860e6	-0.48511428
160	0xbe8fec90	-0.2811017
161	0x3d3d83b1	0.04626817
162	0xbe733b76	-0.23753151
163	0xbe8a4eab	-0.27013144
164	0xbc68d7b6	-0.014211586
165	0x3dce9ee9	0.100889035
166	0xbe8712e5	-0.26381603
167	0xbdd0738c	-0.10178289
168	0x3d2e1e0c	0.042509124
169	0xbbc8962b	-0.006121417
170	0x3d8dd94a	0.0692621
171	0x3aa88ffa	0.0012860291
172	0xbe37c244	-0.179452
173	0xbef159e8	-0.47138906
174	0x3d27285e	0.04080998
175	0xbccc269c	-0.024920754
176	0x3c467988	0.012113936
177	0xbcd86f62	-0.026420299
178	0xbe8706a3	-0.2637225
179	0x3d2ad863	0.04171027
180	0xbe4190b3	-0.18902855
181	0xbd369f02	-0.044585235
182	0x3e266cb5	0.16252406
183	0x3d9c51d9	0.07632799
184	0xbe88de9a	-0.26732332
185	0x3e075e75	0.13219626
186	0x3e4a5191	0.19757678
187	0xbe799f18	-0.24377096
188	0xbe8a2389	-0.26980236
189	0xbe198499	-0.14991988
190	0xbe3a2452	-0.18177918
191	0xbda57b92	-0.0808021
192	0xbe0d2a25	-0.13785608
193	0x3d3fb800	0.046806335
194	0x3e2d2884	0.16909987
195	0xbdcbc840	-0.09950304
196	0x3d2badc0	0.041913748
197	0x3e2889d9	0.16458835
198	0xbe9c2adf	-0.30501458
199	0x3d6f1ae9	0.058375273
200	0xbeadf002	-0.33972174
201	0xbdb62387	-0.08893495
202	0xbe2d93b0	-0.1695087
203	0x3e2d0217	0.16895328
204	0xbcdad214	-0.026711501
205	0x3ba9927e	0.005174934
206	0x3dffd915	0.12492577
207	0x3d398748	0.04529503
208	0x3de37e1a	0.11108036
209	0x3dd785c9	0.10523564
210	0x3dea4bab	0.11440214
211	0x3e21e455	0.15809758
212	0x3d9a69e0	0.07539725
213	0xbb4b3698	-0.0031007882
214	0x3e39abde	0.18131968
215	0xbe545c2a	-0.20738283
216	0xbd7a0265	-0.06103744
217	0x3e14416d	0.14478083
218	0xbe952abd	-0.2913417
219	0x3dff4bd4	0.12465635
220	0xbd2a3970	-0.041558683
221	0x3e206c2f	0.15666269
222	0x3de1b629	0.110210724
223	0xbe18ec18	-0.14933813
224	0x3de26bad	0.11055694
225	0xbc3b165b	-0.011418904
226	0xbf07b387	-0.5300831
227	0x3e7226dc	0.23647636
228	0x3e210a24	0.15726525
229	0x3dd17482	0.102273
230	0xbc03b08b	-0.008037697
231	0xbdf00987	-0.11720567
232	0xbe11e85e	-0.14248797
233	0x3da05dcf	0.078303926
234	0xbdf6ad19	-0.120447345
235	0x3db3d58a	0.08780964
236	0x3e011c11	0.12608363
237	0x3dea83d4	0.114509255
238	0x3e09e40d	0.134659
239	0xbce67bdf	-0.028135238
240	0x3cfa0cdc	0.03052371
241	0xbd1d776c	-0.038443968
242	0x3deafb31	0.11473692
243	0x3e12180f	0.1426699
244	0x3e8beb9b	0.2732819
245	0xbe0e23e3	-0.13880877
246	0xbe8c0389	-0.27346447
247	0xbdfeb649	-0.12437112
248	0x3e009445	0.1255656
249	0x3e367389	0.1781751
250	0xbe5f6ed0	-0.21819615
251	0x3dfb010f	0.12256061
252	0x3dbede7e	0.09319781
253	0xbcb41f51	-0.02198759
254	0xbddee7b5	-0.10884038
255	0xbd131d13	-0.0359164

module.net.0.bias f4 [32]
0	0x3c8897bc	0.016673915
1	0x3e539c8e	0.2066519
2	0xbe2087b3	-0.15676765
3	0xbe1780c7	-0.14795218
4	0xbd9a34c9	-0.07529599
5	0xbe23b82d	-0.15988226
6	0x3e137890	0.1440146
7	0x3d51adcc	0.051191136
8	0xbd08a396	-0.033359133
9	0x3db88da2	0.09011389
10	0xbe44d618	-0.19222295
11	0xbc871f26	-0.016494345
12	0xbd37ab7c	-0.044841275
13	0xbe1bff11	-0.15234019
14	0xbd0e7621	-0.034780625
15	0x3e2b53b1	0.16731144
16	0xbda60569	-0.08106501
17	0x3e071f8e	0.13195631
18	0x3cfb1e69	0.03065415
19	0x3d2c56b7	0.042074885
20	0xbda9cd70	-0.08291137
21	0xbddb183a	-0.1069798
22	0xbe5162bb	-0.20447819
23	0xbc7ff1df	-0.015621631
24	0xbe1a335c	-0.15058655
25	0x3d6384d6	0.055546604
26	0x3aaf2a87	0.0013364115
27	0xbe5a7697	-0.21334301
28	0x3d375eb4	0.04476805
29	0x3e30e994	0.17276603
30	0xbd350029	-0.044189606
31	0x3d501f21	0.050810937

module.net.2.module.0.weight f4 [32, 32, 3]
0	0x3dcb978b	0.09941014
1	0x3c8f037a	0.017457712
2	0x3e6026a3	0.21889739
3	0x3d3b1e3c	0.04568313
4	0x3c3e29d2	0.01160665
5	0xbdcce363	-0.10004308
6	0xbca7e4cb	-0.02049484
7	0x3e004a2f	0.12528299
8	0xbd760c6d	-0.060070444
9	0x3c850255	0.016236464
10	0xbcfa9108	-0.030586734
11	0x3e08d532	0.13362578
12	0x3dfa2381	0.12213803
13	0x3de3dd7f	0.111262314
14	0x3d8ae210	0.06781399
15	0xbdbb0ebc	-0.0913367
16	0x3dc2718d	0.09494314
17	0x3d0663ed	0.03281014
18	0xbc4be530	-0.012444779
19	0xbd6a42bc	-0.05719255
20	0x3ceb45e9	0.02871986
21	0xbab9fdbd	-0.001419
22	0xbd88faf0	-0.066884875
23	0x3dec3813	0.11534133
24	0x3d107cb4	0.035275176
25	0xbe11c789	-0.14236273
26	0xbc055d56	-0.008139929
27	0x3db50ae3	0.08839967
28	0xbd1f8a4d	-0.038950253
29	0x3d94b8ec	0.072618335
30	0x3dac77d6	0.084212944
31	0x3ce315cf	0.02772036
32	0xbc5d0d48	-0.013491936
33	0xbcc29c5e	-0.023756202
34	0x3aaf1f2a	0.0013360728
35	0xbc0c8128	-0.008575715
36	0x3e0c3a4e	0.13694116
37	0xbb858753	-0.00407497
38	0x3da0c316	0.0784971
39	0x3d846bd3	0.06465878
40	0x3dacff48	0.084471285
41	0x3e3b2c84	0.182787
42	0x3da6cdee	0.08144747
43	0x3b2fa552	0.002680142
44	0x3ce14544	0.027498849
45	0xbd1a0ae1	-0.03760803
46	0xbdfce31d	-0.12348006
47	0x3d892d1e	0.066980585
48	0x3dc80dda	0.09768267
49	0x3cd84d47	0.026404036
50	0x3db48405	0.08814243
51	0xbc8a05b3	-0.01684842
52	0x3cde9812	0.027172122
53	0x3e002084	0.12512404
54	0xba98d271	-0.0011659396
55	0x3e35b71f	0.17745636
56	0x3d7330e9	0.059372816
57	0xbdf379e1	-0.11888481
58	0xbd0527a1	-0.032508496
59	0xbd84efff	-0.06491088
60	0x3d70a4e7	0.058751013
61	0x3d9465f4	0.072460085
62	0xbd8dd924	-0.06926182
63	0xbe09bede	-0.13451716
64	0x3dc2a6a5	0.09504441
65	0x3dd061ac	0.101748794
66	0x3a3df15e	0.00072457443
67	0xbda558e5	-0.08073596
68	0x3d05ad5e	0.03263604
69	0x3d5ca4a9	0.05386797
70	0x3d1ee887	0.038795974
71	0x3bf5b1f4	0.0074980203
72	0x3d27d814	0.040977553
73	0x3d9dde46	0.07708411
74	0x3e373d31	0.17894436
75	0x3c8960f5	0.016769866
76	0xbd07683e	-0.033058397
77	0x3d663c7a	0.05621002
78	0x3d494177	0.049134698
79	0xbd86d709	-0.065839835
80	0x3e49b402	0.19697574
81	0xbde581d6	-0.11206405
82	0xbd4fd247	-0.050737645
83	0xbd570edd	-0.05250441
84	0x3d6b180a	0.057395972
85	0xbdcca943	-0.099932216
86	0x3bc05007	0.005868915
87	0xbcc59504	-0.024118908
88	0x3c1a03c8	0.009400316
89	0xbe25c860	-0.16189718
90	0xbda3e998	-0.08003539
91	0xba0cc064	-0.00053692446
92	0xbdb0e3c2	-0.08637191
93	0xbce4c68a	-0.027926702
94	0x3dfaf6f8	0.12254137
95	0xbca6c390	-0.020356923
96	0x3dbe34aa	0.092873886
97	0xbdb3c07b	-0.08776947
98	0x3c66d425	0.014088665
99	0x3d75a763	0.059974086
100	0xbd9ab5dd	-0.07554219
101	0xbd9fe7c7	-0.0780788
102	0xbe1581af	-0.14600252
103	0xbc2c4e5a	-0.010516727
104	0x3dd4db22	0.10393359
105	0xbcbe1b01	-0.023206236
106	0xbdaeb22d	-0.08530078
107	0x3dc29cf8	0.09502596
108	0xbde43741	-0.11143351
109	0xbdc6b8c2	-0.097032085
110	0xbb7c68a4	-0.003851452
111	0xbd6c3fe1	-0.057678107
112	0xbbc0cb5a	-0.0058836164
113	0x3cb4cd57	0.02207057
114	0xbb7b8bb4	-0.003838283
115	0xbd2152db	-0.039385658
116	0x3dbd11e1	0.09231926
117	0xbe1c1ccb	-0.15245359
118	0x3e2cb959	0.1686758
119	0x3db02ac0	0.08601904
120	0xbdd1968f	-0.10233795
121	0xbc41bd01	-0.011824847
122	0xbd34cfa4	-0.044143334
123	0xbd586b7c	-0.05283688
124	0x3de6d0a3	0.11270263
125	0x3d85c998	0.065325916
126	0xbdcc3f31	-0.0997299
127	0xbc70e249	-0.014702388
128	0x3cfa3019	0.030540513
129	0x3d3e4470	0.046451986
130	0x3ddc0a85	0.10744194
131	0x3db74443	0.08948567
132	0xbdb29a9a	-0.08720894
133	0x3d151756	0.036399208
134	0x3c8bb65f	0.017054735
135	0xbdb01e19	-0.08599491
136	0xbd8c6b88	-0.068564475
137	0xbac36322	-0.0014906863
138	0x3d31df2a	0.043425716
139	0x3e4536b9	0.19259156
140	0xbd8a6c19	-0.06758899
141	0x3d44d2a9	0.048052464
142	0xbd462beb	-0.048381727
143	0xbd5cc2e1	-0.05389679
144	0x3d772838	0.06034109
145	0xbc43e5ac	-0.0119566135
146	0x3dc1a488	0.0945521
147	0x3bf59cb0	0.0074954852
148	0xbde4d845	-0.11174063
149	0x3aa2f2ff	0.0012432038
150	0xbb39d7ca	-0.002835738
151	0x3df82ec2	0.12118293
152	0x3d7e730c	0.062121436
153	0xbd0a2391	-0.033725325
154	0x3dbd3f14	0.09240547
155	0x3d39df20	0.045378804
156	0xbc820749	-0.015872614
157	0xbd7f695b	-0.062356334
158	0xbd69738c	-0.05699496
159	0x3d41237c	0.04715298
160	0xbd413978	-0.047173947
161	0xbe0558d7	-0.13022171
162	0xbda74da0	-0.08169103
163	0xbd8387a7	-0.06422358
164	0x3c48df37	0.01226025
165	0xbd7d0388	-0.061770946
166	0xbe9ffab7	-0.31245968
167	0xbe0e7e25	-0.13915308
168	0xbe30cadd	-0.17264886
169	0x3d5546f6	0.052069627
170	0xbbf945ac	-0.0076071825
171	0x3d880fb2	0.06643619
172	0xbd33e286	-0.0439172
173	0xbdc0dda8	-0.094172776
174	0xbe1d297e	-0.1534786
175	0x3d500a21	0.05079091
176	0x3d47684f	0.04868346
177	0x3c0c0457	0.008545957
178	0xbd342b01	-0.043986324
179	0xbe094773	-0.13406162
180	0xbaab36b0	-0.0013062563
181	0xbd83087b	-0.06398102
182	0x3d2e43c7	0.042545106
183	0x3da6fe08	0.08153921
184	0x3d957cb4	0.07299176
185	0x3b71b831	0.0036883468
186	0xbcfd357e	-0.030909296
187	0xbd909970	-0.07060516
188	0xbdaf6699	-0.08564491
189	0xbe2fef0e	-0.17181036
190	0x3db66053	0.08905091
191	0x3deae484	0.11469367
192	0x3d1a7523	0.037709367
193	0xbddedc32	-0.10881843
194	0xbda8d3c5	-0.08243517
195	0xbdcb4bbf	-0.09926557
196	0xbcc76d09	-0.024343984
197	0xbc04e342	-0.008110823
198	0x3e2938a3	0.16525511
199	0xbe04cb3a	-0.1296815
200	0x3db8d035	0.09024087
201	0xbd47a836	-0.048744403
202	0x3bdcd775	0.0067395517
203	0x3dd2b0e3	0.10287645
204	0x3c6421a2	0.013924034
205	0x3d9e17dc	0.077193946
206	0x3d0b3a67	0.033991244
207	0x3caf4a35	0.02139769
208	0x3d0c1785	0.034202117
209	0xbdb82106	-0.08990674
210	0x3c6ea066	0.014564609
211	0x3bf883d1	0.007584073
212	0xbdd1ffed	-0.10253892
213	0x3d8c4236	0.06848566
214	0x3ca38177	0.019959195
215	0xbd66e994	-0.0563751
216	0x3d6040f3	0.05474944
217	0x3d4a1e4c	0.0493453
218	0x3e59c21a	0.2126545
219	0xbd461018	-0.048355192
220	0xbd04739b	-0.032336812
221	0x3d467c1c	0.048458204
222	0x3c8fa423	0.017534321
223	0xbd32b915	-0.04363354
224	0xbdca4339	-0.09876103
225	0x3d36a9ba	0.044595458
226	0x3cebc414	0.02878002
227	0x3c97fbf3	0.018552756
228	0xbc880c31	-0.016607376
229	0xbd5acdf7	-0.05341908
230	0x3dbcd0b7	0.09219497
231	0xbdf15ccd	-0.117852785
232	0x3cda2527	0.026629044
233	0xbb80bc1a	-0.0039286735
234	0x3dd2e809	0.102981634
235	0xbe197019	-0.14984168
236	0x3d287dbe	0.041135542
237	0x3d964de6	0.07339077
238	0x3d10cabb	0.03534959
239	0x3d08420e	0.03326612
240	0x3da0d0d1	0.078523286
241	0x3cf56b28	0.029958323
242	0x3de0b1d5	0.10971419
243	0xbd10808a	-0.035278834
244	0x3dc42db5	0.095790304
245	0x3d97570f	0.07389652
246	0x3d961e2d	0.07329974
247	0x3cc6b01d	0.0242539
248	0xbe2efbac	-0.17088193
249	0x3d9c5607	0.07633596
250	0xbd065902	-0.03279973
251	0xbd98c6fd	-0.07459829
252	0xbe0add2d	-0.13560934
253	0xbc66076c	-0.014039855
254	0xbd54e03d	-0.051971663
255	0x3d8fb2e4	0.070165426

module.net.2.module.0.bias f4 [32]
0	0x3d2dad87	0.042401817
1	0xbda8d33e	-0.08243416
2	0x3cd3393b	0.025784126
3	0xbd3af093	-0.045639586
4	0x3de24212	0.11047758
5	0x3c6c0be4	0.014407132
6	0x3dc2506e	0.09487997
7	0x3d7d882d	0.061897445
8	0xbd00c16e	-0.03143447
9	0xbc352bde	-0.011057822
10	0xbd9034b1	-0.070413
11	0xbcc25162	-0.023720447
12	0x3d299e50	0.041410744
13	0xbd3e7d2e	-0.0465061
14	0xbcd6aca9	-0.026205378
15	0xbd2e7283	-0.042589676
16	0x3be50bff	0.0069899554
17	0xbd40cb00	-0.047068596
18	0xbc9cfd9e	-0.019163903
19	0x3bcfce4e	0.006341732
20	0xbdb7f52e	-0.08982311
21	0x3da378ef	0.079820506
22	0x3cd745c1	0.026278378
23	0x3c8ffacf	0.01757565
24	0x3c2e26f4	0.010629404
25	0x3db35dc5	0.087581195
26	0x3d8edfec	0.069763035
27	0x3d3bfb1f	0.045893785
28	0xbd3099c0	-0.043115377
29	0xbdd40407	-0.10352331
30	0xbd8c6862	-0.06855847
31	0xbcca8c60	-0.02472514

module.net.3.module.0.weight f4 [32, 32, 3]
0	0x3dce18e8	0.10063344
1	0xbcb92686	-0.022601377
2	0x3e2df0bf	0.16986369
3	0x3bc4938f	0.0059990357
4	0xbd0a6664	-0.033789054
5	0x3cf7c216	0.030243915
6	0x3ca6ce2c	0.020361982
7	0x3c580059	0.013183677
8	0x3d3d963c	0.046285853
9	0xbdaa80b7	-0.08325332
10	0xbe096904	-0.13418967
11	0xbd93671e	-0.071974024
12	0x3dcb4b17	0.099264316
13	0x3c25ccd6	0.0101196375
14	0x3e1fa44b	0.15590017
15	0x3d7e78f4	0.06212707
16	0xbd8ac5a4	-0.06775978
17	0x3bf2b12c	0.0074063744
18	0xbdf5b776	-0.11997883
19	0x3c9d215b	0.019180944
20	0x3a9b650b	0.0011855675
21	0x3d8bfe4a	0.06835611
22	0xbdb3eaa5	-0.08784989
23	0xbc8c5997	-0.017132564
24	0x3e08770e	0.13326666
25	0xbb1a288e	-0.0023522708
26	0x3dda1f68	0.106505215
27	0x3d4aed36	0.04954263
28	0x3cb374f7	0.02190636
29	0x3dd06d00	0.1017704
30	0xbcc89c24	-0.024488516
31	0xbd0a0bbe	-0.033702604
32	0xbd945ca7	-0.072442345
33	0xbda5a2df	-0.08087706
34	0x3cd15314	0.02555231
35	0xbc55b0cf	-0.013042643
36	0x3e1445f3	0.14479809
37	0x3d3ff5d3	0.046865296
38	0x3d8e6d8c	0.06954488
39	0xbc2eade2	-0.010661574
40	0x3ca5cbdb	0.020238807
41	0xbda15960	-0.07878375
42	0x3df45249	0.11929757
43	0x3dda774f	0.106672876
44	0x3b02ee6c	0.0019978536
45	0x3d5dd06b	0.05415384
46	0x3daab466	0.083351895
47	0x3c078479	0.00827133
48	0x3df13b1f	0.117788546
49	0x3d0a921d	0.03383075
50	0xbdcf4851	-0.10121215
51	0x3e100c51	0.14067198
52	0xbc8a6728	-0.016894892
53	0xbdbfa3d6	-0.09357421
54	0xbd51073b	-0.051032286
55	0xbd165a00	-0.036706924
56	0xbe22658b	-0.15859048
57	0x3d980ec3	0.074246906
58	0x3d5e1655	0.054220516
59	0x3bb3050e	0.005463249
60	0x3d2702c4	0.040774122
61	0x3da75b81	0.0817175
62	0x3e0c6a97	0.13712536
63	0x3c790cbe	0.015200792
64	0xbdfe25cc	-0.12409553
65	0xbdfd7e9e	-0.12377666
66	0xbe25e9a5	-0.1620241
67	0x3c8e55dd	0.017374927
68	0xbe78c295	-0.24292977
69	0xbc24562c	-0.010030311
70	0xbc106263	-0.00881252
71	0x3dc8067f	0.09766864
72	0xbc5d4047	-0.013504094
73	0xbd233e96	-0.03985461
74	0xbc682070	-0.01416789
75	0xbd45adad	-0.048261333
76	0xbd3b8703	-0.045783054
77	0x3e035c4f	0.12828182
78	0x3ca05809	0.019573228
79	0xbd827c67	-0.06371384
80	0x3d902149	0.07037599
81	0xbdc83029	-0.09774811
82	0x3c829ddb	0.015944412
83	0xbd75db70	-0.060023725
84	0x3e3fc2c7	0.18726645
85	0xbd033110	-0.03202921
86	0xbc0f3aa7	-0.008742011
87	0xbe4e5d89	-0.20152868
88	0xbdff59f2	-0.124683276
89	0xbcca5738	-0.024699792
90	0x3cea67db	0.028613975
91	0x3de65f41	0.11248637
92	0xbd4f4c0d	-0.050609637
93	0xbd13f6bb	-0.036123972
94	0xbd0035fb	-0.03130148
95	0xbc48ceb9	-0.012256318
96	0x3d006e2c	0.031355068
97	0x3dd26e23	0.10274913
98	0xbc478203	-0.012176993
99	0xbc9a1696	-0.018809598
100	0xbddcdc3a	-0.107841924
101	0x3da9d534	0.082926184
102	0xbcf0e0e3	-0.02940411
103	0x3da84a42	0.082172886
104	0xbcacbc09	-0.021085756
105	0x3d8c75e2	0.06858422
106	0xbc71c5c6	-0.0147566255
107	0xbd86c600	-0.06580734
108	0x3dc3770f	0.09544193
109	0x3b24c12c	0.0025139553
110	0x3c376936	0.011194518
111	0xbd19c8f0	-0.037545145
112	0xbe02aa7f	-0.12760352
113	0xbdd7cf33	-0.10537567
114	0x3d46a7a7	0.04849973
115	0xbdc1603d	-0.09442184
116	0xbd0bb190	-0.034104884
117	0xbdc298aa	-0.095017746
118	0xbd92af5e	-0.07162355
119	0xbd1166c2	-0.035498388
120	0xbb8a4dd3	-0.004220703
121	0x3b82ad58	0.0039879493
122	0x3d66dde2	0.056363948
123	0xbcd50bc6	-0.02600659
124	0x3d3fbed0	0.046812832
125	0xbdc06b5d	-0.09395478
126	0x3d1095ca	0.0352991
127	0xbd8b8535	-0.068125166
128	0xbdf465e0	-0.119334936
129	0xbd04daef	-0.032435354
130	0xbda51842	-0.080612674
131	0x3cc09e56	0.023513
132	0x3dc646d6	0.0968148
133	0xbd4692f9	-0.048480008
134	0xbd669c4a	-0.056301393
135	0x3df11dd8	0.1177327
136	0xbd003af9	-0.03130624
137	0x3ce3ebb7	0.027822359
138	0x3d247ee0	0.04016006
139	0xbda738f1	-0.081651576
140	0x3db3f243	0.08786442
141	0x3d7c38a1	0.061577443
142	0x3cc7dad4	0.024396338
143	0xbce5987b	-0.02802681
144	0xbc5e14c2	-0.013554754
145	0xbdd09066	-0.10183792
146	0xbe0acb75	-0.13554175
147	0x3c4823ea	0.012215594
148	0x3bc6716a	0.0060560005
149	0x3d5f9f08	0.054595023
150	0x3d4b365b	0.049612384
151	0xbda72c18	-0.08162707
152	0xbdea7509	-0.11448104
153	0xbd511d0a	-0.051053084
154	0xbd88d9c8	-0.066821635
155	0x3d6fdd01	0.058560375
156	0xbd929990	-0.07158196
157	0xbddfcceb	-0.10927757
158	0x3c3c5922	0.01149586
159	0xbd7525f7	-0.05985066
160	0xbe2eadd4	-0.17058498
161	0x3d55a89f	0.052162763
162	0xbd0a838c	-0.03381686
163	0x3e045a9c	0.1292519
164	0x3d5dc519	0.054143045
165	0x3e1cfb65	0.15330274
166	0x3ba6e529	0.005093236
167	0x3c9b918f	0.018990306
168	0x3d08b674	0.033377126
169	0xbd2c7361	-0.04210222
170	0xbde1cba5	-0.1102517
171	0xbdaf44cf	-0.08558046
172	0x3c422ffa	0.011852259
173	0xbd799f4e	-0.06094294
174	0x3dd8b939	0.105822034
175	0xbd12ab25	-0.035807747
176	0x3cc2ab3b	0.02376329
177	0x3d56d52c	0.05244939
178	0xbce3079a	-0.027713586
179	0xbe0893bb	-0.13337605
180	0xbd017cc8	-0.03161314
181	0xbd92030a	-0.07129486
182	0xbd6f51ff	-0.058427807
183	0x3db9fc72	0.09081353
184	0x3ca67684	0.020320185
185	0xbc8c5ddc	-0.0171346
186	0xbd405912	-0.046959944
187	0x3da7767d	0.08176897
188	0x3d99adde	0.07503866
189	0x3dc4e679	0.09614272
190	0x3d479610	0.048727095
191	0xbda74771	-0.08167923
192	0xbe01aaab	-0.12662761
193	0xbdef6d8f	-0.116908185
194	0xbe34073f	-0.17580889
195	0xbe2d10ba	-0.16900912
196	0xbde849dd	-0.11342213
197	0xbcbf3fba	-0.023345817
198	0x3e02b76d	0.12765284
199	0x3df24c95	0.11831013
200	0x3e31dabb	0.17368595
201	0x3ddf4cca	0.10903318
202	0x3dacb150	0.08432257
203	0x3dc952f3	0.098302744
204	0xbe04aac4	-0.12955767
205	0xbd48ae58	-0.048994392
206	0xbdfe978c	-0.12431249
207	0xbd8c0047	-0.068359904
208	0x3d4d1a4a	0.0500739
209	0xbc89713f	-0.016777633
210	0x3d52b513	0.051442217
211	0xbd253b24	-0.040339604
212	0xba75167c	-0.0009349359
213	0xbe1f3132	-0.1554611
214	0xbcd45078	-0.025917277
215	0xbe1b0c4b	-0.15141408
216	0x3c8d4180	0.017243147
217	0x3ce3125c	0.027718715
218	0x3bc1c20f	0.005913026
219	0xbd1f5871	-0.038902704
220	0xbbd51724	-0.0065030027
221	0x3bf1736b	0.007368495
222	0x3da4a887	0.080399565
223	0xbd45feaa	-0.04833857
224	0x3d685a32	0.056726642
225	0xbe59446a	-0.21217504
226	0xbe02de1c	-0.1278004
227	0xbdfe14a7	-0.12406283
228	0xbdce0c7e	-0.100609764
229	0x3d38fedc	0.045164928
230	0xbde0c18a	-0.10974415
231	0x3add4322	0.0016880969
232	0x3c4231a1	0.011852653
233	0x3e11f884	0.14254957
234	0x3c5c54b1	0.013447926
235	0xbdcab914	-0.09898582
236	0xbd51ea85	-0.051249046
237	0x3d1e8828	0.038704067
238	0xbc9a4826	-0.018833231
239	0x3d921459	0.07132787
240	0x3d86a174	0.065737635
241	0xbd46b837	-0.048515525
242	0x3cf459de	0.029828008
243	0x3d010ad2	0.03150446
244	0xbd4c421d	-0.049867738
245	0x3d6fe6d6	0.05856975
246	0xbe654c76	-0.22392449
247	0xbcd58e3f	-0.026068805
248	0x3dd8e82b	0.105911575
249	0xbd02d5fb	-0.03194235
250	0xbd968533	-0.073496245
251	0x3cd1a7d5	0.025592724
252	0xbddb4887	-0.10707193
253	0xbd5ad9a0	-0.0534302
254	0xbc27f5b6	-0.010251453
255	0x3cf531b0	0.02993092

module.net.3.module.0.bias f4 [32]
0	0x3d442b17	0.047892656
1	0xbd905d07	-0.070489936
2	0xbc055523	-0.008137974
3	0xba77c906	-0.0009452257
4	0xbc739516	-0.014867088
5	0xbc1f74a7	-0.009732402
6	0x3db1340d	0.08652506
7	0x3d91d3b6	0.07120459
8	0xbd122c30	-0.03568667
9	0x3d9bf7c8	0.0761562
10	0xbd1ff448	-0.039051324
11	0x3d8c4c2b	0.068504654
12	0xbdb95ce2	-0.09050919
13	0x3d936cea	0.07198508
14	0xbd438274	-0.04773183
15	0xbd999757	-0.07499569
16	0x3cc1e697	0.023669524
17	0x3e00c444	0.1257487
18	0x3ca09837	0.019603832
19	0xbd84896f	-0.06471526
20	0x3dc34d23	0.09536197
21	0xbd4e5ee9	-0.050383482
22	0xbd80f4f5	-0.06296722
23	0x3db28735	0.08717195
24	0xbde447b5	-0.111464895
25	0x3cb3e6eb	0.021960696
26	0xbdc5554f	-0.09635412
27	0x3c7fbced	0.015609008
28	0x3d8523e8	0.06500989
29	0x3de0dc91	0.1097957
30	0x3c067ba3	0.008208188
31	0x3d066df1	0.032819692

module.net.4.module.0.weight f4 [32, 32, 3]
0	0x3e1f4efd	0.15557475
1	0xbd456500	-0.048192024
2	0x3e03be23	0.128655
3	0x3e1e4f9a	0.15460053
4	0xbc02b43f	-0.007977544
5	0x3dbfdb8f	0.09368049
6	0xbe26eaec	-0.16300553
7	0xbda47636	-0.080303594
8	0xbdf1fcb5	-0.11815778
9	0x3daae902	0.08345224
10	0xbd8b5327	-0.068029694
11	0x3c1b2e1b	0.009471442
12	0x3de42976	0.111407205
13	0x3db75984	0.089526206
14	0x3e1e298e	0.1544554
15	0xbe361cea	-0.17784467
16	0xbdb3d6c4	-0.08781198
17	0xbd7da740	-0.06192708
18	0xbcf06390	-0.02934435
19	0x3dad3df0	0.08459079
20	0xbcfc6765	-0.030811021
21	0x3bc4b2a4	0.006002741
22	0x3c5de5f7	0.013543597
23	0xbd24df9f	-0.040252324
24	0x3c70eb50	0.01470454
25	0x3daa141a	0.08304615
26	0x3e24a59d	0.16078801
27	0xbd8dea4d	-0.06929455
28	0xbc5a76e0	-0.013334006
29	0xbd2b75b6	-0.041860305
30	0xbde99b61	-0.11406589
31	0x3d83f974	0.06444064
32	0xbcf74ac7	-0.030187024
33	0x3e3674fe	0.17818066
34	0xbcd00df6	-0.025397282
35	0xbdf6f0cf	-0.12057649
36	0x3dabecc7	0.08394771
37	0x3d80363d	0.06260345
38	0xbca52ddb	-0.020163467
39	0x3dea6a44	0.1144605
40	0x3da75b4c	0.0817171
41	0xbdd3d3db	-0.103431426
42	0xbe23b5b4	-0.15987283
43	0x3dd663ae	0.10468231
44	0x3e0eceb8	0.13946044
45	0xbb858c63	-0.0040755733
46	0xbce831a0	-0.028343976
47	0xbcc58dd3	-0.024115479
48	0x3d8df262	0.069309965
49	0xb9f2210f	-0.00046182467
50	0x3e33886b	0.17532508
51	0x3d3dd8e4	0.04634942
52	0x3d8d9611	0.069133885
53	0xbdffcbb4	-0.12490025
54	0x3e11e5bb	0.14247791
55	0x3dc7b1d8	0.09750718
56	0xbcaed6eb	-0.021342715
57	0x3d9184b1	0.07105387
58	0x3d64a54b	0.0558217
59	0x3e3327ae	0.17495605
60	0x3db0f995	0.08641354
61	0x3d3575ea	0.044301905
62	0x3ca2e349	0.019883769
63	0x3d40dd18	0.04708585
64	0x3d8cd328	0.06876212
65	0xbccede29	-0.025252419
66	0x3d5462e1	0.05185211
67	0xbc7d690d	-0.015466941
68	0xbd5954ab	-0.05305926
69	0x3e163079	0.14666928
70	0xbc3e7fe1	-0.011627168
71	0x3dfb52df	0.12271666
72	0xbb48b78c	-0.003062698
73	0xbd511753	-0.051047634
74	0xbe32059d	-0.17384954
75	0x3db6f61f	0.089336626
76	0x3d6db942	0.058038004
77	0x3cb0b1c3	0.021569138
78	0xbd85d61b	-0.06534978
79	0x3d0fd466	0.03511467
80	0xbdc18a65	-0.09450225
81	0xbdb9d35d	-0.090735175
82	0xbda63225	-0.08115033
83	0xbd8af5f1	-0.06785191
84	0x3d2fb6d7	0.04289898
85	0xbd9922c2	-0.07477333
86	0x3c9e290e	0.019306686
87	0xbd9eed16	-0.07760064
88	0xbd6dd979	-0.058068726
89	0x3c4b59a9	0.012411513
90	0x3d057b4c	0.03258829
91	0x3d9e258c	0.07722005
92	0xbd91ce5a	-0.071194366
93	0xbdbaaf66	-0.09115486
94	0x3d3756ad	0.044760395
95	0xbdb36205	-0.0875893
96	0xbbb86d61	-0.0056282734
97	0xbe1a898f	-0.15091537
98	0x3d954dc0	0.0729022
99	0x3bd72b78	0.006566461
100	0xbd698cb0	-0.057018936
101	0xbdb8c67c	-0.09022233
102	0x3d26880e	0.040657096
103	0xbcc5517a	-0.024086703
104	0xbd09937c	-0.033587918
105	0x3d88b3a4	0.06674889
106	0xbda15675	-0.078778185
107	0x3dd114ac	0.10209021
108	0xbd8225c0	-0.063548565
109	0x3d2ec93d	0.042672385
110	0x3d610278	0.054933995
111	0x3cffa269	0.031205373
112	0xbd44464c	-0.047918603
113	0xb92eab41	-0.0001665773
114	0x3dd29e1c	0.10284063
115	0xbd9dae07	-0.07699209
116	0x3d95a881	0.0730753
117	0x3d477f3d	0.04870533
118	0xbcad6220	-0.021164954
119	0xbd5aa532	-0.0533802
120	0x3d84843a	0.06470533
121	0xbbda0d94	-0.0066544507
122	0x3dc938ad	0.09825263
123	0xbd0be2dd	-0.0341519
124	0xbd994baa	-0.07485135
125	0x3aedb7e4	0.0018136469
126	0x3cfa1682	0.03052831
127	0x3cf8e7dd	0.030383999
128	0x3daca3d2	0.08429684
129	0x3c017795	0.007902046
130	0xbcf7e105	-0.030258665
131	0xbd290f4f	-0.041274365
132	0x3d498ec5	0.04920842
133	0x3d84de20	0.064876795
134	0xbd86e4d9	-0.06586618
135	0xbd44bd39	-0.04803202
136	0x3b8aff77	0.0042418796
137	0xbdc73940	-0.097277164
138	0x3cb1ef8e	0.021720674
139	0xbd9c7993	-0.07640376
140	0xbe1199a4	-0.14218765
141	0x3dc95553	0.098307274
142	0x3d271a57	0.040796604
143	0x3db83bce	0.08995782
144	0x3d30f288	0.043200046
145	0xbe04ead8	-0.12980211
146	0xbcc9c7b3	-0.024631357
147	0xbe200fbd	-0.15631004
148	0xbd9569b0	-0.07295549
149	0x3d58d21d	0.052934755
150	0xbdf5d010	-0.120025754
151	0xbdfe4824	-0.124161035
152	0xbc7428d1	-0.0149023095
153	0x3da8ff7a	0.08251853
154	0xbdacec13	-0.08443465
155	0x3e4f646b	0.2025315
156	0x3b4e278a	0.0031456673
157	0x3d91365a	0.07090445
158	0x3b84affa	0.0040492984
159	0x3dc1330e	0.09433566
160	0xbd1e957e	-0.038716786
161	0xbd45939d	-0.048236478
162	0xbdebe7d8	-0.1151883
163	0xbdb78b64	-0.089621335
164	0xbb0586a8	-0.002037445
165	0xbda12ec1	-0.07870246
166	0xbd9c59b1	-0.07634295
167	0x3d73a234	0.05948086
168	0xbd974bdd	-0.07387517
169	0xbd973505	-0.073831595
170	0xbdc94451	-0.098274834
171	0x3d8b76b2	0.06809749
172	0x3dc9347b	0.09824463
173	0xbd3538ae	-0.044243507
174	0xbd1958fa	-0.03743837
175	0x3d6a6be4	0.0572318
176	0xbe4a6d52	-0.19768265
177	0xbda4060b	-0.08008965
178	0xbdbf1e66	-0.0933197
179	0xbcc3c39a	-0.023896981
180	0xbc8d5a2d	-0.017254913
181	0x3d18ffdc	0.03735338
182	0xbd31e55c	-0.043431625
183	0x3c9e8773	0.019351697
184	0x3d786c02	0.06064988
185	0xbd856690	-0.06513703
186	0x3c27dd07	0.010245568
187	0xbd6183b5	-0.055057246
188	0xbcd760b3	-0.026291227
189	0xb960f775	-0.0002145449
190	0xbc34377e	-0.0109995585
191	0x3de16f2f	0.11007535
192	0xbb3d6ea4	-0.0028905058
193	0x3aa75866	0.0012767434
194	0xbde51a44	-0.111866504
195	0x3c852570	0.016253203
196	0xbd920113	-0.07129111
197	0x3b6941ae	0.0035592127
198	0x3bc2397d	0.0059272633
199	0x3c77cbd1	0.015124277
200	0x3da5da8f	0.08098327
201	0xbc5d9b3b	-0.013525779
202	0xbcb11256	-0.021615189
203	0x3d41ca58	0.04731211
204	0x3d167986	0.036736988
205	0x3ded1a79	0.11577315
206	0xbd460b83	-0.048350822
207	0x3d5bfae9	0.053706083
208	0xbdd1ffd1	-0.10253871
209	0xbd0d7aab	-0.034540813
210	0xbdce886d	-0.10084615
211	0xbdc929bf	-0.098224156
212	0xbd02d7f2	-0.031944223
213	0xbdb18169	-0.08667261
214	0xbdc779dc	-0.0974004
215	0xbd93c5cb	-0.072154604
216	0x3d413e32	0.047178455
217	0x3d8add50	0.06780493
218	0xbd20d00b	-0.039260905
219	0xbd70afd0	-0.058761418
220	0xbd43c944	-0.047799364
221	0xbca4bca0	-0.020109475
222	0x3d431849	0.047630582
223	0x3d30090c	0.042977378
224	0xbd164d07	-0.036694553
225	0x3c50f558	0.012753807
226	0x3d7ca7ed	0.061683584
227	0x3df4fe9d	0.11962626
228	0x3bf0cfc6	0.0073489873
229	0x3da5bc2c	0.080925316
230	0x3cf85725	0.030314991
231	0xbd890ae2	-0.06691529
232	0x3d96c35d	0.07361481
233	0xbb8f5f3c	-0.0043753665
234	0xbdf79cd4	-0.120904595
235	0x3d319810	0.04335791
236	0xb8aa565f	-8.1223196e-05
237	0x3c254bf3	0.0100889085
238	0xbd5c272c	-0.053748295
239	0x3af9e1e3	0.0019064512
240	0x3d7b818c	0.061402842
241	0x3dca285a	0.09870978
242	0xbd06a267	-0.032869723
243	0x3be7544b	0.007059609
244	0xbd114b7c	-0.035472378
245	0xbd2eb587	-0.042653587
246	0xbd9b4aee	-0.07582651
247	0x3c643e53	0.013930875
248	0x3d25054d	0.04028826
249	0x3d98be34	0.07458153
250	0x3cdf54b7	0.027262075
251	0x3d8f3423	0.06992366
252	0x3d7ba482	0.061436184
253	0xbd4f5656	-0.050619446
254	0xbd77c010	-0.0604859
255	0xbde58266	-0.11206512

module.net.4.module.0.bias f4 [32]
0	0xbd84916a	-0.06473048
1	0x3d2e4d85	0.042554397
2	0x3d94ba45	0.072620906
3	0xbbe7f418	-0.007078659
4	0x3dac92b6	0.084264204
5	0x3d45ac7d	0.0482602
6	0x3dbd16cc	0.09232864
7	0x3cc114fa	0.023569573
8	0xbbbbaeed	-0.00572764
9	0xbd1d0381	-0.03833342
10	0x3c5e2ba5	0.01356021
11	0xbc2ad399	-0.010426425
12	0x3cc4fdec	0.02404686
13	0xbc4a30ea	-0.012340764
14	0x3db48ce2	0.08815934
15	0xbd14c457	-0.036320057
16	0x3dc16184	0.09442428
17	0xbd4ceb77	-0.050029244
18	0xbc85292f	-0.01625499
19	0xbddc8f76	-0.107695505
20	0xbc88bad4	-0.01669065
21	0xbd8e7139	-0.06955189
22	0x3dc52ac6	0.09627299
23	0x3dcad219	0.09903354
24	0xbdb34120	-0.08752656
25	0x3d97c112	0.07409872
26	0x3da088e5	0.078386106
27	0xbd82bd7d	-0.06383798
28	0xbcb90bac	-0.022588573
29	0xbd1094f2	-0.035298295
30	0x3dc2292d	0.0948051
31	0x3cc3077a	0.023807276

module.net.5.weight f4 [32, 32, 3]
0	0x3d72971b	0.059226137
1	0x3c692f60	0.0142324865
2	0x3d299bf7	0.041408505
3	0x3c8a2775	0.016864518
4	0x3c0124a5	0.007882272
5	0x3d4108fe	0.047127716
6	0x3d8f2108	0.06988722
7	0x3d5dfabd	0.0541942
8	0x3d8b948e	0.06815444
9	0x3dfd9bcb	0.12383231
10	0x3d7902e9	0.06079379
11	0x3d8fb363	0.07016637
12	0xbd1d8a33	-0.038461875
13	0xbd907b5d	-0.0705478
14	0xbdccadd7	-0.09994095
15	0xbd9a1ab1	-0.07524622
16	0xbc530818	-0.012880348
17	0xbde17d3a	-0.11010213
18	0xbcb03062	-0.021507446
19	0xbd9aad99	-0.075526424
20	0xbdb4d042	-0.088287845
21	0x3c92048e	0.017824437
22	0xbde1e470	-0.11029899
23	0xbdac9996	-0.08427732
24	0x3dc75fc7	0.09735065
25	0xbd9c0081	-0.076172836
26	0x3d6cd9c7	0.057824876
27	0xbdb892d6	-0.09012382
28	0xbcdc28a3	-0.026874846
29	0x3bf04e95	0.0073335865
30	0x3dde68ed	0.10859857
31	0x3dbd8c25	0.09255246
32	0x3ded2af5	0.11580459
33	0x3d120894	0.035652712
34	0xbd2418b2	-0.040062614
35	0x3c63f896	0.013914248
36	0xbae46cff	-0.0017427503
37	0xbcf159ca	-0.02946176
38	0x3dd9ea39	0.106403776
39	0x3cf0e2dd	0.029405052
40	0x3d7e9293	0.062151503
41	0x3db14834	0.0865635
42	0x3d1cc768	0.038276106
43	0x3d9f6b02	0.07784082
44	0x3da7b37f	0.08188533
45	0x3cf82e70	0.03029558
46	0x3dc85e14	0.09783569
47	0xbcaa8c4e	-0.020818856
48	0x3d494886	0.04914143
49	0xbdb90da8	-0.09035808
50	0x3d77a323	0.060458314
51	0xbdc16ed9	-0.09444971
52	0xbc86f82a	-0.016475756
53	0xbe1a02ae	-0.15040085
54	0xbda18aa1	-0.078877695
55	0x3c6cee15	0.01446106
56	0xbcad4699	-0.021151828
57	0x3cc0ae4d	0.023520613
58	0x3d8776b5	0.066144384
59	0x3cbcf8c5	0.023067841
60	0xbdcc8060	-0.09985423
61	0x3d8b0c48	0.06789452
62	0xbd75b86e	-0.05999034
63	0xbdc2d548	-0.095133364
64	0xbd8542c3	-0.065068744
65	0xbc1149e0	-0.008867711
66	0xbda93b5f	-0.08263277
67	0xbdb58236	-0.088627264
68	0xbd0f76ee	-0.03502553
69	0x3cd5b473	0.026087021
70	0x3c1b7095	0.009487291
71	0xbd98e128	-0.0746482
72	0x3ccb36c9	0.024806397
73	0x3ccc0184	0.024903066
74	0x3dc6403f	0.09680223
75	0x3bbd8d5f	0.005784675
76	0xbd95f123	-0.07321384
77	0xbdc2c4a2	-0.09510161
78	0xbcbf064c	-0.023318432
79	0x3d6718e0	0.056420207
80	0x3b3ef2c1	0.0029136392
81	0x3de9741d	0.113991
82	0x3cfb265a	0.030657936
83	0xbcc9a1f5	-0.02461336
84	0x3d8b67f0	0.06806934
85	0x3d2e4471	0.04254574
86	0xbbb78faf	-0.005601845
87	0x3da89361	0.08231235
88	0x3c4d2898	0.012521885
89	0x3d8ff9ae	0.070300445
90	0xbb80d42f	-0.0039315443
91	0xbd83b23a	-0.064304784
92	0x3d5d3a29	0.054010544
93	0xbd8c6e66	-0.06856994
94	0xbc26b96c	-0.010176044
95	0xbcd81f7e	-0.026382204
96	0xbdb67cf0	-0.08910549
97	0x39c7d438	0.00038114353
98	0xbd2d8de1	-0.042371634
99	0x3bce8d26	0.0063034473
100	0x3d86e576	0.06586735
101	0xbdb6bdcb	-0.08922919
102	0xbdd17a88	-0.10228449
103	0xbd596ecb	-0.053084176
104	0x3b502025	0.003175744
105	0xbda468e1	-0.080278166
106	0xbb420354	-0.0029604034
107	0xbdafb76e	-0.08579908
108	0xbd902df6	-0.07040016
109	0xbca8fcf9	-0.02062844
110	0x3d814dfc	0.063137025
111	0x3d035bc8	0.03206995
112	0x3d4ec8b9	0.050484393
113	0x3d6d1eaa	0.05789057
114	0x3d9a0b0e	0.0752164
115	0x3c9521d3	0.018204605
116	0x3dc13e30	0.094356894
117	0x3dd29ccf	0.10283815
118	0x3d1f8682	0.038946636
119	0x3e002c9a	0.12517014
120	0xbd35af14	-0.04435642
121	0x3bcf52d6	0.0063270135
122	0x3b4a96cb	0.0030912634
123	0xbc018d77	-0.007907263
124	0x3d961feb	0.073303066
125	0xbd11860c	-0.035528228
126	0xbc084ee6	-0.008319592
127	0xbda8ccd1	-0.08242191
128	0x3c335ab5	0.010946919
129	0x3d50d2fd	0.050982464
130	0xbb027671	-0.0019907022
131	0x3dbbcda2	0.09170081
132	0x3d0080ed	0.031372953
133	0xbd889546	-0.06669097
134	0xbda6a602	-0.08137132
135	0xbd776176	-0.06039568
136	0xbca61001	-0.020271303
137	0xbe0424d5	-0.12904675
138	0xbaab9fed	-0.0013093926
139	0x3d839096	0.06424062
140	0x3d33c800	0.043891907
141	0x3ce8b9ed	0.028408969
142	0x3c01f0d2	0.007930951
143	0xbd8e9569	-0.069620915
144	0xbc7931e8	-0.0152096525
145	0x3c50b5fe	0.012738703
146	0x3d165550	0.036702454
147	0x3ce787f1	0.028263064
148	0x3d96fd33	0.07372513
149	0x3d6d4e35	0.057935912
150	0xbc014658	-0.007890306
151	0x3d873939	0.06602711
152	0xbd64f38d	-0.05589633
153	0xbd57e78d	-0.05271106
154	0xbd4155ab	-0.04720084
155	0xbba6fb9e	-0.005095913
156	0x3d85a4ce	0.065255746
157	0x3d04a012	0.032379217
158	0x3d6e1fb6	0.05813571
159	0x3d364b6d	0.044505525
160	0xbc0bdc46	-0.008536404
161	0xbb539e3d	-0.0032290362
162	0xbbd855d1	-0.006602027
163	0xbbd03518	-0.0063539855
164	0x3d2d08a1	0.042244557
165	0x3dd36553	0.103220604
166	0x3dbc8d56	0.09206645
167	0xbcb1f677	-0.021723969
168	0xbd042eeb	-0.032271307
169	0xbd726683	-0.059179794
170	0xbd9039c0	-0.07042265
171	0x3d7858db	0.060631614
172	0x3cae2c24	0.021261282
173	0x3c1970ad	0.009365243
174	0x38bdecc2	9.056322e-05
175	0xbc9d9096	-0.019233983
176	0x3c71d79f	0.014760881
177	0xbdd5f291	-0.104466565
178	0xbdb6641a	-0.089058116
179	0x3c2ff3e2	0.010739299
180	0xbce5f8bc	-0.028072707
181	0xbd4b1d59	-0.049588535
182	0xbcab21b6	-0.020890098
183	0xbd573524	-0.052540913
184	0xbd10f167	-0.03538647
185	0xbc922ed7	-0.0178446
186	0xbd07cd65	-0.033154864
187	0x3be1c325	0.006889718
188	0xbd653b56	-0.05596479
189	0xbc70f3cf	-0.014706566
190	0x3d660900	0.056160927
191	0xbcf2b844	-0.02962888
192	0x3d28df95	0.04122885
193	0x3d4ca88c	0.049965426
194	0xbd9bcba2	-0.07607199
195	0x3ce75a18	0.028241202
196	0xbb20ad07	-0.0024517195
197	0x3cd7ef62	0.026359264
198	0xbd9136f7	-0.07090562
199	0xbc64ba1f	-0.01396039
200	0xbbeb9999	-0.007189941
201	0xbdd9ef3b	-0.10641333
202	0x3d68373e	0.056693308
203	0xbd824054	-0.06359926
204	0x3c0cdd9c	0.008597758
205	0xbd8198cc	-0.06327972
206	0x3d511170	0.05104202
207	0x3cfeec4e	0.031118538
208	0x3cdbb85a	0.026821304
209	0xbd238d1e	-0.0399295
210	0xbd32db25	-0.043666024
211	0x3dab052d	0.083505966
212	0x3dc80c2a	0.09767945
213	0x3ba2ff9d	0.004974319
214	0x3d83c522	0.064340845
215	0x3d54ce35	0.051954467
216	0xbd6e7284	-0.05821468
217	0x3c7e172e	0.015508456
218	0xbc06b1a8	-0.0082210675
219	0x3d9d03a4	0.0766671
220	0x3cf04c96	0.029333394
221	0xbae0d28f	-0.0017152595
222	0xbd1b5203	-0.03792001
223	0xbdcafd0b	-0.09911545
224	0xbd93d061	-0.072174795
225	0xbd2bf668	-0.04198304
226	0x3c11e843	0.008905473
227	0xbc92cbb2	-0.017919395
228	0x3cfc1a33	0.030774212
229	0x3dac2d3e	0.08407067
230	0xbc9c30c8	-0.01906623
231	0xbc1c6713	-0.009546059
232	0xbcb3655a	-0.021898914
233	0xbc97db65	-0.018537233
234	0xbd4944ac	-0.049137756
235	0xbd144a77	-0.036203828
236	0xbd47bc51	-0.048763577
237	0xbc8834f1	-0.016626807
238	0x3d529a4f	0.05141669
239	0x3b771f2a	0.0037707784
240	0x3cb61200	0.02222538
241	0xbb10d318	-0.0022098478
242	0x3d4c54b2	0.04988546
243	0x3cb5ded8	0.022200987
244	0x3d31c673	0.043402147
245	0x3cbe5c0a	0.023237247
246	0x3d2393cf	0.039935883
247	0x3cd787ea	0.026309926
248	0xbd47d0f6	-0.048783265
249	0xbda8bbc3	-0.08238938
250	0x39cf1217	0.00039495595
251	0x3dc80f97	0.097685985
252	0xbc201eb3	-0.009772944
253	0x3cc29e65	0.023757169
254	0xbca5faa0	-0.020261109
255	0x3d86c99c	0.06581423

module.net.5.bias f4 [32]
0	0xbde1279a	-0.109938815
1	0x3d6e4773	0.058173608
2	0x3c1a2b9d	0.009409812
3	0x3cce4ad2	0.025182161
4	0xbccaf9a4	-0.024777241
5	0xbc8a92a7	-0.016915632
6	0xbb9fcce7	-0.004876721
7	0xbda45f8b	-0.08026036
8	0xbd182080	-0.03714037
9	0x3d1ac8ef	0.03778928
10	0xbd8ef2ab	-0.06979879
11	0xbd35f825	-0.044426102
12	0x3c201dd9	0.009772741
13	0xbd26719e	-0.040635698
14	0x3d170b84	0.036876217
15	0xbd8dde4a	-0.06927164
16	0xbd6ca717	-0.057776537
17	0x3d29c18d	0.04144435
18	0xbd81f8c0	-0.063462734
19	0x3d5108d8	0.051033825
20	0xbd46935d	-0.04848038
21	0xbd4c5a0d	-0.049890567
22	0xbcbd90cf	-0.02314034
23	0x3d567640	0.052358866
24	0x3d12094c	0.035653397
25	0xba29411b	-0.000645654
26	0x3d1177aa	0.03551451
27	0x3c815977	0.01578973
28	0x3b709575	0.0036710177
29	0xbc454581	-0.012040497
30	0x3d9734fb	0.07383152
31	0x3aa40756	0.0012514393

exp_avg f4 [32, 12, 2]
0	0xbc1757da	-0.009237254
1	0xbbd20708	-0.0064095296
2	0x38011c70	3.078248e-05
3	0x384a6910	4.82584e-05
4	0xb9c92bb7	-0.00038370278
5	0xb9e070cd	-0.00042808653
6	0x39bccbcd	0.00036009998
7	0x37e596d8	2.736917e-05
8	0x3a3743d8	0.00069910055
9	0x3a962942	0.0011456388
10	0x388fff10	6.8662805e-05
11	0x38eb361a	0.000112157504
12	0x3a81f8ae	0.0009916031
13	0x3a40a6b2	0.0007349058
14	0x3a899828	0.0010497617
15	0x3a8bc934	0.0010664822
16	0xb94934de	-0.00019188548
17	0xb88be0a3	-6.669878e-05
18	0x3872c88f	5.788408e-05
19	0x3998f426	0.00029173604
20	0xba52e142	-0.000804443
21	0x39864e42	0.00025616778
22	0xb52fe7c2	-6.552983e-07
23	0xb5a505fb	-1.2295199e-06
24	0xba18bc9e	-0.0005826446
25	0x3a00b09e	0.00049091305
26	0xbb865153	-0.00409905
27	0xbab9ac3b	-0.0014165709
28	0xb9609610	-0.00021418207
29	0xb98087a8	-0.00024515134
30	0xb8971e42	-7.205877e-05
31	0xb951db8a	-0.00020013578
32	0xbaa64176	-0.0012684304
33	0xbaa1ad55	-0.0012334982
34	0x37e856f8	2.7697053e-05
35	0x37df2888	2.6602545e-05
36	0x3a9136b6	0.0011078927
37	0x3a057408	0.00050908374
38	0xb80487ba	-3.1597658e-05
39	0xb861573a	-5.3725416e-05
40	0xb7aea0ba	-2.081726e-05
41	0xb9c41684	-0.0003740081
42	0x392c628a	0.00016439907
43	0x38eabd9e	0.000111933085
44	0x3a880063	0.0010376092
45	0x3a7464f6	0.00093229057
46	0x34bb96f0	3.4941286e-07
47	0x34eecdec	4.4480782e-07
48	0x3a5351a4	0.00080611766
49	0xbaf8f9a8	-0.0018995302
50	0x3b50c19e	0.0031853686
51	0x3b86b8f9	0.004111406
52	0xb87a3fea	-5.966417e-05
53	0x382f3adc	4.177807e-05
54	0xb9c74187	-0.0003800506
55	0xb8f40f94	-0.00011637728
56	0x3a291e2b	0.0006451334
57	0x39f6e284	0.00047089544
58	0xb78d6016	-1.6853253e-05
59	0xb7ab8682	-2.0447424e-05
60	0xb9f785d1	-0.00047211212
61	0x37456b30	1.1767072e-05
62	0xb9d4a849	-0.00040561173
63	0xb92c1708	-0.00016411778
64	0x3a55773f	0.0008143074
65	0x3a2771e5	0.0006387516
66	0x39237f80	0.00015592389
67	0xb8d114e7	-9.96979e-05
68	0xba2b5251	-0.00065353984
69	0xb92d8603	-0.00016548489
70	0xb4f08e04	-4.4806814e-07
71	0x340c2589	1.3052171e-07
72	0x3be80d56	0.007081668
73	0x3bc1515b	0.005899591
74	0xb984d63c	-0.0002533662
75	0x395a4eda	0.00020819475
76	0x3833ac6c	4.2837506e-05
77	0x39151e7b	0.00014221102
78	0xb84c66f0	-4.8733258e-05
79	0xba27c8ec	-0.0006400484
80	0xba052e86	-0.000508048
81	0x38c7a4cc	9.519755e-05
82	0x37f1d81c	2.8830073e-05
83	0x35af9f56	1.3084889e-06
84	0x3963f27c	0.0002173874
85	0x3aac0030	0.0013122614
86	0x3a6f6c4e	0.0009133265
87	0xb98c7e50	-0.0002679699
88	0xba281d7d	-0.00064130855
89	0xb9b8dae9	-0.00035258316
90	0x39d83e47	0.0004124513
91	0x3aeddfd9	0.0018148377
92	0x3b65c018	0.0035057124
93	0x3b208061	0.0024490582
94	0x35495bef	7.5012116e-07
95	0x3602681d	1.9432111e-06
96	0xba1e1f4c	-0.0006031885
97	0x38a98f89	8.0852835e-05
98	0xba94aba2	-0.0011342654
99	0xb972be50	-0.00023149815
100	0xb94577a8	-0.0001883196
101	0x3a56b22a	0.00081900007
102	0x372a3da3	1.01471405e-05
103	0xb99b646d	-0.00029638727
104	0x3957ba88	0.00020573486
105	0x39052130	0.00012696232
106	0x35b00028	1.3113067e-06
107	0x37213b53	9.61016e-06
108	0xb8985b29	-7.264905e-05
109	0xba2c5fad	-0.0006575536
110	0x3a781f74	0.0009465136
111	0x3a177ee6	0.0005779102
112	0xb986166b	-0.00025575174
113	0xba098cf7	-0.00052471407
114	0x37fcd630	3.014048e-05
115	0x38c15568	9.218865e-05
116	0xba3d478b	-0.00072204386
117	0xb8fd8069	-0.00012087898
118	0x32b3c64c	2.0928518e-08
119	0x33890e1d	6.382127e-08
120	0x3c1a44dd	0.009415832
121	0x3b91a382	0.0044445405
122	0xba121113	-0.0005572002
123	0xb98c7711	-0.00026791592
124	0x3a1036bc	0.000550132
125	0x3a25e41a	0.000632824
126	0x397aa2d9	0.00023902523
127	0xba7672c4	-0.00094012567
128	0xb9222998	-0.00015465019
129	0x3924a762	0.00015702614
130	0xb8714f78	-5.753289e-05
131	0xb874fb4a	-5.8408164e-05
132	0x363961a6	2.7623987e-06
133	0xba3d5375	-0.0007222214
134	0xba262f44	-0.00063394406
135	0xba655018	-0.00087475916
136	0x387c8d3d	6.021302e-05
137	0xb93744bd	-0.00017477847
138	0xb80a8724	-3.3027623e-05
139	0x3a5a6b90	0.0008332068
140	0x3aab1ee5	0.0013055472
141	0x385de7be	5.2906333e-05
142	0x345f9978	2.0824325e-07
143	0x3534fdf4	6.7424776e-07
144	0x3aa7f1e4	0.0012813178
145	0xba4c16db	-0.0007785388
146	0x3a365930	0.0006956039
147	0x390cd388	0.00013430242
148	0x39dcbb26	0.00042101106
149	0x3a4b9d1f	0.00077672483
150	0xba29e75e	-0.0006481315
151	0x389b630a	7.4094234e-05
152	0x3a0001c8	0.0004883078
153	0x395dc44c	0.00021149329
154	0x354b68dd	7.577599e-07
155	0x3787c76e	1.618612e-05
156	0x374bc5a6	1.21457615e-05
157	0x39394475	0.00017668477
158	0x38534113	5.0366925e-05
159	0x38ef045c	0.0001139722
160	0xb7c8ce4f	-2.3937928e-05
161	0x398659e8	0.00025625457
162	0xb77166bd	-1.438864e-05
163	0xb80dcc6f	-3.3807413e-05
164	0xba5cf191	-0.000842833
165	0xbadf14a7	-0.0017019705
166	0x338463f0	6.1649075e-08
167	0xb4c05fd4	-3.583251e-07
168	0xba98448c	-0.0011617108
169	0xbb74e69c	-0.00373689
170	0x3b816508	0.0039488114
171	0x394d2ec8	0.00019567751
172	0x396eeb2c	0.00022785057
173	0x38812c44	6.1594445e-05
174	0xb99e658c	-0.00030211767
175	0xb98b0c99	-0.00026521532
176	0xb8747fc0	-5.829311e-05
177	0x3a228c26	0.00062006933
178	0x3733bfe5	1.071391e-05
179	0x387a4309	5.9667076e-05
180	0x375670e4	1.2781678e-05
181	0xb9199fdb	-0.00014650768
182	0x3a2a5e55	0.0006499042
183	0x39a1def8	0.00030874438
184	0x39069bd8	0.00012837292
185	0xb8d76e01	-0.00010272489
186	0x34be1e00	3.5412086e-07
187	0xb8cb4ee9	-9.6944925e-05
188	0x3590d2d8	1.07902e-06
189	0xb90bd906	-0.0001333692
190	0xb4863cc8	-2.500367e-07
191	0xb58228da	-9.697644e-07
192	0x39fe22ab	0.00048472485
193	0xbb6a6ea5	-0.0035771516
194	0x3b1c8358	0.0023881998
195	0xb9858620	-0.00025467668
196	0xb9f2aaae	-0.00046285003
197	0xba8dd4b7	-0.001082084
198	0x377faf18	1.5239952e-05
199	0x3a7d30bb	0.00096584455
200	0x37852138	1.5870304e-05
201	0xb9d7e0ec	-0.00041175575
202	0xb5a548ec	-1.2314681e-06
203	0xb8a792e2	-7.9905396e-05
204	0x39586af1	0.00020639204
205	0xb98e1e7b	-0.0002710706
206	0xba8210d4	-0.0009923228
207	0xba2e4764	-0.0006648211
208	0x390c40fd	0.0001337565
209	0x39998854	0.00029284006
210	0xb7f06c32	-2.8660612e-05
211	0xb9e95017	-0.00044500895
212	0x3a152c4d	0.00056905
213	0x395e7fee	0.00021219227
214	0xb24fc415	-1.209357e-08
215	0x312566cc	2.4069093e-09
216	0xb9923733	-0.00027888417
217	0xba884e54	-0.001039932
218	0xb8b52737	-8.638057e-05
219	0xba5d14a3	-0.0008433556
220	0xb9b77a38	-0.0003499554
221	0x384d1288	4.8893067e-05
222	0x39dcfdd2	0.0004215078
223	0x37c84a7a	2.3876539e-05
224	0xb9bae05b	-0.00035643842
225	0xb881f551	-6.196893e-05
226	0x3529d3a6	6.3265395e-07
227	0x38454030	4.702824e-05
228	0x3967c6a0	0.0002210387
229	0xba1f8b48	-0.0006086123
230	0x3a1f6d74	0.00060816784
231	0x3858b674	5.1668336e-05
232	0xb85a4738	-5.2041578e-05
233	0xb96e75d0	-0.00022741337
234	0x38f45af1	0.00011651766
235	0x39c7a321	0.00038077778
236	0x3ac0c8d3	0.0014708288
237	0xba27cc0f	-0.00064009515
238	0x32f49e9d	2.8477467e-08
239	0xb4cdaaf1	-3.8308602e-07
240	0xba3f66b0	-0.00073013734
241	0xbb3659b8	-0.0027824473
242	0x3b3e92b2	0.0029079136
243	0x3b170d09	0.002304854
244	0x39104862	0.00013759875
245	0xb89fd6a8	-7.621694e-05
246	0x35d3fb3c	1.5793844e-06
247	0x398fceb2	0.00027429085
248	0x3a967284	0.001147822
249	0x398b351a	0.0002655171
250	0xb5a9aae6	-1.2641219e-06
251	0x38a7d834	8.0034515e-05
252	0xb78fe0c0	-1.7151586e-05
253	0xb9916486	-0.0002773145
254	0x386d27a2	5.6542114e-05
255	0x39982dff	0.0002902597
