cebra_models/necab1/01/B/cebra_trialID_model_5000_32_B.pt (torch, 638841 bytes, 31 tensors)

net.0.weight f4 [32, 403, 2]
000000 e2 24 cf 3c 98 60 38 bb 68 67 d9 bc 59 4c 07 3c
       0.025286142 -0.0028133746 -0.026538566 0.008257949
000010 6b 32 46 bd 46 41 8d bc a7 22 bd 3b c0 5a 1e bd
       -0.048387926 -0.017243039 0.005771953 -0.038660765
000020 1d d6 24 bc bb 0f 2a bd 8a 50 44 3c a9 9b 82 3c
       -0.010060814 -0.041518908 0.011982093 0.015943365
000030 83 e1 39 bc 0b 85 27 3c b9 0b 18 bd 73 26 2c bd
       -0.01134527 0.010224591 -0.037120555 -0.042028856
000040 01 90 fa ba 0e 5f 4f bc 90 6c 85 bc b0 12 04 bd
       -0.0019116403 -0.01265694 -0.016287118 -0.032244384
000050 d6 70 13 bb 01 5b 13 bd 92 b5 df 3b b3 92 79 3c
       -0.0022497675 -0.03597546 0.006827065 0.01523273
000060 96 92 f7 3b 6d 09 a1 3c cb a5 f7 3c 06 32 bd bc
       0.007555316 0.019657815 0.030230423 -0.023095142
000070 e3 27 8e bc 44 58 cc 3b b9 d2 c6 3c d1 e5 af ba
       -0.017353004 0.006236108 0.024270402 -0.0013419931
000080 c6 b5 49 bc f1 7e ea bc c4 18 35 bb 36 23 08 3c
       -0.012311405 -0.028624984 -0.002763317 0.008309176
000090 d9 50 11 bb c8 6c 80 3c 75 b4 99 39 9f 71 8b bc
       -0.0022173433 0.015676871 0.00029316885 -0.017021952
0000a0 a4 3a a2 3c 20 f5 95 bb 54 8d 0c bc 1e 25 cd ba
       0.019803353 -0.0045763403 -0.008578617 -0.001565132
0000b0 05 06 4a 3b 59 5c ab bc c6 08 31 bd db de 3c bc
       0.0030826342 -0.020918058 -0.043221258 -0.011527742
0000c0 e8 39 c7 bc 20 f7 9a 3d de 83 0a 3c 46 bf c7 3c
       -0.024319604 0.075666666 0.008454291 0.024383198
0000d0 91 3b da ba ab e6 6f bb de ee e2 bb 68 de 88 bc
       -0.0016649832 -0.0036605995 -0.006925448 -0.016707614
0000e0 08 76 b4 bb fd b5 90 bc 38 45 bc 3c 7b 15 eb bc
       -0.0055072345 -0.017664904 0.022982225 -0.028696766
0000f0 08 87 08 bc 1c 3d 88 bc 13 91 5e 3b f0 1c d6 3b
       -0.008332975 -0.016630702 0.0033960983 0.0065342113
000100 2a 9e 01 3c dc 0c 71 bd 0a df 4c b8 80 53 bb 3a
       0.007911244 -0.058850154 -4.884511e-05 0.0014291853
000110 41 42 2d bd c9 8f ad 3b f3 c3 a9 3b d2 b7 b2 bc
       -0.042299513 0.0052966815 0.0051808297 -0.021816168
000120 a2 df d4 bc 8f 78 c3 bc 60 51 38 39 e4 7b 3d bb
       -0.025985543 -0.023861198 0.00017577922 -0.0028912956
000130 0e 02 79 3a 9e ac 3a bd b2 12 af 3b c5 0a 9b bc
       0.00094989024 -0.045574777 0.005342805 -0.018926034
000140 9e 03 6c 3c 15 b7 91 bc 48 d9 30 3c b9 70 40 3c
       0.014405159 -0.017787496 0.010793991 0.011745625
000150 f1 2e cf bb 0e 2a 83 3c de 82 6e bd 58 a3 0c bd
       -0.0063227345 0.016011264 -0.058230273 -0.034335464
000160 c9 a4 0c 3c 9c 71 9e bc 77 53 06 3d da c3 f8 bc
       0.00858421 -0.019341283 0.032794442 -0.030366827
000170 9e e5 db bc 50 2b ab 3c 90 d9 12 bd d3 39 05 3d
       -0.026842888 0.020894676 -0.035852015 0.03252585
000180 e3 92 a5 bc 87 94 f5 3c 64 24 30 3c 1f 07 3d b9
       -0.020211643 0.02997805 0.010750864 -0.00018027097
000190 bf 34 24 bd e7 84 6b bd 13 2e f6 bc 75 82 ed 3c
       -0.040089365 -0.057499792 -0.030051267 0.02899287
0001a0 9b 4c 14 bd 32 50 a5 bb 64 9e 36 bc e9 6a 0a bb
       -0.03620587 -0.0050449604 -0.011146162 -0.0021120852
0001b0 b0 e0 19 3d 26 82 6e 3c 76 7f b5 3a 60 1a ac 3b
       0.037567794 0.014557397 0.001384719 0.0052521676
0001c0 82 26 53 3b e2 85 01 3d 92 4f 22 bd a7 32 93 3b
       0.0032218997 0.03162182 -0.039626665 0.004492122
0001d0 0d f8 2e bd d0 e0 16 bc 09 46 9e 3b 8c 61 31 3d
       -0.04271703 -0.009208873 0.004830126 0.04330592
0001e0 3d 68 a0 3c 17 8c bc bc 2f a3 a0 bc 12 2b d1 bb
       0.019580955 -0.023016019 -0.019609062 -0.006383308
0001f0 3f e1 3a 3c 20 ce dc bb 46 e4 a2 bc ad 14 26 3c
       0.011406242 -0.006738439 -0.01988424 0.010136765
000200 e8 ab 03 bd 2d a5 3e bd b3 a9 8b 3b 85 c8 56 3c
       -0.032146364 -0.046544243 0.004262173 0.013109331
000210 24 49 17 bc d4 25 11 39 cf 5c 4a 3c 60 86 55 bc
       -0.009233747 0.0001384237 0.012351229 -0.013032526
000220 58 ff 01 bd 33 2e ab bc 1e de 94 3b 07 86 e4 bc
       -0.031737655 -0.020896053 0.00454308 -0.02789594
000230 5d 5a 32 bd 63 86 98 3c da 18 11 bd 42 f7 11 bd
       -0.04354321 0.018618768 -0.03542409 -0.035636194
000240 e6 cd d8 bc 4e 32 e0 3b 9e d6 7f bc fe 00 9c 3c
       -0.026465368 0.0068419343 -0.015615134 0.019043442
000250 8a 76 90 bc cf 31 98 b9 c4 ac d5 ba 7f 14 50 3d
       -0.017634649 -0.0002902881 -0.0016302099 0.050800797
000260 61 b6 01 bd b4 46 01 3c ef 80 0e 3d 83 99 2a bd
       -0.03166807 0.007890392 0.03479093 -0.041650306
000270 dc 61 72 3c 5f f8 08 bd 91 2a 1d bd e8 24 45 bc
       0.014793839 -0.03343999 -0.038370673 -0.012032725
000280 b0 51 0a bd 6d 49 c2 bb ad f3 09 bd e4 46 fa 3c
       -0.03376931 -0.005929163 -0.033679653 0.030551381
000290 0c aa 1c 3d 27 94 3a bc 50 8a a9 3c 1d 99 66 bd
       0.038248107 -0.011387861 0.020695835 -0.056298364
0002a0 c9 f7 01 bd 12 88 4c 3c b9 46 a5 bc e8 cd 65 bc
       -0.031730447 0.012483614 -0.020175325 -0.014026143
0002b0 5c 17 cf bc 67 00 1f bd 13 11 4f 3b 6e 6e d1 3c
       -0.025279693 -0.038818743 0.003159587 0.025565352
0002c0 8f e8 8f 3c fd c6 5a bc b8 b4 10 bd 6c 14 54 3b
       0.017566947 -0.013353107 -0.035328597 0.0032360805
0002d0 36 75 23 bb 4e e4 00 bd e9 40 a1 3c 1f 71 f9 3c
       -0.002494169 -0.03146773 0.019684272 0.030449448
0002e0 94 8a 78 bc ce 03 28 3c 12 2f fd 3c 52 18 61 bc
       -0.015169758 0.010254813 0.030906234 -0.013738709
0002f0 37 94 7a 3c fb 82 0f bc 9a 27 dc bc 96 d2 c3 bb
       0.015294126 -0.0087592555 -0.026874352 -0.0059760315
000300 3e ff c4 3c 72 b1 25 3c 0f 21 c5 bc 60 f9 61 b9
       0.02404749 0.010113107 -0.024063615 -0.00021550572
000310 1c 31 3d 3b dc c1 1b bd d9 ee 0f 3c 26 3d c3 3c
       0.0028868383 -0.038026676 0.008784973 0.023832869
000320 f1 7b 6c bc e5 84 04 bd 2a d9 eb bb 96 c5 4e bb
       -0.014433847 -0.0323533 -0.007197519 -0.0031550876
000330 a1 d7 b4 3c 9c 5f 78 bc 1d 0a 8b 3c 48 b4 bf 3c
       0.022075476 -0.015159514 0.016972596 0.023401394
000340 04 c0 3e 3c bd 8e fb 3b 9d 70 8c 3c 4e 78 c2 bc
       0.01164246 0.007676928 0.017143542 -0.023739006
000350 a8 c4 c6 3b f2 32 9a 3c f4 97 ce bc fa 3e 04 3d
       0.0060659237 0.01882312 -0.025218941 0.03228662
000360 97 07 3f 3c 81 b5 fe bb 0c fa 12 bd 48 a3 5b bc
       0.011659524 -0.007773102 -0.035882995 -0.0134056285
000370 18 c2 31 bc 55 9d e0 bc 35 d6 ec bc 4e 0d a6 3c
       -0.010849498 -0.027418772 -0.028910736 0.020270016
000380 28 1a db bc b2 a4 01 bd b6 39 aa bc ce 89 59 3a
       -0.02674587 -0.031651206 -0.020779472 0.00082984276
000390 62 86 7c bc bc 57 a2 bc 2e da bb 3c 20 94 26 3c
       -0.015412899 -0.019817226 0.022931185 0.010167152
0003a0 ef 77 b6 bc 10 cc 01 3d b1 37 53 bc e2 9a b1 bb
       -0.022273986 0.03168875 -0.012891696 -0.005420075
0003b0 80 29 2e bb 16 73 b2 bc 77 3c a3 bc 64 f8 0e bd
       -0.002657503 -0.021783393 -0.019926293 -0.034904853
0003c0 72 19 ea bc 38 ec 9a bc 0b 91 bc bb 8b b5 04 38
       -0.028576586 -0.018911466 -0.005754595 3.1640328e-05
0003d0 65 f3 02 bd 32 d5 04 3d 66 92 a7 3b 5f 1e 11 3c
       -0.0319704 0.03242988 0.0051138876 0.008857339
0003e0 51 b0 96 bc 67 52 2f 3c 42 db 0a 3d fc b8 8c bc
       -0.018394621 0.010700799 0.033900507 -0.017178051
0003f0 36 36 76 bb bd 1a 0b bd 03 53 cb 3c f8 d9 1a bc
       -0.0037568933 -0.033961046 0.024819857 -0.009451382

net.0.bias f4 [32]
000000 7c 62 24 bd b2 9d be bc fe 7f 32 bb 0e f8 cb bc
       -0.040132985 -0.023268554 -0.0027236934 -0.024898555
000010 32 a9 00 3d 7d fe c5 3b f9 0b 32 3c 20 1c 1e bd
       0.031411357 0.0060423003 0.010867112 -0.03860104
000020 15 4b b1 3c b2 3a 4b 3c 32 5d e4 bc 10 18 ee 3c
       0.021642247 0.012404131 -0.02787647 0.029064208
000030 d5 eb 3f bc 4b 07 5e 3d 5b ec 56 3d a0 20 aa bc
       -0.011713942 0.054206174 0.0524715 -0.02076751
000040 14 7d 98 ba 41 48 37 bd 8d 02 66 3c ec 2f 03 bd
       -0.0011633956 -0.04474664 0.014038694 -0.032028124
000050 d7 4d 82 bc 1d a3 07 3d 43 74 ee bc da b1 84 bb
       -0.015906258 0.03311454 -0.029108172 -0.004049522
000060 a0 4f ce 3c 67 56 cb bc c6 73 66 3b 66 cf e8 bc
       0.025184453 -0.024821473 0.0035164221 -0.028419208
000070 b5 0c 0c 3d 79 58 42 bc 07 e8 f4 3a b1 b9 f3 3c
       0.034191806 -0.011861914 0.0018684872 0.02975163

net.2.module.0.weight f4 [32, 32, 3]
000000 75 c8 56 bd 21 37 6a bd 1b c9 64 bc 77 d8 23 3c
       -0.052437264 -0.05718148 -0.013963963 0.01000034
000010 3a 28 be 3d d3 a5 a7 bd 2b 7c 32 bd d5 b8 b8 3c
       0.09285016 -0.08185925 -0.043575447 0.022549072
000020 8d d1 92 3d fc 6c 89 3c b8 e3 cb 3d e3 ea f3 3d
       0.07168875 0.0167756 0.09955543 0.119100355
000030 6d 20 e3 3c 4f d0 ac bd 4d 68 dc 3d 51 86 e3 bc
       0.027725423 -0.08438169 0.10762081 -0.027774008
000040 ff e2 28 3c 94 47 86 bd 65 70 00 bc 94 6d cb bd
       0.010308026 -0.06556621 -0.007839297 -0.0993301
000050 de 5e 08 3c 8d 95 33 3e ae 57 ad 3d 87 6b 42 3e
       0.008323399 0.17537518 0.08463989 0.18986331
000060 e0 78 85 3d 59 ad 25 3d f1 4d 97 3d 36 71 9a 3d
       0.06517196 0.04044852 0.07387913 0.075411245
000070 4b 82 6d bd 04 0c 0a 3d d1 14 8a 3d 4c 43 fb bb
       -0.057985585 0.033702865 0.06742252 -0.0076679345
000080 de 73 f7 3b 63 53 98 3c 20 9b 1b bd 73 d6 46 bc
       0.0075516542 0.01859445 -0.037989736 -0.01213609
000090 e6 49 10 bc 45 7c 9e 3c 66 43 21 bd d7 89 69 3c
       -0.008806681 0.019346366 -0.039370917 0.014254055
0000a0 b0 27 a4 3d e3 79 9c 3d e5 5c 8d 3c 62 53 58 bd
       0.08015382 0.076404355 0.01725621 -0.052813895
0000b0 67 af 1c bb fc 76 b3 3d 09 08 b9 bd 67 50 a4 3c
       -0.002390826 0.08762929 -0.09034736 0.02005787
0000c0 cb a1 c1 bd ea 77 96 bd 96 50 81 bd e8 06 90 bd
       -0.09454688 -0.073470905 -0.06314199 -0.07032567
0000d0 02 f7 f4 bb 08 26 b6 bd 04 6f a5 3d b3 4a c8 3d
       -0.0074757347 -0.08893973 0.08077815 0.09779873
0000e0 68 cc c7 bd 42 f3 88 3c f4 d9 ac bc 76 7c 48 3d
       -0.09755784 0.016717557 -0.021100022 0.04894682
0000f0 6f 56 db bb 18 07 80 3d 8b de 58 3d 30 b1 2e 3e
       -0.0066936533 0.06251353 0.05294661 0.17059779
000100 b7 72 1b 3e 06 a4 9c 3d 5a 6b 0d 3b c6 cc b5 3c
       0.15180479 0.076484725 0.002157888 0.02219237
000110 73 8d 8a 3c d2 81 03 bd e4 e1 a5 bd e4 ab 66 3d
       0.016913151 -0.03210623 -0.08099726 0.05631627
000120 78 e2 61 bd 88 61 c8 3d 14 91 15 3b 9b 23 e5 3d
       -0.055147618 0.097842276 0.002282207 0.11188432
000130 48 1b ca 3d a7 3d 42 3d 8e ae f7 3c 0a 1b 4d bc
       0.09868485 0.047422078 0.030234601 -0.012518654
000140 aa 65 15 3d 0c f1 35 3d 23 c7 d5 bc 4f a2 00 3b
       0.036473908 0.044419333 -0.026095932 0.0019627993
000150 bb f2 89 bd 58 2d 94 bd 04 3c 60 bd 37 62 55 3d
       -0.0673575 -0.07235211 -0.054744735 0.052095618
000160 dc f0 12 bd fc 78 00 3c 87 7a 03 bd 4f b7 97 bc
       -0.035874233 0.007841345 -0.032099273 -0.018520026
000170 10 ac c6 bd 85 1c 5b bd dd d8 4c bd 6b d0 8f 3c
       -0.09700787 -0.053493995 -0.050011504 0.017555436
000180 5d 49 93 3d 3e 03 a4 3d 8a 0f ac 3d 36 62 22 3e
       0.07191727 0.08008431 0.08401401 0.15857777
000190 d1 60 1a 3d d2 39 34 3e 77 32 f1 bd 45 aa 05 3d
       0.037689988 0.17600182 -0.117772035 0.032633085
0001a0 76 c9 20 be 75 f5 88 bd 4e 4a ae bd 2d 21 77 bd
       -0.15701851 -0.06687442 -0.08510266 -0.060334373
0001b0 78 77 c9 bd f8 57 97 bd 3d e5 68 3c c9 91 f4 3d
       -0.0983724 -0.073898256 0.014214811 0.11941869
0001c0 37 fa 33 3d d1 74 ef 3d 0d ac 07 bb 32 1d e6 bd
       0.043939795 0.11692203 -0.0020701915 -0.11236037
0001d0 34 62 03 bd ae 60 1e bd 70 aa 5b bd 05 07 8d bb
       -0.032076076 -0.03866642 -0.05362934 -0.0043038153
0001e0 af 5a 3e 3d d8 b8 e8 3d 99 fe 32 3d 56 bc 91 3d
       0.0464732 0.11363381 0.043699834 0.07116
0001f0 f0 9d e6 3c 85 e2 b6 3d d7 f0 c7 bd 49 54 93 3c
       0.028151482 0.08929924 -0.097627334 0.017984526
000200 bf 25 e7 bd 4e ea 96 3d fb 81 88 bd 29 0c 8b 3d
       -0.11286496 0.07368909 -0.06665417 0.06789429
000210 77 0a 32 bd 27 eb 1e bd 52 3a a0 bd e5 63 df 3d
       -0.04346701 -0.038798478 -0.07823624 0.10907725
000220 34 f0 1a 3e 3e 2e 40 3d 5c 36 2f be 78 24 fa bd
       0.15130693 0.0469191 -0.1711058 -0.12213987
000230 7a f2 b3 bc 53 ca b8 3b 44 17 df bb 36 ce 6a 3d
       -0.021966208 0.0056393533 -0.0068081934 0.057325564
000240 3b e9 00 3d 40 1f cb 39 b3 34 87 3d f9 39 2e bd
       0.031472426 0.0003874246 0.066018485 -0.042535756
000250 44 9a b1 bb f2 ec 6a 3c 66 91 ce bc cf 65 7c 3d
       -0.005420001 0.014338719 -0.025215816 0.06162053
000260 a4 73 9d bd 95 a8 fb 3d 73 a7 17 3e 1a 31 52 3e
       -0.07688072 0.12288014 0.1480997 0.20526543
000270 9d 6e b3 bd 64 6d f2 bd 4c 9e b8 bd 9d 8e b4 bd
       -0.08761332 -0.11837271 -0.09014568 -0.08816264
000280 00 7d 76 bc 39 02 1c 3d f1 ca 38 3d 7b 3d b0 bd
       -0.015044451 0.038088057 0.045115415 -0.086054765
000290 8a 74 47 bd ee 47 96 bd c4 d3 31 be 9c a5 57 bd
       -0.048695125 -0.07337938 -0.17365938 -0.05264817
0002a0 df 50 3c 3d ac 42 cd 3c 71 02 8a 3d 9b 2e 30 bc
       0.045975562 0.025056206 0.06738747 -0.010753299
0002b0 3f b7 71 3d b5 65 b1 bd b6 68 91 bd e2 81 5a bc
       0.059012648 -0.08661977 -0.0710005 -0.013336631
0002c0 89 33 d9 bd fc 16 c6 bc 8c 81 b9 3d 8f da ab bc
       -0.10605533 -0.024180882 0.09057912 -0.02097824
0002d0 1c aa f3 bc a7 39 3b 3c bd 1d ef bd e5 41 02 3d
       -0.0297442 0.01142732 -0.11675594 0.031801123
0002e0 36 04 e8 3c d8 9e e1 bc 17 a8 8f 3c 3a fd 73 3c
       0.02832232 -0.027541563 0.017536206 0.014891917
0002f0 2a 8b ee bc 24 fd 85 3c a4 0c 39 bd b1 00 b2 bc
       -0.029119093 0.016356058 -0.04517807 -0.021728845
000300 38 2a 9b bd 6c 65 51 bd e8 79 bf bd 1d da 81 bd
       -0.07576412 -0.051122114 -0.09349424 -0.0634043
000310 ab f8 f6 bd dd b7 bf bd af 38 5d 3d d0 08 ac bc
       -0.120591484 -0.09361241 0.054009136 -0.021000296
000320 60 f9 3b ba f9 12 35 bd ce fe 8f 3d ef bf 45 bd
       -0.00071706437 -0.044207547 0.07031022 -0.048278745
000330 28 de ea 3d 5d 2c ba 3c e6 d2 cd bc 7b 58 35 3d
       0.11468154 0.022726232 -0.025124978 0.044273835
000340 b0 0f 5a 3d 17 6e 20 bd 5a 73 ab 3d c9 72 90 bd
       0.053237617 -0.03916749 0.08371611 -0.070531435
000350 35 fb 3d bd 21 35 b0 ba 1f 85 84 3d 42 2b b1 3d
       -0.046382148 -0.0013443568 0.06470703 0.08650829
000360 7a 5d 84 bc 99 d0 ab bd 08 d6 ce bd da 13 12 3d
       -0.016157854 -0.08389396 -0.10099417 0.035663463
000370 1d 8e d9 bc 34 54 b8 bd cc 2b 86 bc 7c 7f bb 3d
       -0.026557023 -0.090004355 -0.016378306 0.09155175
000380 8d e9 96 3d 71 5c d0 3c 1d 2d a1 3c 4f 8e 88 bd
       0.07368765 0.025434704 0.019674832 -0.06667768
000390 08 41 8a bd cd dd f8 bd 77 f5 e7 3c 9a f6 42 3d
       -0.06750685 -0.1215168 0.028315289 0.04759846
0003a0 df 16 18 3e a1 e4 d8 3d 36 48 0f 3d ee ac 86 3d
       0.14852475 0.105904825 0.034980975 0.065759525
0003b0 61 5b bc 3d f6 df e8 3d 40 0d d4 3d 72 f9 70 3d
       0.09197117 0.11370842 0.1035409 0.05883164
0003c0 bc 64 ab 3c 99 81 c8 bd 1c 26 23 bd 85 80 e2 bd
       0.020922057 -0.09790344 -0.039831266 -0.110596694
0003d0 0f ab 43 3d 89 66 0a bd bf 2e 1a 3d 76 29 1c bd
       0.047770556 -0.03378919 0.037642237 -0.038125478
0003e0 96 57 69 bd ad 77 30 bd 71 6b 50 3c cf 26 6f 3d
       -0.056968294 -0.04308288 0.0127209285 0.05838662
0003f0 6c 22 9a bd af f5 9a bd cd 45 8d bd 12 9d 96 3d
       -0.07526097 -0.07566392 -0.06898079 0.073541775

net.2.module.0.bias f4 [32]
000000 a3 cc 8b 3d ef 87 4e bc dc 50 5b 3d 40 6b 0f bd
       0.06826141 -0.012605651 0.05354391 -0.03501439
000010 e7 1e 83 3d de 88 d8 bd c7 3b 96 3d 8a fb d8 bd
       0.064023785 -0.1057298 0.073356204 -0.10594852
000020 4e 89 85 bd f2 21 80 bd 9d 35 0f 3d bc 44 b1 3d
       -0.065203294 -0.062564746 0.03496324 0.08655688
000030 b5 a9 56 bb 44 e1 9b bc 8e 61 94 bd bf 92 40 3c
       -0.0032754962 -0.019028313 -0.072451696 0.011753737
000040 29 8b 20 ba 77 6a 79 3d f1 43 32 3d af e9 b8 3b
       -0.0006124252 0.06089255 0.043521825 0.0056430916
000050 d0 ab 8e bd 25 9b be 3d 54 60 f3 3d 15 06 87 3d
       -0.069663644 0.09306935 0.118836075 0.06592957
000060 1c a1 39 3d c1 4a 32 bd ab ea b2 3d de 33 23 3d
       0.04531966 -0.043528322 0.087361656 0.039844386
000070 60 9a 1c be 9c 19 29 bd d1 95 5b 3d c5 07 e6 3d
       -0.15293264 -0.04128419 0.053609673 0.11231951

net.3.module.0.weight f4 [32, 32, 3]
000000 8a df 8e bd 51 2d 39 3b 52 df 0f 3d bf ba 54 bd
       -0.069762304 0.002825577 0.035125084 -0.051935907
000010 42 58 2c 3d a2 79 bd 3c e4 a4 70 3c 25 c7 88 bc
       0.042076357 0.023129288 0.0146877505 -0.016696522
000020 ea 83 b8 3a 9b e2 8a 3d 4c 78 95 3d 91 b2 0a 3d
       0.0014077399 0.06781503 0.072983354 0.0338617
000030 39 87 ce bc be b3 00 be 13 ec 1e 3d 5a 76 9c bd
       -0.025210964 -0.12568566 0.038799357 -0.07639761
000040 e6 6b b2 3d 0d bc 49 bb ca 8b 84 bd 74 b3 12 be
       0.08711986 -0.0030782253 -0.06471975 -0.14326268
000050 18 1b cd 3d 7c 65 fb 3c 94 8d 87 3d 24 2c 22 3c
       0.10014933 0.03068804 0.06618801 0.009898219
000060 ab 17 0b 3d 52 d4 0f 3d 28 dd 13 be 39 ec a1 bd
       0.03395812 0.035114594 -0.14439833 -0.07906384
000070 c9 9e a3 3d de f3 18 3d 50 95 8a bd cd 7a ad 3d
       0.0798927 0.037341945 -0.0676676 0.08470688
000080 c0 64 8b 3b 5b bb 80 bd 1a 09 18 bd 72 a8 d5 bc
       0.0042539537 -0.06285735 -0.037118055 -0.026081298
000090 f9 17 6a bd 4b 0f e8 bd b1 e2 69 bc 53 d1 57 bc
       -0.05715177 -0.11331042 -0.014275239 -0.013172465
0000a0 cc b3 2b ba 6b 2e 64 3c c8 15 f6 bc c2 77 80 3d
       -0.0006549924 0.0139270825 -0.030039683 0.06272842
0000b0 a2 0f 6d 3d 7d a2 87 bd 76 0d bc bd 35 f0 a2 3d
       0.057876237 -0.06622789 -0.09182255 0.07955972
0000c0 c2 59 9e ba 85 61 84 3d 38 c3 6f 3d b6 3d 40 bd
       -0.0012081193 0.06463913 0.058535784 -0.046933852
0000d0 f4 c7 25 bd 7f d5 77 bd a1 ba 37 bd 8d 07 1b 3d
       -0.040473893 -0.06050634 -0.044855718 0.037848998
0000e0 0a 9f 9d 3d d7 14 3d 3d 4e 2e ad 3d 2c 56 1f 3d
       0.0769635 0.046162453 0.084560975 0.03890054
0000f0 68 64 b2 bc ac f7 de 3c 47 c7 a2 bb e5 e1 99 3d
       -0.021776393 0.027217709 -0.0049676034 0.07513789
000100 8c 0d ef 3c 37 a6 1c 3c 82 07 1c 3d 57 2b a6 bd
       0.029181264 0.009561113 0.038093098 -0.08113735
000110 fb e0 76 bd 6d ec 2e 3d 33 71 b1 3d 32 85 de bc
       -0.06027315 0.042705942 0.08664169 -0.027163122
000120 54 e9 69 3d be 5a fb bc b2 8a 9f 3d b3 49 ef bd
       0.057107285 -0.030682918 0.07790126 -0.11683979
000130 79 98 1c 3d 44 f8 e2 3d 1d 94 99 3d b8 81 5d bb
       0.038231347 0.11082509 0.074989535 -0.0033799242
000140 e1 34 20 3d b8 b5 7d bd c2 9d 96 3c 79 11 a9 3d
       0.03911293 -0.06194088 0.018385772 0.08255286
000150 0f 46 46 bd 7e 4e 02 3e 85 0f 60 3d c7 ec b5 bc
       -0.048406657 0.12725255 0.0547023 -0.02220763
000160 32 ee 3e bc bd 75 e1 3d 67 6c a6 3d cf bb fe 3c
       -0.01165347 0.11008785 0.08126145 0.031095413
000170 da 65 b4 3d d1 b7 f3 3b c4 0e 38 3c 4f 58 65 3d
       0.08808489 0.007437684 0.011233989 0.05599242
000180 1c be 29 3d d5 dd a5 3d d2 8a 9a 3c 83 a7 26 3e
       0.041441068 0.08098952 0.018865023 0.16274838
000190 54 75 bf 3d f9 e9 eb 3d 0e 87 f3 bd a2 04 a6 bd
       0.093485504 0.11519236 -0.11890994 -0.081063524
0001a0 bb 2c ca bd 92 96 10 bd 9b 0a 9d bd 52 98 0f 3d
       -0.09871813 -0.035299845 -0.076680385 0.035057373
0001b0 eb 26 fb bd a6 2e be bd 15 c1 05 be 3b d3 dc 3d
       -0.122632824 -0.09286241 -0.13061936 0.107824765
0001c0 5c ad d3 3c e0 0e 04 3e 4f bf 8a bd 94 c6 01 be
       0.0258395 0.128963 -0.067747705 -0.12673408
0001d0 b1 ce d7 bd b5 5a 39 3e 40 a1 e2 3c 44 f3 7a 3e
       -0.1053747 0.18101008 0.02766478 0.24506861
0001e0 c0 7f 1c 3d 96 30 df 3d 66 06 19 3e f5 eb ad 3d
       0.03820777 0.10897939 0.14943847 0.08492271
0001f0 78 e2 47 3d 4c 31 29 bd a9 79 e3 bd db 51 31 3c
       0.04879996 -0.04130678 -0.11107189 0.0108227385
000200 f6 e5 b4 bd e6 2d 72 3c 58 e6 eb 3c 2d 83 fd bc
       -0.08832924 0.014781451 0.02879636 -0.030946339
000210 6e 78 0f be 27 59 cf bd 7a 51 1c be 30 2d 20 3e
       -0.14010784 -0.10124426 -0.15265456 0.15642238
000220 fa 92 6d 3d d3 9d 71 bb 91 0a 0d be 43 2b 80 3c
       0.058001496 -0.0036867752 -0.13773562 0.015645629
000230 34 f4 99 bd 6d 49 1e 3c 40 fc 60 bd d9 f2 bf 3d
       -0.07517281 0.009661061 -0.054928064 0.093724914
000240 38 ca b1 3d e2 a0 bd 3d 02 fd 52 3e 0a 5c b4 bd
       0.08681148 0.092592016 0.20604327 -0.088066176
000250 79 5b fd bd 55 33 4d bc ce d9 47 bd 13 cf 90 bd
       -0.12370963 -0.012524446 -0.0487917 -0.07070746
000260 59 db 40 bd c0 c6 12 3e 7d e4 ec 3d bc cd ca 3d
       -0.047084186 0.1433363 0.11567018 0.09902522
000270 2c ce 2c 3a 68 17 4e 3d 2d 09 5e 3d 11 f0 a1 3e
       0.00065920013 0.05031529 0.05420797 0.3162847
000280 94 ae 02 3e 9f ba 22 3e 9a ce fe bd d0 71 85 3c
       0.12761909 0.15891503 -0.1244175 0.016289622
000290 1a 38 46 bd 02 b1 60 be e3 f5 be bc 7d 35 f6 bd
       -0.048393346 -0.21942523 -0.023310607 -0.12021921
0002a0 93 b1 2a 3d c0 32 8e bd 3a cf 00 bd 30 4a 60 bd
       0.041673254 -0.069432735 -0.031447627 -0.05475825
0002b0 9b 29 62 3d c1 30 5d 3d 10 75 ad bd 3e d3 5a bb
       0.05521546 0.054001573 -0.084695935 -0.003339007
0002c0 3e f6 dd bb c8 47 cf 3d 60 5e ce 3d 1d 66 37 3e
       -0.006773739 0.10121113 0.10076594 0.17910047
0002d0 4f 38 38 bd 78 eb 37 bc f7 e9 4c bd 12 f9 ac bc
       -0.044975575 -0.011225574 -0.050027814 -0.02111486
0002e0 bf 6e 3d 3d 45 c5 f7 3c cd 84 a6 3c 71 d1 b6 bd
       0.046248194 0.030245433 0.020326996 -0.089266665
0002f0 47 c0 da bc 86 f2 8a 3d 68 ea c5 bd 74 76 43 3d
       -0.026703013 0.06784539 -0.0966385 0.047720388
000300 14 54 d7 3d 0f e3 38 3d 01 68 f5 3d d9 31 6b bd
       0.105140835 0.045138415 0.11982728 -0.057420585
000310 0a 02 f3 3c 64 bb fe 3c 37 b5 b4 3d 70 04 58 bc
       0.029664058 0.031095214 0.088236265 -0.013184652
000320 17 5e cc 3d b1 df 00 3e 88 54 0b 3e bf 57 2c 3d
       0.09978884 0.12585331 0.13606465 0.04207587
000330 d2 31 cb 3d 29 4c 80 3c fa 99 cb 3d 9a 72 b7 3d
       0.09921612 0.015661316 0.09941478 0.089574054
000340 a6 b1 36 3d 24 67 12 bd 9e 91 0c bd 0a 5a 5a 3d
       0.044603013 -0.035742894 -0.03431856 0.053308524
000350 75 87 36 3d 6d 0a 89 3c 95 b5 b4 3d b0 7f e0 bc
       0.044562776 0.016728604 0.088236965 -0.027404636
000360 27 db 48 bd 24 72 b3 3d 60 18 05 3d e1 da 12 bd
       -0.049037125 0.08762005 0.03249395 -0.03585327
000370 bc be ce bd 7e b6 cb bd d3 b8 2d 3d af 15 94 bd
       -0.100949734 -0.09946917 0.04241259 -0.07230698
000380 46 bb c7 3d d2 d4 98 bc 95 62 0d bd d9 20 5b bd
       0.097525164 -0.018656168 -0.034517843 -0.053498123
000390 e5 cc 9e 3d f7 d0 6e bd c6 05 7e 3d 66 25 45 3e
       0.07753924 -0.058304753 0.062017225 0.19252548
0003a0 99 c0 00 3b b6 eb c3 bd 18 d8 96 3d f9 ee 41 bd
       0.0019646047 -0.09566443 0.07365435 -0.047347043
0003b0 63 a2 70 3d 52 7c 9a bd 51 c8 57 3d 54 8d 15 3e
       0.058748614 -0.075432435 0.05268127 0.14604694
0003c0 91 0a 89 bd 7b 66 9e bd 68 36 26 bd 67 38 6c bd
       -0.066914685 -0.0773439 -0.04057923 -0.057670977
0003d0 0a a6 dc bd 59 c3 c6 bd 71 9c 80 3d da c6 19 3d
       -0.10773857 -0.09705228 0.06279839 0.037543155
0003e0 5b ff 6d bc 4d c3 68 3d 32 e5 6e ba 59 dd e3 3c
       -0.0145262135 0.05682688 -0.0009113132 0.027815508
0003f0 94 5d e5 3c a6 39 b9 bd 3e 0b bb bd 7c bb ff 3d
       0.027998723 -0.09044199 -0.09133004 0.12486932

net.3.module.0.bias f4 [32]
000000 fc 2c 30 3c f6 c5 3a 3d 01 61 d5 bc b0 fa af 3d
       0.010752913 0.045598947 -0.026047232 0.08592737
000010 96 c8 8f bc ab 8b 7b bd 92 6e c3 bd 46 84 43 bc
       -0.017551702 -0.061412495 -0.09542574 -0.011933392
000020 2d b4 ff bc d0 f2 d7 bc b8 bd 57 bd e4 e3 f8 3c
       -0.031213844 -0.0263609 -0.052671164 0.030382104
000030 1a f3 be bd 3a 3e 81 3c 7a 95 c4 3d 4b 4f 24 bd
       -0.09323712 0.015776742 0.09598823 -0.040114682
000040 ea d4 de bc 43 72 a3 bd 8f bc ac 3c e7 e1 d2 bd
       -0.027201135 -0.07980778 0.021086005 -0.10296994
000050 ab ef 9c bc 61 ed 50 bd 67 fa b8 3d ea 94 e9 3d
       -0.019157251 -0.051007632 0.090321355 0.11405356
000060 98 29 8e bd 00 54 af bc ff 54 cd 3d 72 92 3d 3d
       -0.06941527 -0.021402359 0.10025977 0.04628224
000070 de 90 7b 3d b3 b3 b1 bc 57 45 4b bd a4 5b bc ba
       0.061417453 -0.021692133 -0.049626675 -0.0014370573

net.4.module.0.weight f4 [32, 32, 3]
000000 70 a3 cf 3c 8b c4 35 3c 06 96 9e 3d 97 c3 f7 bd
       0.025346488 0.011094223 0.077434584 -0.12097853
000010 a1 1b 6f 3d 63 64 08 be 57 95 19 3e 1c d8 ae 3d
       0.05837596 -0.13319544 0.14998375 0.08537313
000020 f2 10 9f 3d b0 fd 14 3d 2c 31 bb 3a 21 d5 5a 3d
       0.07766904 0.036374748 0.0014281622 0.05342591
000030 cb b5 e4 3d 59 d1 bf 3c c5 69 c5 3d 8a e7 0d bc
       0.11167487 0.023415254 0.096393146 -0.00866116
000040 eb 3d 30 ba fa 5f ca bc fd 5c 6d 3b 28 e0 ca 3c
       -0.00067230937 -0.024703968 0.0036218755 0.02476509
000050 90 58 3b 3d a9 5f cf 3d df bf ce 3d 3c fe 1e bd
       0.045738757 0.101256676 0.1009519 -0.038816676
000060 88 45 a9 ba 72 59 9d bc 45 3a 00 bb 40 95 d9 bd
       -0.0012914399 -0.01920769 -0.0019565981 -0.1062417
000070 c3 0a 70 3d d7 66 69 bd 57 ba b5 3c fc 0b 8b 3d
       0.058604013 -0.05698284 0.02218358 0.06789395
000080 54 1e 59 3d e7 9f ee 3c 8f b5 fb bd 93 7e f3 bc
       0.05300744 0.029128982 -0.12290489 -0.029723441
000090 52 81 c5 3c 93 cf 44 3d ca d5 e4 bb 04 9a 61 3d
       0.024109516 0.04804952 -0.0069834935 0.05507852
0000a0 ee be 47 bd 4b da 72 3b f7 73 65 3d 85 ef 8d bd
       -0.04876607 0.0037056382 0.056018796 -0.0693045
0000b0 a4 e7 1e 3d e8 0f d9 bb a1 f1 b8 3d 47 16 9d 3d
       0.03879513 -0.0066242106 0.09030462 0.07670265
0000c0 67 36 62 bd 46 18 2c 3d 92 f1 59 3d 04 a1 00 bd
       -0.055227663 0.042015336 0.053208895 -0.031403556
0000d0 34 2f 3f bd 9f c0 d9 bc eb fc 84 3d 97 8f 5a bd
       -0.046675876 -0.026581107 0.06493553 -0.053359594
0000e0 3f f5 de bc 79 21 af bd 9b 4b ef bc 46 8f 4c 3d
       -0.027216552 -0.08551306 -0.029210856 0.049941324
0000f0 f3 74 3c bc 8b aa d5 bd 4d 17 e2 bd bf ba 4b 3d
       -0.011502492 -0.10432919 -0.110396005 0.04973864
000100 fc db 75 bd 33 fb 40 3d 1d 1d e3 bc 61 ee 9b 3d
       -0.060024247 0.047114562 -0.027723843 0.076138265
000110 38 27 86 bc 1b 48 c6 bd 08 f3 83 bc 13 c2 89 3d
       -0.016376123 -0.09681722 -0.016107097 0.0672647
000120 44 23 02 be af 28 a1 bd 0b 3a 07 be cc 26 14 3e
       -0.12708765 -0.07869088 -0.13205735 0.14467925
000130 63 35 2a 3e 91 b7 70 3e c5 04 d1 bd 0f 02 1d 3d
       0.16621928 0.23507525 -0.10205988 0.03833204
000140 58 6d b1 bd 0d 34 e2 3d 46 ee 1e bd 2d 3f b0 bb
       -0.08663434 0.11045084 -0.038801454 -0.005378625
000150 04 5e 58 bd 48 5f a4 3c 62 aa 85 3c 7d 41 d1 3c
       -0.052824035 0.020064965 0.016316596 0.025543923
000160 a1 4c ac 3d a5 ae b1 3d 5b ba 0a be 92 0d ea bc
       0.08413053 0.08675889 -0.13547651 -0.028570924
000170 20 7b e6 bd 1c 43 01 bd 62 4a 88 bd 1c 5c 9c 3c
       -0.11253953 -0.03155814 -0.066548124 0.01908689
000180 30 f9 96 3d 94 e3 ab 3d 05 0d 35 bd ef 8d 2b 3e
       0.073717475 0.083930165 -0.04420187 0.16753362
000190 60 0c 30 3e 1d a5 79 3e 4e 47 76 bd 08 44 05 be
       0.1719222 0.24379392 -0.060126595 -0.13014233
0001a0 0f 89 8c bd 30 1c 20 bd ec 5a 91 3c 51 af a4 3b
       -0.06862079 -0.03908938 0.01774355 0.005025782
0001b0 ad e0 b2 bd 1a c2 6c bc de 6e df bd 1f eb 15 3d
       -0.0873426 -0.014450574 -0.10909818 0.036601182
0001c0 0e c2 0b 3e 0a 33 30 3d 56 b3 bb 3c 6f 68 30 3d
       0.13648245 0.043017425 0.022912662 0.043068346
0001d0 40 80 97 3c 68 62 49 3e 3e 27 70 3d de cd 24 3e
       0.018493772 0.19666445 0.058631174 0.16094157
0001e0 96 71 9f bc 01 37 26 3e 85 2e e9 3d c3 35 da 3d
       -0.019463342 0.1623192 0.11385826 0.106547855
0001f0 d1 c5 b2 3d 68 da 37 3a 09 23 31 bd b7 ff 16 be
       0.08729137 0.0007013441 -0.043246303 -0.14745985
000200 5a a9 7c bd bf 8c 94 3d cb d0 0d 3e 04 93 0d 3e
       -0.061684944 0.07253408 0.1384918 0.13825613
000210 ed d2 2e be ef 8c 00 3d e6 24 cb bd 9c e6 75 3d
       -0.1707265 0.031384405 -0.09919147 0.06003438
000220 8e 2c cf 3c 86 06 b9 3d 93 91 de 3c 0c 75 13 bd
       0.0252898 0.09034447 0.027169025 -0.036000296
000230 7d 33 19 be 13 3f 05 bd ba c0 0b be 66 54 03 3c
       -0.14961047 -0.032530855 -0.13647738 0.008015728
000240 da d8 e9 3c e8 a4 9e 3d aa ec dd 3c 78 cf 2c 3d
       0.028545786 0.07746297 0.02709039 0.042190045
000250 b5 c7 39 bd a4 eb a8 bd 13 be 0a be 97 ed cf bc
       -0.04535647 -0.0824807 -0.1354907 -0.025381846
000260 10 56 f4 bd b8 5e 79 3e 6d 0a 2c 3e 75 46 5a 3e
       -0.119304776 0.24352539 0.16800852 0.2131594
000270 ac 3e d3 bc 96 1a f1 bc 26 ee b9 bc fe 94 4a 3e
       -0.02578672 -0.029431622 -0.022696566 0.19783399
000280 1d b1 c1 3d 76 e2 45 3d 54 d3 ef 3c a6 2f ab 3d
       0.0945761 0.048311673 0.029275574 0.083586976
000290 ff 76 22 3d 27 3a 95 bd d0 63 26 be b2 e9 43 be
       0.039664265 -0.07286482 -0.16249013 -0.19132116
0002a0 3e 23 88 3c f5 3d 12 bd 99 61 1f bd 77 67 6e bd
       0.016618367 -0.035703618 -0.038911436 -0.05820414
0002b0 a6 1d 9f bb be 2f f0 bd 5c 26 fc bd 2e 9a 42 bd
       -0.0048558293 -0.11727856 -0.12312004 -0.04751032
0002c0 1e 48 f1 3c 28 49 13 3e e5 38 c2 3d c0 f3 c6 bc
       0.029453333 0.14383376 0.09483508 -0.024286151
0002d0 a8 01 ca bc d1 f9 3d bd 21 0e 82 3c 3f fa c0 3d
       -0.024658993 -0.04638082 0.015875878 0.09422731
0002e0 f9 11 67 3d 74 70 a7 3d 8f 3b 48 3d 46 67 65 3d
       0.056413624 0.081757456 0.048884925 0.056006692
0002f0 fd 10 57 bd fa 17 fd bd dc ac 1d be dd 5f 2b bd
       -0.052506436 -0.12358089 -0.15397972 -0.04183947
000300 70 30 8d bd 68 87 49 ba ed 5e 7e 3d d6 b4 2e 3d
       -0.06894004 -0.00076877186 0.062102247 0.042652927
000310 d1 78 0a 3c 05 f8 a1 bd a0 64 fe 3d 9d de 80 3d
       0.008451656 -0.07908634 0.124215364 0.0629246
000320 54 ff df 3b 2c 28 f9 3d 7a 33 11 3c 36 9b 71 3d
       0.0068358574 0.12165865 0.008862371 0.05898591
000330 45 77 80 3c 77 d2 8d 3d 7c 2a 7f 3d 6b d1 4b 3c
       0.015681872 0.069249086 0.062296376 0.012440066
000340 63 2e 03 3d 5d a6 c1 bc 13 ae 2f 3d 6d c0 17 3d
       0.03202666 -0.023638899 0.04289062 0.037048746
000350 c7 69 d5 3d 98 e8 57 3d 9c a9 75 bc fe d3 a1 3d
       0.10420566 0.052712053 -0.014994051 0.079017624
000360 b3 3e 41 3d fe e8 47 bd c0 70 6b 3d a7 15 a5 bd
       0.047178935 -0.048806183 0.057480574 -0.080607705
000370 0d 37 ba bd 3b 5c f0 3c b3 19 c5 3d e0 94 2c bd
       -0.09092531 0.029340854 0.09624042 -0.042134166
000380 ba 32 11 3d ff ff 20 bd 13 1d 1a bd 09 f8 b8 bd
       0.035448767 -0.039306637 -0.037625384 -0.09031684
000390 49 d1 99 3d df 32 9d bd a0 b0 a1 bc 14 a1 af 3c
       0.07510621 -0.076757185 -0.019737542 0.021439113
0003a0 b8 c0 67 bd 54 2f 19 3d 7b 04 72 3d 94 26 94 3d
       -0.056580275 0.03739865 0.059086304 0.07233921
0003b0 f9 60 25 bc be 15 c3 bd a8 e1 37 3d 60 df fe 3d
       -0.010093921 -0.09525631 0.044892937 0.12444949
0003c0 4e 9f 69 3d d8 e0 72 3d a5 fb 40 3c 0f 49 92 ba
       0.05703669 0.05929646 0.011778747 -0.0011160689
0003d0 cd 5d 9e bd e4 cb ff bd 52 07 d1 bd fd ae 5f ba
       -0.07732735 -0.12490061 -0.10206474 -0.000853285
0003e0 29 b2 22 ba 69 54 b4 bd fb 7f 85 bd 25 53 01 3d
       -0.00062063575 -0.088051625 -0.06518551 0.031573433
0003f0 16 ff b0 bd 27 e3 29 3d 7d 4b 28 bd db 97 00 3e
       -0.08642404 0.041476395 -0.041087616 0.12557928

net.4.module.0.bias f4 [32]
000000 c5 bd 19 3d fb 82 06 bd 44 ad c6 3d 68 7e 15 3d
       0.037534494 -0.032839756 0.097010165 0.036497504
000010 77 2b c5 3d 9b 61 c6 bd 81 e4 9f bd 77 1b a7 ba
       0.09627431 -0.096865855 -0.078072555 -0.0012749274
000020 54 eb 29 3d 70 d7 26 bd a5 e7 0e bc 00 60 97 bd
       0.041484192 -0.0407328 -0.008722221 -0.073913574
000030 95 c3 54 3d f1 59 49 3d 90 36 da bc 53 55 00 bc
       0.051944334 0.04915804 -0.026637346 -0.007832843
000040 46 6d a6 bb 7f 89 39 3d 49 30 54 3d cf d6 72 3d
       -0.0050789444 0.045297142 0.05180386 0.05928689
000050 d4 08 04 3d 22 f1 9f 3d 95 0f 90 bd 66 06 2d 3d
       0.03223498 0.07809664 -0.07034222 0.04224243
000060 e9 18 ba bd d6 6e 4a 3d df 75 f1 3c d0 8c 5e 3d
       -0.090867825 0.049422108 0.02947515 0.054333508
000070 32 05 9b 3d 44 37 e3 bc 8d b8 b5 3d 59 1c c5 3d
       0.0756935 -0.027736314 0.08873091 0.096245475

net.5.weight f4 [32, 32, 3]
000000 3c a5 01 be 7d 25 23 3c bc 7c 0a be 59 2a 4f bd
       -0.12660688 0.009957668 -0.13524145 -0.050577495
000010 68 0f 6e bc bc 03 8f bd 3b b4 2e 3b d3 93 a2 bd
       -0.01453004 -0.06983134 0.0026657719 -0.079383515
000020 17 90 e5 3d 92 e5 d8 3d a7 18 19 3d 7a a7 df 3c
       0.112091236 0.10590662 0.037377026 0.027301539
000030 76 2c a7 bd b7 f3 48 bd 8b 92 a0 bd 66 4a a6 bd
       -0.08162777 -0.04906055 -0.07840451 -0.08119659
000040 0c 5e 2b bd 97 e7 80 bd 10 3a a5 bd b1 1b 0f 3d
       -0.041837737 -0.06294172 -0.08067715 0.034938518
000050 3d 90 e9 bd eb 75 d6 bd a0 cf b6 3d 31 e1 18 bd
       -0.114044644 -0.1047171 0.0892632 -0.037324134
000060 c1 cd 8a 3d bf 73 45 3d 05 ce 8e 3c 1b 74 ef 3a
       0.06777526 0.048206087 0.017432222 0.0018268855
000070 65 7b 98 3c 4e af 71 3a 16 dd 82 3d a9 3c ac bd
       0.018613527 0.0009219543 0.06389825 -0.084100075
000080 f4 58 5b bd 06 37 d7 3d 49 a3 16 bd 89 a6 db b9
       -0.05355163 0.10508542 -0.036776815 -0.00041895013
000090 6d 5a 8c bd 4a b7 bf bc 94 ca 53 bd 93 49 84 3d
       -0.06853185 -0.023402829 -0.051706865 0.06459346
0000a0 f7 d4 5a bd 7c c2 55 bd 50 5a 51 3d ab 32 03 bd
       -0.053425755 -0.052187428 0.05111152 -0.032030743
0000b0 34 fa fe bb ce 5e 5c 3c 1e 9e cb 3d b3 42 48 bd
       -0.0077812914 0.013450338 0.09942268 -0.048891734
0000c0 9b d2 64 bd 66 1b ad 3d 70 07 a2 bc 7f 14 58 bc
       -0.05586491 0.084524915 -0.019778937 -0.01318848
0000d0 9b 9f e5 3d e2 69 e9 3d f8 79 df 3c 46 e1 0d 3d
       0.11212083 0.11397149 0.027279839 0.034638666
0000e0 b2 2d ea bc bb c9 a6 bd fe e9 54 3d e8 ce 8f bd
       -0.028586242 -0.08143946 0.051980965 -0.07021886
0000f0 11 0f 9b 3d fb 05 78 3d 87 b2 91 3d 33 56 66 bd
       0.07571233 0.06055258 0.071141295 -0.05623455
000100 c0 9c 92 3c 1c 32 a7 3d 61 62 a8 bd a3 51 67 3c
       0.01789701 0.081638545 -0.08221889 0.014118585
000110 c3 e6 87 3d 5a de db 3d ba 85 69 bd c9 92 9b 3d
       0.06635811 0.107357696 -0.057012297 0.075963564
000120 54 2c e2 3d c2 5c d9 3c df 26 57 bd 04 29 6b bd
       0.11043611 0.026533488 -0.052527305 -0.057412162
000130 c8 50 f4 3c 28 da bb bd f1 ad b4 3c fa 36 cf bc
       0.029823676 -0.091724694 0.022055598 -0.02529477
000140 d7 a5 12 3d f9 d5 14 3d 4f d7 4d bd 05 d9 20 3d
       0.03580269 0.036336873 -0.050254162 0.039269466
000150 fb ec e7 3c 73 1e 4d 3d b8 13 1d 3d 8b bc 15 3d
       0.028311243 0.050077867 0.038348883 0.03655676
000160 69 da ea bc 93 9e c2 3d cd 79 0a 3e cf 69 26 bd
       -0.0286686 0.09502902 0.13523026 -0.04062825
000170 20 b2 85 bc 95 7e a1 3d da 21 1d bd b8 61 a6 3a
       -0.016320288 0.07885472 -0.03836236 0.0012693917
000180 0e 2a 47 bd 3a 4c ea 3d 43 9d 61 bd 9c ab b0 bd
       -0.04862409 0.1144032 -0.055081617 -0.08626482
000190 4f 63 74 bd b7 17 ba bd 7a f4 18 3d 5a 60 49 bc
       -0.05966502 -0.090865545 0.037342526 -0.012291038
0001a0 f5 5b e0 3c ab 16 97 3c d1 35 ee bc 27 34 63 3d
       0.027387599 0.018443426 -0.029078396 0.05546966
0001b0 91 21 95 3c cd ab 67 bd 56 a5 cb 3d be ef 71 3d
       0.018204482 -0.056560326 0.09943645 0.059066527
0001c0 79 77 eb bb 3a 39 98 bd c3 8a e1 3d 3f 4f 5c 3d
       -0.007185873 -0.0743279 0.11012795 0.053786512
0001d0 7e aa 61 3d 4a 38 48 bc b4 83 6e 3d b3 a2 b0 bd
       0.055094235 -0.012220452 0.05823107 -0.086247824
0001e0 6c 19 97 bd 42 4d 3e 3d ce cb 1f 3d b7 4e 90 bc
       -0.07377896 0.046460398 0.039012723 -0.01761566
0001f0 6e 1a c2 3c a8 f1 bc bd c0 c0 8a bd e4 4e 14 bd
       0.023694243 -0.0922578 -0.067750454 -0.03620805
000200 d7 ae 5a 3d 0b 86 21 bd e9 c6 77 bd 7d 90 66 bb
       0.053389397 -0.039434474 -0.06049243 -0.0035181337
000210 af 0d 9b bd 9f dd de 3d bb 21 a4 3d f8 31 f0 ba
       -0.07570969 0.108821146 0.08014246 -0.0018325439
000220 94 2d 78 3b e2 ac b1 3d 03 7a 71 bd e9 29 26 3c
       0.0037868964 0.08675553 -0.05895425 0.010141828
000230 b5 52 de 3d 41 19 37 3d 3c d3 9b bb e8 6b d6 bd
       0.10855619 0.04470182 -0.0047554057 -0.104698
000240 5d 9c 8d 3d a7 5f 4a bd 48 d5 cd 3d 13 2c 05 bd
       0.069145896 -0.049407627 0.10050446 -0.032512736
000250 07 b0 64 bd 6f 78 23 3d 7d c3 a2 bb dd 7b 06 3d
       -0.055831935 0.039909776 -0.0049671517 0.03283297
000260 14 4e d7 bc 0c 36 ca bd d7 a4 c0 3c 1a 08 27 bd
       -0.026282348 -0.0987359 0.023516102 -0.04077921
000270 52 ac a0 3d db bd a5 bd 26 e9 1b bd fd fe ad bd
       0.078453675 -0.08092853 -0.038064145 -0.08495901
000280 9d 0c bb 3d bf 18 88 3c 21 c1 87 bd d8 3a 21 3d
       0.09133265 0.016613362 -0.06628633 0.03936276
000290 b4 b6 1d 3c 15 11 bb 3d 42 8f f4 3c 67 89 be 3b
       0.009626079 0.091341175 0.029853467 0.0058147195
0002a0 7e 51 2e bd 00 fc 8d bb e9 8d 38 bd 76 32 5d 3b
       -0.042558186 -0.0043330193 -0.04505721 0.0033752
0002b0 7c 87 9a bc 42 0a 12 3d 6a 43 44 3c 36 ac 2c 3d
       -0.018863432 0.035654314 0.011978963 0.04215642
0002c0 d0 c2 95 bd 50 3d 9b 3d 57 5f fe 3c 8e fd 63 bd
       -0.07312548 0.07580054 0.031051321 -0.05566173
0002d0 ae 3b 94 bd 39 df 0e bd 51 0a 41 bc 7b 4f 25 3c
       -0.072379455 -0.03488085 -0.011782245 0.01008975
0002e0 b5 eb 7c bd 5b b3 36 bd f9 7d 65 3d 6e ef d8 bd
       -0.061748225 -0.04460464 0.05602834 -0.105925426
0002f0 13 55 75 bd 32 dc d2 bc 19 41 74 3c 09 7f d4 bd
       -0.059895586 -0.025739763 0.014908099 -0.103757925
000300 cf 20 f4 bc bb 2f 9f bd e5 23 c8 bd ab 54 35 bd
       -0.0298008 -0.07772776 -0.09772471 -0.0442702
000310 72 cc 11 3d be c7 11 3d c2 73 30 bd 22 aa a0 3d
       0.035595365 0.03559088 -0.043079145 0.0784495
000320 02 93 e9 3c 15 24 1c bd 81 c2 d2 bc 68 6b cb bd
       0.028512482 -0.038120348 -0.025727512 -0.099325955
000330 ec 0a 35 bd 00 30 a5 bc 47 0a 60 bc 0f c6 5a 3d
       -0.04419987 -0.02016449 -0.013674325 0.05341154
000340 e3 c5 d2 3d 45 87 af 3d 41 3b 51 bc 8e 45 60 bc
       0.1029165 0.085707225 -0.012770475 -0.013688458
000350 44 13 af bd 69 8c d1 bc 4c b3 07 bb 88 2f 9a 3d
       -0.085485965 -0.025579648 -0.0020706234 0.07528597
000360 69 a2 b3 bd 50 69 8c bd 14 91 15 3d f6 0a 3e 3d
       -0.08771212 -0.06856024 0.03651531 0.046397172
000370 a3 f6 41 bd 03 94 a1 bd b2 47 cd 3c 5c 6e fd 3c
       -0.04735435 -0.07889559 0.025058601 0.030936413
000380 6f 55 84 bd 66 6c 8b 3d 65 d4 9e 3d 31 0d 0e 3e
       -0.06461608 0.06807785 0.07755355 0.1387222
000390 c0 a3 b3 bd f0 3d 5f bc 41 86 2b 3d 23 98 3a 3d
       -0.08771467 -0.013625607 0.04187608 0.045555245
0003a0 6e 52 93 3d a7 92 6b 3c e1 ed 6e b8 08 3a 97 3d
       0.071934566 0.014378226 -5.6965164e-05 0.073841155
0003b0 e5 99 b2 bd e7 5d d7 38 59 33 e6 3d bf 54 dd bd
       -0.08720759 0.000102694896 0.112402625 -0.1080718
0003c0 8f 18 8b 3b 12 4c 06 bd 1e 52 2a 3d 18 47 ba 3d
       0.004244871 -0.03278739 0.04158222 0.09095591
0003d0 1d d3 a7 3c 5e 0a 75 bc 06 31 8f 3c 7b c8 b6 bb
       0.020486409 -0.014956085 0.01747943 -0.0055780984
0003e0 88 b4 a3 bb a0 f2 e2 3d 1a fd 77 bd 4c 53 83 3d
       -0.0049958862 0.11081433 -0.06054411 0.06412372
0003f0 98 af 41 3d eb 0d d3 3d 56 13 1f 3d 27 73 28 3d
       0.0472866 0.10305389 0.0388368 0.041125443

net.5.bias f4 [32]
000000 fc cc 9c 3d b7 cf 50 3c a0 94 92 3d 81 d9 76 3a
       0.07656285 0.012744836 0.07157254 0.0009416566
000010 93 bc d2 3d 6a f7 91 3c 9f 23 06 bd 5f 0e 6b bb
       0.10289874 0.017818172 -0.032748815 -0.003586672
000020 fd 62 ad bd 26 e0 c6 3d 6e c5 38 bd 32 43 42 bb
       -0.08466146 0.09710722 -0.04511016 -0.0029642102
000030 69 54 a5 bd 59 26 e8 3c 32 16 19 3d 52 80 5e bc
       -0.080727406 0.028338598 0.037374683 -0.013580399
000040 4a be cc 3d e4 02 89 3c 43 15 3d bd 0b 1f 72 bd
       0.09997232 0.016725011 -0.046162855 -0.059111636
000050 ea 07 90 bd 80 f6 b7 3d 04 c7 c6 bd 52 fb 8f bd
       -0.070327595 0.08982563 -0.09705928 -0.070303574
000060 ec 38 8b bd ef f4 8f bc 1b cb 4e bd 5c 2c b9 bc
       -0.06797966 -0.017572848 -0.050486665 -0.02260416
000070 dc bc 1a 3d 8b cd 0d bc 27 a0 9a 3d 33 cf 24 bd
       0.037777767 -0.008654962 0.07550078 -0.040236663

exp_avg f4 [32, 403, 2]
000000 bf 54 35 b7 a4 8b 51 37 43 9a c4 36 50 4f 77 37
       -1.0808172e-05 1.2489883e-05 5.8592136e-06 1.4740814e-05
000010 e6 49 31 35 4f 21 c8 b6 cb d6 01 37 00 88 26 37
       6.6045175e-07 -5.964342e-06 7.73901e-06 9.926036e-06
000020 a0 77 93 34 02 27 dc b6 57 d5 7e b7 61 31 bc b7
       2.7467922e-07 -6.561052e-06 -1.5189252e-05 -2.243434e-05
000030 55 95 94 37 70 e0 ab b7 10 9e 84 b7 53 7c 6a 37
       1.7712513e-05 -2.04893e-05 -1.580923e-05 1.3976433e-05
000040 ae 83 87 35 20 d5 06 36 57 8f 8c 37 40 25 26 33
       1.0096608e-06 2.009161e-06 1.6756048e-05 3.8683766e-08
000050 5b b7 0f 36 76 0c 0a 34 6c 77 96 a5 9a 76 90 2d
       2.1415387e-06 1.2856785e-07 -2.6101776e-16 1.6423574e-11
000060 85 76 a1 37 e8 10 69 38 c1 fd b9 36 8f dd 79 35
       1.9247886e-05 5.5567274e-05 5.5429705e-06 9.308214e-07
000070 f8 4b 52 b7 72 1b 17 37 12 4a 82 37 b2 ff 46 35
       -1.2534663e-05 9.0066915e-06 1.55317e-05 7.4132834e-07
000080 df db 26 38 4d 38 f6 37 ec 26 9c 33 5a f4 2c b4
       3.9782255e-05 2.9351702e-05 7.271396e-08 -1.6107643e-07
000090 30 0f 08 35 15 87 8b b7 10 29 53 b7 d1 ef 40 36
       5.068605e-07 -1.6632994e-05 -1.2586141e-05 2.874982e-06
0000a0 af c9 64 b6 51 7a 14 b7 86 43 50 b5 98 08 8d 37
       -3.4092043e-06 -8.849966e-06 -7.75843e-07 1.6812512e-05
0000b0 6f 51 ca b6 30 24 cf 36 6c 1d 06 35 6c ce 3f b4
       -6.0295492e-06 6.1732935e-06 4.9961704e-07 -1.7863357e-07
0000c0 b8 e7 a3 b3 45 f6 8d 36 a4 63 22 33 71 50 2d b3
       -7.6324284e-08 4.230797e-06 3.7809187e-08 -4.0352862e-08
0000d0 a1 e5 1c b7 71 67 4e 36 e6 a0 f5 b6 e9 4e b4 b6
       -9.351789e-06 3.0756603e-06 -7.3203e-06 -5.3736044e-06
0000e0 14 de a1 b7 80 44 8f 34 79 5b 76 36 20 6b ee b6
       -1.9296109e-05 2.6685666e-07 3.67101e-06 -7.1054237e-06
0000f0 04 cb 8a 37 12 55 e4 b5 ff 5e e3 21 04 00 00 80
       1.6545418e-05 -1.7012082e-06 1.5407264e-18 -6e-45
000100 f8 45 a1 36 78 3c 62 b7 06 15 42 36 d9 b4 10 b7
       4.8063193e-06 -1.3484729e-05 2.892049e-06 -8.625176e-06
000110 40 07 ee 32 03 c1 59 37 a8 df 62 b7 66 1b c2 b7
       2.7710144e-08 1.2979147e-05 -1.3522724e-05 -2.313936e-05
000120 80 96 a3 35 e3 92 df b6 99 c4 53 b4 54 55 cb 34
       1.2188248e-06 -6.6630178e-06 -1.9722428e-07 3.787378e-07
000130 6b 3c f7 37 b3 20 cc 37 09 42 a1 b6 e1 e5 1b 34
       2.9472829e-05 2.4333922e-05 -4.8058614e-06 1.451913e-07
000140 0c 70 0c b8 f0 49 56 b8 54 a6 c1 31 26 07 f2 35
       -3.3482953e-05 -5.1090436e-05 5.6359486e-09 1.8032486e-06
000150 fd ba 81 b7 f3 d5 34 b7 a7 66 93 36 b8 a3 ec b3
       -1.5465072e-05 -1.077865e-05 4.3928917e-06 -1.1019387e-07
000160 e8 bb 54 b4 d0 4d a3 b6 61 90 1b b7 95 47 b7 b6
       -1.9812398e-07 -4.866837e-06 -9.272336e-06 -5.4621582e-06
000170 82 6f 4d 36 02 c2 80 b7 52 02 94 36 6d 4f 12 b7
       3.0612287e-06 -1.5349131e-05 4.411014e-06 -8.720771e-06
000180 b8 e6 98 33 7a 9e 34 37 b5 11 52 b5 4f 9d d9 b6
       7.120019e-08 1.0765734e-05 -7.8256863e-07 -6.485417e-06
000190 6c 3b d8 b5 38 4c 3e b5 e1 15 b8 b5 42 1c 6b 36
       -1.6110548e-06 -7.089143e-07 -1.3715436e-06 3.5034177e-06
0001a0 3e 4a e4 b4 16 24 6f b6 34 fa b1 30 17 41 02 af
       -4.2522328e-07 -3.563478e-06 1.2949557e-09 -1.1846556e-10
0001b0 13 c4 50 36 74 84 73 b5 cb e1 b5 b7 e7 e0 12 37
       3.1108545e-06 -9.07173e-07 -2.1682024e-05 8.754642e-06
0001c0 c1 d1 f3 34 62 77 97 b6 50 79 e7 37 29 6c e7 37
       4.5414893e-07 -4.5140487e-06 2.7593836e-05 2.7587712e-05
0001d0 33 38 52 b7 44 7a 11 37 b7 a9 03 b4 80 1d 1d b6
       -1.253006e-05 8.671141e-06 -1.2262068e-07 -2.3411994e-06
0001e0 62 5c 39 38 8a 61 7a 37 d6 7c 03 b7 9c f4 0c b6
       4.4193475e-05 1.4923871e-05 -7.837274e-06 -2.1004007e-06
0001f0 19 de 95 37 ff ea 8e 38 10 a6 53 b5 f2 01 87 37
       1.7865606e-05 6.814859e-05 -7.884528e-07 1.609416e-05
000200 50 b9 8e 36 b7 31 6a 34 40 80 d3 37 49 c7 89 38
       4.253503e-06 2.1811034e-07 2.5212881e-05 6.569789e-05
000210 e1 8e 8d b6 3d bd 9c 37 33 b2 e5 b7 9e 21 18 38
       -4.2187608e-06 1.868477e-05 -2.7381908e-05 3.6270932e-05
000220 c0 1e 0e b6 f8 ab 88 b6 0b 1a b0 36 93 f9 78 34
       -2.1177548e-06 -4.0731356e-06 5.2482405e-06 2.3187594e-07
000230 62 cb 71 b6 df 85 0a 38 8e 69 13 38 94 66 eb b5
       -3.6030183e-06 3.302644e-05 3.5145837e-05 -1.7538719e-06
000240 52 67 0b b7 20 79 90 37 3b b5 f3 37 ea 87 60 36
       -8.309102e-06 1.7222541e-05 2.905225e-05 3.3457713e-06
000250 e6 1b a5 36 dd 50 1a b7 41 fb 85 35 21 48 46 b7
       4.920631e-06 -9.197943e-06 9.982397e-07 -1.18185135e-05
000260 53 25 74 b7 de 72 80 36 ca 90 ea 35 df e7 1f b4
       -1.4552224e-05 3.8280696e-06 1.7476498e-06 -1.4892383e-07
000270 4d ea de b4 72 c8 d0 32 f2 47 fa 35 b8 e8 7b b7
       -4.1521199e-07 2.4305539e-08 1.864739e-06 -1.501495e-05
000280 5e 02 98 b6 01 98 4e 36 ee 89 dc a0 57 08 74 2e
       -4.5302286e-06 3.078487e-06 -3.7360724e-19 5.5486584e-11
000290 70 51 0b b5 6d 93 e0 b4 7f 9d 95 b6 a3 89 0d b5
       -5.190004e-07 -4.1830518e-07 -4.458881e-06 -5.272688e-07
0002a0 72 e4 e8 b7 c3 5b b6 37 e8 c0 cc 34 a2 60 d7 34
       -2.7762933e-05 2.173882e-05 3.813832e-07 4.011718e-07
0002b0 3f 1f 84 b4 63 83 78 b4 a4 a1 b5 b6 b0 82 9a b3
       -2.460965e-07 -2.3144598e-07 -5.413038e-06 -7.194956e-08
0002c0 7d 68 24 b7 a2 a5 9a b5 91 cf b5 b2 61 0c 1e b4
       -9.79949e-06 -1.15221e-06 -2.1165564e-08 -1.47194e-07
0002d0 cf c6 d8 37 47 24 70 37 36 65 89 b6 69 7f 8f b6
       2.5841784e-05 1.4313561e-05 -4.0947007e-06 -4.2765646e-06
0002e0 ec 0f 78 b4 da d3 75 b7 c6 88 10 b4 25 f3 25 b6
       -2.3102592e-07 -1.46524635e-05 -1.3460803e-07 -2.4728445e-06
0002f0 dc 1c 92 b7 cd f1 4e b6 c4 9f 87 34 e8 34 ea 36
       -1.7417995e-05 -3.0837139e-06 2.5261954e-07 6.9799025e-06
000300 7c be bd b6 a2 de b0 b6 7a 02 41 b7 23 68 49 37
       -5.6548142e-06 -5.2711266e-06 -1.1504273e-05 1.200478e-05
000310 26 d0 bc b6 a8 6f c5 b4 83 71 7a 38 42 1c 73 37
       -5.6270683e-06 -3.677535e-07 5.971036e-05 1.4490508e-05
000320 98 a3 4e b7 5f d9 26 36 bc 3b 9c 37 9c 0a b4 35
       -1.23166465e-05 2.4862454e-06 1.8624465e-05 1.3414133e-06
000330 73 10 14 b2 a8 77 6f b2 fb ee 77 37 ed 71 2f 37
       -8.618474e-09 -1.3938838e-08 1.4777989e-05 1.0457338e-05
000340 1d 7e 92 b7 aa 52 9d 37 a6 fc 6f b7 56 6b b4 36
       -1.7463282e-05 1.8754352e-05 -1.4304334e-05 5.3769136e-06
000350 02 65 96 36 40 92 44 37 5e 98 73 37 2a bf 29 38
       4.482107e-06 1.1716562e-05 1.4519404e-05 4.0470775e-05
000360 ee 6d 94 b7 65 d5 72 b7 87 38 c8 b5 2f 80 30 b5
       -1.7694165e-05 -1.4474009e-05 -1.4917613e-06 -6.575164e-07
000370 ac 25 93 36 c2 f2 9d b6 80 c0 42 38 97 03 09 38
       4.385327e-06 -4.7072253e-06 4.6432484e-05 3.266669e-05
000380 a2 d3 09 33 f0 16 1e 35 6b 0d 7c b7 60 3e 8e 34
       3.2090277e-08 5.8892965e-07 -1.5023495e-05 2.6494945e-07
000390 07 13 f4 36 ce eb 30 37 a4 95 2d 37 a7 81 3e 36
       7.2739817e-06 1.054532e-05 1.03464445e-05 2.8387674e-06
0003a0 94 9c 8a 36 7c 89 06 37 b6 80 bd 36 84 c3 12 b7
       4.1309486e-06 8.019033e-06 5.647623e-06 -8.7478e-06
0003b0 98 1c 45 b6 88 7c 6d b7 8f 74 7a b6 5c 7e 91 36
       -2.9371931e-06 -1.41552955e-05 -3.732075e-06 4.336047e-06
0003c0 1d 35 7b 35 9a a0 66 b5 c1 49 67 37 2a a0 68 38
       9.3582076e-07 -8.5915383e-07 1.3785845e-05 5.5462275e-05
0003d0 77 cd e1 b6 2f a2 4c b7 77 a7 0c 37 64 8c 9d b7
       -6.729442e-06 -1.2197109e-05 8.383641e-06 -1.8781233e-05
0003e0 4d 24 d2 36 6f be a3 35 b4 0a b8 b6 8f 20 e8 b4
       6.2627137e-06 1.219987e-06 -5.4848733e-06 -4.3237057e-07
0003f0 da 10 81 b6 f8 6a db b4 30 e1 a3 b5 07 22 8a b7
       -3.8464614e-06 -4.086976e-07 -1.2209985e-06 -1.6466727e-05
