cebra_models/necab1/01/B/cebra_SucessFailure_model_5000_32_B.pt (torch, 639047 bytes, 31 tensors)

net.0.weight f4 [32, 403, 2]
000000 13 a6 c3 bc 22 e6 e9 b9 b5 b2 56 3b 12 55 16 bb
       -0.023882901 -0.00044612685 0.0032760326 -0.002293889
000010 c5 a3 53 3d 3a 73 8c bc 5d 70 4e 3b be aa cd 3c
       0.051669855 -0.017144788 0.003150008 0.02510583
000020 21 9e d6 3c b8 db 40 3a 66 86 cf 3c 9b d3 9e ba
       0.026198449 0.00073569594 0.02533264 -0.0012117507
000030 b6 8c 14 3c 77 88 7c 3b ec 09 c8 3c 35 86 1e 3c
       0.009066751 0.0038533488 0.024418794 0.009675552
000040 11 cd 0a bd 9f 3e 2b bb dc 63 56 3d 1d cc 2f bd
       -0.033886973 -0.0026129854 0.052341327 -0.042919267
000050 11 70 cb 3c 04 b8 d4 3c 86 27 d4 bc c0 17 f2 bc
       0.02483371 0.025966652 -0.025897752 -0.02955234
000060 3f 33 72 3c dc 77 18 3d 76 f5 0e bd 98 c8 58 bd
       0.014782726 0.03722368 -0.03490206 -0.052925676
000070 e9 0c ff bc 90 45 de bc 74 73 87 bd 55 3c ff 3c
       -0.031134086 -0.02713278 -0.06613818 0.031156698
000080 05 6b 30 3d 72 24 b5 3b 22 79 28 bd 9b df 4c 3c
       0.04307081 0.0055280263 -0.041131146 0.012504484
000090 f4 b6 ce 3c 87 9a cf bc 3d 6c 2b bd da ab 07 bc
       0.025233723 -0.025342239 -0.04185127 -0.008280719
0000a0 44 e6 ef bb c7 af 3d 3b 88 d9 41 bd ff c4 af bb
       -0.007321151 0.0028943883 -0.047326595 -0.00536406
0000b0 40 98 a3 3c ef 5a b5 3b 3f 23 b0 bc 26 c4 22 bc
       0.01997006 0.005534522 -0.021501182 -0.009934461
0000c0 08 2e 88 bd 94 59 08 bd c8 17 96 bd 19 e7 88 bd
       -0.06649405 -0.033288553 -0.07328755 -0.066847034
0000d0 95 15 d9 ba 39 d6 8c bb f6 7c 05 3d c1 72 6c 3d
       -0.0016562218 -0.0042979983 0.032589875 0.057726625
0000e0 50 a8 16 bb 6e cc 0b bc 21 43 3c 3c 5c 5e b1 3c
       -0.0022988506 -0.008532627 0.011490614 0.02165144
0000f0 21 89 62 3b e5 63 89 bc 4c 04 f7 bc 2a 63 38 bd
       0.0034566598 -0.016771266 -0.030153416 -0.045016445
000100 8c 62 07 3c 8b 73 88 3c c0 fd 2d bd 70 0c 2b bd
       0.0082632415 0.016656658 -0.042478323 -0.04175991
000110 3c 96 73 bd 3d 7f 02 bc b3 b1 82 bb ba f4 1f bd
       -0.059469447 -0.007964906 -0.0039884686 -0.03905175
000120 5a e7 82 bb 3d 6e 9a bc 9f 1b 2c 3d de a0 56 bd
       -0.0039948644 -0.018851394 0.04201853 -0.05239951
000130 12 fd 1e 3b 3e 91 12 bc 7d b3 bb bc 4d 67 b8 bc
       0.0024259728 -0.008945761 -0.022912735 -0.022510195
000140 17 77 f5 ba b5 ed 80 3b b9 99 0d bd 05 97 cc bb
       -0.0018727508 0.003934587 -0.03457043 -0.006243589
000150 c1 d9 47 3d 30 87 93 3c fa 18 94 3c 28 8d f1 bc
       0.04879165 0.018008798 0.018078316 -0.029486254
000160 22 a3 f0 bc c8 a2 e5 bb 72 5b a4 bb a6 ab b5 bc
       -0.029374663 -0.0070079304 -0.005015784 -0.022176575
000170 b8 3f 3c bd 0f ae 1d bc 51 b9 97 3c eb 98 1b bd
       -0.045959204 -0.009624018 0.018520983 -0.03798763
000180 10 4b 4b bd 68 02 23 3c 50 7c 47 bc 11 66 34 bd
       -0.049632132 0.009949304 -0.0121756345 -0.04404265
000190 4f 5a e1 bc 50 c9 22 3d 68 ba 41 3c fd 3c 3b 3c
       -0.027508883 0.039742768 0.011824228 0.011428115
0001a0 0f 20 8f 3b 2e 97 eb 3c b0 03 b8 3a cc 14 82 bd
       0.0043678354 0.028758612 0.0014039185 -0.06351623
0001b0 ac c5 96 3c b6 cd b7 3c 42 21 4e bc a6 f4 07 bb
       0.018404804 0.022436958 -0.0125811715 -0.0020745187
0001c0 1b e8 31 bc d6 76 bd bc cb 41 13 3d 41 86 76 bc
       -0.010858561 -0.023127954 0.035951417 -0.015046657
0001d0 c6 aa ec 3c d2 fd be bc 6d f0 67 3d c9 59 27 bd
       0.028890025 -0.02331439 0.056625772 -0.04085711
0001e0 cc 94 4c bc 42 4a 4f 3c 39 05 df bc 98 25 16 3d
       -0.012486648 0.012651982 -0.02722417 0.036656946
0001f0 41 89 64 bc 53 be 96 ba c1 84 12 bc f4 2d a3 bc
       -0.0139487395 -0.0011500813 -0.008942784 -0.019919373
000200 2d bd 1b 3d f5 37 4e 3d d0 d0 0e 3b 24 b9 d9 bc
       0.03802221 0.050346334 0.0021791942 -0.02657754
000210 10 2b 57 3d 8a 73 08 bd 50 a5 96 ba 2e e6 8c 3a
       0.052531302 -0.03331331 -0.0011493359 0.0010749751
000220 e6 82 28 3d 71 6a c4 bc a9 0c 47 3d 85 e5 9b bb
       0.04114046 -0.023976536 0.048596058 -0.0047575855
000230 a1 8f b3 bc 12 62 07 3d c4 fc 90 bb 5e 1d 08 3d
       -0.021919074 0.03305251 -0.0044246633 0.03323113
000240 85 39 43 bc 1b 89 54 bc 0f 1a 4a bc 0e 43 e7 3b
       -0.011915569 -0.012972142 -0.012335314 0.007057554
000250 be f6 29 bc 88 69 95 bb c4 08 1f bc d9 b4 e2 bc
       -0.010373769 -0.0045596994 -0.00970668 -0.027674126
000260 08 3f ba 3c cb bc bd bc ac 9f 4d bc 6a 78 eb bc
       0.022735134 -0.023161313 -0.012550276 -0.028743941
000270 1c bb 8e bb 90 1e 23 ba a0 fe 8c bc 16 ba 56 bc
       -0.0043558013 -0.0006222511 -0.017211258 -0.01310589
000280 ca 97 71 bc 86 1f 74 3b f6 a9 28 bc 59 04 1d 3d
       -0.014745662 0.0037250235 -0.010294428 0.038334224
000290 6b ed 3b 3c 5e cf 06 bc 0f 52 d3 bc 1f f9 42 3d
       0.011470179 -0.008228151 -0.025795965 0.04760086
0002a0 f0 b0 6d ba 5e e6 38 3c 4d b9 ec bc d8 c6 23 bd
       -0.0009067198 0.011285393 -0.028896952 -0.039984554
0002b0 dc a0 2d bc 41 86 50 3c a9 0a 43 3b a6 e1 91 38
       -0.010597434 0.012727321 0.0029760993 6.956169e-05
0002c0 65 42 6d 3c 63 8c d6 bc 41 b4 62 bd 17 b6 8b 3d
       0.014481162 -0.026189988 -0.055347685 0.0682184
0002d0 d3 00 0c bd 4e 90 2f bc 93 b5 c6 bc 19 7c 19 3d
       -0.034180474 -0.010715557 -0.024256503 0.037471864
0002e0 5e a5 ed 3c ac fd 31 bd ad 64 31 bd 19 b9 e8 bc
       0.029009517 -0.04345481 -0.043308903 -0.028408574
0002f0 a1 3a 09 3a fb 26 5a 3c 83 9a 68 3c 60 97 2d 3d
       0.00052348716 0.013314958 0.014196995 0.04238069
000300 07 30 76 bb 71 cb 03 3d 10 9f 88 3c cd c8 58 bc
       -0.0037565248 0.03217644 0.01667741 -0.013231468
000310 df 70 28 bd 83 e4 2f 3d f5 ac 81 3c 17 74 65 3c
       -0.041123267 0.042942535 0.015829543 0.014004729
000320 86 03 59 bc e8 95 f1 bc 88 e3 f6 bb 73 c7 2b bd
       -0.013245469 -0.029490426 -0.007534448 -0.041938256
000330 09 ca 8c 3a 57 81 23 bb 3c f5 0e bc a8 e0 b4 3c
       0.0010741364 -0.0024948919 -0.008725461 0.02207978
000340 0d b7 0d 3d 03 d7 49 3d 50 a3 8c bb 73 27 cd bc
       0.0345984 0.049277317 -0.0042919293 -0.025043225
000350 4e 8d 74 3c 82 a4 89 bc 8a ac 54 38 6c 63 95 bc
       0.014926268 -0.016802076 5.070543e-05 -0.018235885
000360 0a 35 2e bd f4 59 f1 3c 21 5e d1 bc b3 ec ae bc
       -0.04253105 0.029461838 -0.02555758 -0.021353101
000370 08 5d de 3c 04 89 84 bb 60 bb 0b 3c 7d 61 87 bb
       0.02714397 -0.004044654 0.00852856 -0.0041314946
000380 04 57 06 bb 2a 98 8d bd de a9 da bc 3c 37 e6 ba
       -0.0020498643 -0.069137886 -0.026692327 -0.0017564069
000390 a0 27 89 3d f7 66 ae 3c da c8 e8 bc 21 50 e4 3a
       0.06697011 0.021289332 -0.028416086 0.00174189
0003a0 23 f8 a8 3b 80 c2 29 3c c5 a4 f0 3c db 82 0c 3d
       0.0051565333 0.010361314 0.029375443 0.03430448
0003b0 f6 f9 1b 3d 59 1e 20 bc 7d 81 b8 3b e4 ea 47 3d
       0.03808018 -0.00977286 0.0056306706 0.048807994
0003c0 c1 5f b8 bb 24 f6 8b 3c c6 93 b7 3c 99 34 15 3c
       -0.005626649 0.017085142 0.022409331 0.009106779
0003d0 87 52 4d 3c 10 e0 04 3d 26 9d 19 3d 2d f5 c5 bc
       0.012531883 0.032440245 0.037503384 -0.02416476
0003e0 62 e4 9e 3b 88 d5 84 3d b9 8b c9 3b d7 0f cb bb
       0.0048490027 0.0648604 0.0061506894 -0.0061969566
0003f0 ce 47 ac 3c db f0 4d bc 0d 31 d4 bc 68 08 c9 bc
       0.021030333 -0.012569631 -0.025902295 -0.024540141

net.0.bias f4 [32]
000000 58 66 1c bc c1 4a 39 3c 41 d2 0b 3c e1 51 2c bc
       -0.009545885 0.011309327 0.008534015 -0.010517568
000010 84 0f 2e b9 a8 9c 21 3b 83 e3 41 bc 23 eb 7c 3c
       -0.00016599713 0.0024660025 -0.011834028 0.01543692
000020 79 97 b3 bc d7 5c 2e 3c 2b ab 64 3b 92 eb a1 bc
       -0.021922814 0.010642252 0.0034892063 -0.019765649
000030 e1 c0 c1 3c db 62 2c bc 8d 34 a2 bb f6 65 06 3b
       0.023651542 -0.010521616 -0.004950112 0.002050755
000040 36 c3 dc bc 04 1f 1f ba 33 0c 9a 3c 06 d8 14 3b
       -0.026948553 -0.00060699903 0.018804645 0.0022711768
000050 97 c1 82 3b 2e bc ca bc fd 38 ac 3c 47 25 e9 3a
       0.003990363 -0.024747934 0.021023268 0.0017787599
000060 f1 9b 44 bb 59 04 2b 3d c3 9b eb 3c 1e 44 27 bd
       -0.0030000175 0.041752193 0.028760796 -0.040836446
000070 f3 61 01 bd 57 6b 98 3c 57 dd c2 bc bc 96 d0 bb
       -0.031587552 0.018605871 -0.023787184 -0.006365625

net.2.module.0.weight f4 [32, 32, 3]
000000 83 14 e3 bc dc e5 b7 ba 83 8c 2b 3d c4 59 8b 3c
       -0.027719742 -0.0014030295 0.04188205 0.017010577
000010 0a 2e 90 bc ff 29 6a bd a8 53 21 bd e3 a0 3e bc
       -0.017600078 -0.057168957 -0.03938642 -0.011635038
000020 c7 9c d6 3c 39 1e 87 bd 42 a9 ac bd ed 53 72 bd
       0.026197804 -0.065975614 -0.08430721 -0.05916207
000030 db 0d 38 3d 8b a0 4e bd e6 12 e6 bb 69 76 87 3d
       0.04493509 -0.050446074 -0.007021296 0.06614382
000040 94 ca 13 bd e5 97 3c bd 8b 98 fa 3a 28 b6 a3 bd
       -0.036081865 -0.046043295 0.0019118948 -0.07993728
000050 bf 97 f7 bc ba 8e 8f 3c 22 75 9e 3b 5f 16 af bd
       -0.030223725 0.017524112 0.0048357407 -0.08549189
000060 ff ba 5b bd 08 08 b8 bd dc 99 e1 bb d4 48 c9 3d
       -0.05364513 -0.08985907 -0.0068847965 0.09828344
000070 00 e0 1b 3d ab b0 1e 3c 60 e3 52 bd 53 f4 c2 bd
       0.03805542 0.009685676 -0.051486373 -0.095192574
000080 92 67 f0 3c 66 e7 29 3e 21 27 ff bc 67 13 4c 3e
       0.029346261 0.16592178 -0.031146588 0.19929276
000090 1b 94 99 bd 34 dc 78 bd 8b 47 41 be 44 5e d1 3c
       -0.07498952 -0.060756877 -0.18874948 0.025557645
0000a0 8d 42 5c 3d 1f f4 00 be a8 b4 2f bc af cf dd 3b
       0.053774405 -0.12593125 -0.010724224 0.0067691426
0000b0 c7 38 54 3c ee e7 1c 3d ab c9 f3 3c a6 97 97 bd
       0.01295299 0.038307123 0.029759249 -0.074019715
0000c0 86 57 f4 bd b7 e8 90 3d e2 89 e5 3c 61 0a bf bc
       -0.11930756 0.07075637 0.02801985 -0.023320379
0000d0 83 da 93 3d 5a 02 b3 3c a3 e8 fa 3c 92 29 cd bd
       0.07219412 0.021851707 0.030628508 -0.100176945
0000e0 5e e4 60 bd 1c 63 84 bd bb 97 79 3d 30 9e 8a 3d
       -0.054905288 -0.06464216 0.060935717 0.06768453
0000f0 79 88 ae bc 43 f4 b0 3d 03 46 69 bc d4 e3 b2 3d
       -0.02130531 0.08640339 -0.0142378835 0.08734861
000100 47 b1 66 bc 5d ee 97 3d ac 23 dc 3d 3b f3 14 3a
       -0.014080352 0.07418511 0.10748991 0.0005681996
000110 15 9b 18 bc 65 f3 0a be d7 44 80 3c d3 ca 26 bb
       -0.009314318 -0.1356941 0.015657825 -0.0025450482
000120 3f 64 9a bc 7a a0 27 bd f9 4e a6 3c 43 8a b2 bd
       -0.01884663 -0.040924527 0.020301329 -0.087177776
000130 bb b8 af bc b5 cc d1 bc 96 a6 b4 bc 8f 70 be 3d
       -0.021450391 -0.025610307 -0.02205209 0.092988126
000140 04 43 e4 3d a6 36 01 3e c0 65 53 3d 42 14 2a 3e
       0.11145595 0.12618503 0.05161071 0.1660929
000150 f5 ab be 3d f9 cb a5 bd af 91 5f 3d 7f ee 55 bd
       0.09310142 -0.08095545 0.054582294 -0.0522294
000160 61 e9 d3 3d 27 70 8d bc 05 53 26 3d 94 c0 92 bd
       0.10347248 -0.017265392 0.040606517 -0.071656376
000170 c5 98 28 bd 0d da 38 3d 4e 52 b7 3d dc 99 cc 3d
       -0.041161317 0.045129824 0.08951245 0.09990284
000180 43 7a 13 bd 24 16 e3 3d d9 80 43 3c 3f 64 89 bc
       -0.03600527 0.11088207 0.011932575 -0.016771434
000190 4b 2a f3 3d d4 39 ba bb fc 50 cc bd c7 ab 87 3d
       0.11873301 -0.005683163 -0.09976384 0.06624561
0001a0 a7 1b 0a bd e5 9d 8c 3d 9d 63 a1 bd b9 47 89 3d
       -0.033717778 0.068660535 -0.07880328 0.06703133
0001b0 b0 30 b2 3d bc 55 ce bc c7 5e 8a 3b 28 02 a7 bd
       0.08700693 -0.025187366 0.004222724 -0.08154708
0001c0 02 06 cf 3b 19 e0 8f bd 2a 3f f7 3d 78 a9 df 3c
       0.006317855 -0.07025165 0.120725945 0.027302489
0001d0 1c ec 5b bd 41 ef 8f 3c fb 40 55 3d 27 f3 e5 3d
       -0.05369197 0.01757014 0.052063923 0.11228018
0001e0 a7 18 2e 3c 22 94 d3 bd 98 9d c3 3d f7 55 6c bc
       0.010625995 -0.103309885 0.09551543 -0.0144247925
0001f0 ef e1 0b 3d ec 0f d1 3c 7d da 00 3d 87 96 a0 bc
       0.034151014 0.025520287 0.031458367 -0.019603027
000200 aa f6 df bc 02 18 1d be 84 06 8f 3d 7d 65 b6 bd
       -0.027339298 -0.1534119 0.06983665 -0.08906076
000210 75 e1 05 3e c5 3b a2 3d 60 b5 10 3e f5 c1 d9 3b
       0.13074286 0.079215564 0.14131689 0.006645436
000220 b5 83 37 3d aa 72 11 3b 9d 42 18 bd 1c 31 2e bd
       0.04480334 0.002219359 -0.037172902 -0.042527303
000230 58 c7 c6 3d 4f 0c d1 3d 8f 72 a2 bd 34 03 8e 3d
       0.097059906 0.10207426 -0.079320066 0.06934205
000240 b9 67 09 3e fe 56 b7 bd 32 34 c2 3d a9 3f 71 3d
       0.13418473 -0.08952139 0.09482612 0.0588986
000250 6b a3 43 bd 9a 35 76 3b ec cb 0e 3e e9 93 c7 3d
       -0.04776327 0.003756857 0.13944978 0.097450085
000260 f1 9d 83 3d 07 55 7b bc c7 9e bc bd e4 66 c5 bd
       0.06426609 -0.015340096 -0.09209972 -0.096387655
000270 f2 2a 73 bd 3d d9 fe 3d 88 a6 80 3d a4 4a 1d bc
       -0.059367128 0.12443779 0.06281763 -0.009600315
000280 44 c3 80 3c da 28 0c 3d 2f 31 03 be bc 2c 10 3d
       0.01571811 0.034218647 -0.12811731 0.035198912
000290 b0 ed 0c be 49 64 70 bd a6 73 99 3d 96 fb bc bc
       -0.13762546 -0.05868939 0.07492761 -0.023069184
0002a0 60 b7 35 39 1b 43 31 bd 8a 4e 0d 3d 22 6c ac bd
       0.00017329818 -0.043276887 0.03449873 -0.08419062
0002b0 dd 90 db 3d 47 99 8a bc 19 3d 52 3d db 5a eb bd
       0.1072099 -0.016918791 0.0513278 -0.11491939
0002c0 a0 ab 96 3d f9 7d 09 be 0a 64 d3 bd 98 a0 56 bd
       0.073569536 -0.13426961 -0.10321815 -0.052399248
0002d0 ff d5 0a 3d ca 31 06 bd b7 e1 9c bd ad 4e c6 bc
       0.03389549 -0.032762326 -0.07660239 -0.024207437
0002e0 6d a2 bf 3b cb b7 8e 3c 2b 08 16 3d 91 4b d1 3d
       0.00584822 0.017421624 0.036628883 0.10219491
0002f0 95 b1 ac 3d 4a 44 88 bd 9f 9c 94 3c 75 f5 4a 3c
       0.084323086 -0.0665365 0.018141089 0.012387623
000300 56 36 df 3d 51 88 02 bd 62 c6 9b 3d 90 8a 3f 3d
       0.10899036 -0.031868283 0.07606198 0.046763003
000310 0c bb fd bc d6 0f 8d bd 03 ca 08 bb f7 6a a5 3d
       -0.03097298 -0.06887786 -0.0020872361 0.080770425
000320 82 67 90 3c ef 81 be bd 10 ae 18 3d 48 e3 ec bb
       0.017627481 -0.093021266 0.037275374 -0.0072292425
000330 c4 78 09 be 17 9f a8 3d 10 57 9d bd 11 48 74 bd
       -0.13424975 0.08233469 -0.076826215 -0.05963904
000340 a0 e5 45 bd 0c b1 b4 bd 03 91 99 bd da bc 70 3b
       -0.04831469 -0.088228315 -0.07498362 0.0036733658
000350 76 01 b7 3c 93 ad 02 3d 17 d7 87 bd 3e ad c9 bd
       0.022339564 0.031903815 -0.06632822 -0.098474964
000360 3e af 78 bd 3c a7 ae 3c af 46 56 3d ab 0e 53 bd
       -0.060714 0.021319978 0.052313503 -0.05152766
000370 21 74 0f bd ce f5 6c 3b 1f bc a4 bd 78 9b 43 bd
       -0.03502286 0.0036157253 -0.08043694 -0.04775569
000380 53 cd c6 bd aa 3f 19 3d 9e 68 c0 3d fe 85 50 bc
       -0.09707131 0.03741423 0.09394954 -0.012727259
000390 f7 16 7d bd 39 b3 02 bd 79 13 7d bd 27 93 9f bd
       -0.06178948 -0.0319092 -0.06178615 -0.07791739
0003a0 b1 bd bd 3c d7 23 29 3c d8 df 48 3b c5 55 ba 3d
       0.023161741 0.010323486 0.0030651 0.090983905
0003b0 01 61 0d be 5c 56 5a 3c c1 1a ed bc b3 44 95 3d
       -0.13806535 0.013326254 -0.028943421 0.07288494
0003c0 6d 0a 36 3d 47 6e 9d 3d 7d 32 a2 bd 7a 75 5a bd
       0.044443537 0.07687049 -0.07919786 -0.05333469
0003d0 c2 eb 82 3d 84 cc a9 bd b7 a1 07 3c b1 57 2f bb
       0.063926235 -0.082909614 0.008278302 -0.002675515
0003e0 77 92 f3 bd 15 73 bf 3d e8 36 7b bd b7 34 2f 3d
       -0.1189317 0.09348122 -0.06133166 0.042774882
0003f0 5c 06 17 bd 5d d6 a1 3c ae de 92 3d 17 0e 26 bc
       -0.0368713 0.019755537 0.07171379 -0.010135195

net.2.module.0.bias f4 [32]
000000 96 d1 6f bd 35 91 0c bd 85 54 cf 3c 11 aa 0d bc
       -0.058549486 -0.034318168 0.025308857 -0.008646504
000010 c8 8d c1 bb 19 7f 88 3d 90 4b a5 bd 2d e9 0e 3d
       -0.005906794 0.06664867 -0.08071053 0.034890343
000020 16 a0 f1 bc 0e e5 bd 3d ea 3d 0b 3c 64 a5 fb bc
       -0.02949528 0.09272204 0.008498648 -0.030718513
000030 73 17 07 3d 9c a4 46 bd f7 7c 7d 3d 72 c1 be 39
       0.032981347 -0.048496827 0.061886754 0.00036383752
000040 ab 05 57 3d 86 93 18 3d df 19 37 3d ab 0d 35 bc
       0.05249564 0.037250064 0.044702407 -0.011050622
000050 f1 14 11 3d ee 07 54 3b d3 07 c8 3d bb 6f f9 bb
       0.035420362 0.003235336 0.09767117 -0.0076121963
000060 1e c7 dd 3d 39 99 8b bb da d1 de 3d a5 ee b8 bb
       0.10828994 -0.004260209 0.1087987 -0.005643683
000070 58 e1 fb 3c 7f c7 ad bd 78 37 c6 3c be d0 63 3d
       0.0307471 -0.084853165 0.024196371 0.055618994

net.3.module.0.weight f4 [32, 32, 3]
000000 93 f0 24 3d 28 53 e0 3c aa 2a 6a 3d a0 bb 7e bd
       0.040268492 0.027383402 0.057169594 -0.062190652
000010 6e 29 a9 bc 89 89 0c be 96 bb 21 bd 2c 4b 2d 3b
       -0.020649638 -0.1372434 -0.039485537 0.002644251
000020 89 4a 71 3d 8a 1b 37 3d 50 45 4f bd 1e c3 3f bd
       0.058908973 0.044703998 -0.05060321 -0.046816938
000030 02 62 ef 3c 8a de d0 3b d1 4e 2b 3d 30 4c 94 bd
       0.029221538 0.006374185 0.041823212 -0.07241094
000040 1a b0 b2 bd d1 a0 8e bd 9b 26 4e bd 56 a1 c3 bc
       -0.08724995 -0.06964267 -0.050329786 -0.023880642
000050 af 2c 59 bd 1f 37 99 bd 04 10 4d 3d 42 8f 05 bd
       -0.05302113 -0.07481217 0.0500641 -0.032607324
000060 66 14 46 3d 79 68 fc 3c ae a6 77 b9 e8 21 28 bd
       0.048359297 0.030811535 -0.00023617849 -0.04104796
000070 f3 e7 33 3d e9 e6 f7 bc 5d 83 8c bd d7 af a8 3c
       0.043922376 -0.030261474 -0.06860993 0.02059166
000080 0f a0 2c 3d aa b4 90 bd 3f 4a 87 bc 03 a6 d5 bd
       0.04214483 -0.07065709 -0.016514895 -0.10432055
000090 51 12 81 bd d8 8c 49 3d 7e 67 0b bd 5a c5 93 bb
       -0.06302322 0.049206585 -0.034034245 -0.00450961
0000a0 7e 51 c8 bd dc bf e1 3b 59 5e a6 3c b0 f7 58 bd
       -0.097811684 0.0068893265 0.02030866 -0.05297059
0000b0 d8 75 c0 bd cf 60 58 bc ce f6 9c bd 0e 8d 89 bd
       -0.09397477 -0.013206675 -0.07664262 -0.06716357
0000c0 ff eb de bd 82 32 1b bd 87 f7 c5 3c 8b 86 6b bd
       -0.108848564 -0.037889965 0.024165882 -0.057501357
0000d0 69 93 89 3d bb 30 80 3d 2e b7 a6 bd 1b 57 97 bd
       0.067175694 0.062592946 -0.081404075 -0.07389661
0000e0 4f 78 f0 3c 3e fc 67 3b 4f b2 68 bd 1f 95 dd bd
       0.029354243 0.003539815 -0.056810673 -0.10819458
0000f0 07 07 8d 3d 46 22 5f bd f1 0c 4b bd 70 6a 96 3d
       0.06886106 -0.054476045 -0.04957289 0.0734452
000100 fb 7b 1e bd ca b1 a6 3d b0 39 09 bd a7 22 37 3d
       -0.038692456 0.08139379 -0.03350228 0.04471078
000110 59 5c ad bd 25 0e e0 bc db 0d b2 bd 75 e1 30 3d
       -0.084648795 -0.027350495 -0.08694049 0.043183763
000120 e0 56 28 bd 46 42 ad bc 20 0e b9 3d 89 44 49 3d
       -0.041098475 -0.021149766 0.09035897 0.049137626
000130 f3 b6 05 bd 33 ab 87 3b 1e 23 53 3d 9d a5 56 bc
       -0.032645177 0.0041402816 0.051547162 -0.013101009
000140 89 f4 ac bd 68 83 82 bd 30 4b 37 bd 98 8e a8 bd
       -0.08445079 -0.0637272 -0.04474944 -0.082303226
000150 4b 6f 69 bd 22 f0 b4 bd ea 05 b1 ba ba 90 68 3d
       -0.056990903 -0.08834864 -0.0013505791 0.056778647
000160 e7 bd ac bd 8b 01 c0 bd 3c 38 c1 bd 20 79 57 bd
       -0.084346585 -0.09375294 -0.09434554 -0.05260575
000170 8d 42 10 be 88 ca 84 bd 3e 69 37 3d 91 f8 cf 3c
       -0.14087887 -0.06483942 0.0447781 0.02538708
000180 76 b2 d3 3c 44 56 bd bd 40 27 dd 3d 99 3b 42 3d
       0.025841933 -0.092449695 0.10798502 0.047420118
000190 f6 58 00 3d 38 e0 fe 3d e8 31 90 bd 2e 0e 98 3d
       0.03133484 0.1244511 -0.07040769 0.074245796
0001a0 40 e8 4e bd 03 d1 9a 3d 36 70 ce bc 05 e6 e5 3b
       -0.05051446 0.07559397 -0.02519999 0.007015946
0001b0 26 a4 38 3d d3 66 c6 3c 59 18 84 3d d8 88 49 bd
       0.04507842 0.024218952 0.064499564 -0.04920277
0001c0 00 da 8c 3d 34 f3 cc bd e1 fb be bd cc 38 b0 3d
       0.06877518 -0.10007325 -0.09325386 0.08604583
0001d0 cc 80 cd 3c fa 88 ee 3d ce 67 b6 bd 71 90 82 3d
       0.02508583 0.1164722 -0.08906518 0.06375206
0001e0 cc b3 9d 3d 90 b2 ae bd d9 56 cf bd c3 f4 bd 3d
       0.07700309 -0.08530152 -0.10123987 0.092752
0001f0 7c 8f 8b bd b6 03 6d 3d 33 89 fa bc 1d 1f 12 3e
       -0.06814477 0.057864867 -0.030583 0.14269681
000200 03 02 81 3c d0 70 23 be 72 40 8c bc 90 8d 16 3d
       0.01574803 -0.15961003 -0.017120574 0.0367561
000210 a2 5e f0 bb e3 e4 26 3d 2a 15 c0 3d 42 5e 97 3b
       -0.0073355 0.040745627 0.09379037 0.0046193907
000220 b0 79 a4 3d dc 1a 7e 3d d2 c1 fb 3c 24 aa a9 bd
       0.080310225 0.062037334 0.03073207 -0.08284405
000230 d6 be ba 3d b5 5d 8a 3c ef ab b1 3d 0c 44 ca bc
       0.0911843 0.016890386 0.08675372 -0.02469065
000240 23 3e 13 3e 76 de 19 3d 7b e3 a7 bd 5c 0c b7 bd
       0.14379172 0.03756567 -0.08197685 -0.08937904
000250 c2 38 34 3d 2b e0 c9 bd f0 ed a0 3d 37 54 04 bd
       0.04399944 -0.0985721 0.07857883 -0.032306876
000260 ff 70 25 3d d2 6e 01 be 56 47 b3 3d ef 1f 6d bd
       0.040390965 -0.12639931 0.087538406 -0.057891782
000270 7a 5a 24 be f7 01 92 3d 50 d1 8c bd 7d b7 d0 3d
       -0.16050139 0.07129281 -0.06875861 0.101912476
000280 30 bb a0 bd 32 8c 92 3d 86 be 8c bd 7e 2e d5 3d
       -0.07848203 0.071556464 -0.06872277 0.10409258
000290 d4 00 45 bc ee ae 78 3b ab 01 4e 3d 3a 38 6a bd
       -0.012024123 0.0037946063 0.05029456 -0.057182528
0002a0 08 c1 fa bc 7e d1 2c 3c ea b3 b0 bd 00 f1 00 3e
       -0.030609623 0.010547994 -0.08628066 0.12591934
0002b0 ce df 81 bc 52 b2 1a bd ef e1 86 3d 0e 43 16 3d
       -0.015853789 -0.037767716 0.06586062 0.036685042
0002c0 20 73 2b bd d8 3c a6 bd 59 66 d3 3b f7 90 d9 3b
       -0.04185784 -0.08117074 0.00645141 0.0066395956
0002d0 eb 0c 83 3d d0 2e 30 3a 2c 95 8b bd a3 8d bd bd
       0.06398948 0.0006720843 -0.06815562 -0.09255531
0002e0 17 23 9f bb 45 b4 71 bd 56 a1 a3 3b da 56 c9 3d
       -0.004856478 -0.05900981 0.004993598 0.09831019
0002f0 cc b6 f3 3b fb 4e ce 3c b3 29 07 bd c4 f9 c9 bd
       0.0074375626 0.025184145 -0.03299875 -0.09862092
000300 0c b0 a0 bd cd 67 0e 3d 29 1b 36 bc 85 12 aa 3c
       -0.07846078 0.03476696 -0.011114874 0.020760784
000310 26 db d8 bc dd a6 eb bb 00 08 a9 3d 9d 5b b4 bb
       -0.026471686 -0.0071915225 0.08253479 -0.005504085
000320 82 9c 1d 3d 54 55 ee 3b e3 35 8a 3b 06 d0 35 bd
       0.038479336 0.0072733555 0.0042178496 -0.04438784
000330 06 bd e8 3c da 2e 21 3d e2 bf 03 3d 54 4e 1e 3c
       0.028410446 0.03935132 0.032165416 0.00966223
000340 13 f1 a5 bb ed f9 8d 3d a5 eb 83 3d 17 b8 43 3d
       -0.0050641387 0.06932435 0.0644143 0.047782984
000350 5a 62 0d 3d 81 9e cc bc 15 58 35 bc 31 52 cb bd
       0.034517623 -0.024977924 -0.011068364 -0.09927786
000360 2e 5f 2e bd b2 8a 70 bc 0c 21 fa bc 0b d6 62 3b
       -0.04257124 -0.014681505 -0.030533336 0.0034612443
000370 ff 69 50 bd a1 04 b8 bd ad b5 2a be ba ca 25 bd
       -0.050882336 -0.08985258 -0.16670866 -0.04047654
000380 5a f7 c5 bc 13 00 d8 3d ea 3d 66 bd 4a 1a 0e 3e
       -0.024165798 0.10546889 -0.05621139 0.13877216
000390 e5 cf 44 bd a5 9e e6 bc b2 a7 bc bd f6 91 83 bd
       -0.048049826 -0.02815182 -0.09211673 -0.06424324
0003a0 34 03 77 3c 3b 60 12 3d f4 f8 ac bd 1c d3 95 bd
       0.015076447 0.035736304 -0.084459215 -0.073156565
0003b0 8e df 1d be e9 24 73 3d 1f 47 6f bd 8e 1d aa bb
       -0.1541731 0.059361372 -0.058417436 -0.0051915115
0003c0 d1 81 22 bc 79 86 be bc df a2 a9 bd 39 b9 eb 3d
       -0.009918646 -0.023257481 -0.08283018 0.11509938
0003d0 b8 86 53 3b 2a 3b af 3d 50 21 8a bd 9b b0 ae ba
       0.0032276344 0.085562065 -0.06744635 -0.0013327779
0003e0 9b e7 2f bd 16 04 c6 3d 37 c2 32 3d f3 3c bb bc
       -0.042945486 0.09668748 0.04364225 -0.022856211
0003f0 f6 48 15 3e 1a 17 f8 3c 31 a1 e5 3d 1b 7f b9 bd
       0.14578614 0.030284453 0.112123854 -0.090574466

net.3.module.0.bias f4 [32]
000000 5b b9 29 3b ec 88 2c 3d be 55 8f 3d 56 d9 69 3c
       0.0025897834 0.042122766 0.06998776 0.014273008
000010 00 9a 82 3d 2e 12 0a 3e 96 48 da bc 7d e9 a2 3d
       0.063770294 0.13483498 -0.02664594 0.079546906
000020 76 7f c0 3c 82 de 0f 3d b6 99 2c bd 09 7a 83 3d
       0.023498278 0.03512431 -0.042138778 0.06419761
000030 0b 9a 8d 3d 2f f6 c4 bc 8a 6e a7 3d d3 20 01 3d
       0.06914147 -0.02404317 0.081753805 0.031525444
000040 a7 8e 16 3d 4b 3f 87 bd d9 a0 ac 3b de 3b 9f bc
       0.036757138 -0.06603869 0.005268198 -0.019437727
000050 a6 2d 9f 3d f9 84 35 3d 35 d3 fc bc 6b c1 db 3d
       0.077723786 0.044316266 -0.03086243 0.10730251
000060 d2 cd 2b 3c 3b ef 16 bd 07 3d 84 3d 07 45 81 3d
       0.010486083 -0.03684924 0.064569525 0.06311994
000070 54 fd b6 3d be 27 e0 bd 85 89 07 3d c9 50 6f bd
       0.08935037 -0.1094508 0.033090133 -0.058426652

net.4.module.0.weight f4 [32, 32, 3]
000000 c3 68 df bc bd 2f 17 3c 5b 68 18 3b 19 86 1f be
       -0.027271634 0.00922769 0.002325556 -0.15578498
000010 b2 fe 08 3d ad cb 04 be 18 58 db 3d 44 4e 05 3c
       0.03344602 -0.12968321 0.10710162 0.008136336
000020 a6 32 d3 3d fc 5c 66 bd a3 c7 a7 bd 99 7e 69 bd
       0.10312395 -0.05624102 -0.081923746 -0.0570055
000030 2a 20 46 3d 7a 4b 49 bd 15 eb 0c be d3 c3 39 3d
       0.048370518 -0.049144246 -0.13761552 0.04535277
000040 fd 4f 5d bd d5 78 44 bb ca ef 96 bc 19 12 c5 bc
       -0.05403136 -0.0029979248 -0.018424887 -0.024056481
000050 f9 8b 8a bd a8 ce 1e be ad 20 16 3d b9 ac bb bd
       -0.06764979 -0.1550852 0.036652256 -0.091638036
000060 d4 84 15 bd 8e ac 34 bd c6 9c b9 3c 2c 35 2b 3d
       -0.036503628 -0.044109873 0.022657763 0.041798756
000070 87 1a ae bc 31 0d 3c bd ea d3 39 be ba bf 1b bd
       -0.021252884 -0.045911018 -0.18147245 -0.03802464
000080 d4 ca ac bd 1e f5 03 3e 32 d7 05 bd e6 21 04 3e
       -0.08437124 0.12886474 -0.03267593 0.12903556
000090 a0 a3 ed bd c8 bd 02 be d4 8c 9b bd 3f e6 44 bc
       -0.116034746 -0.12767708 -0.0759522 -0.012017786
0000a0 d8 d9 c9 3c 1c 63 48 3c 4c 2f eb bc bb af 35 3d
       0.024640009 0.012230661 -0.028709076 0.044357043
0000b0 ef ed e7 bd 4f 35 82 bd 98 ef 0c 3b 8f 00 76 3c
       -0.11324679 -0.06357824 0.0021505114 0.015014782
0000c0 75 05 de bd 56 08 17 3d 78 7b f6 bd 25 ea 1d 3d
       -0.108408846 0.036873184 -0.120352685 0.038553376
0000d0 1c 1a 66 3d 80 b6 2d bb 2b e7 f0 3c 67 e9 6a 3c
       0.056177244 -0.0026506484 0.029407104 0.014337874
0000e0 57 0d e9 bd 77 f1 dc 3d c2 95 6e 3d 27 08 e2 3d
       -0.113794975 0.10788243 0.05824829 0.11036711
0000f0 b3 10 07 3e 7f db f1 3d 2b f9 21 3e a9 0e 3d bc
       0.13189964 0.11809444 0.15817706 -0.01153914
000100 17 e5 07 3d 55 83 33 3d f2 80 14 3e cd 20 8d 3d
       0.03317746 0.04382642 0.14502314 0.06891022
000110 73 42 77 3d 89 35 96 bc 8b 0e 1a be bf 56 33 be
       0.060366105 -0.018336074 -0.1504461 -0.1751356
000120 0f e7 6b 3d 6a 6b 9a bd bc d8 67 bd e4 5a c3 bd
       0.0575934 -0.07540019 -0.05660318 -0.095388204
000130 0c 1e ad 3c c3 2f 6f bd 62 ea 22 3e 82 e2 f8 3d
       0.021132492 -0.05839516 0.15909722 0.12152578
000140 63 89 2f 3e 90 ba e0 3d d7 36 d6 3d a8 fb 23 3e
       0.17142253 0.10973084 0.104596786 0.16013968
000150 88 fb 41 3d 56 6a 91 bd b4 51 73 3d 4d e4 42 3d
       0.04735902 -0.0710036 0.05940409 0.047581006
000160 97 92 80 bc 46 a3 6d bd 10 4b c8 3c 4b 89 ba 3d
       -0.0156949 -0.058017038 0.024449855 0.09108218
000170 d9 d8 db 3d a9 07 1b 3d 18 9d 0c bb fd fd b9 3c
       0.1073472 0.037849102 -0.002145594 0.022704119
000180 c1 36 5d 3d 67 f2 52 3d 67 25 95 3d 25 b1 ab 3c
       0.054007296 0.051500704 0.072825246 0.020958493
000190 72 f7 61 3d b0 1e 2d 3d 59 94 a2 3d 5b f5 05 3b
       0.055167623 0.042265594 0.07938451 0.0020440433
0001a0 ee 17 67 3d d4 86 b2 bc 0f e5 cc bd 47 68 17 3d
       0.056419306 -0.021792807 -0.10004627 0.03696468
0001b0 66 34 20 bd 1f cf e1 3c 5e ba e5 3c c6 70 b8 3c
       -0.03911247 0.027564583 0.028042968 0.022514712
0001c0 fd 90 f1 3b 18 08 f7 bb 21 c4 bc bd 9c e4 9d 3c
       0.0073720203 -0.0075388066 -0.09217096 0.019274049
0001d0 08 a9 b9 bd 6e 2a 2b bd dc 53 71 bd 00 56 6e 3d
       -0.09065443 -0.04178851 -0.058917865 0.058187485
0001e0 8a d9 c6 bc ce 0f b6 bd b3 49 23 3d 34 03 72 bd
       -0.024273653 -0.08889733 0.039865207 -0.059085086
0001f0 b6 45 c4 bc 44 ed c1 3d dc f8 d4 3b 15 96 40 bb
       -0.023959022 0.09469083 0.006499393 -0.002938633
000200 54 f0 44 3d 13 62 6c bd bf c2 28 3d 41 19 b6 bc
       0.048080757 -0.05771072 0.04120135 -0.022228839
000210 6e 8c d8 bd 57 00 38 bd 24 c6 b1 3d 14 cb e8 bc
       -0.1057366 -0.0449222 0.086803705 -0.028417148
000220 40 cb 8d bc cd d3 c5 bc dc bf 1b 3d 55 fb 5b 3d
       -0.017308831 -0.024148846 0.03802477 0.053706486
000230 23 92 82 3d 9c b9 a6 bd 4c ff 1f bd 42 ba 85 bd
       0.063755296 -0.08140871 -0.03906183 -0.065296665
000240 30 f2 82 bd 71 37 1f 3d b4 8b e2 3d 19 18 80 3d
       -0.0639385 0.038871232 0.110618025 0.06254596
000250 bb 1a b5 bd d9 ce 07 be da eb 82 bd 1b 30 d6 3c
       -0.08842989 -0.132625 -0.06392641 0.026145985
000260 df b0 0b 3e 80 e7 50 bd e4 78 f7 bb 06 23 55 bd
       0.1364169 -0.051002026 -0.007552253 -0.052035354
000270 8f 8c 4c 3d 54 d6 41 bc 1d 91 1a bc 2a fb 79 3d
       0.049938735 -0.011830885 -0.009434012 0.061030544
000280 c7 56 d1 bd 2e 58 65 bb 23 0d 07 bd 37 33 50 3d
       -0.102216296 -0.0034995186 -0.032971513 0.050830092
000290 c1 70 81 bd 6b 62 27 be 6c 67 39 3d f2 ad 1e 3d
       -0.06320334 -0.16346137 0.045264646 0.038740106
0002a0 61 33 29 3d 7e 1d b8 bd 41 f1 22 3d 98 d1 9b bd
       0.041308764 -0.0899 0.03978086 -0.07608336
0002b0 df bc 88 3d b3 7d fb bc be 72 56 bd 02 ea 62 bd
       0.06676649 -0.030699586 -0.05235552 -0.05539895
0002c0 0f b9 3d 3d 61 ac 83 bd b7 c8 b5 bc 6c 6e cd bd
       0.046319064 -0.06429363 -0.022190435 -0.10030827
0002d0 8b 0c e9 3c 84 1b df bb 97 ae 11 bd 60 3d ed 3d
       0.028448364 -0.0068087 -0.035566892 0.11583972
0002e0 52 bf 7e bd 26 f7 0d 3d 50 c9 b3 bd f1 e7 df bc
       -0.062194176 0.034659527 -0.08778632 -0.027332278
0002f0 59 06 47 3d cf 08 a2 3d 71 d4 86 3d f0 3e 26 bd
       0.048590038 0.07911836 0.06583489 -0.040587366
000300 63 f0 a1 bc bd 6f 99 3d 64 96 57 3c 28 bc d7 bd
       -0.019767946 0.074920155 0.0131584145 -0.10533935
000310 b0 86 3f ba ec c6 85 bd 1d d1 cb 3d 67 de b0 bd
       -0.0007306142 -0.06532082 0.099519946 -0.0863617
000320 42 53 26 3c 08 1e 1a be 64 d4 14 3d 8f 0a d5 bd
       0.010151686 -0.15050519 0.036335364 -0.104024045
000330 cb 4e ef bb cc 9e a0 bb af 36 e1 bd 07 df 1b bc
       -0.007303094 -0.0049017426 -0.10996758 -0.009513623
000340 9f 5c a9 3d f8 22 97 ba 18 46 c4 bd 57 49 ad bd
       0.08269619 -0.0011530807 -0.09583682 -0.08461254
000350 f2 78 1f 3d 3e a7 fe bd 35 04 8b bd 37 b7 40 3d
       0.0389337 -0.12434243 -0.06787912 0.047049727
000360 2a 13 78 bd fa ab 24 3d 97 0b 4d 3d 4b fb 4e bc
       -0.06056515 0.040203072 0.05005988 -0.012633155
000370 36 6a 4c ba 8e 09 2f bc 81 1d 1e be f7 e8 2d 3c
       -0.0007797809 -0.01068343 -0.15440942 0.010614625
000380 ea aa 83 bd 0e 4b e0 3d c7 2e b1 3d 60 67 14 3e
       -0.06429084 0.109518155 0.086515 0.1449256
000390 6f dc 37 be 47 a0 05 bd 70 c3 14 3d e8 89 57 bb
       -0.17955182 -0.032623556 0.036319196 -0.0032888595
0003a0 9a 18 25 3d 19 3e da bc 06 d6 c3 bc 72 22 69 3b
       0.040306665 -0.026640939 -0.023905765 0.003557351
0003b0 24 61 11 3d d0 c6 25 bd df 5f 1d 3d 68 06 f7 bd
       0.03549303 -0.040472806 0.038421508 -0.12061769
0003c0 84 59 80 bc 90 ec 5e bd 97 f8 f2 bd 86 d8 f5 bc
       -0.015667684 -0.054424822 -0.11863821 -0.030010473
0003d0 73 c4 0a bd 23 34 ac 3d bb 00 9d bd 97 4c ea 3c
       -0.033878755 0.08408382 -0.07666155 0.028600974
0003e0 7a 58 ca bd 58 4b 7c 3d ff 06 c9 3d 47 ac bb 3c
       -0.09880157 0.06159529 0.098157875 0.022909297
0003f0 1e 52 d4 3d f8 92 e0 3d ca c5 e3 3d 76 de 59 3c
       0.10367225 0.10965532 0.1112171 0.013297668

net.4.module.0.bias f4 [32]
000000 2a ad 23 bd 07 59 37 3c 88 d8 a8 bd 32 cd 7a bc
       -0.039960064 0.011190659 -0.08244425 -0.015307711
000010 02 a6 1a bd d2 cc 45 3d 42 05 9d bc 5b 04 7e 3d
       -0.037755974 0.048291035 -0.019167546 0.062015872
000020 49 68 d8 bb 20 a7 8a 3d b5 36 60 bd 13 87 8f 3d
       -0.0066042286 0.06770158 -0.054739673 0.07008185
000030 fa 7d 0c 3e 4e 8c 18 3d e5 ef 50 bc 81 c1 73 3d
       0.13719931 0.03724318 -0.012752508 0.05951071
000040 c5 1d c9 3c 80 0a 30 bd 7f 37 d1 3d b4 77 b4 3d
       0.024550328 -0.042978764 0.10215663 0.08811894
000050 4b 48 1c bb d4 24 9d bd 32 36 de bb 1d a8 e8 3c
       -0.00238468 -0.0767304 -0.006781363 0.028400475
000060 6a c2 2b 3d ad 07 ae 3d 66 8b 02 3c 86 07 dc 3c
       0.041933455 0.08497558 0.0079678055 0.026859056
000070 c3 bf 62 3d f1 07 9e bd e6 2b 79 bd e5 9c ce bc
       0.05535866 -0.077163585 -0.06083288 -0.025221298

net.5.weight f4 [32, 32, 3]
000000 09 df e1 3d a6 57 00 3d 67 e2 c0 3c 62 10 ad bd
       0.11028869 0.031333588 0.023545457 -0.084503904
000010 e4 c2 5d bd ae dd 65 3d 51 64 9a 3c 0f b4 56 3d
       -0.05414094 0.056119613 0.018846663 0.05241781
000020 99 f0 b1 bd 7d 56 b5 3c 19 7b 02 bb 14 49 90 3b
       -0.086884685 0.022135967 -0.0019909798 0.004403243
000030 ea f0 1a bd c7 45 68 bd 63 ca 0e 3d f9 23 91 3d
       -0.03782741 -0.05670717 0.03486098 0.07086939
000040 2e 9f 9b 3d 0a 82 95 bb 19 8f 44 bd d7 ff 02 3e
       0.075987205 -0.004562621 -0.04798803 0.12792908
000050 78 fc 1d 3d 11 f0 a9 bd 50 07 76 3d af 8b 99 bd
       0.03857085 -0.08297742 0.060065567 -0.07497346
000060 72 41 84 bd e4 01 89 bd 70 6e e1 bc fe 88 19 bd
       -0.06457795 -0.06689814 -0.027518481 -0.03748416
000070 df fb 5e bd 5d b5 9a 3d 33 eb 61 bd 97 16 d5 bd
       -0.05443942 0.075541236 -0.055155944 -0.10404699
000080 8e d5 5a 3d 73 6e 60 bd e9 36 f4 3a c7 4e 8f bc
       0.053426318 -0.054792833 0.0018632087 -0.017493619
000090 cb 6f 7e 3d b7 e8 a2 bd 44 3c 17 bd d9 0c f4 3d
       0.062118333 -0.07954543 -0.03692271 0.11916513
0000a0 1d 2f db bc 6d 81 02 bc 19 d3 e9 bc 5e c5 45 3d
       -0.026755864 -0.007965428 -0.028543042 0.048283927
0000b0 30 f5 86 3c d9 f7 92 3d 6d dc 11 bd d5 7d 10 3d
       0.016474336 0.071761794 -0.035610605 0.035276253
0000c0 e0 f8 52 bb e6 23 e4 3d 41 52 23 bd 7a 37 f1 bc
       -0.0032191798 0.111396596 -0.039873365 -0.029445399
0000d0 59 74 b0 3c f6 cb b5 3d 38 38 94 bc fd da 9d bd
       0.021539854 0.08876793 -0.018093213 -0.07707784
0000e0 a0 4d 91 3d b6 8a 97 bd 12 78 bb 3d ef 97 cf ba
       0.07094884 -0.07399504 0.09153761 -0.0015838126
0000f0 02 56 df 3c 5d da a2 bc 35 6f ad 3c f6 28 2f 3d
       0.027262691 -0.019879514 0.021171192 0.042763673
000100 60 29 12 3c 47 9c e0 bb fb 16 4e 3c 64 0e da bd
       0.008920997 -0.006854567 0.012578721 -0.10647276
000110 ae 2a 5d bd 4d 47 24 bd d1 f4 0a 3d 0d ba 0c 3d
       -0.05399578 -0.04010706 0.03392488 0.03435712
000120 48 47 e3 3d 26 ff b9 3c 7f 3f 35 bd da b7 ef bc
       0.1109758 0.022704672 -0.044250008 -0.029262472
000130 03 d0 df bc a9 39 d9 bc 7b 3b 8c 3d 2c 9f 8e bd
       -0.027320867 -0.026516752 0.068472825 -0.069639534
000140 4b 27 29 bd 65 9f 35 bd 6d c7 b3 3d 1e 3d 95 3d
       -0.04129724 -0.044341464 0.08778272 0.07287048
000150 ab 21 4d bd 67 7d bc 3d 01 09 9a bd 36 99 84 bd
       -0.050080936 0.09203606 -0.075212486 -0.06474535
000160 9d 3d b8 3c 85 bb 6e bd 5b 09 24 3d 0b 76 4b 3d
       0.022490317 -0.0582843 0.040047985 0.04967312
000170 2b 1b 19 bd 90 eb 83 3c 94 dd 66 3b 6d 33 0f 3d
       -0.037379425 0.016103536 0.0035227286 0.034961153
000180 15 57 5c 3c a8 a9 89 3d 21 53 84 3d c8 4b f0 bd
       0.013448496 0.067218125 0.06461168 -0.11733204
000190 ed 4e 88 bd b6 ee 0b bd bb 95 eb bd da fc 93 3d
       -0.06655679 -0.0341632 -0.11503168 0.07225962
0001a0 b3 88 77 3d 6e 12 9d bd 6f 23 cc bd 07 58 c0 3d
       0.0604331 -0.07669531 -0.09967696 0.0939179
0001b0 88 2a 80 3d fc 3e a8 3b 71 46 59 3d 07 fd 86 bd
       0.06258112 0.0051344614 0.053045694 -0.0659123
0001c0 90 c4 ee bd 4c ae 1e bd 78 92 0c 3d 46 6f f4 3d
       -0.11658585 -0.03874044 0.03431937 0.11935286
0001d0 f8 1f af 3c 8a 72 79 3d 59 c2 8a 3b 50 fe fc 3c
       0.021377549 0.06090025 0.004234594 0.030882984
0001e0 1e 1d a9 bd 05 d1 21 3c a0 e8 1d 3c 0b 51 67 3d
       -0.08257507 0.009876494 0.009637982 0.056473773
0001f0 e9 7d 76 3d 01 f8 e5 bc e0 63 a6 bc 1a 6c 77 3c
       0.06017867 -0.028072359 -0.020311296 0.015101457
000200 d3 f8 9c bd 3d 8e 02 3e c7 70 aa 3d ee 31 8a 3d
       -0.07664647 0.12749572 0.08322292 0.067478046
000210 ad 02 ae 3d 1e c8 e8 bd b7 89 8c bd c0 10 0d 3d
       0.08496604 -0.11366294 -0.068622045 0.034439802
000220 ba 16 6d 3c 45 85 24 3d 63 ca db 3b 0d 9d d1 3d
       0.0144707505 0.04016616 0.006707476 0.10235033
000230 73 6a 61 bd 8d ad 61 bd 19 37 d3 bd e9 40 33 bd
       -0.05503316 -0.05509715 -0.103132434 -0.043763075
000240 f9 12 a5 3d ab 5e 9a 3d 2f 81 a7 bd a7 fb ad bc
       0.08060259 0.07537588 -0.08178937 -0.021238161
000250 b6 a0 7b 3d d9 fa d1 bd e5 62 ae bd 8c f2 88 bd
       0.061432563 -0.102529235 -0.085149564 -0.06686887
000260 5b 82 75 3c a0 1e 7f 3d 5e 9b 9b 3d fd 5d d5 bd
       0.014984692 0.062285066 0.07597993 -0.104183175
000270 9a b7 92 bd e2 9f 7b 3c 79 cb b6 3d 89 b9 f0 bd
       -0.071639255 0.015357943 0.08925528 -0.11754138
000280 be d9 ab 3d 7f 7f 82 3d f3 5f d5 bc c2 d6 42 3d
       0.083911404 0.06371974 -0.026046729 0.04756809
000290 6c c8 1e bd 7f 2b 56 3d e2 e5 5b bd 1e 36 36 bd
       -0.038765356 0.052287575 -0.05368603 -0.044485204
0002a0 b9 2d 08 3d 6e 27 41 3d 41 9f 92 3c ad d9 bc bc
       0.03324673 0.047156744 0.017898204 -0.023053015
0002b0 19 1b a1 bc 66 31 6a 3d e7 95 87 bd c9 e5 b8 bd
       -0.019666241 0.057176016 -0.066203885 -0.09028203
0002c0 20 a5 0c bc 51 84 e0 3d dd 09 54 3c 89 54 f6 3d
       -0.008584291 0.10962737 0.012941805 0.120278426
0002d0 a2 a9 4c 3d a6 fe 9b 3c e5 8a 86 bd 41 6e 86 3d
       0.049966462 0.019042324 -0.06569461 0.06563998
0002e0 06 9a 2c 3d 58 04 73 3d e1 af 4e bd 0f 89 78 3b
       0.042139076 0.059330314 -0.0504607 0.003792349
0002f0 f9 3c 73 3d 43 8e c2 3c d9 95 a1 bd 0f e1 a2 3d
       0.05938432 0.023749476 -0.07889909 0.07953083
000300 f1 13 30 3d a7 ef b3 3d da 8d a3 3d 23 7e a0 bd
       0.042987768 0.087859444 0.079860404 -0.07836559
000310 77 f2 08 bd 5a bf f8 bd 37 e8 de 3d a4 da a5 3b
       -0.033434357 -0.121458724 0.10884135 0.0050614644
000320 a6 c0 35 3d af 01 43 bd 72 1a 94 bc d7 f6 af 3d
       0.044373177 -0.047609027 -0.018079016 0.08592003
000330 f6 0e f1 bd c0 7d d1 3d 92 bb 1c bd 5c d8 a2 bd
       -0.11770432 0.10229063 -0.03826482 -0.079514235
000340 47 82 a2 3d 29 81 93 bd 33 0f 6a bd 8c 22 38 bd
       0.07935005 -0.0720237 -0.0571434 -0.04495482
000350 1d f7 a8 3d 38 f3 96 bd af 94 68 bb 1a 11 66 bd
       0.08250258 -0.07370609 -0.0035489013 -0.056168653
000360 f0 88 c3 3c f3 01 db 3d 3f 8d 8e bd 09 ff 45 3d
       0.023869008 0.10693731 -0.06960534 0.048338924
000370 1b 21 34 3d 8f 22 71 3b 99 0d e0 3c 83 db 45 3c
       0.043976884 0.003679428 0.027350234 0.012076261
000380 ec e9 a9 bd 2d d0 18 3e 77 13 6d 3d ee ab 36 3d
       -0.0829657 0.14923163 0.05787989 0.04459756
000390 e7 c5 c2 bb 1c ce 9b 3d 6f 41 ec bd c2 59 f5 bc
       -0.005944002 0.076076716 -0.11535918 -0.029950026
0003a0 61 7f 8d bd 7f da 7c bc 77 9d 8d 3d f5 4f 5c bd
       -0.06909061 -0.015432953 0.069148 -0.05378719
0003b0 88 19 4b 37 fa aa a0 3d 14 08 26 bd 73 02 7a 3c
       1.2105687e-05 0.07845111 -0.040535048 0.015259373
0003c0 d2 d0 01 bd ea 3d f0 bc 74 66 d6 bd 3d d7 a1 3d
       -0.031693287 -0.029326398 -0.1046876 0.079023816
0003d0 38 dc bd 3d 42 29 80 bb 03 92 4b 3d 2f 72 28 bc
       0.09270519 -0.0039111683 0.049699795 -0.01028113
0003e0 4e fa 90 bd 81 0c 67 3c 7c 14 ba 3a a4 5c ae 3d
       -0.07078992 0.014102102 0.0014196779 0.085137635
0003f0 57 fc 64 3c 5f 43 88 3b 15 3f ad 3d 23 45 24 bd
       0.013976178 0.004158422 0.084592976 -0.040104996

net.5.bias f4 [32]
000000 7c c1 40 bd 11 71 34 bd 82 7a a3 bd d5 6c 9f 3d
       -0.04705952 -0.04405314 -0.07982351 0.0778443
000010 36 0c 93 bd 9b 65 c7 bd 08 d1 07 3d 91 54 54 3d
       -0.071800634 -0.097361766 0.033158332 0.05183846
000020 80 05 b4 bd 24 13 73 3d 25 17 12 bd a1 17 a9 bd
       -0.087901115 0.059344426 -0.035666604 -0.0825646
000030 fb 0d 10 bd 62 4c bb 3d 37 8e b3 ba 95 d2 b9 3d
       -0.035169583 0.09145428 -0.0013699 0.090733685
000040 b0 b6 cb bd 33 82 03 3d 71 fe 24 3d 49 d4 85 3d
       -0.09946954 0.03210659 0.040281717 0.06534631
000050 6c ea 9f 3c 1a fe 6a 3c f4 8e c1 3d 67 04 d8 3c
       0.01952096 0.014342809 0.09451094 0.026369287
000060 07 c4 9d bd b6 a1 c5 3d 7a 6d b8 3d 9e 80 77 3d
       -0.07703405 0.096499845 0.09005256 0.060425393
000070 a9 9a dd 3d 1b 33 4a 3b 43 37 59 3d dc 9f 82 3d
       0.10820515 0.0030853215 0.053031217 0.06378147

exp_avg f4 [32, 403, 2]
000000 9b 9d 71 b9 d4 cc 6d b9 2d 92 00 b9 53 58 99 39
       -0.00023042264 -0.00022678386 -0.00012261486 0.0002924824
000010 5e 31 96 38 44 e6 38 b9 a3 8f 2c 3b 47 bd 4e 3b
       7.161753e-05 -0.00017633388 0.0026330731 0.0031545924
000020 2e 9c 94 37 86 06 8c 38 e1 18 a4 ba 1d 40 7c 3a
       1.7715702e-05 6.676935e-05 -0.0012519622 0.0009622591
000030 0c 52 ad 3a a1 d9 b0 3a 82 9f 7a 3a 53 46 81 3a
       0.0013223304 0.0013492593 0.00095605117 0.0009862877
000040 8a e1 2f b8 12 88 3c b9 02 16 ec b8 cf f6 94 b8
       -4.19333e-05 -0.00017979767 -0.00011257456 -7.1031616e-05
000050 a4 24 12 3a 2b 77 8a 3a 19 e2 01 37 d8 7d 02 35
       0.0005574918 0.0010564079 7.741642e-06 4.86119e-07
000060 a2 10 35 39 7c 9d 6e 38 a2 09 b2 39 ad 89 bd 38
       0.00017267701 5.689029e-05 0.00033957983 9.0378664e-05
000070 2f ba 1e 3b eb c1 ed 3a 6a 77 1a 3a 35 93 19 3b
       0.002421986 0.0018139457 0.0005892428 0.002343369
000080 8e 42 b9 b9 13 b0 b6 38 35 bc 12 37 20 40 e8 b7
       -0.00035335537 8.711233e-05 8.7460985e-06 -2.7686416e-05
000090 6e fe fa 38 3a 53 f7 38 17 1b 8f 3a 3a b1 ad 3a
       0.0001196832 0.0001179338 0.0010918108 0.001325167
0000a0 7b f5 a5 39 37 f1 b8 b9 3a 85 1f 3a 6a 03 35 3a
       0.0003165415 -0.00035274934 0.0006085221 0.0006905111
0000b0 50 6e c0 3a 28 04 87 3a 94 a6 85 3a 84 92 5b 3a
       0.0014681313 0.0010300921 0.0010196739 0.00083760195
0000c0 00 97 07 b4 ae 1b b8 38 21 ff 08 b8 68 23 33 b7
       -1.2627788e-07 8.7789595e-05 -3.2662534e-05 -1.0677475e-05
0000d0 33 c6 07 39 a8 e8 4d b8 db e6 bf 38 cf 21 00 b9
       0.00012948438 -4.9092487e-05 9.15059e-05 -0.00012219626
0000e0 92 99 39 3a c8 f9 b1 3a e6 74 21 3a 5b f6 eb 3a
       0.00070800737 0.0013578469 0.0006159082 0.0018002497
0000f0 8e f0 74 38 c4 8d 28 39 60 72 75 35 96 fe 95 32
       5.8398167e-05 0.0001607454 9.143605e-07 1.7461655e-08
000100 d2 82 09 3a 8a ec ae 39 0f 4e a1 39 c0 e1 85 b6
       0.0005245629 0.00033364102 0.0003076647 -3.9899896e-06
000110 e4 4c 91 38 02 36 ff 38 b8 6a 0b 3b 6c d9 91 3b
       6.928461e-05 0.00012169407 0.0021273326 0.0044509675
000120 64 57 80 3a aa 4f 2a 3a c6 34 c9 38 14 ab d0 b6
       0.000979167 0.0006496856 9.594257e-05 -6.218799e-06
000130 dd bd 2b 3b d0 8e 74 3b 93 c0 3e 38 92 06 63 38
       0.0026205697 0.0037316568 4.547888e-05 5.4127137e-05
000140 65 ad 63 3a 6e 73 7e 3a 4b 19 dc 39 3a f6 9a b7
       0.00086852006 0.00097065314 0.00041980515 -1.8472889e-05
000150 b0 07 26 3a f8 5c 03 3a 1c 76 04 38 e6 cf 36 38
       0.0006333543 0.0005011107 3.158125e-05 4.3585802e-05
000160 86 3c 98 39 1a dc 6b 38 68 e9 79 b8 75 e3 e0 39
       0.00029036793 5.623335e-05 -5.9583603e-05 0.00042894078
000170 97 8f b9 3a 92 4c 12 3b 0a 30 ff 3a b0 0e ff 39
       0.0014157173 0.0022323471 0.0019469273 0.00048648333
000180 82 7c c9 b7 90 92 8c 37 d4 70 1f 39 8d 22 5c 39
       -2.4019046e-05 1.6757549e-05 0.00015205453 0.00020993706
000190 4f d0 44 3a 1c af 09 3a b2 e8 52 3a b5 05 b8 b9
       0.0007507847 0.00052522286 0.00080455386 -0.00035099467
0001a0 c0 75 fd 38 67 dc de 37 a8 c5 bf b5 6f 9b 07 37
       0.00012085913 2.6567095e-05 -1.4288134e-06 8.082817e-06
0001b0 4e 8f 59 38 c6 e2 ca b7 e1 96 78 3a 42 ea 2b 3a
       5.1870295e-05 -2.4185876e-05 0.0009482932 0.00065580395
0001c0 38 85 e9 38 8e d2 9f 38 b7 2c a8 3a 24 46 f0 3a
       0.0001113512 7.62093e-05 0.0012830709 0.001833145
0001d0 1f a6 33 3b f3 50 01 3b e5 dc 65 b9 ca f0 81 b8
       0.0027412248 0.0019732087 -0.00021921431 -6.19605e-05
0001e0 4c d5 b7 3a 44 bb ae 3a 1e 8a 11 b9 58 2f 26 b9
       0.0014025359 0.0013330956 -0.0001387973 -0.0001584863
0001f0 b9 36 07 3b 1c 84 dd b9 bd f0 4e ba 75 c8 06 ba
       0.0020631982 -0.00042250834 -0.0007894149 -0.0005141565
000200 cc b1 97 3a 0a 42 c0 3a 06 29 97 b9 4b 7c c4 3a
       0.0011573373 0.0014668119 -0.0002883153 0.0014990655
000210 6a d1 4b 39 0b ff 79 39 c9 d6 33 3b dc 84 22 3b
       0.00019437601 0.00023841501 0.0027441254 0.0024798429
000220 cc 56 be b9 25 88 8d 39 ca 75 80 b9 55 d0 ba b9
       -0.00036304293 0.0002699505 -0.00024501822 -0.00035631904
000230 f1 84 06 38 3c f9 c2 38 d0 f7 50 3a b7 40 47 b9
       3.20719e-05 9.2970644e-05 0.0007971497 -0.00019002227
000240 42 67 20 3a a5 53 d1 b8 c4 b0 6f b9 b4 52 96 b8
       0.0006118902 -9.9814766e-05 -0.00022858666 -7.167962e-05
000250 da 19 87 3a f0 26 90 3a 06 44 8c 39 ae c6 2c 39
       0.0010307387 0.0010997932 0.00026753562 0.00016477212
000260 b8 f9 e9 38 f8 60 09 3a e4 0d 25 39 4e d5 02 39
       0.000111568195 0.0005240585 0.00015740801 0.00012477228
000270 bc 57 0c 37 97 c0 db b7 60 00 60 3a c8 1b ac 39
       8.3650775e-06 -2.6196516e-05 0.0008544978 0.00032827095
000280 58 fb 45 39 60 4f 36 39 fb 3d 16 b7 ed ee b6 b6
       0.00018881017 0.00017386442 -8.955128e-06 -5.4518373e-06
000290 b1 65 a3 b7 8d 22 01 37 30 33 9b 39 5d 2d 40 3a
       -1.9478468e-05 7.697044e-06 0.00029602041 0.00073309784
0002a0 b3 a1 84 3b 5d c8 51 3b 7f 90 04 3a db e2 bc 39
       0.0040475964 0.0032010295 0.0005056932 0.00036027175
0002b0 c4 b0 91 38 78 f3 c5 38 87 fc 85 b8 c5 ed 45 38
       6.947064e-05 9.4390416e-05 -6.388971e-05 4.71899e-05
0002c0 98 df 79 37 98 d2 30 38 04 62 be 37 32 54 37 37
       1.4893616e-05 4.21578e-05 2.2695407e-05 1.0927253e-05
0002d0 09 61 1d 3a 79 42 c2 3a 02 a8 f7 b9 65 9c c8 38
       0.0006003534 0.0014820836 -0.00047236687 9.565874e-05
0002e0 de 4d 1a 39 22 d6 4c b8 84 20 36 36 8a 33 b7 36
       0.00014715592 -4.8836817e-05 2.713904e-06 5.459825e-06
0002f0 36 be df 3a 1c 06 9e 3a ee 5c 66 3a 5b 83 99 3a
       0.0017070237 0.0012056264 0.00087876513 0.0011712121
000300 8f 6e 50 3b 7c f7 55 3b ba 2c 1d 3b 62 d3 00 3b
       0.003180418 0.0032648733 0.0023982958 0.0019657244
000310 15 16 e6 3a 0a 18 0e 3b ac 0d 1d 3b c0 51 83 3a
       0.0017554188 0.002168181 0.0023964448 0.001001887
000320 ac af 3f 3a 0f f2 91 b9 76 47 c8 3a 3a 64 c3 3a
       0.0007312249 -0.00027836903 0.0015280086 0.0014907189
000330 75 9c f6 b8 00 c4 16 36 32 25 99 39 0f 91 54 b8
       -0.000117593365 2.2465829e-06 0.00029210147 -5.0679835e-05
000340 dc 20 9a b8 3f 6e 65 39 76 b1 67 39 e8 37 0c 3a
       -7.349413e-05 0.00021880212 0.00022095986 0.0005348907
000350 7c ee 04 39 24 54 7d b8 3e 12 ad 39 1e 38 ea 3a
       0.00012677343 -6.0398263e-05 0.00033010723 0.0017869507
000360 1d d9 2b 39 a2 26 f2 b8 b4 9e 38 b8 17 47 4d b9
       0.00016388712 -0.00011546655 -4.4016822e-05 -0.00019576807
000370 44 85 4d 39 b7 8a 29 b9 ab bb 69 3b 4a cb 6d 3b
       0.00019599969 -0.00016168771 0.0035664837 0.00362845
000380 4c 08 b0 b7 0e 07 6b b7 57 c5 c9 3a 4e 38 86 3a
       -2.0984698e-05 -1.4008734e-05 0.0015393895 0.0010240169
000390 de 23 83 3a 88 67 76 3a c2 90 3e 3a 02 21 bc 39
       0.0010005196 0.00093995826 0.00072694954 0.00035882747
0003a0 03 c3 72 39 2c 84 75 38 ae 38 6e b8 6f d2 e4 39
       0.00023151566 5.8535647e-05 -5.679641e-05 0.00043644334
0003b0 d5 0c c8 39 e9 79 63 3a 84 ca 8c 3a 65 f7 00 3a
       0.00038156533 0.0008677529 0.0010741507 0.0004919677
0003c0 19 6b 43 3a af a9 e0 3a a1 af ff 3a 2e 74 80 3b
       0.00074546185 0.0017140413 0.0019507298 0.0039200997
0003d0 7c bc 8b 3a 9c 2e 1f 3a aa 30 e6 3a b2 57 bb 3a
       0.0010661031 0.0006072314 0.001756211 0.0014293103
0003e0 6f 54 1e 3a 6f 9e 89 3a 7c 0d 36 3a 01 cc b0 b8
       0.0006039803 0.0010499487 0.00069447584 -8.430333e-05
0003f0 dd fd dd 39 68 9d 92 39 46 60 ae 39 a3 5d 3d 3a
       0.00042341548 0.00027964567 0.00033259596 0.0007223731
