cebra_models/necab1/01/B/cebra_trialID_SucessFailure_model_5000_32_B.pt (torch, 639535 bytes, 31 tensors)

net.0.weight f4 [32, 403, 2]
000000 99 89 79 bd 3d f7 b6 bd fe b9 09 3c 1b 4e 00 3b
       -0.06092224 -0.08933876 0.00840616 0.0019577804
000010 47 c9 10 3c d8 1c 60 bb c4 40 7b bd 13 70 e2 bc
       0.008837051 -0.003419688 -0.061341062 -0.027641332
000020 52 bc 40 3d 5e 4c 6e 3d c1 7d c5 bc 7c d2 a8 bc
       0.047054596 0.0581783 -0.024107816 -0.02060818
000030 ee e5 66 ba 72 55 70 3b 5a 58 dd bc 21 e8 af bb
       -0.0008808066 0.0036672023 -0.027019668 -0.005368248
000040 46 69 c5 bc fc 32 47 bb fd df 65 3c 39 fa 06 3d
       -0.02409805 -0.003039538 0.014030454 0.032953475
000050 f0 41 a5 bc 30 77 e2 bc 10 77 dd ba 1d fd 29 3b
       -0.020173043 -0.027644724 -0.0016896445 0.002593822
000060 8c 54 73 3d 84 1d 29 3c df 5d 4d bd b9 fe fa bc
       0.059406802 0.0103219785 -0.05013835 -0.03063904
000070 b0 83 85 bd b0 a9 11 bd 30 9f 60 bd 9f 0e 5c bd
       -0.06519258 -0.035562217 -0.054839313 -0.05372488
000080 61 24 34 3d ec cc 72 bc 39 bc c2 3c 24 b7 a8 bb
       0.043980006 -0.014819365 0.023771392 -0.005148785
000090 b9 13 83 bc dc b6 7d bc 3f 7f 30 bd b7 6e 0e 3c
       -0.016000615 -0.015485492 -0.0430901 0.008693389
0000a0 a6 87 35 3b 15 fd 73 bd 42 03 6f bc aa 4c ae bd
       0.002769926 -0.05956753 -0.014588179 -0.08510716
0000b0 ad 19 c1 bc db 27 23 bd 07 a5 59 bc b4 8f 82 bd
       -0.023571813 -0.03983293 -0.0132839745 -0.063750654
0000c0 78 5c 81 bd 66 b8 ba bc 09 1c ae bd 42 35 80 bd
       -0.06316465 -0.022793006 -0.08501441 -0.06260158
0000d0 0a 45 9d bc 6b 50 5b bd 98 6d 90 3c 25 2e 48 bb
       -0.01919796 -0.05354349 0.017630383 -0.0030545082
0000e0 12 e2 17 3d 63 0b 0f 3c 9e c2 d7 3c 03 c3 05 3d
       0.03708083 0.008730742 0.026337918 0.03265668
0000f0 67 da f7 3c e9 62 59 bd 45 ba 0e bc c6 e2 2c bb
       0.03025551 -0.053072844 -0.008711402 -0.0026380285
000100 f7 bc ff 3c 0c be eb ba c7 a0 46 3d fd 18 5f ba
       0.031218035 -0.0017985716 0.048493173 -0.00085104984
000110 81 27 23 3d 2f 4f 02 3d 2b d0 cc 3b e9 6a 49 3d
       0.039832596 0.031813797 0.0062504015 0.049174223
000120 45 8d bd bc a7 85 93 bd 2e d7 8e 3d 73 e0 2c bd
       -0.023138652 -0.072032265 0.06974636 -0.04220624
000130 18 d2 ea bc 1b 18 74 bb 70 d1 4b bd ad f1 06 bd
       -0.028664634 -0.0037245813 -0.049760282 -0.032945324
000140 95 0c 53 bc df db 12 bd 25 1e 39 bc 7b 62 7c bd
       -0.012881418 -0.035854217 -0.011298691 -0.061617356
000150 e0 59 a1 bc f2 27 aa bb 41 aa 46 bd ff 42 f9 3b
       -0.019696176 -0.00519275 -0.04850221 0.0076068635
000160 62 3a b0 3c 36 83 c7 bc 19 18 37 bd 2e 27 0a 3d
       0.021512214 -0.024354558 -0.044700716 0.03372877
000170 9f 05 9c bb 16 92 81 bc ed 44 2a bd 4d cc 24 bd
       -0.0047614123 -0.01581673 -0.04156964 -0.0402339
000180 3d be f4 bc 7c 59 16 bd 55 3a 36 3d 78 c2 79 3c
       -0.029875869 -0.036706433 0.044489224 0.015244119
000190 35 71 2c 3d c7 7d f4 3c 82 58 67 3c ff 0e 3e bb
       0.04210015 0.029845132 0.014120223 -0.0029000638
0001a0 84 b5 2f bd 84 d2 36 bd 6b a7 54 bd c1 1b 9f bc
       -0.042897716 -0.044634357 -0.051917475 -0.019422414
0001b0 19 05 b4 3c c7 6d 41 ba 2f fe 6e bc 08 8e 4b bc
       0.021975087 -0.0007378724 -0.014586969 -0.012424
0001c0 95 5b 39 3d 75 a7 b6 3c 66 d3 90 3c d4 a0 8b 3c
       0.045253355 0.022296647 0.017678928 0.017044462
0001d0 61 b4 ef 3c d2 d8 47 3c f0 33 a2 3c 50 77 2a 3c
       0.029260816 0.01219769 0.019800156 0.010404423
0001e0 01 3d e1 bc df 21 8e 3c 99 db c1 3c 57 77 bf bb
       -0.02749491 0.017350135 0.023664283 -0.005843084
0001f0 d6 1a 8c 3b 07 92 6d bc 4c 73 a3 3c 43 2a 70 3c
       0.00427566 -0.014500148 0.019952439 0.0146585135
000200 f5 46 62 bd 69 ed e8 bc 16 52 14 bc 41 4c bb bc
       -0.05524345 -0.028433518 -0.009052774 -0.02286351
000210 5f 96 56 3c 85 84 c9 3b 2c f2 cb bb b3 2a 3c 3b
       0.013097375 0.0061498308 -0.0062239375 0.0028711974
000220 ce 89 d3 bc 98 66 07 3d 5e a5 41 bd e4 41 34 bd
       -0.025822546 0.033056825 -0.047276847 -0.04400815
000230 c9 07 5a bd 50 6d 57 bc 78 d5 d3 3c 2b d5 76 3c
       -0.05323008 -0.013148621 0.025858626 0.015065472
000240 5d 2f fd bc f0 64 2e bd b3 76 31 3d 87 bc 21 bc
       -0.030906374 -0.04257673 0.04332609 -0.009871609
000250 99 f9 c9 3c 22 46 25 3c 68 6e 5d bd 28 4a 9a bd
       0.02465515 0.010087522 -0.05406037 -0.075336754
000260 08 f4 41 bd 18 bc cc bb 21 1b dc bc 14 9f 8f bd
       -0.047351867 -0.0062480085 -0.026868405 -0.070127636
000270 61 b7 ba 3c 5c 94 14 3b 04 89 27 3d 10 1b 12 3c
       0.02279252 0.0022671437 0.040902153 0.008917585
000280 b5 6e cb bc 5a 34 08 bd f4 07 9b bd 30 8e 81 bd
       -0.024833063 -0.03325305 -0.07569876 -0.06325948
000290 1f f4 b9 bc 6e db 1b bd 8b 6b bf 3b 81 9c 09 bc
       -0.022699414 -0.03805106 0.0058416775 -0.00839913
0002a0 d7 05 63 3c 0d 5a 02 3b fd 74 02 3d e9 17 55 3d
       0.013856373 0.00198901 0.03184985 0.052024756
0002b0 a7 30 98 bc 87 f8 0e 3b 6f d9 4b 3d de eb 17 3d
       -0.018577887 0.0021815614 0.049767908 0.037090175
0002c0 a5 c5 39 3c f6 ae d9 3c e1 36 f6 3c 77 17 2d 3d
       0.011338626 0.026572686 0.030055465 0.042258706
0002d0 ba 86 98 3c c1 07 a8 bc 6a e4 e6 bc 0b 7e 8d bc
       0.01861893 -0.02051151 -0.028185088 -0.017272016
0002e0 71 1e f7 bb 3f 91 12 bd aa 7d 15 3d 9d f5 7d bd
       -0.0075414707 -0.03578305 0.036496796 -0.062001813
0002f0 d8 7f af 3c bc 6d 1a 3d 4c 09 8f bd f9 64 1f bd
       0.021423265 0.037702307 -0.06984195 -0.038914654
000300 0e 91 f4 3a 27 71 41 3b d5 57 96 bc 02 2c 56 bd
       0.0018658952 0.0029516907 -0.018352428 -0.052288063
000310 f9 02 09 3d 0a 59 d5 3b 60 bb 11 bc b0 35 0d bd
       0.0334501 0.0065108584 -0.008894771 -0.03447503
000320 66 65 20 bc 3d 4a 0f bd 1e 83 95 3b 1d 86 37 3b
       -0.0097898 -0.03498291 0.0045627495 0.0028003522
000330 ed 08 00 bc 87 aa b7 bc 77 70 b1 bc 4e c8 08 3c
       -0.007814628 -0.022420181 -0.021660073 0.008348538
000340 01 a1 13 bc 2c af 96 bc db 29 06 bc ca f9 7f bd
       -0.009010554 -0.018394075 -0.00818869 -0.062494077
000350 fa 62 c9 bc 9d 98 17 3c dd d1 bf 3b e3 7b dc 3c
       -0.024583329 0.009252694 0.005853875 0.026914543
000360 af 0f 4e 3c 76 d4 37 bd 71 91 be bc 1f d6 9a bc
       0.012576981 -0.044880353 -0.023262711 -0.018900929
000370 7d 2c 70 3c fc 11 4d ba 4c 30 6b bb 74 3d f8 bb
       0.014659044 -0.0007822809 -0.0035886941 -0.007575685
000380 c4 48 25 3d 4a 8f 4a bc 4f d4 68 39 08 02 23 bd
       0.040352598 -0.012363264 0.00022204335 -0.03979686
000390 4b 6a c0 bc 89 86 e4 3b 27 9a 50 3d 42 a9 6e bd
       -0.023488184 0.0069740457 0.05092826 -0.058266886
0003a0 e2 12 09 3d b6 27 13 3d 4c 58 ac bc c2 fd 5e bc
       0.033465274 0.035926543 -0.021038197 -0.013610305
0003b0 7e dd b1 bc 45 3d da 3c 28 da 7e 3c 56 f4 4c 3c
       -0.021712061 0.026640544 0.015554942 0.012509426
0003c0 07 c2 57 bc 5c 45 67 3c e6 5e a2 bc cf 07 5d bc
       -0.013168818 0.014115658 -0.019820642 -0.013490631
0003d0 6f 9c a2 b8 70 5c 18 3c e7 9b 74 bc d0 b7 fa 3c
       -7.7539e-05 0.009299383 -0.014929748 0.030605227
0003e0 f1 a7 12 3c 73 4f a2 bc ed 86 78 3c 97 58 4b bc
       0.008951173 -0.019813275 0.015168888 -0.012411258
0003f0 59 a6 16 3c 9d c2 85 3c 49 60 06 3d ae fd b2 bc
       0.009194934 0.01632815 0.03280667 -0.02184948

net.0.bias f4 [32]
000000 28 39 61 bd 35 63 7a bd 58 80 0e 3d 0b 57 de 3c
       -0.05498615 -0.061129767 0.034790367 0.027141115
000010 58 14 f8 3c 25 ee 77 bd 68 3d 05 3c f9 40 8f 3b
       0.030283138 -0.060529847 0.008132316 0.004371759
000020 49 f1 1b bd 8c ce 5e 3d 1f cc 87 bc 84 0b ab 3c
       -0.038071904 0.054396197 -0.016576825 0.020879515
000030 fb 60 73 3c 1a 44 b9 3c c5 ed 06 3c a0 44 2d 3c
       0.014854665 0.022615481 0.0082354 0.0105754435
000040 45 2d 0d 3d bb ab 54 bb c2 cd d0 3b 9e 41 4f bd
       0.034467 -0.0032450992 0.0063721845 -0.050599687
000050 24 ac ea bb af e2 3b bc 60 99 ee b8 df 76 c6 3b
       -0.007161634 -0.01146762 -0.00011377293 0.006056651
000060 a1 aa 3a bb bf c4 1a bd 89 dc 1b bc d1 19 d1 bb
       -0.002848305 -0.037785288 -0.009513029 -0.0063812514
000070 4b dd 03 bc a1 d2 1f bd 8d 43 90 bc 33 93 05 bd
       -0.008048366 -0.03901923 -0.017610336 -0.032611083

net.2.module.0.weight f4 [32, 32, 3]
000000 21 90 9d 3d c6 51 32 3d 94 a1 94 3d 1d 50 23 3e
       0.07693506 0.043535016 0.07257381 0.1594853
000010 fa 88 3f 3e 78 95 f8 3d 6a a2 e7 bd 64 94 97 bc
       0.18704596 0.12137884 -0.11310275 -0.018503375
000020 a7 02 eb bd 81 d2 12 bc 88 d9 f5 bc 7f 84 d0 bd
       -0.11475115 -0.008961321 -0.030010954 -0.101815216
000030 53 e2 49 bd d9 9a 37 bc 61 cd c9 bd f2 17 7f 3d
       -0.049288105 -0.011206352 -0.09853626 0.062278695
000040 b1 b5 72 bd 48 2b 9d 3d 1a 91 90 bc 83 45 5a ba
       -0.059255306 0.07674271 -0.017647315 -0.0008326398
000050 77 e7 9b 3d bb 30 43 3d dd 70 b9 bc 69 d9 ec 3c
       0.07612508 0.047653895 -0.022636825 0.028912263
000060 bc 95 71 bd 13 e6 a4 3c c8 3d eb bd d2 fa b9 bd
       -0.05898069 0.02012924 -0.11486393 -0.09081043
000070 61 1f 04 bd 44 b7 7c bd fa 70 c9 3d 0a 72 cd 3d
       -0.032256488 -0.061698213 0.09836002 0.10031517
000080 54 f8 d2 3d 43 48 c3 bc 70 eb 1e be f4 d2 54 3c
       0.10301271 -0.023838168 -0.155195 0.012989748
000090 e8 8b 56 bd 27 0b 8d bd b7 65 84 3d 25 08 01 be
       -0.05237952 -0.06886893 0.06464713 -0.12600763
0000a0 ec 52 81 3d a4 86 3c 3d f3 a9 8a 3d ef 28 de 3d
       0.06314644 0.04602684 0.067706965 0.10847651
0000b0 e5 37 a1 3d 17 6c 67 bd c8 dd 8e bd 9e fb a8 3b
       0.07871989 -0.056499567 -0.06975895 0.005156948
0000c0 ea 33 08 bd 1c 6b 88 3d 63 e5 af bc 52 05 03 3d
       -0.033252634 0.066610545 -0.021471685 0.031987496
0000d0 14 56 8b bc ae da b4 bd 4e e8 bf bc 35 20 c2 bd
       -0.017008819 -0.08830772 -0.023426201 -0.09478799
0000e0 21 3b 3d bd 92 cc c0 3d 41 16 1e bd de 70 0c 3c
       -0.046198968 0.09414019 -0.03859544 0.0085718315
0000f0 ef b8 70 bd 95 b8 64 bd 0e c0 d8 bd 31 f0 e4 bd
       -0.058770116 -0.055840094 -0.105835065 -0.111786254
000100 e3 1e 60 bd f8 72 e5 bd 4b 38 a7 3c 9c 08 83 bc
       -0.054716956 -0.11203569 0.020412585 -0.015995316
000110 24 0f 49 bd da d6 ef bc 93 b4 8f bd 52 e4 c5 3c
       -0.049086705 -0.029277254 -0.07016864 0.024156723
000120 e2 2b a2 3d 2f ba 8a bc d1 6b 54 bd 01 da 66 bd
       0.07918526 -0.016934482 -0.051860634 -0.05636025
000130 f4 8c a9 bd 4b 9e 9a 3c c8 07 c0 3d 6f 16 27 3e
       -0.08278838 0.018874308 0.09376484 0.16317151
000140 5a 2d 47 3e 21 be aa 3d ae e9 87 bb 13 98 f8 bb
       0.19450894 0.083370455 -0.00414773 -0.007586488
000150 7e 5f 08 be a2 00 0a be a5 84 ce 3c a1 55 34 bd
       -0.13317677 -0.13476804 0.025209734 -0.044026975
000160 0b 59 c8 bc fd 4f f3 bd 21 9a 4b 3d 84 5a fe 3d
       -0.024456521 -0.11880491 0.049707536 0.12419608
000170 09 f4 ee 3c fb ce 61 3d 79 bc b2 3d fd 53 81 bd
       0.0291691 0.055129033 0.087273546 -0.063148476
000180 68 96 b7 3d b0 93 3b 3e 83 70 d0 3d 2f dc 79 3e
       0.089642346 0.18318057 0.1017771 0.244004
000190 60 89 57 3d 80 1b 7c 3e ff 8b 42 bd 10 ab d8 bd
       0.052621245 0.24619865 -0.047496792 -0.105795026
0001a0 18 cd 28 be 85 a2 17 be d6 7d 82 bd 4c 3f 0a bc
       -0.16484487 -0.1480809 -0.063716576 -0.008437943
0001b0 c3 5c 36 3c 43 3b 2f bd 80 25 10 bd fc 38 e1 bd
       0.011130515 -0.042781126 -0.035192013 -0.10997197
0001c0 b2 23 b3 bd 54 32 8a bd 04 c9 b5 3b 2b 14 8b 3c
       -0.08747043 -0.067478806 0.0055476446 0.01697739
0001d0 cb cf 27 3d 2d a4 1d bc ab b5 1a 3d da e8 fe bc
       0.04096965 -0.009621662 0.03777091 -0.031116892
0001e0 5b c1 32 bd 35 c2 9b bc 0f c7 08 bd 85 4c 4f bd
       -0.04364143 -0.019013504 -0.033392962 -0.050610084
0001f0 84 70 be 3c 68 e7 14 bd a0 67 2c 3e 44 4e 17 3e
       0.023247011 -0.0363535 0.16836405 0.1477595
000200 1f 86 51 3d f7 ea 11 be c1 53 0a bd 23 9b 77 bd
       0.0511533 -0.14249788 -0.03377128 -0.060450684
000210 18 bd 5a bc df bf 0f be 82 bd 05 bd e7 81 69 bd
       -0.0133507475 -0.14038037 -0.03265143 -0.05700865
000220 16 32 2e bd 16 54 93 bd b0 0c 1e 3c e6 db 4e bd
       -0.042528234 -0.071937725 0.00964658 -0.05050268
000230 c4 0e b6 3c 10 6c bd bd 51 0f fb bd cf 98 05 be
       0.022223838 -0.09249127 -0.12258781 -0.13046573
000240 a8 a5 62 bd 49 d5 38 bd 12 9b 0c 3d 74 cf b4 3a
       -0.055333763 -0.04512528 0.034327574 0.0013794736
000250 4d e7 8c 3d 51 23 c1 bc 93 24 bc 3c 7f a7 89 bc
       0.068800546 -0.02357641 0.022966659 -0.016803501
000260 2a 81 10 3c b5 ee c3 3c 48 46 15 be 49 9b d2 bc
       0.008819858 0.023917535 -0.14577591 -0.025708811
000270 35 1b e1 bd 81 f0 c7 bd 91 0c 93 bc 7c 02 19 bd
       -0.109915175 -0.09762669 -0.017950328 -0.037355885
000280 c3 e7 2f 3d 76 14 c9 bc db 31 00 be 0b b2 09 3d
       0.042945635 -0.02454589 -0.12519018 0.03361706
000290 6c 20 98 bd 1c c1 bc bd f5 1f 9d bd d9 68 9f bd
       -0.07428059 -0.0921652 -0.07672111 -0.0778367
0002a0 04 60 15 bb 68 c2 cd 3a fd 88 81 3c 18 c3 66 3d
       -0.0022792825 0.0015698196 0.015812391 0.0563384
0002b0 ff 92 8b 3d 4e 68 03 3c c4 73 05 3e e7 e5 59 3e
       0.06815147 0.008020474 0.13032442 0.21279107
0002c0 5e 01 2d 3e cb ff 68 3d a7 4f 79 bd 7e d5 85 3d
       0.16895053 0.05688457 -0.060866978 0.06534861
0002d0 b3 12 fd bd 55 af 14 be a7 aa 63 bd 68 47 ea bd
       -0.12357082 -0.14520009 -0.05558267 -0.11439401
0002e0 f5 be 6f bd f1 59 83 3c 34 27 7f 3d c5 6a 12 3e
       -0.05853172 0.016034098 0.062293246 0.14298542
0002f0 1a a9 dd 3d 92 f5 26 bd 3a 5c 7f bb 8b 01 ec 3c
       0.10823269 -0.040761538 -0.0038964883 0.02880933
000300 b3 59 10 3d 14 0f ab 3b 23 cd d1 bc 32 7f 60 bd
       0.035241794 0.0052203033 -0.025610512 -0.054808803
000310 f5 7d e7 bc 8a f6 05 be 45 f5 1f 3d 5b 62 2c be
       -0.028258303 -0.13082328 0.039052267 -0.16834395
000320 de 4d 55 bd 1a 8a b3 3d b7 d3 6d 3c 6f 96 bd 3d
       -0.052076213 0.08766575 0.014515809 0.092572086
000330 6b fb 23 3d 5f 4e 49 bd 0d 92 48 3d dc 67 91 bd
       0.040034693 -0.049147006 0.04896741 -0.07099888
000340 67 39 10 3d e3 ce 90 3d 0f 30 b2 3d 88 39 84 3d
       0.035210993 0.070707105 0.08700573 0.06456286
000350 1d 00 97 3c e9 1f 3e 3d 60 8a 5f 3d 85 8b f4 bd
       0.018432671 0.04641715 0.054575324 -0.11940674
000360 23 73 f5 3c 4f bd e1 3d fc 08 06 3e 4f ed 76 bd
       0.029962128 0.11022436 0.13089365 -0.06028491
000370 98 dd 8c bd f9 04 0a be 2b 49 d5 bd 39 9a 83 bc
       -0.06878203 -0.1347846 -0.10414346 -0.01606475
000380 cd fb cb bd 60 00 bc bd 98 10 c3 3d e6 19 c1 3d
       -0.099601366 -0.09179759 0.095246494 0.09428768
000390 d9 50 02 bd 4c d7 a6 3d 34 fb 21 3d f4 44 3e bd
       -0.031815384 0.08146533 0.039546207 -0.046452478
0003a0 f6 5b 4b bb 00 52 48 3d f3 34 8e 3e 8e c4 4a 3e
       -0.0031030155 0.048906326 0.27774772 0.19801542
0003b0 b5 8a 8e 3e d1 92 77 bc bd c8 dd 3d a3 bf ab 3c
       0.278402 -0.015110687 0.108293034 0.020965403
0003c0 46 fe b1 bd 18 9c b0 bd 08 6d cd bd a1 bf 90 bd
       -0.08691077 -0.086235225 -0.10030562 -0.070678
0003d0 25 a5 f9 bb e0 27 83 bc 3c ba ed 3d a0 4e 44 3d
       -0.0076185637 -0.016010225 0.11607787 0.047926545
0003e0 0e c2 fc 3a 5f eb e8 3d fe ea fe 3d 3d 0d c7 3d
       0.0019283907 0.113730185 0.12447165 0.09719322
0003f0 c7 30 41 3d 3d 3d 54 3a 32 af 94 3d 28 41 5c bb
       0.04716566 0.00080962834 0.07259978 -0.0033608172

net.2.module.0.bias f4 [32]
000000 c4 c6 8c 3c da cc 01 be ce a8 2b 3e 18 4e a2 3c
       0.017184623 -0.12675801 0.16763613 0.019812629
000010 ec bc 61 3d b0 35 c4 bd 11 ec ec 3d cf 49 1f bc
       0.05511181 -0.095805526 0.115684636 -0.009722187
000020 a0 3b 70 bd c0 ab d3 3d 69 0a cc 3d 50 b0 34 3e
       -0.058650613 0.10335493 0.09962923 0.17645383
000030 5d b1 36 3c ec b1 e1 ba a5 e3 f2 3c 73 f9 78 bc
       0.011150685 -0.0017219163 0.029649565 -0.015196192
000040 8b c2 8e 3d b9 e8 ee bc 76 88 25 bd d1 fa d7 bd
       0.069707 -0.029163705 -0.040413342 -0.10545886
000050 dd 8e f1 3d 19 a6 17 bc fc 9d 5c 3c 4d 69 61 bd
       0.11794827 -0.009255909 0.013465401 -0.055032063
000060 06 9b 16 3e 96 3d d9 3c b0 f1 a5 bc 28 e9 85 bd
       0.14707574 0.026518624 -0.020256847 -0.06538612
000070 95 25 30 3d 09 5a 95 bd b8 41 1e 3c 3f f1 0c 3e
       0.04300459 -0.072925635 0.009659223 0.13763903

net.3.module.0.weight f4 [32, 32, 3]
000000 18 c0 ae 3d ee 84 55 3d 1f d1 7d 3d f5 e9 54 3e
       0.08532733 0.052128725 0.06196701 0.20792373
000010 3b a3 f7 3d 35 d6 a0 3d a1 7f 7f 3c 41 6d 9b 3c
       0.120916806 0.07853357 0.015594394 0.018972995
000020 23 52 24 be e6 bf 0b bd a1 24 36 3c 4a 91 78 bd
       -0.16046958 -0.034118555 0.011117131 -0.060685433
000030 4b ff aa bb 2b 5c 00 3d b1 36 66 bd 3a 38 00 bd
       -0.0052184216 0.0313379 -0.0562045 -0.03130362
000040 e6 ab ce bd cd ef 36 3d ec 61 83 3b 34 fa d2 bc
       -0.10091381 0.044662286 0.004009476 -0.025754072
000050 f8 89 18 bd 36 11 ad bd f7 80 f9 bd c7 42 10 bd
       -0.037240952 -0.08450548 -0.12182801 -0.035219934
000060 c7 01 54 3d c0 03 63 bd 60 75 c7 bc df 8b f9 3c
       0.051759508 -0.0554235 -0.024347961 0.030462204
000070 b4 85 0b bb 8c a1 00 be fd 69 d7 3d b9 2d ed 3d
       -0.002128941 -0.12561625 0.105182625 0.115809865
000080 08 bf fb 3d 5f 9c 47 bc b5 cf da bd 61 54 5d bc
       0.12292296 -0.012183278 -0.10684148 -0.013508887
000090 04 f8 9f bc 3c f8 22 bd 38 fb 7e bd c0 28 5f bb
       -0.019527443 -0.039787516 -0.0622513 -0.0034051389
0000a0 65 e6 02 be 46 b5 e0 bc 1b 18 82 3e ee 95 b7 3d
       -0.12783201 -0.027430188 0.25409016 0.08964144
0000b0 d9 d9 93 3d 7b 7a 00 bd fa ce a5 bc e7 9b bf bd
       0.072192855 -0.031366806 -0.020240296 -0.09355908
0000c0 d4 0f 99 bc b9 b0 4e 3d 17 74 b9 ba 25 d0 db bc
       -0.018684305 0.050461505 -0.0014148977 -0.02683265
0000d0 55 3b 47 bd f1 4a dc 3d c4 59 e0 3c 6b 8d 0a be
       -0.048640568 0.107564814 0.027386554 -0.13530509
0000e0 81 37 5e bd de f2 0b bd 25 63 25 3d 41 30 5d 3c
       -0.05425215 -0.034167163 0.040377755 0.013500274
0000f0 fe ba a4 bd b9 02 85 bd de 70 dd bd fa 46 5e 3c
       -0.080434784 -0.0649466 -0.10812543 0.013566727
000100 ed d9 03 bd 0b 12 29 3b 93 6d 4a 3d 7e 67 0a ba
       -0.032190252 0.0025798108 0.049420904 -0.0005279704
000110 40 1d ac 3d f2 e6 fa bd fe c3 4e bd af 20 dc bd
       0.084040165 -0.122510806 -0.05047988 -0.107484214
000120 f5 0e c9 bd 2f d3 db 3c 88 94 bd 3b a7 05 df bd
       -0.09817306 0.026834099 0.0057855286 -0.1088975
000130 2e 3d 0e bd 28 ad ad 3d 1e 75 8a 3d 63 4d bf 3d
       -0.034726314 0.084802926 0.067606196 0.09340932
000140 7f a4 7d 3e 2b 78 cf bd 45 6d 87 3c 3d 08 f6 bd
       0.24769782 -0.10130342 0.016531596 -0.1201329
000150 ef 97 c1 bd 56 e4 34 3d c3 1c eb bd 31 1b f2 bd
       -0.09452807 0.04416307 -0.11480095 -0.118215926
000160 47 19 a3 bd f1 08 61 3d 00 27 a3 3c 38 f6 da bb
       -0.07963806 0.054940168 0.019916058 -0.0066821836
000170 5c f8 87 3d 28 f9 9f bd 7b b6 4e 3d 9a 2d 1a 3d
       0.06639168 -0.07811195 0.050466996 0.037641145
000180 6f 80 5b 3e 3d 14 35 3e 1c 43 d8 3d 64 d1 64 3e
       0.21435712 0.17683502 0.10559675 0.22345501
000190 97 cb 05 3e 14 6b 05 3e d7 bc e3 bd 59 4a 27 be
       0.13065945 0.13029128 -0.11120003 -0.16336955
0001a0 2f f8 2b be 3d 88 85 bb 5b ee a3 bc 74 fa 3d bd
       -0.16793893 -0.0040750788 -0.020011118 -0.04638143
0001b0 fc ad f2 bc 6a ba c8 bb c2 9f 84 3d 3c a2 69 3d
       -0.029623978 -0.006125738 0.06475784 0.057039484
0001c0 92 9a f2 bb 7c 8e 1d 3c ce 53 c3 3d 91 b2 ac 3d
       -0.00740368 0.00961649 0.09537469 0.08432496
0001d0 d8 a7 8e bd 18 3e 1e be 3f 22 95 bd f1 4e 15 be
       -0.069656074 -0.15453374 -0.072819225 -0.14580895
0001e0 b9 2f d9 3c 71 e9 c2 bc a8 11 b7 bc 11 09 95 3d
       0.026512014 -0.023792954 -0.022347286 0.0727712
0001f0 05 4a d5 bc 5c 05 de bd 83 4c 9e 3d ca fe 17 3d
       -0.026036272 -0.10840866 0.07729437 0.03710822
000200 a1 43 61 3e 94 83 7c bd 4c b1 f9 bd ca a1 3b bc
       0.21998455 -0.06164892 -0.1219202 -0.011452148
000210 f8 ef cb bd 81 ad c3 bd bb 68 91 bd ea 4c c1 bd
       -0.0995788 -0.095545776 -0.07100054 -0.09438498
000220 21 91 f0 bd 37 00 0c be 8b ad 6a 3e b8 73 15 3e
       -0.11746431 -0.13671957 0.22917764 0.14594924
000230 29 a2 2e 3e c3 b7 87 bd 7d a7 39 bd 86 99 a3 bd
       0.17054047 -0.06626847 -0.045325745 -0.07988267
000240 a8 0c aa bd e3 d7 95 bb c1 f0 07 3d 67 53 70 bd
       -0.08303195 -0.004572855 0.033188585 -0.05867329
000250 40 0b ca 3d 64 0e 24 bd c5 cc 81 bd fa 6e fd 3c
       0.09865427 -0.040052786 -0.06337885 0.030936707
000260 a2 b0 6c be e3 d7 e4 bc 67 5f 2b 3d 1c 60 b8 bd
       -0.23114255 -0.027934974 0.04183903 -0.090027064
000270 84 0e 11 be 72 1a b4 bc 95 71 ac bd 3e 66 a1 bd
       -0.14165694 -0.021985266 -0.084201016 -0.07880829
000280 75 5c b8 bd b1 91 9f bd 96 6a b4 3c f7 c9 e5 bc
       -0.0900201 -0.0779146 0.02202348 -0.028050406
000290 9a d2 3f bc 9a 47 55 3d fe 57 45 3c c1 81 a0 bd
       -0.011707926 0.052070238 0.012044905 -0.078372486
0002a0 eb 1a b0 bd 9d e7 a8 bd 85 96 05 bd 7f 96 2b bd
       -0.08598884 -0.08247302 -0.03261425 -0.04189157
0002b0 3a 8b 8a 3b 36 62 5c 3d 62 2a 4a 3e e5 d2 98 3e
       0.004228023 0.0538046 0.1974273 0.298484
0002c0 af bf 6d 3e 4a 6c 0f be 66 89 fb bd 9b ae db bd
       0.23217653 -0.14006153 -0.12282066 -0.10726663
0002d0 aa a8 20 be b0 ba 86 bd 17 28 0d be 02 a9 08 be
       -0.1568934 -0.065785766 -0.13784824 -0.13345721
0002e0 71 e4 01 3d ba 83 20 bc 94 d3 d4 3c cd 99 c4 bc
       0.031712 -0.009797031 0.025979795 -0.02399912
0002f0 b7 42 3e 3d 15 56 84 bc 47 b7 4b 3d 98 b6 1e bc
       0.046450343 -0.016154328 0.049735334 -0.009687088
000300 d5 c8 35 3c 3a 57 14 3d b1 36 dd bc 50 9b 25 3d
       0.011095245 0.036216 -0.027003618 0.04043132
000310 8e 83 b2 bc eb 47 2d 3d 4d cf a1 bb 6c 26 a5 bd
       -0.021791246 0.042304914 -0.0049380423 -0.08063969
000320 07 f3 28 bd f7 a3 d8 bd 3e cb 2c bd 85 d8 ae 3a
       -0.041247394 -0.10578149 -0.042186014 0.0013339674
000330 29 29 a9 3d f3 71 bc bd 69 b0 60 3d 66 40 98 bd
       0.08259804 -0.092014216 0.054855738 -0.07434158
000340 b3 04 2e bd ef 90 d0 3b a7 8c ca bd 50 16 86 bd
       -0.04248495 0.0063649337 -0.098901086 -0.065472245
000350 b9 d9 35 bc 54 05 2f 3d 68 f2 c5 bc b7 19 7d 3d
       -0.011099272 0.04272969 -0.02416344 0.0617921
000360 1c 2f 5e bd 45 ec c2 bd 24 60 e9 bd 52 11 bc 3d
       -0.054244146 -0.09517721 -0.113952905 0.09182991
000370 98 48 d1 bd ac 29 6b bd 3d a9 5d 3d 89 2b c7 3c
       -0.10218924 -0.05741279 0.054116476 0.024312751
000380 ff b1 3f bc 10 19 a5 bd de b9 df 3c 9b cc af 3c
       -0.011700152 -0.08061421 0.027310308 0.021459868
000390 d5 ff 2b bd c6 c4 87 3d 0a f3 b6 bd 10 41 4e bb
       -0.041992027 0.066293284 -0.08933075 -0.0031471886
0003a0 d0 cf 36 3d 9f 09 6f 3d 12 9f 22 3c 15 4c 0e 3d
       0.04463178 0.058358785 0.009925621 0.034740526
0003b0 24 61 db bd 21 32 92 bc 2c 87 a0 3d 3c a2 12 bd
       -0.107118875 -0.017846169 0.07838282 -0.03579925
0003c0 b9 18 51 3d 42 73 9c 3d 7e b6 99 bd d4 28 ae bd
       0.051048968 0.07639171 -0.07505511 -0.08503881
0003d0 bb 6a 24 bd 09 f1 c4 bd 76 25 95 bc 88 a3 65 bd
       -0.04014085 -0.09616286 -0.01820634 -0.05606416
0003e0 3b 7e 60 bd d0 fa a9 bd 69 28 ec 3c df dc d2 bb
       -0.054807883 -0.08299792 0.028827863 -0.0064350213
0003f0 be ce 52 bd d8 45 c4 bc 85 9a d9 bd b9 51 0c 3d
       -0.051466696 -0.023959085 -0.106251754 0.034257624

net.3.module.0.bias f4 [32]
000000 10 20 3e bc a1 d1 cc bd 2d 96 ca bd ba 97 0d 3c
       -0.011604324 -0.10000921 -0.09891925 0.008642131
000010 0e 47 62 ba 84 6c f6 3c 95 75 8f bd db 1b 8a bd
       -0.0008631804 0.030081041 -0.07004849 -0.06743594
000020 c6 33 ad bc 1a 98 f9 3d 1a 97 56 3d e0 4b c6 3d
       -0.021142852 0.12187214 0.052390195 0.09682441
000030 f6 c6 24 3d 54 1e 15 bc c0 60 af 3d ae 3d 3f bd
       0.040228806 -0.009101469 0.085633755 -0.04668968
000040 6e d2 80 3d 71 a9 90 bd 91 1f ae bb cf da c6 3c
       0.06290136 -0.070635684 -0.0053138216 0.024274258
000050 c1 64 3e 3c e7 7a a4 bd 4a 2b dc 3d a3 53 92 3b
       0.011620701 -0.08031254 0.10750444 0.0044655367
000060 f4 0e e5 bd a5 fa 16 bd f2 c8 81 bd a6 19 ad bd
       -0.11184493 -0.036860127 -0.063371554 -0.08452158
000070 08 0a c0 3d ed 6d 0d bd 99 e0 89 3c d8 f5 bc 3b
       0.09376913 -0.03452866 0.01683073 0.0057666115

net.4.module.0.weight f4 [32, 32, 3]
000000 41 91 f9 3d b6 f6 e1 bd 6a d3 6d 3d 46 21 b4 3d
       0.12185908 -0.110333845 0.05806295 0.08795409
000010 2a 81 c5 3d 62 ae 17 3e 12 08 62 bd 63 f9 94 bc
       0.09643777 0.14812616 -0.055183478 -0.018185323
000020 84 68 82 3c 9b 83 03 bd 98 82 0d bd 37 51 a3 bc
       0.015918978 -0.03210793 -0.034548372 -0.019936187
000030 60 4d bd bd d0 5f 48 3c 02 6d a3 3c f3 5d 7a 3d
       -0.09243274 0.012229875 0.01994944 0.061124753
000040 8b 47 6b 3d 60 6f c2 3d 06 5d d2 3d 2c 15 3c 3d
       0.057441276 0.09493899 0.10271649 0.04591863
000050 1d 76 b7 3c 81 6e 1c bc 9c 80 24 bd 5d dc 9f 3c
       0.022395188 -0.009547831 -0.040161714 0.019514257
000060 21 dd 7e bd f0 c3 43 3d fd 26 09 bc e0 14 d2 3c
       -0.062222604 0.047794282 -0.008371112 0.02564472
000070 cb a1 46 3c db f8 ba bc a9 b8 1c 3d 55 0e 0f 3d
       0.012123535 -0.022823742 0.038262043 0.034925777
000080 eb 7a 5c 3d 6d 49 67 bd d3 d1 b0 3d b5 db d6 bb
       0.05382816 -0.05646651 0.08633771 -0.006556953
000090 1d 24 97 bc b8 7c 54 bd f7 99 51 3d 46 25 9c 3d
       -0.018449837 -0.051876754 0.051172223 0.07624297
0000a0 a8 45 e8 3d 3f a4 67 bd 24 5b c8 bd a3 cd 9b 3d
       0.11341411 -0.05655312 -0.09783009 0.076075815
0000b0 59 38 a3 bd 50 62 91 3d 03 df de 3d 96 e2 a7 bc
       -0.07969732 0.0709883 0.1088238 -0.020493787
0000c0 55 2b 9b bd 65 02 58 bc 30 49 ba 3c 91 56 7b bd
       -0.07576624 -0.013184165 0.022739977 -0.061361853
0000d0 8b 6e 5e 3d b0 16 b3 bd b8 f1 2a 3d 39 21 83 3d
       0.05430464 -0.08744562 0.041734427 0.06402821
0000e0 cb 46 ec 3c 4a e2 44 3d f8 28 f1 bc d0 e3 35 bd
       0.02884235 0.04806737 -0.02943848 -0.044406712
0000f0 aa 58 be 3c be 11 b0 bd 9e e1 f9 3d aa a0 d1 3c
       0.023235638 -0.08597134 0.12201236 0.025589306
000100 eb 25 99 3c f5 7a 9c bd 78 ff 9c bc 5c aa 80 bd
       0.018694839 -0.0764064 -0.019164786 -0.062824935
000110 52 9d 8b bd f0 18 19 3d 24 ba fd 3d fa 89 e4 3d
       -0.06817116 0.037377298 0.12389019 0.111591294
000120 6b 82 a7 3d 9e 45 b9 3d 5b b4 98 bd 53 1a ba bd
       0.08179172 0.090464815 -0.07456275 -0.09087052
000130 2d d6 af bc a7 b8 a3 3d 04 42 ca 3c 81 dd 8b 3d
       -0.021464432 0.07994204 0.024689682 0.06829358
000140 dd 76 ba 3d cb 05 4e bd 95 1b 9a bd a7 0a 8c 3d
       0.091047026 -0.050298493 -0.07524792 0.06837969
000150 6c 70 18 bd bd 9d 9b bd 51 23 5b 3d 51 0e f5 3d
       -0.03721659 -0.075984456 0.053500477 0.11965621
000160 6e 83 d0 bc 31 4d 6b 3d 2d 91 a7 3d c9 fd 55 3a
       -0.025453296 0.057446662 0.08181987 0.0008163122
000170 d9 0b db 3b 53 72 c5 3b f8 b1 9e 3b 4f fd c7 3d
       0.006684762 0.0060255914 0.004842993 0.09765112
000180 92 69 0f 3e 52 fc 88 3e b2 f8 61 3e f7 95 4f 3e
       0.14005116 0.26755005 0.22067526 0.20272051
000190 d2 75 ad 3e a9 4c 97 3e 2b b2 be bd 08 ab c4 3b
       0.33878952 0.29550675 -0.093113266 0.006001834
0001a0 dc 0c 2f be e7 c0 05 bd d1 33 98 bd 51 87 96 bd
       -0.17094749 -0.03265467 -0.07431758 -0.07350028
0001b0 81 cc 09 3d 18 99 65 bd 7a 4e 49 3d 95 f9 ba bc
       0.033642296 -0.056054205 0.049147107 -0.022824088
0001c0 7e eb a6 3d 63 87 2d bb 9c 81 53 bc 08 cf ad 3d
       0.08150385 -0.0026478402 -0.012909319 0.08486754
0001d0 a0 d2 2d 3d 1f 04 43 3c b2 ed 18 3c 4c de b0 bd
       0.042437196 0.011902838 0.009334015 -0.0863615
0001e0 3d f1 17 bd 5a d1 c3 bd 19 10 1d bd 14 94 42 3d
       -0.037095297 -0.09561415 -0.03834543 0.0475045
0001f0 99 33 9e 3b f8 47 01 bc 12 c2 93 3d a7 00 ad 3d
       0.0048279283 -0.007890694 0.0721475 0.0844739
000200 5f ec e6 3d fc 12 a0 bd ca 37 4d bc 0b 72 f1 bd
       0.11275553 -0.07816121 -0.012525508 -0.1178933
000210 fd 98 00 be bc fe 0c be df 82 be bd ea 38 87 3c
       -0.1255836 -0.13769048 -0.093023054 0.01650663
000220 73 11 c1 3c e3 4c c9 bd 5b d9 33 3e 1e bc 9f 3c
       0.02356789 -0.09829118 0.17563383 0.019498881
000230 51 0e 74 3d 73 c1 26 be 48 c7 26 be a3 da 46 bd
       0.059583966 -0.16284733 -0.16286957 -0.048548352
000240 18 a4 81 bd af 28 20 3d 9c 70 1d 3d e3 0a 61 3d
       -0.063301265 0.0391013 0.03843747 0.054942023
000250 26 29 8e bd 94 b1 72 bd c4 57 6e bd 1c ae 0f bd
       -0.06941442 -0.059251383 -0.05818917 -0.035078153
000260 9e d7 0b be f8 f4 3a 3e 07 63 3c 3d 0c 98 bb 3d
       -0.1365647 0.1825751 0.045992877 0.0915986
000270 9e 87 10 be 91 d0 6f bd bb 2e 83 bd 4a 71 94 bd
       -0.14114234 -0.058548514 -0.064053975 -0.07248171
000280 10 61 27 be 9a 19 31 bd 5e a5 35 3b b8 d8 6f bd
       -0.1634562 -0.043237306 0.0027716975 -0.05855629
000290 a5 f4 55 3d bf 22 6e bc 4f c7 25 3d 2e a2 bb 3c
       0.052235264 -0.014534651 0.04047328 0.022904482
0002a0 e5 3a 37 bc 26 66 d8 bd cf 11 8f bd f2 7a 8d bd
       -0.011183475 -0.10566358 -0.069858186 -0.069082156
0002b0 fc 11 23 bd 15 f8 f7 bc c4 9b 3a 3e d5 2f b4 3e
       -0.039812073 -0.030269662 0.18223482 0.35192743
0002c0 94 76 91 3e 4c 34 92 bd 10 b2 92 3c ed 2f 61 3c
       0.2841078 -0.07138881 0.017907172 0.013744337
0002d0 6a b7 08 be 59 73 fb bd ee a9 79 bd 3c 70 a3 bd
       -0.13351217 -0.1227786 -0.060953073 -0.079803914
0002e0 95 5f d2 bd df bd 1d 3b 2a 8d 82 3b 02 21 8a bd
       -0.10272137 0.002406947 0.003984113 -0.06744577
0002f0 94 83 83 3d b9 96 9b 3d 4d b0 04 bd 37 03 ae bc
       0.06421581 0.075971074 -0.032394696 -0.021241767
000300 a3 af 42 bd 77 96 3a bd cd 34 d6 bb 29 f3 d7 bd
       -0.04753078 -0.04555365 -0.006537056 -0.10544426
000310 dc f1 7c 3d b7 c2 05 be 40 8a 67 3d 8e 7c b8 bd
       0.061754093 -0.13062559 0.05652833 -0.09008132
000320 80 59 37 3b dd bb 25 3d 85 33 76 bb bb f5 ee bb
       0.002797693 0.040462364 -0.003756733 -0.007292477
000330 43 f3 b3 3c 09 28 57 bd 0a 18 9a 3d 1b c5 22 3e
       0.021966582 -0.052528415 0.07524116 0.15895502
000340 b2 f9 d8 3d d5 93 fb 3d 9e 59 d7 3d 0f 87 7e 3b
       0.105945006 0.12284056 0.1051514 0.0038837825
000350 30 03 44 bd 61 6c 39 3e 75 95 c1 3d d4 61 4d 3e
       -0.047854602 0.1810775 0.09452335 0.2005685
000360 fe 9b 37 be 5c 23 0b be 34 f0 4b 3b a8 57 58 bd
       -0.179306 -0.13587707 0.0031118514 -0.05281797
000370 2e f4 f7 bd 80 be 16 be d2 10 ea bd 5c ad 82 bc
       -0.121071205 -0.14721107 -0.114289895 -0.015951805
000380 a7 4d b2 bd 2b cc 79 3e 4a 66 64 3d c4 11 6b 3e
       -0.08706217 0.2439429 0.055761613 0.22955996
000390 10 a8 6b 3d f6 e5 b9 3d 41 de ae 3d fd 16 8c bc
       0.057533324 0.09077065 0.08538485 -0.017100805
0003a0 e5 72 76 bd f5 2d 88 bd 9f a8 ae be e5 23 ed bd
       -0.060168166 -0.066493906 -0.34113023 -0.11579112
0003b0 d0 d4 70 be b0 be 80 bd d1 6e 3f 3d 8a c7 81 3c
       -0.23518682 -0.06286371 0.046736542 0.015842218
0003c0 37 da 3d 3d e9 a3 fb 3c 47 1f d5 3c 98 d0 cc 3d
       0.046350684 0.030717807 0.02601589 0.100007236
0003d0 d5 8f da bb d2 59 06 bd ac 86 2d 3e 41 ac c3 3d
       -0.006669978 -0.032800503 0.16945904 0.09554339
0003e0 30 59 bd 3d 9c 4e bb be 94 73 6c be 8c 73 97 be
       0.09245527 -0.36583412 -0.23090965 -0.29580343
0003f0 87 fa 18 be d9 11 a2 bd 4c 3d e7 bd 15 08 14 be
       -0.14939319 -0.079135604 -0.11290988 -0.14456208

net.4.module.0.bias f4 [32]
000000 5a 7c 15 3c 67 f8 d1 3c 80 dc e4 3d 27 ea 73 bd
       0.009123886 0.025631143 0.111748695 -0.059549477
000010 13 04 ca 3d 01 ed a1 3d 71 9e ad 3c 08 1b ac bd
       0.09864058 0.07906533 0.021193715 -0.08403593
000020 79 41 d9 3d e6 5a a7 bb f3 26 12 3d 4e 73 99 3c
       0.10608191 -0.0051072715 0.035681676 0.01873174
000030 3e ef a8 bd 3f cd af 3d f0 76 b9 3c 40 c4 63 bd
       -0.08248757 0.085840695 0.022639722 -0.05560708
000040 20 03 9c bd 88 ba 45 3d 1b 72 cd bc 80 2f c9 3d
       -0.076177835 0.048273593 -0.025078824 0.09823513
000050 2d 27 dc 3d 61 e9 d6 3c ed 96 52 3d b6 19 cb bd
       0.1074966 0.02623433 0.051413465 -0.09917013
000060 68 73 e7 3d 73 27 0e bc 5e da a6 bd 55 00 98 bd
       0.11301309 -0.008676398 -0.08147119 -0.07421938
000070 a1 fb 61 3b 7d 67 ed 3c 07 13 cb 3c fc 13 8e 3c
       0.0034482258 0.028980011 0.024789346 0.017343514

net.5.weight f4 [32, 32, 3]
000000 90 f4 3f 3d 9a 5d bf 3d a8 15 4d 3d 10 93 25 3e
       0.046864092 0.09344025 0.05006948 0.16169381
000010 56 89 98 3d f1 2a 3c 3e f3 a4 89 bc f3 48 b6 3d
       0.0744807 0.18375756 -0.016802287 0.08900633
000020 fd fe cd 3c a4 bb 15 3b 15 c4 55 bc 5a 83 91 bb
       0.025146002 0.0022847438 -0.013047238 -0.004440707
000030 d9 39 82 3d 5a 28 17 bd 7b 48 06 3b 8a ca 90 3d
       0.0635869 -0.036903717 0.002048998 0.07069881
000040 95 c5 20 bd 28 e1 68 3d 30 89 e3 3c 13 16 bd 3b
       -0.03925093 0.05685535 0.027775377 0.0057704537
000050 f2 61 4c 3d 36 85 1b 3d bc 4f a8 bd 03 77 64 bd
       0.049898095 0.037968837 -0.08218333 -0.05577756
000060 09 4b 6e 3c 2b 4e f6 3a c1 6c e4 bc 07 2c 2d bd
       0.014544257 0.0018791606 -0.02788389 -0.042278316
000070 ef 42 85 bd 5c ab b7 bd 87 5c 7a 3d ad a3 c2 3d
       -0.06506907 -0.08968231 0.061123397 0.09503875
000080 6a 37 98 bd cd 2e 24 3c 86 79 02 3b 70 d6 91 3c
       -0.074324444 0.010020924 0.001990886 0.017802447
000090 6f a2 1d 3d 29 8c 48 bd ff f9 4f 3c df 2a a6 bb
       0.038484987 -0.048961792 0.012693881 -0.0050710286
0000a0 32 87 23 bd 43 44 9c bd ae 30 07 be 73 83 c8 bd
       -0.039923854 -0.076302074 -0.13202164 -0.09790697
0000b0 f4 a9 17 3c 22 48 64 bd 90 d7 8a bd 27 d8 12 bd
       0.009256829 -0.055732854 -0.067793965 -0.03585067
0000c0 e6 c1 05 3c 58 f1 92 bc dc 70 c7 bc 31 18 43 3d
       0.008163905 -0.017937347 -0.024345808 0.047630493
0000d0 a4 57 92 bb c7 f5 4e 3d 91 51 e5 bc 32 1e ed 3c
       -0.004466014 0.05052736 -0.027992995 0.028945062
0000e0 c9 a8 9a 3d a3 3c 03 be 80 45 3c bd fa 93 ca bd
       0.075517245 -0.128161 -0.045964718 -0.098915055
0000f0 1f b4 2c bd 09 a4 4a 3d c2 62 99 bc 43 52 44 3d
       -0.042163964 0.049472842 -0.01872385 0.047930013
000100 ef c5 81 3d 91 28 91 bd bf f0 7a bd a1 31 3a bd
       0.06336581 -0.070878156 -0.06126475 -0.045457486
000110 70 c4 0b 3d f5 d8 2a bd 21 53 ae bd d9 33 c1 bc
       0.034122884 -0.041710813 -0.08511949 -0.023584293
000120 36 ff 54 3d fe 6c 5f 3c 1b af b9 3d c8 58 22 3c
       0.0520012 0.013636826 0.09066602 0.009908862
000130 85 9d da bb b4 0e 8f 3d bb 2c 18 3e bd 17 28 3e
       -0.00667161 0.06985226 0.14860813 0.16415305
000140 d5 6b 92 3d 01 86 06 be 7f 76 60 bd 1f eb 17 be
       0.071494736 -0.13137056 -0.054800507 -0.14835785
000150 c9 29 d9 3c 47 6d d8 bc 1e e8 a1 bd 78 f0 9f bd
       0.026509183 -0.026419295 -0.07905601 -0.07809538
000160 c0 14 96 bd 63 1f 7e 3d 4f 05 94 3d bb b3 86 3d
       -0.073281765 0.06204165 0.07227575 0.065772496
000170 44 40 90 3d 9f c0 bc bd 62 73 26 bc fc 94 6c bd
       0.07043508 -0.09216427 -0.010159345 -0.05775927
000180 83 3f 7b bd 94 c4 65 bc f4 50 a2 bd c8 c5 18 be
       -0.061339866 -0.014023919 -0.07925597 -0.14919198
000190 d0 88 23 bd 4e b9 0e be 44 d7 8b ba 28 b8 45 bd
       -0.039925396 -0.13937876 -0.0010669013 -0.04827133
0001a0 08 9f 55 3d 9d 51 aa 3d b0 12 39 3d 9e 55 dc 3c
       0.052153617 0.08316348 0.045183837 0.026896294
0001b0 e4 9b 06 3d b6 6a 89 bd 7c 2c 06 bd 69 3a 54 3d
       0.032863513 -0.067098066 -0.032757267 0.051813517
0001c0 04 26 4d bd 23 1c 99 3d a7 24 81 3d 75 95 3f 3b
       -0.050085083 0.0747607 0.06305819 0.002923337
0001d0 6d b6 0e bd 0f 2d 11 bc 50 08 fb 3b 41 19 26 3d
       -0.034841944 -0.00886084 0.007660903 0.040551428
0001e0 97 d0 4f bd a5 27 b3 bd d7 29 93 bc 5e 8e ab bc
       -0.050736036 -0.08747796 -0.017964287 -0.02094191
0001f0 e7 c6 a7 3c d4 a9 b3 bc 23 af 66 bd 7a a1 62 bd
       0.020480586 -0.021931566 -0.056319367 -0.055329777
000200 58 2e 14 bd e3 5d e2 bc 88 e4 e6 3d a1 44 9c 3d
       -0.03617701 -0.02763266 0.112740576 0.076302774
000210 00 e2 04 3e 3c f8 67 3d a3 96 fd 3c 6b 81 bb bc
       0.12976837 0.05663322 0.030955618 -0.02288886
000220 aa c7 2d bc 45 18 c3 bd ab 6a be 3c ca 9d 93 3d
       -0.010606686 -0.095261134 0.023244223 0.0720783
000230 75 a4 71 3d fe 4f f8 bb ed a5 b3 3d 2c f1 91 3d
       0.05899473 -0.007577895 0.08771882 0.07126078
000240 0a 0f 5f 3d 56 f1 fb 3c b6 66 bd bc 59 7b ad 3c
       0.0544577 0.030754726 -0.023120265 0.02117698
000250 b1 c7 7f bc 35 c4 cb ba ec b3 a7 bc 09 48 47 bd
       -0.015611575 -0.0015546145 -0.020471536 -0.048652682
000260 6b 05 cb 3c f3 e0 3b 3d 05 a9 95 bd a7 5c f0 3c
       0.024782857 0.045868825 -0.073076285 0.029341055
000270 ca 10 77 bc 44 35 2b 3d 77 48 d4 b9 aa 11 78 3d
       -0.015079686 0.041798845 -0.00040489782 0.06056372
000280 ec 2e 56 3c 9f 15 71 bd c6 9f 86 bd 37 56 ab bb
       0.0130727105 -0.05885851 -0.06573443 -0.0052287835
000290 71 84 d5 3c cd 86 3b 3d 8f 40 97 bd 45 ef a2 3d
       0.02606413 0.045782853 -0.073853604 0.07955793
0002a0 46 1b 32 bd 6b 8a 56 bd 0f c3 6e bc 18 f8 ae bc
       -0.04348304 -0.0523781 -0.014572873 -0.021358535
0002b0 d4 26 7f bc 06 a4 b8 bd d4 88 75 bd 9f 9f f6 bd
       -0.015573222 -0.0901566 -0.059944943 -0.12042164
0002c0 3b 47 53 bb 2a 34 da 3c 6b 57 8c bd 91 c2 a9 bc
       -0.0032238502 0.026636202 -0.06852611 -0.02072266
0002d0 af 6a 19 3d 4b be de 3d f4 1c f5 3d 84 8d 57 3d
       0.037455257 0.10876139 0.11968413 0.052625194
0002e0 30 29 39 bd 48 03 2c 3d b5 78 91 3c d1 f1 2b bd
       -0.045205295 0.041995317 0.017757753 -0.04197866
0002f0 a1 3d 3c bd 8a 10 15 bd 3a c8 13 bd cb cd 65 bc
       -0.04595721 -0.036392726 -0.036079623 -0.014026116
000300 97 1b 9b bd e5 c7 21 bd aa be 29 bd af 02 01 be
       -0.07573622 -0.039497275 -0.041441597 -0.1259868
000310 34 a5 09 be 15 41 00 be e0 7e c7 bd ba 27 14 bd
       -0.13441926 -0.12524827 -0.09740996 -0.0361707
000320 32 2a 8a bd da 98 05 3d 92 d6 76 bd 20 5f 17 3d
       -0.06746329 0.032616474 -0.060263224 0.036955953
000330 70 a7 f1 3c 82 1f 0e 3d 29 2c f6 3c 7b 5c 48 bd
       0.029498786 0.034698017 0.030050354 -0.04891632
000340 1e c0 4b 3d 65 a6 b7 3c 23 4b 83 3d 61 36 f2 bb
       0.049743764 0.02241821 0.064108156 -0.0073917364
000350 0f 1d 1a 3d 95 a5 82 bc 01 8a 24 bd 5c 18 fc bc
       0.03762537 -0.015948096 -0.040170673 -0.030773334
000360 ce 9f ce bd e7 6e 4f bd b4 df b9 bc 56 44 b1 3d
       -0.10089074 -0.050642874 -0.022689678 0.08655612
000370 a1 31 c9 3d 71 bc b4 3d ea c8 cf bc bf aa d2 bd
       0.09823919 0.08825005 -0.025364358 -0.102864735
000380 59 bc d1 3b 22 61 82 3d bd 25 0a bc 9e c1 7a 3c
       0.0064006266 0.06366183 -0.008431849 0.015304951
000390 4e 93 89 3d 12 24 9e 3d 77 a2 30 3d 34 64 e5 bc
       0.06717549 0.077217236 0.04312369 -0.028001882
0003a0 1e dd 0f bd f6 3b 19 bd 4f f0 e8 bb 11 31 e4 3d
       -0.035122983 -0.0374107 -0.007108725 0.11142171
0003b0 08 1d ce 3d 06 d6 05 3d ee ab 44 bc 77 b8 1a 3d
       0.10064131 0.03267481 -0.012003882 0.037773576
0003c0 5a 6f f0 3d 85 69 c7 3d ab fd 59 3e 52 d8 ac bd
       0.117399886 0.09736923 0.21288173 -0.08439697
0003d0 4f 5f 72 bd a9 f7 a2 bd 60 ee 0a bd 4a 71 27 bb
       -0.059172925 -0.07957394 -0.03391874 -0.0025549703
0003e0 60 06 9f bd d0 bf 1a 3d b2 ea fb 3c 51 75 25 bd
       -0.07764888 0.037780583 0.03075156 -0.040395085
0003f0 4b 50 19 3e de e9 1c 3c f8 18 b9 3d 95 aa 5b 3c
       0.14972036 0.009577243 0.090379655 0.013407369

net.5.bias f4 [32]
000000 be 47 40 3d 43 49 2c bc 14 e1 a0 3d b8 18 a8 3d
       0.04694342 -0.010515514 0.0785543 0.0820784
000010 c0 f1 06 bd 64 4c e3 3a 0c b8 f7 3c fe a1 4f 3d
       -0.032945395 0.0017341492 0.030239128 0.050691597
000020 83 ac ad bd 03 69 a0 3d 13 e0 b3 bd 36 79 f7 3c
       -0.084801696 0.078325294 -0.08782973 0.030209165
000030 30 b1 95 3d 00 8b ba 3c 8d 91 af bb d0 d8 d9 ba
       0.073091865 0.022771358 -0.005357927 -0.0016620401
000040 7b ef 9d bd ba 92 48 bc eb b8 a1 bd 1b b9 bb bd
       -0.07711693 -0.012242014 -0.078965984 -0.091661654
000050 9b be 10 3d 23 79 ce bd 75 c7 dd bc 8e c2 57 bd
       0.035338026 -0.10081699 -0.027072648 -0.052675776
000060 e4 a2 74 bb da e6 e1 3c 7c 33 ab bd 5b b5 90 bd
       -0.0037328536 0.027575899 -0.08359429 -0.07065841
000070 81 63 c8 3d 78 e2 a8 3d 94 5a d7 b9 93 78 c4 bd
       0.09784604 0.082463205 -0.00041075482 -0.0959331

exp_avg f4 [32, 403, 2]
000000 bd 75 a0 b6 38 5d 57 35 29 be 4f 37 a9 b8 a5 36
       -4.782078e-06 8.022939e-07 1.2382437e-05 4.9388805e-06
000010 9e b4 42 37 18 65 ae 36 04 27 d9 36 1e 9c d5 37
       1.1605354e-05 5.197373e-06 6.471646e-06 2.5464276e-05
000020 cb 03 f2 36 e4 26 f2 b6 02 d6 9e 37 b4 cb 26 b7
       7.2126036e-06 -7.2166895e-06 1.8934723e-05 -9.941799e-06
000030 db a5 14 b8 2f f1 ff b7 00 e2 01 b3 50 a7 04 b5
       -3.5440415e-05 -3.0510679e-05 -3.02407e-08 -4.9417304e-07
000040 5b 64 35 b7 d4 22 80 35 e8 ca 92 b7 6c ae b3 35
       -1.08118065e-05 9.54688e-07 -1.7499042e-05 1.3387303e-06
000050 c4 90 c8 b4 db 46 ac 37 0f 85 01 2f 1b 27 01 27
       -3.7358234e-07 2.0536992e-05 1.1779754e-10 1.7923545e-15
000060 f6 86 b5 b8 72 31 f3 b7 dd 20 05 35 e7 1c 40 b6
       -8.655891e-05 -2.8990882e-05 4.9594183e-07 -2.8627053e-06
000070 dc 33 b4 36 fc 11 41 b7 14 ce 66 36 e8 8e e3 35
       5.3704553e-06 -1.1507884e-05 3.4392624e-06 1.6954409e-06
000080 b1 1d 76 b7 7f 4b a9 36 40 72 0e 35 ac e2 24 b6
       -1.4669656e-05 5.0453814e-06 5.306538e-07 -2.4569845e-06
000090 e2 71 49 36 bc 11 10 b5 0e 2e 43 38 69 8c d2 37
       3.0017623e-06 -5.366999e-07 4.6534515e-05 2.5099334e-05
0000a0 1d 91 21 b7 d7 19 ac 37 43 81 1d b6 90 2f e4 33
       -9.630135e-06 2.051603e-05 -2.3470063e-06 1.0625729e-07
0000b0 33 30 b8 b6 cf bd 16 b7 e6 9e c8 b6 bf d5 12 36
       -5.4892384e-06 -8.98489e-06 -5.9789627e-06 2.1880112e-06
0000c0 44 bc 66 b4 e4 10 86 32 25 43 0d 35 18 80 43 34
       -2.148891e-07 1.5607334e-08 5.26243e-07 1.820739e-07
0000d0 b7 d9 8f 36 7b ce 3c b6 3d 04 57 37 51 b6 2d b7
       4.2870774e-06 -2.813437e-06 1.2815985e-05 -1.0354052e-05
0000e0 77 70 92 b7 f6 36 0b b7 d0 0a d7 b7 0f 74 81 36
       -1.7456927e-05 -8.297842e-06 -2.5635032e-05 3.8580106e-06
0000f0 f5 74 8a 37 e6 ef b3 36 40 f1 12 aa 28 a1 15 31
       1.6505344e-05 5.3625436e-06 -1.3051105e-13 2.177396e-09
000100 dc 12 28 b7 f6 ac dc b6 c6 5a 3a 37 d8 a7 c9 b6
       -1.0017971e-05 -6.5766462e-06 1.1107599e-05 -6.0098064e-06
000110 9e 12 35 b8 58 a3 68 b7 e4 58 f2 37 65 af ae b7
       -4.31711e-05 -1.3866309e-05 2.8890041e-05 -2.082409e-05
000120 5e c2 ab b7 3a 23 b8 b5 cb f3 13 b5 4f 96 27 35
       -2.0475298e-05 -1.3719321e-06 -5.5116533e-07 6.2431076e-07
000130 86 fb 57 b8 71 9a 88 b7 54 05 e0 b5 f4 bb 68 b5
       -5.1494244e-05 -1.628438e-05 -1.6690851e-06 -8.670024e-07
000140 82 99 ad 37 26 b7 d5 37 cc da 92 b5 20 18 48 b5
       2.069469e-05 2.5476864e-05 -1.0941526e-06 -7.454091e-07
000150 25 2f 22 b7 24 67 50 36 90 f2 5d 36 c3 f1 26 b6
       -9.666929e-06 3.105445e-06 3.3072756e-06 -2.4876651e-06
000160 30 4a 2d b7 ae da 7b 37 01 d8 b9 b6 4b 8a 6f 37
       -1.0328877e-05 1.5011681e-05 -5.538576e-06 1.4277709e-05
000170 20 da 30 35 d2 18 11 b7 fa e6 73 b8 39 7d e8 b7
       6.5882523e-07 -8.648452e-06 -5.815083e-05 -2.7714867e-05
000180 c0 93 80 36 8f bb bb b4 90 c5 57 37 03 3e 77 b6
       3.8318976e-06 -3.496793e-07 1.2860997e-05 -3.6841964e-06
000190 c8 88 cd b7 12 e8 1c b8 b5 6b 06 b5 de af 71 37
       -2.4501598e-05 -3.740943e-05 -5.0075624e-07 1.4405667e-05
0001a0 95 36 de b6 c6 2e 92 34 4a b5 bd b4 34 30 86 b4
       -6.6224698e-06 2.722865e-07 -3.5335898e-07 -2.4994517e-07
0001b0 7c d5 8d b7 06 b6 19 b6 33 bb 3e b8 20 ea 16 b7
       -1.6907921e-05 -2.2904728e-06 -4.5473873e-05 -8.995208e-06
0001c0 b6 f8 0a b7 7f 39 a8 b6 00 b7 e1 36 70 4c 2b b7
       -8.2833485e-06 -5.0134836e-06 6.7268265e-06 -1.0210191e-05
0001d0 f2 15 51 b7 e3 00 d0 36 78 ba d2 b6 52 8a ef b6
       -1.246248e-05 6.1989863e-06 -6.2801955e-06 -7.1388577e-06
0001e0 98 d0 d5 b7 0a 79 75 b8 ec 86 80 b7 b0 d2 5c b8
       -2.5488713e-05 -5.852528e-05 -1.5321617e-05 -5.2648305e-05
0001f0 21 da 6d b7 3c bc 7c b8 5a 20 88 37 a4 51 74 b8
       -1.4177088e-05 -6.025679e-05 1.6227528e-05 -5.8250167e-05
000200 96 da 01 37 38 37 9a b5 08 78 68 b7 4c 81 69 b8
       7.739893e-06 -1.1489965e-06 -1.38562245e-05 -5.5671946e-05
000210 aa af 95 36 fb d5 4e b7 cd 87 b0 b8 9e fd bb b8
       4.460996e-06 -1.2328378e-05 -8.417629e-05 -8.964095e-05
000220 36 8f f4 b6 97 4c 4a b7 4b 38 90 34 c2 a7 06 b6
       -7.2884386e-06 -1.2057971e-05 2.686305e-07 -2.0065204e-06
000230 67 5f e3 b4 34 c6 d6 36 c6 4a e8 b6 37 c0 12 b8
       -4.235146e-07 6.400771e-06 -6.9228436e-06 -3.4988127e-05
000240 ec 9c 05 b7 de bd 41 b8 6d 05 1a 38 d7 90 af 36
       -7.963954e-06 -4.6191613e-05 3.6721514e-05 5.232268e-06
000250 db 7b 0e b8 48 cd 31 b8 52 c5 8b 35 e2 ff 3c 36
       -3.3970788e-05 -4.239127e-05 1.0413735e-06 2.8163126e-06
000260 47 74 b4 b7 1f 93 64 b7 e9 d8 08 b7 e5 86 74 b6
       -2.1511818e-05 -1.3624113e-05 -8.156735e-06 -3.6437352e-06
000270 ce 67 9a 33 14 07 c1 b4 35 1c b5 b7 32 f2 af b6
       7.190066e-08 -3.59542e-07 -2.1590016e-05 -5.2436017e-06
000280 b0 3f be 36 52 83 01 b7 a9 8c c3 32 74 65 2a 32
       5.6698555e-06 -7.719575e-06 2.2764953e-08 9.91837e-09
000290 13 73 85 b6 20 ec be b3 d0 9b d6 b7 72 29 7b b7
       -3.9771053e-06 -8.890515e-08 -2.5583344e-05 -1.4970416e-05
0002a0 56 1f 92 b8 66 e6 47 b8 3d e1 af b7 8b 8d 8f b7
       -6.967659e-05 -4.7659873e-05 -2.096651e-05 -1.711284e-05
0002b0 65 5d 14 b6 46 da b7 b6 92 3b cf b6 31 97 c4 b5
       -2.2108081e-06 -5.4792354e-06 -6.1760156e-06 -1.464714e-06
0002c0 63 5b 2e b7 aa 46 55 b7 28 89 24 b6 e3 61 8b b5
       -1.0392486e-05 -1.2712242e-05 -2.451774e-06 -1.0384796e-06
0002d0 2c 94 16 b6 a3 76 22 37 b4 04 a4 b6 45 96 63 b6
       -2.243799e-06 9.683575e-06 -4.8881284e-06 -3.3913104e-06
0002e0 fb ad e4 b6 0f e4 ac 35 62 e5 e0 b5 e7 cd 5e 35
       -6.8151835e-06 1.2881372e-06 -1.675606e-06 8.300107e-07
0002f0 07 fd 79 37 f7 34 b8 b6 74 24 95 b6 6e 9f f3 b7
       1.4900469e-05 -5.4897932e-06 -4.4447897e-06 -2.9042098e-05
000300 05 2a 83 b8 42 95 79 b8 f6 c8 ff 36 f4 0f a5 37
       -6.2543935e-05 -5.9505233e-05 7.622987e-06 1.9676962e-05
000310 00 27 42 b5 f6 35 af b7 ef 89 fc b8 de 08 d6 b8
       -7.2327384e-07 -2.0886753e-05 -0.000120419885 -0.00010205967
000320 00 2e bd 32 63 3b c8 b7 d5 f3 98 b8 a3 43 cf b8
       2.2023414e-08 -2.3869512e-05 -7.293342e-05 -9.8831275e-05
000330 a3 69 81 b5 c1 e9 53 b6 ba cf 4e b6 e2 3e ac b6
       -9.641993e-07 -3.1577513e-06 -3.0817305e-06 -5.13332e-06
000340 14 92 37 b7 e8 00 ac b7 08 3a c9 b6 5d c4 82 b7
       -1.09416615e-05 -2.050442e-05 -5.9970225e-06 -1.5588646e-05
000350 16 17 33 37 f2 3f 00 b7 73 3d 6a b8 25 39 0b b9
       1.06746065e-05 -7.644283e-06 -5.5847177e-05 -0.00013277361
000360 34 f4 e0 b6 6b 43 9d b6 53 b6 d6 35 3d 2b a7 b5
       -6.704149e-06 -4.686813e-06 1.5997306e-06 -1.2455054e-06
000370 31 4d 32 b6 d7 1f ec b5 5b ad e3 b7 a7 3b fa b7
       -2.6568998e-06 -1.7592637e-06 -2.7141234e-05 -2.98301e-05
000380 8e 5f 13 b6 12 46 e3 b2 48 a3 54 37 1a c8 57 b7
       -2.1960327e-06 -2.6458142e-08 1.2674202e-05 -1.2861588e-05
000390 8e 65 44 37 00 3b 2c b3 c3 3f 17 b7 5a 9f 18 b7
       1.1706155e-05 -4.010053e-08 -9.015147e-06 -9.097008e-06
0003a0 76 6b d3 37 63 a8 9c 37 b1 9f 8a b6 af 95 1b 36
       2.52032e-05 1.867506e-05 -4.131311e-06 2.3183927e-06
0003b0 14 21 58 b7 82 37 03 37 11 db 10 b6 c2 11 f6 b6
       -1.2882305e-05 7.821132e-06 -2.1585186e-06 -7.3334386e-06
0003c0 a2 b3 5f b7 99 86 10 36 12 3c 0c b8 a0 e0 36 b8
       -1.333366e-05 2.1536018e-06 -3.3434546e-05 -4.360138e-05
0003d0 36 61 44 b7 0c 7c 14 b7 95 c2 af b8 44 fa d7 b8
       -1.1705144e-05 -8.850369e-06 -8.380894e-05 -0.000102986145
0003e0 97 f2 00 b7 ba ff c8 b6 2c 63 c4 b6 5d 68 80 b7
       -7.685877e-06 -5.990235e-06 -5.8528003e-06 -1.5307387e-05
0003f0 44 95 8e b7 35 65 af b7 c8 3e 83 36 c6 bd f7 b7
       -1.6997226e-05 -2.0908754e-05 3.911413e-06 -2.9533065e-05
