cebra_models/necab1/01/B/cebra_trialID_hybrid_model_5000_32_A_03.pt (torch, 194171 bytes, 31 tensors)

module.net.0.weight f4 [32, 12, 2]
0.018810067 -0.08860357 0.20378074 0.038513385 0.3405309 -0.044953402 0.06042402 -0.40153533
-0.041404504 0.17961875 0.15611364 -0.035878558 0.06326544 -0.36179417 -0.25985217 -0.12608427
-0.19482203 -0.22526328 -0.23507369 -0.111630306 0.030420778 -0.0013770153 -0.17257808 -0.1931799
-0.2052331 0.1406236 0.1271225 0.13277532 0.20770659 0.29541472 0.037510138 0.13639902
-0.0906069 -0.1312636 0.06765278 0.11637727 0.104251854 0.101255246 -0.093008004 -0.059052303
0.10773071 -0.03510703 0.046638303 0.0583358 0.15680137 -0.01217022 -0.020110881 -0.074397534
0.12718783 -0.10276973 -0.034748904 -0.1351562 -0.016082373 0.0009935097 0.026527673 0.19210202
0.01686811 0.044930227 0.11674666 0.014901599 0.040196072 0.06556501 0.074898906 0.29004136
-0.49657106 -0.37985814 -0.18058504 0.07873269 -0.031677213 0.028629566 0.088030465 0.2663879
-0.046251815 -0.12325171 -0.019723445 0.005554351 0.07213999 0.09128014 0.1002977 -0.3039991
0.1954319 0.18414457 -0.14214347 -0.10234482 0.10170216 0.009100223 -0.07651831 0.009937374
-0.09831736 0.07545508 0.04674288 -0.09420432 0.110903 -0.40584615 0.14058103 0.15629771
0.16558908 0.1241656 -0.12634195 -0.26705343 0.08938633 -0.0532518 -0.09282968 0.028441982
0.18874945 -0.005094951 -0.41229 -0.06505551 -0.0039149127 0.1670276 -0.116391666 0.055967454
0.1258372 -0.12341455 -0.45056444 0.0070962952 0.01636885 -0.05486124 -0.0039741 -0.045036256
0.04477282 0.06915651 0.031003032 -0.091441795 0.42793903 -0.009878503 -0.29145345 0.13552071
-0.011232372 0.13309202 0.07957168 0.027027722 0.06860949 -0.012210473 0.036186505 0.04530882
0.21728788 0.035913236 0.102542445 0.21622342 -0.0077699427 -0.17112048 0.24730478 0.3877521
0.030775495 0.12489576 0.09713461 0.013746435 0.14978816 0.20515735 -0.1248182 0.003456049
0.065011874 0.07256551 -0.062856 0.16571528 -0.10087053 0.080253415 0.16980807 0.1923222
0.19871224 0.0022993686 0.08181149 -0.012585491 -0.10658621 -0.08845197 0.07826232 0.16221921
-0.02942268 0.020807052 0.17736882 0.00798422 -0.10123895 0.01798166 0.11884266 -0.0542022
0.12832326 -0.25770187 0.22738808 0.07061379 0.226561 -0.07412736 -0.15518929 0.06261086
-0.041019 -0.23943537 0.13162744 0.21353035 0.039365243 0.18366542 -0.3575755 0.08878023
-0.0005678988 0.08877203 0.005432156 -0.00877673 0.3679218 0.31135213 0.04659749 0.08847902
0.015586787 -0.07722416 -0.13364802 0.2252148 0.017853457 0.08139856 -0.04259486 0.059668608
0.25461146 0.028380623 -0.11968125 0.09050284 -0.06480982 0.07317897 -0.26986 -0.027345883
-0.08369331 0.12224332 -0.0033487305 0.117791325 0.046588995 0.00799426 0.06483453 0.07771592
0.06258771 0.054391064 0.026418503 -0.0019578214 -0.690884 -0.0020098088 -0.1387832 -0.19341145
0.17102702 0.07804309 0.19162908 0.096300066 0.080132805 -0.045321207 0.068874106 -0.057267956
0.06051369 0.0037185503 0.084606566 -0.24632303 0.08107923 0.09088343 0.11425042 0.0687688
-0.0109328665 -0.01153959 0.18963799 0.058245316 0.12631994 0.024221389 -0.009939327 0.13988169
00000000: 9217 9a3c ca75 b5bd e6ab 503e 36c0 1d3d
00000010: 115a ae3e 0f21 38bd 2d7f 773d 0a96 cdbe
00000020: c597 29bd faed 373e 41dc 1f3e 65f5 12bd
00000030: 5091 813d 163d b9be 580b 85be 3c1c 01be
00000040: 6d7f 47be 6bab 66be 28b7 70be 6e9e e4bd
00000050: ff34 f93c f77c b4ba 4fb8 30be f4d0 45be
00000060: a028 52be a2ff 0f3e 672c 023e 41f6 073e
00000070: 09b1 543e 9940 973e 3ba4 193d 2fac 0b3e
00000080: 1c90 b9bd f769 06be 8a8d 8a3d 3557 ee3d
00000090: ff81 d53d e95e cf3d fb7a bebd d4e0 71bd
000000a0: eba1 dc3d 64cc 0fbd ce07 3f3d 85f1 6e3d
000000b0: 8a90 203e 9a65 47bc 93bf a4bc bc5d 98bd
000000c0: 873d 023e f078 d2bd de54 0ebd 6366 0abe
000000d0: 2ebf 83bc a738 823a 9050 d93c 64b6 443e
000000e0: fe2e 8a3c c208 383d df18 ef3d d625 743c
000000f0: a3a4 243d f346 863d 9964 993d 4d80 943e
00000100: 903e febe c47c c2be 49eb 38be 9b3e a13d
00000110: f7bf 01bd 8d88 ea3c 5149 b43d ff63 883e
00000120: 8b72 3dbd 646b fcbd 1093 a1bc 4601 b63b
00000130: 22be 933d 15f1 ba3d e168 cd3d c5a5 9bbe
00000140: 4d1f 483e 6590 3c3e 0f8e 11be 299a d1bd
00000150: 3949 d03d 1a19 153c a2b5 9cbd 5ed0 223c
00000160: 9d5a c9bd 3188 9a3d 7675 3f3d 32ee c0bd
00000170: 1d21 e33d 11cb cfbe 79f4 0f3e 820c 203e
00000180: 2f90 293e 894a fe3d c95f 01be 3abb 88be
00000190: 2e10 b73d 8f1e 5abd 7d1d bebd 29ff e83c
000001a0: 8947 413e 8cf3 a6bb ad17 d3be d33b 85bd
000001b0: ab48 80bb 4809 2b3e c15e eebd 213e 653d
000001c0: 78db 003e c5c0 fcbd 62b0 e6be 0a88 e83b
000001d0: f717 863c 2eb6 60bd 2b39 82bb f077 38bd
000001e0: b463 373d eea1 8d3d 12fa fd3c d645 bbbd
000001f0: d31a db3e 72d9 21bc 6339 95be f1c5 0a3e
00000200: fc07 38bc 4649 083e 7af6 a23d 3e69 dd3c
00000210: 2283 8c3d 700e 48bc 4d38 143d be95 393d
00000220: b780 5e3e c219 133d c601 d23d ac69 5d3e
00000230: 019b febb 353a 2fbe 773d 7d3e 7187 c63e
00000240: e41c fc3c 59c9 ff3d 83ee c63d ba38 613c
00000250: 1162 193e c514 523e afa0 ffbd e17e 623b
00000260: f224 853d 3a9d 943d a6ba 80bd 44b1 293e
00000270: 3595 cebd e75b a43d 2be2 2d3e 1cf0 443e
00000280: 397b 4b3e 01b1 163b c88c a73d 6033 4ebc
00000290: df49 dabd 4e26 b5bd ff47 a03d cb1c 263e
000002a0: d507 f1bc 8d73 aa3c 2ca0 353e 3fd0 023c
000002b0: 5e56 cfbd 464e 933c c863 f33d 2003 5ebd
000002c0: 2c67 033e 80f1 83be 6cd8 683e f69d 903d
000002d0: 9bff 673e 16d0 97bd f1e9 1ebe 1f3a 803d
000002e0: 8a03 28bd 8c2e 75be 58c9 063e b3a7 5a3e
000002f0: 733d 213d ca12 3c3e 2314 b7be 69d2 b53d
00000300: 0bdf 14ba 1cce b53d 3a00 b23b 46cc 0fbc
00000310: 3f60 bc3e 8c69 9f3e 02dd 3e3d 7d34 b53d
00000320: b95f 7f3c b327 9ebd 07db 08be b59e 663e
00000330: 6a41 923c 4ab4 a63d f377 2ebd 1267 743d
00000340: 6f5c 823e 7b7e e83c 711b f5bd 8e59 b93d
00000350: 03bb 84bd dbde 953d 172b 8abe 7904 e0bc
00000360: 6667 abbd b55a fa3d 6076 5bbb 943c f13d
00000370: 1ad4 3e3d 5bfa 023c f7c7 843d 8629 9f3d
00000380: fc2d 803d 2ac9 5e3d 9e6b d83c cb4e 00bb
00000390: c6dd 30bf ffb6 03bb 2f1d 0ebe a70d 46be
000003a0: b521 2f3e 0ed5 9f3d 6a3a 443e f838 c53d
000003b0: ab1c a43d bba2 39bd de0d 8d3d ce91 6abd
000003c0: 34dd 773d ecb2 733b 3546 ad3d 1b3c 7cbe
000003d0: de0c a63d 1721 ba3d 20fc e93d a8d6 8c3d
000003e0: c41f 33bc 8c10 3dbc 7630 423e a492 6e3d
000003f0: 045a 013e ef6b c63c 8fd8 22bc 253d 0f3e

module.net.0.bias f4 [32]
0.032740142 0.1946721 0.115986 -0.053482644 0.17761938 -0.061676852 0.13495214 0.1898142
-0.1670293 -0.08920579 0.19085532 -0.17378828 -0.046906937 -0.17045246 -0.17743392 -0.0046634404
-0.044207692 -0.11905611 -0.10229236 -0.05133573 0.1743969 0.069713354 -0.016965853 0.1559035
-0.15292159 0.063654386 -0.05969202 -0.04009245 -0.11390947 -0.1591675 -0.154469 -0.04523006
00000000: 871a 063d 1f58 473e 118a ed3d 9e10 5bbd
00000010: dbe1 353e dea0 7cbd e530 0a3e a75e 423e
00000020: bb09 2bbe 86b1 b6bd 946f 433e 8ef5 31be
00000030: 7d21 40bd 178b 2ebe 3db1 35be c6cf 98bb
00000040: 2013 35bd b1d3 f3bd a87e d1bd 6a45 52bd
00000050: 1a95 323e e0c5 8e3d f9fb 8abc 2ba5 1f3e
00000060: 7a97 1cbe 3b5d 823d 9f7f 74bd fb37 24bd
00000070: 5e49 e9bd cefc 22be 1f2d 1ebe 2843 39bd

module.net.2.module.0.weight f4 [32, 32, 3]
0.14275514 -0.057185832 0.18287633 -0.02302918 -0.043819807 -0.08077166 0.08732226 -0.07003355
-0.015003983 -0.06441248 -0.0064370707 0.040361032 0.085463405 0.12239566 -0.020009985 -0.03908119
0.0048772916 0.15044145 0.0010016741 0.055286836 0.048808217 -0.053205833 -0.06544572 0.07767518
0.020030685 -0.010775358 -0.017560512 0.0598593 -0.06709962 0.10463307 0.022793705 0.020219687
0.010554482 0.10551212 -0.027820233 -0.07426109 -0.04648553 0.036579754 -0.05348014 0.0065466566
-0.13010421 -0.07799526 -0.0032669427 -0.043412 -0.07116565 0.0034845788 0.025370806 -0.11061212
-0.047289386 -0.1612404 -0.08071384 -0.07899603 0.12414589 0.016484916 0.12500486 0.008200437
-0.03576116 0.013703909 -0.00585252 -0.08789903 0.014595553 0.044519313 0.14489791 -0.117546715
-0.14196482 -0.08257478 -0.06866046 -0.01643399 -0.013781783 0.0037366278 0.04781132 0.14322452
0.015501343 -0.04925533 0.0740776 0.012658884 -0.030094478 0.10750293 -0.035791982 -0.10765272
0.08686782 0.037080623 0.06980329 0.0034240084 0.017240923 0.03362038 0.063034445 -0.08086481
-0.08401389 0.00446216 0.018398244 -0.06471002 0.065651104 0.14897022 0.07526999 0.10146953
0.0401543 -0.031421773 -0.045266785 0.08774451 0.009169812 0.14497589 0.05936553 -0.07333626
-0.093421966 -0.042028174 0.075023234 0.07192039 -0.055648156 0.024635667 -0.030223386 0.18027022
0.084138274 -0.12161101 0.06371841 0.07148631 0.11430223 -0.12750061 -0.13188279 -0.11975616
0.092933 -0.009664676 -0.020596523 0.012333909 0.059036817 -0.1489799 0.045388363 0.07463027
0.21274434 0.028370835 0.0700236 0.13209856 0.1465399 0.10678378 0.021324158 0.06914437
0.10321623 0.00079766236 -0.029073916 -0.00010918325 -0.07851354 -0.07388111 0.056123327 -0.018342605
-0.040927272 0.021585954 -0.07388211 -0.072315715 0.061714876 -0.16212773 0.029719898 0.14071849
-0.008627353 0.070806146 -0.0924373 0.0966383 0.08730268 -0.06117981 0.003391256 0.0070153037
0.08670391 0.011198647 0.011374757 0.08453632 -0.11272925 0.025973482 -0.09261083 0.0957038
-0.01614315 0.026138993 -0.052753847 0.048920777 0.007759725 0.061382256 -0.0941453 -0.05035135
-0.05745512 0.17832775 0.054798435 0.09196648 -0.037851296 -0.008887517 -0.12501381 0.1555406
0.15186729 0.08655943 0.03109032 0.080323085 -0.04865133 0.043409284 0.10300863 -0.111676745
-0.04477109 0.0034039025 -0.11341301 0.07959874 -0.046643186 0.119096756 0.14470781 -0.064052224
-0.01788916 -0.007197955 0.010034756 0.13622268 -0.07768437 -0.08803068 -0.04264822 0.03194611
0.08406219 0.039566822 -0.031700503 0.06241313 0.12539236 -0.08720461 -0.032332722 0.0057471194
-0.049678996 -0.047040056 0.0023573202 0.042357516 0.12266974 0.033788044 -0.049138166 -0.07704151
0.12110331 0.06369194 -0.016143635 0.028198428 -0.10722273 -0.04475234 -0.03928917 0.031840514
0.055985153 -0.06236435 0.07569142 0.057491966 0.08069038 0.0060228207 -0.06470341 -0.023913788
0.111607745 -0.10651018 -0.0606691 0.0584402 -0.04060698 0.06782817 0.0029322123 -0.12982261
-0.0002275423 -0.0017712916 -0.021000437 -0.13402912 -0.07388892 -0.18382452 -0.1625554 -0.0987013
00000000: 672e 123e b13b 6abd ef43 3b3e b1a7 bcbc
00000010: 667c 33bd 9d6b a5bd 03d6 b23d c06d 8fbd
00000020: 44d3 75bc b1ea 83bd 10ee d2bb 9c51 253d
00000030: 7007 af3d 93aa fa3d fbeb a3bc 9913 20bd
00000040: b0d1 9f3b 530d 1a3e 9b4a 833a 7374 623d
00000050: 20eb 473d 5cee 59bd 6808 86bd 2a14 9f3d
00000060: 6417 a43c 218b 30bc 10db 8fbc 062f 753d
00000070: 876b 89bd dd49 d63d ddb9 ba3c c2a3 a53c
00000080: b5ec 2c3c bd16 d83d 42e7 e3bc 3316 98bd
00000090: 9c67 3ebd a7d4 153d fe0d 5bbd 5685 d63b
000000a0: 0a3a 05be fbbb 9fbd 341a 56bb c8d0 31bd
000000b0: 4cbf 91bd 885d 643b 70d6 cf3c 9b88 e2bd
000000c0: 84b2 41bd 341c 25be 4c4d a5bd acc8 a1bd
000000d0: 3340 fe3d 600b 873c 4601 003e 205b 063c
000000e0: 4b7a 12bd 5c86 603c 7fc6 bfbb 6804 b4bd
000000f0: 3022 6f3c e259 363d 1e60 143e 55bc f0bd
00000100: 3a5f 11be f71c a9bd db9d 8cbd 93a0 86bc
00000110: fdcc 61bc 36e2 743b cdd5 433d 73a9 123e
00000120: 58f9 7d3c f5bf 49bd ffb5 973d 3567 4f3c
00000130: b288 f6bc 7f2a dc3d 9d9a 12bd 0779 dcbd
00000140: c1e7 b13d dae1 173d 07f5 8e3d 5465 603b
00000150: d63c 8d3c 86b5 093d 3418 813d 739c a5bd
00000160: 790f acbd 5037 923b eab7 963c b086 84bd
00000170: 1674 863d a68b 183e 2727 9a3d 42cf cf3d
00000180: d678 243d 1eb4 00bd aa69 39bd 65b3 b33d
00000190: fb3c 163c 8f74 143e 4529 733d 5231 96bd
000001a0: 0454 bfbd bc25 2cbd c8a5 993d ff4a 933d
000001b0: 52ef 63bd bdd0 c93c 0997 f7bc c298 383e
000001c0: b050 ac3d 310f f9bd cc7e 823d 6a67 923d
000001d0: 4a17 ea3d 858f 02be 480c 07be b842 f5bd
000001e0: a853 be3d 9758 1ebc 0aba a8bc 2a14 4a3c
000001f0: 97d0 713d 308e 18be 26e9 393d c1d7 983d
00000200: a7d9 593e f469 e83c 8868 8f3d d844 073e
00000210: 8e0e 163e 74b1 da3d 00b0 ae3c 909b 8d3d
00000220: 0863 d33d 371a 513a 6c2c eebc 50f9 e4b8
00000230: b5cb a0bd fb4e 97bd 93e1 653d 3b43 96bc
00000240: 5ba3 27bd 07d5 b03c 814f 97bd 431a 94bd
00000250: bdc8 7c3d d004 26be 2577 f33c 8218 103e
00000260: be59 0dbc d002 913d c44f bdbd 4dea c53d
00000270: bfcb b23d ae97 7abd d63f 5e3b a2e0 e53b
00000280: d291 b13d 887a 373c 305d 3a3c 6121 ad3d
00000290: 98de e6bd 57c6 d43c bfaa bdbd 5b00 c43d
000002a0: a43e 84bc 7121 d63c 6b14 58bd 2761 483d
000002b0: 4b45 fe3b f66b 7b3d 40cf c0bd 383d 4ebd
000002c0: 0f56 6bbd 8d9b 363e 5374 603d ec58 bc3d
000002d0: f609 1bbd f39c 11bc 9f03 00be 0946 1f3e
000002e0: 1983 1b3e 1246 b13d 20b1 fe3c 6e80 a43d
000002f0: 9e46 47bd efcd 313d 30f6 d23d c7b6 e4bd
00000300: e461 37bd 0214 5f3b 1545 e8bd aa04 a33d
00000310: ed0c 3fbd 00e9 f33d 492e 143e d02d 83bd
00000320: 4a8c 92bc d3dc ebbb d168 243c f57d 0b3e
00000330: fc18 9fbd 6e49 b4bd e6af 2ebd edd9 023d
00000340: cc28 ac3d d210 223d 63d8 01bd e9a4 7f3d
00000350: db66 003e 5598 b2bd 516f 04bd 5552 bc3b
00000360: 347c 4bbd 13ad 40bd 457d 1a3b 137f 2d3d
00000370: 463a fb3d 5565 0a3d 1a45 49bd f0c7 9dbd
00000380: 0305 f83d eb70 823d a83f 84bc 6400 e73c
00000390: 9797 dbbd 3b4e 37bd aeed 20bd 336b 023d
000003a0: b050 653d c371 7fbd 1a04 9b3d b27c 6b3d
000003b0: ff40 a53d 155b c53b 3983 84bd d9e6 c3bc
000003c0: 9a92 e43d 0222 dabd 2a80 78bd fe5e 6f3d
000003d0: 8153 26bd 7fe9 8a3d 5c2a 403b 38f0 04be
000003e0: 6c98 6eb9 af2a e8ba 1c09 acbc ee3e 09be
000003f0: 1353 97bd 7f3c 3cbe ec74 26be e823 cabd

module.net.2.module.0.bias f4 [32]
-0.05799772 -0.07399112 0.0010319265 0.039589893 -0.018387062 -0.052571155 0.07246543 0.053960204
0.011253025 0.101267256 0.037545085 -0.0991067 0.072987184 0.017896999 0.04801224 0.09653705
-0.06660263 -0.09737789 -0.084495015 -0.023167627 -0.045523092 -0.09468003 -0.046248652 0.09810198
0.08598365 -0.07588372 0.047652353 0.038870346 0.08821346 -0.06798899 -0.038226787 -0.008848833
00000000: 048f 6dbd a888 97bd b541 873a 0329 223d
00000010: 77a0 96bc da54 57bd c168 943d 6005 5d3d
00000020: 9c5e 383c 3565 cf3d e0c8 193d 74f8 cabd
00000030: 4e7a 953d ba9c 923c 7ca8 443d 38b5 c53d
00000040: f666 88bd 0f6e c7bd b90b adbd 09ca bdbc
00000050: 6c76 3abd 9be7 c1bd 3a6f 3dbd b1e9 c83d
00000060: 3218 b03d ec68 9bbd 1d2f 433d 8336 1f3d
00000070: 42a9 b43d d03d 8bbd b193 1cbd b2fa 10bc

module.net.3.module.0.weight f4 [32, 32, 3]
-0.037310224 -0.09472897 0.017897073 -0.14017488 -0.012675983 -0.047339763 0.037087403 -0.0029582714
0.05336193 -0.0047693914 -0.20398636 -0.20909265 0.14210223 0.03563358 0.109269194 -0.11076008
0.118351616 0.02600259 0.021760032 0.12028505 0.06744567 0.11730623 -0.031685058 -0.03802323
0.12127545 0.027524764 -0.034001168 0.13352613 0.010380475 0.10584502 -0.019550767 0.116568714
-0.110560425 0.06424439 0.070906185 0.13453853 -0.11297028 0.12552556 -0.05180121 0.085733354
0.06158921 0.18684694 0.06270758 -0.020963969 0.0632749 -0.06914262 -0.19218257 -0.012225699
0.006673702 -0.011575983 0.0431094 0.00375603 -0.018144296 -0.018401762 -0.026342828 0.0113057755
-0.10217518 -0.018816944 -0.06527327 -0.1285344 -0.112488486 0.075589836 -0.13847548 0.1160898
0.0987967 -0.1190976 0.06410252 0.082294166 0.12843536 -0.066091664 -0.0782678 0.10728496
-0.0029026829 -0.055518158 0.029122869 0.043420587 -0.08668107 -0.0077599264 -0.13167608 0.024381232
0.010745521 0.003463133 -0.011908547 -0.17401107 0.100327946 -0.02467143 0.07064853 -0.04737035
0.0149026485 -0.10257009 -0.0030567492 0.060983602 0.00773438 0.045296773 -0.028789502 0.06482725
-0.13855624 -0.13909741 -0.14987715 -0.021801218 -0.006976211 0.08317609 -0.07849497 0.0027320764
0.046614338 0.1059531 0.17183281 0.1584453 0.0038235192 0.0064030336 -0.09961356 0.09856856
0.091721036 -0.015618677 0.094422944 0.06941806 -0.018171366 -0.12756914 -0.038838547 -0.023976367
-0.17718004 -0.10977552 -0.0077952165 -0.18254665 -0.027300166 -0.12323593 0.10955145 0.08414234
0.17198169 -0.041708592 -0.02449708 -0.13702933 0.08535964 -0.0043970454 0.16226962 -0.0429188
-0.047345515 -0.0769724 -0.076933354 -0.07038855 0.11754888 0.13096632 -0.08567449 0.013732793
-0.017679648 -0.04306849 -0.046450686 -0.15977782 -0.08487923 -0.064504065 0.07778922 0.050345782
0.032846503 -0.01740212 -0.06663891 0.020118522 0.07388761 0.043304812 0.16740103 -0.0008941933
-0.057491608 -0.06658096 0.038616657 -0.029826052 0.030742796 0.054155704 -0.05567474 -0.00015065513
-0.048191987 0.05048709 -0.0684684 -0.031746373 0.019605378 0.12411195 -0.02873255 0.050157547
0.040682666 0.18880954 -0.017425857 0.20641409 -0.027891152 -0.040011168 0.05728342 -0.00586121
-0.0022347134 0.13153201 -0.15213227 -0.03650434 0.13539052 -0.018979497 -0.06782915 -0.05355375
-0.001992366 -0.049529884 -0.113512516 0.09847686 -0.051768895 -0.06436851 -0.029709216 0.0714082
0.038482413 0.07531287 -0.018405002 0.07617367 0.109198615 0.0018041859 -0.034682386 -0.01687033
-0.081195824 0.13220476 0.00010717304 -0.037314203 0.062659815 -0.14868122 -0.03588098 -0.08238746
0.080510534 -0.06837769 -0.06407202 -0.14511125 -0.18949188 -0.1772688 -0.07846787 0.05126635
0.030514013 -0.04571974 -0.09584133 -0.09498055 0.040003132 0.02279955 0.033753023 -0.042539682
-0.023062078 0.051263984 -0.053499553 0.030976372 -0.11790574 0.06474877 0.013864518 0.077692196
-0.059127722 0.0664471 -0.02421836 0.034767505 0.028501637 -0.097017966 0.026491832 0.020181168
-0.061348163 0.0562792 -0.030066118 -0.0011693285 0.1092671 -0.083643556 0.07023479 -0.030339338
00000000: 9bd2 18bd 4301 c2bd e29c 923c 018a 0fbe
00000010: edae 4fbc 57e7 41bd f6e8 173d 8fdf 41bb
00000020: 0a92 5a3d 8e48 9cbb cde1 50be 621c 56be
00000030: 3f83 113e 84f4 113d 87c8 df3d 2ed6 e2bd
00000040: 5562 f23d 6203 d53c 1842 b23c 0258 f63d
00000050: f520 8a3d 403e f03d 31c8 01bd 3fbe 1bbd
00000060: 435f f83d 9d7b e13c cf44 0bbd 13bb 083e
00000070: de12 2a3c 46c5 d83d ee28 a0bc 94bb ee3d
00000080: 816d e2bd 9092 833d 4337 913d 78c4 093e
00000090: f65c e7bd c689 003e 812d 54bd f894 af3d
000000a0: f844 7c3d ce54 3f3e d56c 803d a1bc abbc
000000b0: 4596 813d a59a 8dbd 82cb 44be 4c4e 48bc
000000c0: 12af da3b 31a9 3dbc 7b93 303d ba27 763b
000000d0: 59a3 94bc 4bbf 96bc eacc d7bc dc3b 393c
000000e0: 3941 d1bd fe25 9abc fead 85bd 869e 03be
000000f0: 5d60 e6bd d8ce 9a3d 84cc 0dbe 7dc0 ed3d
00000100: ed55 ca3d 71e9 f3bd 2f48 833d d889 a83d
00000110: 8f84 033e 115b 87bd de4a a0bd 38b8 db3d
00000120: f03a 3ebb 0267 63bd 1593 ee3c c9d9 313d
00000130: d885 b1bd fb46 febb 18d6 06be 26bb c73c
00000140: fb0d 303c bbf5 623b 111c 43bc f52f 32be
00000150: bd78 cd3d bd1b cabc 2db0 903d 6a07 42bd
00000160: 3d2a 743c 4410 d2bd be53 48bb f1c9 793d
00000170: af70 fd3b 1c89 393d f6d7 ebbc 26c4 843d
00000180: b0e1 0dbe 8d6f 0ebe 6579 19be 7898 b2bc
00000190: b398 e4bb 3a58 aa3d f9c1 a0bd a30c 333b
000001a0: adee 3e3d f0fd d83d f1f4 2f3e 7c3f 223e
000001b0: 0294 7a3b 8ad0 d13b 3202 ccbd 50de c93d
000001c0: 3dd8 bb3d 7be5 7fbc d160 c13d 0e2b 8e3d
000001d0: 1edc 94bc 7ca1 02be 2b15 1fbd 166a c4bc
000001e0: af6e 35be fdd1 e0bd 046f ffbb 82ed 3abe
000001f0: 99a4 dfbc 1f63 fcbd 835c e03d d252 ac3d
00000200: f81b 303e a1d6 2abd 1aae c8bc 6b51 0cbe
00000210: 09d1 ae3d 1715 90bb 022a 263e a0cb 2fbd
00000220: 5fed 41bd b5a3 9dbd 3c8f 9dbd df27 90bd
00000230: 78bd f03d 091c 063e 1b76 afbd 82ff 603c
00000240: e9d4 90bc 9668 30bd 1343 3ebd cc9c 23be
00000250: 29d5 adbd b51a 84bd f44f 9f3d 6137 4e3d
00000260: 0e8a 063d e48e 8ebc fb79 88bd 99cf a43c
00000270: 6352 973d 6360 313d 2d6b 2b3e 4c68 6aba
00000280: 527c 6bbd 995b 88bd 802c 1e3d c455 f4bc
00000290: 51d8 fb3c 5fd2 5d3d 320b 64bd 2ef9 1db9
000002a0: f664 45bd 8dcb 4e3d 2939 8cbd 7c08 02bd
000002b0: 759b a03c 682e fe3d 8660 ebbc 0072 4d3d
000002c0: dea2 263d 4a57 413e acc0 8ebc 375e 533e
000002d0: fc7b e4bc c0e2 23bd 05a2 6a3d 650f c0bb
000002e0: 4574 12bb 54b0 063e 90c8 1bbe 9385 15bd
000002f0: d0a3 0a3e e47a 9bbc 02ea 8abd 2d5b 5bbd
00000300: 5b92 02bb d9df 4abd 4079 e8bd 3cae c93d
00000310: 9f0b 54bd a3d3 83bd be60 f3bc 763e 923d
00000320: bc9f 1d3d a23d 9a3d 16c6 96bc f100 9c3d
00000330: 86a3 df3d 6f7a ec3a 1e0f 0ebd a533 8abc
00000340: ff49 a6bd af60 073e 16c2 e038 c7d6 18bd
00000350: ca53 803d e43f 18be eff7 12bd c2ba a8bd
00000360: b5e2 a43d 9a09 8cbd 3138 83bd 0b98 14be
00000370: 290a 42be f485 35be c3b3 a0bd aafc 513d
00000380: 86f8 f93c 9f44 3bbd 7648 c4bd 2a85 c2bd
00000390: 53da 233d 1fc6 ba3c 9c40 0a3d 173e 2ebd
000003a0: afec bcbc 2ffa 513d 5922 5bbd 29c2 fd3c
000003b0: 9178 f1bd 019b 843d 0128 633c 161d 9f3d
000003c0: e92f 72bd 6b15 883d 9565 c6bc 5f68 0e3d
000003d0: 447c e93c 5bb1 c6bd 6605 d93c fa52 a53c
000003e0: 3648 7bbd 0585 663d 384d f6bc 2744 99ba
000003f0: 6ec7 df3d 504d abbd 42d7 8f3d 348a f8bc

module.net.3.module.0.bias f4 [32]
-0.034376726 -0.042456932 0.085681036 0.0024455173 -0.055405416 -0.05440444 -0.07019033 -0.012338386
-0.053592492 0.037975613 0.0576103 0.03246195 0.03281357 -0.054522302 -0.009150769 0.05625897
0.0004874833 -0.051866774 -0.05028201 -0.037959736 0.08487596 -0.10521383 0.059965737 -0.022975951
-0.048849244 -0.045497894 0.00071525 0.06572853 0.07023964 0.028240504 0.07840115 -0.023851808
00000000: 9cce 0cbd 52e7 2dbd 8a79 af3d f944 203b
00000010: caf0 62bd 31d7 5ebd f3bf 8fbd f126 4abc
00000020: cd83 5bbd 518c 1b3d c7f8 6b3d d2f6 043d
00000030: 8667 063d c752 5fbd 1bed 15bc ce6f 663d
00000040: e794 ff39 4172 54bd 82f4 4dbd ab7b 1bbd
00000050: 73d3 ad3d 597a d7bd a29e 753d 1038 bcbc
00000060: 2516 48bd 005c 3abd 9d7f 3b3a ae9c 863d
00000070: cdd9 8f3d a158 e73c c890 a03d de64 c3bc

module.net.4.module.0.weight f4 [32, 32, 3]
0.21173882 0.049834512 0.07864163 -0.16691016 -0.046030637 -0.1246444 -0.06877412 -0.035461463
-0.12517838 0.032858815 -0.10241418 -0.06257632 0.14208665 -0.05036188 -0.01013638 0.055301886
-0.101684034 0.038074076 -0.048281163 0.058465265 -0.09135906 0.059198406 0.019766849 0.03198443
0.07025355 -0.07664409 0.06057001 0.20784248 0.1052469 0.08555944 -0.1850281 -0.07186547
-0.07040035 0.14938822 -0.011859707 0.1909679 -0.02164319 0.0702927 0.09092053 0.19794086
-0.055860646 0.1964828 0.15651818 0.01948717 -0.128799 -0.14905548 -0.057225067 -0.054623045
-0.010471262 -0.059609383 0.038055275 -0.12783934 -0.07354239 -0.013989494 -0.23919177 -0.07252163
-0.12144907 -0.20322816 -0.05632865 -0.03415992 -0.03746798 -0.052297685 -0.083921485 0.023890385
0.03438951 0.11824159 0.10154636 0.029822802 0.08726323 -0.008584646 -0.11129948 -0.11252799
0.054528467 0.056143004 0.10012939 0.22809188 0.04074708 0.027025474 0.06315479 -0.047564566
0.05719586 -0.11836682 -0.1508663 -0.11699463 0.07998502 0.033351034 0.101465486 0.018470123
-0.10823304 -0.25690532 0.14575778 0.13708393 0.08190415 0.048679758 0.07405812 0.06788149
-0.30487266 -0.13570188 -0.037529577 0.10355246 -0.10612763 0.04091321 0.1123302 -0.023700846
0.07702665 0.041332874 0.083517805 -0.10343774 -0.17578314 -0.024001705 0.064206034 0.036943175
0.03691051 0.0759815 0.046842016 0.07433521 0.010120876 -0.060128085 -0.062390547 0.01560114
-0.08583024 -0.10112109 0.013794229 0.04278219 -0.017284496 0.038794298 0.080947496 0.07385209
-0.042077083 -0.031062946 0.08369205 -0.034333047 0.11311595 0.07370116 0.10298526 0.090246916
-0.0187137 -0.016632872 -0.05581618 0.1100316 0.09292426 0.053061422 0.039767202 0.09679317
0.009973144 -0.05744959 0.0033143056 -0.18678822 0.0016131222 0.12442451 -0.03934501 0.02881794
0.042076856 0.0054123444 0.022173641 -0.07643825 -0.04530031 -0.06106617 0.001525667 0.12616906
-0.0294665 0.078094594 -0.045380734 0.0011847557 0.03400714 -0.09698518 0.10283894 -0.0822461
0.0755857 0.011754378 -0.02570933 -0.21280706 -0.06232415 -0.073344536 0.16182855 0.07865371
-0.06415955 0.11268351 -0.0209044 -0.031427894 -0.14438643 -0.06565016 -0.00015069841 -0.046393067
-0.087035775 -0.049939517 -0.073512755 0.0031191662 -0.1145237 0.19719407 0.09785983 -0.02762066
0.108832255 -0.087937035 -0.12844072 0.015856432 0.022959892 0.12615255 -0.061649974 -0.1415216
0.018062038 0.05568779 0.057160664 0.117194325 0.019492583 0.06994027 0.015709376 0.04923911
0.09470257 -0.07649716 -0.0696771 0.07977842 0.03950252 0.15272635 -0.019881118 0.07059816
-0.10152665 0.093277 -0.036132887 -0.05105882 0.052179076 0.11010183 -0.00812805 -0.009856391
0.051131636 -0.055503998 -0.030990405 -0.07673512 0.07633918 0.06400087 0.012326928 0.013092661
-0.10260898 -0.13449566 0.025473256 0.0030647765 0.05519661 -0.032996688 0.040783703 0.05407464
0.11900778 0.08476367 0.041842643 0.04249131 -0.005861865 0.07214315 -0.19432694 0.021364054
0.029856637 0.019785754 0.039248683 -0.05423134 -0.09918204 -0.08646011 0.080481544 -0.03245933
00000000: 10d2 583e 461f 4c3d dd0e a13d 7fea 2abe
00000010: 9f8a 3cbd 9045 ffbd 72d9 8cbd 0a40 11bd
00000020: c32e 00be f796 063d 87be d1bd 0328 80bd
00000030: 2a7f 113e 4248 4ebd 0f13 26bc 3b84 623d
00000040: b83f d0bd 90f3 1b3d 78c2 45bd 4679 6f3d
00000050: 751a bbbd 077a 723d 16ee a13c 1b02 033d
00000060: 18e1 8f3d 94f7 9cbd 4218 783d a9d4 543e
00000070: b08b d73d ca39 af3d 0278 3dbe 342e 93bd
00000080: 0f2e 90bd 3af9 183e 374f 42bc 178d 433e
00000090: 0f4d b1bc 9ef5 8f3d 8b34 ba3d 02b1 4a3e
000000a0: 22ce 64bd ca32 493e 4d46 203e 8fa3 9f3c
000000b0: e3e3 03be 00a2 18be d564 6abd 6abc 5fbd
000000c0: a88f 2bbc f828 74bd d9df 1b3d 51e8 02be
000000d0: 649d 96bd 3134 65bc b0ee 74be 3886 94bd
000000e0: 4aba f8bd 0b1b 50be dfb8 66bd 46eb 0bbd
000000f0: 0678 19bd 1936 56bd 07df abbd c5b5 c33c
00000100: 04dc 0c3d a628 f23d 8af7 cf3d f34e f43c
00000110: 10b7 b23d 9da6 0cbc fbf0 e3bd 1375 e6bd
00000120: 3e59 5f3d 35f6 653d a310 cd3d eb90 693e
00000130: 69e6 263d 8764 dd3c 4c57 813d 10d3 42bd
00000140: 3546 6a3d 4e6a f2bd b27c 1abe e19a efbd
00000150: 30cf a33d 189b 083d 23cd cf3d a84e 973c
00000160: 49a9 ddbd 1889 83be 8741 153e bb5f 0c3e
00000170: 5dbd a73d 6d64 473d c9ab 973d 7305 8b3d
00000180: 4518 9cbe 6ff5 0abe 9db8 19bd 5013 d43d
00000190: 7159 d9bd 9c94 273d 600d e63d 4728 c2bc
000001a0: 26c0 9d3d a94c 293d 620b ab3d 2ad7 d3bd
000001b0: 7f00 34be 399f c4bc 747e 833d ba51 173d
000001c0: 7a2f 173d 309c 9b3d 6add 3f3d 0f3d 983d
000001d0: 08d2 253c de48 76bd 3b8d 7fbd ed9b 7f3c
000001e0: c4c7 afbd 9318 cfbd 3101 623c 613c 2f3d
000001f0: 3798 8dbc c5e6 1e3d cdc7 a53d c43f 973d
00000200: 0559 2cbd b877 febc bd66 ab3d cfa0 0cbd
00000210: 56a9 e73d a2f0 963d f0e9 d23d 60d3 b83d
00000220: 794d 99bc a941 88bc 829f 64bd 3f58 e13d
00000230: 134f be3d ef56 593d efe2 223d 7f3b c63d
00000240: 6666 233c 4350 6bbd d234 593b 6945 3fbe
00000250: 666f d33a 47d2 fe3d 3c28 21bd 9a13 ec3c
00000260: c858 2c3d 095a b13b 7fa5 b53c a88b 9cbd
00000270: d18c 39bd 8520 7abd e4f8 c73a 7632 013e
00000280: bb63 f1bc 0ff0 9f3d 26e1 39bd ce49 9b3a
00000290: 124b 0b3d 2ba0 c6bd 399d d23d a570 a8bd
000002a0: adcc 9a3d 6f95 403c 5f9c d2bc 18ea 59be
000002b0: 9c47 7fbd a935 96bd 62b6 253e 3215 a13d
000002c0: 1566 83bd 9dc6 e63d b43f abbc 89ba 00bd
000002d0: 09da 13be 9773 86bd cc04 1eb9 a806 3ebd
000002e0: d03f b2bd 618d 4cbd db8d 96bd ed6a 4c3b
000002f0: 678b eabd 3eed 493e bc6a c83d b944 e2bc
00000300: 72e3 de3d 5518 b4bd f785 03be 59e5 813c
00000310: 6216 bc3c 222e 013e af84 7cbd 0aeb 10be
00000320: d7f6 933c e118 643d 4d21 6a3d 9403 f03d
00000330: e9ae 9f3c d83c 8f3d f3b0 803c f3ae 493d
00000340: 6cf3 c13d 8baa 9cbd deb2 8ebd de62 a33d
00000350: 65cd 213d 4c64 1c3e badd a2bc c595 903d
00000360: 34ed cfbd 0308 bf3d 1400 14bd 0e23 51bd
00000370: bab9 553d 117d e13d 832b 05bc b37c 21bc
00000380: 686f 513d 2958 63bd 97df fdbc 4d27 9dbd
00000390: b757 9c3d e312 833d e2f6 493c 9a82 563c
000003a0: a824 d2bd 3bb9 09be 4aad d03c 6bda 483b
000003b0: d715 623d 8927 07bd d00c 273d 5f7d 5d3d
000003c0: 5aba f33d 9398 ad3d 3163 2b3d 5e0b 2e3d
000003d0: e314 c0bb cabf 933d a4fd 46be ab03 af3c
000003e0: e895 f43c bc15 a23c 3ac3 203d ae21 5ebd
000003f0: f41f cbbd 0012 b1bd 82d3 a43d 13f4 04bd

module.net.4.module.0.bias f4 [32]
0.044953234 -0.0045922836 -0.06331148 0.09413444 -0.015974568 0.14398551 -0.019353732 -0.013842188
0.114346005 -0.07830484 -0.07336574 -0.019256018 0.0056138807 -0.100353435 0.022775028 0.050233997
-0.017787082 -0.08815385 0.018914845 0.10112257 0.027717005 -0.0796206 0.04954396 -0.018618818
0.044118583 0.011504713 -0.068125844 -0.031241266 -0.041622438 -0.091092154 -0.09134265 0.055914957
00000000: e220 383d de7a 96bb 73a9 81bd 8fc9 c03d
00000010: 19dd 82bc f070 133e b88b 9ebc 58ca 62bc
00000020: 3d2e ea3d 4a5e a0bd c740 96bd ccbe 9dbc
00000030: a5f4 b73b 1a86 cdbd b292 ba3c 2ac2 4d3d
00000040: 37b6 91bc 018a b4bd 4ef3 9a3c 5a19 cf3d
00000050: c60e e33c 2010 a3bd 9bee 4a3d 7e86 98bc
00000060: b0b5 343d 447e 3c3c 9085 8bbd afed ffbc
00000070: 4a7c 2abd 868e babd db11 bbbd 1507 653d

module.net.5.weight f4 [32, 32, 3]
-0.2831888 -0.14590473 -0.22831082 0.14534861 0.044484355 0.008360571 0.07438461 -0.037164673
0.11085632 -0.061973844 0.082007974 0.19877343 -0.03071047 0.02450906 -0.19053775 0.13150206
-0.069177136 0.055370536 -0.10768375 0.011650822 -0.05190683 -0.04794517 -0.07224924 0.045953706
-0.12116695 -0.07776828 -0.122547045 -0.100427404 0.06812491 0.104034245 0.121416725 -0.01615199
0.18325639 -0.122695036 0.08636487 -0.06634406 -0.055049356 0.015395704 0.12569793 -0.08179101
0.033570237 -0.15999855 -0.044457894 0.05552345 -0.0067271963 0.09746201 0.10685464 0.13155767
0.1355445 0.052669253 0.099855736 0.07311597 0.06000127 0.06685467 -0.05290805 0.043701287
-0.033767924 0.056724954 0.08952733 -0.03808803 0.07647638 0.030958328 0.06152985 -0.05747105
-0.05373725 0.04594405 0.012699388 -0.07707692 -0.14707212 -0.12479709 -0.023460647 -0.048467606
0.17399493 0.057287056 0.037160758 -0.14438136 -0.04916576 -0.1349165 -0.1321145 -0.11736063
-0.19438852 -0.013297442 -0.0054451087 -0.016413938 0.09894287 0.15050206 0.047945917 -0.11803775
0.009614822 -0.06790104 -0.19064213 -0.0693948 -0.286791 0.12482293 -0.041127883 0.10927045
0.33788168 0.09178093 0.26195595 -0.07514558 0.044631105 -0.06138321 0.02459683 -0.098160006
-0.15903755 0.058261376 -0.09998557 -0.13702062 0.07113885 0.0057520173 0.21819824 -0.1412777
-0.08394531 0.020687105 0.12189154 -0.0016244971 0.11211429 -0.04391731 0.022919616 -0.06565152
0.12713595 0.07227722 0.17979641 0.10677995 0.036401477 0.04200544 -0.08012313 -0.014286512
-0.14274679 0.20920272 0.017685574 0.10249548 -0.01833085 -0.09023234 -0.06770238 0.10582489
-0.023162922 0.09282205 -0.023519564 -0.02646954 -0.014653288 -0.14015305 -0.03227837 -0.10408283
-0.15464795 -0.040819477 -0.1599989 0.039821815 0.037575155 -0.1336818 0.05294541 -0.020057362
0.014592429 -0.12413205 -0.07305537 -0.018936306 0.021037884 0.040031172 -0.058309663 -0.048206598
0.121106334 0.0063300994 0.00538551 -0.0254883 0.12394511 0.17062055 -0.060274478 -0.080349684
-0.09347079 -0.1003931 -0.08345358 0.12944783 0.08641802 0.20910248 0.14893329 0.094956316
0.16537629 -0.039908644 -0.09393897 0.05818049 -0.06218236 -0.119387515 -0.07744008 0.004174413
0.078660555 -0.043031987 0.23468533 0.13738036 0.24754865 -0.10655909 -0.06017073 -0.162065
0.17012559 0.07292812 0.12103509 -0.16499284 0.034263063 -0.05893588 -0.061380483 -0.08586669
-0.122876845 0.067014515 -0.046943247 -0.11871676 0.012424033 0.018226482 0.13752592 -0.06164759
0.015060385 0.02123697 0.11530672 -0.013095637 0.045528445 -0.045752656 0.04541805 -0.03891547
0.101628944 0.06624094 0.15063289 0.061287116 -0.0015149479 -0.028740106 -0.070144676 0.01820602
-0.08265497 0.15167835 -0.032703947 -0.007414129 0.07494124 -0.03468412 0.0054835523 0.034824733
-0.0587379 0.12213864 0.000941681 -0.032000896 0.056196414 -0.08097145 -0.11897734 -0.16662477
-0.03787041 0.0024142433 -0.093404144 0.046598893 -0.04994805 -0.077954166 0.013379977 0.022860868
-0.03433221 -0.12684318 0.025496121 -0.051040396 0.034379836 0.06995543 0.010960008 -0.095033616
00000000: 1ffe 90be 0d68 15be 50ca 69be 44d6 143e
00000010: 3a35 363d c7fa 083c f556 983d fc39 18bd
00000020: a308 e33d 49d8 7dbd ccf3 a73d 438b 4b3e
00000030: 8694 fbbc 39c7 c83c 541c 43be 7aa8 063e
00000040: beac 8dbd 37cc 623d 4c89 dcbd 17e3 3e3c
00000050: 429c 54bd 2862 44bd 69f7 93bd f439 3c3d
00000060: 6126 f8bd fa44 9fbd f2f9 fabd e2ac cdbd
00000070: 1385 8b3d e80f d53d 55a9 f83d 2e51 84bc
00000080: 90a7 3b3e 8947 fbbd 11e0 b03d 65df 87bd
00000090: 6f7b 61bd 433e 7c3c f5b6 003e 0c82 a7bd
000000a0: f280 093d a9d6 23be 7b19 36bd 8f6c 633d
000000b0: d06f dcbb 2a9a c73d 9bd6 da3d 0eb7 063e
000000c0: 2dcc 0a3e b7bb 573d 2a81 cc3d d3bd 953d
000000d0: e4c3 753d 1aeb 883d 1db6 58bd 1f00 333d
000000e0: 3c50 0abd 6d58 683d 1b5a b73d 3202 1cbd
000000f0: a69f 9c3d 529c fd3c b906 7c3d c466 6bbd
00000100: 971b 5cbd d42f 3c3d 1811 503c 81da 9dbd
00000110: 139a 16be 9e95 ffbd 8b30 c0bc f885 46bd
00000120: ba2b 323e d5a5 6a3d e135 183d b5d8 13be
00000130: 0962 49bd 8d27 0abe 0649 07be c55a f0bd
00000140: c90d 47be 84dd 59bc e26c b2bb 8676 86bc
00000150: 8fa2 ca3d 361d 1a3e f062 443d c7bd f1bd
00000160: 7d87 1d3c b30f 8bbd b137 43be dc1e 8ebd
00000170: 45d6 92be 2aa3 ff3d b675 28bd 30c9 df3d
00000180: d4fe ac3e a4f7 bb3d 171f 863e ede5 99bd
00000190: 1bcf 363d f66c 7bbd 4b7f c93c 1d08 c9bd
000001a0: bdda 22be 7ba3 6e3d 3cc5 ccbd 224f 0cbe
000001b0: 3fb1 913d 6b7b bc3b 5c6f 5f3e 1aab 10be
000001c0: 85eb abbd 0178 a93c 46a2 f93d 14ed d4ba
000001d0: 2d9c e53d a3e2 33bd ebc1 bb3c 4e74 86bd
000001e0: ed2f 023e 1406 943d 8d1c 383e 72af da3d
000001f0: b719 153d e50d 2c3d 9817 a4bd f911 6abc
00000200: 372c 12be 3d39 563e 56e1 903c 26e9 d13d
00000210: 942a 96bc bccb b8bd 8ca7 8abd b8ba d83d
00000220: 2bc0 bdbc 7d19 be3d 1aac c0bc a6d6 d8bc
00000230: 5814 70bc 4884 0fbe 5336 04bd 6129 d5bd
00000240: 085c 1ebe 5332 27bd c0d6 23be 331c 233d
00000250: 68e8 193d e2e3 08be 49dd 583d 564f a4bc
00000260: 1515 6f3c f238 febd 0e9e 95bd 5020 9bbc
00000270: a457 ac3c baf7 233d 1dd6 6ebd 4874 45bd
00000280: 9906 f83d b96c cf3b ef78 b03b d7cc d0bc
00000290: efd6 fd3d 27b7 2e3e 5fe2 76bd 608e a4bd
000002a0: 9d6d bfbd e69a cdbd b6e9 aabd f98d 043e
000002b0: eefb b03d f61e 563e f881 183e 7578 c23d
000002c0: 6758 293e 3f77 23bd 1363 c0bd aa4e 6e3d
000002d0: eeb2 7ebd 7181 f4bd e898 9ebd 84c9 883b
000002e0: c918 a13d 4f42 30bd 5a51 703e 70ad 0c3e
000002f0: 657d 7d3e a73b dabd 9575 76bd 5ef4 25be
00000300: 6735 2e3e 575b 953d 3fe1 f73d e2f3 28be
00000310: 6d57 0c3d c066 71bd 1a6a 7bbd e0da afbd
00000320: dba6 fbbd e83e 893d 9047 40bd c621 f3bd
00000330: 2c8e 4b3c b44f 953c 98d3 0c3e 2f82 7cbd
00000340: d5bf 763c 27f9 ad3c ee25 ec3d 158f 56bc
00000350: 097c 3a3d 2367 3bbd 4708 3a3d d465 1fbd
00000360: d622 d03d 54a9 873d 823f 1a3e 3308 7b3d
00000370: 3791 c6ba 5f70 ebbc 03a8 8fbd cb24 953c
00000380: 0247 a9bd 9251 1b3e 93f4 05bd 39f2 f2bb
00000390: cb7a 993d f010 0ebd 5faf b33b 61a4 0e3d
000003a0: 2797 70bd d323 fa3d 24db 763a 5f13 03bd
000003b0: 362e 663d 5cd4 a5bd 64aa f3bd af9f 2abe
000003c0: 011e 1bbd 4838 1e3b ac4a bfbd 7bde 3e3d
000003d0: 5496 4cbd 6fa6 9fbd b137 5b3c b746 bb3c
000003e0: ee9f 0cbd 2ee3 01be 3edd d03c bc0f 51bd
000003f0: dfd1 0c3d cb44 8f3d 9b91 333c fca0 c2bd

module.net.5.bias f4 [32]
0.039806377 0.07715712 -0.037374236 -0.064681694 0.0017032269 0.06534429 -0.06234012 -0.026405644
-0.05693909 -0.06995741 0.048545923 0.007930897 -0.025417212 0.027241806 0.029805114 -0.07685582
-0.046343084 0.08539102 0.03530887 0.06806116 0.063383676 -0.042980958 0.02187929 -0.012599599
0.04367033 -0.07429933 0.07113565 -0.070582345 0.06827224 -0.055620678 0.07417093 0.008406418
00000000: 030c 233d 8d04 9e3d ba15 19bd d677 84bd
00000010: d03e df3a 3ad3 853d 5b58 7fbd a650 d8bc
00000020: f738 69bd d545 8fbd 17d8 463d 98f0 013c
00000030: c237 d0bc 352a df3c db29 f43c 9666 9dbd
00000040: 3fd2 3dbd 7de1 ae3d 09a0 103d a663 8b3d
00000050: 4dcf 813d cd0c 30bd 323c b33c 8c6e 4ebc
00000060: a9df 323d 3f2a 98bd 91af 913d 7a8d 90bd
00000070: 51d2 8b3d 82d2 63bd eee6 973d 13bb 093c

exp_avg f4 [32, 12, 2]
0.0046762647 -0.0020852224 -0.006435816 0.008571955 0.005994762 0.0053208414 0.0018471703 -0.00014068797
-0.0005125718 -0.0034921467 0.00010038403 0.00010799673 -0.0023146416 3.3724732e-06 0.0002057988 0.00086886727
-0.0005042358 -0.00037791333 -0.00042963904 0.00026815827 0.00072150864 0.0018243077 6e-45 -3.791439e-07
0.003433417 0.0038893418 0.017587608 0.0100430455 -0.0020754097 -0.0024916877 -0.0018963771 -0.001175782
0.00036723935 0.0036036782 0.00034501968 8.3250634e-05 0.00056452304 -0.0017348151 0.0044578793 0.0041947416
-4.7844194e-05 0.0007376859 0.009494392 0.0104607865 -0.0035973177 2.1409476e-05 7.407436e-06 4.7578338e-05
0.0034316324 0.0013170207 -0.000601568 0.00024342354 0.00018949917 -2.0613195e-05 0.001784121 0.0007629074
-0.0010581654 0.0038233865 -4.735563e-05 -2.1390748e-05 0.0033498446 -0.00057048013 -0.0031593274 -0.0027219297
0.00021305826 0.00010502486 -0.000106205436 -5.641108e-05 -0.00083549373 0.00013239331 -4.399588e-07 -1.3111279e-06
0.0031999918 0.005134738 0.0033424865 0.0022026503 -0.0028677282 -0.0033026994 -0.0027943307 -0.0003808896
0.0037257285 0.008766269 0.00015842111 0.00020169123 0.005245431 -0.000105360756 0.0018877767 0.0072726896
0.00041410883 -7.949112e-05 0.008448625 0.007922069 0.0022091568 -0.00010641474 4.5116212e-05 7.242525e-05
0.009454784 0.0023067947 -0.0026376476 -0.0009641118 0.0065418584 0.0040327134 0.00023319619 0.0020861404
-0.00047608488 -0.0010978747 1.6207541e-05 3.494369e-05 -0.0013295561 0.0016371412 -0.0023411647 -0.009030341
0.00011021999 9.1641676e-05 6.143394e-05 -0.0011881104 -0.0013907952 0.0012260367 1.05030995e-05 1.2589098e-05
-0.009102946 -0.004868975 0.005756473 0.0060611176 -0.0030942513 -0.0045920443 6.258688e-05 0.00094461866
0.0015717773 0.00090675266 1.6769103e-05 6.726099e-06 -0.0015017227 0.0008651039 0.008973603 0.0107105505
-1.541659e-05 1.503987e-05 0.007140721 0.007856524 0.00061636325 -4.1263207e-05 -2.7535654e-05 -8.902771e-06
-0.0024411217 -0.003045749 0.003383678 0.008579032 -0.0002741019 -0.00088382803 -3.757843e-05 0.00084193127
0.0002202387 0.0005711263 9.340918e-05 0.0001850898 -8.962485e-05 0.0025752063 0.00045293948 -0.000106865395
0.0003477474 0.00024577245 0.00083613396 0.001107588 0.00052410446 0.00029289073 -1.1772318e-06 -2.814604e-06
-0.005876816 -0.00968809 -0.015145262 -0.01416173 -0.0007643468 0.0011972429 0.00284041 -0.00046235838
-0.0039171 -0.0027985005 -0.00011428553 -0.00034841854 -0.0013413779 0.0004889292 -0.0035947796 -0.006221559
1.3650482e-05 -9.111507e-05 -0.010550649 -0.011253261 0.0068152295 -0.00061988994 5.8330306e-06 -5.299816e-05
0.0059125815 0.0015752255 0.003319384 -0.00027644646 0.0010482086 0.0020703427 -0.0001583909 -0.0010893821
0.0006789572 0.0012524805 3.2338718e-05 0.00017212171 -0.0003258641 -0.0013526268 -0.0022860416 -0.0049187266
0.00041523302 -0.00037004828 -0.00014494121 0.0006982272 0.0015076075 -0.0033388548 5.5099554e-06 2.1027968e-06
-0.0049301963 -0.01116579 -0.0055867075 -0.0073356265 0.0010896822 0.0022199412 0.002387556 0.0021155437
-0.008164322 -0.010378288 -0.00023341656 -0.00025990934 -3.403324e-05 0.00014327723 -0.0041941544 -0.0034207285
0.0002710587 -0.00015416568 -0.014684549 -0.015369905 -0.0030294657 0.0010237751 -1.6522228e-05 -5.204261e-05
-0.0018023225 0.0044244556 0.016685007 0.005511029 0.0013489339 0.0005611739 -0.0039166217 -0.004734738
0.004353447 0.007600624 0.00026177877 0.0004951261 0.0048001967 -0.0015358021 0.007179315 0.010280349
00000000: 5a3b 993b 3aa8 08bb 8ae3 d2bb 6371 0c3c
00000010: b56f c43b 745a ae3b c01c f23a a485 13b9
00000020: 1c5e 06ba 80dc 64bb 4485 d238 4e7c e238
00000030: 3eb1 17bb a652 6236 b2cb 5739 b2c4 633a
00000040: b12e 04ba ab22 c6b9 2d41 e1b9 9897 8c39
00000050: a023 3d3a 9c1d ef3a 0400 0000 248d cbb4
00000060: 2e03 613b 54e4 7e3b e313 903c 968b 243c
00000070: 9903 08bb 954b 23bb db8f f8ba b21c 9aba
00000080: 088a c039 b02b 6c3b c2e3 b439 d896 ae38
00000090: 80fc 133a bc62 e3ba 6713 923b 0b74 893b
000000a0: 50ac 48b8 4361 413a 5e8e 1b3c b863 2b3c
000000b0: fac0 6bbb 8098 b337 648d f836 da8e 4738
000000c0: 3de5 603b e29f ac3a 8cb2 1dba 823f 7f39
000000d0: 4cb4 4639 80ea acb7 2bd9 e93a d9fd 473a
000000e0: 24b2 8aba c891 7a3b b89f 46b8 4870 b3b7
000000f0: 1189 5b3b 468c 15ba b80c 4fbb 6762 32bb
00000100: 6468 5f39 cb40 dc38 9cba deb8 f09a 6cb8
00000110: 0905 5bba 0fd3 0a39 7a33 ecb4 03fa afb5
00000120: f4b6 513b 4e41 a83b 9e0d 5b3b 575a 103b
00000130: 7ff0 3bbb 1a72 58bb 1721 37bb 23b2 c7b9
00000140: 5a2b 743b 66a0 0f3c d81d 2639 147d 5339
00000150: dde1 ab3b 20f5 dcb8 466f f73a be4f ee3b
00000160: bf1c d939 78b4 a6b8 1a6c 0a3c 91cb 013c
00000170: 80c7 103b fa2a dfb8 2a3b 3d38 03e3 9738
00000180: 3de8 1a3c 982d 173b 62dc 2cbb 73bc 7cba
00000190: 165d d63b da24 843b 2086 7439 a1b7 083b
000001a0: 089b f9b9 90e6 8fba 6ef5 8737 8090 1238
000001b0: 8044 aeba 5895 d63a 3a6e 19bb fff3 13bc
000001c0: e825 e738 c02f c038 18d6 8038 5fba 9bba
000001d0: 584b b6ba f7b2 a03a 7836 3037 c435 5337
000001e0: 8624 15bc ec8b 9fbb cca0 bc3b 579c c63b
000001f0: ecc8 4abb dc78 96bb 1341 8338 49a0 773a
00000200: 1804 ce3a 24b3 6d3a 60ab 8c37 c0b0 e136
00000210: 74d5 c4ba 24c8 623a 0506 133c 4e7b 2f3c
00000220: e052 81b7 c053 7c37 b6fc e93b a6b8 003c
00000230: 7093 213a 0812 2db8 5efc e6b7 1c5d 15b7
00000240: 3afb 1fbb 309b 47bb b2c0 5d3b 118f 0c3c
00000250: 56b5 8fb9 b2b0 67ba 889d 1db8 0db5 5c3a
00000260: e0ef 6639 a3b7 153a ace4 c338 aa14 4239
00000270: faf4 bbb8 cbc4 283b 8278 ed39 ec1c e0b8
00000280: de51 b639 05db 8039 0030 5b3a 7c2c 913a
00000290: 0e64 093a 218f 9939 6001 9eb5 87e2 3cb6
000002a0: 4e92 c0bb cbba 1ebc d523 78bc 9a06 68bc
000002b0: 725e 48ba ceec 9c3a 2c26 3a3b b168 f2b9
000002c0: 045b 80bb 0c67 37bb 94ac efb8 f2ab b6b9
000002d0: 2cd1 afba 7c2b 003a 6596 6bbb 38de cbbb
000002e0: 6004 6537 0815 bfb8 a1dc 2cbc 995f 38bc
000002f0: 4a52 df3b 1c80 22ba 5ab9 c336 574a 5eb8
00000300: 54be c13b cc77 ce3a 068a 593b 04f0 90b9
00000310: 0b64 893a 96ae 073b bc15 26b9 99c9 8eba
00000320: 0cfc 313a 462a a43a 6fa3 0738 927b 3439
00000330: bdd8 aab9 a04a b1ba 6ad1 15bb 452d a1bb
00000340: a2b3 d939 0a03 c2b9 5cfb 17b9 3c09 373a
00000350: ea9a c53a b0d0 5abb 28e2 b836 c61d 0d36
00000360: 7c8d a1bb b8f0 36bc b310 b7bb b25f f0bb
00000370: abd3 8e3a 6f7c 113b 8b78 1c3b efa4 0a3b
00000380: a6c3 05bc b209 2abc 48c1 74b9 7144 88b9
00000390: eabe 0eb8 b03c 1639 1e6f 89bb 4d2e 60bb
000003a0: e21c 8e39 89a7 21b9 7697 70bc 0ed2 7bbc
000003b0: 008a 46bb 3130 863a 3799 8ab7 5448 5ab8
000003c0: e83b ecba 06fb 903b ffae 883c dd95 b43b
000003d0: b6ce b03a be1b 133a 0157 80bb dc25 9bbb
000003e0: 5ca7 8e3b a80e f93b 5a3f 8939 5acb 013a
000003f0: f84a 9d3b f84c c9ba 7640 eb3b e96e 283c

exp_avg_sq f4 [32, 12, 2]
0.000820515 0.00030134807 0.0019103917 0.0023341381 0.0009411371 0.00031230244 0.000119613906 5.440347e-07
6.200493e-05 0.00053176604 5.334643e-07 1.0207419e-07 0.0005095098 1.2564049e-09 1.0298852e-05 4.5147e-05
1.7814575e-06 2.1539029e-06 5.0490503e-06 1.597143e-05 0.0005869414 0.00014940841 3.0576954e-12 7.7394674e-11
0.0003857102 0.0015283165 0.00083827117 0.00079415663 0.00025852077 0.0003206914 0.00014917942 0.00012219137
0.00011655349 0.00010417539 1.4604256e-06 1.753755e-06 0.000638797 0.0005319627 4.9462302e-05 5.6875466e-05
1.6434125e-05 1.0490048e-05 0.0010671063 0.0010117084 0.0015326412 5.8966634e-05 1.0705373e-09 5.084994e-09
0.00044362515 0.00013385093 2.0140515e-05 3.6548417e-06 5.43986e-06 8.306329e-06 1.7973114e-05 9.275554e-06
3.6354206e-05 5.7592366e-05 1.0368572e-07 2.621526e-07 2.735665e-05 6.1243765e-05 0.00030915023 0.00021357734
1.4208679e-07 1.1674843e-07 2.8297593e-06 1.1219984e-05 4.251409e-06 6.6222645e-05 1.7023002e-10 4.6503226e-10
0.00024202 0.00018896678 0.00013577826 0.00034481025 0.00021921606 0.00020335647 0.00030212826 1.5481298e-06
0.0018105208 0.0016133173 1.049535e-06 6.9185774e-07 0.0011832154 0.00029895958 3.8287264e-05 0.0004505081
6.3749626e-06 2.4760084e-05 0.0021108391 0.0017757171 0.0030121484 1.1949116e-06 2.5105804e-08 2.5817075e-08
0.0037292691 0.0036953923 0.000109800334 2.4303472e-05 0.00038791154 0.00019168093 5.791753e-06 7.678078e-05
0.0005934761 0.00020658612 6.6552445e-08 2.514461e-07 0.0002837113 0.00050518825 5.0205585e-05 0.000465143
2.2397346e-05 7.916833e-06 7.4329773e-06 4.5041637e-05 0.002471397 3.6800382e-05 2.0521014e-09 1.0757553e-09
0.0030422097 0.0032282695 0.0004837343 0.00012570413 0.00024737907 0.0001983768 2.3439763e-06 0.00014669563
0.00032887488 0.00042727092 1.1775122e-06 1.0932179e-06 0.0002522061 3.6773083e-05 0.0005185129 0.00056473416
2.5086978e-05 2.431073e-05 0.0010695136 0.0010171846 0.00060571433 1.4330509e-06 1.1765023e-08 9.567041e-09
0.00012686317 0.00013216135 0.001088074 0.00062681484 1.27453795e-05 1.15383855e-05 6.9379496e-07 6.169349e-06
7.541054e-05 0.00014305317 1.1029445e-07 1.2686465e-07 6.5598323e-07 4.7149595e-05 3.8288334e-05 2.9524066e-05
2.3161763e-06 1.3880644e-06 2.3844304e-05 1.5361446e-05 6.8833288e-06 7.883279e-06 6.6043493e-10 4.057044e-10
0.0012171306 0.0025826553 0.0007290891 0.0005729975 7.643131e-06 1.5730477e-05 0.00014432744 8.188278e-06
0.0010239335 0.0007159073 2.185632e-06 2.2162435e-06 0.0005562751 1.3543834e-05 3.175607e-05 0.00042563424
1.1940159e-05 8.039659e-06 0.0029547869 0.002840883 0.0070180516 0.0007172184 2.2227985e-08 2.0052806e-08
0.00054461154 0.00073005987 0.00088921684 0.0002757669 0.0001661497 0.00014514817 3.117111e-05 6.39251e-05
0.00031141372 1.209e-05 7.13804e-08 4.947213e-07 2.5928912e-05 0.00018466062 2.6076845e-05 0.00012535982
1.3162331e-05 5.1598536e-06 8.397017e-06 2.539539e-05 1.4105667e-05 0.00110924 2.3704244e-10 8.7213026e-10
0.0018433372 0.003816763 0.00051962043 0.00094328634 0.0001798032 8.586847e-05 9.698555e-05 8.01431e-05
0.0013090379 0.0014669277 2.6721143e-06 2.3356379e-06 1.7949401e-07 7.609622e-05 4.9911458e-05 3.2986307e-05
3.6940077e-05 2.7916592e-05 0.0031931403 0.0030716856 0.0009356524 2.5999978e-05 2.3162753e-08 2.118853e-08
0.0074639563 0.006244087 0.0014455793 0.00019428247 0.00014014063 0.00011982039 0.00021985374 0.00011611881
0.0012421837 0.0012308765 4.2910037e-06 4.909545e-06 0.00091741764 0.0003898123 0.00048058623 0.0009775538
00000000: d417 573a 41fe 9d39 1c66 fa3a 57f8 183b
00000010: a4b6 763a 86bc a339 3ad9 fa38 c809 1235
00000020: a508 8238 3766 0b3a 6333 0f35 e133 db33
00000030: a090 053a d1ad ac30 3cc9 2c37 395c 3d38
00000040: 6a1a ef35 c58b 1036 036b a936 62fa 8537
00000050: f8dc 193a 84aa 1c39 8b2a 572c 5431 aa2e
00000060: 2639 ca39 cb51 c83a 6dbf 5b3a f32e 503a
00000070: 128a 8739 7922 a839 0c6d 1c39 7f20 0039
00000080: 2e6e f438 bd78 da38 d703 c435 9062 eb35
00000090: f174 273a 6a73 0b3a be75 4f38 918d 6e38
000000a0: 04dc 8937 6afe 2f37 25de 8b3a 4d9b 843a
000000b0: e8e2 c83a f152 7738 2f22 9330 15b8 ae31
000000c0: 5c96 e839 565a 0c39 6df3 a837 b445 7536
000000d0: 0b88 b636 695b 0b37 f8c4 9637 339e 1b37
000000e0: 087b 1838 558f 7138 d4a9 de33 fbbd 8c34
000000f0: f57b e537 ff6f 8038 7115 a239 bbf3 5f39
00000100: 8590 1834 21b7 fa33 e5e6 3d36 773d 3c37
00000110: 53a7 8e36 03e1 8a38 7e2b 3b2f 79a7 ff2f
00000120: c0c6 7d39 6225 4639 b35f 0e39 a6c7 b439
00000130: 5ddd 6539 163c 5539 f866 9e39 56c9 cf35
00000140: ff4e ed3a f275 d33a bfdd 8c35 1ab8 3935
00000150: 1f16 9b3a adbd 9c39 a396 2038 2c32 ec39
00000160: 83e8 d536 e0b3 cf37 0156 0a3b 2ebf e83a
00000170: 7767 453b da60 a035 3fa8 d732 59c4 dd32
00000180: c166 743b 652e 723b 9b44 e638 4fdf cb37
00000190: 9b60 cb39 f5fd 4839 c856 c236 5e05 a138
000001a0: 8293 1b3a 0a9f 5839 98eb 8e33 7dfe 8634
000001b0: 16bf 9439 9c6e 043a d693 5238 70de f339
000001c0: efe1 bb37 8ad2 0437 ca68 f936 17eb 3c38
000001d0: 29f7 213b 1c5a 1a38 f304 0d31 c6d9 9330
000001e0: cf5f 473b 6091 533b b89d fd39 72cf 0339
000001f0: a8b2 8139 5e03 5039 354d 1d36 4fd2 1939
00000200: d76c ac39 5503 e039 030b 9e35 aeba 9235
00000210: 883a 8439 cc3c 1a38 d0ec 073a ab0a 143a
00000220: e071 d237 e5ee cb37 ec2e 8c3a 0d53 853a
00000230: cdc8 1e3a 4157 c035 1e1f 4a32 4b5c 2432
00000240: 9306 0539 cb94 0a39 b49d 8e3a d550 243a
00000250: fdd4 5537 fd94 4137 3a3d 3a35 4e02 cf36
00000260: ba25 9e38 8b00 1639 04db ec33 4a38 0834
00000270: d316 3035 7ec2 4538 c997 2038 73aa f737
00000280: 9b6f 1b36 884d ba35 4105 c837 74dc 8037
00000290: 58f7 e636 6d42 0437 fa89 3530 d109 df2f
000002a0: 2088 9f3a c441 293b 5720 3f3a 3635 163a
000002b0: ff3a 0037 f1f4 8337 9a56 1739 6360 0937
000002c0: 8235 863a baab 3b3a dfac 1236 c6ba 1436
000002d0: fdd2 113a 533a 6337 d231 0538 a927 df39
000002e0: 9852 4837 13e2 0637 19a5 413b 1c2e 3a3b
000002f0: aff7 e53b b603 3c3a dbef be32 9640 ac32
00000300: 43c4 0e3a 7d61 3f3a 551a 693a cf94 9039
00000310: 7838 2e39 ea32 1839 b9bd 0238 870f 8638
00000320: 3e45 a339 28d6 4a37 ca49 9933 fdcc 0435
00000330: ea81 d937 75a1 4139 99bf da37 0573 0339
00000340: c8d3 5c37 ce22 ad36 eae0 0c37 2f08 d537
00000350: 61a7 6c37 eb63 913a c250 822f b6ba 6f30
00000360: 229c f13a a822 7a3b 2337 083a e046 773a
00000370: 8e89 3c39 4914 b438 b864 cb38 8012 a838
00000380: 0694 ab3a ed45 c03a 9352 3336 f4bd 1c36
00000390: f0ba 4034 d995 9f38 0558 5138 c75a 0a38
000003a0: 1bf0 1a38 6d2e ea37 0144 513b 554e 493b
000003b0: 9246 753a 871a da37 6ff7 c632 1202 b632
000003c0: 3494 f43b 339b cc3b 9879 bd3a 4eb8 4b39
000003d0: b7f2 1239 1548 fb38 8a88 6639 d084 f338
000003e0: c5d0 a23a 5d55 a13a 71fb 8f36 acbc a436
000003f0: db7e 703a b95f cc39 31f7 fb39 4321 803a

exp_avg f4 [32]
-0.001452229 0.0024653117 0.00010146451 0.0037532651 -0.0027831865 0.0009179352 -0.0013090221 -0.0018454229
-0.001572191 -0.0017043735 0.0022823163 0.00042677717 4.6393718e-05 -0.0014531999 -0.0009925889 0.0013076237
-0.0007578063 0.00029159844 0.0015966676 0.0021427663 0.0007189334 0.0007491909 -0.002900918 0.0021926316
0.0003919408 0.0012100717 -0.0010606116 0.0003047015 -0.0011059537 0.0012810183 -0.001926594 -0.0016260925
00000000: b858 beba 1191 213b 58c9 d438 57f9 753b
00000010: 1f66 36bb 97a1 703a 7e93 abba 1ee2 f1ba
00000020: fa11 ceba 4965 dfba ea92 153b 10c1 df39
00000030: e096 4238 4c79 beba c219 82ba 9264 ab3a
00000040: 85a7 46ba aee1 9839 4647 d13a a76d 0c3b
00000050: ce76 3c3a 5a65 443a 541d 3ebb 41b2 0f3b
00000060: 677d cd39 459b 9e3a 3804 8bba 58c0 9f39
00000070: a6f5 90ba d7e7 a73a c485 fcba 9c22 d5ba
