time_only_models/cebra_TimeOnly_model_2500_32_reach1_4_A_2024-05-09_16-34-28.pt (torch, 264319 bytes, 31 tensors)

net.0.weight f4 [32, 21, 2]
00000000: fc6b 9b3d 5c42 bd3d 7f26 3dbd 6886 14bc
00000010: 185a 4dbd c8d6 6ebd 0309 023c 7d02 c53d
00000020: 3182 813d f0a2 3abe 8597 07be 0f8d 8d3d
00000030: 38d3 473d 4c46 32be 94ec aa3d 5d6e d93d
00000040: 794f b93d 5fba 29bd 1f41 463e 8c3f 693e
00000050: 53c9 e53d 48bc e93d d502 db3d 92fc dfbd
00000060: 13be c03d c9dd 9e3d 32a7 033e fbc0 ecbd
00000070: 9f9e e7bc 122c af37 9307 563d 127d 233c
00000080: a030 d83d 537b 90bd 066e 063e be30 413d
00000090: ad8b b23c ad22 fb3d 1667 473e d936 993c
000000a0: ce4d 9f3d 0d3c 9c3c 3f06 fe3c 82c4 523d
000000b0: 411b b03d 9a15 b8bd d9f1 07be e195 46be
000000c0: c024 58be eccd fbbd 0ec4 8cbe ccf1 a6be
000000d0: b948 173e eb1a 99bd 9ecf 14be 0816 91bd
000000e0: 8627 f2bd 086f 5a3d eea1 a5bc ed34 c13c
000000f0: 9568 13be acde 6cbd f3d5 013e 6a00 bebd
00000100: 247d a8bc c92b 4bbc 9eea 383d e0b5 353c
00000110: be3e 2cbd 6a43 43bd a156 3cbe 28fa 81bd
00000120: bfe9 a0bc af11 193d 828d 1abe 7f55 963c
00000130: a665 cabb cc49 2dbe 9e16 ee3c 8cc8 c2bd
00000140: a39c bf3c 66f3 cf3d d415 40bd 427a 1b3e
00000150: 28ab 403d 4f2e be3d 5488 ab3d 13df b23d
00000160: e9aa c63d 12f8 d33c d5d6 eb3d aff9 2c3d
00000170: 8ab0 753e 5403 1a3e a842 623d a768 a33b
00000180: 08f6 3a3e 246a da3d a8da 4fbd c872 50bd
00000190: f341 143e 181c d83d d170 69bd 7922 373d
000001a0: 53b0 2abd 1dd0 bc3d 0853 183d 7a08 f43c
000001b0: 78c9 aa3d e09d 7b3d bc3d 063d 6549 91bd
000001c0: 2f2e 563d 49df d7bc 903b 42bc 5b21 b43d
000001d0: 70d9 1d3d 1d37 ab3c 8752 4cbd fa8b 5bbd
000001e0: 6a39 ecbd 012f b4bd 90a9 afbd ca73 cf3c
000001f0: c037 37bd b396 dfbd 638e 86bd 3992 cdbd
00000200: 5900 b53d 7aee 6cbd 60a6 9cbb f4ef 143c
00000210: a7bb 3f3d 02db 493d 17ad 26be 1f8c fe3c
00000220: 7a25 5dbd dce5 a13c 5b3d 7fbc 9a65 4fbd
00000230: 0adf adbd 0d8f 8d3d c6b3 b33d e703 45bb
00000240: 84e8 d5bc b61e d0bd 0bf1 5fbd 3f49 42be
00000250: 3941 463c bc9b 42be c78c 143e deec 5ebe
00000260: 08e2 ce3c 5f9b ff3d bcc3 d23d 9793 e5bb
00000270: 3f3b f73d 41e9 773d 65ee 073e 326e e7bd
00000280: 0c87 3e3d 09f8 55b9 3954 923d 3db4 79bd
00000290: 80b4 943d cd67 f43d 96d7 65bc baea dd3d
000002a0: 9eea a1bd 1f82 7ebe 481f ac3d 1e1f 3b3a
000002b0: 84fa c9bd fca3 153e b393 aabd bacd 34bd
000002c0: ceed 98be 9e2e 89be 0517 28be 4835 f5bc
000002d0: 9087 ed3a b274 21be 62f8 13be 35ad 5d3b
000002e0: 38a5 0bbe 88f9 18be 84ca de3d 7b59 acbc
000002f0: 591e 983c d31c 123e 0bdd c8bd 10c1 973d
00000300: f1ef cdbd 340d 40b9 4017 36bc 1054 0d3d
00000310: 8b69 bd3d 7e65 cabd d6f0 ccbd 96bf 833d
00000320: 3433 cdbc 5e9b 403c de98 bfbd 4446 503d
00000330: bfb0 0abe 2eb2 633d 7505 5e3d 3679 7ebd
00000340: 497a 053d f165 58bc 220c 0d3e a932 6b3e
00000350: 1915 dd3d 48e3 04be 98d4 fc3d 5910 d7bd
00000360: 860e d53d d6b2 593d cc8c 92bd 7c0a 58be
00000370: cd59 16bd 8aa3 823d 1da7 dd3b c905 083d
00000380: 9655 6e3d 2ad3 2ebe 5efe bb3b 3c47 33bd
00000390: 553b 64bd 8b80 99be 67e0 373e e7b0 3b3d
000003a0: 5350 463d e2d0 4bbe 5252 993c ca38 903c
000003b0: 73d6 debc 0fb2 e23d b6b2 9d3d 45ac a4bd
000003c0: 90c7 923c 126b 2ebe 5002 b1bd 5ad2 943d
000003d0: ed60 023d c39a 0fbc 1156 493c 2adb 823d
000003e0: 08a1 ac3c ed5a 4abd 055e afbc d204 6bbd
000003f0: 37dc 16be 25e2 13bd c819 e13d db69 f63d
0.07588956 0.09241173 -0.04617929 -0.009065248 -0.05013475 -0.0583103 0.007936719 0.09619615
0.0632366 -0.18226218 -0.13241394 0.069116704 0.04878542 -0.17409629 0.08345905 0.10616753
0.09048361 -0.041437503 0.19360779 0.22778147 0.1122004 0.11412865 0.106938995 -0.10936846
0.09411254 0.07757146 0.12856749 -0.115602456 -0.028273879 2.0882148e-05 0.052253317 0.00997855
0.105561495 -0.07054772 0.13127908 0.047165625 0.021795118 0.12262473 0.19472918 0.018702911
0.07778512 0.019071603 0.031008838 0.051456936 0.08598948 -0.08988495 -0.13275851 -0.19393112
-0.21107769 -0.12295136 -0.27493328 -0.3260635 0.14773835 -0.07475837 -0.14532325 -0.0708428
-0.11823945 0.053328544 -0.020218816 0.023584807 -0.14395364 -0.057829544 0.12679271 -0.09277423
-0.020567484 -0.012400576 0.045145623 0.011090726 -0.042052023 -0.047671713 -0.18392421 -0.06346542
-0.019642709 0.03737038 -0.15093043 0.018351315 -0.006176668 -0.16922683 0.02906352 -0.095109075
0.02339012 0.101538464 -0.046895817 0.15183356 0.047038227 0.092861764 0.08375612 0.08733954
0.09700567 0.025875125 0.11515585 0.042230304 0.23993126 0.15040332 0.05523935 0.0049868408
0.18257916 0.10664776 -0.050745636 -0.050890714 0.14478283 0.105522335 -0.056992356 0.04471061
-0.041672062 0.09219382 0.03718856 0.029789198 0.08339208 0.06142986 0.03277372 -0.07094077
0.052290138 -0.026351588 -0.011855021 0.087954246 0.038537443 0.020900303 -0.04988339 -0.05360029
-0.11534388 -0.08798028 -0.08577263 0.025323767 -0.0447309 -0.109174155 -0.06570127 -0.100376554
0.08837957 -0.057844616 -0.0047805756 0.009090412 0.04680982 0.049281128 -0.16276966 0.031072674
-0.05399082 0.019762926 -0.015578593 -0.050634004 -0.08489807 0.069120504 0.087745234 -0.003006214
-0.026111849 -0.10162108 -0.054673236 -0.18973254 0.012100511 -0.1900472 0.14506827 -0.21770045
0.025254264 0.124808066 0.102912396 -0.0070061195 0.12071847 0.060525183 0.13274534 -0.11300315
0.04651551 -0.00020405663 0.071449704 -0.060962904 0.0726099 0.11933861 -0.0140284505 0.10835786
-0.07906078 -0.24854325 0.08404404 0.0007138121 -0.09862235 0.14613336 -0.08328953 -0.04414151
-0.2986893 -0.2679338 -0.16415031 -0.029932633 0.0018122066 -0.15767172 -0.1445022 0.0033825163
-0.13637245 -0.14938939 0.108784705 -0.021038761 0.018569158 0.14268808 -0.098077856 0.074098706
-0.10055531 -0.00018315465 -0.011113942 0.034503996 0.09248646 -0.09882639 -0.10006873 0.064330265
-0.02504883 0.011755792 -0.09355329 0.05084826 -0.13543986 0.055589847 0.054204423 -0.062127315
0.032587323 -0.0132078985 0.1377416 0.22968544 0.1079504 -0.12977326 0.123452365 -0.10501165
0.10403161 0.053149067 -0.07155761 -0.2109775 -0.036706734 0.06378849 0.006764306 0.033208642
0.05818709 -0.1707274 0.00573711 -0.043769106 -0.055720646 -0.29980883 0.17956696 0.045823004
0.048416447 -0.19903901 0.018716011 0.017605204 -0.027201867 0.11069118 0.07700102 -0.0804067
0.017917424 -0.17033032 -0.08643019 0.07266684 0.031830717 -0.008764925 0.012288586 0.063894585
0.02107288 -0.04940312 -0.021407137 -0.057377644 -0.14732443 -0.03610434 0.109912455 0.12031909

net.0.bias f4 [32]
00000000: 71bb 3b3d e3e4 a83e 3d51 c7be 43ab b93d
00000010: 1b56 9f3e 3fd8 1a3e 9fcf 063e 1063 573e
00000020: 42ba 743e f7db f43d 91a4 0f3e 7105 34be
00000030: c5be e4bb 6aff 55be 55d8 073e bfcb abbe
00000040: af82 cc3d 710d d63e e7ae 1c3e 6605 eb3d
00000050: 91a1 dcbe ac2b d63d 5e99 28bd 042f f1be
00000060: ba87 a53d 5486 f83e aeed 173d 83fe 193e
00000070: 68e7 823d 25a3 3b3e d242 043e af1f f83d
0.045833055 0.32987127 -0.38929167 0.09065869 0.3112038 0.15121554 0.13165139 0.21033883
0.23899177 0.119560175 0.14027621 -0.175802 -0.0069807493 -0.20898214 0.13266118 -0.33553883
0.099858634 0.4180713 0.15301095 0.11475639 -0.43092015 0.104575485 -0.041161887 -0.47106183
0.080825284 0.48539984 0.037091903 0.15038495 0.063917935 0.18323953 0.12916115 0.12115418

net.2.module.0.weight f4 [32, 32, 3]
00000000: 85b0 913d ff56 43be ee81 113e 8620 f9bd
00000010: 46b7 8b3c e80d 8b3d cc90 2fbd 1c3c c23d
00000020: 3eea 94bd 0d1b bf3c e515 4ebd 1c3b f33d
00000030: efe5 8dbd 22c8 e23d 5a3b 033e 1a66 d9bc
00000040: 1e99 a73c d48a 663e 778e ee3c 29c0 1c3c
00000050: 7b5d bcbd a275 903c d5ab abbc 233e 35bd
00000060: 2d4e 9f3d 0133 f13d 075d b83d 80f3 5b3d
00000070: 9d5c d43d 63fe 0b3e 4706 88bd a141 903d
00000080: 321c 403e b3ca 023e 65ed 4abd 1a86 8fbd
00000090: 9a0c cf3d ed52 013e bf4a 813d fd1c 3bbd
000000a0: d5d1 473d 803e 1ebe eabb d63d 6eac c43c
000000b0: 9ba9 123e f119 b13d 27c0 b6bc afd7 d03b
000000c0: 5827 233e 1d58 543d dc42 a0bc 4236 19bd
000000d0: bca0 29bd 084c 0d3e 7de5 8cbd 6df3 673d
000000e0: 5fcd 55bc 5282 54bd 5014 5c3d 8be3 1c3e
000000f0: deb0 e53d fd2e 3d3c 271c aabd 8c32 293d
00000100: df77 063d c477 f23d b059 a93d aee5 993d
00000110: 19ee 833d aabd 47bc 905e e93d 618f d5bd
00000120: b442 8e3c 6c6b 983b f3b6 1b3d 6641 69bd
00000130: 7b22 1c3e defa 173b fbdb e7bd 0fc0 e2bd
00000140: 508f fa3d e892 a2bd 474f 09bd f498 773d
00000150: 72e3 4dbc de78 133d 1212 7f3d d2e8 d03c
00000160: 67e6 5d3e c364 493e 445c f33d d746 e6bc
00000170: 4075 01be 3e5c e33d f9cd e33d 2527 253e
00000180: ce2d dcbd 4b0e 63bd 145f 463d f0e8 843d
00000190: 814e cabd 2345 cbbc 759f ae3c 8b65 98bd
000001a0: a409 413d d9da 613d 04f9 6dbd 15de 9d3c
000001b0: 620a 9a3d 7b96 25be 75b3 dc3d 6a60 7c3a
000001c0: 6b8c 303d b091 2d3d 8234 633d 28cd bc3d
000001d0: 3c62 39bb e8a7 c03d 011d ca3c 466e 393c
000001e0: 5b69 123b 15ac 7d3d 5ba0 96bb 18ef a43d
000001f0: 0ab4 b7bc 1256 e6bc 21bb 83bd 6511 df3c
00000200: fe16 fd3d 45a6 aabd 0f7d 97bb 3f82 c5bd
00000210: 5cad 20be 31a9 e23d 9133 073d a9b6 433d
00000220: 2fa9 933d cb3c 93bd 1c48 803d 706d c6bc
00000230: 3986 f53c c767 e9bc 1273 dbbb 6f9d 133d
00000240: 1eb8 0c3e 2b30 cd3d 7fb9 223e a18b e73d
00000250: 072d a4bd 8e6d 21bd 217d a1bd 802a 8cbd
00000260: c464 733d 0571 b1bd 0233 a7bd 669b 98bd
00000270: f246 6b3d 16e4 97bd 5477 48bc 9998 3bbe
00000280: f920 2abd 4b7a b2bd 560e 073c 60ea f63d
00000290: 8867 d43d d118 04bd 96fd a2bd 13f4 29be
000002a0: f66f 11be cafb 76bd 7f36 c23d 5744 083e
000002b0: 0ded dd3d dd31 3d3e 85e9 793c 6103 e8bc
000002c0: a284 80ba 8363 77bb de00 4f3d 1617 16bd
000002d0: dcca 1e3e bdc9 263e 2038 a53d 032a 2d3d
000002e0: 3189 b4bd 9912 ad3d 672a aabd 10b3 08bd
000002f0: 7024 b03d 6ebb a33d fbc5 843e 7d3c a43d
00000300: 87d9 983d 1245 01bd 0386 4c3b 7839 46bd
00000310: d09b 6d3d 69a2 38bd 90f6 95ba e886 e5bd
00000320: f6ec 04bd 79be a23b 028a 5ebd 955d 263d
00000330: df13 173c 291c 153e 8ddf 683d 80c4 353d
00000340: 44b4 6f3c c246 a33d bea5 06bd fa40 87bd
00000350: a6a2 6bbd f206 eaba 29d9 833c 2f04 77bc
00000360: a8dc 8d3d 380a 933c 5e2f b03d 0623 18bd
00000370: 7e45 633d c162 3bbc 7ef1 8f3d 8ed0 bebd
00000380: cb07 083d 0310 c03d 5a0a 2c3d 02de 593d
00000390: 50ca 59bd 1e85 cabc ebc2 b6bd 7766 21bd
000003a0: fee2 f73c c1ca d3bc 2733 163e a65b 9f3c
000003b0: 5ab1 90bd 0450 803d 8a40 81bd d713 8e3d
000003c0: e46e ed3d 2d6d c73c 33f4 6cbd aad4 dabc
000003d0: 22bb 89bd f7c2 953d 60f3 22be 2b38 3f3d
000003e0: c31d 693d a0ae 81bd 5eef 543d 1c1e 283e
000003f0: 20e0 ba3d f167 b73c a027 f83c a2dd af3d
0.071137466 -0.19076155 0.1420972 -0.121644065 0.017055165 0.06789762 -0.0428627 0.09484121
-0.07271241 0.023328329 -0.05031385 0.118765086 -0.06928622 0.110733286 0.1281561 -0.026537944
0.020458754 0.22513896 0.029120667 0.009567299 -0.091975175 0.017634217 -0.02095596 -0.04424871
0.07778583 0.11777306 0.090021186 0.053699017 0.10369227 0.1367126 -0.06641822 0.07043768
0.18760756 0.12772636 -0.049542803 -0.07008 0.101098254 0.1262929 0.06313085 -0.045681942
0.048784096 -0.1545353 0.104850605 0.024008002 0.14322512 0.08647526 -0.022308422 0.0063733677
0.15932977 0.051841844 -0.019563131 -0.03740526 -0.041413054 0.13798535 -0.06879709 0.056628633
-0.013049453 -0.051882096 0.05373031 0.15321176 0.11215375 0.011546847 -0.08306151 0.04130797
0.03282916 0.1183925 0.0826906 0.07514511 0.06441898 -0.0121912155 0.113949895 -0.10427738
0.01736579 0.0046514776 0.03801627 -0.056947134 0.15247528 0.00231903 -0.11321255 -0.110717885
0.12234366 -0.079381764 -0.03352287 0.0604486 -0.012566434 0.03600394 0.062273093 0.025501642
0.21669923 0.19667344 0.11882833 -0.028109951 -0.12642384 0.11101578 0.111232705 0.16128214
-0.10750924 -0.055433553 0.048430517 0.06489742 -0.09878255 -0.02481324 0.02131627 -0.07441243
0.047128335 0.05514035 -0.058098808 0.019270936 0.075215116 -0.16170685 0.10776416 0.0009627404
0.043102663 0.042375267 0.055469997 0.09218818 -0.0028287312 0.094070256 0.024672033 0.011317795
0.0022340629 0.06193169 -0.0045967526 0.08053416 -0.022424717 -0.028117213 -0.064321764 0.027229974
0.12357901 -0.08332495 -0.0046230624 -0.09643983 -0.15691131 0.11067427 0.033008162 0.04778162
0.072100036 -0.0718933 0.06263754 -0.024222106 0.029971229 -0.028491868 -0.006697067 0.036038812
0.1374211 0.10018953 0.15891074 0.11305929 -0.08016401 -0.03941112 -0.078851946 -0.06844044
0.05942227 -0.08664135 -0.08164026 -0.07451515 0.057440706 -0.07416551 -0.012235481 -0.1831993
-0.04153535 -0.08714732 0.008243164 0.12056422 0.103713095 -0.03225023 -0.07958524 -0.16597013
-0.14202866 -0.06029872 0.094830506 0.1330732 0.108362295 0.18476053 0.015253429 -0.028321924
-0.0009805153 -0.0037748523 0.050537936 -0.03664311 0.15507072 0.16287895 0.080673456 0.042276394
-0.0881523 0.08450813 -0.08308869 -0.033373892 0.086007 0.07994734 0.25932297 0.0801935
0.07463365 -0.03156001 0.0031207807 -0.04839465 0.058009923 -0.04507676 -0.0011441279 -0.11207372
-0.032452546 0.0049665538 -0.054330833 0.04061659 0.009221046 0.14561523 0.05685382 0.04437685
0.014630381 0.0797248 -0.032872908 -0.0660419 -0.05752816 -0.0017854853 0.016094761 -0.015076681
0.069268525 0.017949209 0.086027846 -0.037142776 0.055486195 -0.011437119 0.07028483 -0.093171224
0.033210557 0.09378054 0.04200206 0.05319024 -0.053171456 -0.024721678 -0.089238964 -0.03940436
0.030259605 -0.025853517 0.1466795 0.019452881 -0.07065077 0.06265262 -0.06311138 0.06937378
0.11593416 0.024344051 -0.057850074 -0.026712734 -0.06725146 0.07312577 -0.15913153 0.046684425
0.05691315 -0.06332135 0.05198609 0.16417736 0.0912478 0.02238843 0.030292332 0.08587195

net.2.module.0.bias f4 [32]
00000000: f096 99bd 80ef 873e 7440 a1be bee8 953e
00000010: 85aa b13e c3a7 5fbe 4ce2 273e c345 073e
00000020: 2fea 5b3e 594a 143e ef99 513e 9f78 50be
00000030: 10cf fabd 327a 0fbe f025 debc 9e23 9abe
00000040: 7a53 a3be 2d6c a43e c558 403e ba61 c23d
00000050: f6d8 bbbe 4ba8 8a3e ad91 e03d 65e3 c3be
00000060: 22b4 09be d2d7 ad3e 1240 02be 2dfa 663c
00000070: be3f d1be ec0f 043d c6ae 853c b5cb a6bb
-0.07499492 0.26549911 -0.31494486 0.2927913 0.3470041 -0.2184134 0.16394919 0.13210206
0.21476053 0.14481486 0.20468877 -0.20358513 -0.12246525 -0.14011458 -0.0271177 -0.301053
-0.31899625 0.32113782 0.18783863 0.09491296 -0.36688966 0.27081522 0.109652855 -0.38259426
-0.13447621 0.3395372 -0.12719753 0.0140977325 -0.40868944 0.032241747 0.01631869 -0.0050902017

net.3.module.0.weight f4 [32, 32, 3]
00000000: f49b 823d 1939 98bd 0a5e 973d 626e da3c
00000010: 5052 2d3d 04b1 173d d308 163e cded 07bc
00000020: 7c00 a53d 1437 0dbc a3be 8ebd 3497 c8bd
00000030: 5262 03bc 85b3 ecbc e43d a53d f8cb 393e
00000040: 7f91 3b3c 4ad1 b23d a892 80bd 628d 93bb
00000050: ff88 77bd f0ea b4bc ce5f e1bc a10c 5d3d
00000060: 5305 08be 024f b6bd 3cf6 973c e15d 953c
00000070: 691c 65bd 3abd 873d fe47 083e 9d61 5abc
00000080: 345b f6bc d6ce 813d 1d4a a93c 483e de3c
00000090: 4647 b83b f6b4 3a3d 0878 8c3c 9732 113e
000000a0: 2df0 0a3d 359d 8e3d 05d6 3b3c a859 ee3c
000000b0: 1e65 b3bd ab1e 843d 3c6e ce3d 1219 7c3c
000000c0: 7d91 9dbc bbdc 12bd 398f 4bbc d19c cb3d
000000d0: 6d1f e4bc 38e9 38bd 1118 56bd 4a4b 61bd
000000e0: 13d2 90bd c98f b2bd bcf7 273d 162d 8b3d
000000f0: a3aa c03d 8c18 d33c c732 e13c e21d af3d
00000100: 4d1e c5bd 78c3 a1bd cc37 d9bd 3022 f5bc
00000110: 864d 973d 2998 143e b40f 1fbd 145d 7f3d
00000120: 283d 8fbb 33c2 9a3d e64d 153e cdaa 37be
00000130: ef90 90bd c14f 843d a4d3 c93c e55b 4d3d
00000140: e1e9 783c 5e63 b43d ae3f 4ebd 2fe0 583d
00000150: b7c9 e53d 614a b33d 707a 3bbd bbb1 293d
00000160: 3fb8 b0bd 00b7 ef3d 13a4 3c3d 8647 d2bb
00000170: 0b5c 663d 85fa aebd c75e 5d3d aab7 fdbc
00000180: bd48 e7bd 9214 893d 1641 033e 6b88 773d
00000190: e933 76bc b4c9 983d c031 ecba a43e f0bd
000001a0: 1c49 94bd f0b5 70bd a5cc cfbc 55be 143e
000001b0: 7a1d 983d 2094 90bd 77c9 af3d 000c eebd
000001c0: cca9 1b3b b638 2bbe 1ce5 cebb 453d c8bd
000001d0: 045c 9f3c 12c5 ee3c d8c1 8a3d 19ad 703d
000001e0: 2a97 9ebd e207 08bd 5017 c2bd 9f51 56bd
000001f0: e5b3 c63d 0d90 a93d 1fca 2abd 88e5 403d
00000200: e35f b7bc 0012 08be 510e 12be 6109 06bd
00000210: 6013 f3bd 5282 e4bd f353 37be 5771 c3bd
00000220: 48df f33c ea44 1fbe ab38 a53d 89f6 ccbc
00000230: d8f6 213e cfe0 083d 8b88 31bd 8ca7 06be
00000240: 49a8 0e3e d4cf 14bc 56d2 7abd 0ae4 bdbc
00000250: 4509 8a3c 5a1e 1e3e 537a f4bc 1623 643b
00000260: 4877 083d b707 6a3d 5d4b 953d 76f2 dd3d
00000270: dc55 cdbd e3e3 ddbc 2753 79bc d0e5 e8bd
00000280: cdf5 07bb 56b4 323e c0d5 d23d 9c47 1939
00000290: 6bc6 bb3d b2aa 11bd e472 3bbd 1ef6 85bd
000002a0: b232 89bd 917f 13be 8089 d7bd b675 293e
000002b0: ae98 733d d691 f0bc c3f0 ed3a 06f8 0d3d
000002c0: 19c1 dcbc 5e07 d63c cdb4 8f3c 7286 543d
000002d0: f3c8 0dbe 2222 443d 0bcc 2e3d e7b3 b73c
000002e0: a0a3 71bd 3e0f 29be 094f acbc e7dc b0bc
000002f0: 3560 853d 747d b93d 0498 913d c689 5c3d
00000300: 0b84 bcbd fdc3 813d aed8 a13b ab3d 3e3d
00000310: dcdb 10bd 15ff 9dbd 2fb1 3fbb 2933 0bbd
00000320: 1f44 0cbd 60a4 f33d 9794 7b3d 71a5 acbd
00000330: e7ba 8e3d 7f8f 743d b7ae b03b e377 babb
00000340: 13ff b63c d698 d4bd 7a73 673b 9454 2a3d
00000350: fe8b b8bc 7586 31bd ed9d f4bd 81a8 e6bc
00000360: dd1a 79bc 5161 b43d a95c 2a3c ee2c 65bd
00000370: 9405 6f3d 4491 a5bc c6de 84bd f4cd 50bd
00000380: add1 103d ea77 c03c 62a1 e83d c82b c33c
00000390: 4bfc 863d f80d 4c3d 262e 9abc 4422 24bd
000003a0: fe37 27bc 03f9 5ebd f39e 30bd e6ac 8bbc
000003b0: 620b f33c 38d0 a43d f3f2 703b 590c 923c
000003c0: 6595 50bd 5a1a 383c 12a4 6fbd a56e 21bd
000003d0: 64bc 683d c74f 1cbd 9e68 b93d 38db 3e3d
000003e0: 2b8f aebd 72a4 7ebd 3b67 1d3b 1312 563c
000003f0: 93f3 e83c 730b 3fbd 6034 87bd 3d6b d3bd
0.06377402 -0.074327655 0.073909834 0.026663963 0.042314827 0.03703405 0.14651804 -0.008296442
0.08056733 -0.008619089 -0.06969955 -0.09794465 -0.008019047 -0.028894195 0.08068445 0.18144214
0.011448263 0.08731325 -0.062779725 -0.004502938 -0.060433384 -0.022084683 -0.027511504 0.053967122
-0.13283281 -0.08901788 0.01855003 0.018233242 -0.055935297 0.06627889 0.13308713 -0.013328937
-0.030072786 0.06338279 0.020665223 0.027129307 0.005623731 0.045582734 0.01714708 0.14179455
0.033920456 0.069635786 0.0114646 0.029095486 -0.08759521 0.06451162 0.10079619 0.015386837
-0.019234413 -0.035855036 -0.012424284 0.0994202 -0.027847016 -0.04514429 -0.052269045 -0.055003442
-0.070713185 -0.08718831 0.041007742 0.06795709 0.09407546 0.02576854 0.027490033 0.085506216
-0.0962492 -0.07898611 -0.106063455 -0.029923528 0.07387833 0.1451117 -0.038833335 0.062344626
-0.004371304 0.07556572 0.14580497 -0.17936249 -0.07058894 0.06460524 0.02463705 0.050136466
0.01519248 0.08808015 -0.0503537 0.052948173 0.11220115 0.08754421 -0.045771062 0.041429263
-0.08628892 0.11704826 0.04605491 -0.0064172177 0.056240123 -0.085438766 0.054045465 -0.030971367
-0.112931706 0.066933766 0.12817797 0.060432833 -0.015027025 0.07460347 -0.0018020198 -0.11730698
-0.07240507 -0.05876726 -0.025366137 0.14525731 0.07427497 -0.070595026 0.08583348 -0.116233826
0.002375233 -0.16720852 -0.006313933 -0.09777311 0.019453056 0.029146705 0.06775254 0.05875883
-0.07743676 -0.033210643 -0.09477103 -0.052323934 0.09702281 0.08279429 -0.041696664 0.047093898
-0.02238459 -0.13288116 -0.14263274 -0.03272379 -0.1186893 -0.11157669 -0.17903118 -0.09543102
0.029769555 -0.15553632 0.08067449 -0.0250199 0.1581682 0.03341752 -0.04334311 -0.13149852
0.13931383 -0.009082753 -0.06123575 -0.023180027 0.016850123 0.15441266 -0.029843485 0.0034810952
0.03331688 0.057136264 0.07289765 0.108372614 -0.10026142 -0.027086204 -0.015217579 -0.11371958
-0.0020745874 0.17451605 0.10294676 0.00014617894 0.091687046 -0.03556318 -0.045763865 -0.06541084
-0.066991225 -0.14404131 -0.10524273 0.1654881 0.05947178 -0.029366415 0.0018153418 0.03466036
-0.026947545 0.02612656 0.017542267 0.05188603 -0.13846187 0.047884114 0.04267506 0.022424651
-0.058993936 -0.1650972 -0.02103378 -0.02158971 0.06512491 0.090571314 0.07109073 0.05384233
-0.09204873 0.0633621 0.0049391603 0.04644553 -0.035365924 -0.07714669 -0.0029249897 -0.033984337
-0.034244653 0.118965864 0.061421003 -0.08429993 0.069692425 0.05970716 0.0053919214 -0.005690561
0.022338426 -0.10380714 0.0035316632 0.041584566 -0.022527691 -0.04334112 -0.119441845 -0.02815652
-0.015204159 0.08807624 0.010398068 -0.05595105 0.05835493 -0.02021087 -0.06487803 -0.050977662
0.035356212 0.02349468 0.11358906 0.023824587 0.0659109 0.04981801 -0.018820833 -0.04007174
-0.010206221 -0.054436695 -0.043120336 -0.017050218 0.029668514 0.08047527 0.0036765903 0.017828153
-0.050923724 0.011236751 -0.05850608 -0.03941216 0.05682029 -0.03816202 0.09053157 0.046595782
-0.08523401 -0.062168546 0.002401783 0.013065833 0.028436458 -0.04664178 -0.066017866 -0.103231885

net.3.module.0.bias f4 [32]
00000000: ef59 a7be 6bdb 793e 202b 623d ba9c 613e
00000010: 38ba ef3d 2f93 103e ccea 4d3e 01f4 203d
00000020: c299 5d3e a721 a0bc 45e1 92bc 685b 1d3d
00000030: 621f 63bd a380 79be 8cfb 9dbe af1b 5cbe
00000040: ca23 a2be 733d 183e aaa0 5b3e f872 0c3d
00000050: 1efb b1be 3785 4a3e c395 0c3c 4ef8 aebe
00000060: ef24 3b3e 9697 c83d 8d0b 6c3d 6a6f 68bd
00000070: 0a32 69be 4a7b 7e3b 60b5 da3d cce2 8ebd
-0.326858 0.24400108 0.05521691 0.22032443 0.1170544 0.14118646 0.20109099 0.0392952
0.21640685 -0.019547297 -0.017929683 0.03841725 -0.05544985 -0.24365477 -0.30855978 -0.21494935
-0.3166793 0.14867191 0.21448007 0.03428933 -0.347619 0.1977738 0.008580628 -0.34173816
0.18275808 0.09794538 0.057628203 -0.056746878 -0.22772995 0.003883081 0.10679126 -0.06976852

net.4.module.0.weight f4 [32, 32, 3]
00000000: 99b1 483e 68dd 183d 02d5 3ebd 3354 f4bd
00000010: 77df 99bd 9203 213b f627 d93d 60f8 c93d
00000020: a50a 673d af6d ddbd eb51 b5bb cccb ae3c
00000030: a9e6 a2bd 2b05 38bd 1a78 233e 3981 31bc
00000040: e5c6 ccbc bee1 623d 9a13 a7bb 7861 b63d
00000050: c569 79bd 5fd1 6fbd 1f9d e1bd 2bce 0a3d
00000060: b822 8e3c c939 3e3d 7fb6 05bd a71f 263d
00000070: be42 88bb 7ace a73a a0cf 22bd ba97 1a3d
00000080: ddc8 54bd 192c eebd c811 c03d 1606 963d
00000090: 4a71 99bc 4315 723d cb77 f23c 91a7 ed3d
000000a0: 3753 5c3d 70af 923d 938c 2fbd 6833 cf3a
000000b0: f23c c8bd 8b35 293d 9f39 09bd dc05 a23d
000000c0: 505c d33d 81ea 533d 90e1 1a3d 6a8b d73c
000000d0: 1880 b4bd 4fa7 72bd d0ae 3fbe c353 64bc
000000e0: 6a38 023e 49b8 9b3d ea89 48bd 5ba5 75bd
000000f0: 321d 663d c945 f13c 4943 473d e219 adbd
00000100: aba4 6cbd 23fa fbbc 721e b8ba aaf7 b8bc
00000110: e4be a53d 0c68 093e cfca 643d a285 2fbd
00000120: f762 a8bc 82c3 76bb f1d3 853d 8c76 2fbe
00000130: 9832 d8bc a685 083d 57e2 c1bd 15e8 8c3d
00000140: 9674 1f3e 9a8e 093e 3942 8abc be9a 003d
00000150: 4643 863d bd9f d4bc db2e aabd b61d 71bd
00000160: f4b5 9abd bfa5 62bd d43c c3bd 63db a73c
00000170: a2b2 993c 2d95 033d 2903 483d 1ac3 72bd
00000180: f2d1 67bd b978 01be a7e8 2ebc 318e a43d
00000190: 3f03 83bd c94d 8e3e b6ca a3bd 22a1 95bd
000001a0: 84ae 48bd 03b9 ef3d 53e0 b0bc d3fb 063d
000001b0: b79f f23d 63fb debc 2bed 733c ded5 82bd
000001c0: 580a bebd c5cc 7fbd d189 9a3d de6a e13c
000001d0: 8d99 b23d dc47 2ebd 93ee 5f3c e1a2 3f3b
000001e0: e36c 823b b96e 603d 1eb0 983d 7fff 843c
000001f0: 096b acbd a9c2 813d 612c 043d 5f84 cd3d
00000200: 82ed dd3c 40c9 ebbd 81d8 0abe 71d7 0ebe
00000210: 5ec9 043c c011 c43d e0bb 3e3d 66a9 36be
00000220: f8ab 8fbd be82 a5bc 3870 60bd ccf9 96bd
00000230: f78d 1a3c 5b9b 223d 316a 9abc f630 023c
00000240: 30c2 433d a796 0c3d 0168 713d 20e8 ca3c
00000250: 1d75 6f3d c804 fc3d 0ab3 0c3e 4a1e 453d
00000260: fad7 c93d 3b36 c2bd 567c 1d3d 96ea c93d
00000270: 614a 09be 7203 753d e8b2 563d 00d9 37bd
00000280: e56c a33b 1a42 0e3e 296a 9a3d 9c12 25bd
00000290: 79a5 ca3c 9ec2 bdbd 7402 a7bc 21e0 dabd
000002a0: e648 b9bd 3a92 043d edc6 c7bd 0808 a93d
000002b0: 250c 563d 727e a1bd c664 9bbb dbe9 103c
000002c0: 1d75 11be 9732 8b3d fe10 c4bd 9bc9 97bd
000002d0: ab7d 08be aded d63c 0ec0 1bbe c8d9 fb3a
000002e0: 9c4e 0abc 96a6 08be 277e c13b eecb f3bd
000002f0: b739 83bd 444c 133e c371 f53d 007e 873d
00000300: 6ce2 843d 864e 023e 2fc8 2dbd b741 623d
00000310: 0bf3 b1bc 323d 8cbb 257e a13d 00e1 83bd
00000320: 7b9d 86bd d655 2bbc ca0e 9c3d 103f e2bd
00000330: e163 08bd 4fac 76bd 8234 9ebd 2ac8 15be
00000340: 66db 1dbe 7613 29be 5686 2bbc 69b1 863d
00000350: 3775 3cbc da48 943d 3b0f edbb cec3 efbc
00000360: 1d82 fcbd 51b8 9bbd b843 0ebe 2caa 89bc
00000370: ece9 a7bd 63b4 323d ded0 fa3c 2bf4 133e
00000380: 1546 383c 2dbd 01bd 1ab9 993d 2d5d 49bc
00000390: cbff d93d 2078 433d 3131 dbbc 21e5 7abb
000003a0: 6591 aabd ec29 c6bd 3241 453c 1a7f 1a3d
000003b0: 2591 bd3d 0cf9 00bb aa76 c83c 3d6c 383c
000003c0: b21a 143e 90de 1f3e 5de0 02bd 77d0 f1bc
000003d0: a683 8fbc 5368 81bc 1ce4 9abd 9b32 a63d
000003e0: 8573 efbd f7bc e4bd cd19 febc ef29 0abe
000003f0: f9f2 f5bc 56b8 c0bb 4f49 b1bd 1018 9d3d
0.19598998 0.037320524 -0.04658986 -0.11930122 -0.07513326 0.0024568778 0.10603325 0.09861827
0.056406636 -0.10811936 -0.005533447 0.021337412 -0.07954151 -0.044926804 0.15963784 -0.010834032
-0.024997184 0.055391066 -0.0050987722 0.089053094 -0.060891885 -0.05854928 -0.110162966 0.033888023
0.01735054 0.046441827 -0.032644745 0.04055753 -0.004158347 0.0012802624 -0.039748788 0.037742354
-0.05194937 -0.11629505 0.093783915 0.073253796 -0.018730778 0.059102308 0.029598137 0.116042264
0.053790297 0.07162368 -0.04285867 0.0015808167 -0.097772494 0.04131083 -0.033502217 0.07911274
0.103203416 0.051737312 0.03781277 0.026311595 -0.088134944 -0.05924159 -0.1871903 -0.013935986
0.12716833 0.07603509 -0.04895965 -0.05997215 0.056180187 0.029452221 0.048648153 -0.084522024
-0.057774227 -0.030758923 -0.0014047159 -0.022579033 0.0809305 0.13418597 0.055857476 -0.04285205
-0.020555003 -0.0037653153 0.06534565 -0.17135066 -0.026391312 0.033330582 -0.09466999 0.06880204
0.15571818 0.13433304 -0.01687728 0.031397574 0.065558 -0.025955075 -0.08309718 -0.058866225
-0.07554236 -0.05533385 -0.095330864 0.020490354 0.018761937 0.032124687 0.04883114 -0.059268095
-0.056596704 -0.12643708 -0.010675586 0.08034933 -0.063971035 0.2779372 -0.079976484 -0.07306124
-0.048994556 0.1170521 -0.021591341 0.032955002 0.118468694 -0.02721948 0.014888088 -0.06388448
-0.09279317 -0.062451143 0.07545818 0.027516779 0.08720694 -0.042549 0.01366772 0.002924137
0.0039802655 0.054793093 0.07455467 0.016235111 -0.08418853 0.063359566 0.032268886 0.100350134
0.027090792 -0.11512995 -0.13559152 -0.13949372 0.00810465 0.09573698 0.04656589 -0.17838058
-0.07015222 -0.020203944 -0.05479452 -0.07371864 0.009433261 0.03969894 -0.018849464 0.0079462435
0.047792614 0.03432336 0.058937076 0.024768889 0.058461297 0.123055995 0.13740173 0.04812459
0.098556474 -0.09483 0.038448654 0.09859197 -0.1340728 0.05981774 0.052416712 -0.04488468
0.0049873465 0.13892403 0.0753978 -0.04030095 0.024737107 -0.09265636 -0.020386912 -0.106872804
-0.090471074 0.032366015 -0.09754739 0.08253485 0.052257676 -0.07885446 -0.0047422377 0.008844818
-0.14204831 0.067967586 -0.095735535 -0.074115 -0.13329189 0.02623638 -0.15209982 0.0019214684
-0.0084415935 -0.13344797 0.005904931 -0.11904131 -0.064074926 0.14384562 0.11984589 0.066158295
0.06488499 0.12725267 -0.042427238 0.05523845 -0.021722337 -0.004279756 0.07885388 -0.064394
-0.06573006 -0.010457477 0.07620008 -0.110471845 -0.033298377 -0.06022292 -0.07724859 -0.14627138
-0.15415725 -0.1651133 -0.01046904 0.06576807 -0.011502556 0.07240458 -0.0072344816 -0.029268172
-0.12329505 -0.07603515 -0.1389302 -0.016804777 -0.08198914 0.04362906 0.030617174 0.14448611
0.011247178 -0.031674553 0.075060084 -0.012290281 0.10644492 0.047721982 -0.026756855 -0.0038283544
-0.08328513 -0.09675965 0.01203947 0.03771887 0.092562 -0.0019679694 0.024470646 0.011256275
0.14463308 0.15612245 -0.03195225 -0.02951835 -0.01751883 -0.015796816 -0.0756304 0.08115121
-0.116919555 -0.11168855 -0.031018162 -0.13492559 -0.030023085 -0.0058813496 -0.08656561 0.07670605

net.4.module.0.bias f4 [32]
00000000: 9157 66bd 7d19 663e d258 a1bd 4d18 393e
00000010: 0436 943e 9b25 b23d 529b f33a f9b6 14bd
00000020: 43a5 863e 5f99 0f3e 4d96 253c 92cb 253e
00000030: 61b6 f5bc c69f ebbd d1a2 02bd d02c 97bd
00000040: a5ce 40be 1e04 183e 280b 3bbd 959d 8ebc
00000050: a02d 67be f6a2 1f3c cf8d 1f3e 8ee2 acbe
00000060: 86d5 043d 8df0 8a3e 545a 64bc 9fb4 493d
00000070: 8d59 be3d ebf2 97bd a2d9 3a3e 2b31 a7be
-0.056235854 0.2247066 -0.07878269 0.18075676 0.2894746 0.08698579 0.0018585718 -0.03630731
0.2629796 0.1402335 0.010106635 0.16190937 -0.029994192 -0.11505084 -0.031893555 -0.07381594
-0.18828829 0.1484532 -0.045664936 -0.017409125 -0.22575998 0.009743443 0.1558144 -0.33766598
0.032430194 0.2713665 -0.0139375515 0.04924452 0.09294424 -0.0741938 0.18247083 -0.326547

net.5.weight f4 [32, 32, 3]
00000000: 9584 d7bc 715c 76bb 7b13 073e 7f32 abbc
00000010: 595b cd3c 965a 123d 6c1e 923c 1dd4 1f3d
00000020: d79c 3f3d 936c c6bd 8cad b9bc caf3 aabd
00000030: 320c a63d 6c51 8d3d a279 353c 64da 143c
00000040: dd27 90ba 8b81 813c 9dc3 323c 133d 19bd
00000050: da38 36bd e228 ab3d d46f 4c3d bb03 083d
00000060: 9e43 403d 177f d13a 46b6 b8bb d963 353c
00000070: 13f0 83bd a05e 2cbd 3332 b13d 8f85 95bd
00000080: b892 80bc 0be3 313d 40bc 3b3c d13c b0bc
00000090: 3272 783d 30e8 b7bc f8ce 933d 7ad2 4ebc
000000a0: cf9b 14bd a784 a6bd 7e85 bfbd b11b cf3d
000000b0: bbe1 23bd 1c4f 3c3d e1f7 0abd 04fd 693d
000000c0: 2680 aebd fc10 2bbd ed08 afbd ae9c 153d
000000d0: 641d 5dbd 276d 55bd 2697 933c e32d df3c
000000e0: 825e 6dbd 675c 10bb 55bf d43c 7c3e 943b
000000f0: 8e3e a0bd 2b7c 00bd 4ccc 0a3d 28fa 74bc
00000100: 76a4 8bbd eb0c be3d 8659 703c 8eba edbc
00000110: 19a3 6cbc e923 70bd 052a 96bc 87fd 86bd
00000120: bcd9 813d 105d 843d d053 f13b 703e 59bc
00000130: f57c 963c 0606 223e 55cc d93c 119f 7ebd
00000140: 3fcc a53d 67a8 f6bd 6625 633d b4cc bfbc
00000150: 13bb 473c c32a 8a3c 25ea cbbd c175 f8bc
00000160: 8d70 03bd 22f8 c2bc 60a1 163d f6df cc3d
00000170: c27f 083d 623e 9abd a088 113b f75d 183c
00000180: 34fd bebd d372 873d 8d27 62bd 0c5b d03c
00000190: 607e 163c 8531 f73d a3bc 7ebd 26fe 0c3c
000001a0: 15bb d6bc bb6c 6b3d 8a00 4c3a 1da1 203d
000001b0: 137f b53d 98f4 0a3d 8e25 a53d b90f 6e3b
000001c0: a7e6 753d 31dc c2bb e707 7d3c eabd da3c
000001d0: 2e59 ad3c 6aa0 85bc bda8 2fbc 7b51 89bd
000001e0: 1bbc 9f3d 07f7 40bd 8a16 be3c b2df a5bd
000001f0: ea05 223d 7c2c 2ebd b7d1 8d3d 9c77 5b3d
00000200: dfdd 3e3c 3556 883d 204b 193d e2c3 b03d
00000210: eba0 2b3d ae8e 4a3c a4ea 70bd edb2 c0bd
00000220: 6931 85bd 004e 2d3c 6fb0 25bd 628e 4fbd
00000230: cd55 babd 6cb7 c13c 665b 013c 9911 b9bc
00000240: e69e 4cbd 7f8a 793d 584a 223d f355 473d
00000250: a590 80bd a282 2ebd 81d8 2b3c ff85 6c3b
00000260: fd57 133d e1af 11bd b7d2 4d3c 5365 85bd
00000270: e6c2 2d3a 2445 b63c 6c09 26bd 6a0a 62bd
00000280: 2f47 b3bc bf7f 223d a524 ecbc ce07 4d3b
00000290: baa1 a2bd f4b9 bfbc 8677 c4bc 54f4 03bc
000002a0: d6f0 51bd 2a8d 203d 0c43 6a3d c75b 19ba
000002b0: f34f e6bc 4d2d ca3d beec 7f3d 9362 ca3c
000002c0: 5d61 8fbc eb28 aebd 568f 093d 2294 2a3d
000002d0: c58f 023d 637b 94bc 58fd 393d addc 923d
000002e0: 12dc f3bc d9f3 50ba 9c85 283d 75f4 abbb
000002f0: b904 0c3e 22fe e13c 574e dcbc 98ba b03b
00000300: 079f e73c 9f1c 033d fcf4 6fbd 2c1f a3bd
00000310: 7b7b 18bd c356 e3bd fa4d d23d 176f c6bc
00000320: 0c68 d13d f65a 11be 39dd 97bd fad1 59bd
00000330: 6f8f 153d 6a9d 59bd 8cd2 6c3c 6437 06bb
00000340: 3d29 2c3d a2b1 863d 229d 66bd 557a 90bd
00000350: 919d 15bd e744 e5bc de40 c73d 5a95 903d
00000360: e15d 453c 2c74 cebd 7240 a13c 2856 58bd
00000370: 5ee4 253b 78b8 6c3d cd83 773d 8f34 e13c
00000380: 3ccf d7bc fa00 0a3d b272 9bbc 8bbd 8dbd
00000390: a121 b83d 0770 b73b 4922 7dbd b840 673d
000003a0: 9b1f 0c3c 709e 6ebd df73 043b 5dcf 883c
000003b0: 74c9 b3bc 21f8 e2bc 7ad0 c93b 9e9d 753d
000003c0: a9d9 67bd c2c3 b73c 15a9 acbd abee e8bc
000003d0: 9e24 943d 2bc3 e2bd 2eaf 433c 068e 85bc
000003e0: 54ee 62bd ff8a a33d e556 6b3d a187 c5bb
000003f0: c6f7 c9bd 266b f63c 4429 793c 71c7 87bd
-0.026308337 -0.003759172 0.13191025 -0.020898102 0.025067972 0.03573092 0.017836772 0.039020646
0.046780434 -0.09688678 -0.022665761 -0.0834728 0.08107795 0.069002956 0.011076363 0.0090852715
-0.0010998208 0.015808841 0.010910896 -0.03741176 -0.04448781 0.08357407 0.049911335 0.033206683
0.046939485 0.001598331 -0.005636963 0.011071169 -0.06442275 -0.04208243 0.08652153 -0.07300865
-0.015694961 0.043429416 0.0114584565 -0.021513375 0.06065578 -0.022449583 0.072172105 -0.012623424
-0.036281403 -0.0813077 -0.093516335 0.101127036 -0.040010195 0.045973882 -0.033927802 0.05712606
-0.08520536 -0.041764244 -0.08546624 0.036526375 -0.053983107 -0.05210605 0.01801641 0.02724356
-0.057951458 -0.0022027732 0.02597014 0.0045240503 -0.07824431 -0.031368416 0.03388624 -0.01495222
-0.06818478 0.09279808 0.014669782 -0.02901962 -0.014443182 -0.058627997 -0.018330583 -0.06591325
0.06340358 0.06463063 0.0073647276 -0.013259515 0.018370131 0.1582261 0.02658669 -0.062163416
0.080955975 -0.12043839 0.055455588 -0.02341304 0.012190598 0.016866094 -0.09956769 -0.030329587
-0.03208976 -0.02379996 0.036774993 0.10003655 0.033324964 -0.0753143 0.002220668 0.009299747
-0.093256384 0.06613698 -0.0552135 0.02543404 0.009185404 0.12069992 -0.062191617 0.008605516
-0.026212255 0.05747674 0.0007782063 0.03921615 0.08862128 0.03392467 0.080638036 0.003632529
0.06003442 -0.005946659 0.015443779 0.026701886 0.021160688 -0.016311843 -0.010721383 -0.06704994
0.0779955 -0.047110584 0.023204107 -0.08099307 0.03955642 -0.042522892 0.069247656 0.053580865
0.011649578 0.06657068 0.03742516 0.08631112 0.04190151 0.012363119 -0.05881752 -0.094091274
-0.06503565 0.010577679 -0.040451463 -0.050672896 -0.090983965 0.023647033 0.007895326 -0.022591399
-0.049956225 0.060923096 0.03962168 0.048665952 -0.06277589 -0.04260505 0.01048863 0.003609061
0.035972584 -0.03556812 0.012562445 -0.06513467 0.00066284684 0.022249766 -0.04053633 -0.055185713
-0.021884529 0.03967261 -0.028826067 0.003128517 -0.07941003 -0.023404099 -0.023982774 -0.008053858
-0.05125507 0.039197125 0.057192847 -0.00058501627 -0.028114295 0.09871922 0.062481634 0.024705207
-0.017502481 -0.08503898 0.03358396 0.041645177 0.03187539 -0.018125242 0.045407623 0.07170997
-0.029768024 -0.00079709064 0.041143045 -0.0052476474 0.13673677 0.027587 -0.026892824 0.0053933375
0.028274072 0.032009717 -0.058583245 -0.0796493 -0.037227135 -0.11100533 0.10268779 -0.024222894
0.102249235 -0.14194855 -0.07415242 -0.053178765 0.036513742 -0.053128637 0.014454495 -0.0020479793
0.042031515 0.065768495 -0.056302197 -0.07054583 -0.03652722 -0.027986957 0.09729169 0.070597365
0.012046308 -0.10080752 0.01968405 -0.05281654 0.002531312 0.05779311 0.06042843 0.027490882
-0.026343934 0.033692338 -0.01897559 -0.06920918 0.08990789 0.0055980715 -0.061800275 0.056458205
0.008552457 -0.058256567 0.0020210666 0.016700441 -0.021946646 -0.027706208 0.0061588855 0.05996477
-0.05660406 0.022432212 -0.08430687 -0.028434118 0.07233547 -0.110723816 0.011943622 -0.016303074
-0.05540307 0.07985496 0.057455916 -0.006028131 -0.09861712 0.03008039 0.015207592 -0.06629837

net.5.bias f4 [32]
00000000: 308b 363e edb8 193e 6537 d2bc 7095 023d
00000010: 7b4c 1e3d ffca 1d3d 39d5 4bbe d47d 013d
00000020: 59ab e63c 0cb4 4cbe d502 55bd cb89 edbd
00000030: 762c 96bd 18cf fabd c93e 1fbe 6c0c 4bbb
00000040: 9717 c13c d1df 4cbe 9e81 213d 12cf 103d
00000050: cddc 723c 5aae 1ebd 2aef 8f3c 8101 6abc
00000060: 1512 953c d9d7 cebd 3c43 0a3e 2193 0f3e
00000070: 12fe 7e3e d82c 8e3c 950d 433e 089b b2bd
0.17826533 0.1501195 -0.02566118 0.031880796 0.038647156 0.03852367 -0.19905557 0.03161414
0.028157877 -0.19990557 -0.052004654 -0.115985475 -0.07332699 -0.12246531 -0.15551294 -0.0030982746
0.023570819 -0.20007254 0.039430253 0.035353728 0.014823151 -0.038740493 0.017570097 -0.014282585
0.018197099 -0.100997634 0.1350221 0.14020969 0.24901608 0.017355368 0.1904815 -0.08720976

exp_avg f4 [32, 21, 2]
00000000: b18d 1ab9 1c05 59ba 3453 40bb 662c f8bb
00000010: b945 8139 52d6 fb38 b6fa 4e39 1c26 b938
00000020: b5bd b139 6366 7f39 b8b9 2d37 53cd 13ba
00000030: 42cd 98b9 bf8f 1eba b07a 8d37 9d68 2cb7
00000040: 487f 23b9 b052 47b9 52a8 67b9 224a a6b9
00000050: 805a 9e36 f0b4 41b8 6cd3 10b9 d28a 9cb9
00000060: ba24 7b39 70a5 df38 58bd a8ba 7899 73b9
00000070: 98f8 2639 d1aa d439 440f 663a 66db 723a
00000080: 144d e4ba ccaa 97ba 1f36 15ba a2b5 4eba
00000090: 68dd 953a bef5 ca3a 5219 1dba c30b aab9
000000a0: 3438 faba 40c1 20bb 105b 71b8 bc1d 1db9
000000b0: 4267 fb3b 0813 f53b 626b ab37 dc1c 5b37
000000c0: 8947 2e37 da3c e6b8 3826 c736 9f1f 36b7
000000d0: 7f95 4aba 3dda 4f3a 4a55 5cba 6ebf 683a
000000e0: 5c73 8339 ceb2 10b9 a0a8 f6b8 5e67 5eba
000000f0: 2a74 bb39 6a8d 2939 0620 123a a807 a2b8
00000100: 97ec d939 2c2c 143a 9e0c 843a 1498 833a
00000110: bdb5 8839 40cc 9d3a 211e 02ba 8ee8 37b9
00000120: 1602 f5ba 569e f33a d029 9fb9 a86c 353a
00000130: e814 8539 4aac bc39 601f c8ba 3ccb 98ba
00000140: ffd6 3e39 e9b2 8239 1eb5 403a e1e8 ad3b
00000150: 32f5 13b9 9853 2db8 435f 88bc 7a89 94bc
00000160: f895 56b8 1e37 0bb9 e671 9d38 60c2 0437
00000170: 300f 3639 9509 e239 f50c 85b9 3c00 d6ba
00000180: 6660 dc39 65c6 9ab9 34f4 9b39 6050 c6b9
00000190: a690 72ba 148a a4b9 cf61 25ba 98b0 1eba
000001a0: 7146 2fba 0214 4dba 919b efb9 eade c5ba
000001b0: 776e aaba f722 74ba 72db 5abb 5663 dcba
000001c0: d646 a13a 9272 fb38 b66c c8ba 5e24 99ba
000001d0: 4891 6dbb ea26 2dbb c095 4e37 007a dd37
000001e0: b243 67ba c312 8bba 5e12 a639 b788 063a
000001f0: 4c07 a6bb c046 eabb ca4a 7cb9 e068 27ba
00000200: 564c 733b 6e5d 0d3b 4041 4c38 6469 b739
00000210: 8751 2739 3921 5139 9afa c437 b2f9 ad38
00000220: 85c3 e2b9 b106 0a3a 1754 66ba fbb3 92ba
00000230: 56a1 7439 c9c2 a839 b4a9 dfba 2434 88ba
00000240: b4d1 e539 dc98 eb38 b12b c538 c832 8739
00000250: bbd0 ec39 acff 2b3a 3a02 7c3a 8bac 7b3a
00000260: 88be 0a3b 12b3 d939 c1fc 56b9 daa5 fbb8
00000270: c2b6 863a b69b 333b dcbe d7b9 1579 be39
00000280: eafa c8b9 f264 2e39 323e 1a3a 509b 0038
00000290: 6c5d 66ba 3109 75ba c407 fb3a cdaa 0c3b
000002a0: 7e01 25ba 36f5 ff38 bed2 cd3c e497 ae3c
000002b0: 634d c9b8 28e0 2738 0e84 3439 98ba 4237
000002c0: 3ab8 e638 4ad1 c738 72ca 1db9 f474 fd3a
000002d0: fc36 6139 87b2 ad39 e1d7 d039 7477 e4b9
000002e0: 9bf4 883a 203b 5eba d8e8 ae3a b39f b13a
000002f0: da37 a43a 177e bd3a 1c35 9c3a 8d13 bf3a
00000300: 73e2 9739 14c9 4f3a 8e3c 533b 5203 143b
00000310: 0e68 17ba 2e28 7b39 7081 053b e07d 943b
00000320: 3c84 693b 38ec 5e3b e0c3 d439 098f 9d3a
00000330: 3e7b e33a 786f 8bba 8249 cbb9 54c3 e2b9
00000340: f614 013c 1013 b23b 2c57 b0b9 dcc2 0cba
00000350: 041c 23b8 274c ef39 5aa2 2239 6f76 0839
00000360: 7e7b 90b8 0894 7f38 6c04 0b39 c626 bbb7
00000370: a13a 20ba f496 81ba a65e 60b9 a097 e3b9
00000380: c847 ab39 e445 dcb8 46b3 1e3a da07 85b9
00000390: 360a 6939 4930 e238 ada2 b3b9 899a b3b9
000003a0: 743f 0539 1af8 eab8 32b3 e2b9 143c 95b9
000003b0: 304f 64ba ba64 b039 89ad 9438 de0f 4f38
000003c0: 74d5 be39 80da 79b7 5e49 2cba 4842 ecb9
000003d0: f81b 0538 a1d7 6e39 111e 583a 0137 1c39
000003e0: 22fe 99b9 a21a 7fb9 7ecc beba d828 e2ba
000003f0: 4085 4a36 8eae 333a e09b 553c 50cc 5f3c
-0.00014739369 -0.00082786544 -0.0029346468 -0.007573652 0.00024656745 0.00012008533 0.00019739088 8.828586e-05
0.00033901414 0.00024356837 1.0354845e-05 -0.00056382007 -0.00029144628 -0.00060486415 1.686564e-05 -1.0276356e-05
-0.00015592307 -0.00019008922 -0.00022092581 -0.0003171722 4.7193025e-06 -4.6183297e-05 -0.00013811671 -0.00029858068
0.00023950907 0.00010664284 -0.0012873812 -0.00023231457 0.00015923602 0.0004056306 0.00087760785 0.00092642603
-0.0017417991 -0.0011571287 -0.00056919636 -0.0007885342 0.0011433782 0.0015484614 -0.0005992848 -0.0003243369
-0.0019090236 -0.0024529248 -5.7543686e-05 -0.00014983764 0.0076722214 0.0074790753 2.0434793e-05 1.3060137e-05
1.0387864e-05 -0.00010978589 5.9351114e-06 -1.0855408e-05 -0.0007727965 0.00079289434 -0.0008405043 0.0008878623
0.00025072217 -0.0001379952 -0.00011761603 -0.0008484031 0.00035753968 0.00016169777 0.000557423 -7.726188e-05
0.00041565739 0.0005652334 0.0010074561 0.001003983 0.00026075347 0.0012039021 -0.0004963596 -0.00017538873
-0.0018692638 0.0018586616 -0.00030357996 0.0006920793 0.00025383313 0.0003598652 -0.001526814 -0.0011657248
0.00018199904 0.0002492883 0.00073512073 0.0053073023 -0.00014110355 -4.1324267e-05 -0.016646987 -0.01813196
-5.1161245e-05 -0.00013276606 7.5075586e-05 7.91307e-06 0.0001736253 0.00043113218 -0.0002537739 -0.0016326974
0.00042033492 -0.00029520984 0.0002974585 -0.00037825387 -0.00092531217 -0.00031383394 -0.0006308825 -0.0006053536
-0.0006686217 -0.0007823111 -0.00045701538 -0.0015096341 -0.0013002892 -0.00093130715 -0.003339496 -0.0016814272
0.0012304436 0.00011989953 -0.0015291187 -0.0011683812 -0.0036249924 -0.00264209 1.2313423e-05 2.6402064e-05
-0.0008822038 -0.001061045 0.00031675672 0.00051320664 -0.005066788 -0.0071495473 -0.00024060454 -0.0006386172
0.0037124357 0.002157058 4.869816e-05 0.00034983002 0.00015956732 0.0001994417 2.3481716e-05 8.295792e-05
-0.00043251753 0.00052652793 -0.0008786334 -0.0011192554 0.00023329756 0.00032188583 -0.0017064125 -0.0010391516
0.00043834525 0.000112341455 9.40183e-05 0.00025787042 0.00045168944 0.00065612304 0.0009613369 0.0009600601
0.0021170694 0.00041522883 -0.00020502789 -0.00011999505 0.0010277855 0.0027406043 -0.00041150197 0.00036329837
-0.00038333918 0.00016631538 0.00058839016 3.0662224e-05 -0.00087877247 -0.0009347378 0.0019152095 0.002146411
-0.0006294473 0.000122050216 0.025124904 0.021312661 -9.598841e-05 4.0024664e-05 0.00017215332 1.1606746e-05
0.000110015695 9.5280426e-05 -0.00015048104 0.0019337223 0.00021478155 0.00033130145 0.00039833694 -0.00043576548
0.0010448875 -0.0008477438 0.0013344539 0.0013551622 0.0012528852 0.0014457133 0.0011917683 0.001457797
0.00028969682 0.00079263863 0.0032232138 0.0022584987 -0.0005775698 0.00023952193 0.002037134 0.004531607
0.0035631796 0.003401531 0.0004058173 0.0012020777 0.0017355455 -0.0010638079 -0.00038773945 -0.0004325161
0.007878533 0.0054344013 -0.00033634284 -0.00053696125 -3.888832e-05 0.0004564237 0.00015510005 0.0001301409
-6.889457e-05 6.0934603e-05 0.0001325772 -2.2310192e-05 -0.0006112252 -0.0009886906 -0.00021397564 -0.00043409783
0.00032669143 -0.000105034356 0.00060539355 -0.00025373587 0.00022224415 0.000107855136 -0.00034262743 -0.00034256678
0.00012707507 -0.00011204202 -0.0004323959 -0.00028464256 -0.00087093096 0.00033644383 7.0895134e-05 4.9367423e-05
0.0003639866 -1.489243e-05 -0.0006572212 -0.0004506281 3.173572e-05 0.00022777777 0.00082442263 0.0001489781
-0.00029371778 -0.00024328617 -0.0014556793 -0.0017254604 3.0177907e-06 0.0006854319 0.013037652 0.013659552

exp_avg_sq f4 [32, 21, 2]
00000000: 26cb 0036 71db e635 f25c 913a b71d 973a
00000010: 2b4b 6835 5bdf 4735 6cad ef34 ddc6 d534
00000020: 16e4 0c35 c803 7934 a241 7637 7834 d437
00000030: 5d04 8b37 86ad d436 a631 3837 52eb 3837
00000040: d73d 0d38 77f1 b337 3cca 1636 5f6a 1b36
00000050: 2380 2437 6362 1837 e0fc fa36 df7b 3b36
00000060: 2a10 3937 f821 1937 7343 9e38 7a99 0f38
00000070: fd30 cb36 e349 e036 58f4 a438 7a1e 8238
00000080: 1a41 1439 f0ff 8138 9722 7e37 fdaa 2f37
00000090: 4ebc a237 1514 c737 ddc1 7a36 cbe3 1a36
000000a0: 1de7 a539 3f58 7439 aa94 f134 e639 4535
000000b0: be58 fc3a 6f1d 623a d5cb 2734 c623 4034
000000c0: c42a 2933 405f 6f33 9157 3533 72a0 b132
000000d0: e7b5 0238 a85d 4b37 582a 1436 dc0b 8736
000000e0: 1173 2e36 161e d036 4c76 0037 0064 0f37
000000f0: fb1b 6b35 b9a4 7435 12b7 1c37 6b81 6f36
00000100: dc84 3b36 c0ee 1c36 3228 5437 f890 3a37
00000110: ebfe 1638 7732 0938 cf78 d035 64d9 4e36
00000120: f96b 2638 2f0a 7a38 7d93 7f37 1540 7338
00000130: 2b33 bd36 2aae f735 67fa 9337 8d50 0237
00000140: 752a 0336 fc87 3e36 5158 1939 9367 b539
00000150: 5d85 2f36 d7a5 2236 7950 f03b 2835 f53b
00000160: c495 ec35 5be3 e135 7256 1a35 a921 0735
00000170: fe96 7335 8800 5d35 274a af38 b33a 9c38
00000180: b6a2 1238 f93c 0a38 a497 bc37 1e7b b937
00000190: 67e3 8838 6050 8b38 1560 5a36 7ca2 7936
000001a0: 72e4 b737 cb97 c537 f656 5937 84ad 6037
000001b0: 31c0 0338 5771 0038 4124 3439 fd47 2739
000001c0: b060 9537 1323 9037 c956 4139 310b 5139
000001d0: 9fb6 a439 865c 9c39 2e77 c637 e48b b537
000001e0: 4776 f337 f71a 0238 568b 7a36 ffc2 8f36
000001f0: f49b 083a b62f e439 ff59 0336 2cdf eb35
00000200: e94a 863b 2944 533b f096 cd35 b895 d635
00000210: 9e20 1835 46fc 1a35 9aaa 1335 0d39 6d35
00000220: d9fa 2a38 e88b 4d38 b185 b437 341a 9d37
00000230: 471f 3f37 9de1 7337 2631 5038 e3aa 3d38
00000240: 785d 2336 2960 f235 e11d 1d37 a26b 0937
00000250: 6f9d 1737 ab49 ba36 e8a4 a737 f7b1 3237
00000260: 96ca ea38 c9fb f538 f107 8837 d336 6037
00000270: afe6 0c39 970c 0539 854e 5239 42d5 0039
00000280: 774a 9337 cde9 9337 20ec 0038 126a ca37
00000290: 438a 8936 717e 8436 4ab3 dc39 4797 f839
000002a0: f770 a135 5171 4e35 d437 0a3c cb39 eb3b
000002b0: 8217 2635 3547 d135 184f 8c34 b0c4 8634
000002c0: a77a 6a34 ed2b 9134 5d40 a637 6cdb 5038
000002d0: a508 c637 556b 5b37 7d2a f336 c3db 9e37
000002e0: eb07 9237 f5d3 6337 0766 a136 e21c 9336
000002f0: fc98 d437 7626 0a38 1a14 0a37 4613 8337
00000300: 3b22 6c37 cc1b e837 9236 0b39 ba5e 3d39
00000310: 3e44 a737 8248 0737 f29e ca38 db24 6239
00000320: a57c 7b39 6a36 9239 cdbb 5a37 23c2 f137
00000330: 3836 9f37 966c 4a38 0386 8a36 5191 5836
00000340: 3932 3e3a c27f 0c3a 7078 4635 880c 6735
00000350: 9ee1 b539 e3eb eb38 d2dc b934 70e7 2534
00000360: f274 1b34 6b12 d433 6d9c 9933 ce0b c532
00000370: a912 8336 0650 b636 75bf 3a36 5cbf 4636
00000380: 8f55 3336 67a2 0e35 ed2b ae36 becc 6236
00000390: 1c66 e634 0173 a433 294c 4036 f46c f735
000003a0: 89bb e635 d1a3 1635 2f21 fc35 de3e e335
000003b0: 3caa 2837 fdbf 8237 03e1 3d36 827d 8035
000003c0: 8a0d 5a37 2a07 6b36 89b9 5637 fef4 d437
000003d0: 9cb2 3936 dc3c 0e36 bfc4 8736 b612 9036
000003e0: 9e65 2f35 e377 f034 84ea 0138 8378 ac37
000003f0: 6c10 c235 aaff f935 511b be3b 3fed bf3b
1.9191734e-06 1.7200201e-06 0.0011090322 0.0011529241 8.653612e-07 7.44583e-07 4.46434e-07 3.9819034e-07
5.2485973e-07 2.3191308e-07 1.4678024e-05 2.5296802e-05 1.6572123e-05 6.338293e-06 1.0978814e-05 1.1022044e-05
3.3674612e-05 2.1450904e-05 2.2469458e-06 2.3158716e-06 9.804996e-06 9.082813e-06 7.480019e-06 2.7937274e-06
1.1030623e-05 9.12742e-06 7.5465905e-05 3.4236793e-05 6.0555744e-06 6.6843218e-06 7.865642e-05 6.20456e-05
0.00014138632 6.1988714e-05 1.5147633e-05 1.0470624e-05 1.9399591e-05 2.3732e-05 3.7365746e-06 2.3080381e-06
0.00031643445 0.00023302528 4.4997915e-07 7.347247e-07 0.0019252521 0.0008625602 1.562724e-07 1.7894408e-07
3.9387274e-08 5.5733153e-08 4.2221988e-08 2.0678474e-08 3.1163825e-05 1.2121549e-05 2.2078366e-06 4.024694e-06
2.5994998e-06 6.2023855e-06 7.656938e-06 8.546747e-06 8.758504e-07 9.1136786e-07 9.340949e-06 3.5689106e-06
2.7942506e-06 2.3384782e-06 1.2645543e-05 1.1120217e-05 3.6000198e-05 3.2710344e-05 1.5532368e-06 3.082293e-06
3.967804e-05 5.961413e-05 1.5233524e-05 5.7995396e-05 5.6385957e-06 1.8453622e-06 1.7640368e-05 7.7673585e-06
1.9545234e-06 2.839136e-06 0.00014624117 0.0003460018 2.615466e-06 2.4236413e-06 0.007333812 0.0074831434
1.7626958e-06 1.6829975e-06 5.7495265e-07 5.03404e-07 9.0744277e-07 8.232969e-07 8.358462e-05 7.449593e-05
3.496065e-05 3.295855e-05 2.248196e-05 2.211105e-05 6.527342e-05 6.6430075e-05 3.2540459e-06 3.719847e-06
2.1921678e-05 2.3554914e-05 1.2954455e-05 1.339184e-05 3.1411826e-05 3.0623134e-05 0.00017179643 0.00015953179
1.7807208e-05 1.718247e-05 0.00018438244 0.00019935962 0.0003141658 0.00029823574 2.3658937e-05 2.1642023e-05
2.9022935e-05 3.101953e-05 3.7334007e-06 4.2844326e-06 0.0005211227 0.00043523096 1.9572906e-06 1.7573816e-06
0.0040982855 0.0032236672 1.5317619e-06 1.5987816e-06 5.6671877e-07 5.7736577e-07 5.5010025e-07 8.83724e-07
4.076478e-05 4.9006107e-05 2.1519927e-05 1.872806e-05 1.13917695e-05 1.4536458e-05 4.9636838e-05 4.5220262e-05
2.4343299e-06 1.8058391e-06 9.364886e-06 8.190897e-06 9.036957e-06 5.551808e-06 1.9984742e-05 1.0651062e-05
0.00011195724 0.00011729409 1.6216161e-05 1.3364205e-05 0.00013437377 0.00012688558 0.00020056411 0.00012286476
1.7558441e-05 1.7632638e-05 3.0737487e-05 2.412967e-05 4.099014e-06 3.9486263e-06 0.0004209525 0.00047414956
1.2028312e-06 7.690588e-07 0.008436162 0.0071785203 6.187403e-07 1.5592437e-06 2.613458e-07 2.5102554e-07
2.1837569e-07 2.7040315e-07 1.9818714e-05 4.9795417e-05 2.3607465e-05 1.3078407e-05 7.2469106e-06 1.8937402e-05
1.7408243e-05 1.35796045e-05 4.8100515e-06 4.384304e-06 2.5343608e-05 3.2937583e-05 8.230121e-06 1.5625392e-05
1.4074666e-05 2.76695e-05 0.00013276402 0.00018059733 1.993973e-05 8.063509e-06 9.6617165e-05 0.0002156677
0.00023983659 0.00027887832 1.3037538e-05 2.881984e-05 1.8979525e-05 4.826168e-05 4.1283215e-06 3.2271093e-06
0.00072554086 0.00053596136 7.393601e-07 8.607244e-07 0.00034691108 0.000112496105 3.4619603e-07 1.5451019e-07
1.4478044e-07 9.8753695e-08 7.1530714e-08 2.2939187e-08 3.9062766e-06 5.4333386e-06 2.7827602e-06 2.9615685e-06
2.672288e-06 5.313545e-07 5.1907177e-06 3.37958e-06 4.2915133e-07 7.657764e-08 2.865456e-06 1.8434644e-06
1.7190915e-06 5.611774e-07 1.8785121e-06 1.6931115e-06 1.0053216e-05 1.558661e-05 2.8294169e-06 9.573271e-07
1.2996965e-05 3.5021899e-06 1.2798592e-05 2.5386453e-05 2.7671113e-06 2.1195074e-06 4.046218e-06 4.2937127e-06
6.534045e-07 4.4790713e-07 3.0974406e-05 2.0560115e-05 1.4458906e-06 1.8626354e-06 0.005801596 0.0058571394

exp_avg f4 [32]
00000000: 17a9 edb8 8cd9 2238 3034 24b8 7abf 69b8
00000010: 1366 0139 64cf b3b8 8536 0739 7517 6238
00000020: 6edd d8b8 1632 b2b8 e474 4638 5065 37b8
00000030: 62ef 67b8 a0da 2337 e8f5 5c38 5100 3ab9
00000040: 803a 85b6 0c33 c038 a8e0 12b8 a851 4cb9
00000050: 495a 1239 f6d2 d238 b0a5 5338 1c43 2939
00000060: b2d8 2fb9 cfac 82b8 94ff ba38 b4f2 cab7
00000070: 3179 1539 4a72 1fb8 16c1 d338 e095 44b6
-0.00011332536 3.8826416e-05 -3.914925e-05 -5.5729855e-05 0.00012340424 -8.574015e-05 0.00012894913 5.3904445e-05
-0.00010340927 -8.497031e-05 4.731574e-05 -4.3724955e-05 -5.5297634e-05 9.76646e-06 5.2681105e-05 -0.0001773846
-3.970519e-06 9.164782e-05 -3.501834e-05 -0.00019485375 0.00013957279 0.00010052875 5.046063e-05 0.00016142096
-0.00016770026 -6.231071e-05 8.916776e-05 -2.4193294e-05 0.00014254895 -3.8014994e-05 0.00010097229 -2.9293515e-06
