rnn_models/rnn_model_10000_reach1_4_2024-05-04_03-49-37.pth (torch, 169402 bytes, 6 tensors)

rnn.weight_ih_l0 f4 [64, 538]
0.0026580004 -0.021594519 0.00025938576 -0.016276674 -0.008872146 0.04666886 -0.010450082 -0.02880669
0.007606665 -0.030635329 0.0071633225 0.0018689875 0.025217986 0.011147918 -0.030255914 0.032831814
-0.013465973 -0.002201288 0.006957538 -0.0469608 -0.016669935 -0.013810915 0.04458007 -0.037858736
-0.008114001 0.03912496 0.0020452673 -0.018414717 -0.0053248266 -0.0021661331 -0.03034935 -0.03652484
-0.05100408 -3.4337e-41 -0.04723678 0.04469756 -0.01572035 0.06526235 0.020626917 -0.019192137
0.0035834578 -0.0060515394 -0.017748352 -0.056372643 -0.015899207 0.026794322 -0.0022940638 -0.02194812
0.0054865964 -3.5378032e-06 0.005891723 -0.027919821 -0.017281033 0.043850657 0.013423898 -0.054092657
0.0012189036 0.0054893685 -0.037889194 -0.015025555 0.010330937 0.026829468 -0.049162608 -0.049534492
-0.026749099 0.0017008085 -0.0055783745 0.073805235 -0.044266716 -0.0046215127 0.015890991 0.003209119
-0.006916461 -0.033331722 0.045950145 0.051447943 0.032703303 0.00788164 0.06874459 0.014167008
0.008902915 0.029670406 -0.0044661076 0.033379436 -0.020659883 -0.012958931 0.032110967 0.011911073
-0.020496855 0.033417437 -0.036485057 0.006496793 -0.03136942 0.009182279 -0.031636175 0.004389766
0.0010538966 0.014008748 0.054491747 -0.034986272 -0.012775656 0.02038546 -0.024847342 0.0069962298
-0.029580062 -0.005177247 -0.025814421 -0.019069022 0.0061568944 -0.026661702 -0.010628687 0.009332977
-0.005720246 0.02467751 0.0021961704 0.09951295 -0.034950238 0.007729682 0.020558406 0.07537034
0.029309785 0.049660433 0.012595851 -0.0023697852 0.0038020553 -0.049561013 -0.0020820776 0.030902984
-0.01082752 0.019711394 0.009134625 0.016017973 0.0023194118 0.003916336 0.0111709 0.0030594685
-0.014164335 0.015192322 0.02596632 0.009626321 0.05309503 0.022890905 0.009002566 0.006862517
-0.00995089 0.01044047 -0.015230365 0.026715469 0.004422168 -0.11864961 -0.035690602 0.0005804237
-0.0649562 -0.035896085 -0.0691623 -0.07825884 -0.0031288576 0.01098866 0.0010228389 -0.063051224
-0.005355456 0.015578235 0.009562795 -0.016046027 -0.039249532 0.022050926 0.0017556655 0.058986824
-0.058067966 -0.06268968 0.1362242 -0.1005206 -0.0014377065 -0.01897622 0.021878181 -0.02070456
0.07671046 0.016325496 0.02184812 0.0012696311 0.069352284 -0.0076302616 0.03734224 -0.053708952
-0.01166997 -0.03526658 0.005563044 -0.023157388 -0.11293036 0.010977941 0.029549738 0.010217392
0.02255915 -0.09201619 -0.06269492 0.0016037574 0.029438633 -0.00017903172 -0.055844177 -0.029791951
-0.0073821307 0.008530877 0.058335226 -0.03028644 0.05168686 0.020601721 0.02650474 -0.060863875
0.037538607 0.0015052303 -0.08037829 0.021983217 0.015461847 0.017272009 0.007641163 -0.02351288
-0.006943229 -0.08314122 -0.008070263 0.00038972532 -0.0008269908 0.008744805 -0.00090791285 -0.010868091
0.024648035 -0.035066828 0.017492885 -0.015500927 -0.022014938 -0.0554341 0.025651542 0.033385813
0.009731805 0.031977177 -0.03791819 0.027181573 -0.035329953 -0.05734018 -0.03558877 0.054391053
0.021742685 -0.0060297153 -0.036403608 -0.009019389 -0.04678675 0.077843875 0.065378316 0.07911179
-0.021018382 0.022107517 -0.048642006 0.014441042 -0.051738903 0.012998706 -0.013694058 0.040542148
00000000: d931 2e3b fde6 b0bc 2bfe 8739 a956 85bc
00000010: 7a5c 11bc d927 3f3d d236 2bbc 02fc ebbc
00000020: 5541 f93b f1f6 fabc 4eba ea3b d0f8 f43a
00000030: f395 ce3c c2a5 363c 40db f7bc a77a 063d
00000040: 62a0 5cbc 7c43 10bb 0ffc e33b f859 40bd
00000050: 638f 88bc 2d47 62bc 9799 363d c311 1bbd
00000060: 96f0 04bc 7e41 203d e409 063b 76da 96bc
00000070: e27b aebb aff5 0dbb 339f f8bc 129b 15bd
00000080: a7e9 50bd b85f 0080 5b7b 41bd ca14 373d
00000090: f7c7 80bc 44a8 853d c8f9 a83c d438 9dbc
000000a0: 72d8 6a3b fe4b c6bb fe64 91bc 00e7 66bd
000000b0: 0e3f 82bc c47f db3c 0158 16bb 8bcc b3bc
000000c0: e8c8 b33b ff6a 6db6 5b0f c13b 1cb8 e4bc
000000d0: f490 8dbc bf9c 333d e9ef 5b3c 4390 5dbd
000000e0: 9ec3 9f3a 29e0 b33b b331 1bbd bf2d 76bc
000000f0: 1743 293c 79c9 db3c bb5e 49bd aee4 4abd
00000100: ed20 dbbc aaed de3a ccca b6bb 3327 973d
00000110: 0451 35bd 0f70 97bb d32d 823c 1550 523b
00000120: 7ba3 e2bb d886 08bd 3836 3c3d 14bb 523d
00000130: e6f3 053d ff21 013c f7c9 8c3d bd1c 683c
00000140: 88dd 113c 5a0f f33c 6d58 92bb e0b8 083d
00000150: ea3e a9bc b251 54bc ca86 033d a926 433c
00000160: 05e9 a7bc b9e0 083d 5b71 15bd 0de3 d43b
00000170: 397d 00bd 4571 163c ef94 01bd 07d8 8f3b
00000180: e722 8a3a f384 653c bd32 5f3d c44d 0fbd
00000190: fc50 51bc 69ff a63c a78c cbbc a140 e53b
000001a0: e351 f2bc e5a5 a9bb c478 d3bc a336 9cbc
000001b0: c6bf c93b a469 dabc f223 2ebc 58e9 183c
000001c0: e770 bbbb 7d28 ca3c a0ed 0f3b 72cd cb3d
000001d0: fb27 0fbd 4649 fd3b 1a6a a83c c45b 9a3d
000001e0: 131b f03c bd68 4b3d d45e 4e3c 664e 1bbb
000001f0: e72b 793b 7d00 4bbd 7773 08bb 4128 fd3c
00000200: e965 31bc ca79 a13c 65a9 153c 2038 833c
00000210: 4601 183b 9c54 803b 2706 373c 5d81 483b
00000220: 8711 68bc 38e9 783c 52b7 d43c b7b7 1d3c
00000230: 2d7a 593d b585 bb3c 807f 133c f7de e03b
00000240: 0f09 23bc 810e 2b3c c888 79bc 66da da3c
00000250: d5e7 903b 91fe f2bd 4f30 12bd 9327 183a
00000260: c207 85bd c607 13bd f7a4 8dbd 2c46 a0bd
00000270: 850d 4dbb c809 343c c710 863a 0021 81bd
00000280: d27c afbb da3b 7f3c 45ad 1c3c f572 83bc
00000290: 1ec4 20bd 25a4 b43c 5c1e e63a 2b9c 713d
000002a0: add8 6dbd 7263 80bd 5b7e 0b3e bfdd cdbd
000002b0: 6d71 bcba 0574 9bbc df39 b33c 9c9c a9bc
000002c0: 601a 9d3d 0cbd 853c d4fa b23c c069 a63a
000002d0: 9208 8e3d 4607 fabb 2df4 183d ebfd 5bbd
000002e0: 6733 3fbc b073 10bd 324a b63b 90b4 bdbc
000002f0: 0848 e7bd d2dc 333c 4b12 f23c d966 273c
00000300: f7cd b83c fc72 bcbd 3266 80bd 2b35 d23a
00000310: 4a29 f13c 76ba 3bb9 ddbc 64bd 400e f4bc
00000320: cde5 f1bb 17c5 0b3c ebf0 6e3d 451b f8bc
00000330: 9ab5 533d f1c4 a83c 7820 d93c 664c 79bd
00000340: 15c2 193d 264b c53a 5f9d a4bd 2616 b43c
00000350: b053 7d3c 077e 8d3c b962 fa3b 159e c0bc
00000360: 0784 e3bb f245 aabd 2339 04bc 0c54 cc39
00000370: 6aca 58ba 5f46 0f3c 0001 6eba 1410 32bc
00000380: adea c93c 3ca2 0fbd 3d4d 8f3c 9af7 7dbc
00000390: ac58 b4bc de0e 63bd 2f23 d23c 90bf 083d
000003a0: 2672 1f3c 80fa 023d 1b50 1bbd e4ab de3c
000003b0: 24b6 10bd 89dd 6abd 88c5 11bd 27c9 5e3d
000003c0: b71d b23c eb94 c5bb f31b 15bd 0fc6 13bc
000003d0: 77a3 3fbd 9c6c 9f3d 11e5 853d 5d05 a23d
000003e0: be2e acbc d31a b53c d73c 47bd 1f9a 6c3c
000003f0: 2cec 53bd 86f8 543c 0b5d 60bc 860f 263d

rnn.weight_hh_l0 f4 [64, 64]
0.08565072 0.034122497 0.065793626 -0.027960585 0.08532479 0.08646734 0.05741448 0.027004676
-0.010449781 -0.09879035 -0.0343082 -0.049172707 0.053191405 0.047744423 0.020178402 0.019135661
-0.090018354 -0.027263016 -0.066690795 -0.059723534 0.06511026 0.060746435 -0.060283776 -0.014431031
0.05579528 0.024881242 -0.003298259 0.020266322 0.06259106 0.02431189 -0.039083295 -0.008864488
0.03575318 -0.008976232 -0.01753172 0.040246446 -0.048909 -0.050425153 -0.03392922 -0.05970271
0.016143247 -0.018014932 0.06240609 0.03259007 -0.02294417 0.013843191 0.06781519 0.038464278
0.042714074 -0.0019229706 -0.058649868 -0.0012024944 -0.06645887 -0.0044993064 -0.07354216 0.08434218
-0.046856545 0.053426635 0.061282866 0.07568876 -0.010550898 -0.042721063 0.04039676 -0.020065412
-0.01624067 -0.015975423 -0.026962869 0.01847762 0.00017389713 0.043356568 -0.013137803 0.019863503
-0.020940775 0.043055736 0.034274016 0.011300164 0.024650821 0.009394433 0.01622485 -0.031048434
0.024007604 0.013749335 -0.01632686 -0.01491302 0.040258452 -0.033890992 0.003508566 -0.0037878868
-0.0034666746 -0.015114433 0.021000696 0.043004658 0.009996777 0.017204551 -0.036611058 -0.024685327
-0.016154286 0.020302465 0.019140856 -0.00040606954 -0.014909014 -0.02592529 0.0065509216 0.006493404
-0.032506384 0.013936996 -0.004091772 -0.011126835 -0.019158946 -0.014690682 0.010398705 0.014748053
0.0016554118 0.008946981 0.006620895 -0.009387449 -0.049059514 -0.072770275 0.048086796 -0.004693505
0.00017303693 0.008666528 0.02007211 -0.015559236 -0.03236087 -0.03180854 -0.00076652126 -0.01072156
0.0037635842 -0.0053756693 0.6248418 -0.13906048 -0.014479089 -0.002628515 0.6249239 -0.036245972
0.10065287 -0.50884193 -0.52209103 -0.03705643 -0.024168527 -0.04390268 0.0074267075 -0.008922652
-0.08153587 0.012016844 0.028618446 0.009060791 -0.023462845 0.808166 -0.5673233 0.025329586
0.08333538 -0.020239655 -0.08518763 0.040372383 -0.017676078 -0.030136526 -0.058907364 -0.00863096
-0.021855494 0.02344468 0.024737516 -0.026329838 -0.042988688 0.02608606 -0.00033011034 -0.41903654
0.048146673 0.019041836 -0.015626112 3.9717133e-07 0.017982692 -0.042450815 0.030293 0.0017608068
-0.016571537 0.03096609 -0.078620404 -0.04045031 -0.37613574 -0.0025674584 -0.3468122 0.03512883
0.030564627 0.1079825 -0.008235198 0.056454726 -0.033514965 0.019800154 0.05748298 0.022756075
0.05251846 0.065330386 -0.13547444 0.53755057 0.05467939 0.052137297 -0.13357909 0.08680568
-0.29518226 0.10457198 0.068654016 -0.02325723 0.037565477 0.062202565 -0.061241403 0.03346423
0.04329829 -0.07186093 -0.06291954 -0.08646223 0.07778498 -0.27510577 0.28091338 -0.07983714
-0.08386977 0.040742163 0.0018949574 -0.070140935 0.058713585 0.060906187 0.023445766 -0.1966017
0.044654693 -0.046386957 -0.07363087 0.078181304 -0.0230645 -0.043936726 0.014848005 0.10704236
-0.025815858 -0.06731863 0.04090689 0.07271258 -0.066150144 0.062122926 0.005976296 0.087798454
0.09177664 0.030434834 -0.028271396 0.032829564 0.28692138 0.074911945 0.14378093 -0.020834414
-0.07693763 -0.44118354 0.03291355 0.0046966476 0.058724 -0.055830654 0.02048351 0.034753837
00000000: a569 af3d 08c4 0b3d cfbe 863d 990d e5bc
00000010: c3be ae3d ca15 b13d 722b 6b3d e938 dd3c
00000020: 8f35 2bbc 9852 cabd c186 0cbd 5269 49bd
00000030: 3bdf 593d a88f 433d 2d4d a53c 64c2 9c3c
00000040: 8b5b b8bd b056 dfbc 2f95 88bd aaa0 74bd
00000050: 8758 853d 41d1 783d 1fec 76bd 2270 6cbc
00000060: 9789 643d bfd3 cb3c 9b27 58bb 8f05 a63c
00000070: be2f 803d bb29 c73c ce15 20bd 5c3c 11bc
00000080: ed71 123d 0c11 13bc af9e 8fbc 75d9 243d
00000090: ce54 48bd 9b8a 4ebd 5ef9 0abd d48a 74bd
000000a0: d83e 843c 0d94 93bc 879d 7f3d 2a7d 053d
000000b0: 69f5 bbbc 8dce 623c b1e2 8a3d b88c 1d3d
000000c0: f4f4 2e3d 300c fcba d83a 70bd 049d 9dba
000000d0: 971b 88bd eb6e 93bb 469d 96bd 98bb ac3d
000000e0: a6ec 3fbd e3d5 5a3d be03 7b3d b502 9b3d
000000f0: acdd 2cbc 48fc 2ebd 1377 253d 3860 a4bc
00000100: 270b 85bc e4de 82bc 3ce1 dcbc 615e 973c
00000110: 2858 3639 a896 313d f13f 57bc c9b8 a23c
00000120: fd8b abbc 365b 303d e962 0c3d 5324 393c
00000130: 85f0 c93c 1ceb 193c fae9 843c 4959 febc
00000140: 98ab c43c e444 613c e8bf 85bc bd55 74bc
00000150: 0ce6 243d 48d1 0abd f8ef 653b 323e 78bb
00000160: 2631 63bb 87a2 77bc a709 ac3c a725 303d
00000170: 86c9 233c 8ff0 8c3c 7af5 15bd e238 cabc
00000180: fe55 84bc 5b51 a63c 49cd 9c3c bbe5 d4b9
00000190: f044 74bc 4661 d4bc 1da9 d63b 9fc6 d43b
000001a0: 6a25 05bd 0058 643c 4514 86bb 544d 36bc
000001b0: 39f3 9cbc 30b1 70bc 545f 2a3c d1a1 713c
000001c0: 67fa d83a 5c96 123c 18f4 d83b d1cd 19bc
000001d0: a1f2 48bd 9508 95bd a9f6 443d f9cb 99bb
000001e0: 3f71 3539 0efe 0d3c 446e a43c 2aec 7ebc
000001f0: d58c 04bd ac49 02bd 5ff0 48ba 7ba9 2fbc
00000200: 77a6 763b 6226 b0bb a2f5 1f3f df65 0ebe
00000210: b339 6dbc 2a43 2cbb 03fb 1f3f a876 14bd
00000220: 1823 ce3d 7743 02bf c2a7 05bf 7cc8 17bd
00000230: 13fd c5bc 4cd3 33bd bd5b f33b 5130 12bc
00000240: 47fc a6bd 4ce2 443c 3b71 ea3c b673 143c
00000250: 2735 c0bc f8e3 4e3f 1a3c 11bf fe7f cf3c
00000260: bdab aa3d a2cd a5bc da76 aebd 835d 253d
00000270: 6ccd 90bc e0e0 f6bc d948 71bd df68 0dbc
00000280: 4b0a b3bc 0f0f c03c 55a6 ca3c acb1 d7bc
00000290: e814 30bd 6fb2 d53c a912 adb9 f58b d6be
000002a0: 7235 453d a0fd 9b3c 5502 80bc d03a d534
000002b0: 7050 933c e8e0 2dbd 0729 f83c dfca e63a
000002c0: 08c1 87bc 99ac fd3c bc03 a1bd 39af 25bd
000002d0: dd94 c0be ce42 28bb 5e91 b1be 3fe3 0f3d
000002e0: ab62 fa3c ee25 dd3d edec 06bc 123d 673d
000002f0: fd46 09bd ef33 a23c 4673 6b3d f36a ba3c
00000300: 991d 573d f0cb 853d d0b9 0abe ea9c 093f
00000310: 7ff7 5f3d eb8d 553d f5c8 08be 2dc7 b13d
00000320: 2122 97be d629 d63d 7a9a 8c3d f285 bebc
00000330: 42de 193d 1ec8 7e3d 44d8 7abd ca11 093d
00000340: 8c59 313d d32b 93bd f6db 80bd 1c13 b1bd
00000350: bb4d 9f3d aada 8cbe e1d3 8f3e a881 a3bd
00000360: eac3 abbd 41e1 263d 3860 f83a 0da6 8fbd
00000370: a87d 703d c478 793d 5611 c03c f551 49be
00000380: d7e7 363d 4000 3ebd c8cb 96bd 851d a03d
00000390: c3f1 bcbc fff6 33bd 0c45 733c 0639 db3d
000003a0: c77b d3bc 5ade 89bd fc8d 273d 55ea 943d
000003b0: ba79 87bd 9c74 7e3d ced4 c33b adcf b33d
000003c0: 64f5 bb3d 7952 f93c 6a99 e7bc 4b78 063d
000003d0: 5ce7 923e 6f6b 993d 4f3b 133e efac aabc
000003e0: 7a91 9dbd cfe2 e1be 5cd0 063d 56e6 993b
000003f0: 9488 703d afae 64bd 09cd a73c 0a5a 0e3d

rnn.bias_ih_l0 f4 [64]
-0.057416458 0.01208988 -0.023814784 -0.021457896 -0.004393414 0.005235719 -0.06411751 0.08138859
0.089486636 0.04261532 0.04783486 0.050123494 0.0035033568 0.015554167 0.029021192 -0.045157865
0.086818986 -0.01062137 -0.011696177 -0.0053581116 0.016462537 -0.043783955 0.02397355 -0.012099482
0.026155496 -0.04626502 -0.028000835 -0.035007626 0.012192456 0.011418797 0.04310662 0.12223478
-0.05152447 0.01658413 0.0014489702 0.013857513 0.026624503 -0.017797297 -0.043342363 0.0019327598
0.027699145 -0.03366554 0.009267835 0.0029463153 0.001436861 0.039094444 -0.044479303 -0.0044302084
-0.0049264203 -0.026681062 0.08950449 -0.006779013 -0.08609775 0.0054986686 0.04361518 -0.03865715
-0.007704784 0.015716743 0.0014088803 -0.11191337 0.039270155 -0.008058807 -0.08894845 -0.014253766
00000000: 852d 6bbd a214 463c 3917 c3bc 78c8 afbc
00000010: a1f6 8fbb 6590 ab3b 0b50 83bd 10af a63d
00000020: c544 b73d 678d 2e3d 7cee 433d 4b4e 4d3d
00000030: 9398 653b e8d6 7e3c dabd ed3c 74f7 38bd
00000040: 27ce b13d 4105 2ebc 52a1 3fbc 1993 afbb
00000050: 71dc 863c ce56 33bd 2e64 c43c e83c 46bc
00000060: 0d44 d63c 6480 3dbd 0262 e5bc 2864 0fbd
00000070: dec2 473c e815 3b3c 9190 303d 3a56 fa3d
00000080: 530b 53bd 71db 873c 5feb bd3a 9f0a 633c
00000090: a11b da3c a3cb 91bc c387 31bd a854 fd3a
000000a0: 51e9 e23c e1e4 09bd 1ed8 173c f816 413b
000000b0: 0e55 bc3a 7f21 203d ee2f 36bd 482b 91bb
000000c0: cf6d a1bb 3e92 dabc 214e b73d 7c22 debb
000000d0: 0454 b0bd 2d2e b43b d5a5 323d f656 1ebd
000000e0: 6a78 fcbb 66c0 803c 2eaa b83a d632 e5bd
000000f0: bed9 203d 1609 04bc 9b2a b6bd a188 69bc

rnn.bias_hh_l0 f4 [64]
-0.057423104 0.012091527 -0.023762476 -0.021470116 -0.004393435 0.0052354876 -0.0642057 0.08135421
0.08948645 0.042614486 0.047753792 0.050130878 0.0035016504 0.015556997 0.029023258 -0.04519602
0.08685237 -0.010610592 -0.011701093 -0.0053587975 0.016447533 -0.043790992 0.023962593 -0.012099529
0.026152639 -0.046264417 -0.02800216 -0.03502209 0.012216205 0.0114189675 0.043095846 0.12227251
-0.051530354 0.016582342 0.0014478142 0.013859456 0.026622888 -0.017803071 -0.043338303 0.001968414
0.027696982 -0.033656884 0.009262908 0.0029469596 0.0014374048 0.039090265 -0.044495348 -0.00442783
-0.004926577 -0.026675336 0.089514405 -0.0067789434 -0.086026445 0.005498737 0.043428343 -0.03865667
-0.0077055944 0.015705053 0.0014088313 -0.11188424 0.03926999 -0.008063233 -0.088912755 -0.014251881
00000000: 7d34 6bbd 8a1b 463c 86a9 c2bc 19e2 afbc
00000010: cef6 8fbb 748e ab3b 477e 83bd 099d a63d
00000020: ac44 b73d 878c 2e3d 7b99 433d 0956 4d3d
00000030: f27b 653b c6e2 7e3c 2fc2 ed3c 761f 39bd
00000040: a8df b13d 0cd8 2dbc f1b5 3fbc da98 afbb
00000050: fabc 863c 2f5e 33bd 334d c43c 1a3d 46bc
00000060: 0f3e d63c c27f 3dbd c964 e5bc 5373 0fbd
00000070: 7a26 483c 9f16 3b3c 4585 303d 026a fa3d
00000080: 7e11 53bd b1d7 873c 95c4 bd3a c612 633c
00000090: 3e18 da3c bfd7 91bc 8183 31bd 8200 013b
000000a0: c8e4 e23c cddb 09bd 74c3 173c c721 413b
000000b0: 4d67 bc3a 1d1d 203d c140 36bd 5517 91bb
000000c0: 206f a1bb 3c86 dabc 5453 b73d e621 debb
000000d0: a22e b0bd c02e b43b ebe1 313d 7556 1ebd
000000e0: 367f fcbb e2a7 803c 89a8 b83a 9023 e5bd
000000f0: 92d9 203d a71b 04bc e417 b6bd b980 69bc

fc.weight f4 [45, 64]
0.015925938 -0.0008555438 -0.010239108 0.0028322365 0.0036144354 -0.005567098 -0.013578401 0.04862003
-0.0031366847 -0.011221317 0.025501609 0.008819586 -0.00017207058 0.0042936136 -0.06700532 -0.009591142
-0.002443296 0.0014412359 0.00051765813 0.0013815695 -0.00904796 -0.0011872534 0.006671497 0.01397479
0.02842954 -4.9951508e-05 0.0045925328 0.019734573 0.0049162805 -0.00066430616 -0.0145856 -0.007745254
0.0537121 0.013113551 0.005885064 -0.004344074 0.005013475 -0.011555425 -0.025714027 -0.02898537
0.04784179 0.009507512 -0.0038119424 -0.006938576 0.0029553303 -0.009761526 0.008144799 -0.009831462
-0.009424657 0.047808178 -0.0045715887 -0.0072358227 0.0033719072 -0.0040668948 0.02124717 -0.0075967177
0.004753419 -0.0060948716 -0.008549172 -0.005161371 -0.007699894 0.011882541 -0.0046796827 -0.008101089
-0.020958293 -0.029643511 -0.07635356 0.006987059 -0.030108444 -0.058059078 -0.09416822 0.7384147
-0.1853829 -0.018887144 0.07319333 0.062632956 -0.04068597 -0.020491125 -0.21502018 -0.07306703
0.017640876 0.049673095 0.044733662 0.021618186 -0.050660096 -0.1394381 0.13939677 0.10137248
0.41711977 -0.06479436 0.08584048 0.07950245 -0.04060128 -0.04294956 -0.06435123 -0.26527837
0.25711006 0.04430807 0.050201844 -0.048570354 0.037356038 -0.0051815836 -0.36528498 -0.037563846
0.19916053 0.014199699 -0.059526965 -0.025784336 0.04237044 -0.03797841 -0.057209965 -0.079246625
-0.05711739 0.13029207 0.026944257 -0.036587957 0.20291147 -0.031167472 0.07941384 -0.05536399
0.047229204 -0.08908785 -0.05764259 -0.06300353 -0.08464288 0.042275615 -0.062347937 -0.03189361
-0.024261424 -0.07617667 -0.088987485 -0.063183054 -0.026862817 -0.06992188 -0.07743586 0.6335741
-0.13717842 -0.02286696 0.21689649 0.0711 -0.004522346 -0.0015656928 -0.31393266 -0.030047646
0.038731854 0.077672355 0.014060657 0.053726733 -0.031737864 -0.06430999 0.21587019 0.11116966
0.29013705 -0.008028593 0.11151934 0.11521805 -0.038570616 0.0009583271 -0.07676339 0.071565785
0.29597968 0.07276727 0.10068613 -0.053969026 0.019143697 -0.009746434 -0.15140137 -0.14096239
0.29519367 0.03406526 -0.059025705 -0.08623969 0.083682664 -0.076536104 0.0035907282 -0.06697967
-0.109831825 0.18596911 0.032214046 -0.06171642 0.41136944 -0.024299486 0.09116785 -0.06917062
0.08136637 0.26707333 -0.034498278 -0.08666231 -0.078462005 0.07778859 -0.060825884 -0.056713734
-0.014361266 -0.0045858393 -0.04395938 -0.0018812304 -0.0011079316 -0.020787017 -0.0056332746 0.26592663
-0.082709 0.0259213 0.059578236 0.011773571 -0.026954573 -0.02637911 -0.047566023 -0.010904032
0.0024000618 0.015611792 0.0146567635 -0.0032695725 -0.018849928 -0.060768113 0.030557618 0.02001635
0.13330746 -0.025250576 0.07955862 0.039018635 -0.02057094 -0.02916652 -0.0053290613 -0.13401332
0.075961165 0.016816178 0.025597634 -0.013802669 0.0076307305 0.012005523 -0.19766076 0.022790357
0.104062356 0.0022424802 -0.032609344 -0.009508794 0.019833904 -0.024160948 -0.023884969 -0.01865385
-0.027849453 0.037269063 0.0023501436 -0.028094178 0.14376564 -0.023422867 0.03309701 -0.020528004
0.0074457503 -0.047136027 -0.02523023 -0.010412908 -0.021871472 0.028642833 -0.044510968 -0.0027027028
00000000: 1d77 823c 9346 60ba efc1 27bc 0b9d 393b
00000010: 2ae0 6c3b 346c b6bb f177 5ebc cc25 473d
00000020: d690 4dbb 9dd9 37bc c0e8 d03c 0680 103c
00000030: d86d 34b9 71b1 8c3b 163a 89bd 2a24 1dbc
00000040: b41f 20bb dae7 bc3a 73b3 073a c815 b53a
00000050: e53d 14bc 9d9d 9bba 939c da3b 85f6 643c
00000060: 11e5 e83c 0683 51b8 f57c 963b 66aa a13c
00000070: c018 a13b d524 2eba 71f8 6ebc e6cb fdbb
00000080: 3801 5c3d 38da 563c 7fd7 c03b bc58 8ebb
00000090: 1448 a43b f752 3dbc 39a6 d2bc ba72 edbc
000000a0: c1f5 433d 65c5 1b3c c8d1 79bb ff5c e3bb
000000b0: 37ae 413b cfee 1fbc c371 053c 2414 21bc
000000c0: e069 1abc 82d2 433d 44cd 95bb 7b1a edbb
000000d0: 37fb 5c3b 9643 85bb 8c0e ae3c e3ed f8bb
000000e0: 92c2 9b3b 7db7 c7bb d411 0cbc b820 a9bb
000000f0: 644f fcbb fdae 423c 0658 99bb 6eba 04bc
00000100: bab0 abbc f3d6 f2bc 415f 9cbd b3f3 e43b
00000110: fca5 f6bc 5bcf 6dbd 45db c0bd bf08 3d3f
00000120: 04d5 3dbe 36b9 9abc 62e6 953d b545 803d
00000130: 55a6 26bd 01dd a7bc 402e 5cbe 2ba4 95bd
00000140: 9983 903c 0476 4b3d a53a 373d 9f18 b13c
00000150: f680 4fbd dcc8 0ebe 07be 0e3e 609c cf3d
00000160: b990 d53e e8b2 84bd 22cd af3d 2ed2 a23d
00000170: 874d 26bd e1eb 2fbd 94ca 83bd 91d2 87be
00000180: eea3 833e 617c 353d 73a0 4d3d b5f1 46bd
00000190: a502 193d 46ca a9bb a206 bbbe 8cdc 19bd
000001a0: bdf0 4b3e dba5 683c 8cd2 73bd ac39 d3bc
000001b0: a08c 2d3d 408f 1bbd ff54 6abd 0e4c a2bd
000001c0: edf3 69bd 496b 053e 34ba dc3c 41dd 15bd
000001d0: 06c8 4f3e ed52 ffbc b9a3 a23d 5ac5 62bd
000001e0: 6973 413d b173 b6bd a31a 6cbd ff07 81bd
000001f0: 3f59 adbd 3229 2d3d 8d60 7fbd e0a2 02bd
00000200: e5bf c6bc 8402 9cbd 123f b6bd 1e66 81bd
00000210: 690f dcbc 3433 8fbd b196 9ebd ea31 223f
00000220: 8078 0cbe 7e53 bbbc 1d1a 5e3e e09c 913d
00000230: 3030 94bb ef37 cdba c8bb a0be 7b26 f6bc
00000240: 4ba5 1e3d af12 9f3d ab5e 663c 9010 5c3d
00000250: 90ff 01bd f5b4 83bd 130d 5d3e ebac e33d
00000260: d88c 943e 5c8a 03bc 4064 e43d 71f7 eb3d
00000270: 39fc 1dbd 3e38 7b3a 2036 9dbd 1591 923d
00000280: a68a 973e 0207 953d 8834 ce3d a00e 5dbd
00000290: 3ed3 9c3c 82af 1fbc f608 1bbe 7258 10be
000002a0: a023 973e 0488 0b3d f0c4 71bd 6f9e b0bd
000002b0: d161 ab3d f6be 9cbd 6c52 6b3b a32c 89bd
000002c0: 82ef e0bd b06e 3e3e e0f2 033d 5bca 7cbd
000002d0: 049f d23e b70f c7bc 36b6 ba3d 53a9 8dbd
000002e0: 69a3 a63d d6bd 883e 114e 0dbd 027c b1bd
000002f0: b0b0 a0bd a04f 9f3d 9024 79bd a94c 68bd
00000300: 844b 6bbc cf44 96bb c00e 34bd 9e93 f6ba
00000310: 0438 91ba 8949 aabc 5597 b8bb 8927 883e
00000320: 5663 a9bd e858 d43c 4f08 743d f0e5 403c
00000330: d6cf dcbc 0119 d8bc 97d4 42bd d3a6 32bc
00000340: 5b4a 1d3b 9ac8 7f3c ec22 703c 5346 56bb
00000350: 2a6b 9abc fce7 78bd f853 fa3c 54f9 a33c
00000360: c081 083e 4cda cebc a1ef a23d 01d2 1f3d
00000370: 6384 a8bc a0ee eebc 689f aebb ca3a 09be
00000380: 8791 9b3d 15c2 893c 21b2 d13c 9724 62bc
00000390: 350b fa3b d0b2 443c 9567 4abe d8b2 ba3c
000003a0: a51e d53d 93f6 123b 6091 05bd c6ca 1bbc
000003b0: b67a a23c 2eed c5bc 69aa c3bc f5cf 98bc
000003c0: 8924 e4bc 72a7 183d de04 1a3b c325 e6bc
000003d0: 4d37 133e 50e1 bfbc bb90 073d 582a a8bc
000003e0: 7bfb f33b b511 41bd a1af cebc e79a 2abc
000003f0: cd2b b3bc 60a4 ea3c 2251 36bd d41f 31bb

fc.bias f4 [45]
0.010280629 0.05901299 0.03792942 0.036697462 0.17075185 0.07096092 0.06795401 0.9898578
0.06014832 0.00789161 0.044959247 -1.5613656e-05 0.0541648 0.08327277 0.05380052 0.1542882
0.0058488515 0.10449626 0.10839606 0.13324513 0.19527514 0.0145868715 0.060963336 0.07951888
-0.0129248295 0.14098677 0.006892238 0.06980695 -1.2122028e-14 0.18423831 0.30513582 0.11859628
0.024187863 0.044555113 0.08088994 0.04297616 0.006453151 -0.00012907443 -0.0027398402 -0.010944144
-0.0012814974 0.010299962 0.0028256928 0.012378952 0.26545468
00000000: 1570 283c 9bb7 713d e15b 1b3d 1450 163d
00000010: 93d9 2e3e f553 913d 792b 8b3d 5267 7d3f
00000020: 165e 763d d04b 013c 3027 383d 12fa 82b7
00000030: e9db 5d3d ea8a aa3d ef5d 5c3d bafd 1d3e
00000040: b9a7 bf3b 2302 d63d c1fe dd3d 6971 083e
00000050: 35f6 473e c6fd 6e3c b1b4 793d cbda a23d
00000060: aac2 53bc d65e 103e 48d8 e13b f2f6 8e3d
00000070: fd5e 5aa8 f8a8 3c3e c33a 9c3e 9be2 f23d
00000080: a025 c63c 6c7f 363d a0a9 a53d c507 303d
00000090: f474 d33b 2758 07b9 e48e 33bb 114f 33bc
000000a0: ebf7 a7ba 2cc1 283c 422f 393b 16d1 4a3c
000000b0: ade9 873e
