rnn_models/rnn_model_100_reach1_4_2024-05-08_14-38-57.pth (torch, 242914 bytes, 10 tensors)

lstm.weight_ih_l0 f4 [256, 32]
0	0xbd0f48fd	-0.034981716
1	0x3cad8616	0.021182101
2	0x3a0392a2	0.00050191034
3	0x3cda360d	0.026637102
4	0xbca4fe4f	-0.020140795
5	0xbbaa9a5b	-0.005206389
6	0x3bc4b0ef	0.0060025374
7	0x3c2f4a4d	0.010698867
8	0xbd09722d	-0.033556152
9	0x3d101717	0.03517827
10	0xbc83a62b	-0.016070446
11	0xbc2c1973	-0.010504114
12	0xbbe8feca	-0.0071104513
13	0x3ca40376	0.020021182
14	0x3c8a4af0	0.016881436
15	0xbc777e35	-0.015105774
16	0x3c2589c5	0.010103648
17	0xbc98f751	-0.018672617
18	0x3d263d62	0.040585883
19	0xbcdbaabb	-0.02681481
20	0x3d122bfd	0.03568648
21	0xbd071750	-0.032981217
22	0x3bb1e1a9	0.005428512
23	0x3cccdefa	0.025008667
24	0xbc8d4e9a	-0.017249394
25	0xbcffef56	-0.031242054
26	0xbcbb7520	-0.022882998
27	0x3cc4463e	0.023959275
28	0xbd324f25	-0.04353251
29	0xbc889aa3	-0.016675299
30	0x3c696623	0.014245543
31	0x3c816dc2	0.015799407
32	0x3d3be6ee	0.04587453
33	0x3d0e8a5c	0.03479992
34	0x3c5c4a5c	0.013445463
35	0xbb9b5c96	-0.0047412617
36	0x3c0b26f0	0.00849317
37	0x3c1be86a	0.009515861
38	0xbbef7e41	-0.007308752
39	0x3c73fa82	0.014891269
40	0xbcc29b4d	-0.023755694
41	0xbd409299	-0.047014806
42	0x3c4a058c	0.012330424
43	0xbd42c23d	-0.04754852
44	0xbd27cd2b	-0.040967148
45	0xbb88e1ec	-0.0041773226
46	0x3c9e5aa7	0.019330336
47	0xbb4f801a	-0.0031662048
48	0xbc4ab07f	-0.0123711815
49	0xbcfea636	-0.031085115
50	0xb8c50cd2	-9.39608e-05
51	0x3c991ddf	0.018691001
52	0xbd481610	-0.048849165
53	0x3c0e4d30	0.008685395
54	0xbbac6411	-0.0052609523
55	0xbd1e71e4	-0.038682833
56	0x3c4dad89	0.012553581
57	0xbade5c5b	-0.001696478
58	0x3ce9afce	0.028526213
59	0xbb4cc64b	-0.0031246122
60	0x3b250878	0.002518205
61	0x3cd20521	0.025637211
62	0x3a8d0f45	0.0010761997
63	0xbc9caa43	-0.019124156
64	0x3d1807a8	0.037116677
65	0xbabba61a	-0.001431647
66	0xbac1eae4	-0.0014794734
67	0x3b6aba83	0.0035816736
68	0xbce95301	-0.028481962
69	0x3cfd4b4a	0.03091969
70	0xbbe100e1	-0.00686656
71	0x3c0e3706	0.008680111
72	0xbd0e83f4	-0.03479381
73	0xbc21f0b1	-0.009884045
74	0xbbabb3b0	-0.0052399263
75	0x3cf31ed9	0.029677795
76	0x3c1312d5	0.008976658
77	0xbd630ce4	-0.055432215
78	0x3c2c833e	0.010529337
79	0xbd5b38b5	-0.053520877
80	0xbba67578	-0.0050799213
81	0xbc504955	-0.012712796
82	0xbd2e294d	-0.042519856
83	0x3bb996aa	0.0056637125
84	0x3c350b09	0.011049994
85	0xbd194b06	-0.037425064
86	0x3cdfeb7a	0.027333964
87	0x3ce4ebf5	0.027944544
88	0xbd7029de	-0.058633678
89	0xbd75736c	-0.059924528
90	0xbb6853d8	-0.0035450365
91	0xbc5bf4d1	-0.013425068
92	0x3d3d3a00	0.04619789
93	0x3acb5336	0.001551247
94	0x3cc05d78	0.02348207
95	0x3cdacde2	0.0267095
96	0x3d0f1712	0.03493411
97	0x3d3d6a6d	0.046244074
98	0xbd0c7f3b	-0.034301024
99	0xba1b8489	-0.000593253
100	0xbafef84f	-0.0019452664
101	0x3bee49bb	0.007271973
102	0xbccf188e	-0.025280263
103	0x3ce2f8f3	0.027706599
104	0x3cea2a2c	0.028584562
105	0xbba1739a	-0.004927111
106	0xbaad06c3	-0.0013200868
107	0xbb9eca81	-0.0048459177
108	0xbcab5ba0	-0.020917714
109	0x3cedb07f	0.029014824
110	0xbcbb9c3a	-0.022901643
111	0x3af2f833	0.0018537104
112	0xbbe0e239	-0.0068629053
113	0xbd78a96b	-0.060708445
114	0xbcd8c9b6	-0.02646337
115	0x3b1b8ab5	0.00237338
116	0xbbe7e545	-0.0070768916
117	0x3c952656	0.018206757
118	0xbc5f0d16	-0.01361396
119	0x3c1e1376	0.009648195
120	0x3c8b2f32	0.016990278
121	0xbcdd6587	-0.027025951
122	0x3b8bd2f9	0.0042670933
123	0x3d1c81b9	0.03820965
124	0x3d071e3b	0.032987814
125	0xbc94f4a7	-0.018183066
126	0xbd7010b2	-0.058609672
127	0x3c176126	0.009239471
128	0x3ca0a822	0.019611422
129	0xbc967fa9	-0.01837142
130	0x3c8a74b2	0.016901348
131	0xbd311fc6	-0.043243192
132	0x3b8ad4f4	0.004236812
133	0x3d6fe335	0.05856629
134	0x3d0c7e5a	0.034300186
135	0xbcf53808	-0.029933944
136	0xbb9d7d97	-0.0048062312
137	0x3d42d239	0.047563765
138	0x3cf22688	0.029559389
139	0x3c986f4f	0.018607764
140	0xbd053b67	-0.032527354
141	0x3a16f453	0.0005758453
142	0xbc7ce4d2	-0.015435414
143	0x3c397b64	0.0113209225
144	0xbd2762e7	-0.040865805
145	0xb8118f8c	-3.4704382e-05
146	0xbc672d3b	-0.014109905
147	0xbb9e0ffc	-0.004823683
148	0xbce8adbb	-0.028403154
149	0xbbc8ad03	-0.00612414
150	0xbc59731c	-0.013272073
151	0x3d3c3941	0.04595304
152	0xbb6a8550	-0.0035785027
153	0x3ae925ed	0.0017787792
154	0x3cc6c8fb	0.024265757
155	0xbd5c77b7	-0.053825106
156	0xbcac3fe3	-0.021026557
157	0x3d05cfaf	0.032668766
158	0x3cc1d12f	0.023659317
159	0x3d481ad8	0.048853725
160	0x3d429afa	0.04751108
161	0x3caba5d1	0.02095309
162	0xbb5d5eef	-0.0033778509
163	0x3c5df3ba	0.0135468785
164	0xbcad0a2b	-0.021123013
165	0xbcef0056	-0.029174965
166	0x3cd1360d	0.025538469
167	0x3d6f958f	0.05849224
168	0xbcca9809	-0.0247307
169	0xbc5ae21f	-0.0133595755
170	0xbc1f5ac6	-0.009726232
171	0xbc8aae72	-0.016928885
172	0x3c160cba	0.009158308
173	0x3bd23aff	0.0064157243
174	0x3cf3f475	0.029779652
175	0xbcc9e2c0	-0.024644256
176	0x38b429a1	8.590823e-05
177	0xbd09fdbc	-0.033689246
178	0x3abec220	0.0014553703
179	0xbc8f93e9	-0.017526584
180	0xbd1defb7	-0.038558688
181	0xbcc9e968	-0.02464743
182	0x3cfee8c0	0.031116843
183	0xbb8d8757	-0.0043191123
184	0xbd1783cd	-0.03699093
185	0xbd0cd603	-0.034383785
186	0x3b73b2a0	0.0037185326
187	0xbd04863b	-0.032354575
188	0xbadb3683	-0.001672462
189	0xbc6cbb65	-0.014448975
190	0xbd3f699b	-0.046731573
191	0x3d1f618f	0.0389114
192	0x3d4fb37a	0.05070827
193	0xbd72be51	-0.05926353
194	0x3a1120e4	0.0005536212
195	0xbcef339a	-0.02919941
196	0xbd36f72a	-0.044669308
197	0x3a7b932f	0.0009596822
198	0xbc814467	-0.015779687
199	0xbb70a2ea	-0.0036718198
200	0xbd103671	-0.03520817
201	0x3d150deb	0.036390226
202	0xbac7f90e	-0.0015256719
203	0x394d26be	0.00019564756
204	0xbced883b	-0.028995624
205	0xbd04e36f	-0.03244346
206	0x3c28d17a	0.010303849
207	0x3c8f2098	0.017471597
208	0x3af29ae9	0.0018509302
209	0xbd2b2117	-0.041779604
210	0xbc60d0f6	-0.013721695
211	0x3b9df63b	0.0048206127
212	0x3d01c862	0.03168524
213	0xbd0a4fa1	-0.033767346
214	0xbd0b1187	-0.033952262
215	0xbbe80dd7	-0.007081728
216	0x3d225f5e	0.03964173
217	0x3b35b6a8	0.002772728
218	0xbd42c0a3	-0.047546994
219	0xbd13e61c	-0.03610812
220	0xbd51b3c6	-0.051196836
221	0x3d119b49	0.035548482
222	0x3b16b417	0.0022995526
223	0x3c62fdda	0.013854468
224	0xbd39bd89	-0.04534677
225	0xbd42db44	-0.04757239
226	0xbbba52ca	-0.0056861388
227	0xbd4009e7	-0.046884444
228	0x3d17fd11	0.037106577
229	0x3d16438a	0.036685504
230	0x3ce357f2	0.027751897
231	0x3cf7df6c	0.030257903
232	0xbd2a8fc0	-0.041640997
233	0xbb84c782	-0.0040521035
234	0x3c8a8de0	0.016913354
235	0xbd4e6261	-0.05038679
236	0x3c72d7c4	0.01482195
237	0x3cfdb4c9	0.030969994
238	0x3b81883f	0.0039530094
239	0x3d197e90	0.037474215
240	0x3d76bd64	0.06023921
241	0x3d0c4751	0.0342477
242	0x3d2d297e	0.0422759
243	0xbd043834	-0.032280162
244	0x3c2c0abd	0.010500607
245	0xbd5fc08e	-0.054626994
246	0x3cd4002a	0.025878984
247	0xbb468929	-0.0030294156
248	0xbd1fbdfd	-0.038999546
249	0xbc6d08da	-0.014467442
250	0xbc878b4c	-0.016545914
251	0x3d6244cd	0.055241395
252	0xbbb37a83	-0.005477251
253	0x3cd373ee	0.025812116
254	0x3cb97fb5	0.022643903
255	0xbc1326cf	-0.008981421

lstm.weight_hh_l0 f4 [256, 64]
0	0xbbaae86a	-0.005215694
1	0xba3d2b0b	-0.0007216192
2	0xbc063cc8	-0.008193202
3	0x3d293b70	0.04131645
4	0x3c6bf42d	0.014401478
5	0xbcf26957	-0.029591246
6	0xbc4bb525	-0.012433325
7	0x3ca54083	0.020172363
8	0xbb3f681c	-0.002920634
9	0x3b727623	0.0036996685
10	0xbd51295f	-0.051064845
11	0x3cc93a75	0.024564007
12	0x3b0372ec	0.0020057512
13	0x3be85782	0.00709051
14	0x3a3a9891	0.0007118071
15	0x3b6284bc	0.003456398
16	0x3ccffe9c	0.025389962
17	0xbbdd8d13	-0.006761202
18	0xbccf8577	-0.025332196
19	0x3bacf358	0.0052780323
20	0x3b27486d	0.0025525347
21	0xbd4a7b66	-0.04943409
22	0x3b9f96be	0.004870265
23	0xbc446109	-0.011986026
24	0xbd6bfd3f	-0.05761456
25	0x3cbe0d7b	0.023199787
26	0x3bb07ab3	0.0053857206
27	0xbafe0fe3	-0.0019383397
28	0xbd525962	-0.051354773
29	0xbc103efc	-0.008804079
30	0x3b4db39c	0.0031387573
31	0x3d014425	0.03155913
32	0x3c0e95d7	0.008702717
33	0xbd293b6a	-0.041316427
34	0xbc41e386	-0.011834031
35	0xb6aa4fc8	-5.0756826e-06
36	0x3cf9320b	0.03041937
37	0x3cf2f719	0.029658841
38	0xbcb9cbab	-0.022680124
39	0xbb5dfada	-0.0033871443
40	0xbba7f159	-0.0051252064
41	0xbc132544	-0.008981053
42	0x3d48ce76	0.04902502
43	0xbb4ef4a1	-0.0031578916
44	0x3a84c65e	0.0010129919
45	0xbbc939f6	-0.0061409427
46	0x3c9808b7	0.018558843
47	0xbd1952ac	-0.037432358
48	0x3c9331bb	0.01796805
49	0x3bf97c19	0.0076136705
50	0xbd6958d2	-0.05696947
51	0x3ab1c626	0.0013563081
52	0xbc1d418f	-0.00959815
53	0xbcf56274	-0.029954173
54	0x3cb9c243	0.022675639
55	0x3d1aca00	0.0377903
56	0xbd61edb2	-0.055158325
57	0xbbbebdfe	-0.0058209887
58	0x3b96dd22	0.004603998
59	0xbbe1999e	-0.0068847677
60	0xbbe33185	-0.0069333934
61	0xbbdcc4df	-0.006737336
62	0xbcbd3590	-0.02309683
63	0xbd011d6b	-0.031522196
64	0xbb9154ca	-0.0044351565
65	0xbd4fc497	-0.050724592
66	0x3c0d9660	0.008641809
67	0xbd66ccc7	-0.056347635
68	0xbd213c4f	-0.039364155
69	0x3b673ade	0.003528289
70	0x3c7b7e46	0.01534993
71	0xbb8bc042	-0.0042648623
72	0xbc9b8ce2	-0.018988077
73	0xbd206bd1	-0.03916532
74	0xbd1fd2c3	-0.039019357
75	0xbd0dacbc	-0.03458856
76	0x3cd6245c	0.026140384
77	0x3cab5b44	0.020917542
78	0x3adbb0e4	0.0016761092
79	0x3c7671f1	0.015041814
80	0x3d30c0df	0.043152686
81	0xbb444f1c	-0.002995438
82	0xbcc7a1a0	-0.024369061
83	0xbab00068	-0.0013427855
84	0x3d047b6f	0.032344278
85	0xbc7b1005	-0.015323644
86	0x392c9eab	0.00016462307
87	0x3d5def76	0.054183446
88	0x3a967e5b	0.0011481749
89	0xbc9d144c	-0.019174717
90	0x3d1d6141	0.038422827
91	0xbbe3a864	-0.006947564
92	0x3b8da835	0.0043230304
93	0x3ce6057a	0.028078783
94	0xbcf0078d	-0.029300475
95	0xba74437f	-0.0009317919
96	0xba799543	-0.0009520838
97	0xbaef84c3	-0.0018273819
98	0xbc2a7812	-0.010404604
99	0x3ca3de27	0.020003391
100	0xbd062b59	-0.032756183
101	0x3d587a39	0.052850936
102	0xbc87a78e	-0.016559388
103	0x3cac95e9	0.021067576
104	0xbbd63040	-0.0065365136
105	0x3bf53bb6	0.0074839247
106	0xbbb96f72	-0.0056590373
107	0x3b1a2bc1	0.0023524615
108	0xbc771abd	-0.0150820585
109	0xba29700e	-0.0006463536
110	0x399af638	0.00029556616
111	0xbc8cde97	-0.017195983
112	0xbc0564f6	-0.008141747
113	0xbb540002	-0.0032348637
114	0xbca4f5e2	-0.020136777
115	0x3b28d4ce	0.0025761607
116	0xbd5e3744	-0.054251924
117	0x3c18432d	0.00929336
118	0x3becf9a7	0.0072319093
119	0xb99f5d54	-0.00030396378
120	0x3d55a4c1	0.052159075
121	0xba0626f2	-0.00051174976
122	0xbd30fb01	-0.043208126
123	0xbcb1144e	-0.021616127
124	0x3c2525b7	0.010079793
125	0xbd4b8535	-0.049687583
126	0xbcc7bf58	-0.024383232
127	0x3b8395ee	0.0040156757
128	0x3d0b3a6e	0.03399127
129	0xbb20c14c	-0.0024529276
130	0xbc84e8d8	-0.01622431
131	0x3d011c18	0.031520933
132	0xbd125c42	-0.035732515
133	0xbc675c59	-0.0141211385
134	0xbbdad0f1	-0.00667774
135	0xbb9b72a1	-0.0047438894
136	0x3929f5f4	0.0001620872
137	0x399b0e42	0.00029574527
138	0xbcc379ba	-0.023861755
139	0xbc58e7c9	-0.013238856
140	0xbd5c721f	-0.05381977
141	0x3cc35bc8	0.023847476
142	0xbbcb9fcf	-0.006214119
143	0xbd16df55	-0.03683408
144	0x3ac92bdf	0.0015348158
145	0xbb33bffa	-0.002742766
146	0xbd4d19e9	-0.050073538
147	0xba6b3853	-0.00089729315
148	0x3cd68766	0.02618761
149	0x3d6a5d3c	0.05721782
150	0x3d1d165c	0.0383514
151	0xbbe7f517	-0.0070787775
152	0xbd500164	-0.050782576
153	0xbb562ef9	-0.0032681806
154	0x3d249d70	0.040189207
155	0xbb7f5a2a	-0.0038963654
156	0x3d48266a	0.04886476
157	0xbb005fec	-0.0019588424
158	0xbac17e64	-0.0014762399
159	0x3d5949eb	0.05304901
160	0xb889f49f	-6.578233e-05
161	0xbd48364b	-0.048879903
162	0xbcfab0e9	-0.030601935
163	0x3cda8fb5	0.026679853
164	0xbb380fbc	-0.002808555
165	0xbc856124	-0.016281672
166	0xb965e6d3	-0.0002192513
167	0xbd55a940	-0.052163363
168	0xbc998736	-0.018741231
169	0xbb110cab	-0.0022132795
170	0x39dd7ea3	0.00042246756
171	0xbbb42112	-0.0054971064
172	0x3cd6655a	0.026171375
173	0xbb41c9ed	-0.002956982
174	0x3a8db148	0.001081028
175	0xbc2e2ea9	-0.010631242
176	0xbaa158cd	-0.001230979
177	0x3d5038a5	0.05083527
178	0xba87219a	-0.0010309697
179	0xb96e7146	-0.00022739646
180	0x3cd46a7a	0.025929678
181	0xbb83599c	-0.004008485
182	0xbd71345f	-0.058887836
183	0x3cff7265	0.031182477
184	0xbb9c8d14	-0.00477756
185	0xbc5071e4	-0.012722466
186	0x3c35efda	0.011104548
187	0x3b1f8a53	0.0024343922
188	0x3caea70e	0.021319892
189	0xbb133281	-0.0022460523
190	0x3a52922f	0.00080326473
191	0x3d551e3c	0.052030787
192	0xbc0a4265	-0.008438681
193	0xbb29ede9	-0.002592916
194	0x3d6d28fe	0.05790042
195	0x3c7f7527	0.015591896
196	0xbce87842	-0.028377656
197	0x3d7621ee	0.06009095
198	0x3c9ec6de	0.019381937
199	0xbc49480c	-0.012285244
200	0x38574179	5.132097e-05
201	0xb9b953e2	-0.00035348447
202	0xbbde649e	-0.006786897
203	0xbcf2f451	-0.029657515
204	0xbcb229b4	-0.021748401
205	0x3b749d4b	0.00373252
206	0x3d62c435	0.0553629
207	0x3cc161d0	0.023606211
208	0x3a35d93c	0.00069369725
209	0xbb02cc34	-0.001995814
210	0xbc94c45d	-0.01816004
211	0x3b3e3074	0.002902058
212	0x3d3788a0	0.04480803
213	0xbb922467	-0.004459906
214	0xbb9ac701	-0.00472343
215	0x3bcabbc9	0.0061869365
216	0x3c994c31	0.018713089
217	0x3aeb26ca	0.0017940637
218	0x3b162eb5	0.0022916023
219	0x39bc0c14	0.00035867153
220	0xbd13f3fb	-0.03612135
221	0xbc503b51	-0.012709455
222	0x3ca72a06	0.02040578
223	0x3d4c2324	0.0498382
224	0x3b1bcdf9	0.0023773892
225	0x3a3c928c	0.0007193468
226	0xbb0e0c2f	-0.0021674742
227	0xbbb2bc4f	-0.005454577
228	0xbb59c8db	-0.0033231291
229	0x3a8f87ba	0.0010950484
230	0xbd5ab091	-0.053391043
231	0xbb430b37	-0.0029761323
232	0xbb2c3026	-0.0026273816
233	0xbb6a48ee	-0.0035749036
234	0x3bb1edbb	0.005429951
235	0xbbc81ac4	-0.0061067063
236	0x3c32e572	0.010918962
237	0x3d0a3321	0.033740167
238	0x3afbc0ed	0.0019207277
239	0xb9e57b38	-0.0004377009
240	0xbd28a342	-0.04117132
241	0x3be955b3	0.007120812
242	0x3aa26196	0.0012388702
243	0xbc925a27	-0.017865254
244	0xbbc894cf	-0.006121255
245	0xbbab5889	-0.00522906
246	0xbbb8c3df	-0.005638584
247	0xbb621fc2	-0.0034503792
248	0xbb8cf7a0	-0.00430198
249	0xbcf995d6	-0.030466955
250	0xbd5631ef	-0.052293714
251	0xbb49c30c	-0.0030786423
252	0x3af6e5eb	0.0018836831
253	0xbd2a8343	-0.041629087
254	0x38a6f903	7.961879e-05
255	0xba8c6683	-0.0010711703

lstm.bias_ih_l0 f4 [256]
0	0x3d25a867	0.040443804
1	0x3d0e89e3	0.034799468
2	0xbd26c350	-0.04071361
3	0x3d6b79f1	0.05748934
4	0x3d07069d	0.03296529
5	0x3d5cdaa4	0.05391945
6	0x3d77c6f4	0.06049247
7	0x3d824e0e	0.06362544
8	0x3caad4a5	0.02085335
9	0x3cf5139d	0.029916579
10	0x3d39ac08	0.045330077
11	0xbced01ce	-0.028931525
12	0x3c3f3775	0.011670937
13	0xbd3936f4	-0.045218423
14	0x3d869cf8	0.06572908
15	0xbc73744e	-0.014859272
16	0x3d4b984e	0.049705796
17	0x3cc4ec56	0.024038475
18	0x3dba9626	0.0911067
19	0x3d3ce656	0.046118103
20	0xbb0f4688	-0.0021862108
21	0xbcad3ed4	-0.021148123
22	0x3cbe3dd3	0.02322284
23	0x3cad3297	0.021142287
24	0x3d065d38	0.032803744
25	0x3d862d24	0.06551579
26	0x3d1408f2	0.036141343
27	0x3cc94db5	0.024573186
28	0x3dc49fd9	0.09600801
29	0x3cdff362	0.027337734
30	0x3bf4b096	0.0074673397
31	0x3d346e61	0.044050578
32	0x3d7f66f0	0.06235403
33	0x3d8a7a6c	0.06761631
34	0x3d099902	0.033593185
35	0xbc68c7bc	-0.014207777
36	0x3d8f8b5e	0.07009004
37	0x3d8f15c3	0.069865726
38	0xbd10ed32	-0.035382457
39	0xbcf5a2ab	-0.029984793
40	0x3d14eda9	0.036359463
41	0x3d5a89f2	0.05335421
42	0x3d4b140d	0.04957967
43	0x3d82dc6f	0.063897006
44	0x3d00b156	0.03141912
45	0x3d7e184e	0.062034898
46	0xbd3573d0	-0.0442999
47	0x3d53ed00	0.051739693
48	0x3d9f7cef	0.07787501
49	0x3d81c470	0.063362956
50	0x3c6e0504	0.014527563
51	0x3d47e785	0.04880478
52	0x3d0c0ba7	0.0341908
53	0xbce6896b	-0.028141698
54	0x3da853d4	0.08219114
55	0x3cfa9d8f	0.030592708
56	0x3ce1bae5	0.027554939
57	0x3c94a026	0.018142771
58	0x3cedb0d2	0.029014979
59	0x3c8cc225	0.01718242
60	0x3c654eff	0.013995885
61	0x3cbcdb58	0.02305381
62	0xbcdbe79d	-0.02684384
63	0x3d7a09ac	0.06104438
64	0x3d2dc327	0.04242244
65	0x3d65c320	0.05609429
66	0x3ce7f2ec	0.028314076
67	0x3b32d8fc	0.0027289977
68	0xbc4c566d	-0.012471777
69	0x3ca35ccd	0.019941712
70	0x3d25eeb3	0.040510844
71	0x3db49759	0.0881793
72	0x3d659443	0.056049597
73	0xbc86831f	-0.016419945
74	0x3d151912	0.036400862
75	0x3c0fa827	0.008768118
76	0xbc4928fc	-0.012277838
77	0x3b975127	0.0046178284
78	0x3d895b9b	0.067069255
79	0x3d8ae2e0	0.06781554
80	0xbc9fe274	-0.019517161
81	0x3cc08929	0.023502903
82	0x3dc9facf	0.09862291
83	0x3cf7e440	0.030260205
84	0x3d00637d	0.03134488
85	0x3cd90f93	0.026496684
86	0x3d17117d	0.036881912
87	0x3d52306a	0.051315702
88	0xbd497629	-0.049184952
89	0x3b4777bb	0.0030436355
90	0x3b2590c8	0.0025263298
91	0xbd3051a7	-0.04304662
92	0x3dd6719f	0.1047089
93	0x3c8652ca	0.016396899
94	0x3c454155	0.012039502
95	0x3ceaa6ad	0.02864393
96	0x3d9061cb	0.070499025
97	0x3d9cb634	0.0765194
98	0xbd14037d	-0.03613614
99	0x3d47f92b	0.04882161
100	0x3b8789a9	0.0041362834
101	0xbca5bb17	-0.020230813
102	0x3d124deb	0.03571884
103	0x3aa64c29	0.0012687492
104	0x3d3d84e6	0.04626932
105	0x3d89f529	0.06736214
106	0x3b9a1340	0.004702002
107	0x3c23ceb5	0.009998013
108	0x3d5af12c	0.053452656
109	0xbc44f1ee	-0.012020571
110	0x3da146aa	0.07874806
111	0xbc3f2f0e	-0.011668934
112	0x3dc0e2de	0.094182715
113	0x3d82896e	0.06373869
114	0x3c774c85	0.015093927
115	0x3d40e73c	0.047095522
116	0xbc4d2e29	-0.0125232125
117	0x3c965058	0.018348858
118	0x3da866c9	0.0822273
119	0x3b5818a2	0.0032973667
120	0x3d107040	0.0352633
121	0x3cfafe7b	0.030638924
122	0x3c79c21c	0.015244033
123	0x3de9ec01	0.11421967
124	0xbd17a98f	-0.037026938
125	0x3d3702ca	0.044680394
126	0xbcd58aa7	-0.026067091
127	0x3d8fdc7d	0.07024477
128	0x3c277efd	0.010223147
129	0xbd841d71	-0.06450928
130	0x3bdd29ad	0.006749353
131	0x3d34a454	0.044102028
132	0x3b19b294	0.0023452388
133	0x3d823263	0.06357267
134	0xbcfb4e8f	-0.030677108
135	0x3cf242a5	0.029572794
136	0xbc8b78d8	-0.017025396
137	0x3d7d490b	0.061837237
138	0x3da96f7e	0.082732186
139	0xbd6f335b	-0.058398586
140	0xbd018ec5	-0.031630296
141	0x3d42a88a	0.047524013
142	0xbd448907	-0.047982242
143	0x3bbfacde	0.005849465
144	0x3d8bd7ac	0.068282455
145	0x3bfa1518	0.007631909
146	0xb9b8e5fd	-0.0003526657
147	0x3bdee86e	0.00680261
148	0xbd5b691a	-0.05356703
149	0x3bbaaec9	0.0056971055
150	0x3d7dcd84	0.061963573
151	0xbcbe9024	-0.023262091
152	0x3c324b0e	0.010882152
153	0x3d022b82	0.031779774
154	0xbd18dcda	-0.037319995
155	0xbd311ff8	-0.04324338
156	0xbbcc7f5a	-0.0062407674
157	0xbce21434	-0.027597524
158	0x3a1d4427	0.000599923
159	0xbd8adfb4	-0.06780949
160	0x3c3d701b	0.011562373
161	0x3c965eef	0.018355815
162	0xbbe0a51a	-0.006855619
163	0x3c7e70cb	0.015529822
164	0x3c21ea0c	0.009882461
165	0x3d5e67d9	0.054298256
166	0xbcd527b6	-0.026019912
167	0xbd54e13b	-0.05197261
168	0xbd45f9f7	-0.04833409
169	0x3d177a85	0.036982078
170	0x3d8162fc	0.06317708
171	0x3d81f359	0.06345243
172	0xbcce573c	-0.025188081
173	0x3d5fbe81	0.054625038
174	0xbbcd2ae5	-0.006261217
175	0xbd48ebb4	-0.04905291
176	0xbd2eabd6	-0.042644344
177	0x3d0a3f41	0.03375173
178	0x3d6e444e	0.05817061
179	0xbd7c60e4	-0.06161584
180	0xbd9436c6	-0.0723701
181	0x3d0e3f0e	0.034728102
182	0x3d4b38a4	0.049614564
183	0xbd4fba22	-0.05071462
184	0x3d34b09a	0.044113733
185	0x3c4940c5	0.012283509
186	0x3daf02b9	0.08545441
187	0x3c560040	0.013061583
188	0xbd2a5886	-0.04158833
189	0xbc33e9a2	-0.010980995
190	0x3cecd896	0.02891187
191	0x3c07c6b2	0.008287119
192	0x3cf9390c	0.03042271
193	0xbcc9484e	-0.02457061
194	0xbd4234d5	-0.047413666
195	0x3d51963a	0.051168658
196	0xbd45841d	-0.048221696
197	0x3cf5612b	0.02995356
198	0x3d5fe68e	0.054663233
199	0x3d9c5533	0.07633438
200	0xbc5fcce7	-0.013659692
201	0x3d0abac6	0.033869527
202	0x3d29cd69	0.04145566
203	0x3d39b107	0.045334842
204	0x3d0f7533	0.03502388
205	0x3db277f6	0.08714287
206	0x3d847fa7	0.0646966
207	0xbd4f422b	-0.050600212
208	0x3d689b98	0.05678901
209	0x3d478f31	0.048720542
210	0x3dcf1b3b	0.10112616
211	0xbd45ce24	-0.048292294
212	0xbc84b4f6	-0.01619957
213	0x3cd26b4f	0.025685934
214	0xbd29b67c	-0.041433796
215	0xbc39c5ba	-0.011338646
216	0xba911e87	-0.001107172
217	0x3d0ba63f	0.03409409
218	0x3d0b1796	0.03395804
219	0x3d498659	0.04920039
220	0x3dda1890	0.10649216
221	0xbcd45511	-0.02591947
222	0x3cb7f5b0	0.02245602
223	0xbd0c681a	-0.034278966
224	0xbcd88f3d	-0.026435489
225	0x3d7d128b	0.061785262
226	0x3d29c698	0.04144916
227	0x3d714a65	0.05890884
228	0x3d95c368	0.073126614
229	0x3d28afb8	0.041183203
230	0x3d060269	0.032717142
231	0xbbb62369	-0.0055584204
232	0x3d253ac2	0.04033924
233	0x3d9108ae	0.07081734
234	0x3985c9eb	0.00025518177
235	0x3d837bbf	0.06420087
236	0x3cfcdfdb	0.030868461
237	0x3d4d48d8	0.050118297
238	0x3d790690	0.060797274
239	0x3d7cb929	0.06170002
240	0x3daa0b68	0.08302957
241	0x3d676b73	0.056498956
242	0xbd3c0cb5	-0.045910556
243	0x3d5707fa	0.05249784
244	0xbd10896b	-0.035287302
245	0x3d01b377	0.03166529
246	0x3dc88fac	0.09793028
247	0x3ac10f8f	0.0014729368
248	0x3d52cc8e	0.05146461
249	0x3d49b876	0.04924818
250	0x3cf40a8c	0.029790185
251	0x3d090db6	0.03346034
252	0x3d030c2f	0.03199404
253	0xbd3d8456	-0.046268784
254	0xbc0ccd2a	-0.008593837
255	0x3d351d7c	0.04421757

lstm.bias_hh_l0 f4 [256]
0	0x3d23d6c0	0.039999723
1	0x3d12a9a1	0.035806302
2	0x3ce8d656	0.028422516
3	0x3d4db453	0.0502208
4	0x3d3bfc0a	0.04589466
5	0x3d507b34	0.050898746
6	0x3d20e0fe	0.03927707
7	0x3da623b5	0.08112279
8	0x3cad6e12	0.02117065
9	0x3bcc1402	0.006227971
10	0xbca551df	-0.02018064
11	0x3bbbdc62	0.005733059
12	0x3d4f46c1	0.050604586
13	0xbcc9f992	-0.024655137
14	0x3d195abb	0.037440043
15	0x3cd2501f	0.02567297
16	0x3d95ba18	0.07310885
17	0x3cc365ca	0.023852248
18	0x3d26deba	0.040739752
19	0x3d2e1d4e	0.042508416
20	0x3cc9424c	0.024567746
21	0x3d37ced1	0.04487497
22	0x3d09cb17	0.033640947
23	0x3d020576	0.03174349
24	0x3d70614d	0.058686543
25	0xbc7e20d2	-0.015510755
26	0x3d1824d5	0.0371445
27	0xbbdc867a	-0.006729898
28	0x3d8221d3	0.06354108
29	0x3d15dac6	0.03658559
30	0x3d624536	0.055241786
31	0x3d63b388	0.055591136
32	0x3d92eb2e	0.07173763
33	0x3d4a0423	0.04932035
34	0xbbb00c2e	-0.0053725457
35	0x3b810b02	0.00393808
36	0x3d90b9dc	0.070667
37	0xbc426097	-0.011863849
38	0x3c9986da	0.01874106
39	0xbb803818	-0.003912937
40	0xbd3e41dc	-0.046449527
41	0x3d603574	0.054738477
42	0x3d646e42	0.055769213
43	0x3d7b293c	0.06131862
44	0x3cc6d6d6	0.024272364
45	0xbc0c31ec	-0.008556824
46	0x3d7515fc	0.05983542
47	0x3a8a033e	0.0010529531
48	0x3da1d189	0.07901294
49	0xbc87cb42	-0.016576413
50	0x3c62e6b0	0.0138489455
51	0x3cb4c139	0.022064792
52	0x3d0a3a07	0.033746745
53	0x3d86dfd6	0.06585662
54	0x3ca5b6e3	0.020228809
55	0x3cf660f8	0.030075535
56	0xbcdbcfb6	-0.026832443
57	0x3ccc80d9	0.024963783
58	0x3b64bf5a	0.0034904093
59	0x3dddff89	0.10839755
60	0x3ccaa115	0.024735013
61	0xbc4c6adb	-0.012476648
62	0x3b147fd3	0.0022659197
63	0x3b0b2cbe	0.0021236385
64	0x3d2fb10a	0.042893447
65	0xbce630a1	-0.02809936
66	0x3d3e0cc4	0.046398893
67	0x3d34f84f	0.044182118
68	0x3d2b8b1e	0.04188072
69	0x3c4af539	0.012387567
70	0x3d56c1c7	0.052430894
71	0x3da37fca	0.07983358
72	0x3cd337a2	0.025783364
73	0x3d19bb2a	0.03753201
74	0x3d187b94	0.03722723
75	0xbce4ad63	-0.027914708
76	0x3c8c164b	0.017100474
77	0x3d6f6c38	0.058452815
78	0x3d235784	0.039878383
79	0x3d866361	0.06561924
80	0x3da91499	0.08255882
81	0xbd051ea6	-0.03249993
82	0x3dbc30a3	0.09188964
83	0x3d410bef	0.04713052
84	0x3d0a26a5	0.03372826
85	0x3cc6d5b5	0.024271825
86	0x3d1ec77b	0.03876446
87	0xbc157c4c	-0.009123873
88	0x3d430477	0.04761168
89	0xbd38b40e	-0.04509359
90	0xbce4f4e2	-0.0279488
91	0x3d41e0bf	0.047333475
92	0x3df34e5a	0.11880179
93	0x3d823746	0.06358199
94	0xbce33db7	-0.027739389
95	0x3d9b0c97	0.07570761
96	0xbc1f70aa	-0.009731451
97	0xbc542fc1	-0.012950839
98	0x3caada1f	0.020855961
99	0xbd0dc3bf	-0.034610506
100	0x3d57a934	0.0526516
101	0xbc84e753	-0.016223585
102	0x3d13a0d8	0.036042064
103	0x3c79131a	0.015202308
104	0x3d353e2c	0.044248745
105	0x3d33bc0c	0.043880507
106	0x3d7aa7c8	0.061195165
107	0x3deded21	0.116174944
108	0x3b7eadb2	0.0038860855
109	0x3d7af53c	0.06126903
110	0x3d9033e8	0.0704115
111	0x3da80066	0.08203201
112	0x3da682bd	0.08130405
113	0x3d63ac38	0.055584162
114	0x3c71e9ba	0.014765197
115	0x3d3e9a3f	0.04653382
116	0xbd4292c1	-0.047503237
117	0x3d64658a	0.055760898
118	0x3d88d114	0.066805035
119	0x3d28c7bc	0.041206107
120	0x3d5a51c1	0.053300623
121	0xbb6419f0	-0.00348055
122	0x3d0c6948	0.03428009
123	0x3dc5e97d	0.09663675
124	0x3cd45512	0.025919471
125	0x3d550cea	0.05201427
126	0xbd51bc97	-0.051205244
127	0x3c90921c	0.017647795
128	0xbcbaa4ed	-0.02278372
129	0xbc9a72f9	-0.018853651
130	0xbd861235	-0.065464415
131	0xbb8e1db4	-0.004337037
132	0xbd2e0464	-0.042484656
133	0x3c552f36	0.013011744
134	0xbd3c72d4	-0.046007946
135	0x3d35446f	0.044254716
136	0xbd22847a	-0.03967712
137	0xbcbd37aa	-0.023097832
138	0x3d6961a5	0.056977887
139	0x3b6aa892	0.0035806042
140	0x3d1b3752	0.037894554
141	0xbd039ef2	-0.032134004
142	0x3da20f29	0.07913048
143	0x3cb13762	0.021632854
144	0xbca5f378	-0.020257697
145	0x3c2f252f	0.010690018
146	0xbb7aeece	-0.0038289311
147	0x3d41cec7	0.04731634
148	0xbd46c69b	-0.04852925
149	0xbd3ccdae	-0.04609459
150	0x3cfb8b90	0.030706197
151	0x3d3d1585	0.0461631
152	0x3cdbec8e	0.026846197
153	0x3c9d3347	0.01918949
154	0xbd45d90e	-0.048302703
155	0x3d8cef6c	0.068816036
156	0x3cb683a0	0.02227956
157	0xbc2db452	-0.010602074
158	0x3d692895	0.056923468
159	0xbcedf6cd	-0.029048348
160	0xbbf6723d	-0.0075209425
161	0xbcdbc3dd	-0.026826793
162	0x3d883659	0.06650991
163	0xbca95dc3	-0.020674592
164	0xbd4f11d1	-0.0505541
165	0x3ceb15ba	0.028696883
166	0x3d8c5940	0.068529606
167	0x3d4c12e8	0.049822718
168	0x3cc2ecc7	0.023794545
169	0x3d341cc3	0.04397274
170	0xbd87185f	-0.06596445
171	0xbbf39d0f	-0.0074344943
172	0xbd3168ef	-0.043312963
173	0x3d8d2fc1	0.06893874
174	0x3cdf91f0	0.027291268
175	0xbd0da6b3	-0.034582805
176	0x3cc15517	0.023600144
177	0xbd5684af	-0.05237263
178	0x3bfdc092	0.0077439034
179	0xbc33dd34	-0.010978032
180	0xbcb2a5d6	-0.021807592
181	0xba8c9646	-0.0010725937
182	0x3d6805d9	0.0566462
183	0x3cd615d1	0.02613345
184	0x398cecaa	0.0002687921
185	0xbba44255	-0.00501279
186	0x3d2ad6e7	0.041708853
187	0xbc76b064	-0.015056703
188	0xbabebdf9	-0.0014552466
189	0xbd15e573	-0.036595773
190	0x3d82676f	0.06367385
191	0x3c7586f7	0.014985791
192	0xbc855f73	-0.016280865
193	0xbd4a5001	-0.049392704
194	0x3cb6b159	0.022301363
195	0x3d6751f5	0.056474645
196	0xbc1b68a9	-0.009485402
197	0x3d737b5b	0.059443813
198	0xbcda45b2	-0.026644561
199	0x3d37a5d8	0.044835895
200	0xbd3d5d28	-0.04623142
201	0x3d6f1d10	0.058377326
202	0xbd4377c6	-0.047721647
203	0x3d1920f5	0.037384946
204	0xbab4f01d	-0.001380447
205	0xbadbcaf5	-0.001676886
206	0x3d9a9971	0.07548798
207	0xbc49a109	-0.01230646
208	0x3d9e34cd	0.07724915
209	0x3cdccf35	0.026954273
210	0x3d82f245	0.063938655
211	0x3d84d630	0.064861655
212	0x3d46eb70	0.048564374
213	0x3cc46b77	0.023977024
214	0xbd2b5e73	-0.04183812
215	0x3d7d2aec	0.06180851
216	0xbbf580c6	-0.0074921576
217	0x3cd39500	0.025827885
218	0x3d3a3ca3	0.045467984
219	0x3d8dffb4	0.06933537
220	0x3df80518	0.121103466
221	0x3d63b100	0.055588722
222	0x3cb8ba44	0.022549756
223	0xbca89c54	-0.020582356
224	0x3d9c757e	0.07639597
225	0xbd238e7c	-0.039930806
226	0xbd2c2cf7	-0.04203507
227	0x3cd4065d	0.02588194
228	0xbd2ff20f	-0.042955454
229	0x3d2b2c97	0.04179057
230	0x3c643aa5	0.013929998
231	0x3cbc906f	0.02301809
232	0x3d9416a2	0.07230879
233	0x3db375f4	0.08762732
234	0x3d7b6077	0.061371293
235	0x3dbdfa92	0.09276308
236	0xbd57a069	-0.052643213
237	0x3d407bfe	0.04699325
238	0x3d4794d4	0.048725918
239	0x3d62ee13	0.055402827
240	0x3dadaafd	0.08479879
241	0x3d076a30	0.033060253
242	0x3c816697	0.015795989
243	0xbc9542d3	-0.01822034
244	0x3d34596a	0.044030584
245	0xbb923ea8	-0.0044630356
246	0x3da818ef	0.08207881
247	0x3c266ae5	0.010157322
248	0xbc982898	-0.018574044
249	0x3ce9fbf0	0.028562516
250	0xbcf62f7f	-0.030051945
251	0x3dd4558d	0.1036788
252	0x3d7fded5	0.06246837
253	0x3d71d880	0.05904436
254	0x3d8b707a	0.068085626
255	0xbcd62823	-0.026142186

lstm.weight_ih_l1 f4 [256, 64]
0	0xbb955a2b	-0.004557868
1	0xbbfc4e31	-0.007699751
2	0xbbd68d09	-0.0065475744
3	0x3d0baa58	0.034098
4	0xbb54c9af	-0.0032468846
5	0x3d109164	0.035294905
6	0x3d2334eb	0.03984539
7	0x3c386720	0.011255056
8	0xbb3d8152	-0.0028916192
9	0xbbf71422	-0.007540242
10	0x3c88719e	0.01665574
11	0xbb89365f	-0.0041873897
12	0x3c14b6a0	0.009076744
13	0x3c0ff469	0.008786299
14	0xbb9d3bb2	-0.004798376
15	0x3cb7f7d2	0.022457037
16	0xbd5cfad1	-0.053950135
17	0xbd13b232	-0.036058612
18	0xbd5bec36	-0.053692065
19	0xbc27d430	-0.010243461
20	0x3cd3c037	0.025848491
21	0x3a8c06be	0.0010683162
22	0xbd61c9ad	-0.055123974
23	0x3ba97a5b	0.0051720566
24	0x3bfeca75	0.0077755996
25	0x3ca39c15	0.019971887
26	0xbd1e2758	-0.03861174
27	0x3baf5563	0.005350755
28	0xbc5cd51e	-0.0134785455
29	0x3c0802b4	0.008301426
30	0x3b192809	0.002336981
31	0xbcf11074	-0.02942679
32	0xbae42602	-0.0017406347
33	0x3d2c0da5	0.0420052
34	0x3d5f3f66	0.05450382
35	0x3d5ae2a9	0.053438816
36	0x3d1df3e5	0.038562674
37	0x3c9a943a	0.018869508
38	0xba809834	-0.0009810985
39	0x3d2e569e	0.042563073
40	0x3b908c37	0.004411246
41	0xbb847b74	-0.004043037
42	0xbd352df3	-0.044233274
43	0xbb90d773	-0.004420215
44	0xbb33198b	-0.0027328457
45	0xba2f814e	-0.0006694988
46	0xbd264b67	-0.040599253
47	0x3c0896f0	0.008336768
48	0xbd5ee283	-0.054415237
49	0xbb6c6eda	-0.0036076815
50	0x3b3d8dee	0.0028923708
51	0xbb4a014b	-0.0030823525
52	0xbd4131c8	-0.047166616
53	0xbb2b7712	-0.00261635
54	0x3d137ed4	0.036009625
55	0xba9221db	-0.0011149006
56	0xbce38624	-0.027773924
57	0xbcc42b7b	-0.023946514
58	0x3b52690f	0.0032106077
59	0x3a15c548	0.0005713296
60	0xbd100618	-0.03516206
61	0x3cd52710	0.026019603
62	0x3bab51be	0.0052282503
63	0xba86e92e	-0.0010292882
64	0x3cda54ed	0.026651824
65	0xbb985a93	-0.004649469
66	0xbc0202aa	-0.0079352055
67	0x3ca5aad6	0.020223062
68	0xbcedb1ae	-0.029015388
69	0x3cfc171f	0.030772744
70	0xbc9d5a50	-0.019208103
71	0xbd13ce8c	-0.03608565
72	0x39508171	0.00019884646
73	0xbd3ae2ec	-0.045626566
74	0xbd34be37	-0.044126716
75	0xbcc6e48a	-0.024278898
76	0xbb9aa163	-0.004718946
77	0x3d0e2cbe	0.03471064
78	0xbcd6482c	-0.026157461
79	0x3cdb51a7	0.026772333
80	0xba2ef371	-0.0006673849
81	0x3cba12fc	0.02271413
82	0x3c66cf37	0.01408749
83	0x3a9a0d4c	0.001175323
84	0x3a61570e	0.0008596041
85	0xb9a32440	-0.0003111679
86	0x3d6ec800	0.058296204
87	0x3ad5b9df	0.0016306004
88	0x3aeb0200	0.0017929673
89	0x3bc264ff	0.00593245
90	0x3b709044	0.0036707083
91	0x3bb436ab	0.005499681
92	0xbc998497	-0.018739982
93	0x3d45100c	0.048111007
94	0x3d1e1fcd	0.038604546
95	0xbbbf6ba1	-0.005841688
96	0x3bc37dec	0.005965939
97	0x3c1997a7	0.009374536
98	0xbd1f12da	-0.038836338
99	0xbb47c18d	-0.0030480355
100	0x3d47a113	0.048737597
101	0x3d26c533	0.040715408
102	0xbb8dd8d6	-0.0043288274
103	0x3c01866d	0.007905585
104	0x3d094749	0.03351525
105	0x3cc697a2	0.024242226
106	0xbc3ade82	-0.011405589
107	0xbbc9d380	-0.006159246
108	0xbb8aade1	-0.0042321538
109	0xbc9ee054	-0.019394077
110	0x3b896138	0.0041924976
111	0xbcff585c	-0.031170063
112	0xbc1af218	-0.009457134
113	0x3d4a4b23	0.049388062
114	0x3d6b6a5f	0.05747449
115	0xbc88ee96	-0.01671533
116	0x39c0066e	0.00036625884
117	0xbca37842	-0.019954804
118	0x3cb58183	0.022156483
119	0x3d21ffab	0.039550465
120	0xbbbc7b2c	-0.005751988
121	0x3ca50b0e	0.020146873
122	0x3bea5476	0.007151182
123	0x3bf87493	0.007582256
124	0x3d44a025	0.04800429
125	0xbb8a4f53	-0.004220882
126	0x3c1b015d	0.009460774
127	0xbb43f845	-0.002990262
128	0xbc10383b	-0.008802469
129	0xbc098c10	-0.00839521
130	0xbbe7df35	-0.007076169
131	0xbd35e9a4	-0.04441227
132	0xb7be6f64	-2.2701635e-05
133	0x3c3c2536	0.011483481
134	0x3be8e391	0.007107206
135	0xbb6bc732	-0.0035976884
136	0xbcc04dec	-0.023474656
137	0x3d29b4d4	0.041432217
138	0x3b27b19d	0.0025588043
139	0x3c21bac0	0.009871185
140	0x3c0b945f	0.008519261
141	0x3b481563	0.0030530326
142	0xbba92876	-0.005162294
143	0x3d07f6c0	0.033194304
144	0xbb99550a	-0.004679327
145	0x3d667161	0.05626047
146	0xbd374da1	-0.044751767
147	0x3bc38faf	0.005968056
148	0x3d615d60	0.05502069
149	0xbc208017	-0.009796164
150	0x3b639b7a	0.0034730122
151	0xbc365145	-0.011127775
152	0x3d65deb6	0.056120597
153	0xbc9b16d3	-0.018931782
154	0x3d61a14b	0.05508546
155	0x3cb0dde3	0.021590179
156	0xbcc9958e	-0.024607446
157	0xbd4bd695	-0.04976519
158	0x3d276702	0.04086972
159	0xbb94f071	-0.0045452644
160	0xbc688fbe	-0.014194427
161	0x3d26e59b	0.040746313
162	0xbb9ce54c	-0.0047880765
163	0x3ce8083d	0.02832424
164	0xbc84bab5	-0.01620231
165	0xbbf69864	-0.0075254906
166	0x39dc7bc7	0.0004205389
167	0xbbfb1d37	-0.007663395
168	0x3d2b4535	0.041814048
169	0x3c61c9db	0.013781036
170	0xbcdf454f	-0.027254729
171	0x3c3db90b	0.011579762
172	0xbd2a8e4e	-0.04163962
173	0x3bea1b73	0.0071443855
174	0xbc20c9c1	-0.009813727
175	0xbb3e71d7	-0.0029059553
176	0xb9214232	-0.00015378816
177	0xbca9001d	-0.020629937
178	0x3bd4cdb5	0.0064942488
179	0xbcb2c2d2	-0.021821413
180	0x3d5b9878	0.053612202
181	0xbc0558c1	-0.008138836
182	0x3d40cfec	0.04707329
183	0x3cebef05	0.028800497
184	0xbcd6339c	-0.026147656
185	0xbb915aed	-0.004435888
186	0x3d281d53	0.04104359
187	0xbc203355	-0.0097778635
188	0x3d250e78	0.040297
189	0xbb290a6e	-0.002579357
190	0xbd1c8f70	-0.03822273
191	0x3b094669	0.0020946509
192	0xbc363c5c	-0.011122789
193	0xbbd63f44	-0.0065383036
194	0xbc6d13e4	-0.014470074
195	0x3d1aadfa	0.037763573
196	0x3d35ecf9	0.044415448
197	0xbcb07ddb	-0.021544388
198	0xbcc0355f	-0.02346295
199	0x3d088458	0.033329338
200	0x3c37fbe9	0.011229494
201	0xbbdd1fad	-0.006748161
202	0xbb4a9669	-0.0030912405
203	0xbc25ad7d	-0.010112164
204	0xbd4209ad	-0.04737251
205	0x3bb99fb7	0.0056647914
206	0x3cfa98fb	0.030590525
207	0x3cb56030	0.022140592
208	0x3bf967f0	0.0076112673
209	0x3b828935	0.0039836415
210	0x3d2d99f1	0.042383138
211	0xbaa609b3	-0.0012667686
212	0xba7c9208	-0.00096347975
213	0xbc376bc8	-0.011195131
214	0xbd41a8f1	-0.047280256
215	0x3cb5dbaa	0.02219947
216	0xbb6a8351	-0.0035783837
217	0x3bb552ba	0.0055335434
218	0x3bc10400	0.0058903694
219	0xbbc79c55	-0.0060916343
220	0x3d01f88a	0.031731166
221	0xbc433eff	-0.011916875
222	0x3cc0fb97	0.023557467
223	0x3d6d6e22	0.05796636
224	0x3cbd0b62	0.023076717
225	0x3cb7550f	0.022379426
226	0xbbcfbc1a	-0.006339562
227	0xbc4bee34	-0.012446929
228	0x39cb3be8	0.0003876381
229	0x3a3c9817	0.0007194294
230	0x3d5e5645	0.05428149
231	0x3c40a033	0.0117569445
232	0xbc8ac2e8	-0.016938642
233	0xbd70f85f	-0.058830615
234	0x3c2b487f	0.010454296
235	0xbcbed9d0	-0.02329722
236	0x3b88e832	0.0041780705
237	0xbc482920	-0.012216836
238	0x3c359be4	0.0110845305
239	0x3ccbdc8d	0.02488544
240	0xbc917d6e	-0.017760005
241	0x3c931edb	0.017959049
242	0xbcaa23f0	-0.02076909
243	0x3c4d3e9f	0.012527137
244	0xbc9eb3af	-0.01937279
245	0xbc84baa2	-0.016202275
246	0xbb1c0302	-0.0023805504
247	0xbd2ad306	-0.041705154
248	0xbd63d99a	-0.055627443
249	0xbbc76aa5	-0.006085711
250	0xb9b6e706	-0.0003488587
251	0xbaa82148	-0.0012827301
252	0x3bbd7187	0.005781356
253	0xbc16edcd	-0.00921197
254	0xbc1dc3ed	-0.009629232
255	0xbc256cd6	-0.010096749

lstm.weight_hh_l1 f4 [256, 64]
0	0xbd2a7a21	-0.041620377
1	0xbb1c2fcc	-0.00238322
2	0xbd25e569	-0.040501986
3	0x3d5d8624	0.054083005
4	0xbd4ee870	-0.05051464
5	0x3d56d060	0.052444816
6	0xbb975953	-0.0046188026
7	0x3d58bcab	0.052914303
8	0xbd4f354c	-0.050587937
9	0x3b84c4dd	0.0040517882
10	0x3b965acd	0.004588461
11	0x3d16008b	0.03662161
12	0xbb94ca7c	-0.0045407396
13	0x3d66a9fb	0.05631445
14	0x3b4bda1d	0.0031105347
15	0xb9932873	-0.00028068162
16	0x3d4c699d	0.04990541
17	0x3b33f499	0.0027459024
18	0x3b8b0442	0.004242451
19	0xbb5e3c27	-0.0033910365
20	0x3b898c0f	0.0041976045
21	0xbd415665	-0.047201533
22	0xbae338f9	-0.0017335705
23	0xbd03c1d7	-0.032167282
24	0xbbc7dc4c	-0.0060992595
25	0xbb661039	-0.0035104884
26	0x3c9b3664	0.018946834
27	0xbbb199f7	-0.0054199654
28	0xbb6fa52c	-0.0036566956
29	0x3c24fc96	0.010069987
30	0x3bd41aba	0.0064729126
31	0xbd5caa53	-0.05387337
32	0xbacb5a56	-0.0015514593
33	0xbc200bab	-0.009768407
34	0xbd5c9cde	-0.053860538
35	0x39905016	0.0002752549
36	0x3baec2a5	0.005333262
37	0x3c148bff	0.009066581
38	0xbd4288d4	-0.04749377
39	0xbbb21a6d	-0.005435279
40	0x3ab8bd02	0.0014094415
41	0xbb51103c	-0.0031900546
42	0x3bdaebe1	0.006680951
43	0x3b0f67b5	0.0021881883
44	0x3b0f9c77	0.0021913329
45	0xbc6b7416	-0.014370939
46	0xbb76b033	-0.0037641644
47	0x3d7210cf	0.05909806
48	0x3ca7da09	0.02048971
49	0xbb2eb5d2	-0.0026658666
50	0x3b8f372a	0.0043705897
51	0x3bd26daf	0.0064217667
52	0xbca99eb3	-0.020705556
53	0xbd5e4d1b	-0.054272752
54	0xbade2b87	-0.0016950228
55	0xbb94ab2b	-0.0045370064
56	0xbb6e208c	-0.0036335317
57	0xbb9b346c	-0.004736474
58	0x3999cc0a	0.00029334455
59	0x3b7b2d44	0.003832654
60	0x3bacfba6	0.0052790223
61	0xbd329970	-0.04360336
62	0xbb3692f0	-0.0027858578
63	0xbc111fb9	-0.008857661
64	0xbb5eb60a	-0.0033983015
65	0xbc144fd3	-0.009052235
66	0xbccfd659	-0.025370764
67	0xbc7174dd	-0.014737335
68	0xbc2f7350	-0.010708645
69	0xb90a6d46	-0.00013201413
70	0xbd38f8f4	-0.045159295
71	0x3c8c1614	0.017100371
72	0x3d5aed8e	0.053449206
73	0x3c55e854	0.01305588
74	0xbc91e5fa	-0.017809857
75	0xbd212c81	-0.039349083
76	0xbc5bbfc5	-0.013412421
77	0x3bf1e399	0.007381868
78	0x3d306d37	0.043072905
79	0x3d06cece	0.032912068
80	0xbb8f73a1	-0.0043777977
81	0xbc976306	-0.018479835
82	0xbb894f8f	-0.0041903923
83	0xbd56ee89	-0.05247358
84	0x3c4fa47f	0.012673496
85	0xbc4a0f76	-0.012332788
86	0x3b6a42ed	0.0035745457
87	0x3be7c164	0.0070726145
88	0xbb764753	-0.0037579134
89	0xbb93fcdc	-0.004516227
90	0xbd4b1381	-0.049579147
91	0xbc6967e6	-0.014245963
92	0xbace5ced	-0.0015744247
93	0x39a855c8	0.0003210737
94	0x3c130cef	0.008975252
95	0xbd486381	-0.04892302
96	0x3d579750	0.052634537
97	0x3c10804e	0.008819653
98	0xbb4104d9	-0.0029452352
99	0x3b2f4576	0.0026744283
100	0x3d676f32	0.05650253
101	0x3d3af9fe	0.045648567
102	0xbc0e4f26	-0.008685863
103	0x3ccbf31d	0.024896199
104	0x3d1b47c0	0.037910223
105	0xbb8a7787	-0.0042256746
106	0x3c62e248	0.013847895
107	0x3d2b8b39	0.04188082
108	0x3ca704e6	0.020388078
109	0x3d251d44	0.040311113
110	0x3ca9865c	0.02069395
111	0x3d2fc6d2	0.04291422
112	0x3d36d615	0.04463776
113	0xbcd9bf04	-0.026580341
114	0x3c7b8138	0.015350632
115	0x3d40e547	0.047093656
116	0x3b062ad3	0.0020472303
117	0xbb04f13b	-0.0020285386
118	0xbc18d782	-0.009328725
119	0x3d02af83	0.031905662
120	0xbc356641	-0.0110717425
121	0x3b7f420c	0.003894928
122	0x3ca29c66	0.019849967
123	0x3bc66c37	0.0060553807
124	0x3c7a63a1	0.015282542
125	0x3cc47dac	0.023985706
126	0xba9896c9	-0.0011641617
127	0x3d40bd90	0.04705578
128	0x3c927fd6	0.017883223
129	0xbbd4ec09	-0.006497864
130	0x3bb2c4f4	0.0054556075
131	0xbb66b751	-0.003520448
132	0x3d1d0d89	0.038342986
133	0xbc330b86	-0.01092804
134	0xbd3932ff	-0.04521465
135	0x3d039292	0.032122202
136	0x39deaa70	0.00042470125
137	0x3c1d4b1b	0.009600426
138	0x3ac74281	0.0015202315
139	0xbc66825a	-0.014069164
140	0xbbef5134	-0.0073033813
141	0x3c88ddf3	0.016707396
142	0x3d014d94	0.031568125
143	0x3d474cd9	0.048657272
144	0x3c82b394	0.01595477
145	0xbd3183a2	-0.043338425
146	0xbd598839	-0.053108428
147	0xbbbca7da	-0.005757314
148	0x3c08d150	0.008350685
149	0x3d58e556	0.052953087
150	0xbd64f5a5	-0.055898327
151	0xba6fecbf	-0.00091524044
152	0xbbd221fc	-0.0064127427
153	0x3c11f53e	0.008908568
154	0x3bdeca61	0.006799028
155	0x3d3df8e5	0.046379942
156	0x3c6fd468	0.014638044
157	0x3ba1166c	0.004916003
158	0xba4e51c4	-0.00078704604
159	0x3d564e6f	0.052320894
160	0xbd34ebcd	-0.04417019
161	0xbb5d3b11	-0.003375713
162	0x3b8be3aa	0.004269083
163	0x3b9748ef	0.0046168487
164	0x3bf58a7d	0.0074933157
165	0x3b913c6e	0.0044322526
166	0xbb119a65	-0.002221727
167	0xbbf287a8	-0.0074014254
168	0x3d3ab881	0.045586113
169	0xbc171cb2	-0.00922315
170	0x3c1a0aaf	0.009401961
171	0xbd291b87	-0.041286018
172	0xbd56d34d	-0.052447606
173	0xbb6c503f	-0.0036058573
174	0x3b4222b8	0.0029622745
175	0x3d5af6e6	0.053458117
176	0xbae6e672	-0.0017616285
177	0xbb2ea1d1	-0.0026646743
178	0x3d5fc6e8	0.05463305
179	0xbcd26a15	-0.02568535
180	0xba7f865a	-0.0009747498
181	0x3d1d468e	0.038397364
182	0x3bfeb05b	0.007772488
183	0x3c006186	0.007835751
184	0xbb1d3596	-0.0023988239
185	0x3ab5db7a	0.0013874613
186	0xbbfbd664	-0.0076854695
187	0xbbed8086	-0.007247987
188	0x3a957488	0.0011402527
189	0xbb0a2c00	-0.0021083355
190	0xbd477657	-0.048696842
191	0xbb911fd7	-0.0044288444
192	0xbc02f7a1	-0.00799361
193	0xbceb3990	-0.028713971
194	0xbcad144a	-0.021127839
195	0x3d4d82f2	0.050173707
196	0x3b576d1d	0.0032871433
197	0xbd788c65	-0.060680766
198	0x3cdf4032	0.02725229
199	0x3c4716c3	0.012151423
200	0xbd04b2d2	-0.0323971
201	0x3b9e155f	0.004824325
202	0x3d2f0f05	0.042738933
203	0x3c4faf25	0.012676035
204	0xbb82d08b	-0.0039921454
205	0x3d5509bd	0.05201124
206	0x3a5cdd08	0.000842527
207	0xbc97deea	-0.01853891
208	0xbcb97745	-0.02263988
209	0xbb6378be	-0.003470942
210	0xbd051c16	-0.032497488
211	0xbc0b8b77	-0.008517138
212	0xbd579c5c	-0.05263935
213	0xbcb1a4cf	-0.021685032
214	0xbd21fc44	-0.03954722
215	0x3ca00c7e	0.019537207
216	0xbcae50a5	-0.021278689
217	0x3ca510b0	0.020149559
218	0xbc34d092	-0.011036055
219	0x3cc8449b	0.024446776
220	0xbd2e4ed0	-0.04255563
221	0xbd803dd6	-0.06261794
222	0xbc1915c0	-0.0093435645
223	0x3ad9bcf4	0.0016612099
224	0xbbfa5cdd	-0.0076404647
225	0xbd16cc52	-0.03681595
226	0xbc286ee6	-0.0102803465
227	0x3cd889af	0.02643284
228	0x3c924ed2	0.01785985
229	0x3c80969c	0.015696816
230	0xbceebefa	-0.0291438
231	0xbb84702d	-0.0040416927
232	0x3c0d44de	0.008622376
233	0xbcf4c303	-0.029878145
234	0x3c6f561a	0.014607931
235	0x3c38beb4	0.011275936
236	0xbcc210bc	-0.02368962
237	0xbc9687ca	-0.018375296
238	0x3d7258ad	0.0591666
239	0x3d0a8cc5	0.033825655
240	0xbb5223d1	-0.0032064805
241	0xbd55a0ae	-0.05215519
242	0x3cba22c5	0.022721658
243	0x3cb264c1	0.021776559
244	0x3c962a03	0.01833058
245	0xbc1a3522	-0.009412082
246	0xbd083130	-0.033250034
247	0xbca81652	-0.020518456
248	0xbc52fa86	-0.012877112
249	0x3caf6218	0.02140908
250	0xbb5ad405	-0.0033390534
251	0xbc92f842	-0.017940644
252	0x3c8e8423	0.017396992
253	0xbc22f71a	-0.009946609
254	0x3cd86522	0.026415411
255	0xbc3fdaae	-0.011709852

lstm.bias_ih_l1 f4 [256]
0	0x3d430029	0.047607575
1	0xbce1b416	-0.027551692
2	0xbd07a2eb	-0.033114355
3	0x3dbc9b83	0.09209349
4	0x3d04b8c7	0.03240278
5	0x3d8224e8	0.063546956
6	0x3d9477fd	0.072494484
7	0x3d6c63d1	0.05771238
8	0x3ca60a2b	0.02026852
9	0x3d1c8a0c	0.03821759
10	0x3d5c7a54	0.0538276
11	0x3da597f0	0.080856204
12	0x3b5cf100	0.0033712983
13	0x3d89da55	0.06731097
14	0xbca7d80b	-0.02048876
15	0x3d60c728	0.05487743
16	0x3ddf889f	0.1091473
17	0x3d3c67d4	0.045997456
18	0x3d9a8d3a	0.07546468
19	0x3d6a4478	0.057194203
20	0xbcb8454a	-0.022493977
21	0x3d63aba5	0.055583615
22	0x3d8ab78d	0.06773291
23	0xbcd8e5bc	-0.026476733
24	0x3b2bce8f	0.0026215648
25	0xbd3dde49	-0.046354566
26	0xbbfc98d7	-0.0077086496
27	0xbbf66afa	-0.007520077
28	0x3dabc26b	0.08386692
29	0x3da1f2d0	0.07907641
30	0x3dd22cee	0.10262476
31	0x3d358847	0.044319417
32	0x3d69ee32	0.057111926
33	0x3d5959f6	0.05306431
34	0x3d0d34d2	0.0344742
35	0x3cf2f122	0.029655997
36	0x3d36746b	0.04454462
37	0xbce81427	-0.028329922
38	0x3db6c669	0.089245625
39	0x3da77955	0.08177439
40	0xbcbf8819	-0.023380326
41	0x3db0c820	0.08631921
42	0x3cf9d88b	0.030498764
43	0x3dd34765	0.10316352
44	0x3d8e8450	0.0695883
45	0x3d6fe7bb	0.058570605
46	0x3dd5e127	0.10443335
47	0x3db3f487	0.08786874
48	0xbb3dedc9	-0.0028980842
49	0x3d9a1f3a	0.07525487
50	0x3d3e9d02	0.046536453
51	0x3b783652	0.0037874174
52	0x3d0e2bcb	0.034709733
53	0x3d8fbbe0	0.07018256
54	0xbcdcffa4	-0.026977368
55	0x3d8a76ca	0.067609385
56	0x3d5d7dcd	0.05407505
57	0x3d8fe561	0.070261724
58	0x3d968cfd	0.0735111
59	0xbd0fcc58	-0.035106987
60	0x3ccea609	0.025225656
61	0x3d8ad278	0.06778425
62	0x3d4bb7ca	0.04973582
63	0x3d01a485	0.03165104
64	0xbd2066c0	-0.03916049
65	0xbd08e865	-0.033424754
66	0x3d65ce08	0.05610469
67	0xbcee8d3c	-0.02912008
68	0x3d66718a	0.056260623
69	0x3d86dc25	0.06584958
70	0x3ad482d1	0.0016213303
71	0x3d49e4f1	0.0492906
72	0x3c487a7c	0.012236234
73	0x3c5331a2	0.012890251
74	0xbb262053	-0.0025348857
75	0x3d9fe900	0.07808113
76	0x3d350a29	0.044199143
77	0x3e03c94e	0.1286976
78	0x3d8a1b95	0.06743542
79	0x3cf08407	0.02935983
80	0x3ceebebe	0.029143687
81	0x3cec8e76	0.028876524
82	0x3da5348f	0.080666654
83	0x3d7fa0ff	0.062409397
84	0x3d835bd6	0.06414001
85	0x3c123eb1	0.00892608
86	0xbd29d655	-0.04146417
87	0xbc95b3e7	-0.01827426
88	0x3dc8c87c	0.09803864
89	0x3d510d54	0.0510381
90	0x3da1ad0c	0.07894334
91	0x3daebb9b	0.08531877
92	0x3d8e1818	0.06938189
93	0x3cb0ca6d	0.0215809
94	0x3db897a7	0.090133004
95	0x3dbb19ee	0.09135805
96	0x3d677c87	0.056515243
97	0x3d5ee95d	0.05442177
98	0xbb7d3a2f	-0.0038639416
99	0xbcd56e4d	-0.026053572
100	0x3d16de4e	0.0368331
101	0x3d18ce21	0.037305955
102	0x3d9493dd	0.07254765
103	0x3da2f894	0.07957569
104	0x3d79c637	0.060980048
105	0x3da4b812	0.08042921
106	0x3d5504ee	0.052006654
107	0x3d06521c	0.03279315
108	0x3ce7fb30	0.028318018
109	0x3d86151a	0.065469936
110	0x3df56328	0.11981803
111	0x3db856fb	0.09000965
112	0xbcc7ac22	-0.024374072
113	0x3d90b899	0.07066459
114	0x3d60d0f9	0.05488679
115	0x3d0553e6	0.032550715
116	0x3d73c1e3	0.059511077
117	0xba129c37	-0.0005592736
118	0x3d251b4b	0.04030923
119	0x3dbab6a2	0.09116866
120	0x3dc36cba	0.09542222
121	0x3d9764bb	0.0739226
122	0xbc2d3124	-0.010570798
123	0x3df20fb9	0.11819405
124	0x3e0463d1	0.12928702
125	0x3db3b162	0.087740675
126	0xbc9216a0	-0.017833054
127	0xbcbea5f6	-0.023272496
128	0x3d172456	0.036899887
129	0xbca385bc	-0.01996123
130	0x3ce6e8e5	0.028187225
131	0xbd2afa09	-0.04174236
132	0x3c0dfd69	0.008666375
133	0x3d61e5c7	0.055150773
134	0xbd0c47f4	-0.034248307
135	0x3d8c4dd8	0.06850785
136	0xbdc78196	-0.097415134
137	0x3dc44fd1	0.09585536
138	0x3db639b3	0.08897724
139	0x3b9d51e1	0.0048010205
140	0xbdaad15b	-0.08340713
141	0x3c3533bd	0.011059699
142	0x3d499e4d	0.049223233
143	0xbdaf2a77	-0.085530214
144	0x3d3cb098	0.04606685
145	0xbdad0f45	-0.08450178
146	0xbd812b4d	-0.06307087
147	0xbde8fc83	-0.11376288
148	0x3c807f22	0.015685622
149	0xbd33718c	-0.04380946
150	0xbda30469	-0.079598255
151	0x3db47219	0.08810825
152	0x3da6286d	0.08113179
153	0xbd21815f	-0.03943002
154	0x3da977f1	0.0827483
155	0xbccc6ac8	-0.024953261
156	0x3d25b099	0.04045162
157	0x3d8d19a9	0.0688966
158	0xbdb0e103	-0.086366676
159	0xbd7ea43d	-0.06216835
160	0x3d1f6d4e	0.0389226
161	0x3da92878	0.08259672
162	0xbce80b12	-0.028325591
163	0x3d479bac	0.048732445
164	0x3d6e5214	0.058183745
165	0x3dcf65c9	0.10126836
166	0xbd839c1a	-0.064262584
167	0xbd303a83	-0.04302455
168	0x3dd032d9	0.101659484
169	0x3daa0e90	0.08303559
170	0xba3a6a33	-0.0007111162
171	0xbd46a908	-0.048501045
172	0xbc8f2c78	-0.017477259
173	0xbd1832fe	-0.037158005
174	0xbdb13905	-0.08653454
175	0x3d8ecf33	0.06973114
176	0xbd8c15fb	-0.0684013
177	0xbdd57171	-0.10422028
178	0x3d8a2911	0.06746114
179	0x3d845386	0.06461243
180	0x3d816b9b	0.06319352
181	0x3da034ec	0.07822594
182	0xbdb65b69	-0.08904154
183	0x3d82a24f	0.06378614
184	0x3ccfa7d1	0.025348576
185	0xbcfe515f	-0.03104466
186	0xbc1f9db1	-0.009742186
187	0x3cc911b8	0.024544582
188	0x3d65dd21	0.056119088
189	0xbccb8eac	-0.024848305
190	0xbc2ebf83	-0.010665777
191	0xbbb7b3ed	-0.0056061656
192	0x3d84e867	0.0648964
193	0x3db26540	0.08710718
194	0x3d5a5855	0.053306896
195	0x3d455aa6	0.048182152
196	0x3d90be05	0.07067493
197	0x3d8a4fc8	0.06753498
198	0x3d9bb9f6	0.076038286
199	0x3d753150	0.05986148
200	0x3d63486c	0.05548899
201	0xbd12d8d9	-0.035851333
202	0xbd1e04a8	-0.03857866
203	0xbc914e56	-0.017737549
204	0x3d8b92fa	0.06815143
205	0x3e037b6c	0.1284005
206	0xbd025d78	-0.03182742
207	0x3d8e90f6	0.06961243
208	0x3dd681ae	0.10473953
209	0x3d4ed117	0.050492372
210	0x3d49c8ee	0.049263887
211	0x3d7fc74d	0.062445927
212	0x3d835b34	0.0641388
213	0x3d9fdc60	0.07805705
214	0x3cbcaa3c	0.023030393
215	0x3cad4a05	0.02115346
216	0x3dc671a4	0.09689644
217	0x3d845c59	0.064629264
218	0x3d9c191f	0.07621979
219	0x3de0d361	0.10977817
220	0x3db17377	0.08664601
221	0x3dbc7065	0.09201125
222	0x3db4a67b	0.08820816
223	0x3dabb5ce	0.08384286
224	0x3d78f9d1	0.06078512
225	0x3e136a7c	0.1439609
226	0x3ccb70e1	0.024834098
227	0x3d582595	0.052770216
228	0x3a68ad7f	0.00088759506
229	0x3d02fe2c	0.03198068
230	0x3d92b1ed	0.07162843
231	0x3da7e71b	0.08198377
232	0xbd09c521	-0.033635262
233	0x3da5fbf7	0.08104699
234	0xbc2c79c1	-0.010527075
235	0xbcdd84ad	-0.027040804
236	0x3d172961	0.036904696
237	0xbd0b1b48	-0.033961564
238	0x3d0093db	0.031391006
239	0xbce7420d	-0.028229738
240	0xbbe672c1	-0.0070327227
241	0x3c4305b7	0.011903218
242	0x3d30c06e	0.043152265
243	0x3d9a6229	0.07538254
244	0x3cfbb2c3	0.030724889
245	0x3c3c9167	0.011509276
246	0xbd283faf	-0.04107636
247	0x3d82053f	0.06348657
248	0x3d8b2364	0.067938596
249	0xbba36b0c	-0.004987126
250	0x3db817d6	0.08988921
251	0x3d8dda62	0.06926419
252	0x3d0bf20d	0.034166384
253	0x3d5e23a4	0.05423321
254	0xbbdbc66a	-0.0067070024
255	0xbce34fa0	-0.02774793
