rnn_models/rnn_model_10000_reach1_4_2024-05-03_23-48-34.pth (torch, 162874 bytes, 6 tensors)

rnn.weight_ih_l0 f4 [64, 538]
000000 31 f3 b4 ba 83 25 9f ba 51 19 b6 37 0b bf e5 b8
       -0.0013805387 -0.0012141917 2.170788e-05 -0.000109551554
000010 8a 51 db ba 5d 70 07 b9 42 c1 07 ba dc b5 a7 ba
       -0.0016732675 -0.00012916462 -0.0005178639 -0.0012795287
000020 1e b7 70 b8 c5 76 c1 b9 9d 08 5b b9 5a 3f cd b6
       -5.7391e-05 -0.0003690032 -0.00020888676 -6.116851e-06
000030 9b ae b2 b9 b8 4f 0d b8 db 60 dd b9 b5 30 34 ba
       -0.00034080897 -3.3691264e-05 -0.00042224568 -0.0006873713
000040 4a 85 bc 38 70 0a 60 b5 dc b1 53 37 d5 b9 d5 b8
       8.9893656e-05 -8.346169e-07 1.2617991e-05 -0.000101912454
000050 3e 6f 7d ba 58 af a4 ba da ed b1 b7 ca e8 c7 ba
       -0.00096677605 -0.0012564464 -2.1210803e-05 -0.0015251872
000060 56 1d ae ba 62 2e 1e 38 b3 bd fc b9 75 f7 a4 ba
       -0.0013283889 3.7713333e-05 -0.00048206522 -0.0012585955
000070 2b ad 0a 38 b4 58 48 b9 aa 31 65 ba 2e ce da b7
       3.306304e-05 -0.00019106531 -0.0008743057 -2.6083635e-05
000080 bc 9a f9 b8 02 f0 e3 34 c4 65 15 b8 80 9b 8d 37
       -0.00011902067 4.2456674e-07 -3.5619145e-05 1.688092e-05
000090 91 7c 28 b8 07 1d 02 b9 97 7b 12 38 c1 04 9b ba
       -4.0170333e-05 -0.0001240858 3.4924215e-05 -0.0011826978
0000a0 56 77 b4 38 9c 6c f6 ba 83 11 1f ba c5 ff d5 b9
       8.605297e-05 -0.0018800679 -0.0006067978 -0.0004081709
0000b0 c5 c0 9c ba 0e 8d dc b9 a8 8d 65 b8 ec b2 c2 b6
       -0.0011959305 -0.00042066764 -5.4729782e-05 -5.80248e-06
0000c0 e7 8d 86 ba 49 39 e9 b6 46 ae fb 37 c6 f3 39 ba
       -0.0010265679 -6.95061e-06 3.0002684e-05 -0.0007093515
0000d0 b4 32 a8 ba 25 09 4e 38 68 21 09 b6 3d 90 4c b9
       -0.0012832494 4.9122744e-05 -2.0434036e-06 -0.00019508689
0000e0 9b 93 0e b9 fe e5 5d 38 ed 7d 9b 37 3b 1e 01 38
       -0.00013597163 5.2904703e-05 1.8536079e-05 3.078415e-05
0000f0 89 4b 72 ba d2 8f b9 b9 dc 72 ed ba 07 10 f5 b6
       -0.0009242823 -0.00035393104 -0.0018115896 -7.303435e-06
000100 a7 45 82 b9 46 1a 9d 38 77 12 75 b9 98 6a a1 36
       -0.00024847427 7.491237e-05 -0.000233719 4.810583e-06
000110 b6 04 94 37 59 f5 22 ba b4 19 4b ba 08 f1 04 ba
       1.7645169e-05 -0.0006216369 -0.00077476655 -0.0005071317
000120 2f c3 f0 b9 a8 69 5f b8 22 31 6e 38 4a ee 7e b8
       -0.0004592179 -5.3265743e-05 5.678938e-05 -6.0780243e-05
000130 56 2b 9f b8 48 8b af ba b1 5d 16 b8 19 c4 53 ba
       -7.589783e-05 -0.001339295 -3.5850044e-05 -0.0008078232
000140 90 e7 39 b8 ba c7 6c b8 c8 f2 c1 ba 5d 3a 94 ba
       -4.4323097e-05 -5.6452795e-05 -0.0014797086 -0.0011308898
000150 30 04 6d b9 94 dc 16 ba a8 59 53 ba bf 73 0a b8
       -0.00022603641 -0.00057549146 -0.0008062371 -3.300956e-05
000160 3f 3a fb 37 fe 46 57 b7 f8 dd 01 ba ce fa 82 ba
       2.9948655e-05 -1.2831528e-05 -0.00049540354 -0.0009992959
000170 5b 4f 20 ba 81 f1 97 ba d2 c2 f7 b6 bf c1 3f 38
       -0.00061153405 -0.001159236 -7.3838537e-06 4.571839e-05
000180 32 19 8b b7 73 48 21 ba cc 10 bd b8 00 50 e5 b8
       -1.6581824e-05 -0.00061524584 -9.015351e-05 -0.00010934472
000190 f3 d7 f3 37 10 54 e0 36 17 90 36 ba c7 5f d4 ba
       2.9068417e-05 6.6855064e-06 -0.000696422 -0.001620286
0001a0 b6 29 d2 ba dc 34 58 ba 22 87 0e ba 7a d1 81 ba
       -0.0016034159 -0.0008247623 -0.00054370065 -0.0009904348
0001b0 54 9f 34 b6 c0 83 4a ba fa df 76 ba df 7c 41 ba
       -2.6914831e-06 -0.0007725321 -0.00094175304 -0.0007380973
0001c0 16 d5 e2 b9 c0 53 c8 b9 de 94 9d 37 b7 08 56 b8
       -0.0004326484 -0.0003820937 1.878518e-05 -5.1029692e-05
0001d0 d2 59 62 b9 ff ae 86 b9 53 3c b2 ba 0c a6 47 b9
       -0.000215865 -0.00025688854 -0.00135983 -0.00019039976
0001e0 53 bb c5 b7 47 d9 09 38 64 30 cc 36 8c a0 06 bb
       -2.357146e-05 3.28657e-05 6.085307e-06 -0.002054247
0001f0 46 40 20 b8 00 4b ec 37 bc 34 0e b7 30 be ce b9
       -3.8206832e-05 2.8168317e-05 -8.476138e-06 -0.00039433083
000200 ee bd 50 37 f0 a0 a9 ba bc 95 6d ba 34 8c 8a ba
       1.2441988e-05 -0.001294164 -0.00090631447 -0.0010570348
000210 89 df c4 b9 21 e7 eb b9 6a d4 15 ba cf 6c 36 b8
       -0.0003755058 -0.00044994897 -0.0005715551 -4.3493517e-05
000220 98 30 0a 37 a7 a1 81 ba 34 20 13 b7 23 fc 74 ba
       8.236755e-06 -0.0009890095 -8.769381e-06 -0.00093454326
000230 00 bc 0a ba 27 35 85 b8 9c 75 6e 38 fc 3c a6 37
       -0.00052922964 -6.3518346e-05 5.6853154e-05 1.981714e-05
000240 cf fe 34 ba b8 a3 50 ba 30 17 12 ba 94 91 79 b6
       -0.00069044245 -0.00079589663 -0.0005572913 -3.718863e-06
000250 bb cc 23 ba a8 83 fc b8 a8 4a a2 b8 15 da b8 b8
       -0.0006248464 -0.00012040819 -7.738668e-05 -8.814425e-05
000260 4c 36 2b ba 3a 92 24 ba 93 04 a2 b9 f8 01 8b b8
       -0.0006531223 -0.0006277893 -0.00030902456 -6.628403e-05
000270 00 d0 87 b8 73 6e 24 ba ef 32 25 ba 96 3d 3b ba
       -6.476045e-05 -0.0006272562 -0.000630184 -0.0007142661
000280 16 98 16 ba 2a 00 68 ba 15 4a 79 ba a8 9b 1c ba
       -0.00057447085 -0.0008850122 -0.0009509635 -0.00059741223
000290 5c b7 0f ba 1e ae 94 ba b8 9f 06 38 a4 a1 60 38
       -0.000548234 -0.0011343395 3.209684e-05 5.35563e-05
0002a0 2a cc 88 b8 28 fb 42 37 d2 78 a0 37 d8 62 24 38
       -6.523014e-05 1.1621778e-05 1.9129748e-05 3.9192702e-05
0002b0 13 ad 61 ba b2 41 c4 b9 04 6e 27 37 cb a2 77 ba
       -0.0008608859 -0.0003743298 9.979591e-06 -0.000944656
0002c0 e4 01 9b b7 b2 02 55 ba 4e 82 06 ba 38 17 dc 38
       -1.847832e-05 -0.0008125707 -0.0005131111 0.00010494742
0002d0 6c 7a ee 37 6f 3f 88 b8 17 45 4e ba e6 9d 06 ba
       2.8428818e-05 -6.496801e-05 -0.00078685716 -0.0005135223
0002e0 bb e4 34 38 72 30 38 ba a9 4b 6c b8 39 b0 bf b9
       4.3128366e-05 -0.0007026262 -5.633725e-05 -0.00036561655
0002f0 dd b3 ae b8 95 75 90 b8 3c a6 69 38 7a 16 1d 38
       -8.330469e-05 -6.8883564e-05 5.5706347e-05 3.745265e-05
000300 f6 45 52 ba ca cf 01 38 62 12 f1 37 3f 76 c4 ba
       -0.0008021289 3.0949515e-05 2.8737999e-05 -0.0014988853
000310 e0 98 7f 38 b6 39 a9 36 26 d1 f4 b7 e3 5d 7d ba
       6.0939114e-05 5.043311e-06 -2.9184459e-05 -0.00096651743
000320 b8 8e 32 ba 4e 49 61 ba dc 19 ee 36 ec c6 bf 36
       -0.0006811428 -0.0008593992 7.095963e-06 5.715401e-06
000330 3f f6 56 b8 c0 7f 3f ba 13 15 c6 b9 51 87 a4 b7
       -5.125091e-05 -0.0007305108 -0.00037781204 -1.9613335e-05
000340 8c e9 60 b8 9f 4c 23 ba a2 15 9a b8 d0 fd 5d ba
       -5.362327e-05 -0.0006229374 -7.347322e-05 -0.0008468302
000350 58 2d 65 ba 55 ab df b7 c1 1a 01 ba 49 40 d8 b9
       -0.00087424135 -2.6663454e-05 -0.0004924946 -0.00041246627
000360 00 ce 15 34 68 09 3e 38 8e b7 ae 37 f2 94 79 ba
       1.3951649e-07 4.530829e-05 2.082789e-05 -0.0009520791
000370 38 4b 02 ba 2c 88 26 37 bd ac 4c 36 25 a4 69 37
       -0.0004970315 9.926076e-06 3.0498916e-06 1.39261e-05
000380 e1 75 0b ba 5b e1 19 bb 1f 4f e0 b9 6a 58 ba b7
       -0.00053199945 -0.002348027 -0.0004278356 -2.2214099e-05
000390 9c d5 31 b9 b4 90 7e ba ce 7b 22 b8 4d 33 4f ba
       -0.00016959611 -0.00097108935 -3.8739112e-05 -0.0007904068
0003a0 98 d8 44 ba 7c 3b 0d 37 b8 91 c3 36 48 6b 2b 38
       -0.00075090816 8.418105e-06 5.8284168e-06 4.086949e-05
0003b0 16 d0 01 b9 c8 ab 8c 35 1f b5 11 b8 97 9c 19 b7
       -0.00012379917 1.0480808e-06 -3.4739376e-05 -9.15597e-06
0003c0 b8 ba 01 ba 0f 71 44 ba f8 40 40 b6 65 06 67 ba
       -0.0004948783 -0.00074936537 -2.8648046e-06 -0.00088129035
0003d0 79 7a 99 ba 7e 5b 93 38 77 61 e4 b8 52 de 94 b7
       -0.0011709473 7.026548e-05 -0.000108900414 -1.77465e-05
0003e0 d0 5a bd b8 74 b3 8e 38 cd 23 0c b9 7e 3d 8f 38
       -9.0291374e-05 6.8045134e-05 -0.00013364777 6.830225e-05
0003f0 70 84 49 37 5f da 58 b9 94 10 d4 ba 77 58 ba b8
       1.2011369e-05 -0.00020680715 -0.0016179257 -8.885649e-05

rnn.weight_hh_l0 f4 [64, 64]
000000 eb 8f 44 39 ef 8f 44 39 16 a3 57 39 97 5e 76 38
       0.0001874563 0.00018745636 0.00020564752 5.8739064e-05
000010 ed d4 0e 39 d2 b3 a5 38 4a 6e b3 b8 ed 8f 44 b9
       0.00013621496 7.901307e-05 -8.555928e-05 -0.00018745633
000020 34 6f f9 36 46 5e 3a 38 59 f5 43 39 ac bb 47 38
       7.433724e-06 4.4433655e-05 0.00018688048 4.762008e-05
000030 c3 84 e5 b8 1b 5c 88 b7 dd 4f c4 38 48 46 27 39
       -0.000109443 -1.6255353e-05 9.360884e-05 0.00015952543
000040 fe a8 f2 37 4d c2 30 39 68 12 0c b9 15 8a 7f b8
       2.8927341e-05 0.0001685705 -0.00013358297 -6.0925337e-05
000050 a8 aa 97 36 b4 9e 53 b8 e8 a6 74 b8 fe 5e a8 38
       4.5200177e-06 -5.0454124e-05 -5.8329577e-05 8.028558e-05
000060 f0 8f 44 39 10 b0 78 b8 0d a2 46 b8 82 d0 6b 38
       0.00018745637 -5.929178e-05 -4.73578e-05 5.6222554e-05
000070 25 4e 14 39 a1 a2 b1 b8 81 4b 8a 37 7c 90 e4 38
       0.00014143491 -8.47031e-05 1.6486041e-05 0.000108987995
000080 f0 36 f1 b8 be fb 15 39 5b 03 69 b8 78 89 e8 b8
       -0.000115020084 0.00014303529 -5.5554654e-05 -0.000110882276
000090 ef 8f 44 b9 ef 8f 44 b9 cc 75 4c b8 4c 25 c2 b7
       -0.00018745636 -0.00018745636 -4.8747097e-05 -2.314397e-05
0000a0 ee 8f 44 b9 12 b4 07 b8 8c 7f 94 38 ee 8f 44 39
       -0.00018745635 -3.235421e-05 7.0809474e-05 0.00018745635
0000b0 f0 8f 44 b9 22 60 9b 38 b0 57 a7 38 80 3a 94 38
       -0.00018745637 7.408882e-05 7.9795136e-05 7.0680864e-05
0000c0 c3 26 be b7 ff 8e 1d b9 ec 8f 44 39 ef 8f 44 b9
       -2.2667815e-05 -0.00015025957 0.00018745632 -0.00018745636
0000d0 f3 9d 05 b9 be d6 3b b8 8f 9f 9d b7 8b 64 dd b8
       -0.00012742709 -4.478427e-05 -1.8790159e-05 -0.00010556829
0000e0 86 3b f8 38 04 5b a1 38 40 19 0b 37 56 4c 3b b9
       0.000118366486 7.694031e-05 8.290925e-06 -0.00017862147
0000f0 28 2c cd 38 6c a1 7a b7 c0 c9 60 b8 ed 8f 44 b9
       9.7833865e-05 -1.4938745e-05 -5.3593656e-05 -0.00018745633
000100 ec 8f 44 39 ec 8f 44 39 17 a3 57 39 96 5e 76 38
       0.00018745632 0.00018745632 0.00020564754 5.873906e-05
000110 ef d4 0e 39 d2 b3 a5 38 47 6e b3 b8 ee 8f 44 b9
       0.00013621499 7.901307e-05 -8.555926e-05 -0.00018745635
000120 4c 6f f9 36 46 5e 3a 38 58 f5 43 39 a4 bb 47 38
       7.433735e-06 4.4433655e-05 0.00018688047 4.762005e-05
000130 ba 84 e5 b8 18 5c 88 b7 d9 4f c4 38 47 46 27 39
       -0.00010944293 -1.6255348e-05 9.360881e-05 0.00015952541
000140 f6 a8 f2 37 4b c2 30 39 67 12 0c b9 11 8a 7f b8
       2.8927327e-05 0.00016857048 -0.00013358296 -6.0925322e-05
000150 68 aa 97 36 a5 9e 53 b8 e8 a6 74 b8 05 5f a8 38
       4.5199886e-06 -5.045407e-05 -5.8329577e-05 8.028563e-05
000160 eb 8f 44 39 14 b0 78 b8 0e a2 46 b8 7e d0 6b 38
       0.0001874563 -5.9291793e-05 -4.7357804e-05 5.622254e-05
000170 22 4e 14 39 9c a2 b1 b8 77 4b 8a 37 86 90 e4 38
       0.00014143487 -8.470306e-05 1.6486023e-05 0.00010898807
000180 f0 36 f1 b8 bf fb 15 39 4c 03 69 b8 80 89 e8 b8
       -0.000115020084 0.0001430353 -5.55546e-05 -0.000110882334
000190 ed 8f 44 b9 eb 8f 44 b9 c1 75 4c b8 5c 25 c2 b7
       -0.00018745633 -0.0001874563 -4.8747057e-05 -2.3143999e-05
0001a0 ec 8f 44 b9 16 b4 07 b8 82 7f 94 38 ec 8f 44 39
       -0.00018745632 -3.2354226e-05 7.08094e-05 0.00018745632
0001b0 ec 8f 44 b9 28 60 9b 38 ac 57 a7 38 7c 3a 94 38
       -0.00018745632 7.4088864e-05 7.979511e-05 7.0680835e-05
0001c0 c0 26 be b7 00 8f 1d b9 ee 8f 44 39 ed 8f 44 b9
       -2.266781e-05 -0.00015025958 0.00018745635 -0.00018745633
0001d0 f4 9d 05 b9 b6 d6 3b b8 7e 9f 9d b7 88 64 dd b8
       -0.0001274271 -4.478424e-05 -1.8790128e-05 -0.000105568266
0001e0 83 3b f8 38 fa 5a a1 38 e8 18 0b 37 5c 4c 3b b9
       0.000118366464 7.694024e-05 8.290845e-06 -0.00017862156
0001f0 22 2c cd 38 78 a1 7a b7 c1 c9 60 b8 ed 8f 44 b9
       9.783382e-05 -1.4938756e-05 -5.359366e-05 -0.00018745633
000200 8a 17 c9 3a 89 17 c9 3a c1 aa 2b 3c 59 0c 00 b9
       0.0015342098 0.0015342097 0.010477723 -0.00012211631
000210 0f 3f da 39 46 76 7b 3b 28 5b 62 bb 89 17 c9 ba
       0.00041627183 0.0038370057 -0.0034539197 -0.0015342097
000220 c8 5d 85 ba fc 03 85 3a 37 f4 a8 3b c0 6b 67 bb
       -0.0010175044 0.0010148282 0.005156066 -0.0035312027
000230 c3 fb 7a bb ae a3 57 bb 62 73 56 3a 74 08 6b 3a
       -0.0038297034 -0.0032903957 0.00081806455 0.0008965798
000240 f2 02 79 3a d4 de c7 3a 3d 37 91 ba c7 4c 11 3b
       0.0009499035 0.0015248903 -0.0011079084 0.0022171007
000250 0f e0 c1 39 55 31 05 bb a8 42 0e bb e9 01 ad ba
       0.00036978765 -0.0020323594 -0.002170721 -0.0013199422
000260 88 17 c9 3a 95 be 1c 3b 70 52 01 38 12 9b d8 3a
       0.0015342096 0.0023917307 3.0832773e-05 0.0016525707
000270 d2 d7 9b ba f1 8c 0e bb ab 35 27 3b 27 71 99 3a
       -0.0011889881 -0.0021751488 0.0025514166 0.0011706696
000280 65 e4 bd bb 43 cc 0d 3c 1e 97 90 b9 7e 1c 98 ba
       -0.005795049 0.008654657 -0.0002757841 -0.0011605171
000290 89 17 c9 ba 88 17 c9 ba 1a 2e fc 3a e2 ea c2 3a
       -0.0015342097 -0.0015342096 0.0019239814 0.0014871026
0002a0 89 17 c9 ba 60 5a 95 bb d0 26 91 ba 89 17 c9 3a
       -0.0015342097 -0.0045578927 -0.0011074189 0.0015342097
0002b0 89 17 c9 ba fe 1b 12 b9 36 a7 02 3b 4d ab 95 ba
       -0.0015342097 -0.00013934073 0.0019936091 -0.001141885
0002c0 31 7d 92 bb 0b 27 de bb 89 17 c9 3a 89 17 c9 ba
       -0.0044704904 -0.0067795566 0.0015342097 -0.0015342097
0002d0 b1 c5 8b bb c5 2b 49 b9 67 7c 93 bb 9d 3a 73 bb
       -0.00426551 -0.00019185159 -0.004500914 -0.0037113794
0002e0 d3 b7 89 bb f8 32 c3 39 cb bc 00 3b 96 fe 66 bb
       -0.0042028218 0.00037231273 0.001964378 -0.003524696
0002f0 2d 6e 1b 3a 58 4e bf ba 4d 7d bf ba 88 17 c9 ba
       0.0005929198 -0.0014595492 -0.0014609486 -0.0015342096
000300 72 3d 7b 39 6e 3d 7b 39 90 ee 91 ba 38 23 8a 3c
       0.00023960116 0.0002396011 -0.0011133719 0.016862497
000310 69 99 d8 39 d1 aa 05 bb 4a ba 3e 3b 70 3d 7b b9
       0.0004131303 -0.0020396004 0.0029102736 -0.00023960113
000320 6a a6 4d 3b d9 4f e5 39 0e 4a 0b ba f3 93 d0 3b
       0.0031379708 0.00043737775 -0.0005313464 0.006365293
000330 7b 3a 35 3b 4c ef e7 3b fb b9 95 3b f4 c5 84 ba
       0.0027653265 0.007078087 0.0045692897 -0.0010129795
000340 0f e2 0c bb 4e 34 f3 3b 3b bd 46 3b d8 df e5 3a
       -0.0021497046 0.0074220067 0.0030325192 0.0017538024
000350 88 87 b0 ba 4e cb 36 3b 96 f9 19 3b 8c 45 a4 ba
       -0.0013468126 0.0027892175 0.0023494712 -0.0012532934
000360 6e 3d 7b 39 85 bc ac bb 88 6e 3d 3b ed 3b 3b ba
       0.0002396011 -0.0052714967 0.0028904993 -0.00071424135
000370 f2 02 4c 3a 20 86 98 3a 4c 1d 3d bb 83 8a 68 b9
       0.00077824213 0.0011636652 -0.0028856574 -0.00022176844
000380 34 9a c8 b9 4a 43 2a bb 69 1f 5b 3a bd 11 7a 39
       -0.00038261863 -0.0025980049 0.00083588675 0.00023848466
000390 76 3d 7b b9 70 3d 7b b9 d7 77 5f 3a b8 b6 38 3b
       -0.00023960121 -0.00023960113 0.00085246324 0.002818508
0003a0 78 3d 7b b9 83 e7 3d 3b eb 2a 02 bb 70 3d 7b 39
       -0.00023960124 0.0028977103 -0.0019862007 0.00023960113
0003b0 70 3d 7b b9 1d 1e ec ba 90 14 a5 ba 4c 7c 02 bb
       -0.00023960113 -0.0018014346 -0.0012594629 -0.0019910512
0003c0 4c 99 3f ba 25 17 06 3b 72 3d 7b 39 6e 3d 7b b9
       -0.0007308915 0.0020460573 0.00023960116 -0.0002396011
0003d0 02 c4 1c 3b cd ac db 3a 5e bd 9e 3b 9a f1 af ba
       0.002392054 0.0016759873 0.0048443517 -0.0013423443
0003e0 e0 fe ee bb b5 28 8e ba 10 88 9f ba bf 2b 06 39
       -0.007293567 -0.0010845872 -0.0012171287 0.00012795533
0003f0 50 ee 9f 3b 33 26 0a bb 35 f5 12 3c 6e 3d 7b b9
       0.004880704 -0.0021079897 0.008969595 -0.0002396011

rnn.bias_ih_l0 f4 [64]
000000 d4 00 55 b9 d5 00 55 b9 45 7b e8 ba 57 d7 b8 b9
       -0.00020313571 -0.00020313573 -0.0017736932 -0.00035255656
000010 9b a3 a2 ba 4a ea 1f bb 5f c7 85 3a d6 00 55 39
       -0.0012408377 -0.0024401122 0.0010206512 0.00020313574
000020 88 e7 22 ba ae 86 d0 b9 95 b3 9b ba c7 7e 58 39
       -0.00062143104 -0.00039773196 -0.0011879081 0.00020646593
000030 d8 04 a8 39 ab ab 95 b8 38 c0 bd 3a 11 41 f1 39
       0.00032047066 -7.136849e-05 0.0014476841 0.0004601558
000040 28 b1 07 bb 78 ed a3 ba 5d c1 0e 3a af 15 8d b9
       -0.0020704959 -0.0012506684 0.00054456835 -0.0002690977
000050 a1 d0 2b 3a 29 0e 37 ba 1e c5 2d 3b 43 fc 2d 39
       0.00065542205 -0.0006983006 0.0026515196 0.0001659254
000060 d4 00 55 b9 8e c5 a2 3a 6e 4e 50 39 5f 88 34 bb
       -0.00020313571 0.0012418495 0.00019865643 -0.0027547104
000070 e2 9d d7 ba 14 77 0b ba 37 5d 00 b8 08 01 b4 b9
       -0.0016450251 -0.0005320173 -3.060439e-05 -0.00034333044
000080 03 2f a8 3a de a3 16 bb 2d 95 4e 3a d9 b3 a0 39
       0.0012831393 -0.0022985856 0.0007880505 0.00030651575
000090 d2 00 55 39 d7 00 55 39 81 ad e2 b7 5f 21 b9 38
       0.00020313569 0.00020313576 -2.7022093e-05 8.827703e-05
0000a0 d8 00 55 39 01 04 1f 3b 79 1c 80 3a d4 00 55 b9
       0.00020313577 0.002426386 0.000977411 -0.00020313571
0000b0 d4 00 55 39 42 be e1 b9 a9 d6 90 b9 42 bb 86 3a
       0.00020313571 -0.00043057097 -0.00027625755 0.0010279196
0000c0 6f 3c dc 3a c4 98 6b 39 d5 00 55 b9 d3 00 55 39
       0.0016802679 0.00022468256 -0.00020313573 0.0002031357
0000d0 06 89 ef 3a ce 91 4d 39 90 a5 6e 3a 8c 14 f9 39
       0.0018275089 0.0001960464 0.000910365 0.0004750829
0000e0 cd da b7 3a da 5d 1f 39 ea c7 57 3a ff 25 e4 39
       0.0014027 0.00015198384 0.00082313886 0.00043515858
0000f0 dd dd f2 ba 77 56 ec 3a b4 f5 90 b9 d5 00 55 39
       -0.0018529255 0.001803114 -0.00027648883 0.00020313573

rnn.bias_hh_l0 f4 [64]
000000 d3 00 55 b9 d4 00 55 b9 45 7b e8 ba 45 d7 b8 b9
       -0.0002031357 -0.00020313571 -0.0017736932 -0.00035255603
000010 9d a3 a2 ba 49 ea 1f bb 61 c7 85 3a d6 00 55 39
       -0.001240838 -0.002440112 0.0010206514 0.00020313574
000020 82 e7 22 ba 94 86 d0 b9 95 b3 9b ba c7 7e 58 39
       -0.0006214307 -0.0003977312 -0.0011879081 0.00020646593
000030 c9 04 a8 39 ac ab 95 b8 3b c0 bd 3a 0d 41 f1 39
       0.00032047022 -7.13685e-05 0.0014476845 0.0004601557
000040 29 b1 07 bb 75 ed a3 ba 59 c1 0e 3a b7 15 8d b9
       -0.002070496 -0.0012506681 0.0005445681 -0.00026909795
000050 97 d0 2b 3a 28 0e 37 ba 22 c5 2d 3b 2d fc 2d 39
       0.00065542146 -0.00069830054 0.0026515205 0.00016592508
000060 d7 00 55 b9 91 c5 a2 3a 6c 4e 50 39 5f 88 34 bb
       -0.00020313576 0.0012418499 0.0001986564 -0.0027547104
000070 e0 9d d7 ba 18 77 0b ba a0 5d 00 b8 01 01 b4 b9
       -0.0016450249 -0.00053201756 -3.0604773e-05 -0.00034333023
000080 01 2f a8 3a e1 a3 16 bb 35 95 4e 3a de b3 a0 39
       0.0012831391 -0.0022985863 0.000788051 0.0003065159
000090 cf 00 55 39 d4 00 55 39 3f ae e2 b7 78 21 b9 38
       0.00020313564 0.00020313571 -2.702244e-05 8.8277215e-05
0000a0 d2 00 55 39 06 04 1f 3b 79 1c 80 3a d0 00 55 b9
       0.00020313569 0.0024263873 0.000977411 -0.00020313566
0000b0 d5 00 55 39 45 be e1 b9 a1 d6 90 b9 42 bb 86 3a
       0.00020313573 -0.00043057106 -0.0002762573 0.0010279196
0000c0 6e 3c dc 3a be 98 6b 39 d3 00 55 b9 d3 00 55 39
       0.0016802677 0.00022468247 -0.0002031357 0.0002031357
0000d0 04 89 ef 3a dd 91 4d 39 8b a5 6e 3a 8e 14 f9 39
       0.0018275087 0.00019604662 0.00091036473 0.00047508295
0000e0 cf da b7 3a 09 5e 1f 39 ef c7 57 3a 0b 26 e4 39
       0.0014027002 0.00015198452 0.00082313915 0.00043515893
0000f0 dd dd f2 ba 76 56 ec 3a b7 f5 90 b9 d1 00 55 39
       -0.0018529255 0.0018031138 -0.00027648892 0.00020313567

fc.weight f4 [20, 64]
000000 e8 07 95 bb ea 07 95 bb 36 f9 09 3d f3 c3 e2 bc
       -0.0045480616 -0.0045480626 0.03368493 -0.027681326
000010 93 02 83 bc 4a 9f 12 3d 30 28 3f ba ea 07 95 3b
       -0.015992438 0.03579644 -0.000729206 0.0045480626
000020 aa 3f be bc 8a f6 64 3c 2e c4 1b 3d 9c 59 67 bc
       -0.023223717 0.013974795 0.03802889 -0.014120486
000030 20 26 7d bc ef 2d 71 bc f3 6e ef bb 21 fb fc bb
       -0.015450984 -0.014720424 -0.0073069273 -0.0077203666
000040 ec 24 08 3c a5 f5 8f bc 56 f8 e8 3c 61 1d db bb
       0.008309584 -0.017573187 0.028438728 -0.006686852
000050 d1 04 14 3c ce 19 57 3c 9f c2 b9 bc 3a 39 02 3c
       0.009034351 0.013128711 -0.02267581 0.007948214
000060 eb 07 95 bb c7 40 f6 3b 26 58 92 3b e1 45 ed bb
       -0.004548063 0.0075150463 0.0044660745 -0.007240996
000070 72 51 78 bc 98 02 a7 3c 41 b1 f8 3c 9b 70 34 bb
       -0.015156137 0.020386979 0.030357959 -0.0027532938
000080 02 0d 47 bc ee a2 45 3d 72 0d 3d 3c 80 f7 37 3b
       -0.012149097 0.048251085 0.01153885 0.0028071105
000090 e9 07 95 3b e8 07 95 3b a0 0b 2c bc 91 a0 8a bc
       0.004548062 0.0045480616 -0.0105008185 -0.016922267
0000a0 e8 07 95 3b 09 a9 4d bd 9c 3f bb bb e9 07 95 bb
       0.0045480616 -0.050210033 -0.00571437 -0.004548062
0000b0 e8 07 95 3b 56 97 2a 3b c4 32 d0 bb fb 01 c5 bb
       0.0045480616 0.0026030145 -0.006353708 -0.006012199
0000c0 07 f1 06 bd 87 cb d1 bc e8 07 95 bb e8 07 95 3b
       -0.032944705 -0.025609745 -0.0045480616 0.0045480616
0000d0 0c fe 9a bc 35 5a f1 ba 8b a8 14 bd 5a 85 21 3c
       -0.018919967 -0.0018413725 -0.036293548 0.009858454
0000e0 75 a5 fa 3b 90 a9 09 3c c1 21 54 3c 56 f4 43 3c
       0.0076491185 0.008402243 0.012947501 0.01196011
0000f0 c4 e6 de bc e9 b3 57 3b f2 c1 0a bc ea 07 95 3b
       -0.027209647 0.0032913631 -0.008469092 0.0045480626
000100 4f 72 45 3b 51 72 45 3b 5f e2 4c bc 89 d9 0e 3d
       0.0030127948 0.0030127952 -0.012505143 0.034875426
000110 0b 41 44 3c 51 75 ce bb d1 7d 48 3c 53 72 45 bb
       0.011978398 -0.0063006063 0.012237028 -0.0030127957
000120 f9 23 d7 3c a5 93 19 bc 09 b6 2a bd 32 d6 dd bb
       0.02626227 -0.00937358 -0.04167751 -0.006769919
000130 7e 61 3e 3c d6 64 22 3d 86 4b a3 bc cb 3d da 3b
       0.011619924 0.039646946 -0.019933473 0.0066601983
000140 ea de ce 3c d9 ce 9f bc ea 75 0f bb a8 5e ec ba
       0.025252778 -0.019507812 -0.002189035 -0.0018033581
000150 8e 7a e8 3c f9 df 96 3b 48 7b 50 bc ad 98 33 3d
       0.028378751 0.0046043363 -0.012724705 0.043846775
000160 53 72 45 3b 79 23 3c bd 8a 89 b1 3c 19 1a 24 3d
       0.0030127957 -0.045932267 0.021672029 0.04006395
000170 64 c5 15 3d b4 e5 22 bc 09 ed 9f 3c bc 37 cc bc
       0.0365652 -0.009942461 0.019522207 -0.02492892
000180 8f 23 cf bb 85 6d 36 bd 3f 2b 52 ba 38 41 d4 3c
       -0.0063213776 -0.04453804 -0.00080173084 0.025910005
000190 50 72 45 bb 4e 72 45 bb 44 7a 87 3b e4 a5 28 bd
       -0.003012795 -0.0030127945 0.0041344482 -0.04117383
0001a0 4e 72 45 bb 48 c2 a9 3c de 28 30 3b 51 72 45 3b
       -0.0030127945 0.020722523 0.0026879827 0.0030127952
0001b0 4f 72 45 bb 50 76 8c 3a c8 d4 31 3c e8 27 0d 3b
       -0.0030127948 0.0010716412 0.010853954 0.0021538679
0001c0 8a 7a 39 3c 20 7f 47 3d 55 72 45 3b 50 72 45 bb
       0.0113207195 0.04870522 0.0030127962 -0.003012795
0001d0 6f 23 d5 3c 09 c2 91 bc 27 26 14 3d ad e1 c1 3c
       0.026017873 -0.017792718 0.036169197 0.02366718
0001e0 d4 34 0c bd 98 05 bb bb ed 4f df bc a1 4a cb bb
       -0.03423007 -0.005707454 -0.027259791 -0.006203965
0001f0 d3 01 a7 bc 80 78 cc 3c bc 23 7c 3c 51 72 45 bb
       -0.020386612 0.024959803 0.015389379 -0.0030127952
000200 a2 c6 81 bb a3 c6 81 bb 7f 66 83 bc bb fb 9c bc
       -0.0039604465 -0.003960447 -0.016040085 -0.019163003
000210 43 0c a0 3c 15 76 f9 bc 98 86 84 bc a2 c6 81 3b
       0.019537097 -0.030451814 -0.01617746 0.0039604465
000220 2e 8f b1 bc fb 2c 0a 3c d2 b6 d0 bc 9f b3 56 3c
       -0.021674719 0.008433576 -0.0254778 0.013104348
000230 96 99 cf bb 6c 74 88 b9 9f fa 3d bb 8a 0b 1e bc
       -0.0063354475 -0.00026026682 -0.0028988493 -0.009646306
000240 33 84 4c bb 6f 53 b0 bb 36 b2 06 3c 65 fd 85 3c
       -0.0031206727 -0.00538104 0.0082212 0.01635618
000250 72 5f c5 bc 03 fe 16 bd 5f e9 71 3c a2 06 5e 3c
       -0.024093363 -0.03686334 0.014765113 0.013551386
000260 a5 c6 81 bb 9a 1c 54 bc af 2c 1b 3c 23 75 d2 bc
       -0.003960448 -0.012946272 0.009471103 -0.02569062
000270 1c 13 76 bc 0b 0e f0 bb f1 60 e0 bc 87 32 22 bc
       -0.0150192045 -0.007325893 -0.027389975 -0.009899742
000280 b2 f8 b1 bc f7 30 65 bb 93 d2 94 3b fe 49 25 3c
       -0.021725032 -0.0034971812 0.004541704 0.010088442
000290 a3 c6 81 3b a3 c6 81 3b 4f 0a 09 3d e6 fa 18 bc
       0.003960447 0.003960447 0.033457097 -0.009337163
0002a0 a2 c6 81 3b 9a d4 dd 3b dc 68 99 3c a5 c6 81 bb
       0.0039604465 0.006769729 0.018726759 -0.003960448
0002b0 a3 c6 81 3b f6 4b 23 3c ec 17 03 3d 47 ca 96 3c
       0.003960447 0.009966841 0.032005236 0.018407
0002c0 e7 01 d5 3c 4e 78 1b bc a4 c6 81 bb a3 c6 81 3b
       0.026001884 -0.009489132 -0.0039604474 0.003960447
0002d0 d0 68 c3 3c 97 53 ea bc 6f d3 b1 3c a1 37 8c 3c
       0.02385369 -0.028604312 0.021707265 0.01711637
0002e0 37 9f a9 3c e0 99 42 bc 7c b6 b4 3c 7c ea 0a bd
       0.020705802 -0.011877507 0.022059672 -0.033915028
0002f0 8a d9 b3 ba 22 3f 7e bc 92 84 25 3c a3 c6 81 3b
       -0.0013721448 -0.015517982 0.010102408 0.003960447
000300 37 a2 13 bb 3b a2 13 bb f0 07 05 3c 01 26 2a 3c
       -0.0022527108 -0.0022527117 0.008119568 0.010385037
000310 5c 84 0d 3a c8 23 b5 bc b5 52 be bc 3b a2 13 3b
       0.0005398446 -0.022111788 -0.023232797 0.0022527117
000320 91 ae 7a 3b 8f bb 11 bd 2f 14 4d 3b e3 1d 58 bd
       0.0038251022 -0.03557926 0.0031292548 -0.052762877
000330 c6 52 03 3c 9e cd ca bc 56 da 47 3c aa f6 6f 3b
       0.00801534 -0.024756249 0.012198051 0.003661553
000340 32 0a 12 bc 1a a0 92 bc a1 70 0a 3c 43 26 c9 3b
       -0.008913564 -0.017898608 0.008449704 0.0061385944
000350 b5 e7 23 3d 99 d6 0f 3c 03 ea 88 3b 18 fe d1 bc
       0.040015895 0.008779191 0.004178287 -0.025633857
000360 3b a2 13 bb 73 db 18 3d 81 97 c5 bc a0 5b a1 3b
       -0.0022527117 0.037318658 -0.024120094 0.0049242526
000370 11 16 71 3b 9f 2a 8e 3b 00 43 36 3d f7 e8 b5 3c
       0.0036786834 0.004338577 0.04449749 0.022205813
000380 5b 22 ea 3c 79 fb a2 bc 27 20 da bc 6f 2d b8 bc
       0.028580835 -0.019895302 -0.02662666 -0.022482602
000390 37 a2 13 3b 39 a2 13 3b 31 39 ed 3a 84 e2 8f 3c
       0.0022527108 0.0022527112 0.0018098709 0.017564066
0003a0 39 a2 13 3b 4f 45 b6 3c df 11 b9 bc 37 a2 13 bb
       0.0022527112 0.022249846 -0.02259153 -0.0022527108
0003b0 37 a2 13 3b 60 1b 6c 3c 71 af 55 bb 89 69 bf bc
       0.0022527108 0.014410824 -0.0032605792 -0.023365753
0003c0 f6 29 86 3b 20 b1 d6 3b 39 a2 13 bb 37 a2 13 3b
       0.0040943576 0.0065518767 -0.0022527112 0.0022527108
0003d0 27 d0 82 bc e4 91 9c bb 0d 06 87 3b 5c 37 30 bc
       -0.015968395 -0.0047781337 0.0041205944 -0.010755386
0003e0 76 c3 e8 bc 92 34 90 bc f2 3b 6c bc 32 8d de 3b
       -0.028413516 -0.017603192 -0.014418589 0.006791734
0003f0 18 98 02 bd 84 1e b7 3a 5e ec f1 3a 39 a2 13 3b
       -0.03188333 0.0013970886 0.0018457284 0.0022527112

fc.bias f4 [20]
000000 5e 4e 50 3b 04 3d 0d bc 70 b4 10 3c 5a 0e 50 ba
       0.0031784992 -0.008620504 0.008832082 -0.0007936709
000010 40 93 1d 3c 63 4f be 3b 1c 8a c5 bb 23 28 0f 3b
       0.009617627 0.0058078035 -0.006028427 0.0021843992
000020 08 de 12 3c b1 24 b4 bb 79 a5 eb bb ea 50 35 bb
       0.008964069 -0.005497538 -0.0071913567 -0.0027666637
000030 00 43 06 3c 44 1b 45 bc 37 20 05 bc 56 21 49 3c
       0.008194685 -0.012030426 -0.008125356 0.012276014
000040 1f 0a 12 bc 2d ca 02 ba a1 cc ef 3b 77 36 75 3c
       -0.008913546 -0.0004989233 0.007318095 0.014966599
