rnn_models/rnn_model_27_reach1_4_2024-05-07_13-01-58.pth (torch, 165980 bytes, 6 tensors)

rnn.weight_ih_l0 f4 [64, 538]
-0.01741243 0.039602302 0.039510027 0.007033734 -0.011736727 0.0017056741 -0.06269528 0.03423492
0.0048732096 0.039678883 0.0057269437 -0.03250356 -0.008049967 0.05645346 0.062313557 0.022744816
-0.006081055 0.029459162 0.030589277 0.028893284 -0.006702718 -0.01626103 -0.036207903 -0.07278182
-0.11365481 0.02754747 0.00546008 -0.035881415 -0.07140789 -0.019954624 -0.020285148 0.014307335
0.05080418 -0.013801098 0.02339444 0.034462776 -0.057711788 -0.053862188 0.025204105 0.07475441
0.0203255 -0.051991496 0.077091835 -0.010727618 0.025505606 0.023164043 0.025518697 0.020450927
-0.03428029 -0.0018182485 -0.028011868 -0.040196057 -0.02583513 0.016249469 0.06492737 0.03844778
-0.015305081 0.06810837 0.00023987904 0.010728299 0.028800616 -0.07061231 -0.04407086 -0.06428297
-0.057069108 0.07025476 -0.041566428 -0.07176248 0.058082864 0.009656149 0.043782387 0.101982124
0.045694407 0.010076401 0.04204657 -0.06811148 -0.03683388 0.039686043 -0.039500896 -0.08786101
-0.014603726 -0.005961149 -0.06942428 -0.04804076 -0.018723086 -0.040514294 -0.07036079 -0.050428845
0.0017824415 -0.021020684 0.034386314 0.041545108 -0.039897636 -0.01898865 -0.024499545 0.0077829943
-0.03594228 0.046279203 -0.07384106 0.07391925 0.0152865285 -0.0019340691 0.03820217 -0.090376355
-0.0030405074 -0.049057133 0.058495566 0.05163774 -0.014194781 0.061375115 -0.07931446 0.057053093
0.07580977 -0.024187712 -0.03348517 0.011125623 0.008915475 0.07957731 -0.011651396 0.026626714
0.07542029 0.025069794 0.0032985304 0.044862237 -0.06911797 0.00264608 -0.00077787624 0.048566964
-0.009681964 -0.022661194 -0.026224649 0.07392104 0.028251072 -0.014792609 -0.048653435 -0.07340338
-0.02681942 -0.009555263 0.039112978 0.045549627 -0.02020083 0.040026836 -0.01911572 -0.024778126
-0.03364486 -0.023216486 0.073383965 -0.014290653 0.07271215 0.053006332 -0.020492172 0.014529471
-0.016321555 -0.044504486 -0.027522959 0.00097454456 0.04021023 -0.052190397 0.029281735 -0.037894722
-0.03753357 -0.00039334936 -0.03696636 0.06887776 0.016567634 0.031520512 0.019801358 0.07807861
0.004622016 0.06324014 -0.039520912 -0.019256273 -0.06329434 0.062448066 -0.046005566 -0.040484514
-0.07184628 -0.080847636 -0.042401478 -0.08250108 0.037526008 0.04704938 -0.043675832 0.049398705
0.040059064 0.031913564 -0.0048329933 0.06005673 -0.010576797 0.065242894 -0.049872242 0.06331067
-0.036478005 0.014226437 -0.024734814 -0.009726717 -0.052098006 -0.050368655 -0.031650394 -0.010215125
0.026032299 0.049959306 -0.056413785 0.007918462 -0.05631912 0.05696932 -0.05090776 0.03772542
-0.008786132 0.043770306 0.0032654032 0.016335992 -0.006700421 0.00665181 -0.056288093 -0.017588088
-0.056282863 0.022965526 0.02919934 -0.053908594 -0.08993966 -0.023940938 0.018928705 0.00633143
0.05151844 0.061330322 -0.045867357 0.021523222 0.018078482 0.007938041 -0.080114536 -0.10964033
0.07512942 0.04889804 -0.013830351 -0.024890302 0.017654987 -0.0135825155 -0.07811932 -0.08254987
0.001067951 0.035467807 0.020922413 0.041370668 0.07489042 -0.050762117 -0.030022055 0.070213266
-0.010145838 0.059802886 -0.015481322 0.030255876 0.06330207 0.08348384 0.07018142 -0.05191895
00000000: 83a4 8ebc 0636 223d 44d5 213d 3d7b e63b
00000010: 674b 40bc ed90 df3a 6266 80bd ea39 0c3d
00000020: 72af 9f3b 5386 223d 16a9 bb3b 7422 05bd
00000030: 02e4 03bc be3b 673d 803c 7f3d 5653 ba3c
00000040: 9643 c7bb 5754 f13c 5d96 fa3c 9cb1 ec3c
00000050: 79a2 dbbb da35 85bc bd4e 14bd a30e 95bd
00000060: dac3 e8bd 3bab e13c 79ea b23b 64f8 12bd
00000070: 4d3e 92bd e177 a3bc 0a2d a6bc 5069 6a3c
00000080: 0b18 503d 001e 62bc b2a5 bf3c d728 0d3d
00000090: 3263 6cbd 999e 5cbd d778 ce3c d718 993d
000000a0: aa81 a63c 09f5 54bd 53e2 9d3d e4c2 2fbc
000000b0: 22f1 d03c 85c2 bd3c 960c d13c b488 a73c
000000c0: 7d69 0cbd 4c52 eeba 2579 e5bc 9fa4 24bd
000000d0: 32a4 d3bc 9b1d 853c a4f8 843d 6b7b 1d3d
000000e0: 2ac2 7abc 677c 8b3d 0a88 7b39 bfc5 2f3c
000000f0: 45ef eb3c 309d 90bd a583 34bd caa6 83bd
00000100: 4cc1 69bd bae1 8f3d 8f41 2abd 35f8 92bd
00000110: 4ce8 6d3d d334 1e3c 2955 333d 01dc d03d
00000120: 0f2a 3b3d 7d17 253c 0639 2c3d 087e 8bbd
00000130: 1fdf 16bd d58d 223d b1cb 21bd 79f0 b3bd
00000140: 7744 6fbc be55 c3bb 512e 8ebd 63c6 44bd
00000150: 2861 99bc 51f2 25bd 5119 90bd 7a8e 4ebd
00000160: d0a0 e93a 9233 acbc aad8 0c3d 342b 2a3d
00000170: b46b 23bd 168e 9bbc 45b3 c8bc 7d08 ff3b
00000180: 3638 13bd 438f 3d3d fb39 97bd fa62 973d
00000190: 5974 7a3c 9780 fdba e179 1c3d 3d17 b9bd
000001a0: 4043 47bb 22f0 48bd 0c99 6f3d 1882 533d
000001b0: 3a91 68bc 7964 7b3d 9f6f a2bd 81b0 693d
000001c0: 2742 9b3d 4f25 c6bc bf27 09bd 3f48 363c
000001d0: 3612 123c 6ef9 a23d 7fe5 3ebc 4420 da3c
000001e0: f475 9a3d 2b5f cd3c 282c 583b 77c1 373d
000001f0: b98d 8dbd db69 2d3b 64ea 4bba 27ee 463d
00000200: 1aa1 1ebc f8a3 b9bc 13d5 d6bc ea63 973d
00000210: cb6e e73c b35c 72bc d348 47bd 8354 96bd
00000220: 66b4 dbbc ae8d 1cbc ee34 203d 3f92 3a3d
00000230: 367c a5bc 2ef3 233d 9298 9cbc 7ffb cabc
00000240: 31cf 09bd 8030 bebc 554a 963d 5823 6abc
00000250: 1cea 943d 2b1d 593d 33df a7bc 050d 6e3c
00000260: c8b4 85bc 564a 36bd d477 e1bc 9478 7f3a
00000270: 7bb3 243d 99c5 55bd 40e0 ef3c 7f37 1bbd
00000280: cdbc 19bd 753a ceb9 0a6a 17bd c80f 8d3d
00000290: d9b8 873c a71b 013d 7536 a23c aee7 9f3d
000002a0: 4874 973b 0c84 813d aee0 21bd 55bf 9dbc
000002b0: 77a0 81bd 8bc9 7f3d 5570 3cbd 17d3 25bd
000002c0: 2424 93bd 7293 a5bd 2cad 2dbd 54f6 a8bd
000002d0: dfb4 193d dab6 403d 6ee5 32bd 4c56 4a3d
000002e0: f914 243d ccb7 023d 165e 9ebb 0cfe 753d
000002f0: 4d4a 2dbc 119e 853d d646 4cbd 06a9 813d
00000300: f669 15bd 0016 693c aaa0 cabc cf5c 1fbc
00000310: b864 55bd 5d4f 4ebd d8a3 01bd 575d 27bc
00000320: b041 d53c 21a2 4c3d 2412 67bd 70bc 013c
00000330: e1ae 66bd a958 693d a884 50bd f885 1a3d
00000340: b5f3 0fbc 7e48 333d 6000 563b 0fd3 853c
00000350: 358f dbbb 6df7 d93b 588e 66bd e514 90bc
00000360: dc88 66bd 3322 bc3c 7433 ef3c 42cf 5cbd
00000370: 4932 b8bd c91f c4bc 5f10 9b3c e277 cf3b
00000380: 0005 533d 8135 7b3d 69df 3bbd 7851 b03c
00000390: 5319 943c 8f0e 023c 1713 a4bd 1c8b e0bd
000003a0: 74dd 993d 5049 483d b298 62bc bfe6 cbbc
000003b0: 31a1 903c 3389 5ebc 06fd 9fbd e80f a9bd
000003c0: 7dfa 8b3a b146 113d 7b65 ab3c 4a74 293d
000003d0: 2660 993d f0eb 4fbd d0f0 f5bc f9cb 8f3d
000003e0: bb3a 26bc dff3 743d 5fa5 7dbc 2cdb f73c
000003f0: 84a4 813d 93f9 aa3d 47bb 8f3d f7a8 54bd

rnn.weight_hh_l0 f4 [64, 64]
0.006374705 0.028606338 0.04380255 -0.016826691 0.0012939919 0.03895619 0.09401462 -0.026268283
-0.05986409 0.06319768 -0.02373394 -0.02397225 0.059652925 0.1351367 -0.09902824 -0.0853776
-0.077608176 -0.09580461 0.073024526 -0.08769281 -0.072997555 0.053489856 -0.03599953 0.016175998
0.07073841 0.03667656 0.08617288 -0.0782885 0.07156344 -0.06104932 -0.0010485995 0.12213979
-0.1035359 -0.033320494 0.06985115 0.11435871 0.024698056 -0.049902532 0.006691275 0.08430741
-0.07942025 -0.003617456 0.058755055 -0.0505592 0.01869048 -0.07899247 -0.110695146 -0.020609355
0.07293597 -0.06666605 0.0053546936 -0.0032108338 -0.0049393163 0.021901125 0.049804065 -0.10642599
-0.000760544 0.10086917 -0.036024544 -0.120775305 -0.061835945 -0.058282603 0.023532737 -0.052869737
0.07590765 0.12306968 0.052609414 -0.0030970662 0.020074623 -0.0141706485 0.05435296 -0.07815087
0.118141256 -0.0779708 -0.051980928 0.085349716 0.026412863 -0.021719562 -0.048832614 0.008771571
0.080377944 0.0016832984 0.02066827 0.05755822 0.09106124 -0.034793608 -0.06594974 -0.10940548
0.07543311 -0.029718641 -0.014802118 -0.029464513 -0.024847174 -0.047173373 0.042384118 0.080694735
-0.023654027 0.06617434 -0.04551035 0.09707458 -0.027813166 -0.048240703 0.05722116 -0.043067336
-0.00960629 0.12304376 0.08885309 0.045963347 0.032077007 -0.02761702 0.048031278 0.07296834
-0.03830564 0.011344879 -0.116555244 0.12002532 0.019204566 0.058172762 0.081694715 -0.037709992
-0.030093303 0.033676166 0.08891342 -0.058229446 -0.07664442 0.025826292 0.089718685 0.008251904
0.012545572 0.07301751 -0.034048147 0.045228582 0.07285397 0.046247404 0.03956001 0.050698172
0.047129408 0.08511768 -0.13020971 0.06450426 0.0069116573 -0.07346471 0.1101622 0.09171235
0.032809846 0.010302842 0.08211017 0.10115969 -0.043463428 -0.04605343 -0.07333079 -0.063490085
-0.037781972 0.10604185 0.07443174 0.002920726 0.039743148 0.0312803 0.05395968 0.015661985
0.0058025927 0.033691514 0.044762295 0.008618919 -0.022884909 -0.0768626 -0.020302095 -0.04596238
-0.05312196 -0.041756455 -0.10142666 0.053396814 -0.013617145 -0.0041002342 0.039366353 -0.051130872
-0.0076613836 0.049392372 0.0777439 -0.03453477 0.029191162 -0.09566064 0.018807914 0.0031738516
-0.05861169 -0.060808066 -0.1287117 0.09633611 -0.027349832 0.1350438 -0.11584369 -0.013234834
0.12371714 0.0868113 -0.032704033 -0.023152228 -0.0374315 0.10709657 0.09288761 -0.070379235
0.10239134 -0.04826298 0.026684768 0.06686069 -0.04740741 0.115577236 -0.035279784 -0.0030434025
0.07401123 -0.051385053 0.07598912 -0.036264937 -0.023309363 -0.047947373 -0.010493939 -0.041461907
0.08890076 0.0212441 0.01428646 -0.045918237 0.041075975 -0.02764025 -0.0864811 0.09518807
0.05453832 -0.06947155 0.030608874 -0.049456287 -0.08669987 -0.088776864 -0.029648358 -0.093440704
-0.054761164 -0.026545888 0.031938713 0.08050085 -0.009959688 -0.026500156 -0.009053739 -0.032933023
-0.067299254 0.037742253 0.0029721577 -0.07097412 -0.0014539007 -0.017144507 0.021090096 -0.07735901
0.045030456 0.020498961 0.042523876 -0.0875454 0.039115977 -0.07185602 0.07140917 0.07719785
00000000: e7e2 d03b d757 ea3c 4d6a 333d 21d8 89bc
00000010: 2a9b a93a 8790 1f3d bd8a c03d 9530 d7bc
00000020: 0c34 75bd c96d 813d ae6d c2bc 7461 c4bc
00000030: a056 743d 4661 0a3e 51cf cabd 73da aebd
00000040: 09f1 9ebd 3535 c4bd e28d 953d 4a98 b3bd
00000050: be7f 95bd 2e18 5b3d 3e74 13bd 8783 843c
00000060: 4ddf 903d 293a 163d 687b b03d b955 a0bd
00000070: da8f 923d da0e 7abd 2971 89ba 6d24 fa3d
00000080: a10a d4bd 127b 08bd 1f0e 8f3d e634 ea3d
00000090: 9453 ca3c 9966 4cbd 7c42 db3b 5da9 ac3d
000000a0: 16a7 a2bd d712 6dbb 24a9 703d 2a17 4fbd
000000b0: c71c 993c cec6 a1bd 23b4 e2bd f3d4 a8bc
000000c0: 745f 953d 3688 88bd 6d76 af3b da6c 52bb
000000d0: fdd9 a1bb fd69 b33c 59ff 4b3d dff5 d9bd
000000e0: 3e5f 47ba 7f94 ce3d 798e 13bd 0b59 f7bd
000000f0: b047 7dbd bdb9 6ebd bac7 c03c f08d 58bd
00000100: 7875 9b3d f50b fc3d f87c 573d 26f8 4abb
00000110: 8973 a43c 022c 68bc 36a1 5e3d 900d a0bd
00000120: 0bf4 f13d 28af 9fbd f4e9 54bd d5cb ae3d
00000130: ca5f d83c 39ed b1bc b504 48bd a3b6 0f3c
00000140: 319d a43d 1fa2 dc3a 8150 a93c 2bc2 6b3d
00000150: 517e ba3d be83 0ebd a810 87bd fb0f e0bd
00000160: ad7c 9a3d 8274 f3bc 9584 72bc 905f f1bc
00000170: 4d8c cbbc de38 41bd f89a 2d3d 4843 a53d
00000180: 17c6 c1bc 6a86 873d 1069 3abd 0acf c63d
00000190: 70d8 e3bc 0b98 45bd bc60 6a3d 6067 30bd
000001a0: b363 1dbc 5efe fb3d 9cf8 b53d 1044 3c3d
000001b0: 2e63 033d 173d e2bc 72bc 443d 6d70 953d
000001c0: 60e6 1cbd dfdf 393c 84b4 eebd d6cf f53d
000001d0: e552 9d3c 9046 6e3d 8f4f a73d cb75 1abd
000001e0: 3b86 f6bc 05f0 093d 3d18 b63d 0082 6ebd
000001f0: c0f7 9cbd a991 d33c 6ebe b73d fe32 073c
00000200: f18b 4d3c 348a 953d 1276 0bbd 9b41 393d
00000210: 7634 953d eb6d 3d3d ad09 223d e3a8 4f3d
00000220: c40a 413d 2e52 ae3d b255 05be cf1a 843d
00000230: 2f7b e23b aa74 96bd b89c e13d afd3 bb3d
00000240: 9e63 063d 40cd 283c 6029 a83d d02c cf3d
00000250: b506 32bd 85a2 3cbd 742e 96bd 1707 82bd
00000260: 45c1 1abd 782c d93d ab6f 983d a769 3f3b
00000270: b6c9 223d c61f 003d d304 5d3d 904d 803c
00000280: ad23 be3b 1d00 0a3d ab58 373d 5e36 0d3c
00000290: 2279 bbbc 246a 9dbd 9450 a6bc 0c43 3cbd
000002a0: 6a96 59bd d108 2bbd c8b8 cfbd 9eb6 5a3d
000002b0: 721a 5fbc 425b 86bb 9d3e 213d 9b6e 51bd
000002c0: 580c fbbb a84f 4a3d 3238 9f3d 5574 0dbd
000002d0: 4e22 ef3c bae9 c3bd 0e13 9a3c 6500 503b
000002e0: d012 70bd e111 79bd 00cd 03be de4b c53d
000002f0: c10c e0bc ec48 0a3e 753f edbd ebd6 58bc
00000300: 695f fd3d 1fca b13d aaf4 05bd bea9 bdbc
00000310: c651 19bd 7255 db3d dc3b be3d fd22 90bd
00000320: 8db2 d13d 67af 45bd 049a da3c 42ee 883d
00000330: 462e 42bd c2b3 ec3d 8981 10bd d273 47bb
00000340: 3393 973d 2279 52bd 2fa0 9b3d 8b8a 14bd
00000350: 47f3 bebc 7764 44bd c5ee 2bbc f6d3 29bd
00000360: 9a11 b63d 1b08 ae3c c211 6a3c c314 3cbd
00000370: 483f 283d ce6d e2bc 011d b1bd f6f1 c23d
00000380: 9363 5f3d 1a47 8ebd 76bf fa3c ad92 4abd
00000390: b48f b1bd a5d0 b5bd 1de1 f2bc d75d bfbd
000003a0: 3e4d 60bd c376 d9bc 2bd2 023d a1dd a43d
000003b0: f62d 23bc db16 d9bc 2256 14bc c7e4 06bd
000003c0: 31d4 89bd 9f97 1a3d 88c8 423b e15a 91bd
000003d0: d090 beba a372 8cbc 23c5 ac3c 676e 9ebd
000003e0: db71 383d 70ed a73c 842d 2e3d 014b b3bd
000003f0: 1338 203d 4029 93bd f93e 923d e819 9e3d

rnn.bias_ih_l0 f4 [64]
-0.041389134 -0.06620777 -0.009960404 -0.027902419 -0.04126456 -0.022388155 0.06530049 0.09290324
-0.11407798 0.054368015 0.08354701 0.021866689 0.06562858 -0.103935935 0.047233067 0.112402655
-0.026266223 -0.029997205 -0.057296503 0.049135916 0.050088942 0.049641095 -0.017530201 -0.035113893
-0.108214214 0.009011032 -0.026041482 -0.120645724 -0.042278968 -0.06354996 -0.028144034 -0.13730639
-0.10508862 0.043534607 0.08169151 -0.07566449 0.004613744 -0.026133217 -0.044523977 0.03722719
0.092760086 -0.08403704 -0.08646327 -0.07573126 0.13075556 -0.029557886 0.027244855 -0.027273709
0.11606675 0.0050749965 0.11535648 0.022808775 0.029766908 0.06571534 0.08927895 -0.082598
0.011357055 -0.06661191 -0.01638175 -0.079124816 0.06449252 -0.09340155 -0.006023055 -0.1406167
00000000: a787 29bd f097 87bd f630 23bc 9d93 e4bc
00000010: 0705 29bd 5d67 b7bc 43bc 853d 0e44 be3d
00000020: b7a1 e9bd ffb0 5e3d b21a ab3d c521 b33c
00000030: 4768 863d 5ddc d4bd 7677 413d 5d33 e63d
00000040: 432c d7bc b3bc f5bc bdaf 6abd be42 493d
00000050: 102a 4d3d 7654 4b3d 7f9b 8fbc 96d3 0fbd
00000060: 6a9f ddbd 02a3 133c f254 d5bc 1b15 f7bd
00000070: b62c 2dbd 7b26 82bd 518e e6bc 0c9a 0cbe
00000080: b438 d7bd 5851 323d e14d a73d fcf5 9abd
00000090: e42e 973b 5415 d6bc c65e 36bd 8a7b 183d
000000a0: 00f9 bd3d 9d1b acbd a813 b1bd fe18 9bbd
000000b0: c9e4 053e 6123 f2bc 9a30 df3c 1d6d dfbc
000000c0: 67b4 ed3d 284c a63b 0540 ec3d 78d9 ba3c
000000d0: bbd9 f33c c495 863d e2d7 b63d 2429 a9bd
000000e0: f112 3a3c d36b 88bd 0533 86bc 310c a2bd
000000f0: a814 843d 5049 bfbd 0c5d c5bb d3fd 0fbe

rnn.bias_hh_l0 f4 [64]
-0.047795653 -0.11464148 -0.08509363 -0.07316658 0.03838704 -0.11147234 0.06797415 0.0027279016
0.06038352 0.052538387 -0.06522938 -0.09135602 0.03763956 0.005075201 0.08965191 0.1409784
-0.004590427 -0.006871195 -0.03698821 0.037545104 -0.012008881 -0.035359923 0.076118276 0.10124797
-0.05402159 0.11634228 0.0352804 -0.058498524 0.036749013 -0.089762196 -0.056082565 0.051788364
-0.1155503 -0.056370527 0.11299182 0.025711207 -0.11588219 0.08750625 -0.031350344 0.06533506
-0.061177928 0.09790717 -0.03723862 0.104761705 0.0048908195 -0.038239714 -0.040821306 0.11415774
-0.07982318 -0.09110022 -0.03917783 -0.023290396 -0.00053421257 0.11871831 0.035192795 -0.009584096
-0.008107536 0.0038095687 -0.07812622 -0.04711279 0.06571362 -0.0806041 0.009108868 -0.12933628
00000000: 60c5 43bd 27c9 eabd 9245 aebd 5cd8 95bd
00000010: bb3b 1d3d 9c4b e4bd 0836 8b3d 98c6 323b
00000020: b654 773d 7e32 573d fb96 85bd dd18 bbbd
00000030: f02b 1a3d df4d a63b 6c9b b73d a45c 103e
00000040: 4b6b 96bb c327 e1bb f380 17bd e5c8 193d
00000050: e6c0 44bc 91d5 10bd e6e3 9b3d 185b cf3d
00000060: be45 5dbd dc44 ee3d 2e82 103d 269c 6fbd
00000070: 2286 163d 3ed5 b7bd d5b6 65bd 0920 543d
00000080: a3a5 ecbd c8e4 66bd 4168 e73d 4fa0 d23c
00000090: a453 edbd 7a36 b33d 3869 00bd 63ce 853d
000000a0: b595 7abd 8e83 c83d 8687 18bd 4e8d d63d
000000b0: 2b43 a03b 3fa1 1cbd 3e34 27bd 88cb e93d
000000c0: 567a a3bd c192 babd ef78 20bd 80cb bebc
000000d0: 660a 0cba 9622 f33d 5226 103d 9d06 1dbc
000000e0: 78d5 04bc f5a9 793b a400 a0bd 57f9 40bd
000000f0: dd94 863d c313 a5bd 5d3d 153c bb70 04be

fc.weight f4 [32, 64]
-0.10581979 0.09053803 0.038701765 -0.08289237 -0.06790105 -0.049674172 0.02700084 -0.003472115
0.044349425 -0.09649845 -0.10042819 0.006415525 -0.049087845 -0.017431216 -0.052203912 0.11099486
0.07723139 0.066578805 0.00037705316 0.046599068 0.028333532 -0.12674756 -0.07918842 -0.04795682
0.0046055834 0.04990646 0.052760277 -0.029634073 0.026215013 0.03267576 -0.01468711 0.04706766
-0.10450053 -0.023471927 -0.0035720079 -0.11628605 -0.11410648 -0.07811026 -0.08169393 -0.08938582
0.002211737 0.081736274 -0.06662637 -0.012511621 -0.08006148 -0.0142600965 0.051797263 -0.060606256
0.0077236267 -0.05205333 -0.030748846 0.0632293 -0.008928522 -0.042281657 -0.023219142 -0.020791769
-0.0035722246 -0.05521667 0.06785405 0.04609209 0.15216725 -0.0967102 0.03562265 0.027490987
0.09651558 -0.025852375 -0.0840123 -0.05043718 -0.045339417 0.11139493 -0.06844933 -0.042198125
0.010285665 0.13001171 -0.013732242 -0.0007446632 0.038808063 -0.0802346 -0.14372073 -0.09188658
-0.04707786 -0.1020781 0.05569242 -0.025752552 -0.12392527 -0.07113278 -0.009792561 0.12985086
-0.07379926 -0.15040351 0.09145737 -0.08569246 0.05752606 -0.024433274 0.14253493 0.04622364
-0.08241418 0.0032484508 -0.06914131 0.087206095 -0.08108111 0.026511976 0.1136899 0.12678672
0.045104206 -0.030008283 0.024260275 -0.004416543 0.12680154 -0.099131994 -0.1065943 -0.045511603
0.14774491 -0.029250717 -0.08037714 0.08039705 0.06502697 0.03455744 0.030773088 0.026004354
-0.09444837 0.02260209 0.051006645 -0.06715495 0.0019122569 0.09090793 -0.07794304 -0.053766493
-0.020592233 0.018468698 0.015957361 0.049945604 0.0045814235 0.09911375 0.10521608 -0.013202814
0.055415016 0.013727318 0.061291292 0.012101912 -0.060391262 -0.07171231 0.026280096 -0.079092294
-0.027421007 -0.06898422 0.080237895 0.02710118 0.07501331 -0.027345179 0.045153033 0.021708598
-0.07903031 0.07368195 0.02443781 -0.099060334 0.02258317 -0.060198437 0.09733907 -0.039701745
0.06898472 0.071486495 0.09725789 -0.04199603 -0.025532864 -0.013373267 -0.009924399 0.042832036
0.019505914 0.06707992 0.07522693 0.0062941527 0.09492138 0.03236286 -0.013819648 0.035669412
0.036592156 -0.025103513 -0.0879447 0.013898179 0.019608837 0.13248332 0.085636385 -0.051876284
0.039983377 0.042244148 0.014966665 -0.019684892 0.06803543 0.07960026 -0.034659296 -0.033572797
0.06652867 -0.07771976 0.03847463 0.004466247 0.0009816168 -0.03203724 -0.05327517 0.029796872
-0.12902822 0.08053629 -0.02489388 -0.069990486 0.008538922 0.03620024 -0.0029656217 0.08256582
-0.097717345 -0.064744525 -0.06709997 -0.050857294 -0.03534251 0.09163473 0.081485085 -0.06213954
0.015326157 0.01710815 -0.093146876 -0.10808683 0.036813077 0.03101582 0.07378602 -0.033850472
-0.029873842 -0.07451002 0.038597994 -0.0142144915 0.0034777457 -0.0530464 0.056160774 0.05580817
0.115901746 -0.03265306 -0.041426927 -0.03645083 0.029719321 0.003931452 -0.0167389 0.102033906
0.01905036 0.11727927 0.024292 -0.050719094 -0.025250573 -0.016294004 -0.037376232 -0.024177931
-0.034567364 -0.08837622 0.076734655 -0.014792854 0.07580267 -0.06971632 -0.061217878 -0.12485653
00000000: 0cb8 d8bd 016c b93d be85 1e3d 7ac3 a9bd
00000010: b50f 8bbd 2577 4bbd de30 dd3c 6c8c 63bb
00000020: bea7 353d fba0 c5bd 4bad cdbd 5339 d23b
00000030: 5610 49bd e9cb 8ebc c5d3 55bd 4651 e33d
00000040: 7e2b 9e3d 785a 883d 38af c539 aade 3e3d
00000050: b91b e83c 1dca 01be 8a2d a2bd 5f6e 44bd
00000060: 6fea 963b b76a 4c3d 291b 583d 28c3 f2bc
00000070: dec0 d63c 05d7 053d 34a2 70bc 05ca 403d
00000080: 6004 d6bd 3348 c0bc 5918 6abb 6127 eebd
00000090: a8b0 e9bd 46f8 9fbd 264f a7bd ea0f b7bd
000000a0: caf2 103b 5965 a73d 6873 88bd 8bfd 4cbc
000000b0: 46f7 a3bd 2ea3 69bc 5e29 543d 443e 78bd
000000c0: 7a16 fd3b df35 55bd 01e5 fbbc 5d7e 813d
000000d0: ef48 12bc 882f 2dbd 1236 bebc 8053 aabc
000000e0: fc1b 6abb e02a 62bd 10f7 8a3d 0fcb 3c3d
000000f0: bbd1 1b3e ff0f c6bd 0ee9 113d c734 e13c
00000100: f6a9 c53d 5cc8 d3bc a40e acbd 3797 4ebd
00000110: d3b5 39bd 0623 e43d 2a2f 8cbd f1d7 2cbd
00000120: 3585 283c ca21 053e 33fd 60bc 8035 43ba
00000130: 34f5 1e3d 0a52 a4bd 872b 13be 082f bcbd
00000140: b7d4 40bd 530e d1bd bc1d 643d 04f7 d2bc
00000150: 88cc fdbd 10ae 91bd fa70 20bc a0f7 043e
00000160: 1124 97bd 6103 1abe 004e bb3d 877f afbd
00000170: 72a0 6b3d 4a28 c8bc adf4 113e 0055 3d3d
00000180: c4c8 a8bd f6e3 543b f699 8dbd 1c99 b23d
00000190: da0d a6bd a52f d93c 40d6 e83d 61d4 013e
000001a0: 30bf 383d eed3 f5bc 7cbd c63c a6b8 90bb
000001b0: 43d8 013e b705 cbbd 1d4e dabd 606a 3abd
000001c0: 714a 173e 339f efbc c59c a4bd 35a7 a43d
000001d0: dc2c 853d 1a8c 0d3d d817 fc3c 1507 d53c
000001e0: 266e c1bd 0528 b93c 58ec 503d 8988 89bd
000001f0: b2a4 fa3a f02d ba3d 9aa0 9fbd 413a 5cbd
00000200: 0bb1 a8bc ab4b 973c 03b9 823c c393 4c3d
00000210: c41f 963b 26fc ca3d 877b d73d 9e50 58bc
00000220: dbfa 623d 8be8 603c 940c 7b3d 1947 463c
00000230: d45c 77bd e7dd 92bd 5b49 d73c 24fb a1bd
00000240: 05a2 e0bc 9947 8dbd c453 a43d 4b03 de3c
00000250: 94a0 993d ff02 e0bc 63f2 383d 3bd6 b13c
00000260: a5da a1bd 90e6 963d cd31 c83c 25e0 cabd
00000270: 5700 b93c a392 76bd b559 c73d 4c9e 22bd
00000280: dc47 8d3d 8367 923d 252f c73d 0704 2cbd
00000290: 4c2a d1bc 8c1b 5bbc f299 22bc a570 2f3d
000002a0: deca 9f3c 3261 893d 9410 9a3d 2e3f ce3b
000002b0: 2466 c23d eb8e 043d ce6b 62bc 171a 123d
000002c0: a8e1 153d e2a5 cdbc 5a1c b4bd 30b5 633c
000002d0: b6a2 a03c b5a9 073e 2162 af3d 3a7c 54bd
000002e0: 9cc5 233d 3308 2d3d be36 753c 3642 a1bc
000002f0: 2956 8b3d 7605 a33d e8f6 0dbd a183 09bd
00000300: 2f40 883d 8a2b 9fbd 9397 1d3d 9859 923b
00000310: 98a9 803a 7b39 03bd 1137 5abd 9218 f43c
00000320: f91f 04be 36f0 a43d 40ee cbbc 2c57 8fbd
00000330: d6e6 0b3c b446 143d e05a 42bb 4518 a93d
00000340: 0820 c8bd c798 84bd b66b 89bd bd4f 50bd
00000350: 4fc3 10bd fdaa bb3d a7e1 a63d 0886 7ebd
00000360: 901a 7b3c 6426 8c3c cac3 bebd a15c ddbd
00000370: 4fc9 163d e414 fe3c 201d 973d cba6 0abd
00000380: fdb9 f4bc b698 98bd ee18 1e3d e6e3 68bc
00000390: e4ea 633b 2f47 59bd d708 663d 1c97 643d
000003a0: e55d ed3d 37bf 05bd 48af 29bd 774d 15bd
000003b0: ef75 f33c 69d3 803b 0520 89bc 27f7 d03d
000003c0: 800f 9c3c 1d30 f03d 0400 c73c d3be 4fbd
000003d0: 4ada cebc 017b 85bc d217 19bd cc10 c6bc
000003e0: 8296 0dbd 97fe b4bd 0f27 9d3d ba5d 72bc
000003f0: 6e3e 9b3d 6ec7 8ebd 99bf 7abd c8b4 ffbd

fc.bias f4 [32]
-0.032182563 -0.0055447593 0.049145132 -0.07633218 0.09317378 0.10186872 -0.051151108 -0.07655012
-0.04481909 0.05296826 0.09726213 -0.09302521 0.02790726 -0.01616861 0.030504428 0.12618628
0.06281757 -0.10020271 0.10396014 0.077976294 0.108375624 -0.08273831 -0.009130092 -0.080217086
0.13805175 0.028151756 -0.0039038027 0.058360167 0.08440635 0.030010508 0.07823301 -0.021883598
00000000: ddd1 03bd d0b0 b5bb 684c 493d 0c54 9cbd
00000010: e5d1 be3d 8ca0 d03d d383 51bd 4fc6 9cbd
00000020: 3994 37bd 3ff5 583d 5e31 c73d 0084 bebd
00000030: c49d e43c 0874 84bc 6ce4 f93c fa36 013e
00000040: 80a6 803d 1437 cdbd 0ee9 d43d 09b2 9f3d
00000050: 0af4 dd3d b472 a9bd 6296 15bc db48 a4bd
00000060: 705d 0d3e 839e e63c f1d6 7fbb 120b 6f3d
00000070: 3ddd ac3d 99d8 f53c a138 a03d 3b45 b3bc
