rnn_models/rnn_model_27_reach1_4_2024-05-07_13-25-19.pth (torch, 165980 bytes, 6 tensors)

rnn.weight_ih_l0 f4 [64, 538]
0	0x3b382fb4	0.0028104605
1	0xbd23c1f0	-0.039979875
2	0xbd26321d	-0.040575135
3	0xbca521db	-0.020157745
4	0xbc57cf74	-0.013172019
5	0xbd3e729a	-0.04649601
6	0xbd2c96f6	-0.042136155
7	0xbc35c1dc	-0.011093583
8	0xbd2aaf65	-0.041671176
9	0xbcd8aa92	-0.026448522
10	0x3ca8efae	0.0206221
11	0xbd6b396f	-0.05742782
12	0xbd83a1aa	-0.06427319
13	0x3b90aa91	0.0044148644
14	0x3bdeff6f	0.0068053524
15	0xbd226661	-0.039648417
16	0xbd8037a9	-0.06260616
17	0x3a4bb0e0	0.0007770192
18	0xbb8aa718	-0.004231345
19	0xbac351c6	-0.001490169
20	0xbb8c6367	-0.0042843106
21	0x3d246fdf	0.04014575
22	0xbc4efa83	-0.012632969
23	0x3a1b5591	0.0005925531
24	0x39664127	0.0002195878
25	0x3b9766a2	0.004620389
26	0x3d67fcba	0.056637503
27	0x3d8a0265	0.06738738
28	0x3bd174e5	0.0063921087
29	0x3d3194ee	0.04335492
30	0x3d0d7ec9	0.03454474
31	0xbd850756	-0.0649554
32	0x3cb45770	0.02201435
33	0xbca20e81	-0.019782307
34	0x3d52dae5	0.051478285
35	0xbd4a7a14	-0.04943283
36	0xbbbf7657	-0.0058429646
37	0x3d0b10df	0.033951636
38	0xbc9d9a1a	-0.01923852
39	0xbc4e48b8	-0.01259058
40	0x3ca559e6	0.020184468
41	0x3c53431a	0.012894416
42	0xbd57a0cd	-0.052643586
43	0x3d55e439	0.052219603
44	0x3ca509a3	0.020146197
45	0x3d68977b	0.056785088
46	0xbc786920	-0.0151617825
47	0x3bf4e255	0.00747327
48	0x3c93906d	0.018013204
49	0xbb40cf09	-0.0029420278
50	0xbcf35c9c	-0.029707246
51	0xbc7f5efa	-0.015586609
52	0x3d1d58ce	0.03841477
53	0x3cc16062	0.02360553
54	0x3d80513c	0.06265494
55	0x3a947eb9	0.001132927
56	0x3c1a5ad5	0.00942107
57	0x3c977d08	0.018492237
58	0xbb02377e	-0.0019869502
59	0xbc8702d6	-0.016480844
60	0xbccfd795	-0.025371352
61	0xbbda5d1c	-0.0066639315
62	0xbcc84486	-0.024446737
63	0x3c10d54c	0.008839916
64	0xbd19385e	-0.03740727
65	0x3cc847b2	0.02444825
66	0x3a538673	0.0008069046
67	0xbc3dea93	-0.011591571
68	0xbb9347e1	-0.0044946526
69	0xbd2be42c	-0.04196565
70	0xbd5f0fc9	-0.054458413
71	0xbc6413ad	-0.013920707
72	0xbc5abf9f	-0.01335135
73	0xbd4311fe	-0.04762458
74	0xbcd12b47	-0.025533332
75	0x3c831480	0.016000986
76	0xbc006d8f	-0.007838621
77	0xbc97a6bd	-0.018512124
78	0x3cbdeacf	0.023183255
79	0x3c3ff5af	0.01171629
80	0xbd5e696d	-0.05429976
81	0xbc91e868	-0.017811015
82	0xbcbd1b5f	-0.02308434
83	0x3caf6bae	0.02141365
84	0x3d88bb3a	0.06676336
85	0xbc7175a8	-0.014737524
86	0x3c1c0e4e	0.009524895
87	0xbc169609	-0.009191045
88	0xbb3bb13e	-0.002863958
89	0x3ceca640	0.028887868
90	0x3cb95e43	0.022627955
91	0x3bf8a78e	0.0075883335
92	0x3cba3b5d	0.022733385
93	0xbbf276e8	-0.0073994286
94	0xbd63b86d	-0.055595804
95	0x3c47cf98	0.01219549
96	0x3ba84c28	0.0051360317
97	0xbbc53563	-0.006018327
98	0x3c8d8be7	0.017278625
99	0xbc9b8074	-0.01898215
100	0x3be56334	0.0070003513
101	0xbc8a0ea3	-0.016852682
102	0xbd0c1334	-0.034198
103	0xbcb9df62	-0.022689525
104	0x3bacc613	0.0052726357
105	0x3ac5b178	0.0015082797
106	0x3ced44ad	0.028963411
107	0x3c5128a8	0.012766041
108	0xbb99d2b1	-0.004694306
109	0xbc3b3774	-0.011426795
110	0xbceaa015	-0.028640786
111	0x3ce8c202	0.028412823
112	0x3c818018	0.01580815
113	0xbaa635bf	-0.0012680813
114	0x3d8dfbcc	0.06932792
115	0xbc975373	-0.018472409
116	0x3ca6ca96	0.020360272
117	0x3b8d9731	0.004321002
118	0x3b33d57d	0.0027440481
119	0xbb641573	-0.0034802824
120	0xbb557618	-0.003257161
121	0xbb6bd2e9	-0.0035983867
122	0xbc5edd7c	-0.013602611
123	0xbd70cf50	-0.05879146
124	0x3c1bfcf7	0.009520761
125	0xbd27b71f	-0.040946122
126	0x3be857b4	0.007090533
127	0x3d670855	0.05640443
128	0x3d445140	0.04792905
129	0xbd086d74	-0.033307508
130	0x3d144716	0.036200605
131	0xbd2b1595	-0.04176863
132	0x3cfff8b6	0.031246524
133	0x3cf6d6a3	0.030131644
134	0x3d3ae862	0.045631774
135	0x3c3656f9	0.011129134
136	0xbd801312	-0.062536374
137	0x3c5a993f	0.013342201
138	0xbd19ea2f	-0.03757685
139	0xbcab5b91	-0.020917686
140	0x3bb89cd3	0.0056339293
141	0x3c740808	0.014894493
142	0x3c2afe38	0.010436587
143	0x3d71f065	0.05906715
144	0xbd70fd03	-0.05883504
145	0x3d0afa2c	0.03392999
146	0x3c7ad55f	0.015309661
147	0x3d5225d4	0.051305607
148	0x3c99c0db	0.018768718
149	0xbc8ce14b	-0.017197272
150	0x3cda930e	0.02668145
151	0x3cf30514	0.029665507
152	0x3c3ed27f	0.011646866
153	0xbca16c57	-0.01970498
154	0xbc0ac4f4	-0.008469809
155	0x3d8e942f	0.069618575
156	0x3ca53339	0.020166026
157	0xbd760574	-0.060063794
158	0xbd00b238	-0.031419963
159	0xbb242a5d	-0.0025049665
160	0xbcedf511	-0.02904752
161	0xbca1d247	-0.019753588
162	0x3d027e5f	0.031858798
163	0xbbe80896	-0.0070811016
164	0xbb883650	-0.004156865
165	0x3c9885eb	0.018618545
166	0xbc81b516	-0.015833419
167	0xbd15d376	-0.036578618
168	0xbc6c5a24	-0.014425788
169	0xba040472	-0.0005036063
170	0x3c6d761c	0.0144934915
171	0x3ba9c6a5	0.005181151
172	0xbbf35f49	-0.0074271304
173	0x3d8eef1f	0.069792025
174	0x3ce4e72d	0.027942264
175	0xbb495efc	-0.003072678
176	0xbd0edcbb	-0.034878474
177	0xbcbb95fe	-0.02289867
178	0x3c9bb924	0.01900918
179	0x3cc4fc5d	0.024046117
180	0xbd06e6f4	-0.032935098
181	0xbce0111d	-0.02735191
182	0xbce81308	-0.028329387
183	0xbd12413a	-0.035706736
184	0x3c5213c6	0.012822097
185	0xbd28d343	-0.0412171
186	0x3c7db975	0.015486111
187	0x3d7b876d	0.06140845
188	0xbd29b009	-0.041427646
189	0x3d33077e	0.043708317
190	0x3d859fee	0.06524645
191	0x3b515fa7	0.0031947882
192	0xbd061e2b	-0.032743614
193	0x3d397964	0.045281783
194	0x3d0538fe	0.032525055
195	0x3d943e5c	0.072384566
196	0xbd3bd5e1	-0.045858268
197	0xbd1f2d9f	-0.038861867
198	0x3c3e80ea	0.011627415
199	0x3d9218ec	0.0713366
200	0x3d88eb6c	0.06685528
201	0x3d89b563	0.0672405
202	0x3bbb3361	0.005712912
203	0x3ce217fa	0.027599324
204	0x3d411202	0.047136314
205	0x3d1b7a3c	0.03795837
206	0xbd1e005a	-0.038574554
207	0x3c6bfdf0	0.014403805
208	0x3da4e8b6	0.080521986
209	0x3bd4f3c5	0.006498786
210	0x3d914a15	0.07094208
211	0xbbbb4d5f	-0.0057160105
212	0xbce91b2a	-0.028455336
213	0xbcdee22b	-0.027207455
214	0xbd2bd873	-0.04195447
215	0xbd6901d2	-0.0568865
216	0x3d5fb391	0.054614607
217	0xbd0276f6	-0.03185173
218	0x3b3dbe01	0.0028952362
219	0xbb6d426d	-0.0036202923
220	0xbcb30546	-0.0218531
221	0xbd14ceef	-0.03633016
222	0xbaf0a993	-0.0018361084
223	0x3d86926b	0.06570896
224	0x3d0dfc3e	0.034664385
225	0xbade0b78	-0.0016940674
226	0xbb5f3ec6	-0.0034064515
227	0xbd0ee9ed	-0.034891058
228	0xbc3c2e91	-0.011485712
229	0x3be0b39f	0.00685735
230	0xbca58812	-0.020206485
231	0x3cc63193	0.02419356
232	0x3d13231e	0.035922162
233	0xbba8f262	-0.0051558474
234	0x3cf39bad	0.029737318
235	0x3c74b777	0.01493632
236	0x3c36f29c	0.011166241
237	0x39e8742b	0.0004433704
238	0x3b1054bd	0.0022023164
239	0x38cc6e38	9.748008e-05
240	0x3d23e62d	0.040014435
241	0x3c8a6cf5	0.016897658
242	0xbc41c3e5	-0.01182649
243	0x3cece2b4	0.028916694
244	0x3c95954b	0.018259665
245	0xbd6a42bb	-0.057192545
246	0x3d41a0cb	0.047272485
247	0x3d5aed55	0.053448994
248	0xbca79a41	-0.020459296
249	0xbbc0e454	-0.005886594
250	0xbb6352ed	-0.0034686879
251	0x3d0b45da	0.034002163
252	0x3d3441d4	0.04400809
253	0x3c3d84bf	0.011567294
254	0xbbf9b261	-0.0076201414
255	0xbd25ff6d	-0.040526796

rnn.weight_hh_l0 f4 [64, 64]
0	0x3d4cc8f7	0.049996343
1	0xbd9a635b	-0.07538482
2	0xbd89a1d5	-0.0672032
3	0x3d837f99	0.06420822
4	0xbcb23880	-0.021755457
5	0xbcc7b374	-0.024377562
6	0x3cf45cb5	0.029829362
7	0xbd0fff1e	-0.035155408
8	0xbbe641bb	-0.0070268787
9	0xbc5dce3b	-0.013537939
10	0xbd81c955	-0.06337229
11	0xbc8b776e	-0.017024722
12	0xbd4d0f10	-0.050063193
13	0x3c6cf9da	0.014463866
14	0x3ca2e001	0.019882204
15	0xbd2be9ad	-0.041970897
16	0x3dba6879	0.09101958
17	0x3cb38624	0.02191455
18	0x3b525fa4	0.0032100463
19	0x39be4675	0.0003629212
20	0x3d76ab2b	0.060221832
21	0xbd38ac0b	-0.045085948
22	0xbd140cd4	-0.036145046
23	0xbd6dea6d	-0.058084894
24	0xbc6eafcd	-0.014568281
25	0x3d89764f	0.06712019
26	0xbbbc5805	-0.0057477974
27	0xbd901427	-0.07035094
28	0x3cd75169	0.026283937
29	0x3da495a3	0.080363534
30	0x3d51c7dc	0.05121599
31	0x3caaff53	0.020873701
32	0x3d90bda6	0.070674226
33	0x3c576a1b	0.013147856
34	0x3d2ed506	0.042683624
35	0xbcb9e643	-0.022692805
36	0xbcb5832b	-0.022157272
37	0x3cb0f5af	0.021601526
38	0x3d08684b	0.033302587
39	0xbd2f4e79	-0.042799447
40	0x3d0d8af1	0.034556333
41	0xbd867cf1	-0.065667994
42	0xbd838aa2	-0.064229265
43	0x3cf22f5b	0.029563596
44	0x3d35f683	0.044424545
45	0xbd96fedb	-0.073728286
46	0x3c36e705	0.011163478
47	0x3d9b7f5d	0.07592652
48	0xbcfbc971	-0.030735703
49	0xbb310dc4	-0.0027016262
50	0x3ccf846b	0.025331696
51	0x3d6a6cca	0.057232656
52	0x3c7af2e1	0.015316696
53	0xbd30b3d0	-0.043140233
54	0x3b9e286c	0.004826596
55	0xbc7c4e21	-0.015399487
56	0x3ce6e100	0.02818346
57	0x3d9ffd8f	0.07812034
58	0xbd2b65f5	-0.04184528
59	0x3d8669bb	0.06563135
60	0x3c71b0a7	0.01475159
61	0xbd2bd528	-0.04195133
62	0x3c95c244	0.01828111
63	0xbce65ac8	-0.02811946
64	0xbdc62503	-0.09675028
65	0x3de97730	0.11399686
66	0xbdb3a1e0	-0.087711096
67	0xbdc22378	-0.094794214
68	0xbc6b8d13	-0.014376896
69	0xbcc867da	-0.024463583
70	0x3d8032b0	0.06259668
71	0x3d6d4577	0.057927575
72	0xbd4375b5	-0.047719676
73	0xbb3594c3	-0.0027707077
74	0x3cb3a1ae	0.02192768
75	0xbd106ebd	-0.03526186
76	0x3dc23c2d	0.09484134
77	0x3d103f6a	0.035216726
78	0xbdb1c398	-0.08679885
79	0x3dc56854	0.0963904
80	0x3d802679	0.06257338
81	0x3d772604	0.06033899
82	0x3d61b0e6	0.055100344
83	0xbd17ee54	-0.03709252
84	0xbd6f7b11	-0.058466975
85	0xbd0e4988	-0.034738094
86	0xbd202d7b	-0.039105874
87	0xbc0c7284	-0.0085722245
88	0x3cc11646	0.023570191
89	0xbd3d9bb2	-0.04629106
90	0x3d6d5622	0.05794347
91	0x3d75302d	0.059860397
92	0xbd65239a	-0.055942155
93	0x3c940839	0.018070327
94	0xbdb4c3c2	-0.088264
95	0xbdd6ac47	-0.10482078
96	0x3d3abd6e	0.04559081
97	0x3cc605cd	0.024172688
98	0x3c337517	0.010953209
99	0x3dd21691	0.102582105
100	0x3c670373	0.014099943
101	0x3d27afa5	0.040938992
102	0x3b843f6c	0.004035881
103	0x3d8d60b6	0.06903212
104	0xbd2f548e	-0.042805247
105	0x3e058bb0	0.13041568
106	0xbdc78235	-0.09741632
107	0xbdc4f403	-0.09616854
108	0x3dcc6250	0.09979689
109	0x3dfe2029	0.12408478
110	0xbd8234ee	-0.06357752
111	0xbd3d0fb6	-0.04615756
112	0x3d014d00	0.031567574
113	0x3c042118	0.008064531
114	0xbc461d83	-0.012091997
115	0xbcb28cdd	-0.021795684
116	0x3d961e9c	0.07330057
117	0xbc909bdc	-0.017652445
118	0xbdaaffcb	-0.0834957
119	0x3de953f6	0.113929674
120	0x3d20dd11	0.039273325
121	0xbddd058c	-0.107920736
122	0x3d19c307	0.03753951
123	0x3aa2fbff	0.001243472
124	0x3d775d0a	0.060391463
125	0x3d9ea240	0.077457905
126	0xbdc35072	-0.09536828
127	0xbd66a5b9	-0.05631039
128	0xbd562c49	-0.052288327
129	0xbc5a115e	-0.013309805
130	0x3d2603f4	0.040531114
131	0x3c6cb826	0.014448201
132	0x3db98f5d	0.090605475
133	0x3d344b9c	0.04401742
134	0x3c9790c5	0.018501649
135	0x3cfb5999	0.030682372
136	0xbd9a985a	-0.0754859
137	0x3d3fe2db	0.046847206
138	0x3d66c9a2	0.056344636
139	0xbb76a257	-0.0037633383
140	0xbc2b0aec	-0.010439616
141	0xbc3d050c	-0.011536848
142	0x3d82b5d5	0.06382338
143	0x3ceb4c7d	0.028722996
144	0xbb43500a	-0.0029802346
145	0x3d917da6	0.07104044
146	0xbcdb680a	-0.026783008
147	0x3cd7a70d	0.026324773
148	0xba7a4041	-0.0009546318
149	0xbc5614cb	-0.013066481
150	0xbd397e3b	-0.0452864
151	0xbcbf213f	-0.023331283
152	0xbc9cfd67	-0.0191638
153	0xbdeff9a0	-0.11717534
154	0x3c3bc385	0.01146019
155	0xbd620419	-0.05517969
156	0x3d8fe8c3	0.07026818
157	0x3c739092	0.014866011
158	0x3e0ab951	0.13547255
159	0x3d60a320	0.054843068
160	0xbd3df997	-0.046380606
161	0xbd110a56	-0.035410248
162	0xbd908969	-0.07057459
163	0xbdc0aee5	-0.094083585
164	0xbc3fd6e0	-0.011708945
165	0xbddd4900	-0.10804939
166	0x3dbbba13	0.0916635
167	0x3d068240	0.03283906
168	0xbdad3539	-0.08457417
169	0xbd612918	-0.05497083
170	0xbd3af30a	-0.045641936
171	0xbc28ea22	-0.010309728
172	0xbd904f7e	-0.07046412
173	0xbd2de685	-0.04245617
174	0x3cb7be57	0.022429628
175	0x3d982a14	0.07429901
176	0xbc91228a	-0.017716665
177	0x3d1534da	0.036427356
178	0x3dc70cc3	0.09719231
179	0xbd032dc1	-0.032026056
180	0xbe0fb028	-0.14032042
181	0x3d9c2a50	0.07625258
182	0x3de46813	0.11152663
183	0xbc43e379	-0.011956089
184	0xbd3c99aa	-0.046044983
185	0xbcc13515	-0.023584882
186	0x3d4d673b	0.050147276
187	0x3d03eb89	0.032207046
188	0xbdfc181c	-0.12309286
189	0x3d6f4bbd	0.05842184
190	0xbd804633	-0.062633894
191	0x3d38728f	0.045031127
192	0xbcddba2a	-0.027066309
193	0xbccc2674	-0.02492068
194	0x3dc29086	0.09500222
195	0x3c240dfa	0.010013098
196	0x3d8a814b	0.06762942
197	0x3b1c4640	0.0023845583
198	0x3d0e2ed1	0.034712616
199	0xbd87eada	-0.06636591
200	0xbdfbb74f	-0.12290823
201	0x3c690e8d	0.014224661
202	0x3d6e30dc	0.058152065
203	0xba88d85a	-0.0010440454
204	0x39483a17	0.00019095126
205	0xbc3ac157	-0.011398635
206	0x3dbde9d7	0.09273117
207	0xbcb6fb98	-0.022336766
208	0x3de5cd2f	0.11220776
209	0xbd868fa8	-0.06570369
210	0x3d138afc	0.036021218
211	0xbd2c3bf0	-0.04204935
212	0x3ca4cc7b	0.020117035
213	0xbcbd32df	-0.023095546
214	0xbcd4207d	-0.025894398
215	0xbdabf7c7	-0.08396869
216	0xbd0211bc	-0.031755194
217	0x3d71f473	0.059071016
218	0x3c033dcb	0.008010338
219	0xbd9827a9	-0.074294396
220	0x3d0e6b82	0.034770496
221	0x3cce91a7	0.025215937
222	0x3dc58fe3	0.09646585
223	0x3d14b160	0.03630197
224	0x3d806f06	0.06271176
225	0x3dd46328	0.10370475
226	0x3d3226e4	0.04349412
227	0xbda5ef3d	-0.08102272
228	0x3df795ec	0.12089142
229	0x3cd06b64	0.025441833
230	0x3c8d819b	0.017273715
231	0x3d43929e	0.047747247
232	0x3cfced9c	0.03087502
233	0x3cc8a329	0.024491863
234	0xbd339de8	-0.043851763
235	0x3dab96fd	0.08378408
236	0x3d6bb579	0.057546113
237	0xbd66b03d	-0.056320418
238	0xbdb7cc10	-0.08974469
239	0x3b3bd728	0.0028662179
240	0xbcbf7c1e	-0.023374613
241	0xbdb3156e	-0.08744322
242	0x3e02d01d	0.12774701
243	0xbb91df92	-0.0044517005
244	0xbd22264e	-0.03958731
245	0x3d0ca75f	0.034339305
246	0x3d63abbc	0.0555837
247	0xbdc465e9	-0.0958975
248	0x3cc20c9e	0.023687657
249	0xbcc7cb8a	-0.024389047
250	0x3db08048	0.08618218
251	0xbc33bed6	-0.010970792
252	0xbc46a01d	-0.012123135
253	0xbd7a8190	-0.061158717
254	0x3d8082c4	0.062749416
255	0xbd589383	-0.052875053

rnn.bias_ih_l0 f4 [64]
0	0x3cddf79a	0.027095605
1	0xbd9822e2	-0.07428528
2	0xbca976a4	-0.020686455
3	0xbc152e7e	-0.009105323
4	0xbcace539	-0.021105396
5	0x3bac02c8	0.005249355
6	0x3dffd831	0.12492407
7	0x3d9c6b6d	0.07637677
8	0x3bbbd8ce	0.0057326322
9	0x3c6ae509	0.014336833
10	0xbc91d967	-0.01780386
11	0xbdc204f2	-0.094735995
12	0x3d23a7c2	0.03995491
13	0x3d0a3b37	0.033747878
14	0xbc99c910	-0.018772632
15	0x3d24275f	0.04007661
16	0xbdd36f20	-0.1032393
17	0x3bdfd0af	0.006830297
18	0x3d3cab35	0.046061713
19	0x3c2d6b0e	0.010584606
20	0xbd890814	-0.06690994
21	0xbd02b996	-0.03191527
22	0x3df0f429	0.1176532
23	0x3d72ccae	0.05927723
24	0xbe0fa3cf	-0.14027332
25	0x3df27b3b	0.118399106
26	0x3dbb1535	0.09134904
27	0x3da8a5f5	0.08234779
28	0xbd59361c	-0.05303012
29	0x3d94ce15	0.072658695
30	0x3d0a081f	0.03369915
31	0xbda95fc2	-0.082702175
32	0x3bcf4d17	0.0063263285
33	0x3d12d42b	0.03584687
34	0xbcd17b18	-0.025571391
35	0xbde23c7d	-0.110466935
36	0x3d820d81	0.06350232
37	0xbcd8195b	-0.026379278
38	0x3cc04421	0.023469986
39	0xbca6769d	-0.020320231
40	0xbc615622	-0.013753446
41	0xbc677a91	-0.014128343
42	0x3d255d03	0.040371906
43	0x3d99fa2e	0.07518421
44	0xbd977ab9	-0.07396454
45	0x3deeb1d6	0.11655013
46	0xbd043594	-0.03227766
47	0x3dfa9203	0.12234881
48	0xbdb5ed6a	-0.08883174
49	0x3dd1561c	0.10221502
50	0xbc39b070	-0.01133357
51	0x3d557e8f	0.05212265
52	0xbdaf6c64	-0.08565596
53	0xbd021d7f	-0.03176641
54	0xbad68399	-0.0016366123
55	0xbdb02a69	-0.08601839
56	0x3e26996d	0.16269465
57	0xbd8be3e8	-0.06830579
58	0xbd8a03f6	-0.06739037
59	0xbce036d4	-0.027369894
60	0xbc8ff17f	-0.017571209
61	0x3db79d23	0.08965518
62	0xbd70564a	-0.05867604
63	0x3d8699b2	0.06572284

rnn.bias_hh_l0 f4 [64]
0	0x3d44dd7d	0.04806279
1	0xbdbc2acf	-0.091878526
2	0xbcc1e99e	-0.023670968
3	0x3da13eed	0.0787333
4	0xbe10fd2a	-0.14159074
5	0x3d7d8176	0.06189104
6	0xbd88b4ca	-0.06675108
7	0x3de88d3c	0.11355063
8	0xbcb3b896	-0.021938603
9	0x3dd4b8c7	0.10386806
10	0x3c619b4a	0.013769934
11	0x3d7578a4	0.059929505
12	0x3d4c071a	0.04981146
13	0xbd087575	-0.03331514
14	0x3c26a787	0.010171778
15	0x3d7bfc1c	0.061519727
16	0xbc9335b0	-0.017969936
17	0xbdd91c53	-0.106011055
18	0xbdeaca5c	-0.11464378
19	0x3d8adc7e	0.06780337
20	0x3df5fed6	0.12011497
21	0xbdf63d6b	-0.12023433
22	0xbc0215b4	-0.007939745
23	0x3d0a43bb	0.033756
24	0xbdeae3ee	-0.114692554
25	0x3e07b3be	0.1325216
26	0x3e111297	0.14167248
27	0xbd4cb2e3	-0.049975287
28	0x3d188261	0.037233714
29	0xbc36f93d	-0.0111678215
30	0x3caacf9e	0.020850953
31	0xbe0564e0	-0.13026762
32	0x3e1db6d9	0.15401782
33	0xbd498a2a	-0.04920403
34	0x3de490b0	0.111604095
35	0xbcaf9595	-0.021433631
36	0xba82df22	-0.0009984712
37	0xbcfdb3a1	-0.030969443
38	0xbe17cdfc	-0.1482467
39	0x3d10b29b	0.03532658
40	0xbdddf1cc	-0.10837135
41	0x3d2ff85b	0.04296146
42	0xbd921b36	-0.07134096
43	0x3d9c69dc	0.076373786
44	0x3c0de5c7	0.00866074
45	0x3db6ff70	0.089354396
46	0xbd5d5242	-0.054033525
47	0xbda55075	-0.080719866
48	0xbdf36490	-0.11884415
49	0xbc880263	-0.0166027
50	0x3a897a73	0.0010488763
51	0xbbe4776e	-0.006972245
52	0x3b78fdf0	0.0037993155
53	0xbdb5558b	-0.08854207
54	0x3c9224de	0.017839845
55	0xbd7fe281	-0.06247187
56	0x3e05808f	0.13037322
57	0x3d2d8499	0.042362783
58	0x3dc24dbf	0.09487485
59	0xbd045a50	-0.03231269
60	0xbd903789	-0.070418425
61	0x3dc52271	0.0962571
62	0xbdc2e7e8	-0.09516889
63	0xbd66354c	-0.05620317

fc.weight f4 [32, 64]
0	0x3ce6eeb8	0.028190002
1	0x3d00cbe0	0.03144443
2	0x3d6fcd0a	0.05854515
3	0xbd6112bf	-0.05494952
4	0x3d86546f	0.06559073
5	0x3d891933	0.066942595
6	0xbdc844af	-0.09778725
7	0x3d81a8d2	0.06331028
8	0xbdb5631b	-0.088567935
9	0x3e0bcd7e	0.13652608
10	0x3dc874f1	0.0978793
11	0x3dc4c769	0.09608347
12	0xbd8df5c2	-0.0693164
13	0x3c382625	0.011239563
14	0x3c1a0a2a	0.009401837
15	0x3dd54670	0.104138255
16	0x3c95e7f2	0.018299077
17	0xbd0c352b	-0.034230392
18	0xbd5577a5	-0.052116055
19	0xbd1f5754	-0.038901642
20	0xbc6a7781	-0.0143107185
21	0xbdd564e4	-0.10419634
22	0xbce4526a	-0.02787133
23	0x3d3c778c	0.046012446
24	0xbd9f03b9	-0.07764382
25	0x3dc4fd16	0.09618585
26	0x3d026107	0.031830814
27	0x3de3b0a3	0.11117675
28	0x3d4b11bf	0.04957747
29	0xbc1b58ad	-0.009481591
30	0x3d24fdb3	0.04028101
31	0x3dba0a61	0.09084011
32	0x3d8bc182	0.06824018
33	0xbda65131	-0.08120955
34	0x3df65421	0.12027765
35	0xbd939d82	-0.072077766
36	0x3b6308a9	0.0034642613
37	0x3dba1b4c	0.09087238
38	0x3d749942	0.05971647
39	0xbb2d2fc7	-0.0026426183
40	0x3ca36533	0.019945716
41	0x3c34f684	0.011045102
42	0xbd5892df	-0.052874442
43	0xbd94e0e4	-0.07269457
44	0xbdb1c3cb	-0.08679923
45	0x3dfe6f53	0.12423577
46	0x3d72870c	0.059210822
47	0x3d6faf87	0.058517005
48	0xbb8d922e	-0.0043204045
49	0x3cf9c6fd	0.030490393
50	0xba95fb72	-0.0011442734
51	0x3dd79d81	0.10528088
52	0xbda3f727	-0.08006125
53	0xbd086fb2	-0.033309646
54	0x3d63a6ec	0.05557911
55	0x3d366d9a	0.044538118
56	0x3dbd7f24	0.09252766
57	0x3cff8d5e	0.031195339
58	0xbdb42e54	-0.08797899
59	0xbd985b8c	-0.07439336
60	0xbd20935f	-0.039203044
61	0x3d8ca9e2	0.0686834
62	0xbe1a6d85	-0.15080841
63	0xbd94215f	-0.072329275
64	0x3d424328	0.047427326
65	0xbe183a4c	-0.14865988
66	0xbcd3a2e8	-0.025834516
67	0xbdbe74bd	-0.0929961
68	0x3d8ec09d	0.06970332
69	0xbc35d669	-0.011098483
70	0x3dc157c6	0.094405696
71	0x3d812f2d	0.06307826
72	0x3e071794	0.13192588
73	0xbdf965b5	-0.12177602
74	0xbd84cc4b	-0.06484278
75	0xbd0bbac7	-0.03411367
76	0xbd9ddfc3	-0.07708695
77	0x3c75f67a	0.015012378
78	0x3d8df808	0.06932074
79	0xbd06e1a7	-0.032930043
80	0xbc841d3b	-0.01612722
81	0xbc0243b2	-0.00795071
82	0x3d120bef	0.035655912
83	0xbbe329b4	-0.0069324616
84	0x3d539725	0.051657815
85	0x3dd343bc	0.10315654
86	0xbd9882a1	-0.074467905
87	0x3d83ffca	0.06445272
88	0x3ce5bdde	0.028044637
89	0xbc5c451c	-0.013444211
90	0xbda4ce5e	-0.08047174
91	0xbe12edd2	-0.14348534
92	0x3d09ce99	0.033644293
93	0x3df2f13f	0.1186242
94	0xbd88ceed	-0.06680093
95	0x3d15924b	0.03651647
96	0xbcdab243	-0.02669633
97	0xbd2bf2b1	-0.041979495
98	0xbc470fff	-0.01214981
99	0x3dad2d4d	0.08455906
100	0x3a3b4e7a	0.0007145178
101	0xbaed43ea	-0.0018101905
102	0xbcb1f82e	-0.021724787
103	0x3c71df0d	0.014762652
104	0xbdab38f5	-0.08360473
105	0xbd66df94	-0.056365564
106	0x3d0e636e	0.034762792
107	0xbda991a7	-0.08279734
108	0xbdc5ff20	-0.09667802
109	0xbe0ce0b3	-0.13757591
110	0x3a273408	0.00063782977
111	0x3dd1e8ec	0.102495044
112	0x3c86c666	0.016452026
113	0x3d44b525	0.048024315
114	0xbb61b50c	-0.0034440188
115	0xbdc5d723	-0.09660175
116	0xbccf8974	-0.025334097
117	0xbd18fef7	-0.03735253
118	0xbc492f53	-0.012279349
119	0xbe0c2241	-0.13684942
120	0x3c1739dd	0.009230104
121	0xbbe20810	-0.006897934
122	0x3da90e5f	0.08254694
123	0x3a8ce31a	0.0010748834
124	0x3d9e1f8d	0.077208616
125	0xbe087351	-0.1332524
126	0x3e1f3a79	0.1554965
127	0xbda317d9	-0.07963533
128	0x3da9b2f7	0.08286088
129	0x3d65e50b	0.056126636
130	0x3bb047c4	0.005379649
131	0x3b94d403	0.0045418753
132	0xbd766b0d	-0.060160685
133	0xbc1d4950	-0.009599999
134	0xbcedc952	-0.029026661
135	0x3daae828	0.083450615
136	0xbb64077e	-0.0034794505
137	0x3ca01dbc	0.019545428
138	0xbd5fab5e	-0.054606788
139	0xbac92380	-0.0015345663
140	0x3d639ed1	0.05557138
141	0x3dca34ee	0.09873377
142	0x3db4c188	0.08825976
143	0xbc741e56	-0.014899811
144	0xbd2d73d3	-0.042346787
145	0xbda95181	-0.08267499
146	0xbb79603b	-0.0038051743
147	0xbd616adc	-0.05503355
148	0x3d1c243a	0.038120486
149	0xbd51532a	-0.051104702
150	0x3d95ce06	0.073146865
151	0xbdae6107	-0.085146
152	0xbdba31c5	-0.09091524
153	0x3d982416	0.07428758
154	0xbaec49db	-0.0018027382
155	0xbbaa11c7	-0.0051901075
156	0x3db97730	0.09055936
157	0x3d30e182	0.04318381
158	0x3d8f3a0c	0.069934934
159	0x3d885eb2	0.06658687
160	0x3e01fcc4	0.12694079
161	0xbcaf5111	-0.02140096
162	0x3bd3ec65	0.0064673894
163	0xbd6e73eb	-0.058216017
164	0x3dc40577	0.09571355
165	0xbd1f903b	-0.03895591
166	0x3d16642f	0.036716636
167	0x3cf1fa95	0.029538432
168	0xbd4695dc	-0.04848276
169	0xbdab3ce0	-0.0836122
170	0x3c213d50	0.009841278
171	0xbc8334d7	-0.016016407
172	0x3d19a2df	0.03750884
173	0xba8e082e	-0.0010836178
174	0xbd474212	-0.048646994
175	0x3db5bb85	0.08873657
176	0x3cf29031	0.029609771
177	0x3d470228	0.04858604
178	0x3c00890d	0.007845175
179	0xbd658382	-0.05603362
180	0x3cef22c5	0.029191384
181	0x3d44955b	0.047994
182	0x3b2f7183	0.002677054
183	0x3cafba96	0.021451276
184	0x3dd036ef	0.10166728
185	0x3d775711	0.060385767
186	0xbc8f9284	-0.017525919
187	0xbdae5c6a	-0.0851372
188	0xbdec24c5	-0.11530451
189	0x3de7d6e4	0.11320284
190	0x3d68cd96	0.056836687
191	0xbcab78dc	-0.020931654
192	0xbd689cf9	-0.056790326
193	0xbd80d1a5	-0.062899865
194	0xbd837a03	-0.06419756
195	0x3db044d5	0.08606879
196	0xbd37b78a	-0.04485277
197	0xb9dc639c	-0.00042035885
198	0x3daa2ba0	0.08309102
199	0x3db3f1c1	0.08786345
200	0xbd139ab6	-0.036036216
201	0x3d67e4ce	0.05661469
202	0x3d9d352b	0.076761566
203	0x3da2dbcf	0.079520814
204	0xbd468292	-0.048464365
205	0xbd400fb5	-0.04688998
206	0xbd5372d8	-0.051623195
207	0xbda85f17	-0.08221262
208	0x3bbf46b9	0.005837288
209	0xbc85441a	-0.016267825
210	0xbdbacb90	-0.09120858
211	0xbd94c9e6	-0.072650716
212	0x3d941009	0.07229621
213	0x3d429238	0.047502726
214	0x3dbc8330	0.092047095
215	0xbcfa1093	-0.030525481
216	0xbc574231	-0.01313834
217	0x3dd86523	0.10566165
218	0x3d37077a	0.044684865
219	0xbd82413c	-0.06360099
220	0xbd812d1b	-0.06307431
221	0x3c4e08c4	0.012575332
222	0x3d6c1e5c	0.05764614
223	0xbd07818b	-0.033082526
224	0x3cf8add4	0.030356325
225	0x3daed48b	0.08536633
226	0x3d399a8b	0.0453134
227	0xbd62f4cd	-0.05540924
228	0x3d8e9c9c	0.069634646
229	0x3da827ed	0.0821074
230	0xbdb4df98	-0.088317096
231	0xbc855250	-0.016274601
232	0xb943feea	-0.00018691612
233	0xbdbba04d	-0.09161434
234	0x3cead2a5	0.028664896
235	0x3dab1ce5	0.083551206
236	0x3d30409d	0.04303037
237	0xbc371c57	-0.01117619
238	0x3d89748c	0.06711683
239	0x3d9fdd7d	0.078059174
240	0x3d878a70	0.06618202
241	0xbd6fd96e	-0.058556966
242	0xbca3ef55	-0.020011583
243	0x3cea8a12	0.02863029
244	0x3dbf9cbd	0.09356067
245	0xbcd2dc05	-0.02573968
246	0xbd946276	-0.072453424
247	0x3d96a27f	0.073552124
248	0x3da0d735	0.078535475
249	0xbb53a866	-0.0032296418
250	0xba2e5f06	-0.0006651733
251	0x3c8c3b7e	0.017118212
252	0x3ddc2fe4	0.10751322
253	0xbd8855bb	-0.06656977
254	0xbdc2c929	-0.095110245
255	0xbbf29c92	-0.0074039185

fc.bias f4 [32]
0	0xbbe457ab	-0.0069684586
1	0x3ba6de48	0.005092416
2	0x3d728617	0.05920991
3	0xbd708dc3	-0.058728945
4	0xbd8a9572	-0.06766786
5	0xbd52105c	-0.051285133
6	0x3ca0174d	0.01954236
7	0xbc091a6e	-0.008368118
8	0x3c436313	0.011925477
9	0xbdb6ae0b	-0.08919915
10	0x3b16320c	0.0022918014
11	0xbde083c5	-0.10962633
12	0x3d74bde9	0.059751425
13	0xbdca4560	-0.098765135
14	0xbc2abc94	-0.010420937
15	0x3cc415e7	0.023936225
16	0xbdeffea6	-0.11718492
17	0x3d5d3ede	0.054015033
18	0x3e04c39e	0.12965247
19	0xbd97f234	-0.074192435
20	0x3dbba888	0.09163004
21	0x3b2cfc09	0.0026395342
22	0xbc23d962	-0.010000559
23	0xbc8fce8e	-0.017554548
24	0x3dc974b0	0.098367095
25	0xbc236544	-0.009972874
26	0xbc7d1339	-0.015446478
27	0x3c9ffc57	0.019529505
28	0x3c9077a2	0.01763517
29	0x3d786f13	0.060652804
30	0x3da20a18	0.079120815
31	0x3db922ff	0.09039878
