rnn_models/rnn_model_1000_reach1_4_2024-05-04_18-56-37.pth (torch, 20976 bytes, 5 tensors)

rnn.weight_ih_l0 f4 [64, 3]
0.08633141 -0.03184498 0.030555187 0.08307183 -0.042746846 0.038653832 -0.06587229 0.018654801
-0.037093345 0.12814003 -0.039440677 0.015449669 -0.073145024 0.046410486 -0.036465734 0.12676844
-0.061464168 0.05019106 0.08616967 -0.029381778 0.022849811 -0.6693742 -0.35073555 -0.116867535
1.4991418 1.6381545 -1.2510391 -0.11232111 0.04422204 -0.055939805 -0.061671626 0.020870846
-0.03186661 0.06852195 -0.02801496 0.02452515 0.12787695 -0.47537902 0.39936438 0.073346674
-0.035747442 0.028030248 -0.057469185 0.024850268 -0.063309 0.084676385 -0.05207162 0.05737643
-0.07624342 0.028780831 -0.024279265 0.07448874 -0.059162125 0.056399338 -1.959899 0.22940531
-0.10479501 -0.31733418 -0.16385935 -0.5041692 -0.0617109 0.013031105 -0.023179999 0.0634804
-0.007362045 0.026458967 -1.3071332 -0.23349169 0.6445294 -0.073471986 0.020436583 0.0035825802
-2.2284966 -0.61893785 0.7954564 0.07301387 -0.044406228 0.0539751 0.08395281 -0.020636497
0.03592199 -0.8185223 -0.7890553 0.31242186 0.08266242 -0.30740884 0.23422767 -0.057599142
0.033380654 -0.02279223 0.18370838 -0.0687393 0.04882199 0.08665549 -0.032580823 0.02844963
0.08741054 -0.0402022 0.050328247 0.08438497 -0.032360014 0.028721489 -0.06236228 0.033436097
-0.03925194 0.07144426 -0.015442798 0.020106854 1.4781018 0.3016416 -0.19524394 -0.14442533
-0.022568462 0.11273477 0.07771879 -0.017666623 0.019356083 0.090319216 -0.036616545 0.037054744
-0.07929826 0.03657857 -0.033723656 -0.0616081 -0.0006851514 -0.00038343843 0.068148635 -0.033460997
0.037178792 0.06255309 -0.01809228 0.029699245 -0.07025828 0.032378294 -0.045656074 0.13355054
0.026810024 0.1364268 -0.07323683 0.033408474 -0.032937333 -1.4983544 -0.30374447 0.067946345
-0.071736306 0.044373315 -0.037263174 0.25324196 0.122874394 0.20295069 0.6519246 1.016044
0.0344416 -1.8657666 0.54922175 1.575685 0.652105 0.43001592 -0.0418121 -2.5216393
-0.323867 -0.06284085 -0.07843202 0.043780636 -0.092110485 0.072485276 -0.044280697 0.043001935
-1.5143777 0.15910657 -0.23072477 0.083787024 -0.0039996672 0.0012882208 1.068372 -0.2537984
0.15483227 0.07085074 -0.01484107 0.011099774 0.073865026 -0.029635824 0.026800789 0.101456106
-0.033895116 0.03807461 -0.05036357 0.020686964 -0.016908595 0.062319662 -0.029846275 0.036413837
00000000: 86ce b03d e26f 02bd df4e fa3c 9021 aa3d
00000010: 5117 2fbd 7b53 1e3d 0de8 86bd f4d1 983c
00000020: 31ef 17bd 2437 033e 8c8c 21bd 9c20 7d3c
00000030: 0fcd 95bd ec18 3e3d 185d 15bd 96cf 013e
00000040: dac1 7bbd 2495 4d3d b979 b03d 0eb2 f0bc
00000050: 872f bb3c 1c5c 2bbf 9c93 b3be 3f58 efbd
00000060: e1e3 bf3f 0caf d13f 0d22 a0bf 9c08 e6bd
00000070: 2b22 353d 2321 65bd 639b 7cbd 56f9 aa3c
00000080: 9086 02bd 3c55 8c3d a17f e5bc f8e8 c83c
00000090: 2df2 023e e164 f3be 7d79 cc3e c836 963d
000000a0: e96b 12bd b19f e53c cf64 6bbd ca92 cb3c
000000b0: 26a8 81bd d06a ad3d 0d49 55bd 8c03 6b3d
000000c0: 8325 9cbd c7c5 eb3c 4fe5 c6bc 8d8d 983d
000000d0: fc53 72bd fe02 673d f8dd fabf 3ae9 6a3e
000000e0: c49e d6bd a079 a2be bfca 27be 3c11 01bf
000000f0: 92c4 7cbd 6a80 553c fbe3 bdbc 0302 823d
00000100: 4f3d f1bb 7ac0 d83c 2450 a7bf 7218 6fbe
00000110: e1ff 243f 7b78 96bd 9f6a a73c b9c9 6a3b
00000120: b09f 0ec0 b672 1ebf 08a3 4b3f 4c88 953d
00000130: 4ee3 35bd ff14 5d3d 73ef ab3d df0d a9bc
00000140: f022 133d ad8a 51bf 87ff 49bf c2f5 9f3e
00000150: ea4a a93d b164 9dbe 61d9 6f3e 14ed 6bbd
00000160: 27ba 083d c5b6 babc 0d1e 3c3e 31c7 8cbd
00000170: 91f9 473d 6f78 b13d 7873 05bd 330f e93c
00000180: 4c04 b33d 10ab 24bd fe24 4e3d 07d2 ac3d
00000190: ef8b 04bd 5449 eb3c 976f 7fbd 4af4 083d
000001a0: a4c6 20bd 5e51 923d ca03 7dbc 21b7 a43c
000001b0: 7132 bd3f c570 9a3e 07ee 47be 3ce4 13be
000001c0: 7fe1 b8bc 7de1 e63d 072b 9f3d 98b9 90bc
000001d0: a690 9e3c 48f9 b83d 3bfb 15bd b7c6 173d
000001e0: 2067 a2bd 69d3 153d d121 0abd c658 7cbd
000001f0: bb9b 33ba 3c08 c9b9 8391 8b3d 660e 09bd
00000200: ca48 183d d61b 803d 4336 94bc d54b f33c
00000210: 93e3 8fbd 1a9f 043d dd01 3bbd 79c1 083e
00000220: b2a0 db3c 78b3 0b3e 31fd 95bd 53d7 083d
00000230: 4ce9 06bd 14ca bfbf 6584 9bbe 7427 8b3d
00000240: 7cea 92bd cbc0 353d 45a1 18bd eea8 813e
00000250: 92a5 fb3d 4ed2 4f3e 88e4 263f bb0d 823f
00000260: a312 0d3d 71d1 eebf cc99 0c3f 0cb0 c93f
00000270: 5af0 263f 0c2b dc3e 2a43 2bbd 8a62 21c0
00000280: e5d1 a5be b4b2 80bd f8a0 a0bd 5353 333d
00000290: 6ca4 bcbd 2973 943d ad5f 35bd cc22 303d
000002a0: 21d7 c1bf d5ec 223e 1d43 6cbe 8898 ab3d
000002b0: a40f 83bb 84d9 a83a 6ac0 883f ddf1 81be
000002c0: 5a8c 1e3e 311a 913d f627 73bc d4db 353c
000002d0: 8c46 973d d4c6 f2bc 548d db3c 38c8 cf3d
000002e0: 9bd5 0abd 1ff4 1b3d 084a 4ebd b577 a93c
000002f0: e583 8abc e742 7f3d 2d80 f4bc ad26 153d

rnn.weight_hh_l0 f4 [64, 64]
0.3024818 0.18038858 -0.27447405 0.39461794 -0.27275813 0.18960463 0.31438848 -0.48054454
0.1610321 -0.21396984 -0.23414867 0.1714654 0.09294032 0.20933215 -0.14205834 0.2474366
-0.18082462 0.029619247 -0.11155042 -0.063902654 -0.070491895 0.1316699 -0.12582313 -0.13618198
-0.10274888 0.2228169 0.18522537 -0.26995116 -0.05876219 -0.0023342983 0.4942882 0.21720146
0.1829422 0.22136018 -0.13351677 0.112160206 0.36981145 -0.44951496 0.27962217 0.2008109
-0.23687027 -0.18142554 0.26990405 0.25120747 -0.22791938 0.19013453 -0.056646764 -0.43943277
-0.25238442 -0.22553018 0.49323952 -0.053343043 0.7427456 -0.7544304 -0.06420769 0.10081726
-0.55203074 0.14952941 -0.29830772 0.21634078 0.17685494 0.37418175 -0.12625301 0.17830503
0.21720748 0.25259763 -0.21384114 0.25517064 -0.1490361 0.07862626 0.19036287 -0.5790681
0.20788425 -0.1325811 -0.18023872 0.09409374 -0.072397344 0.18362978 -0.05527848 0.20633306
-0.04506386 0.07859817 -0.32049605 -0.012558802 -0.04834732 0.11542775 -0.09288784 -0.13779232
-0.09231198 0.18488199 0.16523522 -0.2183739 -0.016542206 -0.044777483 0.38904616 0.2355559
0.26749948 0.113789506 -0.011668714 0.07358265 0.5575589 -0.30092838 0.17891707 0.09467303
-0.25428864 0.026561566 0.22816518 0.1062187 0.0050550094 -0.01269516 -0.20035839 -0.66579443
-0.0046019824 -0.4025765 0.5565276 -0.034396496 0.7391796 -0.79544574 -0.059876412 0.065983154
-0.5325835 0.14108329 -0.4726922 0.16418451 0.23374099 0.38723347 -0.07366996 0.05883332
-0.29897356 -0.17038773 0.16038102 -0.25747573 0.19324361 -0.35583365 -0.23356202 0.50744104
-0.22059001 0.16794018 0.105857365 -0.088143535 0.058655538 -0.21590824 0.1761952 -0.25065947
0.14838254 -0.019866522 0.26120365 -0.057481818 0.115302965 -0.19603285 0.19382232 0.06580778
0.1955746 -0.093275234 -0.06013684 0.3104437 0.06977238 0.085367955 -0.60258126 -0.25803304
-0.15550208 -0.11523017 0.02866273 0.008060985 -0.35946012 0.3168744 -0.103561044 -0.26734245
0.06410143 0.00872895 -0.19525522 -0.09560136 0.029281685 -0.09157112 0.07129385 0.42468658
0.110096656 0.25784037 -0.50785595 0.017812284 -0.67628396 0.7083448 0.19271816 -0.16738176
0.5757184 -8.05029e-05 0.36137372 -0.04407313 -0.22480904 -0.3820703 -0.008904859 -0.12987241
0.29937318 0.27173984 -0.21920548 0.32028726 -0.3175619 0.31910685 0.36462778 -0.23020387
-0.0105351405 -0.2453041 -0.24437095 0.39175287 0.00115496 0.32347035 -0.29084164 0.19720954
-0.27700096 0.233295 0.02559646 -0.10210246 -0.16128477 0.29375532 0.06741132 -0.326206
-0.029581951 0.18145387 0.29757407 -0.15098763 0.078266144 -0.034105763 0.3931365 0.38320637
0.24745545 0.42056638 -0.11518164 0.2038452 0.2336563 -0.35603112 0.43189323 0.261044
-0.3508362 -0.21116386 0.2219184 0.28835282 -0.23342893 0.3533979 -0.33021456 -0.12545736
-0.17161936 0.1952203 0.31841666 0.027545583 0.7895861 -0.38804793 -0.320481 0.2206442
-0.2964157 0.25479567 -0.10692405 0.27074197 0.32597253 0.5037666 -0.29016086 0.2574175
00000000: e5de 9a3e c9b7 383e dd87 8cbe 5d0b ca3e
00000010: f4a6 8bbe b727 423e 87f7 a03e ef09 f6be
00000020: 99e5 243e e91a 5bbe abc4 6fbe a094 2f3e
00000030: 7f57 be3d 2b5b 563e be77 11be 0560 7d3e
00000040: 172a 39be 10a4 f23c 8c74 e4bd 65df 82bd
00000050: 0e5e 90bd 79d4 063e c7d7 00be 4a73 0bbe
00000060: 016e d2bd 1d2a 643e b8ab 3d3e 0a37 8abe
00000070: 9fb0 70bd 07fb 18bb 5813 fd3e 0f6a 5e3e
00000080: 3355 3b3e 3eac 623e 9fb8 08be 40b4 e53d
00000090: ed57 bd3e d326 e6be a32a 8f3e 5fa1 4d3e
000000a0: 1f8e 72be 9ec7 39be dd30 8a3e 449e 803e
000000b0: b363 69be a0b2 423e 7006 68bd 55fd e0be
000000c0: 8838 81be 62f1 66be e489 fc3e 3c7e 5abd
000000d0: 9324 3e3f 5a22 41bf 527f 83bd 4879 ce3d
000000e0: e351 0dbf 3d1e 193e cabb 98be 7088 5d3e
000000f0: 7619 353e c094 bf3e 7848 01be 9895 363e
00000100: a36b 5e3e 7a54 813e 2cf9 5abe baa5 823e
00000110: eb9c 18be ce06 a13d 7cee 423e cf3d 14bf
00000120: 9cdf 543e 57c3 07be 8090 38be 38b4 c03d
00000130: 0f45 94bd 7209 3c3e b06b 62bd f948 533e
00000140: e294 38bd 14f8 a03d 0f18 a4be 6fc3 4dbc
00000150: d707 46bd 6265 ec3d fb3b bebd 6e19 0dbe
00000160: 100e bdbd b451 3d3e 6c33 293e 689d 5fbe
00000170: 8583 87bc 9868 37bd 0f31 c73e 9135 713e
00000180: b1f5 883e 790a e93d 222e 3fbc 80b2 963d
00000190: 2ebc 0e3f 4913 9abe 0936 373e efe3 c13d
000001a0: 1f32 82be a497 d93c 22a4 693e 3189 d93d
000001b0: 7ea4 a53b 5cff 4fbc c02a 4dbe 8171 2abf
000001c0: 3acc 96bb 821e cebe 9878 0e3f 57e3 0cbd
000001d0: e03a 3d3f 55a2 4bbf f840 75bd 2d22 873d
000001e0: 6457 08bf 2378 103e b604 f2be fc1f 283e
000001f0: cc59 6f3e 7743 c63e 47e0 96bd 35fb 703d
00000200: 1013 99be 1f7a 2ebe ec3a 243e dcd3 83be
00000210: a7e1 453e d42f b6be e22a 6fbe a8e7 013f
00000220: 59e2 61be 83f8 2b3e bfcb d83d 9984 b4bd
00000230: ca40 703d 0d17 5dbe 846c 343e 7056 80be
00000240: 98f1 173e 1ebf a2bc 7cbc 853e 0e72 6bbd
00000250: f623 ec3d d6bc 48be 5c79 463e 3bc6 863d
00000260: b544 483e 1607 bfbd 0c52 76bd 7af2 9e3e
00000270: d2e4 8e3d 65d5 ae3d c442 1abf e81c 84be
00000280: f03b 1fbe ccfd ebbd 1ace ea3c 3912 043c
00000290: 280b b8be 5d3d a23e d017 d4bd 1ce1 88be
000002a0: 9c47 833d df03 0f3c fcf0 47be a5ca c3bd
000002b0: 25e0 ef3c a489 bbbd 8302 923d 8570 d93e
000002c0: 5b7a e13d a703 843e d902 02bf 11eb 913c
000002d0: f220 2dbf 1656 353f e957 453e 2066 2bbe
000002e0: 4862 133f aad3 a8b8 fa05 b93e 0786 34bd
000002f0: 5734 66be b89e c3be b0e5 11bc 46fd 04be
00000300: 7147 993e 7c21 8b3e 6777 60be b1fc a33e
00000310: 7997 a2be f961 a33e 7eb0 ba3e 90ba 6bbe
00000320: 959b 2cbc ff30 7bbe 613c 7abe d593 c83e
00000330: 0762 973a e89d a53e 32e9 94be 4cf1 493e
00000340: 12d3 8dbe e2e4 6e3e abaf d13c 181b d1bd
00000350: d627 25be 1967 963e f20e 8a3d 7904 a7be
00000360: d955 f2bc 0bcf 393e a15b 983e 809c 1abe
00000370: 004a a03d 7cb2 0bbd 3049 c93e a033 c43e
00000380: f664 7d3e 7a54 d73e 5ae4 ebbd ccbc 503e
00000390: 9943 6f3e b649 b6be 1c21 dd3e 8fa7 853e
000003a0: cda0 b3be 573b 58be 943e 633e fba2 933e
000003b0: fe07 6fbe 92f0 b43e e211 a9be e577 00be
000003c0: fcbc 2fbe d5e7 473e 8207 a33e 46a7 e13c
000003d0: 5122 4a3f 38ae c6be 1616 a4be 8ef0 613e
000003e0: ccc3 97be 9474 823e fffa dabd b19e 8a3e
000003f0: dfe5 a63e d9f6 003f f78f 94be 3acc 833e

rnn.bias_ih_l0 f4 [64]
0.74224937 0.7783795 -1.1606486 0.43902838 -0.8367938 0.36595964 0.7929828 -1.0782499
-0.06365032 -0.46939817 -1.1738063 1.0014808 0.26431575 1.0366828 -1.1736406 0.7367904
-0.86903095 0.830131 0.59624285 -1.3042622 -0.9598797 1.1070409 1.2507415 -0.72549284
0.42386332 0.96208763 0.79424965 0.9331354 0.4225794 -1.0123519 0.29531887 0.72443455
0.7734499 0.7239569 -1.2449203 0.9011903 0.5635627 -0.47418737 0.77196544 0.790208
-0.8070334 -1.0776589 0.92220414 1.0215182 -0.9683177 0.7925731 -1.0181273 -1.6428148
-1.0766711 0.6738788 1.0897177 -1.3532152 1.488638 -1.0320618 -0.9437397 0.9768863
-1.7097986 0.89088166 1.2677016 1.0656923 0.8142717 0.5687341 -1.1745498 1.1045887
00000000: 0e04 3e3f e143 473f 2290 94bf 54c8 e03e
00000010: 1e38 56bf 105f bb3e ec00 4b3f 1804 8abf
00000020: 195b 82bd f554 f0be 493f 96bf 8630 803f
00000030: 6554 873e 06b2 843f db39 96bf 4c9e 3c3f
00000040: d078 5ebf 7783 543f 5fa3 183f 10f2 a6bf
00000050: adba 75bf 84b3 8d3f 4c18 a03f e6b9 39bf
00000060: 9d04 d93e 604b 763f f253 4b3f f6e1 6e3f
00000070: 545c d83e bf94 81bf 0934 973e 8b74 393f
00000080: d000 463f 3d55 393f 8c59 9fbf 68b4 663f
00000090: a545 103f b0c8 f2be 879f 453f 124b 4a3f
000000a0: be99 4ebf baf0 89bf 9215 6c3f 1cc1 823f
000000b0: abe3 77bf 12e6 4a3f ff51 82bf c147 d2bf
000000c0: 5cd0 89bf 5283 2c3f df7b 8b3f 2836 adbf
000000d0: b18b be3f 9a1a 84bf ed98 71bf 3815 7a3f
000000e0: aeda dabf d210 643f 0c44 a23f 9b68 883f
000000f0: 1c74 503f 8f98 113f a657 96bf 2a63 8d3f

rnn.bias_hh_l0 f4 [64]
0.81431997 0.76620364 -1.242658 0.2807142 -1.0785174 0.5316506 0.7475811 -1.2851206
-0.018363044 -0.6058881 -1.2596619 0.8535846 0.21431279 0.98297364 -1.2079431 0.7970722
-0.9525987 1.0216962 0.7323066 -1.1981707 -1.0436385 1.0486076 1.4001805 -0.8133458
0.5118949 0.9568441 0.8247042 1.0281795 0.39275825 -1.024403 0.067355804 0.7777335
0.7256708 0.9266543 -1.2272115 1.026975 0.664077 -0.38215363 0.8829265 0.8128482
-0.85283947 -1.1278739 1.010759 0.83751214 -0.94750816 0.7880056 -1.0836531 -1.7049745
-1.0559967 0.84553623 0.9218327 -1.3610191 1.3647605 -0.98166263 -1.0619978 0.91878426
-1.5491253 0.90438175 1.2244506 0.93041676 0.7968887 0.6072602 -1.3768946 0.8718952
00000000: 4677 503f ec25 443f 6b0f 9fbf c6b9 8f3e
00000010: dc0c 8abf 411a 083f 7a61 3f3f d57e a4bf
00000020: 186e 96bc 7c1b 1bbf 9a3c a1bf 8584 5a3f
00000030: d074 5b3e 29a4 7b3f e19d 9abf ec0c 4c3f
00000040: 82dd 73bf f1c6 823f 7278 3b3f a85d 99bf
00000050: f295 85bf c638 863f 1d39 b33f 6e37 50bf
00000060: 8b0b 033f bcf3 743f d01f 533f 639b 833f
00000070: 9c17 c93e a31f 83bf d7f1 893d 8b19 473f
00000080: 90c5 393f 3739 6d3f 4415 9dbf eb73 833f
00000090: f300 2a3f a4a9 c3be 7907 623f d216 503f
000000a0: b053 5abf 2c5e 90bf 8d60 813f 3267 563f
000000b0: e58f 72bf bcba 493f 25b5 8abf 9b3c dabf
000000c0: e62a 87bf 1075 583f 3afd 6b3f e035 aebf
000000d0: 79b0 ae3f 3e4e 7bbf 8bef 87bf 7235 6b3f
000000e0: bd49 c6bf 9085 673f ccba 9c3f cb2f 6e3f
000000f0: e600 4c3f 6875 1b3f 153e b0bf 8634 5f3f

fc.weight f4 [1, 64]
1.3595634 1.4022665 -1.41508 1.3782716 -1.321546 1.308938 1.3639373 -0.84859383
1.1489881 -1.3570141 -1.2936043 1.3604207 1.3201957 1.3396386 -1.3119789 1.3816848
-1.319322 1.3683994 -1.2189581 -1.4209399 -1.3890727 1.4057806 -1.8729861 -1.3766941
-1.5878161 1.2818841 1.3617604 -1.6462748 1.344413 -1.36034 1.340263 1.3349489
1.3336725 1.327668 -1.3408073 1.3988463 1.1062183 -1.3382145 1.4039168 1.3844863
-1.3515886 -1.3418728 1.4000521 1.274532 -1.3426023 1.3061706 -1.3270229 -1.3969679
-1.328346 1.1511604 0.9261356 -1.601197 1.3155824 -1.6801789 -1.2736406 1.3214117
-1.1891131 1.3109475 0.97295386 1.3205528 1.2918409 1.3209496 -1.3775831 1.2708901
00000000: 2c06 ae3f 787d b33f 5721 b5bf 346b b03f
00000010: 6b28 a9bf 488b a73f 7f95 ae3f 723d 59bf
00000020: 0b12 933f a3b2 adbf d394 a5bf 4422 ae3f
00000030: 2cfc a83f 4779 ab3f edee a7bf 0cdb b03f
00000040: 8bdf a8bf b627 af3f d206 9cbf 5ce1 b5bf
00000050: 22cd b1bf 9ef0 b33f 02be efbf 8337 b0bf
00000060: 8f3d cbbf c714 a43f 2a4e ae3f 22b9 d2bf
00000070: ba15 ac3f 9f1f aebf bd8d ab3f 9bdf aa3f
00000080: c8b5 aa3f 06f1 a93f 939f abbf 650d b33f
00000090: 9098 8d3f 9d4a abbf 8cb3 b33f d936 b13f
000000a0: db00 adbf 7dc2 abbf e834 b33f dd23 a33f
000000b0: 64da abbf 9930 a73f e3db a9bf d8cf b2bf
000000c0: 3e07 aabf 3959 933f 3917 6d3f 06f4 ccbf
000000d0: 0165 a83f 1a10 d7bf a806 a3bf 0524 a93f
000000e0: dc34 98bf 21cd a73f 8113 793f e007 a93f
000000f0: 0b5b a53f e014 a93f a554 b0bf 87ac a23f
