rnn_models/rnn_model_100_reach1_4_2024-05-08_14-44-46.pth (torch, 246050 bytes, 10 tensors)

lstm.weight_ih_l0 f4 [256, 32]
000000 ed fd 5e 39 49 63 c0 3b ed 1b 0c 3c fa 0d a1 3b
       0.00021266165 0.0058712107 0.00855158 0.004914996
000010 59 a7 14 bc bf bb 65 3b ff 79 03 3c f6 9a 6d bb
       -0.009073102 0.0035054532 0.008024692 -0.0036255694
000020 de 7f c5 3c 9c 3b 51 bb a5 0e 49 3c fa 13 02 bd
       0.024108823 -0.00319264 0.012271558 -0.031757332
000030 7e 87 8a bc 1c 83 5a bc 10 b5 ab 3c 28 79 2e bb
       -0.01691031 -0.013336923 0.02096036 -0.0026622508
000040 cf 98 95 3c 45 5b 04 bc 20 39 0c bb 4c 01 88 bc
       0.018261341 -0.008078401 -0.0021396354 -0.01660218
000050 77 29 00 3d 19 32 cf 3c 48 41 a4 ba fc 6c 0d 3c
       0.031289544 0.025292443 -0.0012531662 0.008631941
000060 39 e0 d8 bc db 05 7e bc 53 1d 70 bc 62 b5 32 3b
       -0.026474105 -0.015504326 -0.014655429 0.0027268757
000070 86 c1 29 3c ec 19 1d 3d 0b e9 f3 bc 3c 1c ae 3c
       0.010361081 0.0383548 -0.02977421 0.021253698
000080 ce fa 2e ba 8f f8 0a 3c 21 1f c1 bb 92 e0 f3 bb
       -0.0006674946 0.008482113 -0.0058936034 -0.0074425424
000090 81 86 a6 3c 27 64 bd bc 32 a9 58 bc aa 1b d9 3c
       0.020327808 -0.023119045 -0.013223933 0.026502449
0000a0 6f 8d d9 b9 47 26 af bc 14 be b3 bc 4f 1c 19 bc
       -0.00041494842 -0.021380557 -0.021941222 -0.009345128
0000b0 13 f2 c2 bc 37 be c3 b9 bb 4c b9 bc 11 54 b3 bb
       -0.02379707 -0.0003733502 -0.022619596 -0.005472668
0000c0 d4 a9 ee bb 2a cd 06 3d 6a ca 0c 3c 7a ea 58 bb
       -0.0072834287 0.032910503 0.008593181 -0.0033098743
0000d0 29 86 f0 bc 57 7e 26 bc a5 97 e2 bc 21 61 b8 bc
       -0.029360848 -0.010161958 -0.0276602 -0.022507252
0000e0 fb 7c e9 bc 84 2b 11 bc ef f7 33 3d be dd 08 3c
       -0.028501978 -0.008860473 0.04393762 0.008353649
0000f0 b9 a3 cf bc b1 18 05 bd 3f ef 77 bb f5 ea e5 3c
       -0.025346624 -0.03249425 -0.003783181 0.028066138
000100 3a 05 15 bc bb cd 97 bb 59 01 38 3c 1b fa 3b bc
       -0.009095484 -0.0046326793 0.01123079 -0.011473204
000110 3c 06 04 3c 15 3f 0e 3c 32 d4 ca 3c 90 f8 f5 3a
       0.008058127 0.008682032 0.024759386 0.0018766094
000120 e6 35 f9 bb 97 b7 0f 3c bd 25 bd bc 80 2d a8 bc
       -0.007605302 0.008771799 -0.023089284 -0.020529509
000130 bd d7 82 bb fb a1 36 bc f9 a8 61 bc 61 ef c0 bb
       -0.003993003 -0.011147018 -0.013773196 -0.005887911
000140 0e 3d 91 3b 7c de 04 bc 8d ae 66 3c 9c 2c 4e 3c
       0.004432327 -0.008109685 0.014079702 0.012583878
000150 46 c7 22 bc 64 72 0f bc 9a ea ab b9 8b bc 94 3a
       -0.009935206 -0.0087553 -0.00032790453 0.0011347694
000160 c9 54 06 3d 18 96 1f bc d7 c3 3e 3c d6 be 33 3c
       0.0327957 -0.009740375 0.011643372 0.010970792
000170 a7 a9 dc bb 43 aa ed bc dd b2 09 3d 82 26 3e ba
       -0.0067340913 -0.029011851 0.033617843 -0.0007253663
000180 67 36 78 bc a4 05 ae 3b 11 ef 39 3d 76 b8 7e 3a
       -0.015149689 0.005310731 0.045394007 0.0009716818
000190 a2 8e 54 3c 1d 83 5d 3d 3e 3b 1d bd 80 99 03 3c
       0.012973459 0.054080117 -0.038386576 0.008032203
0001a0 2f 05 aa 3b 60 7d a2 bc d5 b0 02 bd cb 1b 6d bc
       0.005188606 -0.019835174 -0.03190692 -0.014471958
0001b0 4f ab eb bb f5 30 d9 3b 52 65 59 bb 04 03 66 3c
       -0.0071920524 0.0066281506 -0.0033171964 0.014038805
0001c0 8a 49 42 bb 82 d1 04 bc b4 79 a2 3c 68 1b f5 3c
       -0.0029645883 -0.008106591 0.019833423 0.029920295
0001d0 3d 96 ce bc 9e fa 07 bd 7e fc d0 3c 60 90 d1 3c
       -0.025218124 -0.03319799 0.025511023 0.025581539
0001e0 1d 12 b8 bc cf a6 48 bc 03 bd 09 bd 37 4a 5c bd
       -0.022469575 -0.0122468015 -0.03362752 -0.053781714
0001f0 d7 39 12 bc d0 fb 83 bb 7c 56 22 bd fa ba d5 bc
       -0.008924923 -0.004027821 -0.03963326 -0.026090134
000200 63 cd 02 3d ad 39 a4 3c eb 83 bf bc f2 73 f0 bc
       0.031934153 0.020047033 -0.023378333 -0.029352162
000210 7b 0c 42 3c 42 39 98 b9 84 d1 e2 3b 0c d8 cf bb
       0.011843796 -0.0002903436 0.006921949 -0.0063428935
000220 73 86 fa bb 53 15 8b bc 20 b3 af bc 59 b1 c8 ba
       -0.007645422 -0.016977942 -0.021447718 -0.0015311643
000230 68 bf e9 3c 00 ab 23 3c 8f 88 87 bc c8 ad 12 ba
       0.028533652 0.0099895 -0.016544608 -0.00055953534
000240 0d b2 14 bd 95 dc 9c 3b b0 0e 1f bd 70 3d 96 bc
       -0.036302615 0.0047870376 -0.038832366 -0.018339843
000250 32 9b 30 bc bf 7b 19 bc ed 4a a5 3c 46 2c a0 3c
       -0.010779189 -0.009367882 0.020177329 0.019552361
000260 6b b4 a9 3c 9f 38 b9 3c 1f a6 0a 3c 99 86 c6 bc
       0.020715913 0.022610007 0.008462458 -0.024234103
000270 04 e2 38 bd 48 41 f2 3c d4 2b b6 bc c5 9c 75 3a
       -0.04513742 0.029572144 -0.022237696 0.0009369369
000280 52 36 6d 3c 46 bd aa 3b ce 46 e0 39 57 c4 ad 3c
       0.014478283 0.0052105514 0.00042777363 0.021211786
000290 77 f9 23 3c 48 59 ca 3c 89 0f 9c bc f4 8c 72 bb
       0.0100082075 0.024700776 -0.019050376 -0.0037010284
0002a0 b6 06 47 3d 89 cb 72 3c 2c ea 0a 3b 35 26 06 bd
       0.048590384 0.014819034 0.0021196706 -0.03275128
0002b0 81 c5 9d bc 56 a2 30 3c 68 d0 e9 bc 19 ce 5e bc
       -0.019259216 0.010780891 -0.028541759 -0.013598942
0002c0 f9 e9 ec 3c 4a c7 08 3b 56 8c 3d 3d 95 82 8a 3c
       0.02892016 0.0020870739 0.046276413 0.01690797
0002d0 a8 78 86 bc 0b 8f 5d 3c f4 89 e0 3b 72 55 5f 3c
       -0.016414955 0.013522874 0.006852383 0.013631212
0002e0 d6 59 04 bd b7 e7 67 bc 40 d6 06 bd 21 0a 57 bc
       -0.032312237 -0.014154366 -0.03291917 -0.0131249735
0002f0 f6 d4 df bc 9a 87 83 3c 03 e5 01 bb b1 ad b2 bc
       -0.027323227 0.01605587 -0.001982034 -0.021811338
000300 06 ad af bc fb fc f0 3c 97 a0 d1 3b d1 6b c4 3a
       -0.021444809 0.029417505 0.0063973176 0.0014985745
000310 fb 88 f0 3c ba 39 4c 3c 6e 71 42 bd 9a 4c 2f bd
       0.029362192 0.012464935 -0.047471456 -0.042797662
000320 be 28 ce b9 aa a0 fe 3c 24 9f ba 3c 90 c9 1e bc
       -0.00039321737 0.03108247 0.022780962 -0.009691611
000330 9c 2b e2 3b 42 f4 17 3c 90 88 15 3c 8b ca 1c bd
       0.0069021713 0.009274544 0.009126797 -0.038279098
000340 29 ad 30 bc 44 04 d7 3b e2 7c a3 bb 30 cb 41 bd
       -0.010783472 0.006561788 -0.0049892524 -0.047312915
000350 c4 70 eb bc e5 28 a8 3c 4f 67 a0 3c 3c 58 39 bc
       -0.028740294 0.020527313 0.019580511 -0.011312541
000360 2d 97 d2 bc 98 e3 51 3c 51 d4 0c bb 46 fd 56 3d
       -0.025706852 0.01281061 -0.0021488855 0.052487634
000370 ce 00 05 3d 1a 87 9a 3a 3d 89 29 3c 2a 3e 1f bc
       0.03247147 0.0011789531 0.010347662 -0.009719411
000380 4e af aa bc 69 e9 3a 3d 9c bf db bc ff 60 72 3c
       -0.020835545 0.045632754 -0.026824765 0.0147936335
000390 10 9c 16 bd 93 48 04 bd 4f 9a d1 bb de 22 47 bd
       -0.036769927 -0.032295775 -0.006396569 -0.048617236
0003a0 9b 9e 07 3c 83 3d 0b 3c 17 66 91 bb 1a 12 24 3c
       0.008277561 0.008498552 -0.004437219 0.010014081
0003b0 73 ae 3f 3d d0 3d 78 bc 30 cc 2a bd ce 90 ee bb
       0.046797227 -0.015151456 -0.041698635 -0.0072804457
0003c0 27 6f 87 bc 67 a1 0c 3d 16 d0 37 3d 6c 26 13 3d
       -0.016532494 0.034333613 0.04487618 0.035925314
0003d0 33 31 ab bc 1c f4 42 bc 1c 46 b6 bc d1 d5 b9 bc
       -0.020897483 -0.0118990205 -0.022250228 -0.022684963
0003e0 7e 53 71 bc 67 18 32 3d d4 28 cd 3c 6e 67 e9 3c
       -0.014729379 0.043480303 0.025043882 0.028491702
0003f0 dd 73 52 bc 49 ce 3d bd f5 16 6d bc 58 3e 3a 3d
       -0.012845007 -0.046339307 -0.014470805 0.045469612

lstm.weight_hh_l0 f4 [256, 64]
000000 18 9b dc bc ee b9 08 3b af 42 a4 3c 67 3b ce 3c
       -0.026929423 0.0020862776 0.020051328 0.02517481
000010 78 b5 12 3d fd 39 16 3b e4 c2 43 ba 96 b5 da 3c
       0.035817593 0.0022922747 -0.00074677006 0.026697915
000020 e4 b2 93 3c 12 0e 0d bb 56 5d 2e bb 36 4f 0c bb
       0.018029638 -0.002152328 -0.0026605926 -0.0021409518
000030 60 1b 3b bb e4 7a a4 3c 90 ec 00 3a 5c 78 25 bb
       -0.0028550252 0.02007813 0.0004918063 -0.0025248742
000040 16 5d f7 ba 68 18 e1 3c 1f 72 be bb 64 1d 13 ba
       -0.0018872346 0.027477458 -0.005811944 -0.00056119845
000050 02 3b 09 bd 14 c3 ec ba 20 1c f3 3a 86 1e 92 3b
       -0.03350354 -0.0018063509 0.0018547811 0.004459205
000060 ac 3f 14 3d 3f 90 87 bb fa 8a 7f bc 1e 9a 74 3c
       0.036193535 -0.0041370685 -0.015597099 0.0149293225
000070 06 a9 4b 3b 15 5b 33 3b 69 03 c1 ba e4 2f d9 3a
       0.0031076088 0.0027367522 -0.0014725748 0.0016570059
000080 e2 1d 1d bb 98 f7 20 bb ee 7c e7 3a c8 7a dd ba
       -0.002397411 -0.002456164 0.0017661133 -0.0016897554
000090 e8 16 35 3b 8e ea 7a bb bd 55 1b bd b8 17 a0 bb
       0.0027632061 -0.0038286778 -0.037923563 -0.00488564
0000a0 4e b2 b1 39 51 65 45 bb de 59 98 bb c5 a7 33 3a
       0.00033892918 -0.0030120204 -0.004649385 0.0006853308
0000b0 f6 ba cf 3b 63 46 23 bb 06 b4 48 bb e2 a8 b9 3c
       0.006339426 -0.002491378 -0.003062488 0.022663537
0000c0 77 35 2a bc 69 a6 52 3b b0 73 33 bc 07 02 06 39
       -0.010388724 0.0032142645 -0.010952875 0.00012779991
0000d0 3f f2 d8 bc 7d ef 56 bb c6 7c 60 bc 4b ed ae 3c
       -0.0264827 -0.0032796555 -0.013701623 0.021353384
0000e0 e3 9e 8d ba 9d 03 94 bb d0 2e 0f 3c 99 91 09 3d
       -0.0010804798 -0.0045170323 0.008739188 0.03358612
0000f0 4f 53 02 bc 34 5c 27 3b f7 f2 80 ba f5 cd c9 3b
       -0.007954433 0.0025537135 -0.0009838034 0.006158585
000100 89 07 72 bb 10 cf 9f 3b bf 94 12 bc 8e b0 31 3c
       -0.003693076 0.0048769787 -0.008946597 0.010845317
000110 14 ad 19 ba 7c ec 13 ba c6 0a 18 bd ca 46 da 3c
       -0.00058622775 -0.0005642844 -0.03711965 0.026645083
000120 11 de 91 3b 2d 3e fb b9 7e 24 4d bb a9 01 05 bd
       0.004451521 -0.00047920775 -0.0031302269 -0.032472286
000130 7a 0c 2a bc ef 04 0a ba c2 b6 cf 3c fc f0 e8 3a
       -0.010378951 -0.00052650174 0.0253557 0.0017772014
000140 3c 0f a7 3c a8 f2 66 ba e4 1f 80 3b db 2f e3 3b
       0.020393007 -0.00088099623 0.0039100517 0.006933195
000150 aa 61 3c 3a 97 cb 0a 3c f0 3f 04 3b 5c af e8 3b
       0.0007186184 0.008471391 0.0020179711 0.0071009826
000160 ac 94 67 3b 97 04 41 3b 11 31 83 3b 67 e2 56 bc
       0.0035336418 0.0029452199 0.004003652 -0.013115502
000170 34 c4 01 3d a7 08 6b 3c b5 3d 4c 3b 92 b2 4e 3c
       0.031681255 0.014345325 0.003116471 0.012615817
000180 a2 33 52 39 a2 66 e7 bc 37 f1 84 3c ee 67 0c bc
       0.00020046395 -0.028247181 0.016228301 -0.008569701
000190 9f 88 8a bc 6e 48 a8 3c 42 3e 1f bb 29 bb 95 3b
       -0.01691085 0.02054235 -0.0024298583 0.0045694304
0001a0 2d 36 90 39 9d ab bc bc 4c 30 fb bc fb 04 cb bb
       0.00027506184 -0.02303105 -0.030662678 -0.006195662
0001b0 31 72 bf b9 cd 72 32 3a fc 38 69 bb ee 57 e2 bc
       -0.00036515438 0.0006807268 -0.0035586944 -0.027629819
0001c0 67 04 1b bc 8e 08 0b ba 62 d9 c7 bb 2a b9 4a 39
       -0.009461499 -0.0005303704 -0.006098912 0.000193332
0001d0 3e e5 5a bb 4d 1b 25 bd 8c c7 66 39 32 29 32 bb
       -0.00334008 -0.04030924 0.00022008846 -0.00271852
0001e0 8c 3d bf 3a ba 44 02 bd 51 8a 11 3d 2e b1 e4 bc
       0.0014590486 -0.031803824 0.0355323 -0.027916517
0001f0 52 cb b1 3c c9 ec 7c b9 ac 56 b2 3c 9a fe 20 bb
       0.021703396 -0.00024120802 0.021769844 -0.0024565817
000200 68 d4 8c 3b 56 2f 0a b8 9a 0e b0 bb 01 a5 a2 3b
       0.0042977817 -3.294585e-05 -0.0053728344 0.0049635177
000210 8e cf a1 3b 0a 72 a0 3b 27 54 fb bc 28 2c c8 3c
       0.0049380725 0.004896407 -0.030679775 0.024435118
000220 e4 43 d4 ba 7b 2b 5e 3b 96 99 18 3b a7 52 47 3a
       -0.0016194549 0.0033900428 0.0023284904 0.0007603564
000230 f3 74 c6 ba d0 53 2f 3c f3 27 96 3b c4 d5 e9 3c
       -0.0015141055 0.010701135 0.004582399 0.028544314
000240 45 22 3c 3b f7 11 49 3a 82 33 2f bb c3 75 05 bb
       0.002870695 0.00076702185 -0.0026733582 -0.002036438
000250 a6 9a 10 bc 86 bb cb bc 50 47 16 bd 78 23 2a 3b
       -0.008825934 -0.024869692 -0.036689103 0.0025961082
000260 ec 4b da 3c 73 dd 01 bc a5 40 d0 ba b6 1b a2 ba
       0.02664753 -0.007926333 -0.0015888406 -0.0012367878
000270 f6 ba 25 bd 89 df 82 3c 19 b6 94 bb 96 c1 cd 3a
       -0.040461503 0.01597573 -0.0045383093 0.0015697952
000280 2e 70 ae 3b 42 bd ca ba b2 69 0e 3d c1 a9 9a bc
       0.0053234315 -0.001546778 0.034768768 -0.018879773
000290 b5 f4 0a 3b ab 54 4d 3c c3 1f df 3b 63 8c 65 bb
       0.0021202986 0.012532393 0.006809206 -0.0035026304
0002a0 8a 75 9e 3b c0 df d3 3c 02 c0 84 3b a3 f8 80 bc
       0.004835789 0.025863528 0.0040512094 -0.01574356
0002b0 3b 4c 0f bd dc 01 13 bc ca 99 ef 3a 71 24 87 bb
       -0.03498481 -0.008972611 0.0018280086 -0.004124217
0002c0 d9 cd a5 3b b9 e2 60 3b 39 ee 8f bb 3e b6 03 bd
       0.0050599393 0.0034314825 -0.004392412 -0.03215622
0002d0 04 39 fe 3c f2 31 2d 3c 3f 8c ff 3c 94 7f 5e 3a
       0.031033047 0.01057099 0.031194804 0.00084876386
0002e0 ff cb bb 3a 50 0c d0 bb ff bd 65 3c a8 89 8a 3b
       0.0014327763 -0.006349124 0.014022349 0.0042278357
0002f0 fd e8 db 3c 6e f7 4a 3b 42 88 3e bc ca aa 20 bd
       0.026844496 0.0030970233 -0.011629166 -0.039225377
000300 dc 91 31 3b 4e 1b e9 bc 91 a2 bb bc c2 3f 17 3c
       0.0027094996 -0.028455403 -0.022904666 0.00923151
000310 32 25 84 3c 56 39 d5 3b e8 d9 38 3c f9 bc cf bb
       0.016131017 0.006507079 0.011282422 -0.006339666
000320 db d1 be bc 25 ae f9 3a 53 63 e8 bc f6 0c f7 36
       -0.023293426 0.0019049091 -0.028367674 7.3626825e-06
000330 c6 ff fb 39 8d 2a 64 3c 9a 65 12 3c 8e bd 1b bc
       0.00048065017 0.0139261605 0.0089353565 -0.009505643
000340 68 45 1d 3b f4 b0 a1 bb be ec b7 3c 9b c7 17 bc
       0.0023997668 -0.0049344245 0.022451755 -0.009263898
000350 f0 6a 2d bc 8d 79 09 3d 70 d8 1a bc d3 87 d9 3a
       -0.010584578 0.033563185 -0.009451017 0.0016596265
000360 03 fa c2 39 a8 7b 50 bc 2f 3c 2f 3c 4f 16 56 bc
       0.00037188837 -0.012724794 0.010695501 -0.013066842
000370 3e 61 17 bc da f4 9e 3b b1 61 17 bc 4d c6 10 bd
       -0.009239493 0.004850966 -0.0092396 -0.035345364
000380 96 cf ac 3b 6a bd 44 3b 16 ba 30 bb 29 33 d1 bb
       0.0052737696 0.0030020126 -0.0026966385 -0.0063842726
000390 3c fc fa ba f2 b2 a7 bb b3 ad 50 3c cd 57 83 bc
       -0.0019148658 -0.0051177675 0.012736726 -0.016033078
0003a0 82 47 1f bb 04 e7 87 3b 3c 56 d5 bc 69 2d c5 bb
       -0.0024304097 0.0041474123 -0.026042096 -0.006017376
0003b0 2b 17 27 3d bf 5d de bb b9 90 dc bb a0 01 dd bc
       0.04079358 -0.0067860777 -0.0067311195 -0.026978314
0003c0 3f 44 0a bd 66 23 17 ba 8a ff 5c 3c 6d 24 84 3b
       -0.03375649 -0.00057654676 0.01348866 0.0040326626
0003d0 00 85 c3 3a 0a bf ee bc 57 e8 87 bc 16 fa 01 3d
       0.0014916956 -0.029143829 -0.01659028 0.03173264
0003e0 88 17 1b 3a ad 1b 0f 38 03 28 ca ba 16 74 27 bb
       0.0005916287 3.4119632e-05 -0.0015423301 -0.002555137
0003f0 b2 43 f5 3b f6 fb 99 3b a8 87 f2 3a 84 2c a6 b9
       0.0074848766 0.0046992255 0.0018503563 -0.00031695154

lstm.bias_ih_l0 f4 [256]
000000 a0 06 8c 3c 68 aa e2 3c 08 e4 28 3d 56 ff 2e 3d
       0.017093003 0.027669147 0.041233093 0.042723976
000010 e5 d0 23 3d d5 2e 25 3d ea 5f 7a 3d 3e 8c 6a 3d
       0.03999414 0.040327866 0.061126627 0.05726265
000020 a5 e0 c4 3c 56 23 05 3d 63 fc 05 3d c7 48 83 3c
       0.0240329 0.032504402 0.032711398 0.016025914
000030 18 35 13 3d 69 85 27 bb 06 86 fe 3c 97 6d 9c 3c
       0.035939306 -0.0025561696 0.031069767 0.019095225
000040 2c 22 c7 3c fe 33 ac bc 63 98 89 3c e4 db b8 bc
       0.024308287 -0.021020886 0.016796296 -0.02256579
000050 11 58 5e bc 7b 43 9f bc 38 d4 01 bd 0f dc 30 bd
       -0.013570801 -0.019441357 -0.03169653 -0.043178614
000060 04 04 41 3d 95 4e dd 3c 2f 92 e3 3b 38 98 0a 3d
       0.04712297 0.02701501 0.0069449167 0.033836573
000070 9e 5d 1f 3d a2 26 97 3d 2b 54 a9 3a fd 7c c1 3c
       0.03890764 0.073804155 0.0012918761 0.02361917
000080 0a 30 42 3d b6 70 fd 3c 99 06 90 3c 14 65 d1 bc
       0.047409095 0.030937534 0.017581271 -0.025560893
000090 db 64 0e bd b3 cd 86 3c 83 66 ed 3c 66 b9 65 3c
       -0.034764152 0.016455507 0.028979545 0.014021253
0000a0 c2 bd 00 3d 63 ca fb 3c 60 73 24 3d 8c ef 32 3d
       0.031430967 0.030736154 0.040149093 0.04368548
0000b0 7b a3 5e 3d 21 21 34 3d 60 a5 49 3d b9 6d 40 3d
       0.054355126 0.043976907 0.04922998 0.04697964
0000c0 cd 57 18 3d 1f b6 62 3d 20 8c 33 bb 3d 6f c8 3c
       0.03719311 0.055349465 -0.0027396753 0.024467105
0000d0 bc 1e 0b 3d 19 d6 d2 3c 1a d8 25 3d 82 8e ed 3c
       0.033964857 0.025736855 0.040489294 0.028998617
0000e0 c5 1c 81 3d 1f b4 e2 3c ea aa d3 bb 28 55 ed 3c
       0.063043155 0.027673779 -0.0064595835 0.02897127
0000f0 f2 76 2c 3d 46 24 89 3d dc d7 fe 3c 85 e9 47 3c
       0.042105623 0.06696372 0.03110879 0.0122016715
000100 f0 c0 4f 3c e9 eb 03 3d 5e 6b 3a 3c ee 7a 04 3c
       0.012680277 0.032207403 0.011378137 0.008085949
000110 d0 70 a2 3d f3 88 32 3d 08 3b b1 3c a2 79 ad 3d
       0.079316735 0.043587636 0.021634594 0.08470465
000120 f9 41 56 bc a9 f4 05 3d 9b 09 a0 3c 62 9c 43 3d
       -0.013077253 0.03270403 0.01953583 0.04775656
000130 86 4e b6 bc cb 02 d4 bc 1e 54 08 3d 11 48 0e bd
       -0.02225424 -0.025880238 0.033283345 -0.034736697
000140 09 50 46 3c 51 68 8e 3c 95 f8 d8 3c 7b 79 4f 3c
       0.012104043 0.017383726 0.02648572 0.012663241
000150 bf bb 2b 3d 64 ac 69 3c fe 68 1c 3d a5 1c 36 3d
       0.041927096 0.0142622925 0.038186066 0.04446091
000160 6a 9b c8 3c c4 e9 93 3d 83 32 50 3d 51 81 d5 3c
       0.02448817 0.07222322 0.05082942 0.02606264
000170 ab 79 07 bb 5f 36 90 3d 00 e8 30 3d 71 3a be 3c
       -0.0020671885 0.070416205 0.043190002 0.023221226
000180 91 ca 1e 3c 37 dd 61 ba e0 ac 65 3c d7 37 9f 3c
       0.00969185 -0.00086160324 0.014018267 0.019435806
000190 64 76 e9 3c b4 54 0b 3d 78 89 71 3d 6a d0 ba 3c
       0.028498836 0.034016326 0.05896899 0.022804458
0001a0 8f 18 34 3c 0d b7 1e 3d a6 9a c4 bc d9 dc d9 3c
       0.010992183 0.03874879 -0.023999523 0.026594566
0001b0 1e de 3a 3d 34 e1 7b 3d 04 20 28 3d 15 6f 09 3b
       0.045621984 0.061494067 0.041046157 0.002097075
0001c0 be 83 5e 3c 5b e0 b4 3c a9 db 65 3d 32 eb 9d 3c
       0.0135812145 0.022079637 0.056117687 0.019277189
0001d0 c4 38 a1 bc 71 3b d4 3c 84 14 00 3d 8e 7d 25 3d
       -0.019680388 0.02590725 0.031269565 0.04040294
0001e0 57 e4 74 3d 06 06 41 3d be f9 8f 3c 87 27 03 3d
       0.059788074 0.047124885 0.017575141 0.032020118
0001f0 17 88 34 3d ed 3a fc bb 4b 61 b0 3c 54 8b d9 bc
       0.044075098 -0.007697454 0.021530768 -0.026555695
000200 24 65 0b bd 61 fc e3 bc cf 59 b6 3b 8b a7 47 3d
       -0.034032002 -0.027830305 0.0055649052 0.048743766
000210 43 22 57 3d 44 c6 52 3d be e9 b9 bd e6 99 7e 3c
       0.05252291 0.051458612 -0.09077786 0.015539622
000220 38 bf 1c bd 66 8f 19 bd e8 3f dc 3b 42 f5 02 bc
       -0.038268298 -0.03749027 0.0067214854 -0.007993044
000230 96 9a e0 3c 74 fd 14 3d 1d 81 3d 3c ef 76 0e 3d
       0.027417462 0.036374524 0.011566428 0.034781393
000240 52 2f 55 3c 31 93 20 bd 3f c9 0b 3d 55 aa 37 3d
       0.01301177 -0.039202873 0.03412747 0.044840176
000250 be 54 e8 bc 80 4e bd 3d 85 15 7c 3d 4b fc 1e bd
       -0.02836072 0.09243488 0.06154396 -0.038814824
000260 f0 a7 0b bc 45 c8 29 3d ae a3 d1 3c b4 1c ae 3c
       -0.008523926 0.041450758 0.025590744 0.021253921
000270 60 c0 a9 bc 29 f8 54 3d 58 0d ff bc 71 4c 35 3d
       -0.020721614 0.051994476 -0.031134292 0.044262353
000280 9b 04 64 3c 83 e4 1c 3d 2e 70 a9 3d ba 01 6c bd
       0.013917114 0.038303863 0.0827335 -0.057618834
000290 51 90 37 3d 6e 70 2f 3b 4a 9f 5f 3d 4f 58 0e 3d
       0.044815365 0.0026769894 0.05459527 0.034752186
0002a0 65 30 19 3c 51 77 ba 3b 6c 07 65 3d 13 12 11 bd
       0.009349917 0.005690493 0.05591528 -0.035417628
0002b0 1b ff 46 3d 19 25 90 bd 44 ca 0f bd 5f 27 31 3c
       0.04858313 -0.07038326 -0.035105005 0.010812609
0002c0 6d 41 94 bd 5e 48 00 bc 1f 2e 82 bd 36 5a 3a bd
       -0.072390415 -0.007829754 -0.06356453 -0.045496188
0002d0 09 8a 65 bd 19 86 a0 bd af 46 3a 3b ea b9 83 3d
       -0.056039844 -0.07838077 0.0028423478 0.06431945
0002e0 0b c6 2a bc 75 bf bc bc dd ca 99 3c 5d b6 2f bc
       -0.010423194 -0.023040513 0.01877349 -0.010724631
0002f0 42 84 36 bc f6 98 76 3d 81 c0 2b bd 5b 5e 65 bd
       -0.011139931 0.06020447 -0.041931633 -0.055998188
000300 33 53 9c 3c 27 b7 55 3d 22 79 3e 3c 44 6b 1d 3d
       0.019082641 0.05217662 0.01162556 0.038432375
000310 a0 e7 17 bd fc 72 79 3d 64 3d 91 3d 40 09 a7 3d
       -0.03708613 0.060900673 0.070917875 0.08156061
000320 ab 25 d8 3c a5 5e 7d 3d 13 03 04 3d 5f ee 97 3d
       0.026385149 0.06185784 0.032229494 0.074185126
000330 2c 0a 88 bc 6f fb 11 3d f3 df 52 3c 2e 0d a4 bc
       -0.016606413 0.035640176 0.0128707765 -0.020025816
000340 b0 99 86 38 d1 a4 1b 3d 8e 3e 00 bc 1b fe 6d 3d
       6.4182444e-05 0.037998978 -0.007827414 0.058103662
000350 ae 24 da bc d8 c5 dc 3c 97 51 5b 3d 70 cf 38 3d
       -0.026628818 0.026949808 0.053544607 0.045119703
000360 ba fb 8d 3d a1 a6 a9 3d ec a4 2c 3d 8d b5 bf 3b
       0.06932779 0.08283735 0.04214947 0.0058505
000370 bd 84 bd 3c 0f cc f6 3b 37 f4 af bc 70 f1 ae 3c
       0.023134584 0.00753165 -0.021478755 0.02135536
000380 8f f2 17 bd 58 10 07 3d d4 a2 2a bd dd 38 e9 3c
       -0.037096556 0.03297457 -0.04165919 0.028469497
000390 e2 ba 0d 3c c9 bd 68 3d e5 17 3f 3d 51 89 62 3c
       0.008650513 0.05682162 0.046653647 0.013826684
0003a0 c9 20 90 3c 0a a1 6e 3d 0a 8d 8e 3d e5 aa 3d 3d
       0.017593758 0.058259048 0.06960495 0.046305556
0003b0 70 fc 3d 3d 0f 17 c0 3c bf 37 18 bd 77 53 0f 3d
       0.04638332 0.023448495 -0.03716254 0.034991708
0003c0 eb 1b 4d 3c 23 12 ad 3d be b0 7c 3d dc ac 01 3d
       0.012518863 0.08450725 0.061691992 0.031658992
0003d0 46 8b 09 3d e9 03 1b 3c 03 b8 41 3d ab f0 15 3d
       0.033580087 0.0094613815 0.047294628 0.036606472
0003e0 5c d2 9c 3d 7c 1f ac bc f0 78 a6 3c 8e 22 67 3c
       0.0765731 -0.021011107 0.02032134 0.01410736
0003f0 af c3 9d 3d 4b 7c ba 3d e9 b9 41 3c f2 5e 90 bc
       0.07703339 0.09105738 0.01182411 -0.017623398

lstm.bias_hh_l0 f4 [256]
000000 e6 1e e7 3c db 37 e2 3c 3e ff 51 3d 01 e6 fe 3c
       0.028212976 0.027614525 0.05126881 0.031115534
000010 ba 4f 37 3d b7 e2 2d 3d 66 1a 64 3d ca 59 51 3d
       0.044753768 0.04245254 0.055689238 0.05111102
000020 6e c3 1a 3d 4c 1f 05 3d b7 24 22 3d 12 b6 35 3d
       0.037784033 0.03250055 0.039585795 0.04436309
000030 3d e3 9b 3c a5 d4 55 3d de 4d 0f 3d 09 70 44 3d
       0.019029254 0.052204747 0.03498637 0.047958408
000040 8d 7c a6 bc 48 f0 e2 3c b9 12 89 3c fa 09 a8 3c
       -0.020323062 0.027702466 0.01673256 0.02051257
000050 49 34 5f 3c 71 47 e9 3c f2 b2 1f 3d fe 81 c7 bc
       0.013623306 0.028476449 0.038989015 -0.024353977
000060 98 32 04 bc 21 c2 93 3d 66 51 37 3d df a7 ed 3c
       -0.008068703 0.072147615 0.044755362 0.029010711
000070 a3 68 c6 3a c4 d7 88 3d 56 14 9d bc c7 79 b8 3c
       0.0015137385 0.06681779 -0.019174736 0.022519005
000080 6d 5e 36 3d be b4 cd 3c f7 9e 8d bc 71 31 75 bc
       0.044523645 0.025110599 -0.017287714 -0.014965401
000090 16 d3 83 3c 2b 79 77 3d 41 4d 85 bb 6a d4 be 3b
       0.016091865 0.06041829 -0.0040680473 0.0058236616
0000a0 7b 8f 82 bc 81 d3 a4 3c 35 8f 52 3c ac eb 0f 3d
       -0.015937557 0.020120384 0.012851526 0.035136864
0000b0 e2 4e 8a bc 50 14 d0 3c 81 a0 21 bd b7 a2 1d 3d
       -0.016883317 0.02540031 -0.03945971 0.038485255
0000c0 7d 8c 58 3d 4d fb 31 bc ea fb 24 3d 85 39 75 bc
       0.052868355 -0.010863137 0.040279306 -0.014967327
0000d0 16 26 1e 3b e0 0a b3 3c 58 a5 49 3d b6 81 ec 3c
       0.0024131588 0.021855772 0.04922995 0.028870445
0000e0 54 24 81 3d 61 7f b4 bc 87 88 4a 3c b7 58 31 3d
       0.06305757 -0.022033395 0.012361652 0.043297496
0000f0 15 7f ed 3c 11 81 7f 3d 19 16 ad bc 49 98 13 3d
       0.028991261 0.062378947 -0.021128701 0.036033902
000100 b5 7f 95 3c c4 b6 30 3d fb 4b 3f 3d 74 c9 4b 3d
       0.018249372 0.04314305 0.04670332 0.049752668
000110 2a 5f 9b 3d 04 65 47 3d ea db 6b 3d 50 b0 9e 3c
       0.075865105 0.04868032 0.057582773 0.019371182
000120 c3 c3 aa 3c 2f 09 1e 3d 54 cf 04 3d 77 b8 48 3d
       0.0208453 0.038582977 0.032424286 0.049004044
000130 1c f1 b7 3c 1c 9f 26 3d 98 f7 d7 bc c8 4c 13 3d
       0.022453837 0.040679082 -0.02636318 0.035961896
000140 87 52 1e 3c 7b f2 41 3c b2 79 1a 3d c6 9b 6a 3d
       0.009663231 0.011837597 0.037713714 0.057277463
000150 23 a7 ee 3c 83 ee eb bc f3 3e 1b 3d 5c 86 77 3c
       0.029132431 -0.028800255 0.03790183 0.015107717
000160 4e 2b 26 3d c0 3b 88 3d 48 9c 30 3a 95 87 9d 3c
       0.040568642 0.066520214 0.0006737155 0.01922969
000170 e0 6d 7c 3d 42 63 44 3c df b5 f4 3b f6 45 e6 3c
       0.061628222 0.0119865555 0.00746797 0.028109532
000180 82 36 1f 3d 8b 88 08 3d 86 ae 92 3c ab cb d6 3b
       0.038870342 0.033333343 0.017905485 0.006555041
000190 a4 f5 b4 3c f3 ff 84 3c 73 98 ea 3b 92 4d dd 3c
       0.022089787 0.016235327 0.0071592866 0.027014527
0001a0 d3 e3 e3 bc 60 b6 80 3c dd 34 32 3d bb 8f 30 3d
       -0.027818596 0.015711963 0.043507446 0.043105822
0001b0 a4 1a 2f 3d a3 9f f2 3c c4 be 35 3d 50 d3 6f 3d
       0.042750016 0.029617136 0.04437138 0.058551133
0001c0 82 e8 87 3d f3 b8 ec 3c 7d 53 79 3d 81 1a a9 3c
       0.06636144 0.028896784 0.060870636 0.02064252
0001d0 60 ff 43 bc 07 6c 39 3d 75 54 83 3c 2a 92 ce 3c
       -0.011962742 0.04526904 0.016031483 0.02521618
0001e0 54 54 58 3d d5 2d d8 3c 35 db 80 bb bb 5f 0f bd
       0.052814797 0.026389042 -0.0039323815 -0.035003405
0001f0 8a cc 49 3d 59 47 73 3d 56 c6 41 bc 1a c5 fa 3c
       0.04926733 0.059394214 -0.011827072 0.030611563
000200 76 17 07 bd 46 b5 88 3d 71 9f 8c 3b bd cc 8d bd
       -0.03298136 0.066752 0.004291468 -0.06923816
000210 b4 5e d7 3b e9 6d 80 3b 38 1b 02 bc 5e f1 01 3d
       0.006572569 0.0039193523 -0.00794106 0.031724326
000220 06 c6 91 3d f3 1a 0c 3d b4 4e 82 3c ed ca fb bc
       0.07117848 0.03420539 0.01590667 -0.030736411
000230 2a 90 f2 bc d3 73 c4 bd d2 26 40 bc 03 16 5a bd
       -0.029609758 -0.09592404 -0.0117280055 -0.05324365
000240 40 a6 9e 3c 9c ba 28 bd 14 2a 3a 3d 43 53 37 3d
       0.019366384 -0.04119359 0.045450285 0.04475714
000250 17 f6 1c bd 83 52 da bc b5 cb dc bb bb 83 c3 3d
       -0.038320627 -0.026650673 -0.006738151 0.0954661
000260 38 e4 86 3d c9 1d 36 bd 06 2b f6 3c 54 ea fc 3c
       0.06586498 -0.044462 0.030049812 0.030873455
000270 90 52 8e bd 36 19 cc bc 1d 21 b6 3b 41 d8 a1 3d
       -0.06949341 -0.024914365 0.0055581466 0.07902575
000280 77 ef 3c 3d 89 c3 9f 3c f3 6a a5 bc 17 99 31 3c
       0.04612681 0.019502418 -0.020192599 0.010839722
000290 b7 c5 d7 3d ff 12 17 3d 92 1b d7 ba 70 7c 8f 3c
       0.10535758 0.03688335 -0.0016411415 0.017515391
0002a0 5b be 01 3d 10 5c b2 3c f1 1d 55 3c 56 0e c8 bc
       0.031675678 0.021772414 0.013007627 -0.024420898
0002b0 ee 31 90 3d df f9 f1 3b ed d9 76 bc 0b 58 06 bd
       0.07040773 0.0073845233 -0.015066606 -0.032798808
0002c0 3e 41 48 bd 56 9a 83 3c a2 9c 8a bc 7d 3f 1b 3d
       -0.048890345 0.016064804 -0.016920391 0.037902344
0002d0 2e 2c f6 3c 97 32 86 bd b1 6e 55 3d 10 15 e4 bc
       0.030050363 -0.06552618 0.052107517 -0.027842075
0002e0 b9 9d 8c 3c 1d 87 88 bd 3c ba 76 bb 97 b3 c3 3d
       0.017165052 -0.06666396 -0.0037647625 0.095557384
0002f0 c7 84 27 bd ee 16 2a bd 96 67 d1 bc 4e 52 a3 bc
       -0.04089811 -0.041525774 -0.025562089 -0.019936707
000300 5e 9f 6c 3c af ae 18 3d 62 ea 56 3d a4 ea 12 3d
       0.014442293 0.037275966 0.05246962 0.035868302
000310 e9 23 6f 3d 41 79 6b 3d cc f2 6a bc 93 75 70 3d
       0.058383856 0.057488684 -0.014340114 0.058705878
000320 72 ce fc bc 3a 3d 3e 3d 50 05 08 3c 40 0b b0 ba
       -0.03086016 0.04644511 0.008302048 -0.0013431087
000330 07 52 0f 3d 25 ef a3 3c 18 68 52 3d ac 4e 53 3d
       0.034990337 0.020011494 0.051368803 0.0515887
000340 74 c6 21 3d ba eb 5b 3d 35 5a 32 bc 8f a0 07 3d
       0.0394959 0.053691603 -0.010885765 0.033112105
000350 f2 36 b9 3c fd 1a ae bc b2 4b 5b 3d 31 f2 0d bd
       0.022609208 -0.021253103 0.053538986 -0.0346548
000360 92 32 72 3d c6 37 b8 bc ea 7b 16 3d 87 00 57 3d
       0.05913026 -0.022487532 0.036739267 0.052490737
000370 cd 9f 68 3c 72 da 70 ba e8 a6 24 bd 38 c0 58 3c
       0.014198256 -0.00091878243 -0.040198237 0.013229422
000380 be 41 64 3d 40 78 58 3d a9 fb e8 3c cf df e2 3b
       0.05572676 0.052849054 0.028440313 0.0069236527
000390 2a fd 38 3d 2c b4 65 3d f0 21 dd 3c e0 4c 19 3d
       0.04516331 0.05608003 0.026993722 0.03742683
0003a0 b4 07 f6 3c 0f 32 15 3d 2b a0 49 3d 83 41 62 3d
       0.03003297 0.036424693 0.049225014 0.055238258
0003b0 3f 6c 3c 3d 5f bf 9a 3d 14 60 2a bd df c1 17 3d
       0.04600167 0.075560324 -0.041595533 0.037050124
0003c0 da 10 06 3d 21 97 16 bc 62 e2 83 3c a8 a0 2b 3d
       0.032730915 -0.009191305 0.016099159 0.04190126
0003d0 1a 0f 2a bb 90 39 bd 3c d2 4a 66 39 6e 74 09 3d
       -0.0025948943 0.023098737 0.00021962382 0.0335583
0003e0 61 96 88 3d e5 3e 3d 3d 26 85 a6 3c c5 7b 57 3d
       0.066693075 0.04620256 0.020327162 0.05260827
0003f0 dc 9d 36 3d 29 f2 7c bc 5a d5 31 3d 1e ff 0d bb
       0.04458414 -0.015438595 0.04341636 -0.0021666954

lstm.weight_ih_l1 f4 [256, 64]
000000 fb a7 05 3d 75 f6 59 bb 23 f5 fb bb 16 8c 3d 3b
       0.0326309 -0.0033258472 -0.0076891347 0.002892261
000010 38 79 10 bc 09 d3 06 3b f7 8d b0 3c b3 96 cf bb
       -0.008817963 0.0020572564 0.02155207 -0.0063351034
000020 cf 4d ed 3a b4 2f 54 bb 27 0c eb 39 8a 11 a4 bb
       0.0018104854 -0.0032377066 0.00044831747 -0.0050069736
000030 3e 8f c7 ba 3c ad 29 bb 82 31 8d 3c 02 53 2f b8
       -0.0015225185 -0.002589061 0.017235521 -4.180056e-05
000040 35 48 3b 3b 40 e5 ca ba dd 57 62 3a 06 c6 9b ba
       0.0028576974 -0.0015479699 0.00086343085 -0.0011884577
000050 91 04 f5 bb 07 8d 61 bb 6b ad 42 3c a4 18 ad 3b
       -0.007477351 -0.0034416334 0.011882166 0.0052824784
000060 b9 a3 c6 39 ea 2a 87 bc 93 e5 3e bc 70 db 0c 3c
       0.00037887486 -0.016499955 -0.011651414 0.00859724
000070 31 24 d9 bb e4 92 bc bc df a5 f0 3b 91 fb c5 bc
       -0.006626629 -0.023019262 0.007343992 -0.024167808
000080 97 e9 7a bc 0d 7d 88 bc 87 a7 c6 3a 64 a3 9e bb
       -0.015314481 -0.016661191 0.0015156128 -0.004841255
000090 cf 3b 53 3c e4 f0 18 bd 97 f8 98 3c 74 87 f5 bc
       0.012892677 -0.037339106 0.018673224 -0.029971816
0000a0 7d 91 c9 ba 6d 92 d3 bc 4c e6 d4 3c be 3b 06 3d
       -0.0015378442 -0.025826657 0.02598872 0.03277182
0000b0 ed 30 80 bb c7 0f d1 bb 76 ed 0d bb f0 ca ea bb
       -0.0039120824 -0.0063800546 -0.002165643 -0.0071653053
0000c0 32 51 a8 b9 27 cc 6e 3b df cf b8 bb 08 49 b4 bb
       -0.00032103952 0.0036437602 -0.0056400145 -0.00550187
0000d0 cc c1 98 3a 3c 8d a0 bc 7b 93 a7 3b f1 cf 0c 3b
       0.0011654436 -0.019598596 0.0051140166 0.0021486247
0000e0 9e df c2 3b c1 f2 c0 3c 58 d6 f5 38 d6 26 11 3d
       0.0059470674 0.023553254 0.00011722435 0.035437427
0000f0 c8 1b e1 ba 24 36 9e 3b 29 e9 ef ba dd f8 12 bb
       -0.0017174417 0.0048282314 -0.001830374 -0.0022426166
000100 60 f3 69 bb fc 17 14 3c 57 1a 11 3d ea 4c f5 3c
       -0.0035698041 0.009038921 0.03542551 0.029943902
000110 cc f0 d6 bc 91 83 d7 bc 54 07 17 3d a4 a2 96 3b
       -0.026237868 -0.026307853 0.036872223 0.004597025
000120 ab e3 4e 3c c9 db 0f 3c 21 04 2a 3b 90 70 fd 3b
       0.012627522 0.008780428 0.0025942402 0.0077343658
000130 2b 04 d8 3c 93 30 07 bb df bb 98 3b a2 6a 23 bd
       0.026369175 -0.0020628318 0.004661068 -0.039896615
000140 65 d3 12 3d df f4 21 ba 58 ca 02 bc 71 53 20 bc
       0.035846133 -0.0006178151 -0.007982813 -0.009785519
000150 61 0c 8a bc 5b d0 0f bb 0e 9a 22 bc 2d b0 18 3c
       -0.016851606 -0.0021944258 -0.009924425 0.009319347
000160 07 95 8b 3c 21 c0 1f 3d 7f d9 9d bc 3f 87 f0 3b
       0.017038835 0.039001588 -0.01926875 0.0073403413
000170 bb 89 67 bc ae 9a f2 ba c4 90 75 37 eb 14 05 3d
       -0.014131959 -0.0018509233 1.4636844e-05 0.032490652
000180 9c 3c 7b bc f7 b7 79 3c 0f 41 20 3a e4 aa b9 3c
       -0.015334275 0.015241615 0.000611321 0.022664495
000190 45 67 2b bb a1 f1 c8 3b 30 71 6a 3c d3 dc bf bb
       -0.0026154083 0.00613232 0.014309213 -0.0058551817
0001a0 0e 3d 77 3c c4 53 9e bb ee ec 5d 3c b4 6a ed 3b
       0.01509024 -0.004831763 0.013545258 0.007245386
0001b0 cb e0 8a 3c 72 40 6f bc a5 19 f0 3b 39 c1 22 bc
       0.016952893 -0.014602767 0.007327276 -0.009933763
0001c0 9b d8 89 bc d4 20 6c 3b cc a1 a4 bc 27 8f d8 3a
       -0.016826918 0.003603031 -0.020096682 0.0016522155
0001d0 ca 80 5b bc 06 f1 2b bb 65 48 cd 3c 8c 62 43 ba
       -0.013397405 -0.002623619 0.025058934 -0.00074533443
0001e0 e8 a7 21 3b 21 70 d0 bc df 79 d3 ba e9 b1 e8 3c
       0.002466673 -0.025444092 -0.0016134343 0.028405147
0001f0 31 7f 21 3c de ff 13 bd 9d 59 a9 3c 54 ac 65 ba
       0.009856985 -0.036132686 0.020672614 -0.00087613356
000200 8c ec 1a bb 4c 16 31 3b 4c 5e bf bb c1 b1 8f 3c
       -0.0023639528 0.0027021347 -0.0058400985 0.017540814
000210 fe fb ab 3c 35 32 6b 3b 37 d1 13 bc 1d ef 4c 3a
       0.020994183 0.003588808 -0.009022049 0.0007817613
000220 3e 92 b9 bb 30 46 b8 3c 2c 4e 41 3c 60 49 f2 3a
       -0.0056631854 0.022494406 0.011798423 0.0018485002
000230 b6 bc c7 3c a2 06 d1 3c da 87 df 3b 0d 7e 87 bc
       0.024381977 0.025515858 0.0068216147 -0.016539598
000240 10 ac a0 bc 91 00 e1 bc c4 8c fe 3c e0 3c 08 bc
       -0.019613296 -0.02746609 0.031072982 -0.008315295
000250 ef 0e e8 bc 0b f7 be 3a 22 2e e1 3c 5c fd c8 3b
       -0.028327433 0.0014569474 0.027487818 0.0061337184
000260 35 ad 77 3c 6c 2c b5 3b 8a 1d 9d bc 31 87 4a ba
       0.015116979 0.005528977 -0.019179124 -0.00077258336
000270 05 55 73 3c fc b2 5f bb af 2a 4f bb 7a 82 95 bc
       0.014851813 -0.0034133783 -0.0031611135 -0.018250693
000280 f5 ba 61 3c 4f 5b 8d bb 7f c2 c6 3c d1 31 13 3b
       0.013777484 -0.0043138633 0.024262665 0.0022460113
000290 30 7e d0 3c c4 34 e4 3c cc ff 82 3c 15 51 ef bb
       0.025450796 0.027857192 0.015991114 -0.007303367
0002a0 ca 08 d5 39 95 ed 1b 3d 70 81 ce bc b9 e0 ee bc
       0.00040633074 0.038068373 -0.025208205 -0.02915989
0002b0 81 aa 4c 3a c1 48 1e bc ae e6 a4 bb 77 4e cd bc
       0.00078073895 -0.009660901 -0.005032382 -0.025061829
0002c0 01 8a fa ba 70 ba 30 3b 0f c5 b6 bc e0 fd 91 bc
       -0.0019114615 0.0026966594 -0.022310762 -0.017821252
0002d0 42 a9 f0 bb eb d9 d1 bc 4e 35 95 3b cc 13 65 3c
       -0.007344396 -0.025616607 0.0045534736 0.013981771
0002e0 ce fd 6f bc b9 5d 22 3d e2 12 8d bb a0 bb 41 3c
       -0.014647914 0.039640162 -0.0043052295 0.011824518
0002f0 32 3f a9 3c 0c 54 b8 3c 0c 12 59 bb a8 ca 89 bb
       0.020660017 0.022501014 -0.003312233 -0.0042050667
000300 e6 86 16 3d df 02 2e 3c 8d 77 1f bc bb 21 87 3c
       0.036749743 0.010620802 -0.009733093 0.016495576
000310 9c d4 71 bc 11 e2 cc 3b eb a0 03 bc 88 23 f6 3b
       -0.014760163 0.006252535 -0.008033971 0.00751156
000320 6b 87 27 bc 8b 71 2f 3c 2d 00 1b 3d 14 e9 df 3b
       -0.010225157 0.010708223 0.037841965 0.006833205
000330 c3 b6 a9 bc 65 a4 4a 3c e1 d0 27 3d 1a 5f e6 3c
       -0.02071703 0.012368296 0.040970687 0.02812152
000340 93 5c 03 3c d9 96 74 bb 7e da c7 bb c6 df 00 bc
       0.008017677 -0.0037321358 -0.0060990443 -0.007865852
000350 a4 c0 7d 3b a8 d0 11 bd 2b 18 1c ba 42 8d 11 bd
       0.003871956 -0.03559938 -0.0005954529 -0.035535105
000360 ad 9b df 3b 1e 8e 5f bb fa ec eb bb 7b dc ea 3c
       0.006823978 -0.0034111808 -0.0071998807 0.028669586
000370 b6 e9 75 bc c2 12 e9 bb 2b cb ef bb 23 b4 d0 3c
       -0.015009334 -0.007112832 -0.0073179207 0.02547652
000380 3d 75 a4 3c bc 6c 5c 3c 5a c2 9e 3a 5f 1b a0 3b
       0.020075435 0.013453659 0.0012112365 0.0048860754
000390 4e a1 40 ba a7 8d 1d 3c 55 c1 da 3b 19 19 9e bb
       -0.0007348255 0.009616292 0.006675879 -0.004824769
0003a0 e8 eb 15 3b 82 5b 4a 3c bb fa a0 3c ed 44 f9 3b
       0.0022876207 0.012350919 0.019650808 0.0076070935
0003b0 54 13 e7 3c 6e 17 9a bc b7 4f 23 3d 98 ca 74 bb
       0.028207459 -0.01881 0.039870944 -0.00373522
0003c0 3d b8 9e bc 71 cf 51 ba eb a9 fe bb 83 17 b2 38
       -0.019374961 -0.00080036285 -0.0077717206 8.492081e-05
0003d0 b4 0d f6 3b 72 68 bb 3b d6 64 18 3c e8 3c 4e 3b
       0.0075089578 0.005719238 0.009301385 0.0031469408
0003e0 76 b7 f7 3b b3 fb c0 3c d1 81 9c ba 3c 45 38 3c
       0.007559712 0.02355752 -0.0011940544 0.0112469755
0003f0 ab ee 62 3c 37 0f 73 3b 29 3e 23 bd 3e 75 72 3b
       0.013850848 0.0037087926 -0.039854202 0.0036996151

lstm.weight_hh_l1 f4 [256, 64]
000000 b5 4c d7 bb 0b 31 eb ba 55 58 47 bb 37 99 4d bc
       -0.0065704235 -0.0017943693 -0.003041764 -0.012548736
000010 ea c5 16 3d cc 53 b3 3c 80 05 d7 3c 2d 9e d8 3a
       0.03680984 0.021890543 0.02624774 0.0016526632
000020 ea 5a 0f 3d 82 58 b3 bb 89 92 b1 bb 9b cd b6 3a
       0.03499881 -0.0054731974 -0.0054190797 0.0013946773
000030 6f b7 09 3d cb 1f b8 bc bc 76 a7 3c 0b 14 3c 3b
       0.0336222 -0.022476098 0.02044236 0.002869847
000040 da 29 ca bb 6a 8d bd 38 a6 d3 ba bb fc 56 a0 bc
       -0.00616954 9.038563e-05 -0.0057015 -0.019572727
000050 47 36 88 3b c0 69 ec 3b e2 ae 74 3b 2f b6 06 3c
       0.004156861 0.007214755 0.0037335684 0.008222147
000060 f4 82 57 3b 9f 6b 31 bb 6f 62 94 3b f6 3a 48 3c
       0.003288445 -0.0027072204 0.0045283358 0.012221089
000070 79 84 09 3d d2 10 11 3d 00 ac db 3a 4e 01 26 3b
       0.0335736 0.03541643 0.0016759634 0.0025330367
000080 7d ea 67 39 8a 7d d7 3a b8 6e 0e 3c 55 cc bd 39
       0.0002211723 0.0016440612 0.00869339 0.00036201128
000090 84 89 b8 ba ae ed 58 bc 6c 1f a2 3c d2 80 cc 3b
       -0.0014079069 -0.013240261 0.019790374 0.0062409425
0000a0 61 57 0b bd ea 78 3d bc 78 8d 9c bb bd 55 f2 bc
       -0.034018878 -0.011564473 -0.0047776066 -0.029581899
0000b0 cf 04 a7 3b 70 e2 b1 bc d1 9b 25 3c d5 6f 8b 3c
       0.005097009 -0.02171442 0.01010795 0.0170211
0000c0 6e 44 bf bb e0 5a 50 3c bb ae b2 ba 4b 20 e0 bb
       -0.005837015 0.012716979 -0.0013632396 -0.006839787
0000d0 5b 48 0e 3b 58 c0 80 3a 66 ab c4 3c cb 28 08 bb
       0.0021710608 0.0009822948 0.02400751 -0.0020776268
0000e0 dc 08 cf bc f8 e3 46 3b 01 a8 0f 3c ad b9 f6 3b
       -0.02527278 0.0030348282 0.008768083 0.0075294585
0000f0 9b 9a 62 3b da 00 96 ba 41 5a 14 bd e8 11 78 bc
       0.0034577015 -0.0011444346 -0.036218885 -0.015140988
000100 3c 50 a0 bc 7e ca e4 bb f1 97 47 bc ab 77 ca bb
       -0.019569509 -0.0069821468 -0.012182222 -0.0061788163
000110 90 8e a4 bc 17 ab de bb 9c aa 6d 3c 15 d4 97 3c
       -0.02008751 -0.006795298 0.0145060085 0.018533746
000120 be a0 bf 3c 77 9d 3e bc 0c 84 69 3c 86 95 27 3c
       0.023392078 -0.011634222 0.014252674 0.01022852
000130 f3 fe ab 3b 15 d6 01 3c 56 c2 07 3d 3c 9a 98 3a
       0.005248898 0.007924576 0.033144318 0.0011642645
000140 94 2d 4b bc 74 57 15 3d 61 a9 f8 3c f8 cf c5 bc
       -0.012401003 0.036460355 0.030354204 -0.024147019
000150 72 fd 73 3c 45 c2 92 3c 9e 82 02 bc ca 48 de 3c
       0.014891969 0.0179149 -0.007965712 0.027134318
000160 a4 51 1f 3d 9c 7f ea bb c6 26 60 3b 40 37 a4 bb
       0.038896218 -0.0071563255 0.0034202798 -0.005011469
000170 6f 01 83 bb 65 1a 9c bb 6e 93 2a 3b bd b5 cf 3b
       -0.0039979736 -0.0047638887 0.0026027816 0.0063388036
000180 b2 45 49 bc ca e0 2a bc a5 24 1b 3c 0e 27 19 3c
       -0.012284683 -0.01042957 0.009469186 0.00934769
000190 6f 90 00 bd 85 e3 7c 3c 39 b3 ab 3b 8b b2 b5 3c
       -0.031387743 0.015435104 0.005239871 0.022179862
0001a0 fc 5f 5b bb b6 d1 eb 3b c9 9e ea bc e2 51 81 ba
       -0.003347396 0.0071966304 -0.028640168 -0.0009866322
0001b0 fd 3f 46 3c be e7 3b bb c2 b7 c2 bb f5 7a 12 bc
       0.012100217 -0.0028672065 -0.005942316 -0.008940448
0001c0 14 bd e7 bc d6 04 b9 bc 19 14 04 3b 28 3f 68 3c
       -0.028288402 -0.022585314 0.002015358 0.014175214
0001d0 4d 9b 08 3d 88 22 ee 3c 15 81 3c 3c 25 c1 f9 bc
       0.03335123 0.0290692 0.011505385 -0.030487606
0001e0 fd 4c b2 bb 72 60 b4 bc 36 8b a4 bc 40 c2 07 3d
       -0.0054413066 -0.022018645 -0.020085912 0.033144236
0001f0 be 81 55 3c 69 94 fc 3c 58 89 39 bc 4e 77 60 3a
       0.013031421 0.030832486 -0.011324249 0.00085626997
000200 a4 dd d4 bb f8 94 68 bc 2e ad 46 bd 78 d1 4a 3c
       -0.006496148 -0.014195673 -0.048505 0.012379043
000210 91 3f b5 3b e8 c9 ab 37 9d 3b a4 bc 45 0c 44 3c
       0.0055312593 2.0478808e-05 -0.020047957 0.011965816
000220 58 22 e7 bc d8 2b a1 3a a1 8a 3b bd 75 e2 ba 3c
       -0.028214619 0.0012296392 -0.045786504 0.022813061
000230 8e 11 7c bc 6c 4b 61 bc 24 6c 04 3c f6 71 d0 bc
       -0.015385045 -0.013750892 0.008082423 -0.025444966
000240 3a 3b e8 3b 2e de 03 bb dc fb 09 bc 87 da 66 bc
       0.0070871385 -0.0020121443 -0.008421864 -0.014090187
000250 fd 4c ad 3b 31 cb ec ba 21 53 61 bb cf cb 36 3c
       0.0052887187 -0.0018065927 -0.0034381824 0.01115699
000260 21 d5 57 bc 29 8b f6 bb 96 c2 a8 3c 68 f6 82 bb
       -0.0131733725 -0.0075239134 0.020600598 -0.003996659
000270 85 20 fb bc 33 7b 1d bc 48 ae e0 3b 7c 85 18 3d
       -0.030655155 -0.0096118925 0.0068567134 0.037236676
000280 b9 cf 64 3b 16 85 84 3c 82 6c 9d 3b c6 8b 56 3c
       0.0034913851 0.016176742 0.004804195 0.013094848
000290 8c e5 39 bc e0 22 23 bc 1c 2c 8f 3c 56 d9 a3 3c
       -0.011346232 -0.009957045 0.017477088 0.020001095
0002a0 5f 1a a7 bc 8e d5 22 bc d8 2d c0 bc 5b 74 75 3b
       -0.020398317 -0.009938611 -0.02345936 0.0037453386
0002b0 79 de 0f 3c ab 5f 6d 3c e7 98 c9 3b dd 8b 49 3b
       0.008781069 0.014488141 0.0061522606 0.003075353
0002c0 ba 94 2a ba 8e 6a 77 3c d8 2a 41 3c 6c 8a 6c 3b
       -0.00065071473 0.015101088 0.01179 0.0036093248
0002d0 e6 6c 61 3c 3a bc 59 3c c9 19 4c 3c bd 53 52 bb
       0.013758874 0.013289506 0.01245732 -0.003209337
0002e0 fe c3 cb bb 3a dc 13 3c 44 c2 1d bc f3 2e 2e 3b
       -0.0062184324 0.009024674 -0.009628836 0.0026578277
0002f0 c3 79 f6 bc cd 44 a6 ba 75 96 ad 3c a7 50 02 3c
       -0.030087357 -0.0012685299 0.021189908 0.007953799
000300 80 f2 14 3d e5 13 16 3c 28 8d 6a bc e1 cd ed 3c
       0.03636408 0.009160017 -0.014315881 0.029028835
000310 1e d5 14 bb 81 40 40 bc 2f 1c 2c bc ca 5c 1e bc
       -0.0022710036 -0.011734129 -0.010504766 -0.009665677
000320 92 8a 89 3c 84 b6 a1 bc c3 1f 1c bc 0e fb 5e 3b
       0.016789708 -0.01974035 -0.009529057 0.0034024152
000330 bd 12 b2 bb ee 85 49 bc 89 4e 3a 3c d0 c1 1a 3c
       -0.0054343627 -0.012299998 0.011371263 0.009445623
000340 74 4c 7f ba c2 30 d4 bc 93 1b 93 3c dd 2a 5e 3b
       -0.00097388704 -0.025902156 0.017957484 0.003390006
000350 58 f7 a0 bb 9d 33 1e 3d 4e d5 03 bd 14 81 e2 3b
       -0.004912298 0.03862344 -0.032185845 0.00691236
000360 e5 25 2f bc c1 6c 5e bc e5 aa 95 3b cb 3b 12 3b
       -0.010690187 -0.013575734 0.0045674914 0.0022313471
000370 5f 76 0a bb 18 11 14 3d 8f d7 bf 3b 6f 43 9d 3a
       -0.0021127684 0.036149114 0.005854554 0.0011998246
000380 cd 26 f3 3a 03 4f 4e 3c 3b a5 01 b9 b2 1f 0d 3d
       0.0018550992 0.01259208 -0.00012363952 0.034454055
000390 c4 8e 65 ba ae 57 84 3c e0 8b 4e 3c 98 f1 69 bc
       -0.00087569305 0.01615509 0.012606591 -0.014278792
0003a0 5d a4 43 3b d3 91 21 3b 02 e8 dc bb 76 69 04 bb
       0.0029852607 0.0024653568 -0.0067415247 -0.0020204461
0003b0 46 57 b0 bb 5c 3c 4e bb 3e 9e 5d 3c d5 60 aa bb
       -0.0053814976 -0.0031469082 0.013526497 -0.0051995316
0003c0 3d ce b9 3c 1b f1 8a bc 2f 32 84 bb fb 6f 71 bc
       0.02268135 -0.016960671 -0.0040343027 -0.014736171
0003d0 cb 35 36 3c 8f a9 46 bb 95 d2 0e bc 89 0b 9e 3b
       0.011121224 -0.0030313467 -0.008717199 0.0048231524
0003e0 6c 0e 0f 3c 3e 3a 11 bd 9f c7 8e bc f9 ca b4 bc
       0.008731466 -0.035455935 -0.017429171 -0.022069441
0003f0 c0 47 d3 bc 06 b6 9d 3b 2c 29 48 3c 99 f0 a4 3b
       -0.025791049 0.0048129587 0.012216847 0.0050335643

lstm.bias_ih_l1 f4 [256]
000000 e2 dd 27 3b 9a 99 20 3c c9 8b 3d 3d 7b c0 b6 3d
       0.002561443 0.0098022465 0.046275888 0.089234315
000010 6b 11 7f 3d b8 9a be 3d d3 f1 b3 3d 3a f7 3b 3d
       0.06227247 0.09306854 0.08786359 0.04589007
000020 9b 0e 7d 3d 46 a4 c9 3d 2a 6b 3b 3c 86 81 8a 3d
       0.061781507 0.09845786 0.011439124 0.06762986
000030 60 bf 19 3d 2e bf 95 3d d9 c3 8d 3c 7e 9e a9 3d
       0.037536025 0.07311855 0.017305302 0.08282183
000040 20 b0 9e 3d 13 9b 73 3c dc 78 b8 bc 7d 05 07 3d
       0.07748437 0.014868516 -0.022518568 0.03296422
000050 04 ef 64 3d 21 a3 43 3d af b0 85 3d 13 27 2f 3d
       0.055892006 0.047762994 0.0652784 0.042761873
000060 fd 09 90 3c 5d c3 8e 3d 3a 3c 8d 3d e0 f5 b9 3c
       0.017582888 0.06970856 0.06896253 0.02270025
000070 3e d3 b0 3a a0 3f 82 3d 2b 0d 03 3e 3e d8 67 3d
       0.001349069 0.06359792 0.12797992 0.05660271
000080 01 70 9f 3d c0 3a a4 3d c1 32 ad 3d 13 c6 93 3d
       0.07785035 0.08019018 0.08456946 0.07215514
000090 a4 f5 3c 3d 33 a7 70 3d 25 6e 90 3c b5 eb f0 3d
       0.0461327 0.058753204 0.017630646 0.117637075
0000a0 8a 34 de 3d c5 89 14 3d de 1b e6 3c c3 90 94 bb
       0.10849865 0.0362642 0.02808946 -0.0045338585
0000b0 0a 6f 9b 3d 2b a9 1c 3d 27 f0 d1 3c 43 62 1c 3d
       0.075895384 0.03824727 0.025627209 0.038179647
0000c0 36 b5 90 bc c3 54 4a 3a 2a c7 47 3d 56 1f 53 bb
       -0.017664533 0.0007718319 0.048773922 -0.0032214723
0000d0 00 19 37 3d 4e 9b 82 3d 6b 76 44 3c af b0 f0 3c
       0.044701576 0.06377278 0.011991124 0.029381124
0000e0 b6 dc 76 3d 01 b2 e3 bc 06 6c a5 3d ab 1e d9 3d
       0.06026908 -0.02779484 0.080772445 0.106015526
0000f0 22 ba 99 bc ca 41 03 3a b6 4d b8 3c 0b 4c ad 3d
       -0.018765513 0.0005007057 0.022497993 0.0846177
000100 f1 65 e9 3c 0f eb ba 3d 15 0a 86 3d 02 f3 b4 bc
       0.028490992 0.09126865 0.06544892 -0.022088531
000110 ec fe 68 3d eb f6 c8 3d 0e e2 a0 3d 36 e0 35 3c
       0.056883737 0.09812721 0.078556165 0.011100819
000120 c5 b9 47 3d fc 18 ed 3c b5 16 5f 3d 2a 09 9c 3d
       0.048761148 0.028942578 0.054465014 0.076189354
000130 8b 1d 5e 3d 27 56 67 bb 6b 0e 34 3d 40 e6 a0 3d
       0.054227393 -0.0035299154 0.043959063 0.07856417
000140 3e 1b a9 bc f3 fe 46 3c 55 4c 67 3d f3 66 fc 3c
       -0.020642873 0.012145746 0.05646928 0.030810809
000150 a3 65 bc 3d eb d0 4f 3d 2e 09 bb 3d 24 5f b6 3c
       0.09199073 0.05073635 0.0913261 0.022262163
000160 b5 08 a0 3d 57 8d 3e bc 0d 6f 8e 3d 42 d8 b7 3c
       0.07814161 -0.011630378 0.06954775 0.022441987
000170 de 7a a9 bc b2 af cd 3b 47 77 0b 3e 86 09 9b bc
       -0.02068847 0.006277048 0.1361972 -0.01892544
000180 d9 52 97 3d 19 a2 b8 3d 49 eb 5c 3d 1d 9a b3 bc
       0.07388849 0.09015293 0.053935323 -0.021924073
000190 7b 78 8a 3d 94 27 3c 3d 56 77 59 3d 39 a8 c0 3d
       0.06761261 0.045936182 0.053092323 0.09407086
0001a0 9f 80 ba 3d ea bb f7 3d 6c d7 bf bc 66 cf 2a 3d
       0.09106564 0.12096389 -0.02341815 0.041701697
0001b0 f4 aa 9e 3d 2e 20 46 3c 2e f9 f8 bb dc b2 4f 3d
       0.077474505 0.012092633 -0.007598064 0.050707683
0001c0 b6 98 2a 3d 62 71 a1 3d 86 d8 aa 3c 5e fc ab 3d
       0.041649543 0.07882954 0.0208552 0.083977446
0001d0 21 99 7c 3d 5b 74 e3 3c 0b 22 33 3d 49 b8 0c 3d
       0.061669473 0.027765444 0.043733638 0.034355436
0001e0 74 a1 df bb ff b6 b8 3d db 9e c8 3d 63 2e c6 3d
       -0.0068246666 0.09019279 0.09795924 0.09676816
0001f0 95 ea b3 3d 95 15 af 3d e5 cc cd 3d b9 42 ad 3d
       0.08784977 0.08549038 0.10048846 0.08459992
000200 24 70 89 bd e0 b4 71 bd 2a a3 47 bd ed 5d 8d 3d
       -0.06710842 -0.059010386 -0.04873959 0.069026805
000210 08 d1 30 bd b6 51 ce 3c de b6 8f bd fc 8a a3 3d
       -0.043168098 0.025185447 -0.07017301 0.079854935
000220 7c 9e 22 3d 51 6f 26 3d 6b 18 a9 bd 63 99 cc bc
       0.039701924 0.040633503 -0.082566105 -0.024975484
000230 0e b9 3c bd 1d ea bd bd 87 79 3f 3d b3 78 06 3c
       -0.04607492 -0.09273169 0.046746757 0.008207488
000240 96 b8 e1 bd 4f 05 56 bd cf 19 99 3d f4 c4 d9 3a
       -0.11021535 -0.052251156 0.07475626 0.0016614483
000250 1e 90 3c bd b6 4a 37 bd b4 7c e8 3d 1c 07 19 bd
       -0.04603588 -0.044748984 0.1135191 -0.037360296
000260 9e c3 76 3d 6e 35 d3 3c e7 8c 58 3d b0 c2 02 be
       0.06024515 0.025782313 0.05286875 -0.1276958
000270 6f b9 97 3d 25 f9 af 3c 0d 41 3f bd 27 af 77 3d
       0.074084155 0.021481106 -0.046692897 0.060469773
000280 8e f9 fb 3c 35 ab a8 bd 22 26 b1 3d b3 0c 62 bd
       0.030758645 -0.0823578 0.086498514 -0.055187892
000290 bc 10 9a 3c c4 e0 68 3d b8 d2 3e 3d 90 fc be 3c
       0.018806808 0.05685498 0.046587676 0.02331379
0002a0 9a 58 a0 bd cb 21 5f bc 08 62 ad 3d 46 2e 76 bd
       -0.078293994 -0.013618897 0.084659636 -0.060102724
0002b0 6f 70 94 3d bb a7 dc bc ae b2 71 bd b2 85 2c 3d
       0.072480075 -0.026935449 -0.059008293 0.04211969
0002c0 9c 69 88 bd 32 4e 3c 3d 35 c3 a1 bc 1c 69 4a bd
       -0.066607684 0.04597301 -0.019746402 -0.049416646
0002d0 e1 52 6c bd 0f 7d 83 3d 5d 68 85 bc 41 8d a9 bc
       -0.057696227 0.064203374 -0.016285116 -0.020697238
0002e0 5c 71 8d 3c 7b f5 46 bb e9 3d 87 bd 62 fc 4f 3c
       0.017265968 -0.003035872 -0.06603605 0.01269445
0002f0 50 71 4d 3c d3 18 91 bc 1f b0 99 bc fa 3d 8f bd
       0.012539223 -0.017712032 -0.018760739 -0.06994243
000300 36 21 a8 3c a1 18 80 3d fb e7 7e 3d 22 46 9a 3d
       0.020523649 0.062546976 0.062232953 0.07532908
000310 93 d5 72 3d a2 73 e3 3d c3 cc 04 3e 24 b7 4b 3a
       0.05928571 0.111060396 0.12968735 0.00077711255
000320 0f 71 34 3d 3f 78 ab 3d 2d 61 e7 3c 7d c3 a1 3d
       0.044053134 0.083725445 0.02824458 0.078986146
000330 47 9c 5b 3d 62 0c dd 3b 85 9e 5d 3d 27 eb b9 bb
       0.053615835 0.006745861 0.054106254 -0.0056737843
000340 e0 d7 e4 3d b0 c2 89 3c 96 8a 8b 3d 93 ae e9 3d
       0.111739874 0.016816467 0.068135425 0.114102505
000350 98 ca 9a 3d fb 2d 2b 3d bc 9f a6 3d a5 1b 31 3d
       0.07558173 0.041791897 0.08135936 0.043239255
000360 39 27 b0 3d 9a 6c d9 3d 7a 3a 22 3d 14 b7 2f 3d
       0.08601231 0.10616417 0.03960655 0.042899206
000370 27 b0 9c 3d 9f 5f d1 3d 54 0a 29 3e 13 33 77 3c
       0.07650786 0.102233164 0.16507846 0.015087861
000380 e5 d5 a5 3c a7 4f 06 3e ec 10 d1 3d 70 78 6f 3d
       0.020243594 0.13116322 0.10208306 0.058464468
000390 59 14 28 3d f2 0f 77 3d 9c 2c 13 bb e1 e2 da ba
       0.04103503 0.06031794 -0.002245701 -0.0016699695
0003a0 1b b3 03 3e 9f b1 09 3e b5 85 44 bc bb 0d 3f 3d
       0.12861292 0.13446663 -0.011994769 0.046643954
0003b0 5b 08 d1 3d d3 bd 88 3d b9 97 84 3d 33 3c 40 3d
       0.10206672 0.06676831 0.06474251 0.04693241
0003c0 c4 28 83 3d f7 9f 9d 3d b9 7a db 3d 7b 97 92 3d
       0.0640426 0.076965265 0.10716767 0.07157799
0003d0 73 67 8b 3d 0a d1 98 3c 3b da d6 3c aa 22 cb 3d
       0.06806841 0.018654365 0.026227107 0.09918721
0003e0 1a ee ad bc b9 37 ad bb 63 4d c3 3d 57 be bb 3d
       -0.0212317 -0.0052861837 0.09536245 0.09167164
0003f0 93 6e ae 3d 0a 31 ef 3d 28 d2 bc 3d 40 46 42 3d
       0.08517184 0.11679275 0.092197716 0.047430277
