rnn_models/rnn_model.pth (torch, 29788 bytes, 6 tensors)

rnn.weight_ih_l0 f4 [64, 20]
0.10927051 -0.1919645 -0.063780606 -0.19877325 0.2078055 -0.07584495 0.27458206 0.3265216
0.0786313 0.019019697 -0.058012515 0.33650947 0.022701079 0.33093745 -0.11100006 0.21217124
0.24152412 0.11552853 0.18501472 -0.14717855 -0.11929214 -0.19030203 0.027504008 -0.06091504
-0.15781409 0.06543572 -0.29000533 -0.08274617 -0.35939574 -0.019757086 -0.07866268 -0.2913882
-0.10061288 -0.088027015 0.13097699 -0.08806525 0.2652886 0.07942086 -0.0021571578 -0.117142424
-0.06497633 0.22955815 -0.014226231 0.06847146 -0.30075246 -0.09486993 -0.31828767 -0.10917611
0.044816107 0.08670896 -0.40139785 -0.33178127 0.15081494 0.19406024 0.08540849 0.16702886
-0.50462955 -0.17670639 -0.4405794 -0.12240199 0.3080367 -0.1876182 -0.15080883 0.13043192
0.09568422 0.041290943 0.38818023 -0.16373384 0.038431566 0.08178807 -0.010593738 -0.020339813
-0.09490795 -0.27738044 0.12185353 0.21256228 0.45554087 -0.10409939 0.19383715 -0.006409258
0.24311075 -0.11226347 0.068177804 0.30100965 -0.0016318203 0.13965121 0.07562214 0.060824886
0.26374146 -0.14289501 0.21431352 -0.12018673 -0.15858209 0.18165226 0.037126888 0.16674748
-0.12366519 0.25215882 -0.03679 -0.006515757 -0.27193993 -0.048035305 0.02865514 0.027370267
0.01791303 -0.19898279 0.18635702 -0.21964152 0.10352842 0.016753327 0.11454262 0.27091655
-0.052614514 -0.09259645 -0.2909453 0.17381878 -0.078501426 -0.14304572 0.05224435 -0.23079918
0.12402349 -0.09309269 0.0011685261 0.0059084096 -0.14161895 -0.22733769 -0.28114787 -0.09462581
-0.059851106 0.06996701 -0.004572598 0.2502321 -0.21595278 0.27440318 0.074591935 0.12190729
0.004138104 0.21054365 -0.14222106 0.13344525 0.10394555 -0.113767326 -0.11229416 -0.08445985
-0.06691357 0.046174943 0.0060840133 -0.01196013 -0.0031613074 0.15098073 -0.29097456 -0.110007495
0.043694034 0.1303618 -0.018079832 0.008723405 -0.024603954 0.068662256 0.23398778 -0.06354944
0.25435647 0.059953656 -0.11342429 0.08277629 -0.019586056 -0.15603727 -0.10410897 -0.17272472
0.015885105 0.011239774 0.01858576 -0.12711348 -0.29056588 -0.11537874 0.051434778 0.20740671
0.23376672 -0.0006797129 -0.26483044 -0.12830344 0.31153378 0.0852711 0.070532314 -0.120675854
0.008892285 0.12832306 0.012609474 0.26830968 0.26502103 -0.051837754 0.057099815 0.04415798
0.13236472 -0.10245914 -0.012653059 -0.042270344 0.11758368 -0.24774338 0.10267751 -0.113630585
-0.1673475 0.08685708 0.03290295 -0.13682313 -0.012585344 0.0037669207 0.23963618 0.0970046
-0.03849226 0.022606265 0.17791842 -0.12553413 0.025816465 0.039949626 -0.018632839 0.09978122
0.043788366 -0.019870086 0.02594266 0.08305957 0.23167442 -0.04205345 0.009224752 -0.10885895
-0.16299155 -0.14540678 0.1045543 -0.11457396 0.026361628 -0.22799271 0.00026805987 0.005989062
0.073344156 0.07931346 -0.1268533 0.084417224 0.28105885 -0.024361715 -0.17391108 -0.22356367
-0.098954305 0.017772129 0.037170168 -0.34669966 0.16266538 0.42238027 0.12647882 -0.23737583
-0.40142974 0.16871688 0.063495725 -0.30279472 0.120473616 -0.08219483 0.028176807 -0.030869113
00000000: 38c9 df3d 5892 44be 689f 82bd 378b 4bbe
00000010: f7ca 543e 9954 9bbd 0596 8c3e d72d a73e
00000020: 7209 a13d 32cf 9b3c 889e 6dbd f84a ac3e
00000030: 9df7 b93c a270 a93e 0054 e3bd 6b43 593e
00000040: 1952 773e 399a ec3d 8074 3d3e f9b5 16be
00000050: 704f f4bd 89de 42be 1650 e13c 0d82 79bd
00000060: 049a 21be 2a03 863d 947b 94be d376 a9bd
00000070: b802 b8be 9dd9 a1bc e619 a1bd d630 95be
00000080: 200e cebd 8247 b4bd d51e 063e 8e5b b4bd
00000090: e8d3 873e 67a7 a23d 1a5f 0dbb 5ee8 efbd
000000a0: 4f12 85bd 4b11 6b3e 2315 69bc c43a 8c3d
000000b0: 3afc 99be 2a4b c2bd 9af6 a2be b997 dfbd
000000c0: 1891 373d 7894 b13d 0584 cdbe 3cdf a9be
000000d0: 3b6f 1a3e bab7 463e a5ea ae3d 9d09 2b3e
000000e0: 672f 01bf 85f2 34be a093 e1be e5ad fabd
000000f0: fdb6 9d3e fc1e 40be a16d 1abe f28f 053e
00000100: 17f6 c33d b120 293d 8fbf c63e d8a9 27be
00000110: 6b6a 1d3d 8180 a73d 5c91 2dbc ae9f a6bc
00000120: 195f c2bd cf04 8ebe 588e f93d eda9 593e
00000130: a73c e93e 1032 d5bd 3f7d 463e c104 d2bb
00000140: 06f2 783e 64ea e5bd cea0 8b3d f01d 9a3e
00000150: cee2 d5ba ba00 0f3e c8df 9a3d 8423 793d
00000160: 1f09 873e 1253 12be 0175 5b3e 7624 f6bd
00000170: 5863 22be 0d03 3a3e 5d12 183d dabf 2a3e
00000180: 2d44 fdbd f61a 813e 1cb1 16bd 2282 d5bb
00000190: b63b 8bbe abc0 44bd 2fbe ea3c 9c37 e03c
000001a0: 59be 923c 25c2 4bbe 60d4 3e3e b5e9 60be
000001b0: b506 d43d 463e 893c 5295 ea3d 93b5 8a3e
000001c0: 5182 57bd 35a3 bdbd c8f6 94be 8dfd 313e
000001d0: 5bc5 a0bd 947a 12be 2cfe 553d 9f56 6cbe
000001e0: 0700 fe3d 61a7 bebd 3b29 993a 559b c13b
000001f0: 8f04 11be 36cb 68be 9df2 8fbe 2dcb c1bd
00000200: 6f26 75bd dd4a 8f3d bbd5 95bb 6c1e 803e
00000210: ba22 5dbe 937e 8c3e a8c3 983d 87aa f93d
00000220: ef98 873b c198 573e 66a2 11be dfa5 083e
00000230: 68e1 d43d d8fe e8bd 7bfa e5bd 49f9 acbd
00000240: fb09 89bd f021 3d3d 675c c73b 6cf4 43bc
00000250: f02d 4fbb b19a 1a3e 9efa 94be 9c4b e1bd
00000260: 84f8 323d 907d 053e 281c 94bc 9dec 0e3c
00000270: 3b8e c9bc cc9e 8c3d 7e9a 6f3e 3526 82bd
00000280: 033b 823e f791 753d ff4a e8bd 9e86 a93d
00000290: f072 a0bc 3cc8 1fbe 1537 d5bd c0de 30be
000002a0: 7b21 823c 0727 383c 2a41 983c 092a 02be
000002b0: 0dc5 94be b04b ecbd 46ad 523d 6d62 543e
000002c0: 8b60 6f3e c32e 32ba db97 87be fa61 03be
000002d0: 5b81 9f3e 9da2 ae3d 3f73 903d e724 f7bd
000002e0: f2b0 113c 1f67 033e f897 4e3c e35f 893e
000002f0: d6b0 873e d353 54bd 7fe1 693d ffde 343d
00000300: 9e8a 073e 19d6 d1bd c74e 4fbc ab23 2dbd
00000310: b6cf f03d 71b0 7dbe 9648 d23d 27b7 e8bd
00000320: 255d 2bbe 20e2 b13d 3ec5 063d 5d1b 0cbe
00000330: c232 4ebc 71de 763b 3063 753e 59aa c63d
00000340: 0faa 1dbd c630 b93c 3f30 363e 058c 00be
00000350: 0d7d d33c 38a2 233d e5a3 98bc 195a cc3d
00000360: 6e5b 333d 97c6 a2bc b485 d43c 231b aa3d
00000370: 0f3c 6d3e 3d40 2cbd 6a23 173c 71f1 debd
00000380: 42e7 26be 84e5 14be 9120 d63d c1a5 eabd
00000390: 57f4 d73c ec76 69be 638a 8c39 e53f c43b
000003a0: 7635 963d 186f a23d d5e5 01be f0e2 ac3d
000003b0: f2e6 8f3e 3892 c7bc bf15 32be e0ed 64be
000003c0: 8ea8 cabd db96 913c bf3f 183d 9e82 b1be
000003d0: c191 263e 3a42 d83e aa83 013e a612 73be
000003e0: 3388 cdbe 1ec4 2c3e 0c0a 823d e907 9bbe
000003f0: dfba f63d c355 a8bd 0cd3 e63c 39e1 fcbc

rnn.weight_hh_l0 f4 [64, 64]
0.30655754 -0.029499609 -0.0057157 0.07113366 -0.012668064 -0.060792215 0.03889496 0.011063379
0.025009431 0.041901954 -0.12614891 -0.07205661 0.15986471 0.020339388 0.21898814 -0.050547276
-0.09114893 0.01666824 -0.0117911175 0.10792609 0.17919193 0.0045512575 0.028957667 -0.0018191024
-0.123298 -0.24085489 -0.04505119 -0.22093992 0.03624282 -0.05871538 0.050323784 -0.024388231
0.038775586 -0.23006445 0.07042303 0.09533742 -0.076076016 -0.009950195 0.009534755 -0.048741348
0.087934144 0.047238667 -0.056820545 0.04516608 -0.039861154 -0.15203919 -0.073558845 0.049195297
0.051093984 0.008386449 -0.019101737 0.31823894 -0.002600778 0.015463211 0.10273773 0.14422323
-0.017847294 0.024145499 0.037541173 -0.093123995 -0.042181864 -0.072591916 -0.06098191 0.17557773
-0.013766071 0.102128185 0.10853403 0.019847142 -0.19315095 -0.0052418383 0.08206732 0.08546051
-0.06558471 -0.013281754 0.06052956 0.011958529 -0.083785556 -0.105737984 -0.07951766 -0.12981334
0.006250496 0.085515745 0.014715599 -0.052686736 0.1210345 -0.15726766 0.02308436 -0.08752241
0.06128516 0.08719088 0.14575855 0.015550935 -0.022727542 0.038662337 0.05355541 0.0668906
-0.16443326 -0.022934724 -0.17291056 0.006162615 -0.008259496 0.14343484 -0.054610357 -0.06407962
0.015593405 0.075422816 0.058971554 0.10603188 -0.0850021 -0.09293426 -0.011510057 0.0066224197
-0.03002195 -0.04030612 -0.056374833 0.067608796 -0.03445758 -0.052502934 -0.15694097 -0.15659423
0.10360136 0.15822172 0.13962531 -0.07396534 -0.064270124 0.02668215 0.08929582 -0.04911923
-0.023752067 0.113050215 0.3399889 -0.12471816 -0.23460823 0.048620194 0.18042415 0.052149292
-0.0069870567 0.002585711 -0.14260687 0.024033349 -0.116941206 0.010156682 0.1174558 0.06749266
-0.02915266 0.1407706 0.13546064 -0.23906808 -0.12923402 0.008633029 -0.054580607 -0.19179577
-0.05064261 0.1055859 0.023849849 -0.022538142 0.0066933995 0.14968742 0.089098446 -0.06494032
0.09911572 0.0660198 -0.09189657 -0.087725826 0.15579553 0.029640269 0.04580949 0.16918609
0.10892503 -0.105330005 0.10305672 0.071659446 -0.16837455 -0.09906628 0.124101564 -0.124769725
0.035148274 -0.24462724 -0.040270638 0.109579 -0.13129148 0.023480788 0.052096352 -0.18871626
0.025721895 0.075561695 -0.0032088722 0.14081182 0.12741171 0.05039066 0.052838966 0.108059995
0.064085655 -0.07103441 0.010808999 0.35263267 0.13045436 0.1388421 -0.11686275 0.022605367
0.18751846 0.050963953 0.010510011 0.061189193 0.010501735 0.09323968 -0.030397708 -0.08783546
-0.07306077 -0.026794536 0.0019484742 0.15450783 -0.014227628 0.08135759 -0.08381822 0.009950613
-0.068493344 -0.25409347 0.035106286 -0.033644643 -0.002987743 0.00941119 0.0073230583 -0.13777976
0.164735 -0.2097051 0.07833303 -0.068113595 0.13811073 -0.07036072 -0.02085649 -0.17451103
-0.032511003 0.057438813 -0.16798775 -0.011048079 -0.03719303 0.019611618 -0.011389672 0.09279759
0.08363432 -0.10430528 0.04917908 0.17761305 0.09553245 -0.15273386 0.12915318 0.031837244
-0.1316847 -0.20028494 -0.023240194 0.045785632 -0.06191436 -0.0048603676 -0.151788 0.065525964
00000000: 1cf5 9c3e 2aa9 f1bc c44a bbbb 86ae 913d
00000010: b68d 4fbc 4201 79bd 5250 1f3d 2d43 353c
00000020: 94e0 cc3c 62a1 2b3d 2e2d 01be 6a92 93bd
00000030: 93b3 233e ca9e a63c 6d3e 603e a90a 4fbd
00000040: 4aac babd d58b 883c 882f 41bc 5b08 dd3d
00000050: 177e 373e b722 953b a138 ed3c f36e eeba
00000060: a983 fcbd aaa2 76be 9987 38bd 133e 62be
00000070: 5a73 143d 8a7f 70bd 5020 4e3d d4c9 c7bc
00000080: 26d3 1e3d 0496 6bbe f339 903d 4440 c33d
00000090: becd 9bbd 2506 23bc a937 1c3c 02a5 47bd
000000a0: d116 b43d 557d 413d a9bc 68bd 1100 393d
000000b0: 7345 23bd 29b0 1bbe 05a6 96bd 0281 493d
000000c0: ed47 513d 5167 093c 3f7b 9cbc 37f0 a23e
000000d0: d071 2abb 6859 7d3c 2968 d23d 41af 133e
000000e0: 7d34 92bc c8cc c53c c6c4 193d cbb7 bebd
000000f0: e4c6 2cbd 12ab 94bd 2bc8 79bd a6ca 333e
00000100: 168b 61bc 9528 d13d 1747 de3d 7996 a23c
00000110: 5dc9 45be bac3 abbb e912 a83d eb05 af3d
00000120: 4751 86bd b79b 59bc d8ed 773d b5ed 433c
00000130: c397 abbd 288d d8bd 28da a2bd caed 04be
00000140: f6d0 cc3b e122 af3d b219 713c 0cce 57bd
00000150: f0e0 f73d c60a 21be 691b bd3c f33e b3bd
00000160: 2606 7b3d 2291 b23d bb41 153e 59c9 7e3c
00000170: 1c2f babc 665c 1e3d eb5c 5b3d f0fd 883d
00000180: 3161 28be 9ae1 bbbc 770f 31be c3ef c93b
00000190: d652 07bc 95e0 123e 1caf 5fbd 2d3c 83bd
000001a0: 7b7b 7f3c 4777 9a3d 288c 713d 3e27 d93d
000001b0: 9515 aebd 5154 bebd ae94 3cbc e200 d93b
000001c0: 98f0 f5bc 0818 25bd 4ce9 66bd 7b76 8a3d
000001d0: 6423 0dbd 510d 57bd 22b5 20be 3d5a 20be
000001e0: f32c d43d e004 223e f0f9 0e3e 247b 97bd
000001f0: 0ea0 83bd 8694 da3c bae0 b63d 3f31 49bd
00000200: b293 c2bc df86 e73d 0613 ae3e 3c6c ffbd
00000210: 243d 70be f825 473d 1cc1 383e 7f9a 553d
00000220: aef3 e4bb 0875 293b 8907 12be 96e1 c43c
00000230: df7e efbd 3668 263c ab8c f03d 9739 8a3d
00000240: 8fd1 eebc 2b26 103e 32b6 0a3e 43ce 74be
00000250: ec55 04be 8c71 0d3c ea8f 5fbd 1c66 44be
00000260: a06e 4fbd 6c3d d83d c260 c33c e9a1 b8bc
00000270: 4e54 db3b a947 193e 3f79 b63d 6eff 84bd
00000280: 2ffd ca3d 6435 873d 4534 bcbd 99a9 b3bd
00000290: dd88 1f3e 26d0 f23c bba2 3b3d 1e3f 2d3e
000002a0: 1614 df3d 42b7 d7bd 670f d33d 30c2 923d
000002b0: 616a 2cbe 43e3 cabd f628 fe3d 4587 ffbd
000002c0: a3f7 0f3d 907f 7abe d3f2 24bd f46a e03d
000002d0: 4671 06be c85a c03c fc62 553d d63e 41be
000002e0: b9b6 d23c 17c0 9a3d f14b 52bb f930 103e
000002f0: 3778 023e 7066 4e3d ac6d 583d 8f4e dd3d
00000300: 573f 833d 7d7a 91bd 3a18 313c 458c b43e
00000310: d495 053e a02c 0e3e bd55 efbd e42e b93c
00000320: d704 403e 94bf 503d 2e32 2c3c 85a1 7a3d
00000330: 780f 2c3c 72f4 be3d 9d04 f9bc 14e3 b3bd
00000340: e3a0 95bd 3780 dbbc f263 ff3a 4d37 1e3e
00000350: ff1a 69bc cf9e a63d e3a8 abbd e507 233c
00000360: 3d46 8cbd 8a18 82be 9ccb 0f3d f7ce 09bd
00000370: 02ce 43bb 6431 1a3c 44f6 ef3b 2316 0dbe
00000380: 4bb0 283e efbc 56be 116d a03d 247f 8bbd
00000390: e66c 0d3e 4819 90bd 3bdb aabc 05b3 32be
000003a0: 422a 05bd f644 6b3d fb04 2cbe 0003 35bc
000003b0: b857 18bd 8ba8 a03c bf9b 3abc aa0c be3d
000003c0: 7848 ab3d 029e d5bd 0170 493d 32e0 353e
000003d0: 84a6 c33d 4466 1cbe bb40 043e c567 023d
000003e0: 5bd8 06be 7f17 4dbe 3862 bebc b789 3b3d
000003f0: e999 7dbd b843 9fbb 506e 1bbe 7a32 863d

rnn.bias_ih_l0 f4 [64]
-0.051425602 0.05860885 -0.07214064 -0.07811867 0.05986889 -0.074162394 -0.1352418 0.040782344
-0.11188602 -0.031829998 0.11205781 -0.03801641 0.08380694 -0.07499432 0.07488909 -0.0315584
0.18071818 0.11399988 -0.16593076 0.095158085 0.009871081 0.0032732429 -0.031051131 0.12996101
-0.037559856 -0.12347463 0.12528923 -0.01662473 0.00726073 -0.06223945 -0.012842032 -0.03478733
0.013348501 -0.009912511 0.0708368 0.14692682 0.03690552 0.0020565789 0.036495406 -0.06597176
0.06478059 0.08805119 0.072354734 -0.06177574 0.07338678 0.058851197 -0.0074067716 -0.043413818
-0.018078113 0.03720221 0.0014035047 0.1149631 0.19354275 -0.038986042 0.032561988 -0.006040393
-0.060661014 -0.017281584 -0.0782686 0.016241664 -0.013905955 -0.046528555 -0.15901966 -0.02855469
00000000: a7a3 52bd d50f 703d 79be 93bd aefc 9fbd
00000010: 1539 753d 74e2 97bd d47c 0abe 630b 273d
00000020: 7f24 e5bd 2c60 02bd 917e e53d 18b7 1bbd
00000030: f9a2 ab3d 9f96 99bd 745f 993d 6143 01bd
00000040: 300e 393e c578 e93d c1e9 29be 3ee2 c23d
00000050: 51ba 213c e783 563b f15e febc 8014 053e
00000060: 5dd8 19bd 44e0 fcbd d24b 003e 9630 88bc
00000070: 6beb ed3b cbee 7ebd 6367 52bc 297d 0ebd
00000080: acb3 5a3c 1668 22bc e212 913d fc73 163e
00000090: 3e2a 173d abc7 063b 357c 153d 341c 87bd
000000a0: b0ab 843d 2f54 b43d b82e 943d 8f08 7dbd
000000b0: cf4b 963d f40d 713d 81b4 f2bb b0d2 31bd
000000c0: 8d18 94bc 5861 183d cef5 b73a c671 eb3d
000000d0: 1230 463e d4af 1fbd b85f 053d 7dee c5bb
000000e0: af77 78bd 1c92 8dbc 4a4b a0bd 3d0d 853c
000000f0: cdd5 63bc ba94 3ebd 0dd6 22be 86eb e9bc

rnn.bias_hh_l0 f4 [64]
-0.06583157 -0.03567583 -0.055318587 0.004800236 0.039724693 0.03996196 -0.022621322 -0.09088466
0.06804196 -0.03668163 0.11497455 -0.05882294 -0.01552502 -0.115292706 -0.108918644 -0.083667524
0.08636295 -0.018199485 0.0005608555 0.12078929 -0.08241142 -0.035866875 0.13197468 0.10608003
-0.01829513 -0.21794085 0.13245119 -0.011939212 0.06364971 -0.010093536 0.03738557 0.081865706
0.03412341 0.026670968 0.01564025 -0.014938128 -0.012424998 -0.079771146 0.12855992 0.023442425
-0.12921748 0.027179979 -0.031087244 0.005936075 -0.052117288 -0.025583407 -0.04809224 0.032234922
-0.03052053 0.047525734 -0.034173775 -0.026397265 0.14265403 0.09927111 -0.10141235 0.0705104
0.087233216 -0.06814481 -0.014382228 0.034339987 0.06693225 -0.02611337 -0.11980544 -0.036208052
00000000: b4d2 86bd d220 12bd be95 62bd 4c4b 9d3b
00000010: 5cb6 223d 27af 233d 5a50 b9bc bd21 babd
00000020: 9559 8b3d 7a3f 16bd c777 eb3d 53f0 70bd
00000030: a75c 7ebc 951e ecbd bd10 dfbd e159 abbd
00000040: 0fdf b03d 1617 95bc 6006 133a 6060 f73d
00000050: 52c7 a8bd 25e9 12bd 5f24 073e 7d40 d93d
00000060: abdf 95bc e32b 5fbe 49a1 073e af9c 43bc
00000070: c75a 823d 5c5f 25bc 9d21 193d 35a9 a73d
00000080: fdc4 0b3d 137d da3c fb1f 803c 0dbf 74bc
00000090: 3892 4bbc 0e5f a3bd 36a5 033e 540a c03c
000000a0: 9651 04be 8ca8 de3c adaa febc 6883 c23b
000000b0: f078 55bd 4b94 d1bc 5efc 44bd c408 043d
000000c0: 3106 fabc 58aa 423d cdf9 0bbd 143f d8bc
000000d0: e613 123e a74e cb3d 47b1 cfbd c267 903d
000000e0: 54a7 b23d 828f 8bbd 70a3 6bbc 16a8 0c3d
000000f0: c713 893d b5eb d5bc 8e5c f5bd e54e 14bd

fc.weight f4 [20, 64]
0.03917264 -0.050397288 0.034386158 0.12506734 0.008514904 0.058670223 -0.021752281 -0.06153448
-0.06504509 0.05420522 0.026755117 -0.057289947 0.010657514 0.19686304 0.1570032 -0.041692887
0.1120694 0.096023686 0.055413052 -0.018395687 -0.2739794 -0.1674732 0.006559586 0.08551236
0.17536959 0.046531763 -0.06597245 -0.0051671225 -0.056345038 0.02972688 0.01609999 0.03767481
-0.058920797 0.18330109 -0.028408132 -0.16876443 -0.12527956 0.0013758647 0.09009524 0.20156522
-0.012394055 0.011462741 -0.022411443 0.01358634 0.28639403 -0.06923572 -0.0073981592 0.08627163
-0.18975815 -0.22615586 0.045139167 -0.087325856 0.10254183 0.119280964 0.07279691 -0.059716918
-0.10093587 0.036854956 -0.06571921 -0.11599902 0.11666991 -0.07739156 0.0576933 0.0068250434
-0.115450986 0.06734301 -0.12576266 -0.01442284 -0.071759894 -0.0895617 0.06904474 -0.028527051
0.038727276 -0.084168956 0.00849921 -0.12287073 0.16469422 -0.1892038 -0.035922233 -0.021337768
-0.3341355 -0.16548844 -0.032647364 0.083651915 0.03629 -0.0021065422 0.048833806 0.18375848
0.054751337 -0.026379261 -0.11754864 -0.06404506 -0.033291094 -0.0152855255 0.011032654 -0.091246136
-0.020097552 -0.0036913555 -0.032817077 0.059304327 0.06494111 -0.033469282 -0.06319222 -0.2172219
0.12928051 0.11305771 0.13772273 -0.12410631 -0.16517907 -0.037157908 -0.20591234 0.21106127
0.02263312 0.09897183 -0.061545845 0.0362327 -0.13834058 0.019134697 0.14816429 0.088568434
0.05214615 0.0589455 0.14303623 0.060399752 -0.35637775 -0.010787426 0.008370556 0.037438016
0.10034001 0.0024782121 0.02068297 0.039979786 0.15878813 -0.04268409 0.06515231 0.027071055
-0.005030199 -0.053381186 0.09488801 0.065781794 -0.05515794 0.04321256 -0.1354026 -0.07908083
0.026132505 -0.0047795037 0.2025072 -0.0011135527 -0.10688591 0.2662652 -0.16905579 -0.016147172
0.14682454 -0.0068498626 0.07739687 0.0396336 0.106559984 -0.17538758 -0.043770548 -0.03925191
0.12259602 -0.14587672 0.14671658 0.022708332 0.035557203 -0.0031157858 0.05322636 -0.17677608
0.004704917 -0.06342082 0.06706357 -0.0031080162 0.066487074 0.056494877 -0.04032211 -0.08513549
-0.019342022 0.013123075 -0.02525312 -0.07560917 0.11277407 -0.04027466 -0.17589372 -0.011403107
0.091285795 0.1519674 0.07690654 0.059613857 0.12308831 -0.038791463 -0.02142696 0.036367808
-0.15712175 0.055948105 0.12707828 -0.10460495 -0.18718734 -0.09099953 -0.06340724 0.103124715
-0.030555194 0.04966458 -0.06781483 0.00210752 0.12186317 0.021105025 0.14179106 -0.067705065
0.117685646 0.10453504 -0.021014623 0.021995852 0.052613903 -0.2683291 0.1565595 -0.219582
-0.098864496 -0.049990784 -0.0482881 -0.058261015 -0.024045343 0.033692595 0.100446805 0.08106498
0.063484736 -0.0065068686 0.008801917 -0.07069622 -0.034722343 -0.1520131 -0.0012365214 0.19144754
-0.06691377 0.008478734 -0.14131653 -0.030412933 0.08072696 -0.13826232 0.012932458 0.11543313
0.04754691 -0.06970149 0.024834959 0.07385274 -0.017088654 -0.037747607 0.13896918 -0.022387203
-0.06835706 -0.022504393 0.22292419 -0.06613863 -0.037068866 0.17168917 -0.051825676 0.08494679
00000000: 7d73 203d 636d 4ebd 80d8 0c3d a711 003e
00000010: 1982 0b3c 3050 703d d731 b2bc 940b 7cbd
00000020: 5c36 85bd 4b06 5e3d 8c2d db3c dda8 6abd
00000030: db9c 2e3c 7796 493e 72c5 203e 29c6 2abd
00000040: a484 e53d 11a8 c43d ccf8 623d 8db2 96bc
00000050: 0747 8cbe 187e 2bbe ccf1 d63b 1b21 af3d
00000060: 1694 333e 1798 3e3d 901c 87bd f750 a9bb
00000070: 0eca 66bd c985 f33c 20e4 833c e750 1a3d
00000080: ef56 71bd 48b3 3b3e 2cb8 e8bc 95d0 2cbe
00000090: 4949 00be 5c56 b43a da83 b83d 1d67 4e3e
000000a0: 6f10 4bbc 38ce 3b3c 3498 b7bc 3d99 5e3c
000000b0: 3da2 923e 75cb 8dbd 426c f2bb 2eaf b03d
000000c0: f64f 42be 6795 67be d9e3 383d e6d7 b2bd
000000d0: 7301 d23d 9449 f43d 8c16 953d ba99 74bd
000000e0: 77b7 cebd 39f5 163d cb97 86bd e590 edbd
000000f0: a2f0 ee3d 777f 9ebd cf4f 6c3d 9da4 df3b
00000100: 9171 ecbd 22eb 893d edc7 00be c74d 6cbc
00000110: daf6 92bd 206c b7bd 5467 8d3d 90b1 e9bc
00000120: 7ea0 1e3d c660 acbd 4540 0b3c a6a3 fbbd
00000130: 9aa5 283e a4be 41be 3123 13bd 8bcc aebc
00000140: cf13 abbe cd75 29be 3eb9 05bd b251 ab3d
00000150: d3a4 143d ea0d 0abb f505 483d 2f2b 3c3e
00000160: f042 603d 5219 d8bc 57bd f0bd 0e2a 83bd
00000170: 3e5c 08bd 2470 7abc 4ec2 343c 41df babd
00000180: 9fa3 a4bc abea 71bb 336b 06bd 18e9 723d
00000190: d8ff 843d 1617 09bd ec6a 81bd 6b6f 5ebe
000001a0: 1c62 043e cd8a e73d 3007 0d3e 732b febd
000001b0: b424 29be e432 18bd afda 52be 7220 583e
000001c0: 1869 b93c beb1 ca3d 7f17 7cbd bd68 143d
000001d0: 27a9 0dbe 5ec0 9c3c 61b8 173e 5e63 b53d
000001e0: 3497 553d d670 713d 1778 123e bb65 773d
000001f0: 2577 b6be bebd 30bc a824 093c 9b58 193d
00000200: 107f cd3d 8069 223b 556f a93c d8c1 233d
00000210: 5b99 223e 83d5 2ebd 936e 853d 1ec4 dd3c
00000220: 5ed4 a4bb 3ba6 5abd a554 c23d 9bb8 863d
00000230: 4bed 61bd a7ff 303d fba6 0abe 21f5 a1bd
00000240: d613 d63c 629d 9cbb 0c5e 4f3e a1f4 91ba
00000250: 00e7 dabd ea53 883e f61c 2dbe 1347 84bc
00000260: 2c59 163e d074 e0bb 4082 9e3d d756 223d
00000270: 1f3c da3d cd98 33be bf48 33bd 9cc6 20bd
00000280: 9f13 fb3d b560 15be df3c 163e d306 ba3c
00000290: 6ea4 113d 3632 4cbb e203 5a3d ca04 35be
000002a0: b42b 9a3b c6e2 81bd a058 893d dcaf 4bbb
000002b0: 602a 883d 2c67 673d cc28 25bd 845b aebd
000002c0: 2973 9ebc 2a02 573c a2df cebc fbd8 9abd
000002d0: 17f6 e63d 0bf7 24bd 7c1d 34be 19d4 3abc
000002e0: 0cf4 ba3d 589d 1b3e 2d81 9d3d a92d 743d
000002f0: b915 fc3d cce3 1ebd 9887 afbc 69f6 143d
00000300: 86e4 20be d729 653d cf20 023e 1f3b d6bd
00000310: 0aae 3fbe f65d babd a8db 81bd 0d33 d33d
00000320: e34e fabc 166d 4b3d 80e2 8abd 511e 0a3b
00000330: 6693 f93d 72e4 ac3c ad31 113e f4a8 8abd
00000340: 2c05 f13d 7816 d63d dc26 acbc a530 b43c
00000350: ad81 573d 6f62 89be 2251 203e 1bda 60be
00000360: 7879 cabd 23c3 4cbd bec9 45bd 1aa3 6ebd
00000370: bdfa c4bc 3f01 0a3d 0eb7 cd3d 6505 a63d
00000380: 4904 823d 9237 d5bb ea35 103c 2ec9 90bd
00000390: 0439 0ebd 52a9 1bbe c612 a2ba d30a 443e
000003a0: 160a 89bd 63ea 0a3c 48b5 10be 8b24 f9bc
000003b0: 2d54 a53d a394 0dbe a9e2 533c 3468 ec3d
000003c0: 8cc0 423d a8bf 8ebd af72 cb3c 1b40 973d
000003d0: 81fd 8bbc 3c9d 1abd f04d 0e3e 5e65 b7bc
000003e0: c9fe 8bbd 225b b8bc 3d46 643e b173 87bd
000003f0: 86d5 17bd 49cf 2f3e 2947 54bd 95f8 ad3d

fc.bias f4 [20]
0.050908305 -0.011740752 -0.030973485 -0.012634137 0.14894491 0.18075916 -0.049143266 0.061552618
-0.05681258 -0.08057234 0.04276098 -0.058494054 0.03754274 4.424949e-05 0.07737258 -0.09883181
-0.066063814 0.11133321 0.1331274 0.0007198104
00000000: 3a85 503d 485c 40bc 1bbc fdbc 69ff 4ebc
00000010: 0485 183e ee18 393e 734a 49bd 991e 7c3d
00000020: 4fb4 68bd 1c03 a5bd 2326 2f3d 7697 6fbd
00000030: 6bc6 193d 8798 3938 8475 9e3d 5568 cabd
00000040: 774c 87bd aa02 e43d 8d52 083e a9b1 3c3a
