cebra_models/reach1_4/03/discerte_label_models/cebra_SucessFailure_model_2500_3_reach1_4_A_AllSameID_2024-05-10_18-05-37.pt (torch, 233909 bytes, 31 tensors)

net.0.weight f4 [32, 21, 2]
0.06237214 0.03724829 0.10562145 0.011239397 0.14711665 0.07138995 -0.008011923 0.1246333
-0.0018203415 -0.039012823 -0.06299097 -0.03873825 -0.015627433 0.014233007 0.1446339 -0.04099608
0.024512898 0.102410235 0.11882941 -0.11216065 -0.04558221 -0.013808413 -0.030979749 -0.06755871
0.062622465 -0.1363028 0.10286382 -0.024163203 -0.14820054 0.0768477 -0.150936 -0.018719224
0.023114255 -0.14698851 0.11183758 0.13801566 -0.043880276 0.0852781 -0.14098631 0.019968752
-0.1429725 -0.12761599 0.09119095 -0.09141788 0.115766816 -0.13391623 -0.15475887 -0.14086989
0.054682877 0.11857115 0.03972496 -0.17413832 0.018280068 -0.06824739 0.07809332 -0.072930604
0.1334328 -0.017235147 -0.038873076 0.10444596 0.094057135 -0.051237 -0.08244028 0.15609641
-0.074465245 0.111359596 0.109769985 -0.13955761 -0.0837063 0.12919492 0.048582967 0.06979509
0.05840598 0.109675735 0.15423556 0.055953246 0.09572367 0.07516522 -0.037239976 -0.03195379
-0.06879638 0.10357811 0.09730864 0.040081374 -0.1466499 -0.0518332 0.021606805 0.08510031
0.11602626 0.09478168 0.02706992 -0.033203 0.069100656 0.10095982 -0.09203877 -0.11797788
0.1499066 -0.038919296 0.14562282 -0.012613509 0.11327464 -0.06705166 -0.12988265 0.09794568
-0.10509804 -0.11903731 -0.022034395 0.11796243 -0.030886551 -0.08018505 -0.08057724 0.06832367
0.07863796 0.030586168 0.053662624 0.00819721 0.13844858 -0.1568787 -0.10452901 -0.049281996
0.033435266 0.15229198 -0.0053695915 0.11463662 -0.03238504 -0.032752316 0.045912407 -0.11180085
-0.15452096 -0.123576306 0.056664724 0.01915129 0.1304182 0.018713772 -0.040135782 0.044704568
0.110262945 0.03484703 0.06125638 0.11365883 -0.06441616 -0.010199459 -0.112549044 0.090992406
0.09002899 0.01480287 0.102117166 0.11850712 0.09084169 0.10253932 0.033494502 0.1108469
0.013921112 0.0115301255 -0.08774503 0.020092025 -0.042374976 0.10134995 0.02515104 -0.12326055
-0.15686814 -0.11327598 -0.1385147 0.08232131 -0.018354977 -0.12682167 0.12400407 0.064055644
-0.1242716 -0.02845404 -0.076317534 -0.12662317 -0.028962743 0.13931154 -0.08615748 -0.0898307
-0.083140604 -0.045524735 -0.0011582442 0.08452748 -0.059639834 -0.14034599 -0.07528775 0.02758296
-0.0719214 0.036605515 -0.111118376 -0.047965437 0.15520623 0.123636656 -0.1015391 0.07885658
0.023460668 0.026747314 -0.03797526 -0.15370584 0.06049006 0.13555542 0.03938723 0.03176475
-0.040982615 -0.13809001 -0.09407084 0.15376484 -0.08998829 0.0810269 -0.15412638 -0.08441549
0.048009258 0.11541652 -0.14260763 -0.17407724 0.0048522963 -0.15025437 -0.044898175 -0.024984036
-0.006491266 0.0812072 0.120636724 -0.060285427 0.05037959 0.14560817 0.1388275 -0.08871163
-0.098883264 -0.05870841 0.11001688 -0.11596175 -0.039266605 0.08231522 0.13918863 0.098232195
0.13301025 -0.06919961 -0.086550936 -0.03791671 -0.12660608 -0.057752732 -0.1294889 0.048509263
-0.131916 -0.14035314 -0.078432746 0.09302513 -0.100521564 -0.12336984 0.06936678 0.11114391
-0.14403872 0.13561247 0.06304706 0.12830801 0.033249237 -0.0931466 0.04878487 -0.15213336
00000000: ee79 7f3d aa91 183d 0f50 d83d 7325 383c
00000010: bfa5 163e e534 923d 7144 03bc be3f ff3d
00000020: 8698 eeba e9cb 1fbd 6901 81bd 00ac 1ebd
00000030: 1a05 80bc 8f31 693c e91a 143e 81eb 27bd
00000040: 46cf c83c 75bc d13d d55c f33d 7cb4 e5bd
00000050: 69b4 3abd af3c 62bc 3ec9 fdbc 395c 8abd
00000060: 3540 803d f692 0bbe 44aa d23d e9f1 c5bc
00000070: e2c1 17be 5462 9d3d f78e 1abe 0f59 99bc
00000080: 1b5a bd3c 2884 16be 1a0b e53d fa53 0d3e
00000090: cebb 33bd 49a6 ae3d b75e 10be 8295 a33c
000000a0: 6267 12be c4ad 02be 52c2 ba3d 4c39 bbbd
000000b0: 2717 ed3d 5621 09be 1c79 1ebe 3240 10be
000000c0: 27fb 5f3d 6ed5 f23d a4b6 223d 5151 32be
000000d0: 15c0 953c 4ac5 8bbd 64ef 9f3d a45c 95bd
000000e0: 9ca2 083e b930 8dbc 6039 1fbd c3e7 d53d
000000f0: 07a1 c03d e3dd 51bd 73d6 a8bd bdd7 1f3e
00000100: 3c81 98bd 8010 e43d 16cf e03d 31e8 0ebe
00000110: 356e abbd ac4b 043e effe 463d baf0 8e3d
00000120: 1c3b 6f3d ac9d e03d edef 1d3e 3b2f 653d
00000130: c60a c43d 39f0 993d f288 18bd fae1 02bd
00000140: 1ee5 8cbd c320 d43d c149 c73d 5e2c 243d
00000150: 642b 16be 0d4f 54bd c100 b13c 1249 ae3d
00000160: 2d9f ed3d e61c c23d bdc1 dd3c deff 07bd
00000170: a584 8d3d 06c4 ce3d d37e bcbd 639e f1bd
00000180: 1e81 193e d769 1fbd 261e 153e e4a8 4ebc
00000190: 89fc e73d 6152 89bd f5ff 04be bf97 c83d
000001a0: a43d d7bd d5c9 f3bd 7a81 b4bc 4996 f13d
000001b0: cb05 fdbc 0f38 a4bd ae05 a5bd 48ed 8b3d
000001c0: f00c a13d d88f fa3c 57cd 5b3d 974d 063c
000001d0: 77c5 0d3e cfa4 20be 4e13 d6bd ebdb 49bd
000001e0: 6bf3 083d 6ef2 1b3e 66f3 afbb 9bc6 ea3d
000001f0: 2da6 04bd 4b27 06bd a60e 3c3d d8f7 e4bd
00000200: be3a 1ebe 9315 fdbd 4519 683d 2be3 9c3c
00000210: 598c 053e a04d 993c 6b65 24bd 231c 373d
00000220: 8ad1 e13d c2bb 0e3d f8e7 7a3d f6c5 e83d
00000230: 9fec 83bd a21b 27bc 1d80 e6bd 3a5a ba3d
00000240: 1e61 b83d bd87 723c ce22 d13d dcb3 f23d
00000250: 350b ba3d 2300 d23d 8831 093d b303 e33d
00000260: 6015 643c dae8 3c3c abb3 b3bd 0898 a43c
00000270: 6291 2dbd 9090 cf3d 8e09 ce3c 0770 fcbd
00000280: 0ba2 20be 3dfd e7bd ccd6 0dbe 1398 a83d
00000290: 2d5d 96bc 8add 01be d9f5 fd3d 9b2f 833d
000002a0: 1c82 febd 7218 e9bc 5e4c 9cbd 81a9 01be
000002b0: 4643 edbc afa7 0e3e 5573 b0bd 28f9 b7bd
000002c0: 9f45 aabd 2578 3abd 3ad0 97ba be1c ad3d
000002d0: e648 74bd dcb6 0fbe 7730 9abd a9f5 e13c
000002e0: 874b 93bd aaef 153d 0892 e3bd 6877 44bd
000002f0: 62ee 1e3e 3735 fd3d bbf3 cfbd 8f7f a13d
00000300: 9630 c03c 2f1d db3c f28b 1bbd 1065 1dbe
00000310: 6dc4 773d 0acf 0a3e 8154 213d c11b 023d
00000320: 63dd 27bd 7867 0dbe 36a8 c0bd 8874 1d3e
00000330: c84b b8bd 6ef1 a53d 4ed3 1dbe 07e2 acbd
00000340: 5ba5 443d 7f5f ec3d bc07 12be 4e41 32be
00000350: 0300 9f3b 48dc 19be 26e7 37bd 52ab ccbc
00000360: b0b4 d4bb f64f a63d 6310 f73d daed 76bd
00000370: d45a 4e3d 4f1a 153e cc28 0e3e 71ae b5bd
00000380: 4f83 cabd 3b78 70bd 8850 e13d 5b7d edbd
00000390: 05d6 20bd e294 a83d 7787 0e3e f62d c93d
000003a0: d733 083e 86b8 8dbd 9e41 b1bd 8d4e 1bbd
000003b0: 06a5 01be 218e 6cbd bd98 04be a6b1 463d
000003c0: fd14 07be bcb8 0fbe 59a1 a0bd f683 be3d
000003d0: 40de cdbd 54a9 fcbd 2c10 8e3d 6b9f e33d
000003e0: e37e 13be ffdd 0a3e d11e 813d 2d63 033e
000003f0: 5a30 083d a5c3 bebd a5d2 473d d9c8 1bbe

net.0.bias f4 [32]
0.13525485 -0.045314647 0.097819254 0.16130775 -0.097619034 -0.010002393 0.04034426 -0.00824524
-0.08662896 0.05956209 0.048243124 0.07695777 -0.025440132 0.050189346 -0.08210899 -0.13166113
-0.10925603 -0.1408092 -0.14275779 -0.051366962 0.013489555 -0.04762019 -0.08052177 -0.14636894
0.01001322 -0.11320207 0.13312994 -0.06489782 -0.049954098 -0.17710522 0.041735414 -0.16293485
00000000: 3f80 0a3e da9b 39bd 7655 c83d dc2d 253e
00000010: 7dec c7bd 14e1 23bc 0640 253d 0b17 07bc
00000020: 866a b1bd 61f7 733d 959a 453d 099c 9d3d
00000030: d367 d0bc 5893 4d3d c228 a8bd 2dd2 06be
00000040: a0c1 dfbd 4930 10be 192f 12be 2a66 52bd
00000050: 4b03 5d3c 630d 43bd 99e8 a4bd bde1 15be
00000060: 7d0e 243c 7dd6 e7bd 3753 083e 26e9 84bd
00000070: ab9c 4cbd 125b 35be c1f2 2a3d 65d8 26be

net.2.module.0.weight f4 [32, 32, 3]
0.006071834 -0.0017883733 0.06476485 0.022512477 -0.018626291 0.07573484 -0.075597726 0.02229603
-0.07981602 -0.06426016 0.102578044 0.030984316 -0.005457898 0.0847412 0.044457737 0.020470677
0.029855376 0.017538879 0.053679828 -0.049858578 0.11003077 0.06519068 0.060483314 -0.0856314
0.008470822 0.006645284 -0.10014606 0.062678 -0.085378654 -0.0802796 -0.09097387 0.008295997
-0.014797135 -0.005243212 0.059451386 -0.049395632 0.06814424 0.06392453 0.058625087 0.0076435213
0.011681325 0.014678231 0.05655412 0.057601836 0.105556905 -0.088942975 -0.014479541 0.047252644
0.04504755 0.053336333 0.03588682 0.09370717 -0.09132802 -0.020760471 -0.015412858 0.011129765
0.08370096 -0.015806831 0.021836644 -0.010423796 0.0026386161 0.098097764 -0.07444615 -0.013255852
-0.024642127 0.09771029 -0.019643262 -0.07010445 -0.08564513 -0.056250237 0.022648333 0.04111799
-0.01123036 -0.052399505 0.06692257 0.05402279 -0.049987856 -0.08082159 0.09348231 -0.0042138826
-0.023075363 0.050142545 -0.08865561 0.012526923 0.056101788 -0.017954996 -0.046235796 0.054469455
-0.0013301002 0.031000866 -0.0935808 -0.036839094 -0.10375099 0.088769026 -0.05996008 0.021615038
-0.06983399 0.075578384 0.07387981 0.020326516 -0.04049355 -0.107371055 -0.0043210783 0.08443202
0.10731142 -0.055939253 0.02211396 0.10189686 0.030227162 0.052956782 0.06758679 -0.006027463
0.05062023 -0.09977728 0.087326266 0.018491907 0.091597766 0.066624105 0.023206284 -0.0058903866
-0.0053801243 0.060265884 0.0715434 -0.08305019 0.06619465 0.024086254 -0.06906006 -0.036124576
0.09541661 -0.054260693 -0.07654204 0.039888825 0.013335695 -0.092499994 -0.004598282 0.0005220058
-0.016245734 -0.08574967 0.009479931 0.00010997073 0.09433035 0.07289223 -0.055874098 0.07606992
-0.05328108 0.018140547 0.11162617 0.0225262 0.057668813 -0.08776889 0.020565776 -0.022924764
-0.0660787 -0.014196482 0.045234144 0.00957094 0.02962758 0.036733232 -0.06595831 -0.060995992
-0.021333618 0.03468544 -0.045441616 0.056156836 -0.00087624294 0.07575487 0.076679125 0.1141139
0.02344648 -0.07512425 0.07616068 -0.046204843 0.03758263 0.024365496 -0.09646852 0.031356744
0.06238371 0.07270687 -0.052065063 0.021902876 0.03273792 0.096846834 -0.05565436 0.090933315
0.031169543 -0.009123564 0.029622642 -0.086358 0.07052189 0.053238235 0.07295373 0.09203555
-0.060558327 -0.079174824 -0.044245366 0.0067824083 0.06662688 -0.02294908 0.01089892 -0.05492333
-0.04292194 0.017692257 0.09285765 0.0009586326 0.061446134 -0.018840244 -0.01844637 0.096110225
0.035286184 0.10097142 0.07689288 -0.10217008 0.09048846 0.028018473 -0.04945468 -0.04699466
0.016754521 -0.045946717 0.092321716 0.009635837 0.019294146 0.046893675 0.090910494 -0.07117773
-0.06514482 -0.066106625 0.03358155 -0.087187335 0.04194277 0.07638556 0.051104654 -0.089221336
-0.058852937 -0.116197996 0.08033857 -0.037366163 -0.084382735 0.040351417 -0.053880945 -0.085783705
-0.07508184 -0.018370751 -0.027645344 0.067434356 0.032088466 -0.06393139 0.05530101 0.05416279
0.06583992 0.062897034 -0.08096006 -0.11215542 -0.06259714 0.10875673 -0.07141246 -0.04260713
00000000: 3cf6 c63b da67 eaba 6fa3 843d 166c b83c
00000010: 2a96 98bc de1a 9b3d fbd2 9abd 2aa6 b63c
00000020: 9576 a3bd d59a 83bd 7014 d23d d2d2 fd3c
00000030: 2bd8 b2bb cb8c ad3d 5119 363d 1fb2 a73c
00000040: 4393 f43c b2ad 8f3c 61df 5b3d 8238 4cbd
00000050: d057 e13d b182 853d 5abd 773d 845f afbd
00000060: 34c9 0a3c afc0 d93b 6119 cdbd 535d 803d
00000070: 01db aebd a269 a4bd 8250 babd efeb 073c
00000080: af6f 72bc 40cf abbb 4c83 733d 1353 4abd
00000090: 358f 8b3d ddea 823d dc20 703d 8176 fa3b
000000a0: 0763 3f3c f77c 703c 4ba5 673d e7ef 6b3d
000000b0: 382e d83d bc27 b6bd 993b 6dbc fd8b 413d
000000c0: c883 383d 3377 5a3d 0ffe 123d 8be9 bf3d
000000d0: 2f0a bbbd dd11 aabc 3686 7cbc 9e59 363c
000000e0: 696b ab3d 547d 81bc c3e2 b23c 92c8 2abc
000000f0: a2ec 2c3b 7be7 c83d 3977 98bd 132f 59bc
00000100: 49de c9bc 551c c83d e8ea a0bc ec92 8fbd
00000110: b766 afbd a666 66bd ff88 b93c 566b 283d
00000120: 8bff 37bc dda0 56bd b30e 893d 0047 5d3d
00000130: 11c0 4cbd ca85 a5bd a773 bf3d 9c14 8abb
00000140: 8b08 bdbc 4562 4d3d 1391 b5bd b93d 4d3c
00000150: fdca 653d 5b16 93bc bf61 3dbd 5d1b 5f3d
00000160: c256 aeba 87f5 fd3c 4aa7 bfbd 97e4 16bd
00000170: 667b d4bd 89cc b53d b398 75bd 0512 b13c
00000180: 1f05 8fbd d7c8 9a3d 4c4e 973d cb83 a63c
00000190: 91dc 25bd 5be5 dbbd d597 8dbb b2ea ac3d
000001a0: 17c6 db3d 8f20 65bd 5628 b53c 4daf d03d
000001b0: f49e f73c 36e9 583d f16a 8a3d 0682 c5bb
000001c0: 2957 4f3d 0858 ccbd 1dd8 b23d 577c 973c
000001d0: 9c97 bb3d 3872 883d 1b1b be3c 2504 c1bb
000001e0: c14b b0bb 5cd9 763d 5985 923d 3816 aabd
000001f0: 1091 873d 8950 c53c 5c6f 8dbd 5df7 13bd
00000200: c969 c33d 7640 5ebd 13c2 9cbd 7762 233d
00000210: f57d 5a3c a370 bdbd 2fad 96bb 37d7 083a
00000220: c615 85bc 869d afbd b651 1b3c 16a0 e638
00000230: 4530 c13d 8548 953d 3ddc 64bd 8cca 9b3d
00000240: 433d 5abd 7c9b 943c 439c e43d de88 b83c
00000250: 2236 6c3d 2dc0 b3bd 8f79 a83c b7cc bbbc
00000260: 4554 87bd 5c98 68bc 7047 393d 6fcf 1c3c
00000270: 8ab5 f23c 9675 163d 2715 87bd efd6 79bd
00000280: d7c3 aebc 5212 0e3d fd20 3abd b604 663d
00000290: abb3 65ba 5f25 9b3d f209 9d3d 8cb4 e93d
000002a0: d512 c03c beda 99bd 21fa 9b3d 4a41 3dbd
000002b0: 3ef0 193d 269a c73c 4a91 c5bd ee6f 003d
000002c0: 1086 7f3d 57e7 943d 2d42 55bd a96d b33c
000002d0: 3218 063d a257 c63d d4f5 63bd 3f3b ba3d
000002e0: 4557 ff3c 007b 15bc 2fab f23c 77dc b0bd
000002f0: c86d 903d 5610 5a3d c468 953d 227d bc3d
00000300: 020c 78bd 6926 a2bd a13a 35bd f73e de3b
00000310: ac73 883d b6ff bbbc 6291 323c 49f7 60bd
00000320: ebce 2fbd 5aef 903c 272c be3d bf4c 7b3a
00000330: f1ae 7b3d db56 9abc d71c 97bc 70d5 c43d
00000340: 3f88 103d 1bca ce3d 047a 9d3d 8c3e d1bd
00000350: 0452 b93d ff86 e53c fe90 4abd 797d 40bd
00000360: c740 893c a032 3cbd 2b13 bd3d a1df 1d3c
00000370: c20e 9e3c 9513 403d 482f ba3d a1c5 91bd
00000380: a66a 85bd e962 87bd cf8c 093d 468f b2bd
00000390: 2fcc 2b3d 0870 9c3d 1d53 513d adb9 b6bd
000003a0: c70f 71bd 37f9 edbd 8c88 a43d 430d 19bd
000003b0: dbd0 acbd 8747 253d 44b2 5cbd 5eaf afbd
000003c0: 82c4 99bd 427e 96bc 7d78 e2bc 061b 8a3d
000003d0: 326f 033d 76ee 82bd 5083 623d cdd9 5d3d
000003e0: 14d7 863d 29d0 803d 63ce a5bd beb1 e5bd
000003f0: ee32 80bd d9bb de3d b240 92bd d084 2ebd

net.2.module.0.bias f4 [32]
0.054883745 -0.020809751 -0.013191525 0.067518055 0.06505434 0.08353506 0.0068932422 -0.095323406
-0.11272346 -0.02096492 -0.071571544 -0.017508391 0.10857149 0.054674875 -0.036327314 0.0728572
-0.04472789 0.044916335 0.027543206 -0.02215219 0.07446812 -0.011653637 -0.08397457 -0.07282982
-0.06365897 0.061143648 -0.010981087 -0.10374416 0.078562126 -0.024576163 -0.03426404 -0.083714955
00000000: c7cd 603d 3679 aabc 4421 58bc e846 8a3d
00000010: 363b 853d 6e14 ab3d b5e0 e13b eb38 c3bd
00000020: 8fdb e6bd a0be abbc 1a94 92bd c26d 8fbc
00000030: bb5a de3d c3f2 5f3d f3cb 14bd 2836 953d
00000040: 9834 37bd 31fa 373d 4aa2 e13c 8278 b5bc
00000050: be82 983d e5ee 3ebc dcfa abbd cd27 95bd
00000060: a25f 82bd c371 7a3d 04ea 33bc d177 d4bd
00000070: 2ee5 a03d f353 c9bc 7358 0cbd bf72 abbd

net.3.module.0.weight f4 [32, 32, 3]
0.020305283 -0.06704305 -0.014084394 -0.09915479 -0.11564527 -0.054932084 -0.056748074 0.02191456
-0.043977305 -0.028046614 -0.064669915 0.075781286 -0.10533243 -0.087268166 -0.07672414 -0.09461368
0.09225656 0.027298203 -0.10205649 -0.09408004 0.003241357 -0.096312895 0.009300034 0.022122115
-0.043771982 0.02121301 -0.029724186 -0.088573694 -0.05363026 -0.054986376 0.007022028 -0.053538956
0.046379093 -0.0010277722 0.012676321 0.020306287 0.046241168 0.034441594 -0.058725614 -0.031584144
0.06612437 -0.029716773 -0.024378253 0.08195221 -0.020696571 0.05706868 0.06369627 0.09267572
-0.08438581 -0.07528484 0.07259249 0.06282798 0.012809153 -0.09870532 0.043639984 -0.00017788327
0.072138235 0.023114316 0.018747069 -0.11946992 -0.0045640306 0.018850379 -0.098765165 -0.085705444
0.07366441 -0.09074139 0.037329175 0.02699847 0.09719716 0.039108794 0.062429566 -0.056889195
0.04725554 0.07856274 0.056030605 0.040503312 0.05994277 0.060915444 -0.01281151 0.03404401
-0.07970296 0.041016772 -0.04497626 -0.07548805 -0.023363028 0.080276385 -0.0824155 -0.08871373
0.03921592 0.019153405 -0.054243572 -0.075648665 -0.096530244 0.04028353 0.006319613 0.101371385
-0.055227794 -0.041041203 0.08217155 -0.07388973 -0.027559945 -0.019607889 0.04984903 -0.026748503
0.06250747 -0.019308079 -0.058338467 0.090136856 0.056579653 0.028377337 0.041329175 0.026171502
0.07122481 0.07218004 -0.023263952 -0.0002664947 -0.0625004 0.046457134 0.060212445 0.012409274
0.069035284 0.0393889 -0.02265849 -0.07463641 -0.100534745 0.07055419 0.036350798 0.012484016
0.031604733 -0.014280072 -0.07998896 -0.053540472 0.04542484 0.085392796 0.024287915 -0.09592037
-0.08063266 -0.019615514 0.030694667 -0.08117282 -0.009217656 -0.061365295 0.061023634 -0.06101517
-0.0988235 -0.05817941 -0.02404411 0.025583858 -0.0967442 -0.0020010974 0.08709493 0.048645265
0.07478281 0.1031594 0.070800886 -0.051569395 0.065435335 -0.0702612 0.030930744 -0.0045956606
0.089952566 -0.005118154 0.007122607 0.102210894 0.062518634 -0.06372161 -0.028057298 0.013125894
0.07139255 0.055023853 0.04220708 0.09575669 -0.05235364 0.083206885 0.06730225 -0.0808163
0.023899257 -0.0891013 0.10495259 -0.00317479 -0.04552686 0.019291041 0.015675168 -0.02858408
-0.07747842 0.044759236 -0.017934706 -0.017288396 -0.08675608 -0.033767212 -0.009793562 0.015239928
-0.04635927 0.08608465 -0.0047179447 0.086948775 0.08751406 -0.0018420657 -0.04372603 -0.099403344
0.061964694 -0.050427325 -0.05482007 -0.087785766 0.10219885 -0.025604662 0.003020983 -0.06872134
0.0045699105 -0.02522039 0.037684545 0.027198134 0.076839685 0.057173695 0.049128227 0.012586309
-0.04139302 0.00030812688 0.132519 -0.08896446 0.0099287415 0.09970339 0.024739673 0.075599015
0.120279714 -0.0383091 0.065881304 0.08665037 -0.022824302 -0.05439944 -0.060045715 -0.04679493
-0.0058514653 0.037811868 -0.044654887 -0.011723053 -0.061512433 -0.0057512945 0.10215882 -0.044060983
-0.110517584 0.01406282 0.057825867 -0.015956279 -0.06904881 0.067399964 -0.08044148 0.09127877
0.012048035 0.116009556 0.011974205 -0.09095708 -0.04371211 -0.08163271 0.04787264 0.0016286967
00000000: 4457 a63c de4d 89bd 3bc2 66bc ab11 cbbd
00000010: 6dd7 ecbd 7700 61bd ab70 68bd 2a86 b33c
00000020: 8c21 34bd 03c2 e5bc a971 84bd 3833 9b3d
00000030: 87b8 d7bd a7b9 b2bd 8c21 9dbd d1c4 c1bd
00000040: 02f1 bc3d 7ba0 df3c fe02 d1bd 09ad c0bd
00000050: f26c 543b b23f c5bd 2b5f 183c 7039 b53c
00000060: 404a 33bd e8c6 ad3c 2380 f3bc 2066 b5bd
00000070: 67ab 5bbd 6539 61bd 0a19 e63b aa4b 5bbd
00000080: 01f8 3d3d 50b6 86ba 58b0 4f3c 5f59 a63c
00000090: 6167 3d3d a112 0d3d 458a 70bd 605e 01bd
000000a0: 376c 873d 9770 f3bc e7b4 c7bc 8fd6 a73d
000000b0: db8b a9bc d9c0 693d 3173 823d c5cc bd3d
000000c0: 78d2 acbd f02e 9abd 5fab 943d f5ab 803d
000000d0: 7bdd 513c 0426 cabd d7bf 323d 2d86 3ab9
000000e0: 36bd 933d 3c5a bd3c 7493 993c a5ac f4bd
000000f0: dd8d 95bb 1c6c 9a3c 6445 cabd 5686 afbd
00000100: 5edd 963d 9fd6 b9bd 7ae6 183d e52b dd3c
00000110: 4e0f c73d 8b30 203d 25b6 7f3d a504 69bd
00000120: 068f 413d 80e5 a03d 5980 653d cde6 253d
00000130: 8d86 753d 7982 793d 5ee7 51bc bb71 0b3d
00000140: 4e3b a3bd 3401 283d 0739 38bd 7b99 9abd
00000150: d263 bfbc f267 a43d 75c9 a8bd 8baf b5bd
00000160: dfa0 203d 9ae7 9c3c 822e 5ebd b0ed 9abd
00000170: a6b1 c5bd 5800 253d c214 cf3b cd9b cf3d
00000180: 8a36 62bd d21a 28bd 8f49 a83d 8053 97bd
00000190: 65c5 e1bc b9a0 a0bc 7f2e 4c3d ad1f dbbc
000001a0: eb03 803d fa2b 9ebc 51f4 6ebd ac99 b83d
000001b0: 11c0 673d 9777 e83c c848 293d 9e65 d63c
000001c0: 50de 913d 21d3 933d 0b94 bebc 50b8 8bb9
000001d0: 3600 80bd d649 3e3d 53a1 763d 4450 4b3c
000001e0: 5f62 8d3d 4156 213d 4c9e b9bc f9da 98bd
000001f0: 29e5 cdbd b77e 903d 93e4 143d c289 4c3c
00000200: f773 013d f7f6 69bc 40d1 a3bd 414d 5bbd
00000210: 660f 3a3d 6be2 ae3d 73f7 c63c e671 c4bd
00000220: bc22 a5bd b7b0 a0bc 6273 fb3c ef3d a6bd
00000230: a705 17bc 2d5a 7bbd ebf3 793d 0beb 79bd
00000240: fa63 cabd 884d 6ebd 27f8 c4bc 3d95 d13c
00000250: d321 c6bd d824 03bb d45e b23d 4240 473d
00000260: bb27 993d 3c45 d33d 0e00 913d 6e3a 53bd
00000270: f602 863d 1be5 8fbd 7962 fd3c 3297 96bb
00000280: 0d39 b83d 30b6 a7bb c264 e93b f253 d13d
00000290: c509 803d 7a80 82bd 6bd8 e5bc fd0d 573c
000002a0: 4236 923d b160 613d 55e1 2c3d 151c c43d
000002b0: c570 56bd 5f68 aa3d c3d5 893d 0483 a5bd
000002c0: 60c8 c33c be7a b6bd 62f1 d63d 2310 50bb
000002d0: 5f7a 3abd 3f08 9e3c 3669 803c 2929 eabc
000002e0: 02ad 9ebd 7655 373d ceeb 92bc 65a0 8dbc
000002f0: 2cad b1bd 7d4f 0abd 2d75 20bc e4b0 793c
00000300: 38e3 3dbd 264d b03d fd98 9abb 3312 b23d
00000310: 923a b33d 7871 f1ba 111a 33bd fb93 cbbd
00000320: b1ce 7d3d e28c 4ebd 028b 60bd 06c9 b3bd
00000330: a14d d13d dec0 d1bc affb 453b c6bd 8cbd
00000340: 30bf 953b fe9a cebc 1c5b 1a3d 9fce de3c
00000350: 205e 9d3d f72e 6a3d ae3a 493d ce36 4e3c
00000360: ba8b 29bd 178c a139 10b3 073e 0033 b6bd
00000370: 29ac 223c 4a31 cc3d dbaa ca3c a8d3 9a3d
00000380: 3655 f63d 01ea 1cbd c7ec 863d c075 b13d
00000390: 08fa babc f2d1 5ebd 7ff2 75bd 0aac 3fbd
000003a0: a6bd bfbb 9ee0 1a3d 0be8 36bd 0c12 40bc
000003b0: 76f4 7bbd 5b75 bcbb a538 d13d 4a79 34bd
000003c0: 0b57 e2bd be67 663c d1da 6c3d beb6 82bc
000003d0: 7669 8dbd fe08 8a3d 81be a4bd 5df0 ba3d
000003e0: 1f65 453c 6b96 ed3d 752f 443c b547 babd
000003f0: 780b 33bd 0d2f a7bd 1a16 443d fe79 d53a

net.3.module.0.bias f4 [32]
0.0074969535 0.034402546 -0.08088813 -0.05710938 -0.03160569 0.009771201 0.02931109 -0.050049193
-0.057141438 0.026027696 -0.023834242 -0.03618407 -0.0075112027 0.06858279 0.061973717 -0.094170526
0.014941276 0.034647457 -0.08707445 0.059444144 -0.021556268 -0.14346404 0.025664564 -0.0007970428
0.029696237 -0.018986907 0.066802055 -0.07311238 -0.08741212 -0.089788206 -0.05599354 -0.13238849
00000000: 01a9 f53b afe9 0c3d ada8 a5bd 86eb 69bd
00000010: f874 01bd 6317 203c d01d f03c 6200 4dbd
00000020: 240d 6abd 0938 d53c 0740 c3bc bf35 14bd
00000030: 8920 f6bb 2275 8c3d 27d8 7d3d 7adc c0bd
00000040: 41cc 743c 7eea 0d3d 1754 b2bd b47b 733d
00000050: c596 b0bc 3de8 12be 7e3e d23c a3f0 50ba
00000060: 8645 f33c 6e8a 9bbc 84cf 883d f2bb 95bd
00000070: 2005 b3bd e1e2 b7bd 7b59 65bd d990 07be

net.4.module.0.weight f4 [32, 32, 3]
0.012558612 0.08711239 -0.05380654 0.04054164 -0.02642609 0.014395744 -0.06951832 -0.07723955
0.02559804 0.0018231423 0.02728498 -0.033032488 -0.08773508 0.09042443 -0.04984933 0.0036428801
-0.092521526 0.02773939 0.074870355 -0.060127135 0.0010034142 0.09554038 -0.032856505 -0.07796349
-0.017404826 -0.06744266 0.07254594 0.050720423 -0.018946724 0.0319859 0.002906747 0.002510213
0.03319275 0.10328291 0.028188637 -0.046058133 0.09254641 0.032815255 -0.023502538 -0.06414763
0.053736083 0.08935907 0.061433557 0.08680637 0.057122555 -0.087601274 -0.092260845 -0.06332434
0.0066922 -0.0478593 -0.008237206 0.08036482 -0.0372528 0.049603634 0.009684033 0.03692333
0.07831794 -0.0076502925 -0.046003815 -0.04165332 0.04680758 0.04256121 -0.010270772 0.050936915
-0.051431235 0.057599034 0.015116776 0.008817974 -0.066590436 0.0634097 -0.0140903285 -0.08888983
0.07866877 0.07052727 0.01974871 0.06714985 -0.011331972 -0.0029285687 -0.048151456 0.09135644
0.06091319 0.03772581 0.026070513 0.017229438 -0.09880834 -0.02856616 0.06613105 -0.0687592
0.08230522 0.026830282 0.10347697 -0.017744204 -0.024118127 0.077624984 0.07554127 0.058154754
0.02812036 -0.019001309 -0.08122464 0.09160999 0.09748414 -0.074554585 0.07171807 0.05919142
-0.01513103 0.023634737 -0.0051242975 -1.4351317e-05 -0.04303056 0.041976135 -0.057614673 -0.10610227
-0.028611666 -0.08028767 0.07053831 0.05569712 -0.046524614 -0.07258602 -0.06095827 -0.038351927
-0.06131974 -0.02974265 0.06342358 0.027810307 0.01369834 0.08599142 0.06805635 -0.030730927
-0.06697298 0.011104244 0.05717546 0.08418006 -0.102212675 0.04159301 -0.020447645 -0.100240245
-0.048853666 -0.06052451 -0.064281106 0.026277712 0.029447582 -0.03143483 0.0351775 0.05840332
-0.028247107 0.0012143176 0.0130927265 -0.10686676 -0.040739477 -0.015321906 0.060011588 0.021828696
-0.065581284 -0.071113616 0.08446056 0.08070699 -0.10479521 -0.043998618 0.0013594334 -0.042361677
0.028071227 0.03272761 0.010754839 -0.093089476 0.053602524 -0.070185825 -0.0985634 0.046389025
0.075340964 -0.09046882 0.08830504 -0.0873581 -0.005896611 -0.018948833 0.00016773728 -0.083693504
-0.038242657 -0.06119129 0.015932899 -0.0981918 -0.10784399 -0.09264429 -0.015401526 0.045468513
0.084691755 -0.010058807 -0.023849592 0.003985747 -0.060048822 -0.004190204 -0.009909232 0.05734501
-0.030566456 -0.0049201543 -0.052772198 -0.064462125 -0.09631753 0.03530574 -0.06555892 -0.07229916
0.084108785 0.0152703915 0.0037651432 -0.022546131 -0.014418653 -0.022922436 0.014848179 0.033511262
-0.031652283 0.025808588 0.071790956 -0.07909305 0.025104865 -0.05777837 0.09358828 -0.069185875
-0.05691717 0.034935385 0.098196074 -0.03321702 -0.09752978 -0.047604527 0.08725069 -0.05856866
-0.06652658 0.038467806 0.016519107 0.05314412 -0.075837575 -0.06799842 0.0773043 0.039078683
-0.083874606 -0.07116633 -0.028043479 0.07591651 -0.01934676 -0.07255831 -0.0762593 -0.0015051704
0.016756983 -0.09129308 0.014786433 0.023873659 0.06420219 -0.029371442 0.021912716 0.093965955
0.10179589 -0.0731053 0.012680681 -0.066423334 -0.084942274 -0.09165568 -0.034439087 0.012780694
00000000: a3c2 4d3c fb67 b23d 3f64 5cbd fe0e 263d
00000010: 877b d8bc 20dc 6b3c 9f5f 8ebd c52f 9ebd
00000020: fbb2 d13c 81f6 ee3a c084 df3c 134d 07bd
00000030: 73ae b3bd 7230 b93d d02e 4cbd 63bd 6e3b
00000040: ed7b bdbd b83d e33c a155 993d df47 76bd
00000050: fe84 833a adaa c33d 8b94 06bd 52ab 9fbd
00000060: 9194 8ebc 611f 8abd f792 943d 38c0 4f3d
00000070: 2936 9bbc a603 033d 1f7f 3e3b 6382 243b
00000080: 1ff5 073d fe85 d33d dbeb e63c 74a7 3cbd
00000090: f988 bd3d 4a69 063d 6588 c0bc d55f 83bd
000000a0: 5e1a 5c3d e301 b73d c1a1 7b3d 8ac7 b13d
000000b0: 57f9 693d 4c68 b3bd 41f3 bcbd 31b0 81bd
000000c0: 3e4a db3b 1d08 44bd 59f5 06bc 5096 a43d
000000d0: 6496 18bd 2e2d 4b3d c7a9 1e3c eb3c 173d
000000e0: 2865 a03d 4eaf fabb 7f6e 3cbd ac9c 2abd
000000f0: 4eb9 3f3d aa54 2e3d bd46 28bc 3aa3 503d
00000100: 8fa9 52bd f7ec 6b3d 5bac 773c 4379 103c
00000110: 9160 88bd f2dc 813d 1fdb 66bc df0b b6bd
00000120: 181d a13d 9a70 903d 0cc8 a13c dc85 893d
00000130: bca9 39bc 3bed 3fbb 763a 45bd 1619 bb3d
00000140: 1c80 793d 6186 1a3d d491 d53c c024 8d3c
00000150: 075c cabd 9403 eabc b76f 873d a0d1 8cbd
00000160: a48f a83d 2ecb db3c bceb d33d 4b5c 91bc
00000170: 6193 c5bc d9f9 9e3d 62b5 9a3d ae33 6e3d
00000180: ab5c e63c a2a8 9bbc 1b59 a6bd 059e bb3d
00000190: c4a5 c73d 13b0 98bd ece0 923d b472 723d
000001a0: 24e8 77bc a39d c13c b9e9 a7bb 70c6 70b7
000001b0: d040 30bd 2bef 2b3d 5dfd 6bbd 264c d9bd
000001c0: 0363 eabc dd6d a4bd 6476 903d aa22 643d
000001d0: 9890 3ebd fba7 94bd 61af 79bd e916 1dbd
000001e0: 682a 7bbd dca6 f3bc 39e4 813d 71d2 e33c
000001f0: 016f 603c 451c b03d 2161 8b3d 6dbf fbbc
00000200: 2129 89bd 93ee 353c d130 6a3d 9866 ac3d
00000210: e154 d1bd 6f5d 2a3d d281 a7bc c24a cdbd
00000220: c81a 48bd 8ce8 77bd d0a5 83bd 5b44 d73c
00000230: 0e3c f13c cfc1 00bd 4816 103d 5238 6f3d
00000240: 7a66 e7bc bd29 9f3a e082 563c f6dc dabd
00000250: 70de 26bd bb08 7bbc b6ce 753d 18d2 b23c
00000260: 7b4f 86bd 04a4 91bd a8f9 ac3d b549 a53d
00000270: df9e d6bd e537 34bd 042f b23a 7083 2dbd
00000280: a1f5 e53c 630d 063d 1035 303c b2a5 bebd
00000290: 528e 5b3d 96bd 8fbd 9cdb c9bd 6b02 3e3d
000002a0: 5d4c 9a3d b747 b9bd 46d9 b43d cee8 b2bd
000002b0: 5c38 c1bb 953a 9bbc a2e2 2f39 8067 abbd
000002c0: 55a4 1cbd b8a3 7abd b685 823c c818 c9bd
000002d0: 4fdd dcbd 4abc bdbd af56 7cbc 313d 3a3d
000002e0: df72 ad3d b2cd 24bc 3860 c3bc df9a 823b
000002f0: c1f5 75bd fb4d 89bb 555a 22bc 9ae2 6a3d
00000300: 8166 fabc 3f39 a1bb a927 58bd b804 84bd
00000310: 2042 c5bd c09c 103d c143 86bd 9511 94bd
00000320: 3a41 ac3d aa30 7a3c 9fc0 763b aab2 b8bc
00000330: 373c 6cbc d5c7 bbbc c745 733c 1b43 093d
00000340: d3a5 01bd 886c d33c 2307 933d 89fb a1bd
00000350: b8a8 cd3c 03a9 6cbd 36ab bf3d 53b1 8dbd
00000360: fa21 69bd 6818 0f3d 061b c93d 920e 08bd
00000370: b1bd c7bd f7fc 42bd 7db0 b23d b1e5 6fbd
00000380: 163f 88bd 6b90 1d3d 1453 873c a6ad 593d
00000390: bb50 9bbd c142 8bbd b851 9e3d f810 203d
000003a0: 73c6 abbd a7bf 91bd 70bb e5bc 1d7a 9b3d
000003b0: 197d 9ebc 7499 94bd d62d 9cbd 2349 c5ba
000003c0: f145 893c def7 babd cc42 723c b192 c33c
000003d0: 707c 833d 619c f0bc 4c82 b33c 3971 c03d
000003e0: 5d7a d03d 3bb8 95bd a2c2 4f3c f508 88bd
000003f0: 37f6 adbd f9b5 bbbd 0010 0dbd 1e66 513c

net.4.module.0.bias f4 [32]
-0.054708913 -0.042992603 0.0040067467 -0.003751816 0.048181422 0.029063925 -0.02733089 0.034324575
-0.020003062 0.06056402 -0.0700151 0.08629086 0.111789204 0.10165155 -0.09293371 0.07628982
-0.051183205 0.09593946 -0.114748836 0.09982255 0.01975968 -0.03262416 -0.06584786 -0.055588197
0.014087861 0.09669512 -0.068938926 -0.10510062 0.057971634 -0.039909627 0.027289094 -0.03819466
00000000: 7416 60bd 0319 30bd 074b 833b 07e1 75bb
00000010: e259 453d 7817 ee3c 08e5 dfbc ed97 0c3d
00000020: 76dd a3bc fa11 783d 1464 8fbd 43b9 b03d
00000030: bdf1 e43d b02e d03d 0754 bebd d63d 9c3d
00000040: 7ba5 51bd e87b c43d 7001 ebbd c46f cc3d
00000050: 0ddf a13c e9a0 05bd 3edb 86bd 73b0 63bd
00000060: c6d0 663c 1708 c63d da2f 8dbd fe3e d7bd
00000070: aa73 6d3d 4778 23bd 618d df3c 0172 1cbd

net.5.weight f4 [3, 32, 3]
-0.056531094 -0.055414706 -0.039734464 0.057752155 0.0703807 0.009677241 0.039662354 -0.05946086
-0.0012843051 -0.094986305 0.01844861 -0.08402964 0.055830695 -0.00938355 0.056851923 -0.023268335
0.0799881 -0.03463075 0.065568425 -0.071509 0.06919219 0.049053695 0.05061194 -0.005716377
0.031187994 -0.011103839 -0.07746466 -0.08633957 0.054116014 -0.033895757 -0.053376853 0.043250076
0.061168134 0.08567535 -0.046472065 0.037119314 0.09158285 0.0041068927 -0.015873367 -0.09434123
-0.07549159 -0.08681731 0.017198544 -0.057888176 0.014831698 -0.07949847 -0.021008711 -0.09412188
0.02611225 -0.10010408 0.043135304 0.08404818 0.063985616 0.03447718 0.054272525 -0.071252346
0.019620342 -0.10160748 -0.10427968 0.09758944 0.086531684 -0.10075248 -0.09813708 -0.010063549
0.06514678 -0.041648243 -0.00269797 0.089996755 0.09343891 -0.0007633095 -0.07403747 0.092192024
-0.008225718 -0.05806588 0.0049341656 0.06508804 -0.01639631 0.033216942 -0.0066274283 0.022935867
-0.107446805 0.0637416 -0.076299675 -0.013797392 -0.018139785 0.03110261 0.06814386 0.016366705
0.044639625 -0.086274184 0.062423944 -0.03941621 -0.013445055 0.061433695 0.025041362 0.0123994555
0.071604095 -0.03641877 0.0072836746 0.055323064 0.07517554 0.01033892 0.110498205 0.086416274
-0.082051806 0.03465772 0.028843293 -0.04461768 -0.041965786 0.020183146 -0.0932007 -0.07929662
-0.036274366 0.02482184 0.057902697 0.03178926 -0.09006476 -0.035843186 0.06959222 0.07403916
-0.019015282 0.10497187 0.0034677808 0.009943712 0.041376162 -0.08327574 -0.013048364 0.09502923
0.047067657 -0.09208892 -0.038919702 0.02530873 -0.0115885595 -0.02963479 -0.0142657515 -0.0601059
0.03107901 -0.11017673 0.0837695 -0.003516687 0.030031528 -0.06513195 0.025616933 0.011254627
0.08155841 -0.041911926 -0.08979036 0.029151248 0.069305025 -0.054819692 -0.022181423 0.05896764
0.013966022 -0.0001330871 -0.07144655 -0.031190416 -0.048483822 -0.07610359 -0.0706742 0.061173216
0.04398343 0.020756675 -0.039311152 -0.030275319 0.07627985 -0.0020166566 0.06180186 -0.0018835522
0.0732025 -0.018211098 0.08129776 0.06699271 -0.07032965 0.016349649 -0.048742764 -0.010805959
-0.030859616 0.07951758 -0.022635167 0.023515973 0.074148975 0.05398352 -0.06838376 -0.041689288
0.02776808 0.07128904 0.089818284 -0.013183027 -0.08500302 0.0006748652 0.08813919 0.095544234
0.08705293 -0.08171247 -0.07111273 -0.048780557 0.010916045 0.05211062 -0.008918009 -0.032638576
-0.009256782 0.06421754 -0.093602225 0.021368518 0.08158311 0.09113651 -0.045589723 0.04345076
-0.018502688 -0.051030196 0.061398026 -0.073326714 0.03806004 -0.09337158 0.10605438 -0.04013638
-0.03601418 0.010837075 -0.07976682 -0.021998381 -0.08309263 0.039636433 0.059790514 0.064722605
0.08332069 0.0047527677 -0.05858988 -0.04826393 0.08668018 -0.03283698 0.016267052 0.05865488
0.060824454 0.0835669 -0.040398687 -0.028424969 0.09006197 0.08112463 -0.023487573 0.091749996
0.05657088 -0.031030452 -0.059175894 0.10814163 -0.0763034 -0.023927886 -0.060816076 -0.10232338
-0.0882518 -0.03867689 -0.07454601 0.098352775 0.05762426 -0.07984029 0.048479706 -0.06624709
00000000: 268d 67bd 88fa 62bd 9bc0 22bd 868d 6c3d
00000010: c223 903d 4a8d 1e3c fe74 223d 3b8d 73bd
00000020: 2156 a8ba 2e88 c2bd 8a21 973c bb17 acbd
00000030: baae 643d 76bd 19bc 90dd 683d 3c9d bebc
00000040: cdd0 a33d f9d8 0dbd bd48 863d 5073 92bd
00000050: a3b4 8d3d 87ec 483d 774e 4f3d 7250 bbbb
00000060: f77d ff3c e0ec 35bc cba5 9ebd cdd2 b0bd
00000070: c1a8 5d3d 47d6 0abd b0a1 5abd fe26 313d
00000080: 708b 7a3d 8f76 af3d 7e59 3ebd 6c0a 183d
00000090: ca8f bb3d 1d93 863b dd08 82bc fa35 c1bd
000000a0: 569b 9abd 46cd b1bd f6e3 8c3c 271c 6dbd
000000b0: a600 733c 18d0 a2bd 761a acbc f9c2 c0bd
000000c0: 5be9 d53c 5e03 cdbd a5ae 303d 7421 ac3d
000000d0: e40a 833d f237 0d3d de4c 5e3d c0ec 91bd
000000e0: d7ba a03c 9517 d0bd 9690 d5bd f9dc c73d
000000f0: 8637 b13d 5157 cebd 18fc c8bd 95e1 24bc
00000100: ad6b 853d 5997 2abd 6dd0 30bb 3850 b83d
00000110: e65c bf3d d518 48ba f5a0 97bd 2ccf bc3d
00000120: 29c5 06bc 7dd6 6dbd c8ae a13b e14c 853d
00000130: 8e51 86bc 7d0e 083d e62a d9bb 00e4 bb3c
00000140: 120d dcbd f58a 823d 0143 9cbd 750e 62bc
00000150: e399 94bc e7ca fe3c 028f 8b3d 7813 863c
00000160: 0ad8 363d 85b0 b0bd 40b0 7f3d e472 21bd
00000170: a648 5cbc e6a1 7b3d 8b23 cd3c 1627 4b3c
00000180: 2ba5 923d d92b 15bd e4ab ee3b 709a 623d
00000190: a2f5 993d 9364 293c e24c e23d 04fb b03d
000001a0: c70a a8bd 41f5 0d3d c548 ec3c 07c1 36bd
000001b0: 51e4 2bbd 2057 a53c 02e0 bebd 4466 a2bd
000001c0: 6e94 14bd 2c57 cb3c 612b 6d3d 7535 023d
000001d0: df73 b8bd 4ed0 12bd 5e86 8e3d d8a1 973d
000001e0: f0c5 9bbc 7efb d63d b543 633b f3ea 223c
000001f0: 0d7a 293d 798c aabd cec8 55bc af9e c23d
00000200: 04ca 403d 1e99 bcbd 446a 1fbd 4154 cf3c
00000210: f1dd 3dbc a9c4 f2bc e6ba 69bc 9b31 76bd
00000220: 6899 fe3c 56a4 e1bd 588f ab3d 3878 66bb
00000230: ae04 f63c e663 85bd 9ada d13c 5465 383c
00000240: 1808 a73d d7ab 2bbd 02e4 b7bd 99ce ee3c
00000250: cbef 8d3d 9d8a 60bd d1b5 b5bc 0d88 713d
00000260: bed1 643c 4c8d 0bb9 9252 92bd 0b83 ffbc
00000270: f996 46bd 33dc 9bbd a3bd 90bd c490 7a3d
00000280: f827 343d e709 aa3c bb04 21bd f203 f8bc
00000290: 9c38 9c3d e229 04bb f223 7d3d 86e1 f6ba
000002a0: 31eb 953d 712f 95bc 717f a63d 7933 893d
000002b0: fe08 90bd b3ef 853c 7ea6 47bd 7a0b 31bc
000002c0: 4ecd fcbc 1dda a23d 636d b9bc 92a4 c03c
000002d0: 6bdb 973d d31d 5d3d c90c 8cbd 63c2 2abd
000002e0: e279 e33c fdff 913d a6f2 b73d 9ffd 57bc
000002f0: 1016 aebd 70e9 303a 5282 b43d b2ac c33d
00000300: ce48 b23d de58 a7bd 8da3 91bd 1fce 47bd
00000310: 36d9 323c f271 553d d71c 12bc 07b0 05bd
00000320: c2a9 17bc 7c84 833d 86b2 bfbd 080d af3c
00000330: 0c15 a73d c7a5 ba3d 4abc 3abd 6df9 313d
00000340: f392 97bc 0a05 51bd 7f7c 7b3d 512c 96bd
00000350: d8e4 1b3d 9939 bfbd 0a33 d93d 0b66 24bd
00000360: 9b83 13bd fd8d 313c c95c a3bd f335 b4bc
00000370: 782c aabd d059 223d e6e6 743d 498d 843d
00000380: 0aa4 aa3d 1bbd 9b3b f1fb 6fbd 66b0 45bd
00000390: 6185 b13d 1280 06bd 7b42 853c 1940 703d
000003a0: 1023 793d 1f25 ab3d 1879 25bd 7bdb e8bc
000003b0: 6972 b83d ac24 a63d 0369 c0bc 6ce7 bb3d
000003c0: deb6 673d 9333 febc 6c62 72bd 5c79 dd3d
000003d0: f544 9cbd 6a04 c4bc 471a 79bd ec8e d1bd
000003e0: 5cbd b4bd a96b 1ebd 94ab 98bd 2e6d c93d
000003f0: 6b07 6c3d 4e83 a3bd a892 463d 8eac 87bd

net.5.bias f4 [3]
-0.058380093 0.06576178 -0.031399947
00000000: f71f 6fbd 1dae 863d 3b9d 00bd

exp_avg f4 [32, 21, 2]
-0.002738538 0.00037182312 0.002447886 0.0018442301 0.00048287702 -0.0009135809 0.000138157 -0.00015499015
0.00039904262 0.00067030254 0.00043333086 0.001063661 -0.00044611032 0.0005166426 -3.5779667e-05 0.0007737598
0.00041519874 0.00022278843 0.00041905194 0.00012115489 0.00021745698 0.0005176582 -0.001137357 9.665442e-05
-9.664036e-07 -2.9478077e-05 0.000111752626 0.0027260568 0.00025941688 0.0001177667 0.0014805985 0.0009882377
-4.92424e-05 3.743824e-05 0.0039001235 -0.0023941381 -0.0003819244 0.0010573327 -2.8588547e-06 0.0002272802
0.0024559142 0.00019030427 0.0018292749 -4.6730303e-05 -0.0019372283 0.00095650856 0.00014506723 9.3068105e-05
-0.00012260661 4.774216e-05 -0.00035360354 2.6345318e-05 -0.0003185716 0.00030567922 -0.0013050414 -0.0005970398
0.00014964718 -0.00014601648 -0.00018366805 0.00058907876 -6.9739755e-05 -6.666263e-05 -0.0002522262 0.00017313648
0.0003042615 0.00014928062 1.4069481e-05 4.66244e-06 -0.0006984067 -0.0006900246 1.6893144e-05 -0.00045164523
0.0007817297 0.0008510792 0.0014409008 0.0013882242 -0.00075944077 0.0022359097 -0.0001397803 0.00017443698
0.00014610414 -6.6174005e-05 0.00054233964 0.0019257867 -0.00030389888 -0.0001812551 -0.0035106922 -0.0036456466
-0.00064633164 -0.00024322886 0.00013633158 -0.00012814191 4.5453242e-05 0.00037182437 -0.001482227 -0.0010945918
-0.0011394622 0.00015735511 -0.0002762496 0.0009822075 -0.0003070227 -7.388409e-05 -6.948279e-05 -0.00035077822
0.00022723629 5.9413174e-05 -0.00021748585 0.0010903939 0.00012973069 -0.00055528607 -0.0017277179 0.0007936619
-0.0022828039 0.00045297458 -0.0008632986 -0.0018966573 0.0015271454 -0.0001300411 0.0012850577 -3.5750752e-05
-0.0010323995 0.00027148664 -0.00016009186 -5.550093e-06 -0.0012071584 0.0014209966 -0.001528003 9.9540775e-06
0.00017646613 0.0032825377 0.00013430652 -0.00012569528 0.00010794225 -0.00029002567 -4.8285983e-05 0.00015740548
0.0043857256 -0.0019598112 -5.2490097e-05 0.0009500319 5.24914e-05 0.0020878904 0.000876989 3.6579033e-05
0.0004193117 7.0380156e-06 2.072398e-05 0.0008360268 -0.00050570467 -0.0016578045 -3.8372207e-05 -0.00068876543
-0.0030535348 0.0011272551 -3.1615986e-05 -0.00017324963 0.00081660453 -0.002975699 -0.0025183694 -0.00044242994
0.00032469205 -0.0023905593 0.00034535208 0.0005829505 -0.0003867671 -5.4305674e-05 0.0010320556 0.0017671797
-0.0022196611 0.00024164922 3.5069766e-05 0.00047732668 -0.00021207758 -0.00050168985 4.4627777e-05 -4.319355e-06
-6.4994216e-05 -0.00022786765 -0.00034121508 0.000109245535 0.0014169987 0.00080926094 0.00035119595 -9.434769e-05
0.00014552912 0.00010487836 -1.0070595e-05 -2.1622662e-05 0.00034613418 0.0013910223 -0.00023178881 0.0006100061
0.00032224046 0.00044243905 0.00014760844 0.00022945197 -0.0004951794 -0.00018432917 0.0006129999 -0.0047260183
-0.00045453417 -0.00055236305 -0.0012717103 -0.0013466019 0.00060687243 0.00029611503 2.5249183e-05 3.7575366e-05
0.0005504604 0.0003931771 5.0225393e-05 0.00016871467 0.0033456904 0.0028686295 0.0004303084 7.06398e-06
0.000112247624 7.79007e-05 -0.00076152605 -0.00023540194 0.002173273 -0.0010295731 0.0013124322 0.0010584391
-0.00015357567 0.0003614641 0.0010406201 -6.651906e-06 6.490288e-06 0.00028416 -0.0010121819 0.0001407569
-0.00033114533 -0.000679307 0.000150622 0.00031049817 0.0003238256 -0.0014457603 -0.00035554013 -0.00010848255
0.00013026144 0.00020908877 -8.264119e-05 0.00080741855 0.0006515621 0.0001046671 0.001661815 -0.0002457703
-0.00025283964 -0.0006289671 0.002552869 0.00047640334 0.0009193203 8.31723e-05 -0.003183133 -3.936659e-05
00000000: 0b79 33bb 41f1 c239 b66c 203b 18ba f13a
00000010: a82a fd39 607d 6fba 3dde 1039 da84 22b9
00000020: 9836 d139 3eb7 2f3a af30 e339 8a6a 8b3a
00000030: eae3 e9b9 4c6f 073a 2012 16b8 24d6 4a3a
00000040: 08af d939 509c 6939 33b4 db39 8914 fe38
00000050: 2a05 6439 74b3 073a 5e13 95ba f2b2 ca38
00000060: 60b5 81b5 b047 f7b7 bc5c ea38 a5a7 323b
00000070: 5802 8839 84f9 f638 a410 c23a c187 813a
00000080: a089 4eb8 0107 1d38 3799 7f3b f9e6 1cbb
00000090: 063d c8b9 3396 8a3a c0da 3fb6 1052 6e39
000000a0: 67f3 203b 6a8c 4739 48c4 ef3a 4800 44b8
000000b0: 98ea fdba 34be 7a3a 301d 1839 8f2d c338
000000c0: f68f 00b9 c13e 4838 dd63 b9b9 2400 dd37
000000d0: f505 a7b9 9243 a039 ec0d abba aa82 1cba
000000e0: 9cea 1c39 001c 19b9 0497 40b9 686c 1a3a
000000f0: 3f41 92b8 3acd 8bb8 3a3d 84b9 f88b 3539
00000100: 4a85 9f39 3688 1c39 f60b 6c37 0e72 9c36
00000110: 4815 37ba c4e2 34ba c0b5 8d37 ccca ecb9
00000120: feec 4c3a f51a 5f3a 9cdc bc3a 13f5 b53a
00000130: 3515 47ba 5788 123b fd91 12b9 12e9 3639
00000140: 8833 1939 e6c6 8ab8 cc2b 0e3a ae6a fc3a
00000150: 9e54 9fb9 4c0f 3eb9 a413 66bb cdeb 6ebb
00000160: 956e 29ba 400b 7fb9 3bf4 0e39 d55d 06b9
00000170: 0ca5 3e38 6cf1 c239 4947 c2ba 6878 8fba
00000180: 025a 95ba b1ff 2439 98d5 90b9 6abd 803a
00000190: e4f7 a0b9 38f2 9ab8 4ab7 91b8 a8e8 b7b9
000001a0: 4746 6e39 6932 7938 ea0c 64b9 8ceb 8e3a
000001b0: 5108 0839 9e90 11ba 9874 e2ba c00d 503a
000001c0: 189b 15bb 387d ed39 fd4e 62ba 4299 f8ba
000001d0: 7f2a c83a a45b 08b9 626f a83a 14f3 15b8
000001e0: 9451 87ba 5256 8e39 55de 27b9 f03a bab6
000001f0: 8439 9eba bc40 ba3a 4647 c8ba 7000 2737
00000200: c409 3939 d81f 573b a2d4 0c39 12cd 03b9
00000210: 0e5f e238 960e 98b9 ae86 4ab8 360d 2539
00000220: 22b6 8f3b 2d70 00bb d028 5cb8 900b 793a
00000230: 362a 5c38 fdd4 083b bce5 653a 706c 1938
00000240: 10d7 db39 1828 ec36 68d8 ad37 cf28 5b3a
00000250: 4491 04ba b04a d9ba d8f1 20b8 448e 34ba
00000260: d01d 48bb 68c0 933a 689b 04b8 58aa 35b9
00000270: 6711 563a f203 43bb 3a0b 25bb f1f5 e7b9
00000280: 6e3b aa39 eeaa 1cbb 5f10 b539 25d1 183a
00000290: 00c7 cab9 46c6 63b8 0a46 873a b6a0 e73a
000002a0: bc77 11bb 3863 7d39 e017 1338 b441 fa39
000002b0: 2461 5eb9 d683 03ba b62e 3b38 faee 90b6
000002c0: 814d 88b8 c2ef 6eb9 1de5 b2b9 c01a e538
000002d0: 96ba b93a 9524 543a b920 b839 88dc c5b8
000002e0: 2d99 1839 24f2 db38 e0f4 28b7 5062 b5b7
000002f0: 5879 b539 f752 b63a 560c 73b9 d1e8 1f3a
00000300: 62f2 a839 2af7 e739 57c7 1a39 0b99 7039
00000310: edce 01ba 7c48 41b9 bab1 203a b7dc 9abb
00000320: 8b4e eeb9 75cc 10ba 84af a6ba 7680 b0ba
00000330: 8516 1f3a e33f 9b39 35ce d337 3e9a 1d38
00000340: c64c 103a 5623 ce39 1ba9 5238 00e9 3039
00000350: 5f43 5b3b 9eff 3b3b 049b e139 2007 ed36
00000360: 7c66 eb38 9f5e a338 26a1 47ba 3ad6 76b9
00000370: 786d 0e3b bef2 86ba eb05 ac3a 53bb 8a3a
00000380: 2809 21b9 e482 bd39 6b65 883a 7033 dfb6
00000390: 26c7 d936 4ffb 9439 30ab 84ba 2598 1339
000003a0: 939d adb9 8513 32ba 49f0 1d39 5cca a239
000003b0: 23c7 a939 aa7f bdba ca67 bab9 2081 e3b8
000003c0: ca96 0839 d73e 5b39 a74f adb8 f1a8 533a
000003d0: 98cd 2a3a b980 db38 42d1 d93a bbda 80b9
000003e0: 908f 84b9 44e1 24ba 094e 273b c6c5 f939
000003f0: 8afe 703a ca6c ae38 1c9c 50bb 8e1d 25b8

exp_avg_sq f4 [32, 21, 2]
0.00018927641 7.705146e-06 0.0005806406 0.00035923807 7.2931853e-06 8.924075e-06 4.4783576e-07 1.1143908e-06
3.128171e-06 2.4350804e-06 4.122712e-05 4.112717e-05 5.576862e-05 3.949034e-05 2.0906946e-05 7.8949315e-06
2.726683e-05 3.5657027e-05 2.2733677e-06 4.3253232e-07 2.4505994e-06 4.2276124e-06 8.695172e-06 5.054457e-06
1.29701975e-05 1.5819884e-06 0.00010268548 2.214615e-05 1.5935094e-06 0.00015264012 0.00015160804 0.00011583763
0.00024947122 1.9278094e-05 0.00015569603 0.00021295492 1.50172355e-05 1.7067663e-05 4.1037265e-07 1.7516081e-06
2.8674525e-05 3.415882e-05 2.6690393e-05 1.2184131e-06 0.0008551242 0.00023854508 1.2441877e-06 1.538475e-06
2.9338992e-07 3.315687e-07 1.7133328e-06 6.163906e-07 3.292367e-05 2.8729972e-05 6.194353e-05 1.07026e-05
7.333974e-06 4.822481e-06 1.3327604e-05 1.9562818e-05 7.4425003e-07 3.8031834e-07 1.4399176e-06 3.36533e-06
2.9805735e-06 5.3801627e-06 4.101617e-06 1.2246993e-06 7.7935e-05 0.00013627655 5.547306e-06 3.0974254e-05
5.5602548e-05 0.000102841484 7.999494e-05 7.2929106e-05 2.9180841e-05 3.4517503e-05 4.8310376e-06 6.4706855e-06
6.511837e-07 1.4743957e-06 0.00011636487 9.1910144e-05 1.208737e-06 2.2547804e-06 0.0003958995 0.0005425401
4.5024276e-06 4.7789395e-06 3.9116514e-07 4.2737764e-07 3.2069931e-06 2.6509604e-06 2.3118426e-05 1.3938966e-05
4.6869074e-05 1.8049926e-05 1.338497e-05 7.6009724e-06 2.9078881e-05 8.874025e-06 3.3008115e-07 2.0289317e-06
1.5209912e-06 1.0280378e-06 5.2904625e-06 8.887342e-06 4.1141852e-06 2.1237654e-06 1.22372e-05 0.00016173412
6.027813e-05 7.8770345e-06 7.447373e-05 2.579388e-05 5.2128074e-05 1.7345696e-05 5.028438e-06 6.4860387e-06
1.9021e-05 1.3207952e-05 2.003645e-06 2.0821528e-06 8.7018045e-05 9.265106e-05 9.349973e-05 9.092902e-07
5.578075e-05 7.910584e-05 4.511959e-06 3.8365292e-06 6.719458e-07 5.1724476e-07 9.971659e-07 1.1742789e-06
6.5983564e-05 4.0577324e-05 2.4518502e-05 4.044836e-05 4.5436273e-06 8.343844e-06 6.929811e-06 3.0264922e-05
1.7570301e-06 1.695585e-06 6.3113e-06 7.473727e-06 1.1788191e-05 9.201764e-06 6.6566836e-06 8.009343e-06
0.00012090024 0.00018241855 3.3791e-06 1.0355543e-05 1.3539816e-05 0.00014051519 0.00014476989 1.2043238e-05
3.3012884e-06 8.471771e-05 1.5927334e-06 1.0314307e-05 9.0893997e-07 4.6304842e-07 0.00014142059 0.00015625721
0.0002050038 1.558159e-06 8.645535e-05 5.0930656e-05 1.4841276e-06 8.269823e-06 9.049201e-08 6.9314844e-08
1.5688116e-07 5.056246e-07 2.8112789e-05 7.728442e-05 5.6918075e-06 5.381161e-06 2.9906387e-06 1.8703904e-05
4.7178987e-06 1.8041488e-05 2.3777719e-07 2.7608098e-07 8.168185e-06 6.9144717e-06 7.829021e-07 6.970868e-06
6.916645e-06 7.692491e-06 1.909301e-05 4.627369e-06 1.3791349e-05 4.377655e-05 3.6328136e-05 0.00034438618
0.00021202139 5.4179814e-06 3.606619e-05 0.00022186944 3.0683493e-06 1.6660651e-05 9.937481e-08 2.911363e-07
0.00010295835 0.00016043664 6.1201905e-07 4.263137e-07 0.00026868514 6.0463968e-05 1.8429415e-06 2.4196777e-06
2.9856227e-07 3.4403394e-07 2.3775974e-06 1.1974736e-06 4.114567e-05 4.809909e-05 9.174328e-05 1.0039812e-05
2.2161746e-06 3.1246393e-06 1.9809404e-05 6.374374e-06 5.8055315e-07 1.5265687e-06 5.248746e-06 3.7321806e-06
8.749563e-06 1.8237646e-06 1.2944016e-06 3.320917e-06 9.4471325e-06 1.0437049e-05 1.0448158e-06 6.8278882e-06
5.063315e-06 4.9552714e-06 1.83904e-05 5.9026206e-05 4.501476e-06 3.4495247e-06 1.0713982e-05 1.1136989e-05
5.0350747e-07 2.1097565e-06 0.00011172524 0.000108289685 4.7382164e-05 4.316863e-07 0.00026385926 1.21386165e-05
00000000: 8078 4639 5a45 0137 2236 183a 1e58 bc39
00000010: fcb7 f436 9cb8 1537 146e f034 2d92 9535
00000020: 92ed 5136 5d6a 2336 48eb 2c38 f67f 2c38
00000030: 1ae9 6938 6ea2 2538 5361 af37 7974 0437
00000040: 12bb e437 718e 1538 2990 1836 ca36 e834
00000050: fa74 2436 eada 8d36 7be1 1137 7499 a936
00000060: 939a 5937 b554 d435 d958 d738 7fc6 b937
00000070: 91e0 d535 050e 2039 f9f8 1e39 dbed f238
00000080: 76cb 8239 64b7 a137 5642 2339 a74c 5f39
00000090: 89f2 7b37 872c 8f37 3051 dc34 cc18 eb35
000000a0: 138a f037 c145 0f38 2fe5 df37 5b88 a335
000000b0: 6a2a 603a f521 7a39 f7fd a635 997d ce35
000000c0: 3483 9d34 7502 b234 abf5 e535 0a76 2535
000000d0: 8517 0a38 2501 f137 aee7 8138 518f 3337
000000e0: 5b16 f636 ccd0 a136 a099 5f37 d51a a437
000000f0: 79c8 4735 8e2e cc34 3143 c135 eed7 6136
00000100: dd05 4836 3f87 b436 9fa0 8936 5960 a435
00000110: 0971 a338 75e5 0e39 ff22 ba36 5aea 0138
00000120: c836 6938 9aac d738 f5c2 a738 84f1 9838
00000130: 61c9 f437 e3c6 1038 4c1a a236 c41e d936
00000140: 01cd 2e35 dae3 c535 ea08 f438 e2bf c038
00000150: e33b a235 d550 1736 bb90 cf39 4039 0e3a
00000160: 8f13 9736 c75a a036 5401 d234 5672 e534
00000170: b937 5736 27e7 3136 71ee c137 67db 6937
00000180: 4995 4438 ec69 9737 0290 6037 db0b ff36
00000190: 6cee f337 a6e1 1437 0236 b134 c828 0836
000001a0: dc24 cc35 1cfb 8935 ba84 b136 d81a 1537
000001b0: 950c 8a36 0386 0e36 604e 4d37 2c97 2939
000001c0: 26d3 7c38 9b27 0437 c82e 9c38 ef5f d837
000001d0: 18a4 5a38 9981 9137 f4b9 a836 a6a2 d936
000001e0: 498f 9f37 b997 5d37 5c76 0636 1dbb 0b36
000001f0: 757d b638 a94d c238 4915 c438 f215 7435
00000200: 20f6 6938 a0e5 a538 6f65 9736 89bb 8036
00000210: c45f 3435 cad8 0a35 5cd6 8535 ea9b 9d35
00000220: a860 8a38 9231 2a38 15ad cd37 19a7 2938
00000230: 7675 9836 89fc 0b37 a086 e836 6de1 fd37
00000240: 18d3 eb35 db93 e335 a7c5 d336 d3c6 fa36
00000250: e5c5 4537 4761 1a37 7a5c df36 de5f 0637
00000260: d28b fd38 9b47 3f39 7fc4 6236 b8bc 2d37
00000270: 1129 6337 4257 1339 5fcd 1739 500d 4a37
00000280: b48b 5d36 79aa b138 e7c5 d535 9c0b 2d37
00000290: e1fd 7335 e498 f834 4d4a 1439 fad8 2339
000002a0: 4af6 5639 f021 d135 5d4f b538 609e 5538
000002b0: 3c32 c735 9fbe 0a37 8254 c233 3dda 9433
000002c0: 2a73 2834 42ba 0735 c1d3 eb37 c213 a238
000002d0: 41fc be36 d28f b436 c8b2 4836 54e6 9c37
000002e0: 714e 9e36 cd57 9737 b24f 7f34 4838 9434
000002f0: 160a 0937 dc02 e836 9f28 5235 4de7 e936
00000300: 8715 e836 ff0e 0137 ed29 a037 cc44 9b36
00000310: 6561 6737 b69c 3738 0a5f 1838 bb8e b439
00000320: 0f52 5e39 1bcc b536 c745 1738 a0a5 6839
00000330: d7e9 4d36 7ac2 8b37 e167 d533 784d 9c34
00000340: 58eb d738 e23a 2839 a149 2435 1ce0 e434
00000350: 4fde 8c39 b19a 7d38 fd5a f735 bf61 2236
00000360: 164a a034 aab3 b834 d08e 1f36 e1b8 a035
00000370: d493 2c38 01be 4938 4c66 c038 aa70 2837
00000380: 97b9 1436 e5b0 5136 5f2c a637 75e3 d536
00000390: 4fd7 1b35 80e4 cc35 631e b036 6076 7a36
000003a0: 16cb 1237 13c8 f435 4dbb ad35 ebdc 5e36
000003b0: 207f 1e37 c91a 2f37 993b 8c35 1d1b e536
000003c0: 8be5 a936 7545 a636 1545 9a37 e892 7738
000003d0: 620b 9736 627e 6736 34c0 3337 01d9 3a37
000003e0: c528 0735 5795 0d36 084e ea38 9519 e338
000003f0: 36bc 4638 83c2 e734 9756 8a39 f6a6 4b37

exp_avg f4 [32]
0.00017702836 0.0001031763 9.0853755e-05 9.560319e-06 -0.00016790754 -0.00014513826 5.673406e-05 1.5530195e-05
8.878691e-06 -2.2978606e-05 0.0003501324 -0.00024182347 -9.293643e-05 4.740234e-05 0.00020473258 0.00029053897
-1.6222757e-05 6.636996e-05 -0.00021652848 -1.5544618e-05 -0.0001606149 5.9432467e-05 -0.0001863729 4.812854e-05
0.00026447096 -1.0834563e-05 -4.552699e-05 0.00012781387 5.3415275e-05 5.893957e-05 -3.6868187e-05 1.0064574e-05
00000000: b0a0 3939 5b60 d838 bd88 be38 4265 2037
00000010: 5610 30b9 4130 18b9 bcf5 6d38 d746 8237
00000020: b0f5 1437 2ec2 c0b7 fa91 b739 fe91 7db9
00000030: dee6 c2b8 e0d1 4638 7cad 5639 7b53 9839
00000040: 1b16 88b7 1a30 8b38 ec0b 63b9 d065 82b7
00000050: bc6a 28b9 2047 7938 186d 43b9 a0dd 4938
00000060: b1a8 8a39 18c6 35b7 3cf4 3eb8 c605 0639
00000070: 370a 6038 e235 7738 eaa2 1ab8 04db 2837

exp_avg_sq f4 [32]
1.4313008e-07 1.8389584e-07 1.8688237e-07 1.0313397e-07 1.5408892e-07 1.1493449e-07 1.8783157e-07 4.8734833e-08
9.934861e-08 9.9528556e-08 4.8410305e-07 2.2495819e-07 1.2618085e-07 2.2721318e-07 2.491282e-07 2.1670964e-07
4.4395993e-08 6.2670026e-08 2.9281802e-07 1.4095814e-07 2.781309e-07 1.11344924e-07 1.9174931e-07 5.6980042e-08
4.1438477e-07 3.0636464e-08 4.244347e-08 1.10077266e-07 1.3852222e-07 7.712726e-08 4.0675815e-08 1.5418698e-07
00000000: 4caf 1934 e774 4534 d6a9 4834 807a dd33
00000010: a473 2534 e7d1 f633 c0ae 4934 8450 5133
00000020: 7a59 d533 67bc d533 4ff3 0135 098c 7134
00000030: 547c 0734 e2f7 7334 ebbf 8534 b1b0 6834
00000040: e9ad 3e33 3695 8633 9a34 9d34 475a 1734
00000050: 0552 9534 851c ef33 a6e3 4d34 38ba 7433
00000060: 9c78 de34 2695 0333 174b 3633 9e63 ec33
00000070: b3bc 1434 29a1 a533 88b3 2e33 988e 2534
