cebra_models/reach1_4/03/discerte_label_models/cebra_trialID_SucessFailure_model_2500_3_reach1_4_A_AllSameID_2024-05-10_18-05-37.pt (torch, 234269 bytes, 31 tensors)

net.0.weight f4 [32, 21, 2]
00000000: 7d4b 0e3e b2de a03c a1e2 723b 0f36 993d
00000010: fc80 fbbc 8f3e d53d 239e 09bd 2206 d73d
00000020: dae1 e3bd 897d 1fbc 19ad 073d 5cce 3fbd
00000030: 1860 df3d 03f5 8b3d 3d21 253d 874d cfbd
00000040: dec3 03be 247c e2bd 959c 1a3e b9e9 dabb
00000050: 2b41 b13d 0c1e 03bb dc5d a73d e26d b23d
00000060: 69e6 393c b445 1bbe 6a79 0abd a8c5 933d
00000070: 173d debd b2e2 be3d 23ba c7bd fc09 143e
00000080: ca22 80bc 7570 22bd 0fbd dcbd a837 e7bd
00000090: 85d7 bcbd 90b1 4d3d 9db5 3d3c 61ac 083e
000000a0: 5f31 653c 1900 35bd f749 fd3c d807 ebbd
000000b0: 1c3a 60bd 04fa e03c 3b14 e7bc 34a4 1bbe
000000c0: 2d61 f9bd 80ea ba3c 6648 1fbe 116b 773b
000000d0: 82d1 e6bc 6233 0f3e 3918 aa3d 89ea 1abe
000000e0: caef 78bd 6b49 a3bb f2e5 7fbd 0177 fc3c
000000f0: 3b6a 01be 69f3 963d b7d6 f83c 1997 bebd
00000100: b132 d63c 1d69 323d 3c88 3d3d 4442 5a3d
00000110: 943e 8e3d 301a 02bb 1a25 c6bd e22b 0f3e
00000120: d8f1 143d 3fb2 053e 49e4 ffbd 076c dfbd
00000130: 1fd7 a13d fb89 7f3b ee86 a8bc 0a7f 2d3e
00000140: 372c 21be 0dd8 acbd 7f6c 51bd a008 a3bd
00000150: 3b20 cb3d b0f6 da3d 4792 bb3d 7d8d c9bd
00000160: 349a 783c 50d6 093e 7378 7cbc 60e0 ebbc
00000170: aa88 863d a828 24bd 9564 5b3d b2d4 e73d
00000180: 783d 443d 1985 4a3d 8c5e 553d 8adb d7bd
00000190: 2aa1 61bd 75c9 e83d 632e ca3b 3062 003d
000001a0: f5b7 7ebb 72c8 a1bc 2e2c 5f3d 3f34 b6bd
000001b0: 8d3c a4bd 44d7 bb3d 2ff4 30bd dfa1 203e
000001c0: 9769 e5bd 3310 bb3d a506 f43d f2b2 62bd
000001d0: 1218 183d 7bac d5bd 4018 c9bc c65d dfbd
000001e0: 2677 84bd f041 d5bd 1ba3 ba3d ed5c 843d
000001f0: a6a7 f13d 8419 123e 43ca 83ba 9a11 54bb
00000200: 5720 d4bd 7e78 90bd 59c2 17be 21db 37bd
00000210: f039 0cbe f146 b03d 6c53 153e 0d80 a2bd
00000220: ee76 e5bb ba15 b3bd 2b00 113d 0b48 173c
00000230: d24d a93d 462a f33c 7305 01be 33e8 103e
00000240: 69f3 e1bd 397a b6bd a71c 07be 675f dc3d
00000250: a09b db3c dbc1 ba3c e2bc 853d 9b10 e73d
00000260: 50ec 9d3d 0889 ffbd a381 12be 6e7b 003d
00000270: ee84 6d3d 7f54 a3bb f117 2c3d f25b 0dbd
00000280: a71b 243c 4811 cf3d 8e81 103c 98b5 013e
00000290: 8491 123e 0d47 c4bd 87ee 73bd 9292 2c3c
000002a0: fc5c c1bd 7bd3 03bd c048 e4bd 768f 293c
000002b0: c724 183d 60fd 953c e007 223d 186e 14be
000002c0: be73 99bd 5a16 b5bd f045 3b3d 77eb d5bc
000002d0: e315 1b3d 9033 af3d a962 e73d 62aa 57bd
000002e0: 9cc5 cd3d c3ad 9c3d 3e89 143e 8450 cebd
000002f0: 3697 413d 5f5d c0bd d01b e1bd f581 b9bd
00000300: dc5a adbd 782a 713d 7423 54bd 97dd 7dbd
00000310: 6e6d 49bd 9c66 913d a30b b43d 000c e9bd
00000320: a15c d53c 85e0 fc3d a02e 0d3e ba87 a6bd
00000330: b10a 3f3e 9cdc ebbd b11b e6bd a051 b03d
00000340: 5383 0538 4479 83bd b342 d43d d071 cf3d
00000350: 614e 973d f8c7 56bc a6d6 e5bd 46cb afbd
00000360: c1a2 e9bd 04c6 e03d 4a5a ebbd 40af 9b3c
00000370: 3779 aa3d 384c aabd f342 ba3d f1a8 45bd
00000380: f4f7 0d3e 4338 f23d 90e5 dcbc e1ea 203e
00000390: f837 18bd 2261 b0bc afe4 3e3e 31d0 003d
000003a0: 6190 80bd abaf 22be c851 ea3d 3620 0d3d
000003b0: 797b b43d 93b6 cabd b8db 12be 633e 8b3d
000003c0: 1c16 683d 171a cf3d fb33 92bd e5b2 c33d
000003d0: cb59 50bd 9f08 11bd b29d 8d3d 6b26 573c
000003e0: 3c8d c2bd c7f3 c3bd ee7c 013c acda 3b3b
000003f0: 96fa 1d3e 4276 dbbd 63be 24bc 4ea8 68bd
0.13895984 0.01963744 0.003706135 0.07481014 -0.030701153 0.10412323 -0.033598077 0.104992166
-0.11127062 -0.00973452 0.033124063 -0.04682766 0.10907 0.06833842 0.0403149 -0.10122209
-0.12867686 -0.11058834 0.15098794 -0.006680694 0.08655008 -0.0020006923 0.08172199 0.08712365
0.011346438 -0.15163308 -0.033807196 0.07215434 -0.10851496 0.093205824 -0.097523 0.14456934
-0.015641589 -0.03965803 -0.107782476 -0.112899125 -0.092207946 0.050218165 0.0115789445 0.13347007
0.013988822 -0.044189546 0.030919058 -0.114761055 -0.054742917 0.027462967 -0.028207889 -0.15199357
-0.12176738 0.022816896 -0.15554962 0.0037753026 -0.028176073 0.13984445 0.08305401 -0.1512853
-0.060775556 -0.0049831173 -0.062475152 0.030818464 -0.1263818 0.073706456 0.030375822 -0.09306163
0.026147218 0.043557275 0.0462725 0.053285852 0.069455296 -0.0019852035 -0.09675045 0.13981584
0.036363453 0.13056277 -0.12494714 -0.109092765 0.07902359 0.0038992155 -0.020572152 0.16942993
-0.15739523 -0.08439646 -0.05112886 -0.079606295 0.09918257 0.10691583 0.091587596 -0.0984144
0.015173484 0.1346066 -0.015409577 -0.028793514 0.06569035 -0.040077835 0.05356272 0.11319865
0.047910184 0.049443338 0.05209212 -0.10539921 -0.05508534 0.1136655 0.0061700805 0.03134364
-0.003886697 -0.0197489 0.054485492 -0.08896684 -0.08019362 0.09171918 -0.04320162 0.15686749
-0.1120178 0.09133949 0.1191533 -0.055346437 0.03713233 -0.10433289 -0.024547696 -0.10906558
-0.06468038 -0.10412967 0.09113141 0.06463037 0.117995545 0.14267546 -0.0010054786 -0.0032359124
-0.10357731 -0.07054232 -0.14820231 -0.044886712 -0.13693976 0.08607281 0.14582604 -0.0793458
-0.007002703 -0.087443784 0.03540055 0.009233485 0.08266796 0.029683243 -0.12599735 0.14151077
-0.11032755 -0.08910031 -0.13194524 0.10760384 0.026807606 0.022797516 0.06530167 0.11282464
0.07711089 -0.124773085 -0.14307265 0.03136771 0.0579881 -0.004984438 0.04201502 -0.034511514
0.010016358 0.10110718 0.008819951 0.12666929 0.14313322 -0.09583864 -0.05955365 0.010532992
-0.094415635 -0.032184105 -0.111466885 0.010349145 0.03714445 0.018309295 0.03955829 -0.14495122
-0.07492779 -0.08842154 0.045720994 -0.026113255 0.03786267 0.08554757 0.11298115 -0.052652724
0.100474566 0.0765033 0.14505479 -0.10073951 0.047263347 -0.09392809 -0.10991633 -0.090579905
-0.08464596 0.058878392 -0.051791623 -0.061978903 -0.049176626 0.07099649 0.08791282 -0.11379242
0.026045145 0.12347511 0.13787317 -0.081313565 0.18656422 -0.11516687 -0.112357505 0.08609319
3.1831976e-05 -0.06419614 0.10364284 0.1012913 0.073879965 -0.0131092 -0.112225816 -0.08583693
-0.11407996 0.109752685 -0.11491831 0.019004464 0.08323901 -0.08315319 0.09094801 -0.04825682
0.13864118 0.11827137 -0.026964933 0.15714599 -0.03716275 -0.021530692 0.18641923 0.031448547
-0.06277538 -0.15887325 0.1144138 0.034454547 0.08812613 -0.098981045 -0.14341629 0.06799009
0.05666171 0.10112398 -0.07138821 0.09555606 -0.050866883 -0.035408612 0.069148436 0.013131718
-0.094995946 -0.09567981 0.007903321 0.0028664274 0.15427622 -0.10715915 -0.010055157 -0.056801133

net.0.bias f4 [32]
00000000: 6c5e 58bb 1011 b3bd 8858 97bd b5eb e63d
00000010: 4187 c0bd 4f4c 7bbd d73a 04be f3f9 a83d
00000020: 217e e4bd d8eb b9bd de4b 973d 7fa7 e43c
00000030: 4b5d b6bd c668 1dbe 0b74 f7bd c434 8bbd
00000040: 8f47 02be f4f8 dcbd bd41 30bc be46 05bd
00000050: e445 193e 3471 113e b9b8 683d 5fa7 bebd
00000060: e913 c13d dee6 57bc 0aa7 3e3e 750c 563d
00000070: 080b 993c cfbb b63d 639a 903c 2788 da3d
-0.0033015264 -0.08743489 -0.07389933 0.11275426 -0.09400798 -0.06135207 -0.1291307 0.08250799
-0.1115687 -0.09078187 0.073875174 0.0279119 -0.08904513 -0.15371999 -0.1208268 -0.067971736
-0.1272261 -0.107896715 -0.010757861 -0.032538168 0.14968067 0.1420334 0.05681679 -0.09309267
0.09427626 -0.013177602 0.18618408 0.052257974 0.018682018 0.089225404 0.017651742 0.106705

net.2.module.0.weight f4 [32, 32, 3]
00000000: 9ff6 45bd 12f6 883d e22a 50bd b1fa 523c
00000010: 9835 843d 493c c1bd b02d 493d e485 853c
00000020: 3ef5 e93c c426 6abd 8a79 bb3d cd36 c4bc
00000030: 29a1 91bd 57e9 af3d 5dfa 2c3d 5936 a8bb
00000040: 1947 7dbd b8c3 aabc 6a00 723d 7ece bcbc
00000050: 3cbd c8bd eb90 2d3d 0eb2 8f3d b8b3 31bc
00000060: 9178 a6bc 7010 a2bd 644a ccbd 611d cd3d
00000070: 2fd2 cf3c b2ab b0bd b4d1 b43d 08fa 683d
00000080: 946f 5c3d a621 c0bd 2dd9 bbbd 1b00 cd3d
00000090: eb88 39bd a055 063b ca4b 623c b852 a93d
000000a0: b82e 77bd 16bc 353d a271 11bc 0986 cabd
000000b0: 7ade 313b d6cf a83d b53f 373d 5d48 e1bd
000000c0: 3403 aabd 0ac6 763c 5c5c aa3d cebe e9bc
000000d0: 44e5 d7bd bc8c bbbd 9c14 243d af34 86bd
000000e0: 656a 27bd e91d 28bd b4cd bdbd 8051 b63d
000000f0: 8ed1 02bd 310d 23bd ae34 5eb9 fece a13d
00000100: e53b cfbd 1b93 a0bd f611 e7bc 3f25 70bd
00000110: 1e7f 4d3d 26af 8d3d 13af 8fbd 5bc2 633d
00000120: 0ef7 87bd f614 84bd be11 163d 7839 cc3d
00000130: 28b5 7ebd 6395 8a3a 38b2 933b afbe a9bd
00000140: 4f71 d5bd 9f13 4c3d 8240 65bd 2ea4 b43d
00000150: a241 073d aba5 343d 1e21 523c f94a cfbd
00000160: 13d9 1a3b ce3d 34bd 914e 6b3c 840f b03c
00000170: 6365 9ebd aa6a 253d de25 acbd 335c c0bd
00000180: 7e24 2b3d 8814 59bd 38a8 c0bd 0a37 8abc
00000190: 7925 a0bd ee8c 743d 8fa9 98bc ae50 b23d
000001a0: 2957 cc3d 540f 0d3d 0b15 a13a c644 963b
000001b0: cde2 dfbc 7f3f d23c 9798 93bc e5ca b83d
000001c0: a50b f23c dc75 88bc 2406 8dbc 3ef6 e4bd
000001d0: 01da adbd 11ce 823c 0703 083d b593 b93d
000001e0: b7a4 5d3d 72ca 3d3c 3800 d7bd 4d79 b33d
000001f0: 07ad 98bc 0ead ccbd c7fd 9abd 01bb 683c
00000200: 7e4e a93b 9991 c6bd 295f 1e3d b66a b4bc
00000210: a672 3fbd 04e8 563d 05a5 89bc 277f 74bd
00000220: f98b 69bd 0f93 233c be7d a5bd 214b 903d
00000230: 3b7a f93c e273 88bd 992f bbba e197 67bd
00000240: 1542 5ebc 21db a0bd 3ef7 af3d 5ed0 013b
00000250: bf74 923d cf27 72bc 1be2 7b3d 7738 e3ba
00000260: d495 bcbd 32ee 003d 949b a43c 4603 debd
00000270: e3cf 843a 0805 2fbd 19ef d43c 0d45 813d
00000280: 1231 2d3d 44a8 a03d f57d b9bd c787 cf3d
00000290: 2a6f d1bc 4e0c 2a3d fb42 93bd a6c1 9f3b
000002a0: 3427 f73c 09a0 1f3d dd9e aabc 97f4 9cbd
000002b0: c811 2e3d 8c96 bd3c c192 29bd 34d0 4b3d
000002c0: a561 9d3c e07b 8b3c 8142 903d 8894 a1bd
000002d0: 8d7f a23d 10ce 92bd 77d5 06bd beb5 803b
000002e0: 617b a3bd cbe0 683d 54eb 5d3d c54a 97bc
000002f0: 1524 693d ee18 abbc af57 a03d 79ec 6cbd
00000300: e103 14bc 94b3 a03d 9f16 8f3d 5742 b9bd
00000310: 538c ef3b 1599 80bd 2aaf b9bd 843d c83d
00000320: a576 893d ea06 b3bd 9737 58bc 8f2d 893c
00000330: 04cf 343d bc6b d93d 7e24 9f3d dffd a53d
00000340: 23e1 96bc a2e0 83bc 2497 71bc cfa1 403c
00000350: e784 8bbd 91e2 903c d941 e7bc 9d22 30bd
00000360: 3714 b33d 7798 8fbd 6a7b 5e3d 389a aa3d
00000370: e22c 6c3d ab17 153d a0c6 c73d 462f de3c
00000380: 528b 3d3d 783e 903d dc7b 6dbd 18dd b53c
00000390: 2596 7e3d e7af 8abc 9717 3d3d 232e 9bbc
000003a0: 3637 ba3d cba0 c83c 07f8 c53d 6dbe 8c3d
000003b0: 47e8 c2bc 64f7 91bb b385 98bd 5938 a63d
000003c0: 0e7d a5bd ea94 07bd 52d7 6cbd 6ac6 f23d
000003d0: 75e4 98bd ac21 ef3c d908 83bd d051 2d3d
000003e0: e599 76bd 9d1d d43c 09a5 ef3c 1ec5 3abd
000003f0: 1a76 993d 0a0a 4ebd 5196 d6bd c1f3 9abd
-0.0483309 0.06687559 -0.050822146 0.012877152 0.06455535 -0.094353266 0.049115837 0.016299196
0.028559323 -0.057165876 0.09154041 -0.023951912 -0.07110817 0.08589428 0.042230953 -0.005133432
-0.061835382 -0.02084528 0.059082426 -0.023047682 -0.098017186 0.042374533 0.07016383 -0.010846071
-0.020321162 -0.079132915 -0.099751264 0.10015369 0.025368778 -0.08626498 0.0882906 0.056879073
0.053817347 -0.09381418 -0.09172282 0.10009786 -0.04529659 0.0020497814 0.013812015 0.082677305
-0.06034729 0.044368826 -0.00887719 -0.098888464 0.0027140663 0.082427666 0.04473849 -0.1100013
-0.08301392 0.015061865 0.083183974 -0.028533366 -0.10541776 -0.09157702 0.040058717 -0.06553017
-0.04087295 -0.04104415 -0.092677504 0.08902264 -0.03193813 -0.039807502 -0.00021191195 0.07900809
-0.10118846 -0.07840558 -0.028206807 -0.05862927 0.050170057 0.069181725 -0.07015815 0.055605274
-0.06638919 -0.064493105 0.036638014 0.09971899 -0.062184483 0.0010573085 0.0045073293 -0.08288323
-0.104220025 0.0498234 -0.055969723 0.08820377 0.033021577 0.044103306 0.012825279 -0.10121722
0.0023627921 -0.044004254 0.014361993 0.021491773 -0.07734182 0.040384926 -0.0840566 -0.093925856
0.04178285 -0.052998096 -0.09407085 -0.016871948 -0.07819647 0.059704714 -0.01863554 0.08706795
0.09977562 0.034438446 0.0012289596 0.004585835 -0.027329827 0.025665043 -0.018017096 0.09023074
0.029546568 -0.016657762 -0.017214842 -0.111797795 -0.084888466 0.0159674 0.033206012 0.09061376
0.054112162 0.011583911 -0.104980886 0.08763371 -0.018637193 -0.09993945 -0.075679354 0.014204741
0.0051668277 -0.09695739 0.03866497 -0.02202354 -0.046740197 0.05246736 -0.01680232 -0.059691574
-0.057018254 0.009983792 -0.08080624 0.0704558 0.030453792 -0.06662728 -0.0014281153 -0.056541327
-0.01356556 -0.078542955 0.085920796 0.0019808034 0.07151174 -0.014779999 0.061494928 -0.0017335553
-0.09208265 0.03147716 0.020093717 -0.10840468 0.0010132756 -0.042729408 0.025992917 0.063119985
0.042283125 0.07844594 -0.090572275 0.10133319 -0.025565702 0.04151564 -0.0719051 0.0048753796
0.03017006 0.03897098 -0.020827705 -0.07663839 0.042497426 0.023143075 -0.04139972 0.049759105
0.0192116 0.017026842 0.070439346 -0.07889658 0.07934485 -0.071682096 -0.03291842 0.0039279154
-0.07982517 0.056855004 0.054179505 -0.01846827 0.056919176 -0.02088591 0.07829224 -0.057842705
-0.009034128 0.07846752 0.069867365 -0.090458564 0.007310429 -0.06279198 -0.09066613 0.09777358
0.06712083 -0.08741553 -0.013196847 0.016745357 0.044142738 0.10616252 0.07770632 0.08105063
-0.0184179 -0.016098324 -0.014745507 0.011757328 -0.068124585 0.01768616 -0.02822964 -0.04300176
0.0874409 -0.07011502 0.054316916 0.08330196 0.05765999 0.036399525 0.097546816 0.027122151
0.046275444 0.07043165 -0.05797945 0.022200152 0.062154908 -0.01692958 0.046165075 -0.018942898
0.09092562 0.024490735 0.09666448 0.06872258 -0.0237924 -0.00445454 -0.07447376 0.08116216
-0.08080493 -0.033101 -0.057822533 0.11854251 -0.0746545 0.02919086 -0.06398172 0.04231435
-0.06020536 0.025893027 0.0292535 -0.04559814 0.07493229 -0.050302543 -0.10477889 -0.075660236

net.2.module.0.bias f4 [32]
00000000: 3e16 21bd 6579 3a3d ef30 8ebd 04df 37bd
00000010: 70c5 b93d fb36 16be 8bff 76bc 7772 6f3d
00000020: 4ef8 4a3d 1439 503c 9108 0bbc 290c 88bd
00000030: 6b34 613d 033f e9bd a332 3bbd 9416 833d
00000040: 4993 47bd afcf 483d 287a 933d 6f74 57bd
00000050: 2926 89bd 7ce6 bdbd 64db 873d 81bf 0a3d
00000060: d655 31bd 50ff 87bd d451 ea3c bed6 c0bc
00000070: fe04 2e3d 4a4e c33c e93c df3d 38d7 0b3e
-0.039327852 0.045525927 -0.06942927 -0.04489042 0.09070861 -0.14669411 -0.015075575 0.05845877
0.049553208 0.012708921 -0.008485929 -0.06642944 0.05498163 -0.11388972 -0.045702588 0.06400791
-0.048724446 0.049026188 0.07201034 -0.052601274 -0.066967316 -0.09272477 0.06633642 0.03387404
-0.04329475 -0.06640494 0.028603472 -0.023539897 0.04248523 0.023841042 0.109002896 0.13656318

net.3.module.0.weight f4 [32, 32, 3]
00000000: fd40 52bc d466 273c 2a4d c3bd 3477 a4bd
00000010: 8523 8d3d 0f3c 57bd 06d0 bbbd b802 c6bd
00000020: bdaf a23c 9eef 803d a9be b43a e233 9cbd
00000030: 283c 0a3c d3be 98bd 32fa 433c dc29 a23d
00000040: 87bd e33b 2e33 aabd e39e 8dbd 9006 29bd
00000050: df2d 6f3d 8527 be3d d579 733d a486 303c
00000060: ca33 593c a82c 623d 4151 363d be93 5c3d
00000070: dc4e e4bb d7cf 083d 12d5 d43c 3347 46bb
00000080: 9f78 30bc 3cd3 3e3d 200f 273d f0d4 34bd
00000090: 4be6 d3bd 0bf6 71bd dcdf f73c cb21 aa3d
000000a0: 35cf dbbc 98de 8ebd 4e08 2a3c 1073 b239
000000b0: 7067 81bd ddc8 51bd 44df 853d 1423 023d
000000c0: a658 a53d b331 d53b d5fc 87bc 02d7 aabd
000000d0: aa1e bebd 1274 adbd 5423 1abd 9f67 8bba
000000e0: 90cb 9cbd a0a3 bb3d ea49 b4bd 8e46 74bd
000000f0: 3fb3 b7bd ebd1 1a3d 20ec 0b3d aa67 43bb
00000100: 966b 42bd 0199 5ebd 465b 6dbd e94b 023c
00000110: 47d6 5fbd 2429 b63d 0d27 cf3c 1eea 6e3c
00000120: fbee 7ebd 99b0 8a3c 8209 30bd 4f71 f5bc
00000130: cb2d ae3b 5609 9abd 24c8 ac3d 4fb6 d83c
00000140: a7d7 2abd a937 bf3d 8c45 03bd 6922 1bbd
00000150: b639 35bc 9cf3 8c3d 8c16 e23a 6400 a0bd
00000160: 52e1 103c 1ef8 6d3c c400 d2bd 36e3 823d
00000170: d755 9ebd a7b6 d0bd 0813 533c cf88 fa3c
00000180: e407 603d e2a5 673d 9ced 213d 02d1 663d
00000190: f548 afbd cd9e 183d 54f9 9bbd 0942 a93d
000001a0: 9b31 d43d c6c7 8d3d 87bf 2cbd 6129 9fbd
000001b0: 53b2 7dbd f3b5 343d baed d0bc 37dd cebd
000001c0: 9843 2b3d 197b 853c 06ea 2cbd 4a20 853d
000001d0: 4b76 82bd 4b47 233d 45d4 c0bd fec9 983d
000001e0: 4c2a 1dbd 861c b33d c828 553d f28b a5bc
000001f0: 0c99 d33d 5005 c5bd ffef 20bd 7da3 44bd
00000200: 8deb c9bc e718 e23c e9be 4abd b074 b73c
00000210: 7b54 5a3d c72e e13b 5605 1d3d 7fbc 623c
00000220: abfe 9c3d b734 d23d 62a1 1dbd b727 1b3d
00000230: b3a8 e6bc 5242 55bd 977c 5d3b 5d65 a73d
00000240: bcc7 a33d 1109 883d 476d 2bbd 1a1c 39bb
00000250: f4c8 e8bc 4f9c db3c d68d 553c 7431 b3bd
00000260: 733f f93c 29b4 91bd f757 c83d d4f3 8bbd
00000270: 1ce5 4f3d ee12 f73c 96d2 9f3d b16b 1fbd
00000280: bde4 783d 7f12 363d edad f1bb 60af 81bd
00000290: 3502 c9bd 7dad b7bd 0482 b13d 13df 9b3d
000002a0: 7cef 223d d260 e2bd 9623 053c 110c 80bd
000002b0: bc13 a43d 3935 f53d a7b7 bbbd 64a1 1abc
000002c0: 1dbc 7c3d 3701 1cbd 3382 43bd 6c18 b13c
000002d0: 4a4e a03d fa24 273c eb38 cc3b 2b79 a0bc
000002e0: 19a4 813d b57b d93d 5a51 f33c f939 e83c
000002f0: af31 45bc a196 94bc 1ea9 393d 1d75 d1bc
00000300: 3d84 ce3c ac38 743b 198a 97bd 2bbd 6d3d
00000310: 6190 3ebc 66bb b83d e362 b43d 9a97 e03d
00000320: 69ae c0bd 414a 253d 8e92 0e3d decc 893d
00000330: e4b8 eb3c d042 423d d1fe 1b3d 0a9a 5bbd
00000340: e93d 963d 1bde 76bc ad7f 00bd 8453 893d
00000350: 4e3e 9abc c2ca 64bd 295d a9ba 231a 88bd
00000360: aeee e9bc d1b0 af3d 8f94 8ebd 04c6 acbd
00000370: 1902 b8bd d94f 9bbd a2ca 5c3d 4f16 e53d
00000380: 120a bbbd a913 9abd a00f a8bd 9392 493d
00000390: 8ed1 543d 3854 b4ba f817 f13a fa7c 873d
000003a0: 2826 9cbc 881e 69bd c9ea f33b fa0e 28bd
000003b0: b679 8dbd 8198 b33d 66ac 43bd cd5f a53d
000003c0: 7f12 d5bc 0b5e 90bd 4c85 f7bc 6643 1d3d
000003d0: db05 9e3d 93d5 ee3b facd 53bd 29e0 423d
000003e0: a90c 04bd bf3b 573d e0d6 c7bd c216 9e3d
000003f0: c4b0 3cbd 4427 e53d b9fc 5fbc d72c 433d
-0.012832877 0.010217387 -0.09536202 -0.08030549 0.068915404 -0.05254751 -0.09170537 -0.09668487
0.01985919 0.06295703 0.0013789731 -0.07627083 0.008437194 -0.07458272 0.011961507 0.0791814
0.0069500837 -0.08310543 -0.06915071 -0.041266024 0.058393355 0.092848815 0.05944236 0.010774288
0.013256976 0.05521837 0.044511084 0.053851835 -0.0069674086 0.033401337 0.025980506 -0.003025484
-0.010770946 0.046588168 0.04078591 -0.044148386 -0.10346659 -0.059072535 0.030258112 0.08307227
-0.026832202 -0.0697605 0.010377957 0.00034036534 -0.06318557 -0.05121695 0.06536725 0.031771734
0.08073549 0.0065061687 -0.016600052 -0.08341791 -0.092831925 -0.08469404 -0.037631348 -0.001063574
-0.07656014 0.09162068 -0.088031605 -0.0596376 -0.08969735 0.03779785 0.034160733 -0.0029816427
-0.047465883 -0.054345135 -0.057948373 0.007952669 -0.05464771 0.08894566 0.025287176 0.014582185
-0.06223963 0.016929911 -0.042977817 -0.029961256 0.0053155175 -0.07521312 0.08436611 0.026454119
-0.04170957 0.09336788 -0.032048747 -0.037874613 -0.011061123 0.06882402 0.0017249151 -0.078125745
0.008842783 0.014524488 -0.10254052 0.06390993 -0.077312164 -0.10191088 0.012882955 0.030582814
0.054695025 0.056554683 0.039533243 0.05635167 -0.08558837 0.03726082 -0.07615915 0.08264548
0.10361024 0.069228694 -0.042174842 -0.07771564 -0.06193764 0.044118833 -0.025503982 -0.10100787
0.04181251 0.01629405 -0.04221537 0.06500299 -0.06370219 0.039862912 -0.09415487 0.07460402
-0.038370416 0.08745675 0.052040845 -0.020208333 0.10331926 -0.09620154 -0.039291378 -0.048007477
-0.024648452 0.027599765 -0.049498472 0.022394508 0.053303223 0.0068720314 0.038335167 0.013838886
0.076657616 0.10263961 -0.038483985 0.037879672 -0.028156614 -0.0520652 0.0033796185 0.081736304
0.07997081 0.06642354 -0.041852262 -0.002824551 -0.028416134 0.026807932 0.013034305 -0.08749667
0.030425763 -0.07114441 0.09782403 -0.06833616 0.050755605 0.030160394 0.07803838 -0.038921062
0.060765017 0.044451233 -0.00737547 -0.06332278 -0.09814874 -0.08968637 0.08667377 0.076109074
0.03977917 -0.11053623 0.00812616 -0.062523015 0.080115765 0.11973042 -0.09165888 -0.009437893
0.061702836 -0.038087096 -0.04773159 0.02161809 0.078274325 0.010201687 0.006232371 -0.019589027
0.06330127 0.10619298 0.029701877 0.028347956 -0.012035771 -0.018138232 0.0453273 -0.02556854
0.02520954 0.0037265224 -0.07399387 0.058041733 -0.011631102 0.090201184 0.08807924 0.10966416
-0.09408266 0.040354017 0.034807734 0.067285284 0.028774686 0.047427 0.03808481 -0.0536137
0.07336027 -0.0150676025 -0.03137176 0.067053825 -0.018828537 -0.055857427 -0.0012921441 -0.0664561
-0.028556194 0.08578647 -0.06961929 -0.08436206 -0.08984775 -0.07583589 0.053904183 0.11185896
-0.0913278 -0.07523281 -0.08206105 0.04921205 0.05195766 -0.0013758009 0.0018393984 0.06615634
-0.019061163 -0.056913882 0.00744376 -0.041029908 -0.0690798 0.08769322 -0.047771834 0.08074913
-0.026009796 -0.07049187 -0.030214928 0.038394354 0.077159606 0.0072886436 -0.051710106 0.047577057
-0.032238636 0.052547213 -0.09757781 0.077191845 -0.046067014 0.1118913 -0.013671094 0.047650184

net.3.module.0.bias f4 [32]
00000000: 62ef 063d de81 29bd 5944 b73d 144c ab3b
00000010: 4fc2 4bbc fc1d acbd fc25 f63c 14c4 75bd
00000020: f699 e33c c420 47bd 849d e3bc 6310 bc3d
00000030: cfd6 a9bd fc75 413c 1486 2bbb e0e8 e6bc
00000040: ace2 cfbd ed54 373d 1c4b 06bd 5a55 603c
00000050: 6ce7 bf3d 6b6f a3bd 27b0 ec3c a827 1b3d
00000060: 626a 963d af2e 89bd 367e 3fbd c020 c93d
00000070: 9804 f73c 1106 91bd 10f4 a03d 97d0 5dbd
0.032943137 -0.041383617 0.08948583 0.005227575 -0.0124364635 -0.084041566 0.03004741 -0.060001448
0.027783375 -0.048615232 -0.02778507 0.09182813 -0.082929246 0.011807915 -0.0026172446 -0.028187215
-0.10150656 0.044758726 -0.032786474 0.013692224 0.09370312 -0.07980236 0.02889259 0.037879616
0.0734451 -0.06698357 -0.046751224 0.098207 0.030153558 -0.07081235 0.07859051 -0.054154005

net.4.module.0.weight f4 [32, 32, 3]
00000000: e922 7e3d d343 713d d374 0b3d 2133 89bd
00000010: 19ea 543c f534 323d 4a7c a13d 93b2 a33d
00000020: 551f 18bd 35c1 91bc c3d0 4a3c 8d47 203d
00000030: b586 d43d 5314 6a3b 0d77 6abd de95 573c
00000040: 9c81 6c3d 1b8f 9e3d a4c2 173d ae01 88bc
00000050: e7ca d3bd c12b 813d eb2f b63c 4a1a 1e3d
00000060: 2300 473d 78fe fb3b 462f 783d fc42 18bd
00000070: c0e6 973d 6847 8b3d a15a 12bd cdce 79bd
00000080: 0bb2 6abd 3ad6 dabd af0f 843d 5e01 c0bd
00000090: 70d9 b73d ff81 cebc b8de 49bd 0d06 95bb
000000a0: 2ff9 86bd ebd0 8b3c 1141 bbbd 67f1 a0bd
000000b0: eebc 653d 7180 23bd fc53 8fbc 5089 d63c
000000c0: 3c01 c2bd e707 553d 749c f23c 2c1d ec3c
000000d0: 8dfd b13c 122a b4bd 041e 8c3b a373 343c
000000e0: dc07 9cbd dbf2 c03d eb39 6c3a 3170 e23c
000000f0: 508b 38bd 8585 58bd 8720 8c3b b374 3c3d
00000100: fc0b c13c 55a4 0f3d 241c 473a d267 acbd
00000110: 5f07 9d3b 553b d3bc 090a 9abd 94db 613d
00000120: 761c 94bc cb81 b9bb c718 8dbd 7f74 f9b9
00000130: 0b9a a23d 50f2 be3c 8b5e 383d 8883 993d
00000140: 9a5c fcbb 7d57 5f3d 181b 673d 78db f2bb
00000150: 6ca9 1e3d cf91 b1bb ff52 a4bd 577d 283c
00000160: bc1c 16ba 9578 8dbd 2764 4b3b a8f6 dbbc
00000170: 2468 913d 25cf 7abd 3ae5 2b3d e0ab 99bd
00000180: 8239 cfbd 50fa d8bc 8623 823d 9aca 9dbd
00000190: 9cd0 ccbc bb23 5cbc 6805 243d c7f8 7dbd
000001a0: afb0 be3d c79c 553d ae1b 2bba a94e 253d
000001b0: 8940 323d a676 943d 5b0e 15bd d90c d83b
000001c0: 9be9 c43c 7a05 95bd 0ee6 edbc d839 213d
000001d0: 7580 383d 7d0a 30bc ca95 8e3d 2bc2 cebd
000001e0: 6115 1bbc e19e babd 5485 953d 4684 763c
000001f0: cacf 8bbc e680 063c 3045 78bd 26fe 56bd
00000200: c4ab 7b3d 673a aebd 82e8 b6bc 6603 78bd
00000210: e2aa aa3d 12a2 cabd 9a36 983d 1722 e1bd
00000220: b88b f63c a304 c9bd ecd9 b1bd fa07 ccbd
00000230: 2a6b ad3d 24c3 7dbd 4542 e1bd 9615 33bd
00000240: 60e4 0a3c a489 9e3d f4e4 9bbd f179 963d
00000250: 93f2 4fbd ad88 ac3c ab69 afbd f42c 47bd
00000260: 0b55 38bc 0bb1 7ebc ab36 66bd 4386 f8bc
00000270: 2d17 82bd c502 1dbd 1a82 cebd cc1c 863c
00000280: c89c 8cbb d250 cabd 6a65 98bd 677a 463d
00000290: 1a95 473d a5de c5bd 8369 053c f462 d4bc
000002a0: b0fc 87bc c73a 9a3c faa3 7abc 55ac 013a
000002b0: 4a3f c13d a1b6 6cbd 877f 753d 3146 debc
000002c0: 2df1 ee3c 4867 903c 2dfd 1a3d 5efd bfbc
000002d0: 7fc4 983d 223f 3a3c a1cd 56bd dd7a ecbb
000002e0: 93d2 a4bd c302 e6bd 5e06 d6bd a297 093c
000002f0: d3e8 743c b793 7f3d a850 23bd 9994 7f3d
00000300: 3e8f 103c 324f 2c3c a9f3 0ebd 2868 903d
00000310: 31da 97bd 74c5 a8bc 4a3c 8e3d c3db 4ebd
00000320: 765e bdbd a7b6 b9bd df50 d03c aab5 c6bd
00000330: 14cf 5b3c 5efc fa3b d757 313c 014f ecbc
00000340: a05f bdbd 03eb 89bc f3dd 863d 6d70 b03d
00000350: 0b6e fa3c 61e9 babd 16a5 bcbd c6e9 52bd
00000360: e3d5 1dbd 9930 bc3c 2bc8 a0bd b4ed 98bd
00000370: b0ab a1bd 0de0 453d 98a8 3f3c 813a 53bd
00000380: fb07 383d e8a5 0fbc 3241 5c3d 7f64 973d
00000390: 36ce 3f3d 48be 9cbd 4a18 923c f026 d03c
000003a0: bf04 1fbc 9ace 153d 4cc5 86bc e9b4 e1bc
000003b0: 2f76 123d 52ac da3c 5c75 e33a 7425 8abd
000003c0: e876 7b3c 15d7 a13b 27af 6cbd 6a45 94bd
000003d0: 22a2 b2bd 2624 d9bd eae8 babd 266e d6bc
000003e0: ec87 53bd 7729 e1bb eee3 8ebd e976 273d
000003f0: 1f24 d6bd d5bd 9f3c 877d 83bd 217e 13bd
0.06204501 0.058902573 0.03404696 -0.06699205 0.012995266 0.043507535 0.078850344 0.07993045
-0.037139256 -0.017792324 0.012378874 0.039130736 0.10377256 0.003571768 -0.057242442 0.01315829
0.057740793 0.07742139 0.03705086 -0.016602363 -0.10341435 0.063071735 0.022239646 0.03859929
0.048584115 0.007690247 0.06059196 -0.037173256 0.07417059 0.06800729 -0.03573096 -0.060988236
-0.0572987 -0.10685392 0.06448304 -0.09375261 0.0897702 -0.025208471 -0.049284667 -0.0045478404
-0.06590497 0.017067393 -0.0914327 -0.07858544 0.05608838 -0.039917413 -0.017496102 0.026188523
-0.09472892 0.05200949 0.029615618 0.028822504 0.021727348 -0.08797087 0.004276039 0.011013898
-0.076186866 0.09421321 0.0009011316 0.027641388 -0.045054734 -0.05286171 0.0042763385 0.04600973
0.023565285 0.03506883 0.0007595441 -0.0841824 0.0047921385 -0.025785128 -0.07521445 0.055141047
-0.018079977 -0.0056612245 -0.068894915 -0.00047579777 0.079395376 0.023308903 0.04501204 0.07495791
-0.0077014687 0.054526795 0.056422323 -0.0074114166 0.038735792 -0.005418993 -0.08023643 0.01028379
-0.00057263277 -0.06907765 0.0031035037 -0.026851013 0.070999414 -0.061232705 0.041966654 -0.07503486
-0.101183906 -0.026486546 0.06354432 -0.07704659 -0.025001816 -0.013436253 0.04004422 -0.06200483
0.093110435 0.052151468 -0.0006527257 0.04035822 0.043518577 0.07249193 -0.036390644 0.0065933284
0.024037173 -0.07276435 -0.029040363 0.039361805 0.04504438 -0.010744688 0.06962164 -0.10095628
-0.009465546 -0.09112335 0.07300821 0.015046185 -0.017066855 0.008209443 -0.060612857 -0.05248847
0.061443105 -0.08507233 -0.022327665 -0.060550116 0.083333746 -0.09894194 0.074322894 -0.1099283
0.03009592 -0.098153375 -0.086841434 -0.09962459 0.084677055 -0.06195368 -0.10998968 -0.043721758
0.0084773 0.077410966 -0.07612029 0.07347477 -0.050768446 0.021061266 -0.085650764 -0.048626855
-0.011250745 -0.01554514 -0.05620448 -0.030337458 -0.06352077 -0.03833272 -0.10083409 0.016371153
-0.0042911507 -0.098786965 -0.07441218 0.048456576 0.04872618 -0.09661607 0.008142832 -0.02592609
-0.016599983 0.018826855 -0.015297884 0.0004946639 0.094358996 -0.057791356 0.059936073 -0.02713308
0.029167736 0.017627373 0.037839103 -0.023436245 0.07459354 0.011367591 -0.052442197 -0.007216795
-0.08047976 -0.112309955 -0.10450433 0.0083979685 0.014948088 0.06239673 -0.03987184 0.062397573
0.008823214 0.0105169285 -0.03490034 0.07051116 -0.074146636 -0.020601965 0.06945093 -0.05050255
-0.092465326 -0.09068041 0.025429187 -0.097026184 0.0134160705 0.007659479 0.010824165 -0.028846266
-0.09246755 -0.016835695 0.06585302 0.086151935 0.03057005 -0.09126545 -0.09211175 -0.051492475
-0.038534056 0.022972392 -0.07850679 -0.07467213 -0.07894075 0.048309375 0.011697911 -0.051569466
0.044929486 -0.0087675825 0.053773113 0.07392215 0.046827517 -0.07653481 0.017833848 0.025409192
-0.009705721 0.036573984 -0.0164515 -0.027552085 0.03575724 0.026693497 0.0017353701 -0.06745425
0.015348174 0.00493897 -0.057784226 -0.07239802 -0.08722331 -0.10602598 -0.09126456 -0.02617557
-0.051643297 -0.006871398 -0.06977068 0.040884886 -0.10456108 0.019499699 -0.06420427 -0.036008958

net.4.module.0.bias f4 [32]
00000000: 1a3c 79bd f412 93bd 7cbc 88bd 4e6d 84bd
00000010: 2d32 4b3d 40b3 913d c52d 613d 0654 fdbc
00000020: 8002 98bd 74de d6bc 2c1b bc3c 3783 c7bc
00000030: 488d 063d f35a 463d 9c70 b23d 3425 4ebd
00000040: 0e56 8a3d f18b dc3d 3a83 853d 058f 773d
00000050: f3f3 e03b fa38 97bc 5c7c 693d b585 57bc
00000060: a2db 0b3c 8844 7c3d f155 39bc 633a 84bd
00000070: 0616 bbbc 5b54 9abd b185 833d 78ce 9d3d
-0.060848333 -0.071813494 -0.066765755 -0.06466161 0.0496084 0.07114267 0.05497529 -0.030923855
-0.07422352 -0.02622912 0.022962175 -0.02435456 0.03284958 0.04842658 0.08712885 -0.05032845
0.06754695 0.10768879 0.0651917 0.06043913 0.0068650185 -0.018459786 0.057003364 -0.013154437
0.008536251 0.061588794 -0.011311994 -0.06456449 -0.02283765 -0.07535621 0.06421984 0.077053964

net.5.weight f4 [3, 32, 3]
00000000: 1412 8bbd 2732 5abd 2aae 563d 8c59 d03b
00000010: 04bc 823d 367a d0bd deae afbd 783e 833d
00000020: 5c08 6e3d 52f3 433d 9238 efbc f721 c7bd
00000030: 6349 28bc a8f3 bb3d 93d3 8a3d ff48 08bd
00000040: 7aeb d53c ba08 403d 6aea be3d 5600 3c3d
00000050: f0e9 643d ff3c 9a3d 1ada ba3d bd48 5cbd
00000060: af03 8bbd 80f8 7f3b c9d7 d43c 7185 f4bc
00000070: e014 92bb a87c 5ebd 23df 90bc f9f8 8b3d
00000080: b887 4abd 2b6a 033d 2bbb 873d cb86 0b3d
00000090: 4631 c4bd 69df 8f3d e69d cb3d 0b3d b3bc
000000a0: 32e1 d33d 8004 9abd ab81 ec3b 6609 7f3d
000000b0: b5f3 a23c 7ef1 ed3c 8035 a8bd 3ca3 a53d
000000c0: 327e 56bd 0c6c 40bd cc95 003d 8336 2a3d
000000d0: 1b23 b03d f204 7ebb bfbd c03d 54c3 323d
000000e0: bbd1 bc3c a776 2fbc 3263 e0bc 8fa6 bfbd
000000f0: 44ee 06bd c37b cf3d 0a25 8e3d 01ad 283b
00000100: 9667 febb 9b16 05bd e171 89bc c817 a4bd
00000110: 0731 c73d 7c4e 2d3d d08b 513d 68ed 083d
00000120: 05e9 c9bd c40c d4bc e58c 073d bb34 c43c
00000130: f173 e93c 8897 1ebd 81cb a23d 5f33 78bd
00000140: ee77 0fbd b1da 563c c09e 213c cfdf 8abd
00000150: 3d7b 80bb 19e9 d53c 32e6 45bd 4403 b4bd
00000160: 221e 19bd 1657 26bc 6373 63bb a78d 6b3d
00000170: ca12 093c 3211 5abc 58f8 7e3d 6e8e 933d
00000180: c183 233c 3456 dcbb 8f00 4abd 46ae 96ba
00000190: 3b4b c83d 3d9f b73d f05c 833d b0d0 85bd
000001a0: b7bf 383d 77a5 163d a8be a3bd 9f92 bfbd
000001b0: e67f 35bd a52a 8dbd 8d99 f8bb d0a1 f9bc
000001c0: 2d18 15bd bbfd 553d 5753 2b3c 8243 92bd
000001d0: a002 103d 31a8 b23d aaa8 e13c b2ab dc3d
000001e0: 45e8 813d a86e cebd b19a 93bd 9814 81bd
000001f0: a21d 993b 8d41 3e3d c04b 1e3a 23ee 8e3d
00000200: 0e8f 0dbd d541 483a b15d 8c3c 015f 6cbd
00000210: 9385 b3bd 3ef5 7bbd 616c 6f3d 393c 053d
00000220: c5e9 8dbd 4339 63bd d8c4 acbc d636 aabd
00000230: 99ea a9bd c5d7 1c3d 2ff3 823d 376a a23d
00000240: b755 b83d e1d3 ecbd fa02 8a3d e247 4bbd
00000250: 7759 0e3d df1c 31bc 2bd8 17bd 32c6 873d
00000260: b48b a43d 2f0b 97bd 2def 9ebb 8a4c c73d
00000270: 842b 4cbd 7774 8c3c 7442 d53d 08b0 a0bc
00000280: 1bb6 dfbb a709 b7bd ff85 af3c 1be0 893c
00000290: d6f4 aa3c d9f9 babd 7040 d13c 02c9 b2bd
000002a0: 4e95 02bd e158 82bd efb2 85bd 1cf0 cdbd
000002b0: b90d b33a a885 c23d e993 6b3d 8a03 de3d
000002c0: 5c07 a0bd 2400 83bd b53d 943c 0e43 afbd
000002d0: 75d5 af3d b139 6a3d 75ae fa3c cdcc 853c
000002e0: 5721 1abd 6219 613d 8903 a63d e7b6 a8bd
000002f0: 6183 16bd d406 84bd d50b d23a b8fb 79bd
00000300: 8bf8 5ebc 929c be3c 82e8 2f3d 2cb6 a33d
00000310: 5da9 a1bd 0891 fbbc acdd 783d ec7a bb3b
00000320: 3d0b ae3d 188d 293c fad1 9c3d f428 7ebb
00000330: 5806 c1bc ffd9 b0bd b145 a93c 8660 a93d
00000340: 54ad 43bc 470f c73d f6d9 b33d 03d8 8d3d
00000350: cd41 90bd 5876 983d b659 f43c 7ecc a2bd
00000360: 2aaa 47bd e196 ac3d 9ad0 cd3d a554 db3a
00000370: 7ed9 543d 3a52 a03d 8c28 a93d f33f 0f3d
00000380: 4fee a13d f635 9ebd 9983 503d e81f d6bd
00000390: 589d 873d 116e 74bd 75b4 683d 71bd a13d
000003a0: 90b3 2dbb 1ad9 95bd d267 55bd eb50 a03c
000003b0: 8f6e 48bd 92af 653d 985f 1cbb b6a5 d6bd
000003c0: a0d4 97bd 9186 363a 44bf a63d 6162 94bd
000003d0: 1432 27bd 08e2 553d 230f 023d 3a9a 363c
000003e0: 0bf4 b8bd 97b5 aa3d 10eb 983d 31ee 9d3d
000003f0: b159 d93d b4ee 4cbd 8212 7c3c b977 52bd
-0.067905575 -0.053270485 0.05241219 0.006358331 0.063835174 -0.1017956 -0.08578275 0.06408399
0.05811344 0.04783947 -0.02920178 -0.09723275 -0.010271403 0.09177333 0.06778636 -0.03327274
0.02611326 0.046883322 0.09322055 0.045898758 0.055887163 0.07531165 0.09123631 -0.053780306
-0.06787812 0.003905803 0.0259818 -0.029848786 -0.004458055 -0.0543181 -0.017684525 0.06834597
-0.049445838 0.03208367 0.06627496 0.034064095 -0.09579711 0.07025034 0.09942226 -0.021879693
0.10345687 -0.075203896 0.007217606 0.062264822 0.0198916 0.029045817 -0.08213329 0.08087775
-0.052366443 -0.04697804 0.031392857 0.041555893 0.08600446 -0.0038760272 0.09411191 0.04364331
0.023049226 -0.010709441 -0.02739105 -0.093579404 -0.03294207 0.101310275 0.069406584 0.0025737884
-0.0077638132 -0.03249226 -0.016777935 -0.080123484 0.09726148 0.042311177 0.051158726 0.033429533
-0.09858898 -0.025884993 0.033093352 0.023950925 0.028497668 -0.03871873 0.079489715 -0.060595866
-0.035026483 0.0131136635 0.009864509 -0.06780969 -0.003920941 0.026112126 -0.048315234 -0.08789685
-0.037382253 -0.010152599 -0.0034706227 0.057508137 0.008366296 -0.013309764 0.062248558 0.07204901
0.009980143 -0.0067241434 -0.04931694 -0.0011496029 0.09779974 0.08965919 0.06414211 -0.065339446
0.04510471 0.036778893 -0.07995349 -0.09354138 -0.044311427 -0.068928994 -0.007586664 -0.030472666
-0.03640001 0.05224393 0.0104568815 -0.07141782 0.035158753 0.08723486 0.027546246 0.10774936
0.0634313 -0.100797 -0.072072394 -0.06302756 0.004672722 0.046449233 0.00060385093 0.06979015
-0.034560256 0.0007639204 0.01713452 -0.05770779 -0.08765712 -0.061513178 0.058452968 0.032528136
-0.069293536 -0.05547453 -0.021089956 -0.083112404 -0.08296699 0.03829171 0.0639404 0.07930415
0.09000724 -0.1156385 0.06738849 -0.0496291 0.03475329 -0.010810106 -0.03707139 0.066296
0.08034459 -0.0737518 -0.0048502893 0.097313955 -0.049846187 0.017145379 0.104130656 -0.019615188
-0.0068271286 -0.08937388 0.021426199 0.016830495 0.0208687 -0.09129686 0.025543422 -0.087297454
-0.03188067 -0.063646086 -0.065282695 -0.10055563 0.0013660706 0.09498149 0.057514105 0.10840519
-0.07813904 -0.06396511 0.01809583 -0.085577115 0.085856356 0.057183925 0.030600766 0.016333008
-0.03762945 0.054955848 0.08106143 -0.08238011 -0.036746386 -0.06446615 0.0016025255 -0.061031073
-0.013609062 0.023268018 0.042946346 0.07993731 -0.078936316 -0.030708805 0.060758278 0.0057214405
0.08498237 0.010348581 0.07657237 -0.0038781734 -0.023562595 -0.086353295 0.020663114 0.082703635
-0.01194318 0.09719711 0.08781807 0.069259666 -0.070438005 0.07444447 0.029827934 -0.0794916
-0.048746265 0.08427215 0.10049553 0.00167336 0.05196523 0.078281835 0.08259687 0.034973096
0.07906782 -0.07725136 0.05090675 -0.104553044 0.06621808 -0.05967528 0.056812722 0.07897461
-0.0026504733 -0.073167995 -0.052100964 0.019569835 -0.048933562 0.05607564 -0.002386069 -0.104808256
-0.07413602 0.0006962801 0.0814195 -0.07245327 -0.040819243 0.052217513 0.031752717 0.011145169
-0.090309225 0.08335417 0.074667096 0.07711447 0.106128104 -0.050032333 0.015385272 -0.051383708

net.5.bias f4 [3]
00000000: 9ddf 21bd 1dad d73c 20fa 13be
-0.039519895 0.026327664 -0.14450884

exp_avg f4 [32, 21, 2]
00000000: 1cf7 4039 d204 d2b8 d6fe 24bb ca89 cc3b
00000010: 0651 52b9 bbea c2b8 43e3 3bb9 2ca8 00b9
00000020: a2bb 0338 4d09 063a 4be2 b7b9 aae5 8fba
00000030: 7842 9f3a e4c1 51ba 640b 1539 aa1d b638
00000040: e6f7 fcb9 3358 4a3a 00aa 8d39 10f9 2eb9
00000050: 5f07 c239 0a0f e838 90ed c339 e80c 84b9
00000060: 02d6 1039 015b c838 2e4b b13a 9a02 57b9
00000070: ab14 f038 9728 16ba b6b1 8439 1234 c639
00000080: 9c1a 033a 0028 f23a 4082 02ba ba66 303a
00000090: 39ef 123a 10f5 e038 0bf8 18b9 e2c4 3db9
000000a0: 0070 e2ba 5c84 8bb9 9783 11ba dfc4 aab8
000000b0: 4afd c3ba 2ee4 94ba 5207 a937 e0e9 5137
000000c0: b283 8f37 daa0 9438 aac9 52b8 8a04 ab38
000000d0: ecb9 8339 0c98 46bb 7387 1fba a4e3 c3b8
000000e0: 1ea0 bc38 b211 13b9 303c e2b9 7207 81ba
000000f0: 0285 a7b8 8484 5839 ceb8 9db9 e667 5d38
00000100: 0984 8ab8 3d00 eab9 f1b7 27b9 beda a4b9
00000110: 6449 d43a 002a de35 489b 88b7 20e1 f339
00000120: a06c b037 909c b13a 2817 bfba ac69 d538
00000130: 9451 9537 e367 49ba 93f4 89ba 12dd 52ba
00000140: a303 2738 bd4e 3e38 5cab c339 fc5c 80ba
00000150: f203 143a d82f e8b7 6fd6 e3bb d277 66bb
00000160: 8299 993a ba98 e1b9 b3b5 3bb9 f493 d8b9
00000170: e8b5 79ba b939 c439 9d5b f3ba 83a0 173b
00000180: 1c28 ee39 f230 f6ba 40f8 7e3a f4f9 c3b9
00000190: 8c5d 96b8 fbcb 43ba ebed 82b8 db8e 8ab9
000001a0: 9755 7cba f4b7 e538 e1f0 643a ac3d 013a
000001b0: f200 21b8 e142 623a c09e 28b7 b850 1c3a
000001c0: f20f deba 6887 d6ba 14db 9c37 efd2 3cb9
000001d0: 9076 6dbb 146b 163a c6f9 ceba acd3 44b8
000001e0: 8813 44b8 5a5d a7b9 d4d2 b8b9 0ca4 9939
000001f0: 11e6 35bb 4352 4abb 53b5 3639 a4d7 6eb9
00000200: 9e12 5fba 1d0d 063a 98c5 02b9 6c81 2139
00000210: 5148 0c38 26ac bcb8 c0eb 7d37 12d4 ab38
00000220: c117 0fba b2f2 1338 14fb e8b9 88ed af36
00000230: 363a 5439 e403 33ba 5aba 1db9 5c51 3f3a
00000240: 7753 35b8 bb7d fa38 c9aa 7538 6e9b 86b9
00000250: c427 6bb8 2215 9939 c1fd 4eb9 dc32 29b9
00000260: c7b4 62bb f80d a437 c448 10b8 09f0 993a
00000270: 717f 3e39 e0c2 13bb 985c 473a 6dc1 f9b9
00000280: e6b0 86b9 4653 a4b9 d16a 10ba c22a 9aba
00000290: f0ea c637 f4f9 96b8 b2e3 303a 90bc 2ab9
000002a0: 506f 16b9 a4af 9bb9 e858 0f3b b0ca 4b3b
000002b0: 2619 ce39 1067 35b8 727d b838 ade4 50b8
000002c0: e84e 6f38 8a1c 5bb8 207e acba 1460 90ba
000002d0: 59bc 063b e531 273a 2e32 4bba 8c78 8f38
000002e0: 841f c9b8 1515 0bbb f093 adb7 02a9 c0b8
000002f0: 1e10 4039 fee9 e038 d75b 97b8 309e be38
00000300: 8552 9b39 fa6c a9b9 8d18 26b9 4550 23ba
00000310: 60d9 a3ba 869d 21ba fe1a 2fb9 bc24 06b9
00000320: 0494 8aba 1787 8a3a b169 543a f2d3 663a
00000330: b08f 1039 1a68 9138 c0f7 41b7 1db6 c839
00000340: 3a1a 54ba 339e d439 5f0c 47ba 00fb 173a
00000350: f80b 553a b242 edb9 885b b237 d210 8038
00000360: 886f 17b7 03ff 93b9 4e9e d4b9 12b1 10ba
00000370: 1ae4 47ba 77f1 feba 160e b139 87ee afba
00000380: abb7 9d3a f029 bfb8 30c6 2b38 b8c5 a3b8
00000390: 448c 0b38 203c 6a36 2ced 05ba 58e2 1839
000003a0: 9906 0ab9 8b50 53b8 c50a 6239 2989 253a
000003b0: d891 313b 5b9b 0f39 9bf1 0ab9 0c1b 63ba
000003c0: 44b7 35b9 a0fa 243b ceed 47ba fe56 13bb
000003d0: f44b d437 6ced 19b9 05cb b63a a0f3 733a
000003e0: 5390 8c39 3b76 0039 71c3 78ba 4c08 d8ba
000003f0: fc50 c3b9 d192 1b39 548e cd3a 4013 f938
0.00018402602 -0.00010014478 -0.0025176308 0.0062420117 -0.00020057344 -9.294363e-05 -0.00017918371 -0.0001226968
3.140758e-05 0.000511308 -0.0003507308 -0.0010978479 0.0012150547 -0.0008001609 0.0001421399 8.683962e-05
-0.00048249884 0.0007718831 0.00027020276 -0.00016686716 0.00037008055 0.00011065423 0.00037370296 -0.00025186618
0.00013812634 9.553694e-05 0.0013526434 -0.00020504967 0.000114479415 -0.0005728094 0.00025309407 0.00037804298
0.00050012185 0.0018475056 -0.0004978515 0.00067291746 0.0005605105 0.00010726799 -0.00014588253 -0.00018097789
-0.001727581 -0.0002661076 -0.00055509194 -8.142902e-05 -0.0014952805 -0.0011359507 2.0149779e-05 1.2511824e-05
1.7108254e-05 7.087151e-05 -5.0255716e-05 8.154761e-05 0.0002512479 -0.003030303 -0.0006085552 -9.340726e-05
8.994363e-05 -0.00014025604 -0.00043150922 -0.0009844138 -7.987955e-05 0.00020648731 -0.00030083064 5.278727e-05
-6.604946e-05 -0.00044632136 -0.00015994885 -0.00031443493 0.0016196189 1.6552513e-06 -1.6284772e-05 0.00046516303
2.1031417e-05 0.0013550688 -0.0014579045 0.000101763144 1.7800172e-05 -0.0007683022 -0.0010525159 -0.00080438063
3.981929e-05 4.537286e-05 0.0003732097 -0.0009793337 0.000564634 -2.7678834e-05 -0.0069530527 -0.0035166633
0.0011718723 -0.00043029134 -0.00017901398 -0.00041308964 -0.00095257023 0.0003742704 -0.0018566732 0.0023136444
0.0004542478 -0.0018782897 0.0009726323 -0.00037379528 -7.169982e-05 -0.0007469055 -6.243199e-05 -0.00026427847
-0.0009625791 0.00010953835 0.00087334035 0.00049301493 -3.838627e-05 0.00086311816 -1.0050542e-05 0.0005962956
-0.0016942008 -0.0016367259 1.8698665e-05 -0.00018007656 -0.0036233999 0.0005738002 -0.0015790991 -4.6927176e-05
-4.674823e-05 -0.00031922275 -0.00035252294 0.00029304659 -0.0027755538 -0.0030871786 0.00017424421 -0.00022777781
-0.0008509549 0.00051136484 -0.00012471376 0.0001540237 3.344595e-05 -8.996604e-05 1.5134865e-05 8.1934166e-05
-0.00054585567 3.527356e-05 -0.00044437556 5.2430587e-06 0.00020239581 -0.0006828888 -0.00015042108 0.0007298195
-4.3231496e-05 0.00011944348 5.8571608e-05 -0.00025674276 -5.60654e-05 0.0002919818 -0.00019740222 -0.00016136043
-0.0034592615 1.9556828e-05 -3.4400044e-05 0.001174451 0.00018167288 -0.0022546574 0.0007605045 -0.00047637094
-0.0002569027 -0.0003134256 -0.0005509081 -0.001176201 2.371284e-05 -7.199115e-05 0.00067477964 -0.00016282708
-0.00014346582 -0.00029694766 0.002187306 0.0031096153 0.0003931012 -4.3249747e-05 8.79717e-05 -4.9804035e-05
5.7055528e-05 -5.2240248e-05 -0.0013160147 -0.0011014962 0.0020559041 0.00063779793 -0.0007751313 6.841225e-05
-9.590297e-05 -0.0021222283 -2.0692096e-05 -9.1867536e-05 0.00018316551 0.00010724737 -7.2173476e-05 9.089371e-05
0.00029625386 -0.00032315386 -0.0001584014 -0.00062299176 -0.0012500696 -0.00061651354 -0.00016699356 -0.0001279292
-0.0010572677 0.0010568824 0.00081029074 0.0008805386 0.00013786438 6.933529e-05 -1.156138e-05 0.00038282658
-0.0008091066 0.0004055366 -0.0007593091 0.0005797595 0.00081270887 -0.00045253854 2.1261876e-05 6.106649e-05
-9.026269e-06 -0.00028228023 -0.00040553737 -0.00055195496 -0.00076252373 -0.0019450624 0.00033770566 -0.0013422527
0.0012032887 -9.115401e-05 4.0954154e-05 -7.809274e-05 3.3270815e-05 3.4903715e-06 -0.0005108889 0.00014580169
-0.00013163163 -5.038133e-05 0.00021557052 0.0006314689 0.0027094986 0.00013695417 -0.0001325071 -0.0008663393
-0.00017329777 0.0025173798 -0.0007626683 -0.0022482271 2.5307738e-05 -0.00014679664 0.0013946003 0.00093060173
0.0002681041 0.00012251076 -0.0009489572 -0.0016481965 -0.00037253636 0.00014836645 0.0015682676 0.00011876831

exp_avg_sq f4 [32, 21, 2]
00000000: 889a 6d37 ac4d 0436 221c 8439 68e6 9139
00000010: d3cc 0636 067c 2a36 06ef 8e34 6636 bf34
00000020: 772a 2735 35fc c635 aa84 bb37 d150 8a37
00000030: fd75 bb37 c42d 9c37 66be a736 1f84 5536
00000040: 7420 9936 e1d3 d636 5714 b135 5054 6735
00000050: e0ed d535 dd36 c935 54df 8136 d8e8 c136
00000060: eac9 ec35 16c1 2235 d6c2 2039 502b 4b38
00000070: ed00 a235 e29b 1137 8913 f936 b378 3839
00000080: b0de 1a38 c7f7 cc37 8ba5 ed36 f4c7 7c37
00000090: cb25 1836 38ae 7837 e2fa 2a36 33cd 0e36
000000a0: 6bb4 7738 0d4c 0e38 5b71 f337 5daa 0235
000000b0: 6f85 0f39 1462 3039 3ae7 7b35 b75f 9834
000000c0: 6959 eb33 2896 c534 21a3 a733 3aba 0035
000000d0: b8b9 0037 b167 3f38 17d9 1338 0e79 d935
000000e0: e9e3 8a35 e6a1 a136 99f5 a336 7c14 8637
000000f0: 455a 1834 03a3 aa35 aa94 9f35 e9c9 f734
00000100: 2d93 3b36 b6e1 7c36 d673 f135 8e04 8536
00000110: aecc 8a38 7132 d837 33cc 7236 4238 0638
00000120: 546c 6b38 2c05 ad38 a7de 0338 f31a 1f37
00000130: 33f1 1538 de61 0738 69f3 1036 3fa8 3437
00000140: f585 8a34 80fb 8734 841e 6e37 d21a fd36
00000150: 3eb5 4337 95ce 0137 a535 ba3a e499 c839
00000160: 983d 2937 452b 3337 8976 8b35 7cd5 4c35
00000170: 5420 a936 19e8 4536 96e3 b538 4b92 e238
00000180: 51b5 a538 0fa2 4638 9d7c b537 bb14 f636
00000190: cfbc 3238 ba68 8c38 92f0 5d36 21fe 3136
000001a0: b2e8 a836 2698 6936 8add b537 456e 0637
000001b0: 9528 b236 6610 0a37 5eba 0e38 6e1d 4939
000001c0: ca5f ce36 7e2c 9a38 05f9 dd38 c6c9 8738
000001d0: 3381 ef38 4c3c 5938 935a 9b38 da20 8b37
000001e0: 582b 7237 c371 2637 fb7a 1637 e7e8 d636
000001f0: bd5f 6f39 ab05 5c39 f851 9a37 21f5 bd35
00000200: 4461 8637 d9b8 3e38 29e2 0435 b17c 1335
00000210: 0798 c133 5760 df34 251f da35 7c5f 8f34
00000220: fa0d 0037 f46e 4b36 e9eb 0937 7bf7 1d37
00000230: bab7 8536 e047 e036 ab02 e935 05d9 fb37
00000240: 38e1 9833 640c d934 7853 2d34 f118 2e36
00000250: 0554 7a36 e21b 0d36 65f3 1736 94a0 9436
00000260: 3f00 8639 023e c035 573f 5b34 507c f637
00000270: c28f 1238 fcb0 8839 afe4 5e38 403d 5037
00000280: 995f 0438 bf58 1438 8951 4036 d28f 8937
00000290: 4645 7e36 863e e234 e5f5 da36 6c35 2038
000002a0: c6ca d135 e8e9 6136 eb51 4238 cd0f 8e39
000002b0: fe07 9b36 dc96 9636 92db 1135 ce43 9233
000002c0: 0e1c 8435 7c73 3235 5e1f 1638 651f aa37
000002d0: ebb5 9f37 d033 c037 726c 1337 5a3b 8936
000002e0: df01 1438 c01b d137 fcbf 2236 d87f 8534
000002f0: f934 0d36 caa2 8e35 3cda 1a36 cb2b df35
00000300: 2717 4b35 3430 4b36 2f4d 3f37 7a94 0f37
00000310: 315b b537 de32 0a38 10c4 5c38 926e ff37
00000320: 5ab1 1138 f937 0839 2885 2e38 3a2b bd36
00000330: ed27 1737 8f1d 6936 d91e 0635 9d42 a136
00000340: 1753 2538 82de e637 b7de 1d38 661d 0237
00000350: 963d 6e3a 6e26 e839 da20 aa35 aa5a db35
00000360: d8e1 6934 bd0f f534 e50b 6b35 c563 eb35
00000370: ebf1 2e38 7a3a 5737 8fd6 4038 f46e 2037
00000380: 510e 1837 9289 2937 861f 8037 e113 0638
00000390: 863c 4d35 ae94 5f35 2821 2b36 27ce 1f36
000003a0: c835 7036 1742 8235 e4a1 8e36 297f 5336
000003b0: 07cb 4039 d5d9 9a36 a3ec ee35 2bfd 9237
000003c0: 7c9a f437 8772 5a39 d5ce 2b38 1971 c938
000003d0: 5e37 9737 65c8 2138 d2ca 1237 0d09 2037
000003e0: 20fe 3635 eb39 4f35 a60d 5d38 5ba6 7e38
000003f0: 0b15 2438 a319 0835 9242 4839 6e4e 0539
1.416228e-05 1.9714744e-06 0.00025197963 0.0002782822 2.008678e-06 2.5404165e-06 2.6623474e-07 3.5616102e-07
6.227414e-07 1.4825551e-06 2.2353914e-05 1.6488515e-05 2.234708e-05 1.861796e-05 4.999153e-06 3.1816378e-06
4.5635334e-06 6.402363e-06 1.3193447e-06 8.6176897e-07 1.5938967e-06 1.4991634e-06 3.8704984e-06 5.778955e-06
1.7642135e-06 6.063068e-07 0.00015331371 4.843931e-05 1.207021e-06 8.678968e-06 7.4230525e-06 0.00017592571
3.6923855e-05 2.4434075e-05 7.082422e-06 1.5066926e-05 2.2671763e-06 1.4822515e-05 2.5478007e-06 2.127909e-06
5.9057416e-05 3.3926266e-05 2.9020643e-05 4.8676685e-07 0.0001368725 0.00016821205 9.3841265e-07 2.8381848e-07
1.0959304e-07 3.6803362e-07 7.8062165e-08 4.795471e-07 7.672636e-06 4.563452e-05 3.524971e-05 1.6202991e-06
1.0348132e-06 4.8170214e-06 4.88637e-06 1.5983584e-05 1.4188943e-07 1.271343e-06 1.188969e-06 4.6154244e-07
2.795084e-06 3.7682307e-06 1.7989612e-06 3.964239e-06 6.618477e-05 2.5772695e-05 3.617967e-06 3.2000484e-05
5.6129255e-05 8.250246e-05 3.1440195e-05 9.483413e-06 3.5749003e-05 3.2277654e-05 2.1599355e-06 1.0768009e-05
2.580197e-07 2.53287e-07 1.419301e-05 7.54311e-06 1.16651045e-05 7.737098e-06 0.0014206661 0.0003826163
1.0087526e-05 1.0679306e-05 1.0390805e-06 7.630658e-07 5.040356e-06 2.9490386e-06 8.673144e-05 0.00010803769
7.901586e-05 4.7357807e-05 2.1634909e-05 7.3337847e-06 4.261435e-05 6.695227e-05 3.3071597e-06 2.6522978e-06
5.0338795e-06 3.4808268e-06 2.1680044e-05 8.0126965e-06 5.3095378e-06 8.229259e-06 3.4029006e-05 0.00019179817
6.1504297e-06 7.3515796e-05 0.00010584485 6.474885e-05 0.00011420473 5.1792988e-05 7.407847e-05 1.6585389e-05
1.4434416e-05 9.920858e-06 8.96933e-06 6.4048104e-06 0.00022828481 0.00020982946 1.83964e-05 1.4152939e-06
1.6019338e-05 4.5471683e-05 4.950294e-07 5.494322e-07 9.0149165e-08 4.1607083e-07 1.625133e-06 2.67053e-07
7.632649e-06 3.031394e-06 8.220763e-06 9.41555e-06 3.9850975e-06 6.6840876e-06 1.7360629e-06 3.002259e-05
7.1190186e-08 4.0428415e-07 1.6142246e-07 2.5942538e-06 3.7301809e-06 2.1026867e-06 2.2642428e-06 4.4294375e-06
0.00025558655 1.4323161e-06 2.0419007e-07 2.9383373e-05 3.4942997e-05 0.00026071805 5.3141903e-05 1.2412027e-05
3.1560285e-05 3.53686e-05 2.865769e-06 1.6398644e-05 3.7889272e-06 4.2141272e-07 6.525532e-06 3.8196726e-05
1.5630728e-06 3.3663764e-06 4.6329496e-05 0.00027096123 4.6202904e-06 4.4879107e-06 5.4336226e-07 6.8109884e-08
9.842931e-07 6.647822e-07 3.5792e-05 2.0280198e-05 1.903899e-05 2.291231e-05 8.787132e-06 4.0898276e-06
3.5287692e-05 2.4927664e-05 2.425163e-06 2.48662e-07 2.1041471e-06 1.0627202e-06 2.3074817e-06 1.662754e-06
7.5657084e-07 3.0277415e-06 1.1402458e-05 8.558034e-06 2.1619346e-05 3.2949138e-05 5.2634685e-05 3.0449857e-05
3.4735865e-05 0.00012990822 4.1608844e-05 5.637671e-06 9.009597e-06 3.473691e-06 4.996378e-07 4.8059287e-06
3.941645e-05 2.752175e-05 3.7639136e-05 7.755449e-06 0.00090881565 0.0004427912 1.2675548e-06 1.6343158e-06
2.1781977e-07 4.5646257e-07 8.756163e-07 1.7537901e-06 4.1710136e-05 1.2828614e-05 4.597619e-05 9.562576e-06
9.063239e-06 1.0105216e-05 1.5273468e-05 3.1966603e-05 7.6456524e-07 8.329033e-07 2.5500285e-06 2.3812843e-06
3.5794092e-06 9.70499e-07 4.2507763e-06 3.1515467e-06 0.0001838618 4.6149166e-06 1.7801252e-06 1.7522447e-05
2.9159004e-05 0.00020832765 4.0962204e-05 9.605493e-05 1.8026385e-05 3.8572023e-05 8.749501e-06 9.5388505e-06
6.8170084e-07 7.719779e-07 5.2703217e-05 6.071325e-05 3.9120245e-05 5.0701254e-07 0.00019098286 0.00012713086

exp_avg f4 [32]
00000000: 84fe a937 8e39 d0b7 1bd4 a4b7 8fde 0837
00000010: 3c45 acb7 75a7 6638 3a42 26b7 5005 01b8
00000020: cadb 4d38 59a0 5b38 2cc9 47b7 5be1 fb37
00000030: fdf0 8e38 aeac 5436 0cf2 f337 f467 8bb6
00000040: 1cef 9137 8491 5cb7 06f6 e637 9ec1 9738
00000050: 6ade 73b8 8c22 f1b6 e642 a137 e68a cbb8
00000060: 41dc 94b8 a604 cc37 2be1 75b8 5e27 37b6
00000070: c9c7 b037 026b 88b6 3536 3fb8 c0d0 96b8
2.0264888e-05 -2.4822333e-05 -1.9649093e-05 8.15805e-06 -2.0536238e-05 5.499223e-05 -9.909791e-06 -3.0760944e-05
4.9080503e-05 5.2363004e-05 -1.1908163e-05 3.0026471e-05 6.815975e-05 3.1690975e-06 2.908057e-05 -4.1546245e-06
1.7396691e-05 -1.3146902e-05 2.75327e-05 7.236305e-05 -5.8142854e-05 -7.1863815e-06 1.9223848e-05 -9.705666e-05
-7.0982154e-05 2.432086e-05 -5.8622256e-05 -2.729204e-06 2.1073867e-05 -4.065573e-06 -4.5588433e-05 -7.19144e-05

exp_avg_sq f4 [32]
00000000: d4d7 1933 b08a 3b33 7491 2d34 28a6 ee33
00000010: cd51 4334 b2bf b533 0186 2934 7f1a 0f34
00000020: 9cc5 0633 a319 0f34 ce06 ee33 d525 bf33
00000030: 8df2 1234 c61e c032 f4fd 9433 b3a3 9d33
00000040: 053b 5b33 0488 b833 f3a6 2e34 34ad 4534
00000050: 2243 fe33 e476 f432 54c9 9333 6a4d be34
00000060: f4a7 6d34 3d12 ef33 5efd 0334 825f 2c33
00000070: 252d 3b34 a913 5334 6c5e 7a33 5a63 7b34
3.5819383e-08 4.3665466e-08 1.6164796e-07 1.1112962e-07 1.8190549e-07 8.4633385e-08 1.5788102e-07 1.3327552e-07
3.137903e-08 1.332724e-07 1.10839764e-07 8.901012e-08 1.3685549e-07 2.2365736e-08 6.937981e-08 7.340659e-08
5.104359e-08 8.592909e-08 1.6265749e-07 1.8410066e-07 1.1840008e-07 2.8459404e-08 6.881842e-08 3.5446584e-07
2.2133446e-07 1.1132622e-07 1.22925e-07 4.0133735e-08 1.7432156e-07 1.9658059e-07 5.8293537e-08 2.341234e-07
