cebra_models/reach1_4/03/discerte_label_models/cebra_trialID_model_2500_3_reach1_4_A_AllSameID_2024-05-10_18-05-37.pt (torch, 231847 bytes, 31 tensors)

net.0.weight f4 [32, 21, 2]
0	0xbddd8aeb	-0.10817512
1	0xbd517e2f	-0.05114573
2	0x3ddd5487	0.10807138
3	0x3c91a98b	0.01778104
4	0xb9ff4f3c	-0.00048696424
5	0xbd8cea9c	-0.06880686
6	0x3da7fe6c	0.08202824
7	0xbdd3b1c3	-0.1033664
8	0xbc98dd16	-0.01866011
9	0xbd43cbb9	-0.047801707
10	0x3da64d31	0.08120192
11	0x3d9259d7	0.07146042
12	0xbda27c20	-0.07933831
13	0x3df21e85	0.118222274
14	0xbc66a639	-0.0140777165
15	0x3e1a98e5	0.15097387
16	0xbcf54274	-0.029938914
17	0x3d2f2e73	0.042768907
18	0x3bf57f74	0.0074920002
19	0xbd4925d0	-0.049108326
20	0x3e0f21ef	0.13977788
21	0xbdcd67be	-0.10029553
22	0xbd1d3f9c	-0.03839074
23	0x3ad3d2e2	0.001616087
24	0x3d74fda1	0.059812192
25	0xbd5395f5	-0.051656682
26	0x3d3d1d8a	0.04617075
27	0x3d888bff	0.06667327
28	0xbdd58776	-0.10426228
29	0xbe029dee	-0.12755558
30	0x3dcbf1c4	0.099582225
31	0xbe108a44	-0.14115244
32	0xbcf0da1a	-0.029400874
33	0xbe24e787	-0.16103946
34	0xbdd4b7cc	-0.10386619
35	0xbdd02558	-0.10163373
36	0x3e09a881	0.13443185
37	0x3cff9a53	0.031201517
38	0xbd8ffbfd	-0.07030485
39	0x3df6cf58	0.120512664
40	0xbd8a56d2	-0.06754841
41	0x3e191d47	0.14952575
42	0xbdb2bd24	-0.08727482
43	0xbe0fe8e4	-0.14053684
44	0x3ca02aca	0.019551653
45	0x3e0617e4	0.13095051
46	0x3d941209	0.072300024
47	0x3e09a63f	0.13442324
48	0x3cd704ad	0.026247347
49	0x3cf9252d	0.030413235
50	0x3d487742	0.048941858
51	0x3b921185	0.004457655
52	0xbb92efeb	-0.004484167
53	0xbdb07fb5	-0.08618108
54	0x3cc4a689	0.024005191
55	0xbe18560c	-0.14876574
56	0x3e03c130	0.12866664
57	0xbd8256b4	-0.063641936
58	0x3dedff76	0.11620991
59	0xbd85ec1e	-0.065391764
60	0xbba55cd3	-0.005046466
61	0xbd9ba4ab	-0.07599767
62	0x3e0034a9	0.12520088
63	0x3d2571a9	0.040391598
64	0xbd5a27a8	-0.053260475
65	0xbe2b78f3	-0.16745357
66	0x3d64011c	0.05566512
67	0x3d9e5c3c	0.07732436
68	0xbd41d205	-0.04731943
69	0x3dda2ab6	0.10652678
70	0x3e11f891	0.14254977
71	0xbce39430	-0.027780622
72	0xbe335258	-0.1751188
73	0xbcf8d04c	-0.030372761
74	0x3d81e4d3	0.06342473
75	0x3cb0f127	0.021599365
76	0x3d6e5025	0.0581819
77	0xbd8055da	-0.06266375
78	0xbce21591	-0.027598174
79	0x3e034b41	0.12821676
80	0x3d565071	0.05232281
81	0xbe0c99c3	-0.1373053
82	0xbe015255	-0.12629063
83	0xbe33916c	-0.17535943
84	0x3e1b1098	0.15143049
85	0xbcb43497	-0.021997733
86	0xbdd698a4	-0.10478333
87	0x3c1d7822	0.009611161
88	0xbe1c4cec	-0.15263718
89	0xbd4be2b6	-0.049776755
90	0xbca4244b	-0.020036837
91	0xbde2809c	-0.110596865
92	0xbdf36ed1	-0.11886371
93	0xbde5349c	-0.11191675
94	0x3d14876c	0.03626196
95	0xbdbc67e9	-0.09199507
96	0x3bfc9304	0.0077079553
97	0x3d0365e0	0.032079577
98	0xbe1332f1	-0.14374901
99	0xbd960f8c	-0.07327184
100	0x3df34a61	0.11879421
101	0xbdecce58	-0.115627944
102	0x3cad6ef8	0.021171078
103	0x3ce10976	0.027470332
104	0xbbd81941	-0.0065948074
105	0x3d7605fe	0.06006431
106	0x3df794e5	0.12088946
107	0x3d774baa	0.060374893
108	0xbdbc63be	-0.09198712
109	0xbdaf4d8d	-0.085597135
110	0xbe202023	-0.15637259
111	0xbe1bc854	-0.15213138
112	0xbe09bc05	-0.1345063
113	0xbc617c20	-0.013762504
114	0x3dd1bd16	0.102411434
115	0xbc1f8003	-0.00973511
116	0x3c481094	0.012210984
117	0x3c4cb461	0.012494178
118	0x3da3756d	0.079813816
119	0x3de81968	0.11332971
120	0xbdb719b1	-0.08940447
121	0x3da786e5	0.08180026
122	0x3c3758f9	0.011190646
123	0x3d84dd35	0.064875044
124	0xbbb72ace	-0.0055898195
125	0x3df2d39e	0.11856769
126	0x3dcc21eb	0.09967407
127	0x3dece693	0.11567416
128	0xbe11eb34	-0.14249879
129	0xbd73ccef	-0.05952161
130	0xbdeec826	-0.11659269
131	0x3e11630a	0.14197937
132	0x3ddc5feb	0.107604824
133	0xbdfe4e09	-0.12417228
134	0xbdc61fc0	-0.096740246
135	0xbd28a829	-0.041175995
136	0x3da7c704	0.08192256
137	0x3da4404c	0.08020076
138	0x3d46c05a	0.048523284
139	0xbdc8c103	-0.09802439
140	0xbcaec9d4	-0.021336474
141	0xbe072f6e	-0.13201687
142	0x3e20c397	0.15699612
143	0x3d876c7e	0.0661249
144	0x3d9c4d0a	0.076318815
145	0x3dc7e84b	0.09761103
146	0xbd5e0486	-0.054203533
147	0xbd662278	-0.056185216
148	0x3d11703c	0.035507426
149	0x3d86d2c0	0.06583166
150	0xbdb1e019	-0.08685321
151	0x3d7ffb1f	0.062495347
152	0xbe0e7e59	-0.13915385
153	0x3d38ffa6	0.04516568
154	0x3c9093e5	0.017648647
155	0xbdf46f34	-0.11935273
156	0x3dc79272	0.09744729
157	0xbce8d434	-0.028421499
158	0xbe136e83	-0.14397626
159	0x3dbc0890	0.09181321
160	0x3e155f82	0.14587215
161	0xbd9cf9f8	-0.07664865
162	0x3d4a49f8	0.04938695
163	0x3d26a818	0.04068765
164	0x3d89870e	0.06715213
165	0x3d883639	0.06650967
166	0xbe1b1913	-0.15146284
167	0xbd241afb	-0.040064793
168	0xbda02b0b	-0.0782071
169	0x3de10cbf	0.10988759
170	0xbe00d84f	-0.12582515
171	0xbc4d090f	-0.012514367
172	0xbe0f05e5	-0.13967092
173	0xbd8c1c6f	-0.06841361
174	0x3df87e04	0.121334106
175	0xbd28405d	-0.041077007
176	0x3de6f99a	0.112780765
177	0xbdfef411	-0.12448896
178	0x3bb21a1e	0.0054352423
179	0x3e111109	0.14166655
180	0xbe0e8719	-0.13918723
181	0xbd9ff00c	-0.07809457
182	0xbd4cc119	-0.04998884
183	0xbd167be1	-0.036739234
184	0x3e369b1a	0.17832604
185	0x3e19c2a0	0.1501565
186	0x3dc3fe81	0.09570027
187	0x3d26de42	0.040739305
188	0xbdf8b009	-0.12142951
189	0x3c9b46b6	0.018954616
190	0x3df897e1	0.121383436
191	0xbbf67c42	-0.007522137
192	0x3dfaeb65	0.12251929
193	0xbdc42cd0	-0.0957886
194	0x3d7210d6	0.059098087
195	0xbd3b0c29	-0.045665894
196	0x3e2ea3c0	0.17054653
197	0xbdd63718	-0.10459727
198	0xbca26afd	-0.019826407
199	0x3d85a30b	0.065252386
200	0xbe107a62	-0.14109185
201	0x3d12ed8f	0.035871085
202	0xbdfb045b	-0.1225669
203	0x3d2bcb6d	0.04194205
204	0x3dcf2147	0.10113769
205	0xbcbcbc47	-0.023038996
206	0x3cdae6bf	0.026721356
207	0xbd90bcd8	-0.07067269
208	0x3e054e4d	0.1301815
209	0xbda6b41a	-0.081398204
210	0xbc2d379d	-0.010572341
211	0x3dd19fbc	0.10235545
212	0xbd333e07	-0.043760326
213	0xbe1c1506	-0.15242395
214	0xbe1fbb88	-0.15598881
215	0xbdb329ec	-0.0874823
216	0x3cebb30f	0.028771905
217	0xbe1e076a	-0.15432516
218	0xbdedf3a2	-0.11618735
219	0x3dee67c6	0.11640887
220	0x3c180458	0.009278379
221	0x3b94533b	0.0045265234
222	0xbc1e4f2e	-0.009662433
223	0xbe1c2742	-0.1524935
224	0x3cea4792	0.02859858
225	0x3de62e8c	0.11239347
226	0xbdbb57b5	-0.09147588
227	0x3d1d1c9f	0.038357373
228	0xbcb789f0	-0.02240464
229	0x3ddee0d8	0.10882729
230	0x3df751bb	0.12076136
231	0x3d0e37b5	0.034721095
232	0x3c1b1b26	0.009466922
233	0xbd5d4f12	-0.054030485
234	0x3da291ef	0.07937991
235	0xbc9d26eb	-0.019183597
236	0xbac88de7	-0.0015301079
237	0xbde1a26e	-0.11017309
238	0x3da24d40	0.079248905
239	0x3d5b3b4d	0.05352335
240	0x3d78693e	0.06064724
241	0xbdb35870	-0.087571025
242	0x3da1fccf	0.079095475
243	0x3e2659ad	0.16245146
244	0x3d3b45e7	0.04572096
245	0xbe106b9c	-0.1410355
246	0x3cddfd4d	0.027098322
247	0x3c71c854	0.014757235
248	0x3dd5fa51	0.10448135
249	0x3c10c033	0.008834886
250	0x3de8c0da	0.113649085
251	0xbdffb186	-0.12485032
252	0xbc92406d	-0.017852986
253	0x3c02d7f5	0.0079860585
254	0xbe1ff034	-0.15618974
255	0x3df43d07	0.119257025

net.0.bias f4 [32]
0	0x3e0e51fd	0.13898464
1	0xbdb3ef64	-0.087858945
2	0xbd995b92	-0.07488169
3	0xbce0b0ee	-0.027428117
4	0xbd8c8885	-0.068619765
5	0x3dd76f2e	0.10519253
6	0xbdebd428	-0.11515075
7	0x3debdf20	0.11517167
8	0xbcfa7493	-0.030573165
9	0x3d00ff12	0.031493254
10	0xbd1bae2e	-0.038007908
11	0x3e0e9efc	0.13927835
12	0xbd052924	-0.032509938
13	0xbd3b94ce	-0.045796208
14	0xbd554b6b	-0.052073877
15	0xbd231e96	-0.03982409
16	0xbd0eb96d	-0.034844805
17	0x3df8c005	0.12146
18	0xbdc2d0b2	-0.09512462
19	0x3ce52230	0.027970403
20	0x3da8ef0d	0.0824872
21	0xbe169244	-0.14704233
22	0x3d8a55c8	0.06754643
23	0xbbad7dcc	-0.005294537
24	0xbd045498	-0.032307237
25	0x3d09244e	0.03348189
26	0xbbc06c25	-0.005872267
27	0x3b16ff3a	0.002304031
28	0xbde195d1	-0.11014903
29	0xbe0c5665	-0.13704832
30	0x3b6b9170	0.0035944842
31	0x3dc82d0a	0.097742155

net.2.module.0.weight f4 [32, 32, 3]
0	0x3c47ff4c	0.012206864
1	0xbd64ec92	-0.055889674
2	0x3c7c70c6	0.015407747
3	0xbd9e3f63	-0.07726934
4	0xbaa45ef5	-0.0012540506
5	0xbbed3a9a	-0.007239652
6	0x3d2b3337	0.04179689
7	0xbbe10c4b	-0.0068679205
8	0x3cf4fcbd	0.029905671
9	0x3d881d24	0.06646183
10	0xbdce5ab9	-0.10075898
11	0xbdc4082e	-0.09571873
12	0x3a0e2249	0.0005421979
13	0x3c5cc566	0.013474798
14	0xbd774fa1	-0.060378674
15	0x3dbe6ae3	0.09297731
16	0xbc6e7cdd	-0.014556137
17	0x3d8415c4	0.06449464
18	0x3d7ca679	0.0616822
19	0x3cc6c0f4	0.02426193
20	0x3d4e035a	0.050296165
21	0xbcea7036	-0.02861796
22	0xbd0d4c1a	-0.034496404
23	0x3d23d1e0	0.039995074
24	0xbc270ad9	-0.010195457
25	0x3da12e59	0.07870168
26	0x3dcfb3f3	0.101417445
27	0x3cfcdbf9	0.03086661
28	0x3ca4022f	0.020020572
29	0x3d84d74c	0.06486377
30	0xbd7ba24e	-0.061434083
31	0xbd2911d1	-0.041276757
32	0x3dfe9256	0.12430255
33	0xbd05c479	-0.032658074
34	0x3c327a4a	0.010893414
35	0x3d947712	0.07249273
36	0x3dbc4cd0	0.09194338
37	0xbce86cce	-0.028372195
38	0xbd9fd020	-0.078033686
39	0xbd2bd1a4	-0.041947976
40	0xbdbec81e	-0.09315513
41	0x3da007de	0.078140005
42	0x3c947b0b	0.018125078
43	0x3d1e9af0	0.03872198
44	0x3d47e24a	0.04879979
45	0x3c8c99c6	0.017163169
46	0x3cf8a4cd	0.03035202
47	0xbdb2b93f	-0.08726739
48	0x3d7a088b	0.061043303
49	0xbdb48234	-0.08813897
50	0xbd3483ce	-0.04407101
51	0x3d7c7fde	0.06164538
52	0xbd3003a9	-0.04297224
53	0x3dd15b60	0.102225065
54	0xbdb18a3f	-0.086689465
55	0xbb7d2357	-0.00386258
56	0x3bed8b18	0.0072492473
57	0x3d8f870e	0.070081815
58	0xbda19bee	-0.07891069
59	0x3d278763	0.0409006
60	0xbdd17d93	-0.102290295
61	0x3d1d677f	0.03842878
62	0xbd5c2dd1	-0.05375463
63	0xbb9bbd88	-0.0047528185
64	0xbdc0ee8f	-0.094205014
65	0x3b64533b	0.0034839648
66	0x3d018a63	0.031626116
67	0xbc42e019	-0.011894249
68	0x3dd42a68	0.10359651
69	0x3bd5e4ef	0.006527535
70	0x3cc5efca	0.024162192
71	0x3c42fcba	0.011901075
72	0x3d20d74f	0.039267834
73	0x3d08f32e	0.03343504
74	0x3dbab96a	0.09117396
75	0xbd91e546	-0.071238086
76	0xbdd2fd46	-0.10302214
77	0x3db62a1c	0.088947505
78	0xbd95acb3	-0.073083304
79	0xbda85222	-0.082187906
80	0x3dc53c2a	0.09630616
81	0xbc49db2e	-0.012320323
82	0xbd784714	-0.06061466
83	0x3c8a4efc	0.016883366
84	0x3d62c726	0.055365704
85	0x3c23d5b6	0.009999683
86	0xbd025469	-0.03181878
87	0xbde9fe33	-0.11425438
88	0xbd203f7a	-0.039123036
89	0xbda22fb9	-0.079192586
90	0x3c996d6a	0.01872893
91	0xbce5aea6	-0.02803738
92	0xbcb1e37a	-0.021714915
93	0x3d1f31a6	0.038865708
94	0x3cd6dde4	0.026228853
95	0x3cceea16	0.025258105
96	0xbda30808	-0.07960516
97	0xbdd775d3	-0.1052052
98	0xbd06e36b	-0.032931726
99	0x3c0088cb	0.007845114
100	0xbd31981a	-0.043357946
101	0xbdd1e68b	-0.10249051
102	0xbd07b628	-0.033132702
103	0xbdb0a8f3	-0.086259745
104	0xbdbaff91	-0.09130777
105	0xbc9b9806	-0.018993389
106	0xbcce2d24	-0.02516801
107	0x3d91c00b	0.071167074
108	0x3d30eef2	0.043196626
109	0xbda8c7e4	-0.08241251
110	0x3d3c66ec	0.04599659
111	0xbd9e8c4d	-0.07741604
112	0xbd4caaa8	-0.049967438
113	0xbba2ebf5	-0.004971976
114	0xbd38fc70	-0.04516262
115	0x3db73440	0.08945513
116	0x3d90697e	0.07051371
117	0xbd443889	-0.04790548
118	0x3d8781fa	0.06616588
119	0xbce36108	-0.027756229
120	0x3bb99f1b	0.005664719
121	0x3db491df	0.08816885
122	0x3d7b31ed	0.06132691
123	0xbd34a671	-0.044104043
124	0x3d3de7e8	0.04636374
125	0x3db4ef74	0.088347346
126	0x3d69cf54	0.05708249
127	0x3d8bd204	0.06827167
128	0xbc712c57	-0.014720044
129	0xbc78aafa	-0.015177483
130	0xbc86b72d	-0.016444767
131	0x3ccda285	0.02510191
132	0x3d9c70a9	0.07638676
133	0xbd99a238	-0.07501644
134	0xbd4326cc	-0.04764442
135	0x3c0eabf0	0.008707985
136	0x3d40e073	0.04708905
137	0xbdd49d6d	-0.10381589
138	0xbd242188	-0.04007104
139	0xbb882541	-0.0041548316
140	0x3c97fc61	0.01855296
141	0xbd943d4e	-0.072382554
142	0x3c767297	0.015041969
143	0xbd87d17c	-0.06631753
144	0xbcee1075	-0.029060582
145	0x3da92f4f	0.082609765
146	0xbd4bbf1d	-0.049742807
147	0x3ada6272	0.0016661419
148	0xbcabe97a	-0.020985354
149	0xbd76c98e	-0.06025081
150	0x3bccc6c8	0.0062492825
151	0xbda605a6	-0.08106546
152	0xbda14836	-0.07875101
153	0xbccf8242	-0.025330666
154	0xbdaf970f	-0.08573734
155	0xbbaab21e	-0.0052092215
156	0x3c873aab	0.016507467
157	0x3d51be02	0.051206596
158	0x3db26f07	0.08712583
159	0xbd86cf2b	-0.06582483
160	0xbd35e604	-0.044408813
161	0xbd71834e	-0.058963113
162	0x3c153edb	0.009109224
163	0x3ca251fe	0.019814488
164	0xbca7f695	-0.020503322
165	0x3d628f27	0.055312302
166	0xbc8cf35a	-0.017205883
167	0xbd44fbc8	-0.04809168
168	0xbc912288	-0.017716661
169	0x3cd0932b	0.0254608
170	0xbddba55c	-0.10724899
171	0x3d9425f6	0.07233803
172	0xbdc7c2c7	-0.09753948
173	0x3d58dcdf	0.052945014
174	0x3d519ab9	0.051172946
175	0xbd060699	-0.032721136
176	0x3d2f8279	0.042849038
177	0x3d6d7393	0.05797155
178	0x3cebece6	0.028799485
179	0xbd9fc5be	-0.07801388
180	0x3d107d50	0.035275757
181	0x3d9fde1a	0.078060344
182	0xbd26af67	-0.04069462
183	0x3d27e1ee	0.040986948
184	0x3dbad6e1	0.09123016
185	0x3d5d17b1	0.053977672
186	0xbd613e67	-0.054991152
187	0x3da22e9a	0.07919045
188	0xbd67f7de	-0.05663287
189	0x3d716e35	0.058942992
190	0xbce2c5a5	-0.027682135
191	0xbd22a3cc	-0.03970699
192	0xbd0423f8	-0.032260865
193	0x3af8f8bf	0.001899503
194	0x3c48d51c	0.0122578405
195	0x3d8d9ae7	0.06914311
196	0xbd1385c0	-0.036016226
197	0xbcc874ed	-0.024469817
198	0xbdae588f	-0.08512985
199	0xbd0c8b98	-0.034312814
200	0x3dae3cd0	0.08507693
201	0x3d09ec4b	0.033672612
202	0xbd1e59eb	-0.03865997
203	0xbd7474e1	-0.059681777
204	0xbbb237d3	-0.0054387837
205	0xbcc73600	-0.024317741
206	0xbc8dca54	-0.017308392
207	0x3c4316eb	0.01190732
208	0xbdc3d9fc	-0.095630616
209	0xbd13d6ea	-0.03609363
210	0xbdc00122	-0.09375216
211	0xbbed8cc8	-0.0072494484
212	0x3d7d1e1a	0.061796285
213	0x396a4040	0.00022339914
214	0x3d1d23ba	0.03836415
215	0xbb617170	-0.003439989
216	0x3c25e979	0.010126465
217	0x3d9d4e75	0.0768098
218	0x3d317ed7	0.043333855
219	0x3d8a59ca	0.06755407
220	0xbdc06a63	-0.09395292
221	0xbcfc9617	-0.030833287
222	0x3dbf9d37	0.09356158
223	0x3d65ec6f	0.056133684
224	0x3c492057	0.012275777
225	0x3d92247b	0.07135864
226	0xbdc7f55d	-0.09763596
227	0xbcc23ffb	-0.023712149
228	0xbaecaf06	-0.0018057532
229	0x3d6b2bad	0.0574147
230	0x3d8c38a1	0.068467386
231	0x3d731dad	0.059354473
232	0x3ca9dbe7	0.02073474
233	0x3d6fc60c	0.05853848
234	0xbd3c7bdf	-0.04601657
235	0x3d8215e2	0.0635183
236	0xbdc47734	-0.09593049
237	0xbc1b44d0	-0.009476855
238	0xbd6443ec	-0.055728838
239	0xbce99b55	-0.02851645
240	0xbd669e07	-0.05630305
241	0x3cc177d1	0.023616703
242	0x3db74897	0.08949392
243	0xbd640392	-0.055667467
244	0x3d85361b	0.065044604
245	0x3d8e2aaf	0.06941735
246	0xbd1b30b6	-0.03788825
247	0xbd9f029c	-0.077641696
248	0x3a88fe4d	0.0010451764
249	0x3cff7051	0.031181486
250	0x3c1d05c6	0.009583896
251	0xbdb31d1c	-0.087457865
252	0xbbb19040	-0.0054188073
253	0xbd0444dc	-0.032292232
254	0x3dc6417a	0.096804574
255	0xbda7879f	-0.081801645

net.2.module.0.bias f4 [32]
0	0x3bab845a	0.0052342834
1	0xbd1c89cd	-0.038217355
2	0xbd9f93e1	-0.077918775
3	0xbdded5b8	-0.10880607
4	0xbd02d42f	-0.031940635
5	0x3c925f8d	0.017867828
6	0xbc9a4ddc	-0.018835954
7	0x3c3a1c32	0.011359261
8	0x3c050269	0.00811825
9	0xbda0e278	-0.078556955
10	0x3dd692b7	0.104772024
11	0xbd3ca5ab	-0.04605643
12	0xbd821ff2	-0.06353749
13	0x3d159dd8	0.036527485
14	0xbd63f02d	-0.05564897
15	0xbc6f5b41	-0.014609159
16	0x3d97abc8	0.074058115
17	0xbc21e39b	-0.0098809255
18	0xbd7be9fc	-0.06150244
19	0xbd0f3dad	-0.034970928
20	0x3dac392a	0.08409341
21	0xbc8e8c84	-0.017400987
22	0x3bb143a6	0.0054096757
23	0xbd8b9b1a	-0.06816693
24	0x3cc48f43	0.023994094
25	0x3ce601ba	0.028076995
26	0xbcc1a226	-0.023636889
27	0xbd2fb282	-0.042894848
28	0xbc0ca34d	-0.008583856
29	0xbd8cf201	-0.06882096
30	0xbd4e2b38	-0.050334185
31	0xbd3b10c1	-0.045670275

net.3.module.0.weight f4 [32, 32, 3]
0	0x3da42484	0.08014777
1	0xbd5b44a8	-0.053532273
2	0x3da51d47	0.08062225
3	0xbdc89b0f	-0.097952
4	0xbdc2e3d5	-0.09516112
5	0x3cf5e88e	0.030018117
6	0xbd8e16ab	-0.06937917
7	0x3d0948dd	0.033516753
8	0x3c811c81	0.015760662
9	0xbdbb8b39	-0.09157414
10	0xbdb8cc89	-0.09023387
11	0x3d95f820	0.07322717
12	0xbd96eb0f	-0.073690526
13	0xbd8249ef	-0.06361758
14	0x3d8233e1	0.06357551
15	0xbd9d640b	-0.07685097
16	0x3c061431	0.008183525
17	0x3c1c2d68	0.00953231
18	0xb9dc70cb	-0.00042045707
19	0x3d97ecb7	0.07418197
20	0x3dd1401a	0.102173045
21	0x3d5d7cc4	0.054074064
22	0xbcaee926	-0.021351408
23	0x3d372b03	0.044718754
24	0x3cdfff99	0.027343558
25	0x3d7846d2	0.060614415
26	0xbdb72ed8	-0.089444816
27	0x3de6fae0	0.11278319
28	0x3c8867aa	0.016650993
29	0xbd5258d1	-0.051354233
30	0x3dbe8996	0.09303586
31	0xbd7b38f7	-0.061333623
32	0x3df12fa7	0.11776667
33	0x3d851f15	0.06500069
34	0xbd52136f	-0.051288065
35	0x3d210b07	0.039317157
36	0x3d5eb44b	0.05437116
37	0xbc836d71	-0.016043397
38	0xbd3b20e6	-0.04568567
39	0xbb84e47e	-0.0040555587
40	0xbd924f94	-0.071440846
41	0xbd9ce8bd	-0.07661579
42	0x3d4a842a	0.049442448
43	0xbacdfe4f	-0.0015716049
44	0xbb2ef0f1	-0.0026693905
45	0x3d82dc59	0.06389684
46	0xbd2bd2a3	-0.041948926
47	0xbc52eff1	-0.012874589
48	0x3cb41d20	0.021986544
49	0xbbed8d9e	-0.007249548
50	0x3de20e8e	0.11037932
51	0xbc9a6ac7	-0.018849744
52	0xbcd9c574	-0.02658341
53	0xbd4391e3	-0.04774655
54	0x3da5aad8	0.080892265
55	0x3d8b572f	0.06803738
56	0x3da47773	0.08030596
57	0x3be53101	0.006994367
58	0xbd9ffff2	-0.078124896
59	0x3d814634	0.06312218
60	0xbdca5c77	-0.098809175
61	0xbcf2d51c	-0.029642634
62	0x3dc3d4bf	0.095620625
63	0x3d89aa89	0.0672198
64	0xbda86c06	-0.08223729
65	0xbd40cbdc	-0.047069415
66	0x3be201d8	0.0068971924
67	0x3c754330	0.014969632
68	0x3d556d6f	0.052106317
69	0x3d7c431f	0.06158745
70	0x3dcb98ae	0.09941231
71	0xbd920fb4	-0.071319014
72	0x3dd977cc	0.106185526
73	0x3c8081f2	0.015686963
74	0x3da2b34e	0.07944356
75	0xbcc17784	-0.02361656
76	0x3c757d49	0.014983484
77	0xbda0491b	-0.07826444
78	0xbdbb753e	-0.091532215
79	0xbd60fc07	-0.054927852
80	0x3d7e8690	0.062140048
81	0xbcd5a6c2	-0.026080493
82	0x3cddeb8f	0.027089862
83	0x3aa8c1c6	0.0012875132
84	0x3cd75842	0.026287202
85	0xbc055c4e	-0.008139683
86	0x3dbc5596	0.09196012
87	0xbd81b101	-0.06332589
88	0x3da152af	0.07877099
89	0xbc82d447	-0.015970362
90	0x3dcd8088	0.10034281
91	0xbd5df931	-0.054192726
92	0xbdd2d879	-0.10295195
93	0x3dd3c6d4	0.10340658
94	0xbce498ea	-0.027904946
95	0xbd98b783	-0.07456877
96	0xbbf46dc0	-0.0074593723
97	0x3dc01aed	0.09380136
98	0x3de52247	0.111881785
99	0xbd58b6e9	-0.05290881
100	0xbd85e511	-0.065378316
101	0x3a922204	0.0011149053
102	0x3d26ffbe	0.04077124
103	0x3d053a7a	0.03252647
104	0x3d0ee7c9	0.034889016
105	0xbc4b50af	-0.012409373
106	0xba987f97	-0.0011634704
107	0x3dbcf63e	0.092266545
108	0x3d96e605	0.073680915
109	0x3dd45629	0.10367996
110	0xbdabd3d0	-0.083900094
111	0x3dc1d820	0.09465051
112	0x3da19f8d	0.0789176
113	0x3b21552e	0.0024617421
114	0x3dac2ba3	0.084067605
115	0x3c88149d	0.016611392
116	0xbdbabb84	-0.09117797
117	0xbda7ea43	-0.08198979
118	0xbdd7c96c	-0.10536465
119	0xbce32b3c	-0.027730577
120	0xbd85df32	-0.06536712
121	0xbd985f29	-0.07440025
122	0xbd0acf77	-0.03388926
123	0x3dd7fb90	0.105460286
124	0x3d326cf1	0.043560926
125	0x3cb25807	0.02177049
126	0x3c498149	0.01229889
127	0x3d8b701a	0.06808491
128	0x3d91f9b7	0.071277075
129	0x3dc12a01	0.0943184
130	0xbd85c8b9	-0.065324254
131	0x3c8792c1	0.01654947
132	0xbd970220	-0.07373452
133	0xbd3fbb2f	-0.04680937
134	0xbdb83b2d	-0.08995662
135	0xbd56b341	-0.052417044
136	0xbd95185a	-0.07280035
137	0x3c634ff9	0.013874047
138	0x3cebb38b	0.028772136
139	0xbcda720e	-0.026665714
140	0x3d37d8e0	0.044884562
141	0xbcf75064	-0.0301897
142	0xbb9f1f0e	-0.004855997
143	0x3de91a12	0.11381926
144	0x3d47593d	0.04866909
145	0xbd75770a	-0.059927978
146	0x3d8cb241	0.06869937
147	0x3c91af5a	0.01778381
148	0x3dabed7d	0.08394907
149	0x3d82d979	0.06389136
150	0x3d48cf41	0.049025778
151	0x3d2f1fad	0.042754818
152	0xbdb34774	-0.08753863
153	0xbd929984	-0.07158187
154	0x3d88bd89	0.06676776
155	0xbc2cd8b7	-0.010549716
156	0x3d90380b	0.07041939
157	0xbccfd244	-0.025368817
158	0xbc652302	-0.013985397
159	0x3b961caf	0.004581056
160	0x3de64847	0.112442546
161	0x3d89de43	0.06731846
162	0x3dbc05d1	0.09180797
163	0x3d70d42f	0.058796104
164	0xbd99906c	-0.074982494
165	0x3d9e00a3	0.07714965
166	0x3d95b9d8	0.073108375
167	0xbbae91d1	-0.0053274413
168	0x3cd826cf	0.026385693
169	0x3d1fe454	0.03903611
170	0x3bd03cf2	0.0063549215
171	0xbcb5bcfb	-0.02218484
172	0xbd7b4a41	-0.06135011
173	0x3c8cb560	0.01717633
174	0x3d3ad0e4	0.04560937
175	0xbd8aebfb	-0.06783291
176	0xbcd1825b	-0.025574854
177	0x3dd6d5a1	0.10489965
178	0xbc817bc0	-0.015806079
179	0x3c99fd3c	0.01879751
180	0x3dd66c85	0.10469917
181	0xbd7c5e12	-0.06161315
182	0xbda8629e	-0.08221935
183	0xbd9692cf	-0.0735222
184	0xbd688370	-0.056765974
185	0xbd47d3a9	-0.04878584
186	0x3dabcde5	0.08388881
187	0x3dd6e412	0.1049272
188	0xbb285a6f	-0.0025688668
189	0xbc158da4	-0.009128008
190	0x3ccae5db	0.024767807
191	0x3c9c8941	0.019108417
192	0xbd34d770	-0.04415077
193	0x3dbeeedd	0.09322903
194	0x3da7eaba	0.081990674
195	0x3d879aec	0.06621346
196	0xbd292e6f	-0.04130405
197	0xbdad1593	-0.084513806
198	0x3c1b5aa0	0.009482056
199	0x3d6bb55d	0.05754601
200	0x3d0e23ec	0.034702227
201	0x3d1f5cd4	0.038906887
202	0xbd365377	-0.044513192
203	0xbd7bedae	-0.061505966
204	0x3dc9679e	0.098342165
205	0xbd320c5d	-0.04346882
206	0x3d2e4e8e	0.042555384
207	0xbc984dc8	-0.018591776
208	0x3c995425	0.018716881
209	0x3b8df07a	0.0043316456
210	0x3d43cf84	0.047805324
211	0xbde2cd8b	-0.110743605
212	0x3d965dcf	0.07342111
213	0xbd388051	-0.045044247
214	0x3bb5dd6b	0.0055500767
215	0x3d6ab3b9	0.057300303
216	0x3d24ae8c	0.040205523
217	0x3d082260	0.033235908
218	0xbd441d0e	-0.04787927
219	0x3c97d169	0.018532472
220	0x3cc35967	0.023846341
221	0x3d87b005	0.0662537
222	0x3c287650	0.010282114
223	0xbd706ed5	-0.058699448
224	0x3ca59214	0.020211257
225	0xbd3d4f5d	-0.046218265
226	0xbda35202	-0.07974626
227	0xbdc5385a	-0.09629889
228	0xbbc27d4b	-0.0059353462
229	0xbd4ea541	-0.050450567
230	0xbd80ee2f	-0.0629543
231	0x3d3d0d1b	0.046155076
232	0x3d3bd5ef	0.04585832
233	0xbdb9fb33	-0.090811156
234	0x3d0131a3	0.031541478
235	0x3d7cf979	0.061761353
236	0x3d8a0eb1	0.067410834
237	0xbd947708	-0.07249266
238	0x3daaecdb	0.08345958
239	0xbdb84cf5	-0.089990534
240	0x3d07fc48	0.03319958
241	0xbc027124	-0.007961545
242	0x3caad089	0.02085139
243	0x3d955895	0.07292286
244	0xbdd83f73	-0.10558977
245	0xba407780	-0.00073420256
246	0xbd171dc0	-0.036893606
247	0x3d509020	0.0509187
248	0xbd700be2	-0.058605082
249	0xbc2b13e1	-0.010441751
250	0x3d7b830a	0.061404265
251	0xbd3d80c4	-0.04626538
252	0xbccd85c6	-0.025088202
253	0x3cb00833	0.021488285
254	0xbd3d712f	-0.04625052
255	0x3cd1d8ae	0.025616016

net.3.module.0.bias f4 [32]
0	0x3d145f81	0.036223892
1	0xbda4cedf	-0.0804727
2	0x3d87898e	0.06618033
3	0xbd802917	-0.06257837
4	0x3d108b8d	0.035289336
5	0xbbb1cb5f	-0.005425855
6	0x3d6869bf	0.056741472
7	0x3ba6f412	0.0050950134
8	0xbc35ae96	-0.011088988
9	0x3d3529c6	0.04422929
10	0xbc41bbd6	-0.011824569
11	0x3d5d0678	0.053961247
12	0x3d79408b	0.06085257
13	0x3cd5779c	0.02605801
14	0x3ce9177b	0.02845358
15	0x3d7115f7	0.058858838
16	0x3dcff552	0.10154213
17	0xbdb665ed	-0.089061595
18	0xbd293147	-0.04130676
19	0x3ce9f79f	0.028560458
20	0xbd8465e4	-0.064647466
21	0x3dd3952c	0.10331187
22	0xbc9a86fb	-0.018863192
23	0xbde70f0e	-0.11282168
24	0x3c5ed158	0.013599716
25	0xbd8bad28	-0.06820136
26	0x3db39135	0.087679304
27	0xbd9e5061	-0.07730175
28	0xbc7cb31f	-0.015423565
29	0xbd5da0dc	-0.054108486
30	0x3b84ea2a	0.004056235
31	0xbd96c4f6	-0.07361786

net.4.module.0.weight f4 [32, 32, 3]
0	0x3d8aa529	0.06769783
1	0x3dd8397c	0.10557839
2	0xbd681d5f	-0.056668635
3	0x3c8bb9f6	0.017056447
4	0x3db4b581	0.088236816
5	0x3e02670a	0.12734619
6	0x3d51565f	0.05110776
7	0xbd813574	-0.063090235
8	0xbd46d324	-0.048541203
9	0x3da004f3	0.07813444
10	0x3a021832	0.0004962712
11	0x3ba58ce7	0.0050521973
12	0x3c9bcc5f	0.01901835
13	0x3dbd4982	0.09242536
14	0x3d9080ca	0.070558146
15	0xbdab821b	-0.08374425
16	0x3d07a36f	0.033114847
17	0xbd9c0be1	-0.07619453
18	0xbd650801	-0.055915836
19	0xbd5323ce	-0.051547818
20	0x3d1a5dff	0.037687298
21	0x3c8f3371	0.017480584
22	0xbc929779	-0.017894493
23	0x3da20998	0.07911986
24	0xbd6dd9c7	-0.058069017
25	0x3d27282d	0.0408098
26	0x3db24e86	0.087063834
27	0x3d8a26f2	0.067457095
28	0x3db79483	0.08963873
29	0x3d64de06	0.0558758
30	0x3db6816d	0.08911405
31	0xbc62d5e6	-0.013844943
32	0xbc380040	-0.011230528
33	0xbd93e1df	-0.07220816
34	0xbcdeb0c6	-0.027183902
35	0x3ad59335	0.0016294481
36	0xbd47ca89	-0.048777137
37	0xbdbf5878	-0.09343046
38	0x3d983ad1	0.07433093
39	0x3d8ae63c	0.06782195
40	0x3d771002	0.060318
41	0x3d9d746b	0.076882206
42	0xbd6d5e99	-0.057951543
43	0x3ddae609	0.10688407
44	0x3d946785	0.07246307
45	0xbd92ce63	-0.071682714
46	0x3d738bd2	0.059459515
47	0x3cfc3e33	0.030791378
48	0xbd1c8dd9	-0.038221214
49	0x3d5cdf57	0.05392393
50	0x3de68c20	0.112571955
51	0x3d74df33	0.05978317
52	0x3db5e94d	0.08882389
53	0x3c9c8176	0.0191047
54	0x3dbcb4f2	0.092142
55	0xbd904510	-0.070444226
56	0xbd0a3ffd	-0.03375243
57	0x3c58429f	0.013199477
58	0x3cbbe64a	0.022936959
59	0x3c236228	0.009972133
60	0x3d8387c7	0.06422382
61	0xbc8ddcc1	-0.017317178
62	0x3d812bc2	0.06307174
63	0xbd338e78	-0.04383704
64	0xbd100062	-0.035156615
65	0xbd94c11d	-0.07263396
66	0xbcbc65a4	-0.022997685
67	0xbdc29a42	-0.095020786
68	0x3ca14957	0.019688291
69	0xbd22405c	-0.03961216
70	0xbd180f5e	-0.03712403
71	0xbce102b8	-0.027467117
72	0xbd572ee1	-0.05253494
73	0xbd7d2607	-0.061803844
74	0x3a1287ef	0.00055897137
75	0xbc850f81	-0.016242744
76	0xbd11d473	-0.035602998
77	0xbc4186c3	-0.011811915
78	0x3d2709d1	0.040780846
79	0xbd7faf73	-0.06242318
80	0xbd9d21ef	-0.07672488
81	0x3d137f80	0.036010265
82	0x3ceb45f7	0.028719885
83	0xbdbaf69e	-0.0912907
84	0xbc2d6a72	-0.010584461
85	0x3c132878	0.0089818165
86	0xbce30f11	-0.027717145
87	0xbd7150ce	-0.058914952
88	0x3cb3a363	0.021928495
89	0x3daf7650	0.08567488
90	0x3d3ffbd5	0.046871025
91	0xbb0fa276	-0.0021916903
92	0xbd805fea	-0.06268294
93	0x3d999f79	0.0750112
94	0x3d8220b8	0.06353897
95	0x3c9ce032	0.019149873
96	0x3cdc63a9	0.02690299
97	0xbdb5ffa2	-0.08886649
98	0x3d6b8dbb	0.05750821
99	0xbc887295	-0.0166562
100	0x3db009a1	0.085955866
101	0x3c18ddb7	0.009330205
102	0x3ddbbed2	0.107297555
103	0xbd891689	-0.06693751
104	0x3db155c0	0.08658934
105	0xbdcf9740	-0.101362705
106	0x3d7662e5	0.060152907
107	0x3d8317f5	0.06401054
108	0xbc782c0c	-0.01514722
109	0xbdb05cd7	-0.08611458
110	0xbd41288d	-0.047157813
111	0x3d43bbb7	0.04778644
112	0xbd3a21f2	-0.04544253
113	0xbdd0fccf	-0.102044694
114	0xbca46e2c	-0.020072065
115	0xbd90ae81	-0.07064534
116	0x3da4191b	0.08012601
117	0xbc57f8e7	-0.013181902
118	0x3d4be4c8	0.04977873
119	0xbd3df974	-0.046380475
120	0x3dca28b9	0.098710485
121	0x3dd03fea	0.10168441
122	0xbb4f4f16	-0.0031632832
123	0x3d93386a	0.071884945
124	0xbc9ddf15	-0.019271413
125	0xbcdd3a5b	-0.027005365
126	0xbdab51b4	-0.08365193
127	0x3dcb39de	0.09923147
128	0x3d08760b	0.0333157
129	0xbd931872	-0.07182397
130	0xbda02b34	-0.0782074
131	0xbba2b186	-0.00496501
132	0x3d48f735	0.04906388
133	0x3dba602f	0.09100377
134	0x3d91afd5	0.071136154
135	0x3d684113	0.056702685
136	0x3d356def	0.044294294
137	0x3c0fd390	0.008778468
138	0xbda30785	-0.079604186
139	0x3d457237	0.048204627
140	0x3da1d8d3	0.07902684
141	0xbd90b649	-0.07066018
142	0x3d7e8ac9	0.062144075
143	0xbd918d51	-0.07107032
144	0x3b862680	0.004093945
145	0xbd2dfdc9	-0.042478357
146	0xbdb19aa7	-0.08672076
147	0xbc251b3c	-0.010077294
148	0xbdc8c329	-0.09802849
149	0x3d8d8eae	0.069119796
150	0xbd5bdc62	-0.05367697
151	0xbcf7ea7d	-0.03026318
152	0x3d214a51	0.039377514
153	0x3d987a47	0.074451976
154	0x3daa24b6	0.08307783
155	0xbd2e5dd0	-0.042569935
156	0xbd727987	-0.05919793
157	0x3c0bf43c	0.008542117
158	0x3cbae2b2	0.022813175
159	0xbddbfed3	-0.10741963
160	0xbd5cf6b4	-0.053946212
161	0x3c3e3932	0.011610316
162	0xbde1fe01	-0.110347755
163	0xbd235e11	-0.03988463
164	0x3d226987	0.03965142
165	0x3d30e36f	0.043185648
166	0x3d9d955e	0.07694505
167	0x3d1fa53e	0.038975947
168	0xbbae2675	-0.005314643
169	0x3d8eab38	0.06966251
170	0x3daec730	0.08534086
171	0x3cafb5dc	0.021449022
172	0x3c9d799e	0.01922303
173	0x3d9e4fab	0.07730039
174	0xbd97aa40	-0.074055195
175	0x3da81a0c	0.08208093
176	0xbc799d31	-0.015235231
177	0xbd0d7165	-0.03453197
178	0xbd6659a6	-0.05623784
179	0xbdc2789d	-0.094956614
180	0xbdbb2716	-0.091383144
181	0xbca7f15d	-0.020500833
182	0x3ca1c81d	0.019748742
183	0x3d9d0518	0.07666987
184	0x3ba4f7f8	0.005034443
185	0x3da727a8	0.08161861
186	0xbb783baa	-0.003787736
187	0x3de00281	0.109379776
188	0xbdc0a79e	-0.094069704
189	0xbdb98884	-0.090592414
190	0xbd59e7a8	-0.05319944
191	0xbd00c6ca	-0.03143958
192	0xbd34a465	-0.04410209
193	0x3dba2589	0.090891905
194	0xbd585b8b	-0.052821677
195	0xbbb22c04	-0.005437376
196	0x3d8adb21	0.06780077
197	0xbdacc08c	-0.08435163
198	0xbdaf44fa	-0.08558078
199	0x3caea4f3	0.021318888
200	0x3cbe3a5d	0.02322119
201	0x3b416976	0.0029512323
202	0x3da6ccf4	0.081445605
203	0x3d8dd697	0.069256954
204	0x3d83c6d2	0.06434406
205	0x3d045a64	0.032312766
206	0xbdbf986d	-0.09355245
207	0x3d6e7f43	0.058226835
208	0x3d30aebf	0.0431354
209	0x3c8c2b6a	0.017110545
210	0x3d91caa5	0.071187295
211	0x3b030beb	0.0019996117
212	0xbd6ba8f2	-0.057534166
213	0xbdbdcdd6	-0.09267776
214	0xbbd3d87d	-0.0064650164
215	0x3dadcedf	0.08486723
216	0xbc8eb93f	-0.017422317
217	0xbbd63c4b	-0.006537949
218	0xbd08c018	-0.03338632
219	0xbc3e89fa	-0.011629576
220	0xbdd83a8f	-0.10558044
221	0xbd38ea9c	-0.045145616
222	0xbd1e91ce	-0.03871327
223	0xbd65a651	-0.056066815
224	0x3d99db09	0.07512481
225	0xbb8cad0b	-0.0042930893
226	0x3da49689	0.08036525
227	0x3d66a2bf	0.05630755
228	0x3d9294a7	0.071572594
229	0xbda120be	-0.07867573
230	0x3dd6f0b8	0.10495132
231	0x3d54cc5b	0.0519527
232	0x3cee322e	0.029076662
233	0xbd1e3eb6	-0.038634025
234	0xbbc6709c	-0.0060559046
235	0xbd4aa62b	-0.049474876
236	0x3dbaee6a	0.09127505
237	0xbdb5e73f	-0.08881997
238	0x3d96c4ef	0.07361781
239	0x3d893be7	0.067008786
240	0x3d584456	0.052799545
241	0xbc1c582f	-0.009542509
242	0x3d9b33ab	0.07578214
243	0x3c814d97	0.015784068
244	0xbd9c2fd9	-0.07626314
245	0x3dc97052	0.098358765
246	0x3db4f206	0.08835225
247	0x3d10ad73	0.035321664
248	0xbd7e0fdc	-0.062026843
249	0xbd78c5fc	-0.060735688
250	0xbd8eaf7e	-0.06967066
251	0xbd562c81	-0.052288536
252	0x3c84ed22	0.016226355
253	0x3d926623	0.07148387
254	0xbc402122	-0.0117266495
255	0x3cc4fd4e	0.024046566

net.4.module.0.bias f4 [32]
0	0xbd7c1d99	-0.061551664
1	0x3d70b30f	0.058764514
2	0xbbc220ce	-0.005924321
3	0xbdd58437	-0.104256086
4	0x3d856fb8	0.06515449
5	0xbd72ad4a	-0.059247293
6	0xbde4388b	-0.11143597
7	0x3d8c64a6	0.06855135
8	0xbc8a85ed	-0.016909564
9	0xbd0125fa	-0.031530358
10	0xbd9ec097	-0.07751577
11	0x3d4a9ba0	0.04946482
12	0x3cc72485	0.024309406
13	0x3d298285	0.04138424
14	0xbda56fc1	-0.08077956
15	0x3d114086	0.035461925
16	0x3dafbe19	0.0858118
17	0xbd723bb4	-0.05913897
18	0xbc4e543f	-0.012593328
19	0x3de92782	0.11384489
20	0xbda0c930	-0.078508735
21	0xbd122ce7	-0.035687353
22	0x3ccfd236	0.025368791
23	0xb904a631	-0.00012650412
24	0xbd323e7b	-0.043516617
25	0x3cc3290b	0.023823282
26	0xbbee4aae	-0.007272086
27	0xbd4a4472	-0.04938168
28	0xbcb95f5c	-0.022628479
29	0xbdabc2ce	-0.083867654
30	0xbc484ede	-0.012225835
31	0x3cadcc1b	0.02121549

net.5.weight f4 [3, 32, 3]
0	0x3db9ca30	0.09071767
1	0xbdce4f4c	-0.100737184
2	0x3da599ac	0.08085951
3	0xbdc12f6a	-0.09432872
4	0x3d03edab	0.03220908
5	0xbd6c906b	-0.057754915
6	0xbd7f5895	-0.062340338
7	0xbdace3c4	-0.0844188
8	0xbc6eae7d	-0.014567968
9	0x3cf2b649	0.029627936
10	0xbce064b9	-0.027391778
11	0xbd9725d5	-0.07380263
12	0x3d3a42e0	0.045473933
13	0xbc857318	-0.016290233
14	0x3be61a73	0.007022196
15	0x3a7bdc67	0.00096077326
16	0x3c420437	0.011841825
17	0xbdb3bce8	-0.087762654
18	0xbd967d8e	-0.073481664
19	0xbd934843	-0.07191517
20	0x3d09fbc1	0.033687357
21	0xbdafb87e	-0.08580111
22	0x3d0d20f4	0.034455255
23	0x3da41d15	0.080133595
24	0x3d3902a5	0.045168538
25	0x3da7e725	0.08198384
26	0xbdd8f73b	-0.105940305
27	0xbd5f8e3c	-0.054579005
28	0x3da52c6f	0.08065116
29	0xbc9e7094	-0.01934079
30	0xbdb67b46	-0.08910231
31	0x3cfef5dc	0.031123094
32	0xbdb4309d	-0.08798335
33	0xbd202454	-0.039097145
34	0x3d839366	0.064245984
35	0x3d9502e1	0.0727594
36	0xbccb3af3	-0.024808383
37	0xbd40fa81	-0.0471139
38	0x3bcf2e48	0.006322656
39	0x3baef169	0.005338837
40	0xbc72a92b	-0.014810841
41	0xb98a7bc5	-0.00026413627
42	0x3d66c6f0	0.056342065
43	0xbda8bd39	-0.08239216
44	0x3cb8d5e6	0.022562932
45	0xbd974373	-0.07385912
46	0xbd91c8cc	-0.07118377
47	0xbd07ccad	-0.03315418
48	0xbbb95392	-0.0056557143
49	0xbc02cc44	-0.007983271
50	0xbde38997	-0.111102276
51	0x3da578fa	0.08079715
52	0x3db869c1	0.09004546
53	0x3d0f3d56	0.034970604
54	0xbd2e7ab3	-0.042597484
55	0x3da6c9c4	0.081439525
56	0xbd8f39e5	-0.069934644
57	0x3cdb0dd6	0.026739996
58	0x3ba53331	0.005041503
59	0xbd550726	-0.05200877
60	0x3cad0bc5	0.021123776
61	0x3dc1ce5e	0.094631895
62	0x3d8f28c9	0.06990201
63	0x3db7c7a1	0.08973623
64	0x3dbd0975	0.092303194
65	0xbd6357c7	-0.055503633
66	0x3d148738	0.036261767
67	0x3cc36b8b	0.023854991
68	0xbdad699b	-0.08467408
69	0xbd648dc2	-0.055799253
70	0xbb14ca85	-0.002270372
71	0x3d49e012	0.049285956
72	0xbd9d8012	-0.07690443
73	0x3dd9027a	0.105961755
74	0x3d7d1e27	0.061796334
75	0x3da67b0f	0.0812894
76	0xbd90ab71	-0.0706395
77	0x3d746fce	0.059676938
78	0xbcef786e	-0.02923223
79	0xbd52e771	-0.05149025
80	0x3c050efa	0.0081212465
81	0x3da5698e	0.080767736
82	0x3d8d7890	0.06907761
83	0x3cb396ea	0.021922547
84	0xbdb6cbef	-0.08925616
85	0x3da3f72b	0.08006128
86	0xbc332543	-0.010934177
87	0xbd6a641a	-0.05722437
88	0xbd955d88	-0.0729323
89	0x3da535d9	0.08066911
90	0xbd2bc47a	-0.04193542
91	0xbb66585b	-0.0035147879
92	0xbcc70e3d	-0.024298782
93	0x3dac618b	0.08417042
94	0xbd3210d4	-0.04347308
95	0x3d93332c	0.07187495
96	0xbd46d654	-0.048544243
97	0xbc196f88	-0.00936497
98	0x3d09d693	0.0336519
99	0xbda5d8a5	-0.08097962
100	0x3b7b0b18	0.0038306173
101	0x3d98e29b	0.074650966
102	0x3db26962	0.087115064
103	0x3d13e512	0.03610713
104	0x3ae2ec23	0.0017312806
105	0xbd2c3e9f	-0.042051908
106	0xbc694a21	-0.014238865
107	0x3d383ec0	0.044981718
108	0xbcab5c97	-0.020918174
109	0xbce54b22	-0.027989928
110	0x3d80bb17	0.062856846
111	0x3d0b3c96	0.033993326
112	0xbda2a111	-0.07940877
113	0x3d5afc7c	0.053463444
114	0xbd10c979	-0.03534839
115	0xbc22aa72	-0.009928333
116	0x3c768650	0.015046671
117	0xbcd35911	-0.025799306
118	0x3c9bf56d	0.019037927
119	0xbc05f60a	-0.008176336
120	0xbd76866a	-0.06018678
121	0x3d9c3df8	0.07629007
122	0x3daaf4fd	0.08347509
123	0xbd9296e4	-0.07157686
124	0xbd27aa2c	-0.040933773
125	0x3d9725dd	0.07380269
126	0xbb42cbfa	-0.002972363
127	0xb9ff010f	-0.0004863818
128	0x3d25222c	0.040315792
129	0x3db44191	0.08801568
130	0xbdb442a3	-0.088017724
131	0xbd8fd5cb	-0.070232
132	0x3d372cac	0.044720337
133	0x3dc37004	0.0954285
134	0xbd6e93a6	-0.058246277
135	0xbd79e009	-0.061004672
136	0x3c45f0cf	0.012081339
137	0xbcf4ac20	-0.029867232
138	0xbd6a13b6	-0.057147704
139	0x3d744bfc	0.059642777
140	0xbc763011	-0.015026108
141	0x3d966e75	0.07345287
142	0x3c97e346	0.01854099
143	0x3bf5453e	0.007485061
144	0x3bbfdb44	0.005854996
145	0xbdad4bd3	-0.08461728
146	0x3c2eab56	0.010660967
147	0xbc042722	-0.008065971
148	0x3dc80a9b	0.09767648
149	0x3d9189ca	0.07106359
150	0xbd4d2a3f	-0.050089117
151	0x3dd0eaf9	0.102010675
152	0x3d7db339	0.0619385
153	0xbd8753be	-0.066077694
154	0x3d9caa25	0.0764964
155	0xbdbaece7	-0.09127217
156	0xbd69ec65	-0.05711021
157	0x3d5c8b6c	0.0538439
158	0xbb07de60	-0.002073191
159	0x3da1c52b	0.07898935
160	0x3bdde592	0.0067717517
161	0xbd1a9040	-0.037735224
162	0x3d93ffaa	0.072264984
163	0xbd9c18a7	-0.076218896
164	0xbc2a9cbd	-0.010413346
165	0x3dc18a69	0.09450228
166	0xbcee80be	-0.029114123
167	0xbcfd8ef5	-0.030951956
168	0xbc959f10	-0.018264323
169	0xbd3b5a7e	-0.045740597
170	0x3d49c6ce	0.04926186
171	0xbcb87d69	-0.022520738
172	0x3d6ccaa4	0.05781044
173	0x3d6b2bb0	0.05741471
174	0xbcf5c16e	-0.029999461
175	0xbd91b8a7	-0.07115298
176	0x3d87721b	0.06613561
177	0x3d591232	0.052995868
178	0x3bbb4a4f	0.0057156454
179	0x3d5e26e2	0.0542363
180	0xbd60ac30	-0.05485171
181	0x3cf25fbd	0.029586667
182	0x3c19c94b	0.009386371
183	0xbd62f74b	-0.05541162
184	0xbda072a9	-0.0783437
185	0x3c007ba2	0.007841976
186	0xbdb76b1e	-0.08955978
187	0xbb7afba3	-0.003829696
188	0x3cd4d114	0.025978602
189	0x3d83b3b4	0.0643076
190	0x3d3f11ee	0.04664796
191	0xbd6034e3	-0.054737937
192	0xbc8861c9	-0.01664819
193	0x3d2e9865	0.042625804
194	0xbdbc7bcf	-0.09203302
195	0x3c8b2293	0.01698426
196	0xbcb4199a	-0.021984864
197	0xbc6c6110	-0.014427438
198	0x3b3ed068	0.002911592
199	0xbc27ebb9	-0.010249072
200	0xbd3ba880	-0.04581499
201	0x3d5bf322	0.053698666
202	0xbda1be98	-0.07897681
203	0xbd9e5b21	-0.07732225
204	0x3d9078b8	0.07054275
205	0x3d2d713b	0.042344313
206	0x3d31e61a	0.043432333
207	0xbdaf972f	-0.08573758
208	0xbd354859	-0.04425845
209	0x3c1e3be8	0.009657837
210	0x3c94777c	0.01812338
211	0xbd927f61	-0.07153202
212	0xbdc6a539	-0.096994825
213	0xbdd72bb8	-0.105063856
214	0x3d1ae5b8	0.037816733
215	0xbd5bb7ac	-0.05364196
216	0x3c79a821	0.015237839
217	0xbd96ae22	-0.07357432
218	0xbe08a9da	-0.13346043
219	0x3b30ce34	0.0026978375
220	0x3d5920e7	0.053009894
221	0x3d0ff0e4	0.03514184
222	0xbd05f1e0	-0.032701373
223	0x3cd3cde0	0.025855005
224	0x3dd199a5	0.102343835
225	0x3cb9048c	0.022585176
226	0xbd884b7e	-0.06655024
227	0x3d813854	0.06309572
228	0x3d056b7a	0.0325732
229	0x3d4bc546	0.04974868
230	0xbdb24378	-0.08704275
231	0xbbd100d6	-0.0063782735
232	0xbd111bc2	-0.035426863
233	0x3dc16092	0.094422475
234	0xbc993e20	-0.018706381
235	0x3d1574d5	0.036488373
236	0x3cd533b6	0.026025634
237	0x3d496906	0.049172424
238	0xbda63793	-0.08116069
239	0x3d788284	0.060671344
240	0x3d973eae	0.07385002
241	0x3c5e83f8	0.0135812685
242	0xbda068e9	-0.0783251
243	0x3dbec45b	0.093147956
244	0xbd5042e5	-0.050845046
245	0xbce8975f	-0.028392492
246	0x3bb4cabb	0.0055173314
247	0x3dd6f546	0.10496001
248	0x3d1a5de8	0.037687212
249	0x3d272c26	0.040813588
250	0x3db1c336	0.08679812
251	0x3d627ce9	0.055294905
252	0x3d33c8eb	0.043892782
253	0x3d7ccc08	0.061718017
254	0xbd989989	-0.074511595
255	0xbcd0929f	-0.02546054

net.5.bias f4 [3]
0	0xbda65e64	-0.08123472
1	0xbd56460c	-0.052312896
2	0x3cd06451	0.02543846

exp_avg f4 [32, 21, 2]
0	0xb928898b	-0.00016072967
1	0x38804009	6.115443e-05
2	0xbb47da83	-0.0030495233
3	0x38ce8b10	9.848748e-05
4	0xb9bd928d	-0.00036158078
5	0xb773c0c8	-1.4528814e-05
6	0x37878574	1.6155398e-05
7	0x37cd02e8	2.4439258e-05
8	0xb8c8392c	-9.547392e-05
9	0x39688cd0	0.00022177701
10	0xb8098968	-3.2791315e-05
11	0x38dc6d8c	0.00010510822
12	0x3aa5eaec	0.0012658513
13	0xb991dc74	-0.00027820806
14	0xb9787a3e	-0.00023696662
15	0x3a1a1992	0.0005878444
16	0xbaab0e87	-0.0013050594
17	0xb911c03a	-0.00013899888
18	0x396ed4a7	0.00022776668
19	0xb8d0f97c	-9.964683e-05
20	0x3998809a	0.00029087515
21	0x3908eac0	0.00013057422
22	0x38e7925f	0.00011042202
23	0xb8661efb	-5.4865126e-05
24	0xb9982c55	-0.0002902473
25	0xb88d9504	-6.75116e-05
26	0xba76f579	-0.00094207335
27	0xbb762c42	-0.0037563
28	0x39604454	0.00021387759
29	0xb87f86a6	-6.092214e-05
30	0xbae5f397	-0.0017543909
31	0x39f19bdf	0.00046083235
32	0x393a05dd	0.00017740527
33	0xbab64075	-0.0013904708
34	0x38f04ff8	0.00011458987
35	0x3937f372	0.0001754293
36	0x39dcd188	0.00042117783
37	0x3896f576	7.198278e-05
38	0x38a3f81a	7.818658e-05
39	0x38a1072a	7.678413e-05
40	0x3a8f4c62	0.0010932798
41	0xb96460c4	-0.00021779822
42	0xb8bc43c8	-8.977164e-05
43	0xb7de5864	-2.6505622e-05
44	0x3a8baada	0.0010655776
45	0x39d9d148	0.00041545392
46	0x3984510f	0.00025237395
47	0x39daa9da	0.0004170675
48	0xb84b3c84	-4.845533e-05
49	0xb8007848	-3.06296e-05
50	0xb987ab9b	-0.00025877063
51	0xb895d53c	-7.144592e-05
52	0xb9ad1d8d	-0.00033019148
53	0xb998fd8c	-0.00029180606
54	0xba8591a5	-0.00101905
55	0x3950909c	0.00019890297
56	0xb99746ba	-0.0002885366
57	0x39d8872a	0.00041299436
58	0x39c5140c	0.00037589704
59	0xb8e5e76c	-0.000109626766
60	0x390b5c6c	0.00013290503
61	0xb6bba90b	-5.5927135e-06
62	0x3958fa76	0.00020692669
63	0x39a59a25	0.000315861
64	0xb9bd48d9	-0.00036103165
65	0x39090d7a	0.00013070359
66	0x3942b08e	0.00018567053
67	0x38cf25ef	9.877595e-05
68	0xba109af1	-0.0005516252
69	0xba74b6fa	-0.0009335127
70	0x396a6a6d	0.00022355626
71	0xb97fb2d9	-0.00024385321
72	0xb8c259b4	-9.2673494e-05
73	0xb999859e	-0.00029281987
74	0x38ce1a9a	9.8278004e-05
75	0x3a808e6f	0.0009808074
76	0x38dafb2e	0.00010441836
77	0x38407e24	4.5893845e-05
78	0x3a545aa0	0.00081006624
79	0xb8e0211b	-0.00010687319
80	0xb9925bc8	-0.00027915672
81	0xb741cd28	-1.1551463e-05
82	0xba909120	-0.0011029579
83	0x3a3b8468	0.0007153214
84	0x390c5532	0.00013383178
85	0xb9499996	-0.00019226069
86	0x39e16623	0.00042991442
87	0x3b6cc8fe	0.0036130543
88	0xb80a9d2b	-3.3048138e-05
89	0xb74b921c	-1.2133762e-05
90	0xb7027f1a	-7.778197e-06
91	0x384c9ffc	4.8786387e-05
92	0x37746cc6	1.4568859e-05
93	0xb8986388	-7.266464e-05
94	0x3a216905	0.0006157312
95	0x39b01794	0.00033586903
96	0x37a98ff4	2.0213403e-05
97	0x39d8063e	0.0004120338
98	0x36506ac0	3.1056552e-06
99	0x387ae732	5.9819962e-05
100	0x39787524	0.00023694761
101	0x393ddc54	0.00018106523
102	0x3962ca4d	0.00021628402
103	0xb8bb807a	-8.9407855e-05
104	0x38a39887	7.800856e-05
105	0xb7674b36	-1.3786184e-05
106	0x39af534d	0.00033440665
107	0x38c32e8a	9.306993e-05
108	0x3903c6e7	0.0001256723
109	0x38864fbf	6.404472e-05
110	0x37ec316f	2.8156412e-05
111	0x3801490e	3.0824034e-05
112	0xb7bc9a27	-2.248313e-05
113	0xb8d1abb5	-9.9978795e-05
114	0x3a19fde0	0.0005874317
115	0x398dd3e1	0.00027051478
116	0x39da01b2	0.00041581463
117	0x37bcf9c0	2.2527645e-05
118	0xb95b8c61	-0.00020937763
119	0xb8f24984	-0.000115531526
120	0xb844ac22	-4.6890353e-05
121	0x399831af	0.00029028716
122	0x3996071e	0.00028615532
123	0x3958dce0	0.00020681648
124	0x3a16342c	0.000572982
125	0x3aa7e697	0.001280981
126	0x37e964c8	2.7822694e-05
127	0xb91c73a8	-0.00014920405
128	0xba64c13e	-0.0008726305
129	0x3972eda2	0.00023167444
130	0x388ae350	6.622693e-05
131	0x39020d9c	0.00012402836
132	0x38438fe8	4.6625646e-05
133	0xb77ec706	-1.51859185e-05
134	0x371384c6	8.7927965e-06
135	0x389fc5b5	7.6185366e-05
136	0x392946b8	0.00016143441
137	0xb97fa8b2	-0.00024381539
138	0xba0be728	-0.0005336874
139	0xb92483a0	-0.00015689293
140	0x388b4a9a	6.641932e-05
141	0x37c64bc9	2.363873e-05
142	0x39d1d7ff	0.00040024516
143	0xba140441	-0.0005646386
144	0xb92bb062	-0.00016373539
145	0x38064d3f	3.202003e-05
146	0x38a13364	7.6866505e-05
147	0x3948a863	0.00019136215
148	0xb994b789	-0.00028365504
149	0xba00d392	-0.0004914339
150	0x38981f2a	7.2537296e-05
151	0xb912178a	-0.00013932414
152	0x391141aa	0.0001385274
153	0xb8c758f0	-9.505625e-05
154	0xba33d01a	-0.00068593177
155	0xb823fb0a	-3.9096027e-05
156	0xb98df156	-0.00027073425
157	0xb88846d0	-6.498175e-05
158	0xb89c0c0b	-7.440903e-05
159	0xb82206d0	-3.8630154e-05
160	0xb990e952	-0.00027639657
161	0x38cbd9be	9.720352e-05
162	0xb906feba	-0.00012874129
163	0x3733b9c0	1.071248e-05
164	0x39888161	0.00026036336
165	0xb930b94a	-0.00016853694
166	0xb90303d0	-0.00012494554
167	0x39535664	0.00020154711
168	0x39080cf2	0.00012974793
169	0x3a31bf28	0.00067804987
170	0xb9d00431	-0.00039675974
171	0xba92b7d8	-0.0011193706
172	0x390ca01d	0.00013411087
173	0x3947f450	0.00019069132
174	0x3784361d	1.5760825e-05
175	0xb90ab887	-0.00013229447
176	0xb9a8d0d2	-0.0003219904
177	0x37ceaece	2.4638513e-05
178	0x39323134	0.00016993732
179	0xb9b83ac7	-0.00035139007
180	0xba2419a9	-0.0006259927
181	0x3922937f	0.0001550447
182	0xba24820f	-0.0006275484
183	0xba000d56	-0.00048848
184	0x3a2eb5ee	0.0006664683
185	0xb83293d0	-4.257617e-05
186	0xb942d28a	-0.00018579714
187	0x39d66877	0.00040895093
188	0x35070e80	5.031252e-07
189	0xb8f36f9e	-0.00011607933
190	0x391584ac	0.00014259171
191	0xb99c2d28	-0.00029788283
192	0x33d7c800	1.00480975e-07
193	0xb9ae3f58	-0.0003323506
194	0xbba525ac	-0.005039891
195	0xb9945a88	-0.0002829621
196	0x388c2d5a	6.6841676e-05
197	0x3989760b	0.00026218625
198	0xba661006	-0.00087761914
199	0xbbb70d46	-0.005586299
200	0xb99391fb	-0.0002814679
201	0xbb071035	-0.0020609025
202	0xb9d6e24d	-0.00040985868
203	0xba47a0d6	-0.0007615214
204	0xba41d1f0	-0.0007393649
205	0x398a38e4	0.00026363798
206	0x3803bc38	3.1408126e-05
207	0x3848cdd8	4.7875423e-05
208	0xb9f2fd01	-0.0004634634
209	0xba0cd02d	-0.0005371597
210	0x381c87a2	3.7319616e-05
211	0xb8a21e40	-7.7303965e-05
212	0x39e71f3c	0.00044083025
213	0x385c7b86	5.2567128e-05
214	0xb797080d	-1.8004352e-05
215	0xb8b984eb	-8.846245e-05
216	0x39177447	0.00014443799
217	0xb6c72107	-5.934507e-06
218	0x38b0b223	8.4255145e-05
219	0x39a63780	0.00031703338
220	0xb8d30bfe	-0.00010063498
221	0x3a8d8c4a	0.0010799256
222	0x396bdee6	0.00022494383
223	0x38bc1c2d	8.969787e-05
224	0xb875dc7a	-5.8617887e-05
225	0x3a7ec527	0.0009718709
226	0x38838840	6.271945e-05
227	0xba28f049	-0.00064444967
228	0x38d0bb06	9.953049e-05
229	0x393b5422	0.00017865052
230	0xb92510c5	-0.00015741873
231	0xb8ac6942	-8.221205e-05
232	0x3904883e	0.00012639255
233	0x38f8406c	0.00011837561
234	0xb92027d3	-0.00015273625
235	0xb81d5082	-3.7506696e-05
236	0xb9444a55	-0.00018719707
237	0x3801ea56	3.097424e-05
238	0xb831de1c	-4.2406944e-05
239	0x38a0ee61	7.673796e-05
240	0x3966725c	0.00021977111
241	0x3a27b816	0.00063979754
242	0xb9a9f91a	-0.00032419787
243	0xba3bab52	-0.00071590126
244	0x39e29458	0.00043216604
245	0xb9631af2	-0.00021658445
246	0xb8ba0394	-8.8698376e-05
247	0x3999f504	0.00029364985
248	0xb8db5f1c	-0.00010460449
249	0x38269f0a	3.97256e-05
250	0x3a31a841	0.0006777086
251	0x39ceea3a	0.00039465894
252	0x37c48c98	2.343049e-05
253	0x398c9c1a	0.00026819186
254	0x3ae34af8	0.0017341068
255	0xba40e47c	-0.00073582656
