cebra_models/reach1_4/01/A/cebra_SucessFailure_shuffled_model_1000_32_A_02.pt (torch, 207331 bytes, 31 tensors)

net.0.weight f4 [32, 12, 2]
000000 83 f7 3e 3e a5 aa c0 3d d4 74 8a 3d dc f7 ce 3d
       0.18649106 0.09407548 0.067605644 0.10105869
000010 b6 a3 8a 3c 6c 29 15 3e 61 ef 5f 3d 6f 0c 28 be
       0.016923767 0.14566582 0.05467165 -0.16410993
000020 6c 36 12 3e 31 19 e3 bd a0 5a 4f bd ad 33 07 be
       0.14278573 -0.11088789 -0.050623536 -0.13203306
000030 b9 fb 34 be 4d a8 89 bd ba 0b cd bd 48 e4 0d be
       -0.1767415 -0.06721554 -0.10012002 -0.13856614
000040 93 93 9a 3d 58 e4 7c be 04 0b 2c bd 64 54 aa 3c
       0.07547679 -0.24696481 -0.042002693 0.020792194
000050 6e 25 cb bd 81 1a d7 bd f8 40 37 3e 7e ad 4c 3e
       -0.099192485 -0.10503102 0.17895877 0.19988057
000060 ac 4f c4 3d c0 b0 a2 3d 10 1b a1 3d 3d 78 64 3e
       0.09585509 0.07943869 0.0786649 0.22311492
000070 e5 92 f4 3d 0e 48 70 be 76 58 2a 3e 53 23 c5 bd
       0.119420804 -0.23464987 0.16635308 -0.09625878
000080 60 33 2d be a7 5e cd bd 1c 56 e5 3d 31 86 32 3e
       -0.1691413 -0.10027819 0.11198065 0.17434002
000090 81 ad 01 3e c7 ed 5d be 46 32 22 be 0e 52 d8 bd
       0.12663843 -0.21672736 -0.1583949 -0.10562526
0000a0 7a a5 05 bc 85 ef e0 bd 23 c8 e6 3b 8b 5e 2b be
       -0.0081571285 -0.10983185 0.007042901 -0.16735284
0000b0 1c 0a f1 3c cb be 2a be 38 04 08 bd d7 38 35 3e
       0.029423766 -0.16674344 -0.03320715 0.17697464
0000c0 01 9f 45 bc 21 fc 87 3d a8 e2 13 be 60 96 9a bc
       -0.012061835 0.06639887 -0.14441931 -0.018870533
0000d0 fd e3 ff 3d 42 0a d9 3c a4 90 67 bc 52 ab 20 3d
       0.12494657 0.02649415 -0.014133606 0.039225884
0000e0 7d 1b 46 3e f5 5b 29 be 9c 6e 4a 3e 08 d5 14 3e
       0.19346423 -0.16538985 0.19768757 0.1453439
0000f0 b5 13 4e bd d0 12 54 3d 89 86 1b be 06 40 3e be
       -0.050311763 0.051775753 -0.1518804 -0.1857911
000100 94 ad 31 be d2 fd f1 3c 71 71 30 3e 1c b7 7f 3d
       -0.17351371 0.029539976 0.17230774 0.062430486
000110 c5 40 49 be f5 ce ac bc 46 9c 2d be 69 14 00 3e
       -0.19653614 -0.021094779 -0.16954145 0.12507786
000120 08 d4 67 be 09 69 1e be 70 42 13 be 8d c4 7e 3c
       -0.22639477 -0.15469755 -0.14380813 0.015549791
000130 d4 9a 3d 3e 5c 11 0c 3e b3 4f 53 be 4f 64 df bd
       0.18516093 0.13678497 -0.20635872 -0.10907804
000140 fa bd 50 be c4 37 c5 3c ca 01 d8 3d 1a ce 05 be
       -0.2038497 0.024074443 0.10547216 -0.13066903
000150 77 8e 66 3e fe 5a 4d be a2 68 1b be 48 41 06 be
       0.22515284 -0.20054242 -0.15176633 -0.1311084
000160 3e fb 0e bd bf 68 cb 3c 9a c7 86 3d fd 7d a0 3d
       -0.034907572 0.02483022 0.0658104 0.0783653
000170 29 9e 0b 3e 1f 3c 1d 3e 39 f2 f0 3d 61 f2 cf 3d
       0.13634552 0.15354966 0.1176495 0.10153652
000180 2d 6c e4 3c d4 24 06 be 8b 5a 42 3e df 45 b4 3d
       0.027883613 -0.13099986 0.18979852 0.08802389
000190 6d b9 5d be f6 eb 12 3d b0 06 6e 3c 54 84 30 be
       -0.21652766 0.03586956 0.014527962 -0.17237979
0001a0 8c 88 52 3d aa eb 28 3c 0f 29 10 be b7 53 5c be
       0.051399752 0.010310093 -0.14078163 -0.2151631
0001b0 64 4d b1 3d bd f7 fb 3b b4 db ce 3d bc a3 4c 3e
       0.08657339 0.007689445 0.10100499 0.19984335
0001c0 5d c9 4e 3e d0 60 d1 bd 2e ff 3c 3d ea bc 42 bd
       0.20194001 -0.10223544 0.046141796 -0.047543444
0001d0 b3 0e 30 3d da 8f 0d 3c d0 ec 2c 3e de 96 43 be
       0.04298277 0.008640254 0.16887212 -0.1910052
0001e0 a7 37 3a be 30 c8 f3 3d c5 5e 59 3e fc 69 f4 bd
       -0.18185292 0.11903417 0.21227558 -0.119342774
0001f0 ca 95 76 bd ae 71 c3 3c 0e 12 1b 3e b4 e2 fc bd
       -0.060201444 0.023857918 0.15143606 -0.12347928
000200 92 5b 92 bd 95 72 0b 3e 00 d4 0f bc dd 0c da bc
       -0.07146372 0.13617928 -0.008778572 -0.026617462
000210 c9 33 25 3e 96 68 35 3d 57 5f fd bd c9 3f 87 bc
       0.16133036 0.044289194 -0.123717 -0.016509907
000220 0d 03 03 be fd ac 10 3e b6 8b ff bd 37 81 6e bd
       -0.12794133 0.1412849 -0.124778196 -0.058228698
000230 9b 7e d9 3d 34 a9 5d 3e 9b 49 50 3e 4e 78 41 3e
       0.10619851 0.21646577 0.20340578 0.18893549
000240 02 aa e8 3d 4c b8 3e be cb a5 ba 3d 85 ff 0d be
       0.113605514 -0.18624991 0.09113654 -0.13867004
000250 7b cb 59 3e 1b 93 14 3d 93 c1 1c 3d d0 4a 1d 3e
       0.21269028 0.036273103 0.038270544 0.1536057
000260 3e 89 03 3e a9 07 6f bd 42 7b 8a bd 9b d7 f0 3d
       0.12845322 -0.058356915 -0.06761791 0.117598735
000270 48 03 b4 bd 71 f5 e3 bb c8 19 71 3e d4 b9 e1 bc
       -0.08789688 -0.006956749 0.23544991 -0.02755443
000280 e6 a4 7b bd 70 3f ea bb e1 50 4d 3e dd 3d 08 be
       -0.061436556 -0.0071486756 0.20050384 -0.13304849
000290 64 08 41 3d f1 c5 a4 3c 75 3a 43 be 1b af aa 3d
       0.047127143 0.020113917 -0.19065268 0.0833418
0002a0 2c 65 81 bd c4 f4 bb 3d 6f 9f 0e 3e cf c7 52 be
       -0.06318125 0.09177545 0.13928007 -0.20584033
0002b0 c6 13 13 3e 13 bc 94 3d fc 8c d2 bd a9 4a 5b be
       0.14363012 0.07262435 -0.10280797 -0.214152
0002c0 e7 6a 4f 3d c4 7c c9 bd dc 24 09 3e e9 2f 74 3d
       0.05063906 -0.0983825 0.13392967 0.059616003
0002d0 ce 0a 16 3e e9 71 02 be af 28 e0 bd 5c 1c 5c be
       0.14652559 -0.12738766 -0.1094526 -0.21495193
0002e0 e4 ba 6c 3c d5 f9 31 be a6 50 9e bd 86 a6 9a bd
       0.014448855 -0.1738046 -0.07730226 -0.07551293
0002f0 b0 b0 a5 3d b8 a9 31 be 8a 33 01 3e 25 1e d8 3d
       0.08090341 -0.17349899 0.12617317 0.105526246
000300 67 46 3c 3e 7a aa f8 bd 61 59 67 be cc 2e 52 be
       0.18386231 -0.12141891 -0.22592689 -0.20525664
000310 c1 f1 08 be db 7e 5c be 73 e0 be 3b 9f 97 3b be
       -0.13373472 -0.21532767 0.0058250963 -0.18319558
000320 68 62 ab 3d e6 12 78 3d 6a ef 58 be 09 28 8c 3d
       0.08368379 0.060564898 -0.21185079 0.068435736
000330 15 ee f2 3b ba 18 8c bd 47 f9 51 bd 33 e3 5a 3e
       0.0074136355 -0.06840654 -0.05126312 0.21375732
000340 b1 f7 f1 bd 04 95 2b 3e a3 00 0e ba 83 c8 c9 3d
       -0.118148215 0.16756064 -0.0005416965 0.09852698
000350 22 9c 5b 3e f1 22 e1 3d ad e5 41 3e 4e e9 8a 3d
       0.21446279 0.10992993 0.1893527 0.067827806
000360 b6 31 f4 3d de 0e 89 bc 32 ef 35 3e 91 69 aa bd
       0.11923544 -0.016730722 0.17767027 -0.083209164
000370 b2 eb 26 3e 75 e0 56 3d e9 fe 13 3e 2e de 2a 3d
       0.16300848 0.052460153 0.1445271 0.041715793
000380 66 07 93 bc da 12 6f 3e b8 d0 b8 bc 26 fd 10 3e
       -0.017947864 0.23347035 -0.022560462 0.14159068
000390 db a3 e1 3d f2 92 4d 3e 2e 0c 06 be c4 2c 43 be
       0.11017581 0.20075586 -0.13090584 -0.19060045
0003a0 a4 33 2f bd 81 65 6e bb 67 0a 18 be 34 92 b7 bd
       -0.042773858 -0.003637642 -0.14847718 -0.08963433
0003b0 c8 20 e3 bd 6a 3c 12 bd e8 33 00 be b1 4a 45 3e
       -0.11090237 -0.035702147 -0.125198 0.19266774
0003c0 61 ab c1 3c 7a 97 f3 3a fe 52 72 bd ab a6 e9 bb
       0.02364129 0.0018584572 -0.05916118 -0.007130464
0003d0 71 08 63 bd f7 91 01 3e 91 d5 a6 3d df 32 da 3d
       -0.055427972 0.12653337 0.08146203 0.10654234
0003e0 a2 af 8d 3d 3f 04 5c 3b 14 b8 e0 bb a9 73 88 3d
       0.06918265 0.0033571867 -0.0068578813 0.066626854
0003f0 64 8b 90 3d 80 45 9e 3d f2 d0 e3 3d 3c 61 0e ba
       0.07057837 0.077281 0.111238375 -0.0005431359

net.0.bias f4 [32]
000000 01 2b 1e 3e 95 68 00 3d 39 14 18 3e 35 a4 11 3e
       0.15446092 0.031349737 0.14851464 0.14222796
000010 fa b4 f2 bd e6 af 06 3e c2 b1 42 3e be da 15 be
       -0.11850925 0.13153037 0.19013122 -0.14634225
000020 7d 4b f0 3c e6 3e e3 bd 23 83 69 3d 57 5c e7 3d
       0.02933287 -0.11095981 0.057009827 0.11296909
000030 22 01 14 3e 7d 8c 76 bd cb 6c 3f 3e 9b a9 ef 3d
       0.14453557 -0.060192574 0.18693845 0.117022716
000040 6a be 08 3e f8 23 0e be f7 12 91 3c 86 79 42 3e
       0.13353887 -0.13880908 0.017709238 0.1899167
000050 62 54 3a 3e 5b 0d a7 bc e5 53 e4 3c dd 8b e1 bc
       0.18196252 -0.02039211 0.027872035 -0.027532512
000060 cb 6a ac bc 1b f3 24 bd 0e 7e 35 3e 66 60 95 bd
       -0.021047017 -0.040270906 0.17723867 -0.07293777
000070 41 b5 94 bd 67 9e 31 3d c6 65 20 bd a4 2b 0a 3e
       -0.07261134 0.043363955 -0.03915956 0.1349321

net.2.module.0.weight f4 [32, 32, 3]
000000 2a b1 90 bc b9 4a 6c bd 9a 5d 8b 3d 70 6b ce bd
       -0.017662603 -0.05768845 0.068049625 -0.10079086
000010 fb ca 24 bc 21 8a a4 bd c1 0c e3 3c e6 dd 13 bb
       -0.01005816 -0.080341585 0.027716042 -0.0022562682
000020 b1 22 11 3d 51 b8 81 3c f7 67 d4 bd 4b f6 0f 3c
       0.035433475 0.01583496 -0.10371392 0.008786748
000030 a2 41 4f 3d b5 43 1f bd 2a c4 08 bd 78 a7 c8 bd
       0.0505997 -0.03888293 -0.0333902 -0.09797567
000040 ac b5 94 bd 05 29 d4 3d dd fb 1b 3c 83 28 2f bd
       -0.07261214 0.10359386 0.009520498 -0.042763244
000050 58 ae eb bc 9c 15 a5 bc ff 6c df bc 48 84 13 3d
       -0.028769657 -0.020151906 -0.027273653 0.036014825
000060 a7 0b 84 bc bc 19 44 bd e7 2d fb 3d d7 71 9d 3c
       -0.016118838 -0.047876105 0.122646146 0.019219322
000070 20 ab 03 3d 4a 6f eb 3d d7 05 83 bd b7 b0 97 3d
       0.03214562 0.11495836 -0.06397598 0.074067526
000080 41 d4 c0 3d d9 fe 6b bd 81 52 1d bc 1a a6 5f bd
       0.09415484 -0.05761609 -0.00960219 -0.054601766
000090 e6 98 d4 bd ff 3d 43 3d a2 35 77 3d 8b 8f c3 bd
       -0.103807256 0.047666546 0.060353883 -0.09548863
0000a0 b4 e1 c0 3c f3 93 c7 3d f6 9c 6c bd 7d e8 9d 3d
       0.023545124 0.09745016 -0.057766877 0.07710359
0000b0 df 50 eb 3c a8 b1 58 bd 40 c9 80 3d 87 52 be 3c
       0.028725086 -0.0529038 0.062883854 0.023232711
0000c0 14 9e 81 bd 80 4b a3 bd b2 fd c8 3d cc 62 c5 bd
       -0.06328979 -0.07973385 0.098140135 -0.09637985
0000d0 f3 69 00 3d 91 29 62 ba f4 e8 fc bc 25 d4 90 bc
       0.03135104 -0.00086274097 -0.0308728 -0.017679283
0000e0 0f 73 9f bd 52 ac 71 3d 43 46 c1 bc b6 f0 a9 bd
       -0.077856176 0.059002228 -0.023593074 -0.08297865
0000f0 54 71 b4 bd 1c 7e 2f 3d 86 52 3f 3d 39 73 9e bd
       -0.08810678 0.042844877 0.04670956 -0.07736821
000100 92 9e 9d 3d c2 ed 5c 3d 92 1c 62 3c fa 93 d0 3c
       0.076962605 0.05393768 0.013800757 0.025461186
000110 85 62 05 3e 05 d7 52 bc 5b 51 d8 bd f2 ee e9 3d
       0.13025863 -0.012868647 -0.10562392 0.11422528
000120 c3 c1 f6 3c 70 6f 86 bc 46 b4 a3 bc f9 e0 40 bc
       0.03012169 -0.01641056 -0.019983422 -0.011772388
000130 6f 6d ef bb b8 43 c9 bc d4 03 f5 bd a1 70 2e 3d
       -0.0073067467 -0.024568424 -0.11963621 0.04258788
000140 f3 66 38 3d 3a 18 87 3d 56 1f 0d bc 8d 13 90 3d
       0.045020055 0.06596418 -0.008613428 0.07034979
000150 11 8d 75 bd b7 8d 09 bd 96 e3 f9 3c 00 7e 04 bd
       -0.059948985 -0.033582415 0.03050403 -0.032346725
000160 ed db 9c bc e4 fe 89 3c 0b 57 3e 3d 3b f9 9c bd
       -0.019147838 0.016845174 0.04646973 -0.076647244
000170 7b b4 cc 3c 21 d6 48 3d 95 17 14 3d 9d 21 80 bb
       0.024988404 0.049032334 0.036155302 -0.003910257
000180 55 66 ed bb ed 59 c0 3b be ef 55 bd 0f db 20 bd
       -0.007244865 0.005870095 -0.05223059 -0.03927141
000190 f8 eb ee bb c0 ac 3c 3d ad 22 5b 3d 4d c6 9c 3d
       -0.0072913133 0.046063185 0.053499866 0.0765501
0001a0 8f 37 a2 3c 8c a0 5a bd b2 ab 01 3d 1c 0b 41 3c
       0.019801883 -0.053375766 0.031657882 0.011782434
0001b0 35 aa 38 3d 99 f5 46 bd 01 23 95 bd 82 16 90 bd
       0.045084197 -0.048574064 -0.07282067 -0.07035543
0001c0 a2 de a8 bd b5 7e cf bd 65 ac 9b bd 80 3a 07 3d
       -0.08245589 -0.10131589 -0.07601241 0.033014774
0001d0 49 30 8a bd 09 ed 20 3d f0 39 9b 3d 93 c5 1d 3d
       -0.06747491 0.039288554 0.0757941 0.0385185
0001e0 cb 19 67 bd a1 f7 21 3d a1 22 d3 bc e9 d4 6d 3d
       -0.056421082 0.039542798 -0.025773348 0.058064375
0001f0 8b d1 14 bd da f7 93 bc b0 8f 72 3d 24 90 e1 bd
       -0.03633265 -0.01806252 0.059219062 -0.11013821
000200 50 9b 1a b8 71 7f b9 3d 17 3d a9 bd da 68 b7 bd
       -3.6861107e-05 0.09057511 -0.08263605 -0.08955546
000210 4a a2 9c bd 67 0a 44 3b 43 3b 89 bd d9 72 2f 3d
       -0.07648142 0.0029913427 -0.067007564 0.042834137
000220 b5 a9 25 3c 02 ac 13 3c 92 0a c0 bd a0 6b 8b 3d
       0.010111262 0.009013178 -0.09377016 0.06807637
000230 12 3f a7 3c 3f 80 b3 3a f0 93 d4 bc 7b 15 ae bd
       0.020415816 0.0013694837 -0.025949448 -0.08500191
000240 5a 66 8d bd 3e 2f 83 bc 8b 1c a5 bc d3 9b d8 3b
       -0.06904288 -0.016013738 -0.020155212 0.0066103726
000250 5d f8 2a 3c 30 7c 08 bd ed 18 2d 3d db 15 95 bb
       0.010435191 -0.03332156 0.0422601 -0.0045497245
000260 9f 62 87 bd c8 3d 5a bc ce 63 0a 3d d8 42 94 bd
       -0.06610607 -0.013320394 0.033786587 -0.07239312
000270 8a 40 c6 bc 0b fb 85 3d 4b 12 b6 3b 99 67 94 bd
       -0.024200696 0.06542023 0.00555638 -0.07246322
000280 ee 69 bb 3c 2f cf 5d bd 28 4b 3d 3d 34 4e be bd
       0.02287766 -0.054152664 0.046214253 -0.0929226
000290 6b 45 87 3d a4 bf 9d 3d b8 ad 07 3d 26 65 1b bd
       0.06605037 0.07702568 0.033124655 -0.03793826
0002a0 70 69 ce bd b0 26 b1 3d b2 05 3b 3d ff 48 1a 3d
       -0.10078704 0.08649957 0.04565973 0.03766727
0002b0 5d e3 9c 3d e4 b9 c5 bd 31 59 a1 bd 82 ff 98 bd
       0.076605536 -0.096545964 -0.0787834 -0.07470609
0002c0 e8 b7 09 3d 33 e7 79 bd 4b 69 a2 3d 35 5a 6d bd
       0.033622652 -0.061011504 0.07930239 -0.057947356
0002d0 6f a1 cf bd 81 f5 0f 3d eb 3e c0 bd 18 78 41 bd
       -0.10138213 0.03514624 -0.09387001 -0.04723367
0002e0 09 72 13 bc 61 87 07 bc f7 34 42 bc 7f 46 78 3d
       -0.008999356 -0.008272023 -0.011853448 0.060614105
0002f0 29 96 98 3d 96 cb f1 bc 71 a9 91 3d b9 21 ca 3d
       0.07450516 -0.029516023 0.071123965 0.09869713
000300 c3 8a 1a bd a9 66 79 bd d8 59 30 bd 07 b2 a1 3c
       -0.03772999 -0.06088892 -0.04305443 0.01973821
000310 46 f1 b3 3d 67 0e a7 bd da 74 88 bd 76 e3 02 3c
       0.08786254 -0.08157044 -0.06662913 0.007988801
000320 ec a0 c3 bd 1d 80 14 bd 67 ec 3c 3d 79 b1 c2 3d
       -0.09552178 -0.03625499 0.04612389 0.095065065
000330 8a 10 36 3c 29 5f 52 3d b7 af 8e bc e8 fb c3 3d
       0.011112342 0.051360283 -0.017417772 0.09569532
000340 e9 e8 3e bc b4 cd 4f 3a 60 12 b2 3d 2c 27 7f 3d
       -0.01165221 0.00079270755 0.08694911 0.062293217
000350 11 80 02 3d 4c c7 4e 3d 58 3a c9 bd 93 c0 a7 bb
       0.031860415 0.050483033 -0.09825581 -0.005119392
000360 2c b5 1e bd 72 c5 ad bd ff 7d 89 3c 6e bf e5 3d
       -0.038746998 -0.08484925 0.016783712 0.11218153
000370 0b 5e 69 3d ce 60 16 3c 8f 4a b2 3d c5 ce bc bd
       0.056974452 0.0091783535 0.08705627 -0.09219126
000380 b1 5a 0b bd 29 a0 45 bd 55 6e 24 3d fa 3c 19 bd
       -0.034022037 -0.048248444 0.040144283 -0.037411667
000390 1c 17 2b bd a9 16 74 3d 36 26 32 3c 24 1a 84 bb
       -0.041770086 0.059591923 0.010873368 -0.0040314365
0003a0 ff 9b b1 bd d9 4a bc 3d 36 5a 97 3d a6 9b 2d bd
       -0.08672332 0.091939636 0.07390253 -0.042384766
0003b0 48 93 36 bd ab 91 9d 3d 15 5a 1a 3d bf 31 85 3d
       -0.044574052 0.076937996 0.037683565 0.06503629
0003c0 5a 76 43 3d 9d 14 5d bd e3 1e 5f 3c 60 bf 39 3d
       0.04772029 -0.053974736 0.013618204 0.045348525
0003d0 16 2b 44 bc 44 ed a0 3c c4 06 ff 3d 59 71 ae 3c
       -0.011973163 0.019644387 0.12452462 0.021294283
0003e0 f7 df 7c 3d f9 b4 f2 bc 20 84 88 bd 71 24 91 bb
       0.061737027 -0.02962731 -0.06665826 -0.004429393
0003f0 a2 8b 8b bc 22 cc e8 bc 20 c4 2a bd f9 0e b7 bd
       -0.017034356 -0.02841765 -0.041690946 -0.08938403

net.2.module.0.bias f4 [32]
000000 c6 77 1d 3d ef 32 37 3b dd 48 cc 3c f5 3c 3d bd
       0.038444303 0.0027953943 0.024937088 -0.04620071
000010 66 dd ba bc 52 52 b8 bd fd dd e1 3b e1 29 89 3d
       -0.02281065 -0.09000076 0.006892918 0.06697441
000020 6b bb fa 3a 3d 3b cd 3d e8 f1 b3 3d 22 68 f3 3c
       0.0019129341 0.100210644 0.08786374 0.02971274
000030 07 98 a6 bd ec 8e 62 bd 9e 23 e1 3c 64 7a 12 3d
       -0.08134466 -0.055312082 0.027482804 0.035761252
000040 09 41 22 bc 3d 65 a7 bb 0d d3 61 3d 09 1c 5c 3d
       -0.009903201 -0.005108504 0.055132914 0.053737674
000050 94 bd ed 3c c7 28 20 3d 61 f4 9f bc 88 15 c2 3d
       0.029021062 0.03910139 -0.019525709 0.09476763
000060 ff 39 68 3d a8 84 00 bd 20 c0 a1 bd 54 84 07 bc
       0.056695934 -0.03137651 -0.07897973 -0.008271296
000070 57 01 88 bd 62 9f 8c bd 0d 16 81 bd 84 81 29 bc
       -0.066408806 -0.06866337 -0.06303034 -0.01034582

net.3.module.0.weight f4 [32, 32, 3]
000000 a8 5e af bd e7 c7 26 bc dd 71 71 3d 55 a4 af 3c
       -0.08562976 -0.010179496 0.05894648 0.021440664
000010 bb 3c a0 bd 7d fd fe 3c 5b 42 70 bd a6 82 2b bb
       -0.078240834 0.031126732 -0.05865703 -0.0026170402
000020 66 52 22 3c 83 8b 96 bc 8e 2b b4 3d a8 e0 8b 3d
       0.009907341 -0.018377071 0.0879737 0.06829959
000030 c5 18 15 bd 76 65 b6 3d 0e 12 5e 3d 30 ab 1c 3d
       -0.036400575 0.08906071 0.054216437 0.038249195
000040 16 a0 fd bc 26 6a 24 bd 4c 13 fc bd f1 bc 85 3d
       -0.030960124 -0.040140294 -0.12308368 0.06530178
000050 ec eb 20 bd 24 f7 73 3d 21 65 8c 3d de 35 b6 bd
       -0.039287493 0.059561864 0.06855226 -0.08896993
000060 21 9a 91 ba ab 79 7b 3d 12 d1 9f bd 37 4e 48 bc
       -0.0011108556 0.06139533 -0.07803549 -0.012225679
000070 cc b9 a8 bc f4 6f 10 3d c6 f0 89 3c 84 66 5e 3d
       -0.020596407 0.035263017 0.016838443 0.054296985
000080 43 00 d1 3d 40 05 20 bd 26 1f 18 bc 40 b2 24 bd
       0.10205128 -0.039067507 -0.00928477 -0.040209055
000090 ec 7c e8 bd 33 f8 24 3d 07 3b 16 3d da 25 5f 3c
       -0.11351952 0.040275764 0.036677387 0.013619864
0000a0 2a 81 80 38 07 14 8d bd 1d a9 e1 bc 9c 74 56 3c
       6.127574e-05 -0.068885855 -0.02754646 0.013089325
0000b0 34 ad c4 bd a9 74 2b bd 4f ee ab 3d 5d 30 c9 3d
       -0.096033484 -0.041859303 0.08395063 0.09823678
0000c0 29 43 8f 3d 12 dc 7c bc 5b 2f 4d bc 8b 03 28 3d
       0.06995232 -0.015433328 -0.012523497 0.041019004
0000d0 e4 6d 86 3d a8 6e b5 3c 8d de 1d 3d 8e a7 8d 3c
       0.06563929 0.022147492 0.03854232 0.01729181
0000e0 ff e9 87 bd 57 9f d7 3c 4e 19 95 3c d9 d0 ab 3a
       -0.06636428 0.026321096 0.018200543 0.0013108506
0000f0 ce 6e 34 3d fe bf 0f 3d af 79 bb 3d d7 66 a4 bd
       0.044050984 0.035095207 0.09154069 -0.08027428
000100 7b 96 c8 bd e8 dd 94 bd 73 b2 05 bd 9e ca bc bd
       -0.09794327 -0.07268888 -0.032640886 -0.09218334
000110 ac 50 d1 3a 9a 02 61 3d 6d 86 84 bd 41 dc c6 bd
       0.0015969477 0.05493412 -0.06470952 -0.09709979
000120 93 9c 02 be 30 76 40 3d d2 6f a6 3a dc d1 eb bd
       -0.12755041 0.046987712 0.001269812 -0.11514637
000130 1c e8 36 bd 2f 62 c7 3d 6b 40 5a 3d 77 0b ee bd
       -0.04465495 0.09735524 0.05328409 -0.116232805
000140 27 30 4b 3c 84 ad b6 bd 85 a2 6c 3d 17 1f 3e 3d
       0.012401617 -0.08919814 0.05777218 0.04641637
000150 30 b7 2e 3d 4d a0 c0 3d b3 29 ad bd 44 29 fe bc
       0.04265517 0.09405575 -0.08455219 -0.031025536
000160 46 b9 4b bd 1a 09 8b 3c 49 20 12 3c 2d 15 7a 3d
       -0.049737237 0.016972113 0.00891883 0.06105535
000170 fe 63 ca bd af 5c 1a 3d 5d 3e 88 3d c0 8d 30 3d
       -0.09882353 0.037686046 0.0665252 0.043103933
000180 f4 62 ad 3d 08 72 80 bc 51 84 cc bd b7 9a ae 3c
       0.084661394 -0.015679374 -0.09986175 0.021314008
000190 9c 5c 85 3d b3 80 a2 3d c1 9b 7d bc f8 03 8c 3c
       0.065118045 0.07934704 -0.015479029 0.017091736
0001a0 9a 92 93 3d 6d 12 8c bd 83 19 a0 bc 40 92 57 bd
       0.072056964 -0.06839452 -0.019543415 -0.05262971
0001b0 b3 ca 1b 3d 99 86 5f 3c a0 86 e8 39 42 82 c3 3d
       0.038035106 0.01364293 0.00044350792 0.09546329
0001c0 9d fa 9d 3d d7 d4 c3 3d 78 d8 85 bd 78 f5 fe bc
       0.07713816 0.0956208 -0.06535429 -0.031122908
0001d0 34 22 cd bd 4c 81 7f 3d b3 6c 87 bd b3 0b 77 3d
       -0.10016289 0.062379166 -0.066125296 0.06031389
0001e0 92 52 b8 3d 2a 21 82 3d b1 41 93 bd 1d a7 a5 3d
       0.09000124 0.06353982 -0.07190264 0.08088515
0001f0 13 ff 0f 3d 67 d3 2a bd 4f 53 69 bd 09 5a 97 bd
       0.035155367 -0.041705515 -0.056964215 -0.0739022
000200 64 7a 09 bd ac a9 c4 3d 0c e6 2b 3d cd dc 39 3d
       -0.033563986 0.09602675 0.041967437 0.045376588
000210 02 4e a8 3b ba 00 20 3d 04 2b 64 3d 27 6f 57 bd
       0.0051362524 0.039063193 0.055705085 -0.052596238
000220 d7 5d 86 3d ac 22 ef bc e5 57 0d 3c c0 bd 54 3d
       0.06560867 -0.029191338 0.008626913 0.051938772
000230 f1 75 47 bb 65 d2 98 bd d5 d0 2e 3d 17 82 9c 3d
       -0.0030435289 -0.074620046 0.042679626 0.07642
000240 f7 c7 c0 3d d4 05 23 3d 21 cb 79 3d 4d 28 cf bd
       0.0941314 0.03980048 0.060984734 -0.10115109
000250 ca 19 09 3d ac 68 59 bd 12 57 d4 bd 5e b2 93 bd
       0.03347186 -0.05307834 -0.1036817 -0.07211755
000260 48 13 3c bd a3 3a 99 3d 69 1b 6f 3d f1 96 77 3d
       -0.045916826 0.07481887 0.05837575 0.060446683
000270 7b c8 04 3c ee c2 6d bd 60 ae a6 3d b8 c0 b2 3d
       0.008104439 -0.058047228 0.08138728 0.087281644
000280 3b 7f 8a bc 36 a3 58 3d df 37 ee bc c6 09 b3 bd
       -0.016906371 0.052890025 -0.029079376 -0.087420985
000290 ad fa ba bb 1f 21 93 bd ce e7 cc bd c3 d8 65 bc
       -0.0057061524 -0.07184052 -0.10005151 -0.014028731
0002a0 fd 3e d6 3c 9b c3 a1 ba f0 c7 c8 3c e5 8e 1e bb
       0.026153082 -0.001234162 0.0245094 -0.0024194058
0002b0 0e 04 38 3d b6 6a 60 bd 69 68 79 bd cb da 45 3d
       0.04492574 -0.054789267 -0.06089059 0.04830436
0002c0 2a ba 98 bd ce 73 59 bd 05 fd de 3c f8 59 6f 3c
       -0.07457383 -0.053088956 0.027220258 0.014608853
0002d0 b5 44 48 3d 09 77 b7 3d ae a4 80 3d aa 29 d2 bc
       0.04889365 0.08958251 0.0628141 -0.025654633
0002e0 48 03 c5 bc de 10 9f bd 74 f2 c7 3c 35 75 4c bd
       -0.024049416 -0.07766889 0.024407603 -0.049916465
0002f0 34 c8 16 3d 2f c2 55 3d 0b a8 ad 3d 85 55 cc 3c
       0.036812022 0.05218714 0.08479317 0.024943123
000300 fb d7 96 bd 84 56 94 3d 24 e1 f8 3c 4b 72 41 3d
       -0.07365414 0.07243064 0.030380793 0.04722814
000310 90 7a 39 bd 60 53 b0 3d 79 a8 47 3d 69 cf 00 3b
       -0.0452829 0.086096525 0.048744652 0.0019654876
000320 19 f9 b0 bd 56 b1 89 bd 67 f4 8c bc 11 11 58 3d
       -0.086412616 -0.06723277 -0.017206384 0.05275065
000330 0d 2f b7 bd b8 5c a5 bd 38 7a b0 3b ae 54 a4 3d
       -0.08944521 -0.08074325 0.0053856634 0.08023964
000340 41 93 68 bd cd 08 17 3d 4b 48 c5 3b af 6a 80 3b
       -0.056781057 0.036873627 0.006020581 0.0039189677
000350 0e 2c 89 bd 73 3b ef bc 2d 2e e1 3d 63 86 af bd
       -0.06697856 -0.029203152 0.109951355 -0.08570554
000360 2d 79 0b 3d 7e 2a 4c bc 0e e6 3c 3b 6f 88 88 3d
       0.03405111 -0.012461303 0.0028823647 0.06666648
000370 cf 18 04 3d 36 0d ce 3c ab 20 32 bd 89 0d 14 bd
       0.03225022 0.025152784 -0.043488186 -0.03614572
000380 5a d8 a6 3d 25 72 ba 3d 30 9c a0 bd a2 e3 97 3c
       0.081467345 0.091038026 -0.078422904 0.018541161
000390 d2 dd 39 bd af 9a b1 bd da 08 2d bd bb b0 1f bb
       -0.04537756 -0.08672082 -0.04224477 -0.0024366814
0003a0 92 ff eb 3c 36 d8 4e 3d 7d 1b 25 3b 25 49 20 3d
       0.028808389 0.050499164 0.0025193386 0.039132256
0003b0 18 d2 6d 3c 15 ad a0 3d 43 f6 4e bd 64 79 c1 3d
       0.014515422 0.07845513 -0.050527822 0.094469815
0003c0 9f 50 17 bc 33 e2 c1 3d fc 45 8e bd b9 99 07 3d
       -0.00923553 0.09466972 -0.06946942 0.033105586
0003d0 82 c5 ac bd f7 0c 02 bd ce be 32 3d 55 99 5a 3d
       -0.08436109 -0.031750645 0.043638997 0.053368885
0003e0 27 b9 8b bd d0 87 f1 3d c1 06 1b bd 85 70 84 bb
       -0.068224244 0.11793482 -0.037848238 -0.0040417337
0003f0 3e f5 b4 3d 60 14 bb 3d 37 a4 15 3d 48 63 b8 bd
       0.08835839 0.091347456 0.03653356 -0.090033114

net.3.module.0.bias f4 [32]
000000 24 59 76 bd 03 e1 63 bb e1 d7 b2 bd 4a 2b 7c bd
       -0.060143605 -0.0034771569 -0.08732582 -0.06156472
000010 2d 5d 62 3b 1f a6 d4 3d 3a 97 9e bd 0b bf 1a 3b
       0.00345404 0.103832476 -0.07743688 0.0023612406
000020 2b 9c 60 3d 98 be bc 3d 27 a2 9b 3d f8 31 78 bc
       0.054836433 0.092160404 0.075992875 -0.015148632
000030 46 73 74 bd 85 17 4d 3c 86 68 bd 3d d4 34 e0 3d
       -0.059680246 0.0125178145 0.09248452 0.10947576
000040 4f 89 73 3d 3b ad b3 3c 91 64 2b bd b5 3d db 3d
       0.05945712 0.021933189 -0.041843954 0.10705129
000050 97 f3 b6 3c 3d 7d 24 bc 35 1b b1 3d 84 5d 82 3d
       0.02233295 -0.010039625 0.086477675 0.06365493
000060 77 05 5a bd 3b f3 90 bd a4 1e 88 bc d1 84 0e 3d
       -0.053227868 -0.070776425 -0.016616173 0.034794632
000070 25 e6 11 bc b1 a4 e0 bc 31 26 95 3d 0c 11 04 3d
       -0.008904968 -0.027422281 0.07282675 0.03224282

net.4.module.0.weight f4 [32, 32, 3]
000000 01 f2 61 bd b4 7b 41 3c 3b 2b 82 3d 9d fe da bd
       -0.055162434 0.011809278 0.06355902 -0.10693095
000010 a8 65 cf 3d d6 a8 75 bd c7 2e c3 3d 87 da 12 bd
       0.10126811 -0.059975468 0.095304064 -0.035852935
000020 f5 0a 90 3c 87 87 c7 bd e0 e3 d8 bb 29 16 52 bd
       0.01758335 -0.09742647 -0.0066189617 -0.051290665
000030 63 4a 01 be 16 dc 9c bc 36 e8 c3 bc 92 52 16 bd
       -0.12626033 -0.019147914 -0.023914438 -0.03669984
000040 6b 6e cc bd 34 35 a3 bb 4b 92 87 bd 1f 57 ec 3d
       -0.09981998 -0.0049807075 -0.066197 0.115400545
000050 59 39 38 3d 73 33 45 3d 60 f9 84 bd 65 db c9 bd
       0.044976566 0.04814477 -0.06492877 -0.09856299
000060 7a ef fd bb 0a 20 9e bd dc 31 69 bc ab ae 8b bb
       -0.007749495 -0.07720955 -0.014233079 -0.0042627654
000070 07 e1 6f bb fa 72 48 bd 9e c6 ee 3b 47 9b 88 3c
       -0.0036602633 -0.048937775 0.0072868606 0.016675605
000080 41 df 36 bc c2 87 b6 bd ba 44 b8 bd 34 e0 cc bd
       -0.011161626 -0.089126125 -0.089974836 -0.10003701
000090 66 c0 10 bd f0 be 97 3d bf 71 d5 3d 48 f6 24 3d
       -0.035339735 0.07409465 0.10422086 0.040273935
0000a0 e7 b9 93 3d 4a 0c af 3d 8a 61 ad 3b 60 46 f1 bc
       0.072131924 0.08547266 0.0052911686 -0.029452503
0000b0 68 1c bf 3d 68 c9 3a 3b 7e d4 87 3d 6d e0 bd bd
       0.0933159 0.0028501395 0.066323265 -0.092713214
0000c0 0a 6e b4 3a 13 d9 78 3d 04 0f 78 bb c6 b4 a0 3d
       0.0013765704 0.060753893 -0.0037850747 0.0784698
0000d0 bd fa 68 bd 68 d2 7f bb 4e 7a 88 3c 08 8a 07 3d
       -0.056879748 -0.0039035324 0.016659882 0.03309062
0000e0 5b d6 85 3d 0b 7e c7 bc 40 b9 a5 3d 8b dd 4c 3d
       0.06535026 -0.024352094 0.08091974 0.050015967
0000f0 68 4c 32 3d 7b c1 83 3d 52 11 00 3d 22 59 06 bd
       0.043529898 0.06433388 0.031266518 -0.032799847
000100 05 4f 7c 3a 57 74 35 3b 58 8b f5 bc 94 7f 12 bc
       0.0009624812 0.0027687752 -0.02997367 -0.00894155
000110 3f ce 0c 3b 6b 4d 29 3d 00 10 fe bc 25 41 91 3c
       0.0021485237 0.041333597 -0.031013489 0.017731259
000120 50 ec cf bd c0 c2 6c 3c 22 36 d9 bd 9d ab c5 bd
       -0.10152495 0.014450729 -0.10606028 -0.09651873
000130 72 58 8e bd ce 4d a2 3d cd dc ae 3d 64 a1 2f bd
       -0.06950463 0.07924996 0.08538208 -0.042878523
000140 6a f9 c3 bd be de 98 3d 99 8e 97 bd 1e 17 d0 3d
       -0.09569056 0.0746436 -0.07400245 0.10160659
000150 4f e1 c3 bd 88 30 2f bc 99 d6 15 3d eb 23 a0 bd
       -0.095644586 -0.010692723 0.03658161 -0.07819351
000160 19 ef d2 3d f3 83 0f bd 04 78 84 3d 33 22 b4 3b
       0.102995105 -0.035037946 0.06468204 0.005497241
000170 ee ec 7e bd bb 31 06 3c 07 2c ea bc 25 80 a4 bd
       -0.062237673 0.008190568 -0.028585447 -0.08032254
000180 0a 71 2a bd 82 63 9a 3d ab b0 c0 3d f7 04 13 3d
       -0.04161171 0.07538511 0.09408697 0.035893407
000190 dc cd c9 3d e5 fb 7a bd 07 fd a1 3d cc 42 af bd
       0.09853718 -0.06127538 0.07909589 -0.08557662
0001a0 06 e2 90 3d 1e a5 3c bd bd 06 83 3d 43 61 62 3d
       0.070743605 -0.046055906 0.063977696 0.055268537
0001b0 9a e1 f6 3b ef 6f ee bb 93 67 c8 bd 9e 7d 9a bd
       0.007534218 -0.007276527 -0.0978538 -0.07543491
0001c0 93 a3 ac 3d fb 31 83 3d fa a4 1d 3d 42 6f 18 3d
       0.08429637 0.064060174 0.038487412 0.03721548
0001d0 17 97 56 3c 9d a5 34 3c eb 89 4e bd 63 03 ac 3d
       0.013097546 0.011025813 -0.050424498 0.083990835
0001e0 a4 cb 7b bd 82 ba dc bc fa a9 be bd 3e 28 86 3c
       -0.061473504 -0.026944403 -0.09309764 0.01637661
0001f0 1a a5 dd bd 4d 4a 3a 3d 92 30 b9 bd 64 8b 12 3b
       -0.10822506 0.045481015 -0.09042467 0.0022360915
000200 21 6f 3b bd cf 58 96 bc ce 4f af bd 58 e1 8a 3d
       -0.045760278 -0.018352894 -0.085601434 0.06781262
000210 70 51 b8 bc b3 a0 6a bc 21 24 79 bd 08 66 b3 bd
       -0.02249977 -0.01432054 -0.06082547 -0.08759695
000220 7e 91 92 3c 59 66 4f bd c3 19 9c 3c ef 85 e4 bd
       0.017891642 -0.050634716 0.019055253 -0.11158358
000230 43 e8 81 bd ef a3 69 3d de d9 93 3d d7 cb d4 bd
       -0.063431285 0.057041105 0.07219289 -0.10390442
000240 78 62 1c bc 21 6a 2f 3d 7c 2b 0d 3d 81 68 a1 bd
       -0.009544961 0.04282582 0.034465298 -0.07881261
000250 b1 63 5f bd 0a ee 71 3d ed 06 77 bd 0a a0 8f 3c
       -0.054538433 0.059064902 -0.06030934 0.017532367
000260 2c e0 32 3d 1a 75 e8 3c f2 2e 2c bd 4e bb 19 bd
       0.04367082 0.02837615 -0.042036958 -0.037532143
000270 c3 ed ac bd a9 81 a0 3d 03 dd a6 bc 38 a1 6a 3d
       -0.08443787 0.07837231 -0.020369058 0.057282656
000280 17 8d 84 3d 89 1b a6 bc b2 27 d5 bd 8d 11 99 3d
       0.06472223 -0.020276802 -0.10407962 0.07474051
000290 e0 ae cf bd 8f 51 3b 3d 5c e4 86 bd 0e 08 17 3d
       -0.10140777 0.045732077 -0.06586525 0.036872916
0002a0 05 7d 56 3c 51 02 3a 3d 66 a2 9f 3a f7 dd d2 bd
       0.01309133 0.045412365 0.0012179136 -0.10296243
0002b0 10 b5 80 3d ad 6a 3d 3d 8a df 27 bb 3d 3c 89 3d
       0.06284535 0.046244312 -0.0025615417 0.06700943
0002c0 f6 d0 f6 bc 59 6d ce ba a3 20 e0 bd 04 d5 65 3d
       -0.030128937 -0.0015749141 -0.10943725 0.05611135
0002d0 3d c8 85 bd 66 ec a0 3d f7 c2 16 3b bd c2 60 bd
       -0.06532333 0.078575894 0.0023004392 -0.054873217
0002e0 89 fe d9 3c db d1 90 3d 68 2e 5d 3d 0f 3a 41 3d
       0.02661063 0.07071277 0.053999335 0.04717451
0002f0 60 57 97 bd dd 29 77 bd 3d b0 db 3c 53 d0 8c 3d
       -0.07389712 -0.06034266 0.026817435 0.06875672
000300 0d be 86 bc b7 ab a7 bd 4d 4c 5f 3d 75 5b 85 3d
       -0.016448045 -0.08187049 0.054516125 0.06511585
000310 79 0b 6b 3d c2 d8 a7 bd 77 a5 db 3d 3f 4e bf bc
       0.057383988 -0.0819564 0.10724919 -0.02335274
000320 da bf 3c bc 54 14 a0 3d ba 69 9d bb cf 5d bd bc
       -0.01152035 0.07816377 -0.0048038634 -0.02311602
000330 39 24 d0 3d ed 10 87 bc 10 d2 5f bd 7f 9a 20 bd
       0.10163159 -0.016487563 -0.05464369 -0.03920984
000340 eb 59 81 bd 27 11 4f bd 0b 6f 40 3a 48 44 60 bd
       -0.063159786 -0.050553467 0.00073407654 -0.054752618
000350 66 58 2d 3d 90 0d 2e 3c e5 c2 57 3d 87 4d 56 bd
       0.04232063 0.010623351 0.0526761 -0.05232003
000360 4e 28 9f bd 66 aa 42 bd 83 4b ad bd bc 0a a6 bd
       -0.077713594 -0.047525786 -0.08461668 -0.08107516
000370 33 ba b2 bd d7 85 a6 bd 52 f2 3a 3c 94 80 6a 3c
       -0.08726921 -0.08130997 0.011410313 0.014312882
000380 60 9f 88 bd 36 b2 aa bd 1c 6a 6b 3c 0b 91 b5 3b
       -0.06671023 -0.08334772 0.01436856 0.005540972
000390 17 d6 63 3d 3d 15 12 bc 4f 78 c4 3c 37 a3 a8 3d
       0.055624094 -0.008916196 0.023983149 0.08234256
0003a0 85 50 c6 bd 84 dd 87 3d 80 72 3f 3d fb 96 c4 3d
       -0.09683327 0.066340476 0.046740055 0.0959911
0003b0 f0 ec 3c 3d e3 dd a4 3d d9 7c c3 bb d0 ae a3 3d
       0.0461244 0.08050134 -0.0059658107 0.07992327
0003c0 1a 38 87 3d 02 e6 ad 3d bb 53 d8 bb d7 67 7e 3d
       0.066024974 0.08491136 -0.0066017783 0.06211075
0003d0 be 83 ba 3d 9f d5 dc 3d 59 92 91 bd 38 d1 ca bd
       0.09107159 0.107829325 -0.07107992 -0.099031866
0003e0 e9 eb 0a bb 52 fb 9d 3c 40 88 16 3c 32 ac 63 38
       -0.0021197742 0.019284878 0.009187758 5.4281387e-05
0003f0 29 89 6e bd 5e 2d 88 3d 2d 99 7d bd 0a e2 a3 3d
       -0.058236275 0.06649278 -0.061913658 0.08002098

net.4.module.0.bias f4 [32]
000000 bd fb 24 3d b6 3b 2f 3d d5 b6 be bd 14 cc bd 3c
       0.04027914 0.042781554 -0.09312216 0.023168601
000010 10 e9 e5 3b 34 ab 76 bd 2f 9c 7b bd 6e a1 ca 3d
       0.0070163086 -0.060221866 -0.061428245 0.098940715
000020 83 05 76 bd 4b 85 30 3a 18 f2 66 3d bf c7 bb 3d
       -0.06006385 0.00067337294 0.056383222 0.09168958
000030 58 90 76 3d ca d7 ed 3c 6e 60 55 bd 4b 72 d4 3d
       0.06019625 0.02903356 -0.052093916 0.10373362
000040 fe 3c a5 3d 2e d3 07 3d 9a 22 ab bd 6b 07 7b bd
       0.08068274 0.03316038 -0.08356209 -0.06128637
000050 52 3a be bd 46 d3 7b 3a f9 19 75 3d ab 00 b6 3b
       -0.092884675 0.00096063723 0.059839223 0.005554279
000060 42 f0 95 bd 6b cb 40 3d 75 cb b7 3d c0 a6 9d bd
       -0.07321216 0.047068994 0.08974353 -0.07697821
000070 81 5b 01 bc 73 d9 2b 3d bb 73 00 bd 2a 8b 86 3d
       -0.007895351 0.041955423 -0.03136037 0.06569512

net.5.weight f4 [32, 32, 3]
000000 79 a4 00 bd 6e 65 9c 3c d1 1c 9c 3d 83 7d b9 3d
       -0.031406853 0.019091334 0.07622684 0.090571426
000010 47 7f f3 bd 69 fb 20 bd a8 31 86 3d 6b da 0f 3c
       -0.118895106 -0.039302263 0.0655244 0.008780102
000020 4c ca 93 3c 2d 9a fa bd 04 5b 11 be 74 22 e9 3c
       0.018040799 -0.12236438 -0.14194876 0.028458811
000030 f4 ff c1 3d b3 a5 3d 3d 58 7b 6b 3d 64 7a 95 bb
       0.09472647 0.0463006 0.057490677 -0.0045617092
000040 37 97 3f bd bd b2 7c bd 9a 1d 44 3d 96 2c e7 bd
       -0.04677507 -0.061693896 0.047879793 -0.11287801
000050 e5 58 2d bd 86 13 55 3d 41 25 60 bd 77 26 a2 3d
       -0.042321105 0.052020572 -0.054723028 0.07917493
000060 c4 a1 a2 bd 33 35 06 bd 5a da 2c bd ed 3a 05 bc
       -0.079410106 -0.03276558 -0.042200424 -0.008131725
000070 5e 2e 6d 3c fb 43 c8 3d cb 27 22 3d a6 1d 90 bd
       0.014476387 0.09778591 0.03958873 -0.07036905
000080 6d f0 be bd 7a 58 0f bd db 0e 1d 3d d7 de 3a 3d
       -0.09323201 -0.034996487 0.038344245 0.045622673
000090 f0 04 80 bd 57 5e df bd d7 ff 01 3e 0a 39 3f bd
       -0.06250942 -0.10906666 0.12695251 -0.046685256
0000a0 d2 78 0b 3d 64 41 5b bb e4 ac ea bc 32 44 88 3c
       0.03405077 -0.0033455724 -0.028646894 0.01663408
0000b0 f4 48 43 3c 1f b8 a3 bd 2a bf e7 bd d9 d3 53 bc
       0.011919249 -0.07994103 -0.113157585 -0.012928926
0000c0 4b 12 ab bc 0c 2a 67 bd b4 e7 9c 3c 66 41 18 3d
       -0.020882746 -0.056436583 0.019153453 0.037171744
0000d0 2c e8 ea bb 2b 65 b7 3d 6d 15 8c 3d 6a 7d 48 bd
       -0.0071687903 0.08954843 0.06840024 -0.04894773
0000e0 b5 fd 8b bc dd f8 ae bc d0 69 b4 bd 1c 69 61 bd
       -0.01708875 -0.021358902 -0.08809245 -0.05503188
0000f0 4e b9 79 3c 72 ab 57 bd c1 8a 10 3d a6 78 da 3d
       0.015241934 -0.052653737 0.035288576 0.10667543
000100 02 af 54 3c 20 0d 37 3d 40 23 8a 3d 7b 89 3a 3c
       0.012981178 0.04469025 0.06745005 0.011385317
000110 06 37 2c bc 8e 3c e3 bd 6f c7 54 bd bd ac c6 3d
       -0.0105111655 -0.11095534 -0.051948007 0.09700916
000120 c6 ad 89 3d e9 1f bc bb d0 ba 26 3d fa 91 d2 bd
       0.06722598 -0.0057411087 0.040705502 -0.10281749
000130 fb 02 40 3d c7 70 1f bc 1b 83 a5 bd c4 10 62 3a
       0.046877842 -0.009731478 -0.08081647 0.0008623714
000140 6b e2 ab 3d fa 91 f1 bc 44 79 9e 3d 38 5a 84 bd
       0.08392795 -0.029488552 0.07737973 -0.0646252
000150 2a 64 bd 3d 1b d2 42 3d 05 c8 04 bd 46 27 79 bd
       0.092476204 0.047563653 -0.032417316 -0.06082847
000160 39 14 b6 bd 1e 2d 3d bc 89 0f ad bd cc a1 6d 3d
       -0.08890576 -0.011546401 -0.08450229 0.05801563
000170 ec d2 29 bc f7 3e 8f bb 80 b7 98 bd a4 78 4d bd
       -0.010365229 -0.0043715197 -0.07456875 -0.05016388
000180 f6 6f e0 3d b8 fa db 3d 7a db b7 3d 59 1c b8 3d
       0.10958855 0.1074118 0.08977409 0.08989782
000190 62 d8 b2 3d 31 17 c8 bb 31 9c cb ba 9a 71 dc 3d
       0.08732678 -0.0061062803 -0.001553422 0.10763855
0001a0 9a 0d cc bb ee 02 90 bd 9f c2 d3 bd e2 70 f4 bc
       -0.0062272074 -0.07031809 -0.103398554 -0.029838983
0001b0 11 92 cc bd 3a 6d c7 3d d0 ca ce 3d 39 30 5f bd
       -0.099887975 0.0973763 0.10097277 -0.054489348
0001c0 dd d6 ca 3a c4 78 c4 bd ac fc 86 bd c5 e7 a4 3d
       0.0015475411 -0.09593347 -0.06591162 0.08052019
0001d0 eb e7 da bd 75 5e 8c bc c1 d6 59 3d 50 12 62 3d
       -0.10688766 -0.017134884 0.05318332 0.055193245
0001e0 0a 7d 93 bd 59 d8 5e 3d d8 ef 80 3d da 50 af bd
       -0.07201584 0.054405544 0.062957466 -0.08560343
0001f0 9f 72 b9 3d ae ac e2 bb 24 7f e1 3d 20 c1 63 bd
       0.09055065 -0.0069175577 0.11010578 -0.0556041
000200 fc c1 a3 3d c2 b9 d1 3c 0a d5 eb 3b 7b f4 fa bd
       0.07995984 0.025601272 0.007197027 -0.12253662
000210 aa 08 c9 3b bc 9a 64 3d 0e 40 77 bd 38 fa ef 3d
       0.006135066 0.05581163 -0.06036382 0.11717647
000220 9b 6a 4c 3d b4 6f 1e 3d 40 f9 e8 3d 2b ef 84 bd
       0.049906354 0.038680747 0.11375666 -0.0649093
000230 f9 02 b6 3b fa 7e ee bc 61 38 4a bd 3e 68 f5 bb
       0.0055545536 -0.029113282 -0.049370173 -0.0074892333
000240 a6 44 e2 3d dd c0 19 bd af 7c 85 bd f2 31 83 bd
       0.1104825 -0.037537444 -0.06517922 -0.06406011
000250 49 98 a0 3c 70 91 1c 3d 28 7e a2 3c 4e 0e c0 bc
       0.019603865 0.038224638 0.019835547 -0.023444321
000260 2b 83 24 bd fc e4 ed 3b 4d bb 82 bd d0 89 76 3c
       -0.040164154 0.007259963 -0.06383381 0.0150475055
000270 f5 80 42 bd f5 b6 70 bd 84 06 1f 3c 23 f5 eb bc
       -0.047486264 -0.05876823 0.009706143 -0.028803414
000280 10 18 50 3d 95 31 aa bd 41 cc 83 3b a9 bf 6f bd
       0.050804198 -0.08310238 0.0040221517 -0.05853239
000290 f2 2a e2 3c db 71 06 bd 13 d0 3f bd dc 5d c1 3c
       0.027608369 -0.032823425 -0.046829294 0.023604326
0002a0 e7 ad 02 3d 96 a1 35 3d 13 30 35 bd 72 f0 0a bb
       0.031904127 0.044343553 -0.0442353 -0.0021200445
0002b0 19 83 cc 3d cb 9a 00 be 18 03 80 bd 92 7e ce 3c
       0.099859424 -0.12559049 -0.0625059 0.025206838
0002c0 ba ff 81 bd ea c1 ac bd 3c 1d ad bd f7 2d 17 3d
       -0.06347604 -0.08435424 -0.08452842 0.03690907
0002d0 51 35 db 3c 45 be b5 3c e7 9c a2 bd 54 28 19 bd
       0.026758822 0.022185454 -0.07940083 -0.037391976
0002e0 94 a5 d2 3d 18 d5 84 3b 53 42 ce bd 4c 9a ae bd
       0.10285488 0.004053723 -0.10071244 -0.085255235
0002f0 e5 46 0d bd 8e d6 be ba 21 be 87 3c a7 c4 d9 bb
       -0.03449144 -0.0014559792 0.016570153 -0.0066457572
000300 aa c3 0c bd 6a 6e ca 3d 59 0b ca bc e0 c7 59 bd
       -0.034366287 0.09884341 -0.024663614 -0.05316913
000310 74 2f 06 3d f9 e9 a8 3d 4f 01 92 3b 4c 4b 05 3d
       0.0327601 0.08247752 0.0044557224 0.03254251
000320 35 6c b6 3c b6 1e 97 3c 07 38 f0 3b f7 db 91 3d
       0.022268394 0.018447261 0.0073308977 0.07122033
000330 4f 45 95 bd c2 ea 56 bc 3e 6d 20 3d ba b5 c6 bc
       -0.0728861 -0.013117494 0.03916668 -0.024256576
000340 b2 97 b4 bb fa 36 e6 bc a8 3f 44 3d e1 84 9c bd
       -0.0055112476 -0.028102387 0.04791227 -0.07642532
000350 43 d1 be bd bc 1b 6d 3c 7a f9 cd bb 6d 6b 89 bd
       -0.09317257 0.014471944 -0.0062858434 -0.06709943
000360 68 ee 9f 3d 7f 9f 81 3d 5d 14 08 3d 8e 81 81 bd
       0.07809144 0.063292496 0.033222545 -0.06323539
000370 6f 5c cf bd bf 5a 06 bd 1c 54 ce 3d 79 20 d0 bd
       -0.10125052 -0.032801386 0.10074636 -0.10162444
000380 21 5f bd bd 0f f0 95 3d 55 10 58 3c de 68 76 bd
       -0.0924666 0.07321178 0.013187488 -0.060158603
000390 f8 45 a8 bd 60 48 c2 3d a8 bc a1 3d 2a 6c 3e 3d
       -0.082164705 0.09486461 0.078973114 0.046489872
0003a0 03 72 d4 3c 94 c0 b4 3d 26 3d 34 3c a9 1d 8a 3d
       0.025933271 0.08825794 0.011000907 0.067439385
0003b0 76 2f cb bd 68 08 28 bb c9 1b 89 bc 68 46 98 bc
       -0.09921162 -0.0025639776 -0.016736882 -0.01858826
0003c0 53 9b bc 3c 8c b1 a4 bd 1f d9 30 3d 66 77 b9 bb
       0.023023283 -0.08041677 0.043175813 -0.0056599854
0003d0 5a 06 dc 3d b0 3f cf bc ab 7f 26 3d 7e d2 32 bd
       0.10743399 -0.025298923 0.040649097 -0.043657772
0003e0 3a ff 41 bd 23 8a 03 be 26 66 0a 3d 54 1c a6 3d
       -0.047362544 -0.12845664 0.033788823 0.08110872
0003f0 30 d2 7e bd 2e 78 aa bd cb a8 ca 3d 96 35 40 3b
       -0.06221217 -0.08323704 0.09895476 0.0029328815

net.5.bias f4 [32]
000000 cf 80 8c 3d 6f 72 9d bd 29 89 66 3c cc 72 ad 3d
       0.06860506 -0.07687842 0.0140707875 0.084691614
000010 06 fd 90 3d d9 60 f3 bc 93 c5 e2 3b 96 ec ce bc
       0.070795104 -0.029709266 0.0069205253 -0.025259297
000020 62 79 38 bd 7f 33 96 bd d5 3f 9f 3d f7 4a 69 bd
       -0.045037635 -0.07334041 0.07775847 -0.056956258
000030 9a b7 b3 3d af ee 08 bd 62 e5 c2 bd 84 d4 c7 bc
       0.087752536 -0.03343075 -0.095164075 -0.024393328
000040 79 5b d4 3c 3b 1d db bb 69 6d 47 bd ed ab b1 bd
       0.025922524 -0.006686834 -0.048688326 -0.0867537
000050 9c 13 8a bd f5 10 7c bc 8f bd b2 3b 63 da 48 3d
       -0.067420214 -0.015384902 0.005454726 0.049036395
000060 3e 3c de 3d 09 bc 88 bc b1 2f 8c 3d 61 25 9c bd
       0.10851334 -0.016691225 0.06845034 -0.07624317
000070 b9 a6 21 bd 59 ba 33 bd f5 ca 5e 3d b7 28 65 3d
       -0.03946564 -0.043878887 0.054392774 0.05594703

exp_avg f4 [32, 12, 2]
000000 1f e2 2d ba 81 48 17 ba 68 d6 90 b9 82 d8 c1 b9
       -0.0006633121 -0.0005770997 -0.00027625565 -0.0003697314
000010 f4 b4 a7 3a 2e 1e 51 3a 95 37 b4 b8 88 21 13 b8
       0.0012795017 0.00079772144 -8.593422e-05 -3.507876e-05
000020 05 aa 75 ba 88 e5 1d ba 34 20 99 38 90 7e ab 38
       -0.0009371343 -0.00060232775 7.301607e-05 8.1774895e-05
000030 a2 99 45 b9 6b 58 c2 b8 e8 4d 7b 36 e5 c6 a0 38
       -0.00018844617 -9.26711e-05 3.7447262e-06 7.6664415e-05
000040 2f fb 15 39 c7 da 89 36 74 a4 af ba d0 d1 95 ba
       0.0001430332 4.108387e-06 -0.0013400451 -0.0011430327
000050 3c 82 85 b9 d5 1c 53 b9 25 a6 5d 36 16 a6 08 37
       -0.0002546477 -0.00020133269 3.3028275e-06 8.144902e-06
000060 62 dc 7f 3a 38 e2 a0 3a 12 7d 3b 39 c3 45 4a b9
       0.00097603176 0.001227445 0.00017880302 -0.0001929021
000070 ca e4 83 39 be 59 5c b8 75 1d 6c 38 f1 b9 48 b8
       0.00025156728 -5.2535666e-05 5.629422e-05 -4.7856887e-05
000080 ce 33 d3 b8 d4 38 9f b8 a2 85 3f b8 6f 90 fd b7
       -0.000100709134 -7.592296e-05 -4.5662404e-05 -3.0227207e-05
000090 81 fb 26 38 70 44 6b 37 e4 8a 7b b7 b0 e1 ca b6
       3.9811715e-05 1.4023026e-05 -1.4993104e-05 -6.0463426e-06
0000a0 78 e4 b6 38 7e 9e 44 38 60 8b 3e 39 a4 0a 1a 39
       8.720992e-05 4.687765e-05 0.00018171733 0.00014690548
0000b0 50 7e 47 b8 ed fe fc 37 58 9e 8e b5 d0 d7 db 34
       -4.7562935e-05 3.015945e-05 -1.0625909e-06 4.0948953e-07
0000c0 b9 cd 0a 39 96 b0 f9 39 6e af eb b8 a7 83 f9 b8
       0.00013237343 0.00047624548 -0.000112383495 -0.000118977674
0000d0 81 f1 a2 b9 8f 30 df b9 13 33 07 39 e8 9b 5b 35
       -0.00031078982 -0.00042570053 0.0001289363 8.181073e-07
0000e0 39 fc cc b8 07 19 bf b8 d5 16 8d b8 16 ce 8d b8
       -9.774458e-05 -9.1122514e-05 -6.727657e-05 -6.7617904e-05
0000f0 70 9e f9 b5 c6 fb c7 37 c5 17 39 38 68 75 ac b8
       -1.8598057e-06 2.383989e-05 4.4129574e-05 -8.223468e-05
000100 2a 36 cf b7 fc 9c b9 37 02 14 0d ba 1a 5b c8 b9
       -2.4701545e-05 2.212682e-05 -0.00053817045 -0.0003821485
000110 46 08 02 b8 ff 78 2c 38 b9 c5 e4 b6 08 19 4e b7
       -3.100212e-05 4.1120682e-05 -6.8179475e-06 -1.2284385e-05
000120 59 e5 7d 38 bd 75 6f b9 78 4a d7 b9 81 00 f5 b9
       6.0533497e-05 -0.00022836677 -0.0004106348 -0.00046730417
000130 1c 10 11 b9 c8 9b 84 39 ec d4 12 b8 98 8c b5 b8
       -0.00013834279 0.00025293068 -3.500741e-05 -8.65694e-05
000140 a7 8a c3 b8 22 cc 25 ba dc 1b cc 36 97 af 3d 37
       -9.3241506e-05 -0.00063246686 6.082917e-06 1.1306161e-05
000150 c7 29 fd 38 36 81 a9 36 90 55 0e 38 1a 6d 85 38
       0.00012071762 5.0516346e-06 3.3935125e-05 6.362256e-05
000160 5c d2 3c 38 8c e8 c9 b8 b3 0e 6d ba fb 0c 24 ba
       4.5018605e-05 -9.627742e-05 -0.0009043023 -0.0006258038
000170 10 eb fc b8 c6 40 4b b9 e3 8e e8 35 85 12 96 36
       -0.0001206008 -0.00019383719 1.7326932e-06 4.4725043e-06
000180 0e 0e 16 39 fb 64 67 b9 38 eb bb 37 a0 7c ae 38
       0.0001431035 -0.00022067495 2.240167e-05 8.32018e-05
000190 f0 02 d8 b6 74 1c ed 38 9c 06 a7 b8 00 c1 91 34
       -6.4376436e-06 0.000113063405 -7.9644116e-05 2.714878e-07
0001a0 2f 73 32 ba be 00 d9 b9 3b 4c 61 b8 0d 2c f8 37
       -0.0006807325 -0.00041390018 -5.3715175e-05 2.9584417e-05
0001b0 8c 12 b0 b7 0d 35 c2 38 f9 b2 0f ba b5 08 99 b9
       -2.0989472e-05 9.260522e-05 -0.0005481686 -0.0002918892
0001c0 24 34 72 39 f4 1c 6e b6 cd 7c 8c ba fe d8 34 ba
       0.00023098342 -3.5481617e-06 -0.0010718346 -0.00068987894
0001d0 cb bd c7 b9 5b 93 9e 39 a2 09 20 b7 1a 5b c6 36
       -0.00038097645 0.00030245897 -9.538986e-06 5.9114655e-06
0001e0 3e 48 16 39 4c 5d b3 37 3f c7 3f 3a de bc 62 3a
       0.00014332027 2.1381908e-05 0.0007315762 0.0008649359
0001f0 cf 17 57 b8 8b a7 05 3a e0 23 d4 37 3e 09 59 38
       -5.1282168e-05 0.0005098513 2.5289075e-05 5.174544e-05
000200 82 4a ee 39 8e ac 52 b8 25 1e c8 38 ef 73 16 38
       0.0004545041 -5.0228606e-05 9.542358e-05 3.587076e-05
000210 0f 67 79 39 88 b5 8f 38 c8 85 ef b8 59 74 43 b8
       0.00023784883 6.852584e-05 -0.00011421327 -4.659998e-05
000220 b2 c6 a4 36 64 82 e1 38 e8 aa 59 b7 31 9a 6e 39
       4.910712e-06 0.00010753123 -1.2974e-05 0.0002275489
000230 53 1f 21 ba de 41 f9 b8 62 bf 1a b6 10 9c f1 b5
       -0.000614633 -0.00011885514 -2.3059188e-06 -1.8001319e-06
000240 d8 27 92 39 ca 98 0e 39 84 77 4f 38 94 50 1c b9
       0.00027876976 0.00013599094 4.9463953e-05 -0.00014907337
000250 e0 31 1a b9 3e a8 a9 39 dc 0c ca b7 5a dd 61 38
       -0.00014705164 0.00032359542 -2.4086265e-05 5.385033e-05
000260 5a d5 24 39 f3 34 05 3a d0 dc 6f 35 c2 0a 17 37
       0.00015719738 0.00050814374 8.935576e-07 9.002806e-06
000270 34 83 76 b7 d6 eb 99 38 7d 79 36 b9 c4 d8 9a 39
       -1.4693291e-05 7.3395364e-05 -0.0001740213 0.00029534672
000280 d0 3e 6d b7 a2 33 9b 37 22 d7 07 3a ef ca e8 39
       -1.41409255e-05 1.8501483e-05 0.00051818986 0.00044401686
000290 6d bc 93 b9 8c dc 5a 39 e3 a0 8b b6 21 c2 da 36
       -0.00028178413 0.0002087226 -4.1612525e-06 6.519506e-06
0002a0 5d 44 a2 39 f2 a8 59 3a de 21 a7 39 f7 32 12 38
       0.00030949982 0.0008303068 0.00031877955 3.4856577e-05
0002b0 b9 8f 11 3a 99 d5 0d 3a 73 25 37 b6 11 bb 9a b7
       0.00055527274 0.00054105517 -2.7290923e-06 -1.844534e-05
0002c0 02 6f 8f b9 5a 09 95 38 ee c1 12 37 4c c8 a0 36
       -0.00027357793 7.1066155e-05 8.747431e-06 4.791689e-06
0002d0 20 b6 44 39 2b 4b 17 b6 1a 8c 58 b8 d1 51 70 b8
       0.00018759863 -2.2544507e-06 -5.1628893e-05 -5.7296656e-05
0002e0 68 21 ba b7 62 aa 96 37 ed 93 19 39 ff 8a 42 37
       -2.2188484e-05 1.7960734e-05 0.00014646324 1.1595664e-05
0002f0 24 f9 3a b9 50 24 5b 38 26 4f c9 b5 fd 08 0b 33
       -0.00017831154 5.2247487e-05 -1.4998702e-06 3.2371634e-08
000300 6e fa d4 b9 09 87 de 38 81 36 8d b7 57 5d 96 38
       -0.00040622376 0.00010610937 -1.683389e-05 7.169943e-05
000310 02 ae ba 38 84 46 ba b6 ad 96 55 39 38 2a 50 36
       8.9015826e-05 -5.551441e-06 0.00020369394 3.101899e-06
000320 cb e5 8a b9 a0 bc bf 39 da ae 54 b7 10 29 66 37
       -0.0002649262 0.00036570895 -1.26768955e-05 1.3718629e-05
000330 a0 d9 b5 38 24 7a fd 37 d7 c7 49 39 7e 10 8c b8
       8.6712884e-05 3.0216826e-05 0.000192433 -6.678792e-05
000340 31 4b 31 b8 63 85 2e b9 34 af 38 b8 cc f7 9d b8
       -4.2270116e-05 -0.00016643624 -4.403219e-05 -7.532499e-05
000350 57 46 11 39 2f e3 0f 39 e4 3e 6d b5 ec b9 a3 b5
       0.00013854481 0.00013722175 -8.83809e-07 -1.2198557e-06
000360 2c 15 65 b9 92 96 54 39 24 bd 98 b8 4e c3 21 b9
       -0.00021847029 0.00020273987 -7.283155e-05 -0.00015426913
000370 a0 fa f0 b7 77 e8 ad 39 11 f0 77 38 08 1e c5 b5
       -2.8726936e-05 0.0003317033 5.911297e-05 -1.4686384e-06
000380 ae 6a 2f b9 bb f8 41 b9 70 63 ea b7 ec c9 1d b7
       -0.00016729042 -0.00018498574 -2.7941278e-05 -9.404943e-06
000390 5e a1 cb 39 be 57 3e b8 40 72 af b8 79 1b bd 38
       0.00038839405 -4.5381246e-05 -8.365931e-05 9.0173395e-05
0003a0 a0 bd 9d 36 9f 15 ef b8 c6 7e 4b b8 bb bc 50 b9
       4.70104e-06 -0.00011400435 -4.851704e-05 -0.00019906733
0003b0 10 41 0f 35 99 1b e2 b8 b4 05 37 36 a1 01 28 36
       5.336633e-07 -0.0001078166 2.7272445e-06 2.50349e-06
0003c0 e2 a7 4a 39 00 65 01 b7 0b d9 d4 b8 c0 ab 7c 37
       0.00019326762 -7.712515e-06 -0.00010149375 1.5060359e-05
0003d0 58 df 61 b8 03 80 37 3a f1 f0 16 38 d4 a8 6b b8
       -5.3852185e-05 0.0006999971 3.598718e-05 -5.61856e-05
0003e0 a4 83 cf 39 d9 0a aa 39 74 83 65 37 4c 64 64 37
       0.00039580197 0.0003243301 1.368007e-05 1.3613211e-05
0003f0 f6 af 2d 39 09 df 88 b8 9c 04 3a 39 56 e9 de 38
       0.00016564116 -6.526529e-05 0.0001774006 0.00010629247
