cebra_models/reach1_4/01/A/cebra_trialID_SucessFailure_shuffled_model_1000_32_A_02.pt (torch, 207819 bytes, 31 tensors)

net.0.weight f4 [32, 12, 2]
-0.060652066 0.1514599 0.107746534 0.014604694 -0.15224075 0.05002724 -0.19980821 -0.02166639
0.11725464 -0.02649534 -0.10039629 -0.19874825 -0.05376182 -0.037286717 -0.045428693 -0.012730364
0.06423934 0.14520752 -0.096334174 0.13037376 0.1527589 0.23364408 -0.16632788 0.055532537
0.1275763 0.03761221 -0.1783525 -0.033694096 -0.1144336 -0.14083058 0.16878104 -0.16421965
-0.2032789 0.015851807 0.062243756 -0.0776727 0.08430947 -0.1954737 0.030697392 0.065476835
0.0059106667 0.05052967 0.12509139 0.11190038 -0.09844859 -0.18055299 0.053188253 -0.1633063
0.009379127 -0.15847215 0.17452891 -0.028149027 -0.20728558 0.028350176 -0.008028443 0.06172535
0.17816533 -0.13569427 -0.20674695 0.16706721 -0.06723492 -0.15812807 0.09102145 -0.060772706
0.18064627 -0.1434032 -0.061543576 0.15651491 -0.04466806 0.1730081 0.12999286 0.12790197
0.14014982 0.07835503 0.060939815 0.006392614 -0.19952868 0.08825374 -0.14383602 -0.12925711
-0.15612498 0.18347745 -0.10888627 -0.19255836 -0.15588199 -0.1714652 0.10845106 0.077247545
-0.2311234 -0.13455956 0.0032404084 0.022655671 -0.05188424 -0.039708734 0.15215155 -0.106275834
0.016542086 -0.09834284 -0.14624135 -0.0024025748 -0.17146356 0.08442925 -0.096576564 0.13996752
0.0190297 -0.161965 -0.056524184 0.14815061 0.037747774 -0.12453806 -0.095830396 -0.16265588
-0.13530904 0.19096124 -0.10243868 0.12697081 0.24392 -0.14762118 -0.022764644 0.07940682
-0.0914919 -0.042474717 0.007603461 -0.1914355 -0.007073912 0.15261172 -0.022410437 0.19498284
-0.20623544 0.03345137 -0.09898668 -0.068377346 -0.11531555 -0.17432608 0.19447634 -0.15441237
-0.1705367 -0.027179787 -0.14692588 0.10006442 -0.08546492 0.1329576 -0.19883701 0.18791658
0.0404021 -0.12354582 -0.1301843 -0.026193924 -0.15731242 -0.13914414 -0.024960795 0.12955433
-0.107611194 -0.08160381 -0.016405245 0.08315727 -0.04065593 0.20339768 -0.18304479 0.14344043
-0.14325437 -0.18900055 -0.16240014 0.094908856 0.08962185 -0.053165086 -0.11682962 -0.07349665
0.10398801 0.047862947 -0.15105687 -0.124586664 0.08304093 -0.040410627 0.1471831 -0.16611607
0.045552593 0.1623384 -0.17918584 -0.08277836 -0.105220124 0.19848223 0.20206699 -0.13218085
0.06801765 -0.21172886 0.19525386 -0.096186146 0.17830406 0.06765382 -0.0798296 0.016595086
0.18720546 -0.05357508 0.18142672 -0.1033229 0.13970129 0.15060432 0.13420577 0.041246712
-0.17499202 -0.0076535633 0.11683496 0.10459304 -0.047372703 0.08710354 -0.21534806 0.17664754
-0.18313172 -0.015314914 -0.09687894 -0.016879844 -0.17389473 0.16030681 -0.084834345 0.07467742
-0.099055015 0.16069677 0.14027424 -0.15156294 0.15045345 0.12566096 -0.04723701 0.043347504
0.05485171 -0.16498749 -0.01773601 -0.06385344 0.15296681 0.029208085 0.0025869294 -0.14553872
0.06178913 -0.04695507 0.05656029 0.051335003 -0.045560848 -0.008729654 -0.12352047 0.0116660455
-0.032351267 0.12396999 -0.0752206 0.15351628 0.04583997 -0.048048582 0.18528779 0.10525601
-0.014394395 -0.12939592 -0.17633936 0.12975179 -0.107746765 -0.023479467 -0.05817805 0.07628825
00000000: 4d6e 78bd 4e18 1b3e 37aa dc3d 8748 6f3c
00000010: 00e5 1bbe 5de9 4c3d 869a 4cbe b77d b1bc
00000020: 3323 f03d c10c d9bc 929c cdbd a984 4bbe
00000030: 5b35 5cbd f5b9 18bd 7013 3abd 0493 50bc
00000040: ea8f 833d 48b1 143e da4a c5bd b380 053e
00000050: d46c 1c3e 6540 6f3e db51 2abe 1676 633d
00000060: 5da3 023e 430f 1a3d 0aa2 36be d202 0abd
00000070: 2a5c eabd e435 10be f0d4 2c3e 3229 28be
00000080: 5828 50be a6db 813c 4ff3 7e3d dd12 9fbd
00000090: 72aa ac3d 422a 48be 1979 fb3c b818 863d
000000a0: 44ae c13b 33f8 4e3d f517 003e 072c e53d
000000b0: 6a9f c9bd e2e2 38be eddb 593d c439 27be
000000c0: e9aa 193c 8646 22be b5b7 323e ca98 e6bc
000000d0: ac42 54be a13e e83c bb89 03bc b8d3 7c3d
000000e0: f970 363e 70f3 0abe 79b5 53be ab13 2b3e
000000f0: 76b2 89bd 53ec 21be 7469 ba3d cdec 78bd
00000100: 56fb 383e 4ad8 12be 1e15 7cbd 7245 203e
00000110: dbf5 36bd 0929 313e d91c 053e bcf8 023e
00000120: 6f83 0f3e 9a78 a03d 079c 793d 2279 d13b
00000130: 3f51 4cbe 60be b43d c049 13be fa5b 04be
00000140: 3adf 1fbe 83e1 3b3e c4ff debd 052e 45be
00000150: 879f 1fbe 9394 2fbe 971b de3d f633 9e3d
00000160: 9dab 6cbe fbc9 09be 085d 543b 6398 b93c
00000170: 9284 54bd a0a5 22bd 9ecd 1b3e 25a7 d9bd
00000180: 4583 873c f967 c9bd 4bc0 15be 8474 1dbb
00000190: 2594 2fbe 3ee9 ac3d efc9 c5bd a553 0f3e
000001a0: 2ce4 9b3c 27da 25be e785 67bd cbb4 173e
000001b0: 699d 1a3d cf0d ffbd ba42 c4bd 438f 26be
000001c0: 748e 0abe 588b 433e 5fcb d1bd a304 023e
000001d0: 2ac6 793e 022a 17be eb7c babc 0ba0 a23d
000001e0: 1b60 bbbd f8f9 2dbd 7426 f93b ab07 44be
000001f0: 46cc e7bb 3f46 1c3e 1896 b7bc 95a9 473e
00000200: 622f 53be 4e04 093d 87b9 cabd 6c09 8cbd
00000210: 8f2a ecbd 8982 32be ce24 473e 471e 1ebe
00000220: 2ca1 2ebe 25a8 debc bd73 16be 93ee cc3d
00000230: 3b08 afbd 0926 083e ee9b 4bbe 346d 403e
00000240: ac7c 253d 9705 fdbd 084f 05be a494 d6bc
00000250: 8216 21be cd7b 0ebe 957a ccbc e4a9 043e
00000260: 4263 dcbd e61f a7bd 4b64 86bc 5c4e aa3d
00000270: d586 26bd 7b47 503e 1870 3bbe 0ce2 123e
00000280: 46b1 12be 5c89 41be 394c 26be 935f c23d
00000290: a98b b73d a2c3 59bd 5e44 efbd 6985 96bd
000002a0: aaf7 d43d f00b 443d a7ae 1abe 4b27 ffbd
000002b0: 5d11 aa3d 9d85 25bd 2bb7 163e 551a 2abe
000002c0: 5b95 3a3d 0a3c 263e 7e7c 37be b387 a9bd
000002d0: a67d d7bd ed3e 4b3e a6ea 4e3e 6b5a 07be
000002e0: d64c 8b3d 73cf 58be a1f0 473e 3efd c4bd
000002f0: 5795 363e 168e 8a3d b47d a3bd 6bf2 873c
00000300: cab2 3f3e 8b71 5bbd edc7 393e f59a d3bd
00000310: db0d 0f3e 0538 1a3e 3d6d 093e 50f2 283d
00000320: 1c31 33be beca fabb 2b47 ef3d e034 d63d
00000330: e109 42bd 5763 b23d 3484 5cbe 18e3 343e
00000340: e286 3bbe 68eb 7abc 7768 c6bd 9947 8abc
00000350: 7611 32be 7827 243e a1bd adbd 7af0 983d
00000360: 5bdd cabd b28d 243e 0da4 0f3e 5133 1bbe
00000370: 7810 1a3e 44ad 003e 987b 41bd 278d 313d
00000380: 30ac 603d 7bf2 28be 1c4b 91bc 98c5 82bd
00000390: 55a3 1c3e cb45 ef3c 7989 293b 1a08 15be
000003a0: 9916 7d3d f653 40bd c3ab 673d a744 523d
000003b0: 039e 3abd d306 0fbc 4df8 fcbd f122 3f3c
000003c0: c382 04bd fae3 fd3d 420d 9abd 5f33 1d3e
000003d0: b1c2 3b3d 97ce 44bd 15bc 3d3e 7790 d73d
000003e0: 78d6 6bbc 5d80 04be 4e92 34be a7dd 043e
000003f0: 56aa dcbd 0358 c0bc 1b4c 6ebd 043d 9c3d

net.0.bias f4 [32]
0.08962537 0.15896088 0.20735528 -0.018224511 -0.16616476 -0.08811947 -0.020102017 -0.15769836
0.1302114 -0.09130159 0.093136914 0.08651604 -0.13026138 0.113606185 0.07558639 -0.12305083
-0.076232105 -0.14549227 0.019426495 -0.107339896 -0.11655164 0.1893582 0.16323811 -0.18395057
-0.19234894 0.12944604 -0.13051811 0.017408578 0.1085944 -0.07238814 0.058914255 0.11326498
00000000: 828d b73d a4c6 223e f154 543e 924b 95bc
00000010: 1827 2abe fb77 b4bd fcac a4bc ae7b 21be
00000020: 2356 053e 54fc babd 91be be3d 522f b13d
00000030: 3d63 05be 5caa e83d 0acd 9a3d 1302 fcbd
00000040: 941f 9cbd edfb 14be 5024 9f3c 05d5 dbbd
00000050: a0b2 eebd 1ee7 413e e427 273e 8a5d 3cbe
00000060: 1ff7 44be 818d 043e 8aa6 05be 6f9c 8e3c
00000070: be66 de3d 3c40 94bd 1350 713d 78f7 e73d

net.2.module.0.weight f4 [32, 32, 3]
-0.05454033 0.027657375 -0.040948108 0.08079517 -0.011768945 0.017762989 -0.049106386 0.030084645
0.056652546 -0.08614632 -0.0510047 0.03567834 0.058377035 -0.08807476 0.075123526 -0.016397692
-0.04820824 0.013601534 -0.04086943 -0.016738925 -0.0011160505 -0.08842601 -0.09275861 0.026573328
-0.041228015 0.011962404 -0.063497916 0.052616153 0.069173865 0.08587779 0.041899994 -0.09954724
0.0018227522 -0.0044468767 -0.046086084 -0.07524586 0.04709691 -0.06939719 0.05470967 0.086927466
0.01540816 -0.0080185905 -0.035364863 -0.05075765 -0.051017918 0.10418434 -0.0055217072 0.063105196
0.02355665 -0.0068287365 -0.08370951 -0.010360446 0.07154504 -0.105081305 0.088893354 -0.08261553
-0.022504665 -0.029354475 -0.020126287 -0.059118874 -0.058972947 -0.08284771 -0.07523486 -0.065807536
0.06050316 -0.015302135 0.044766266 -0.031245692 -0.081373096 -0.08745877 -0.020555966 -0.04649839
-0.017463287 -0.07370499 -0.06396068 -0.025814708 0.03271593 0.03478693 0.08108997 0.062311694
0.07398936 0.03085344 0.028438384 -0.0045794114 -0.020738464 0.07240415 -0.05229718 -0.08685902
-0.0068487255 0.09248887 -0.079666905 -0.063516706 0.0038281542 -0.08532539 -0.03767206 0.07818233
0.021133117 -0.0136873545 0.07353601 0.05946764 -0.037901137 -0.056212075 0.030442845 0.004583552
-6.362409e-05 0.079619 -0.045302242 0.014933655 -0.066353925 -0.05093395 0.0775423 0.09486785
0.01061955 0.10577295 0.099114716 -0.09753023 -0.01634253 0.047908682 -0.011118162 0.05422999
-0.0020725902 0.0039607706 0.0850195 -0.07925643 -0.076821215 0.038198132 -0.076009296 -0.022733215
-0.0075385976 0.081504956 -0.027691906 0.048780143 -0.064124644 -0.009649383 -0.0664583 -0.10497897
0.0368016 0.0032291608 0.07259532 -0.07715545 -0.10030154 0.0073474334 -0.06341548 0.001446514
0.077603295 0.07982868 0.043228503 0.054335915 -0.02832403 0.0680613 0.06778932 -0.009785276
0.11606739 0.019736774 -0.10067561 -0.06953462 0.09684672 -0.09158946 -0.029917225 0.055673037
0.00786016 0.025900945 -0.0025905224 -0.04615419 -0.036244556 -0.076988064 -0.020504046 0.009593887
0.055894196 0.0148836095 -0.023840377 0.025774313 0.09035516 -0.036278557 0.051632006 0.08791202
-0.095386066 -0.093619384 -0.040126387 0.059312083 -0.090897694 0.08693873 -0.029399741 -0.10315377
-0.025281817 0.08983826 0.10233776 0.049178198 -0.023216171 -0.054119106 -0.11089944 -0.042668812
0.02873733 0.06691142 -0.040051874 0.054836206 -0.009715685 -0.0673518 0.068490386 -0.060350996
-0.11148967 0.041864745 0.04387523 0.0467112 -0.00040621095 0.022528708 0.064114936 -0.044061933
0.09515979 -0.01316286 0.08800601 0.016448233 -0.032438222 0.10311287 -0.005086037 -0.06640952
-0.026923975 -0.054259263 -0.039880536 0.11678368 -0.08463728 -0.0027003044 -0.06587045 0.03557056
-0.05946102 0.08341435 -0.014428448 0.068890564 0.08165737 0.03036667 -0.0803932 -0.082517266
-0.034620438 -0.054778684 0.10771259 -0.034251086 0.046523534 -0.03760098 0.015794866 -0.027809573
0.01905365 -0.07776856 -0.07096552 -0.043353785 0.04300719 -0.104501694 0.033651277 -0.10560065
0.050853856 -0.018331943 -0.075360745 -0.084046505 0.01031553 -0.027184783 0.08404214 0.104558624
00000000: ae65 5fbd b891 e23c 34b9 27bd f077 a53d
00000010: 88d2 40bc b083 913c c723 49bd 1374 f63c
00000020: 800c 683d 7b6d b0bd 4eea 50bd 7323 123d
00000030: c21c 6f3d 8a60 b4bd 5dda 993d 7454 86bc
00000040: 0176 45bd f8d8 5e3c b466 27bd 1220 89bc
00000050: 7148 92ba b218 b5bd 3af8 bdbd 4fb0 d93c
00000060: b5de 28bd f5fd 433c 320b 82bd 0984 573d
00000070: 07ab 8d3d b2e0 af3d 549f 2b3d 6cdf cbbd
00000080: 6ae9 ee3a 1bb7 91bb c3c4 3cbd 801a 9abd
00000090: b1e8 403d 1d20 8ebd 3f17 603d 0707 b23d
000000a0: 8272 7c3c 6860 03bc bfda 10bd 41e7 4fbd
000000b0: 2af8 50bd 995e d53d 70ef b4bb 4c3d 813d
000000c0: e0f9 c03c 98c3 dfbb e46f abbd dcbe 29bc
000000d0: 3586 923d de34 d7bd b80d b63d 5532 a9bd
000000e0: b45b b8bc cc78 f0bc e2df a4bc a226 72bd
000000f0: 9e8d 71bd 0fac a9bd bc14 9abd 1ac6 86bd
00000100: 29d2 773d ceb5 7abc d55c 373d f7f6 ffbc
00000110: f0a6 a6bd 951d b3bd fc64 a8bc 1975 3ebd
00000120: 2b0f 8fbc a4f2 96bd d1fd 82bd 5e79 d3bc
00000130: 2401 063d bd7c 0e3d 8012 a63d 8c3a 7f3d
00000140: bc87 973d 5ac0 fc3c 9df7 e83c e30e 96bb
00000150: b6e3 a9bc a148 943d 9135 56bd 24e3 b1bd
00000160: 466b e0bb ce6a bd3d 6728 a3bd 0c15 82bd
00000170: c5e1 7a3b 14bf aebd 054e 1abd 0f1e a03d
00000180: 5c1f ad3c ed40 60bc 0c9a 963d 5794 733d
00000190: 393e 1bbd a23e 66bd 4663 f93c 9f31 963b
000001a0: ec6d 85b8 490f a33d d88e 39bd 4aac 743c
000001b0: 91e4 87bd 1ea0 50bd 7fce 9e3d 134a c23d
000001c0: 9ffd 2d3c 7d9f d83d a8fc ca3d eebd c7bd
000001d0: c5e0 85bc e53b 443d f428 36bc 4420 5e3d
000001e0: 4bd4 07bb 5ac9 813b b41e ae3d 3251 a2bd
000001f0: 7154 9dbd a575 1c3d c3aa 9bbd 023b babc
00000200: 5706 f7bb 12ec a63d 23da e2bc b0cd 473d
00000210: c853 83bd 7218 1ebc 4a1b 88bd 37ff d6bd
00000220: 46bd 163d 54a0 533b dbac 943d ad03 9ebd
00000230: e56a cdbd bdc2 f03b fadf 81bd f598 bd3a
00000240: 7aee 9e3d 387d a33d 5f10 313d 568f 5e3d
00000250: cc07 e8bc b963 8b3d 21d5 8a3d 6c52 20bc
00000260: bdb4 ed3d 04af a13c 042f cebd 2b68 8ebd
00000270: 9357 c63d 4193 bbbd f814 f5bc 6909 643d
00000280: e7c7 003c 382e d43c c1c5 29bb 2d0c 3dbd
00000290: 2c75 14bd ebab 9dbd 1af8 a7bc ae2f 1d3c
000002a0: 50f1 643d 62da 733c e54c c3bc a724 d33c
000002b0: 200c b93d d398 14bd 157c 533d 380b b43d
000002c0: c559 c3bd 85bb bfbd 915b 24bd 3af1 723d
000002d0: 9228 babd ef0c b23d bad7 f0bc 4942 d3bd
000002e0: d01b cfbc 1ffd b73d 7696 d13d 146f 493d
000002f0: d72f bebc ffab 5dbd 3f1f e3bd 7ec5 2ebd
00000300: 8d6a eb3c db08 893d 6f0d 24bd ee9b 603d
00000310: 892e 1fbc beef 89bd b044 8c3d 9b32 77bd
00000320: b254 e4bd 5e7a 2b3d 83b6 333d 3e54 3f3d
00000330: b6f8 d4b9 208e b83c b14e 833d 497a 34bd
00000340: 23e3 c23d 09a9 57bc 7f3c b43d 72be 863c
00000350: f1dd 04bd d72c d33d c5a8 a6bb b701 88bd
00000360: ab8f dcbc f63e 5ebd c659 23bd 482c ef3d
00000370: 4f56 adbd 97f7 30bb 16e7 86bd 6fb2 113d
00000380: 668d 73bd 25d5 aa3d 4c65 6cbc 7f16 8d3d
00000390: fb3b a73d 86c3 f83c 31a5 a4bd d0fe a8bd
000003a0: 29ce 0dbd 9d5f 60bd 6b98 dc3d de4a 0cbd
000003b0: 768f 3e3d 7c03 1abd 3c64 813c e7d0 e3bc
000003c0: 6616 9c3c 1f45 9fbd 5f56 91bd bd93 31bd
000003d0: 4f28 303d fc04 d6bd ecd5 093d 2745 d8bd
000003e0: 224c 503d df2c 96bc bc56 9abd 9320 acbd
000003f0: 7802 293c 9fb2 debc 491e ac3d d522 d63d

net.2.module.0.bias f4 [32]
0.05732494 0.0061530154 0.08885746 0.05073333 -0.0031812645 -0.06782189 -0.0019013982 0.10580609
-0.049680542 0.069625035 0.08902477 -0.07451861 0.057455137 0.024267904 -0.078053735 0.034997452
-0.010746534 0.09056797 -0.05051238 -0.07025637 0.09633277 0.05373345 -0.06413136 -0.031572014
0.07572478 0.06389168 0.055098373 -0.052871853 0.083264455 0.04399639 0.05765362 -0.059499323
00000000: 8ecd 6a3d 3c9f c93b e6fa b53d c1cd 4f3d
00000010: c37c 50bb 34e6 8abd 5638 f9ba ddb0 d83d
00000020: d37d 4bbd 9297 8e3d 9e52 b63d 379d 98bd
00000030: 1456 6b3d 7ccd c63c a3da 9fbd 7d59 0f3d
00000040: 3b12 30bc b37b b93d 12e6 4ebd 92e2 8fbd
00000050: 1e4a c53d 9b17 5c3d 4d57 83bd a851 01bd
00000060: 9815 9b3d a4d9 823d d5ae 613d 2890 58bd
00000070: 8e86 aa3d 8f35 343d 3426 6c3d 90b5 73bd

net.3.module.0.weight f4 [32, 32, 3]
-0.09125335 -0.06594191 -0.044727765 -0.08479734 -0.05580226 -0.012004732 0.026393194 -0.0771231
0.07223575 -0.072850466 0.059538383 0.0014411864 -0.088319205 0.0066103786 -0.067600824 -0.09202311
-0.07422538 0.06704113 0.091989614 -0.090884686 -0.048859406 0.029966924 -0.029421452 0.037799217
0.03050548 0.0019263152 -0.018074527 0.0644018 -0.07481515 -0.05924817 0.085654356 -0.016635155
-0.06563936 -0.021196082 -0.03890962 0.08788323 0.070703425 -0.094552785 -0.053845517 -0.0022989267
0.048731048 -0.0077733397 0.050927445 0.085103735 0.055657927 0.04862928 -0.013938422 -0.05043764
-0.10375378 -0.10413505 -0.0805994 0.0031140086 0.08736752 -0.017457983 0.08522555 -0.087365046
-0.046655107 -0.10124026 0.08743234 -0.027513688 -0.058790017 -0.07939281 0.008940711 -0.07757929
-0.086650275 -0.015039813 -0.09128802 -0.08576434 -0.024696631 -0.0588391 0.009869898 0.06258486
0.09117614 -0.016758224 -0.012423722 -0.035802547 0.065277465 -0.060474366 -0.078541435 0.0006396005
-0.071616694 0.012672649 -0.07260913 0.086307496 -0.09475593 0.0017623312 0.047557987 -0.08824952
-0.013686145 -0.079068035 -0.07817461 -0.056860298 0.029270308 0.026742544 0.0048933947 0.091883846
0.082147144 -0.02167809 -0.10788662 0.025222685 -0.07831589 0.07333978 -0.06403358 0.046678968
0.010499896 0.06726196 -0.098326266 0.081092216 -0.07591742 -0.017827371 0.07648699 0.06815543
0.019709308 0.07581805 -0.04390447 0.046368554 -0.10137783 -0.07751401 0.04672911 0.07417306
-0.07549682 -0.0093183555 0.10754175 -0.0882882 0.06769168 -0.032626417 0.09200201 -0.0020710912
0.04685665 0.06396075 -0.006868958 0.01175582 -0.07963716 -0.061204717 0.06649529 -0.0403391
0.015927233 0.05266697 0.026686657 0.00821077 0.076233186 -0.099474475 -0.061238848 -0.05878609
0.08594008 -0.055644847 -0.036854617 0.019070936 -0.101980664 0.091710575 0.046713896 -0.0027158482
0.08262736 -0.056108985 -0.03251878 -0.06838344 -0.07516731 -0.0020449506 0.09912151 -0.0025196979
-0.09985179 -0.049611993 0.020308748 -0.052474752 0.03017286 -0.096771955 -0.007032321 0.033671394
-0.10379443 -0.014585897 0.09909448 -0.013883395 0.051836055 0.1086593 0.06880167 0.06968526
0.06070805 -0.033978827 -0.046965163 0.012065215 0.06642278 -0.066567585 -0.08181046 0.075556196
0.03309998 -0.043707673 0.009376158 -0.07591639 -0.03529521 -0.088258944 -0.10271486 0.03669053
0.0535911 -0.07420745 0.02184528 -0.09007016 -0.08813733 0.026140826 -0.10180012 -0.04604061
-0.09513776 -0.031429864 0.019379025 0.020485291 -0.033144142 -0.08842987 0.010179786 -0.009003452
-0.073889494 0.016617188 0.027458325 -0.041460566 -0.0032133323 -0.07646062 0.06892997 -0.11817533
-0.0071890447 -0.09633383 0.031806186 -0.032606125 -0.04511343 0.020012131 0.024160933 -0.07626378
-0.10103648 -0.07065416 0.05273937 0.029432608 0.060579557 -0.056464054 -0.0016411614 -0.067267776
-0.009197576 -0.057545554 0.078058384 0.0039674286 0.07882715 -0.03615559 0.07708296 -0.023863172
0.04103138 -0.10793069 0.00095659896 0.0027958804 0.0082173385 0.029308697 -0.015386534 0.04276565
0.07649935 -0.047349963 0.0068619307 0.07718357 -0.06280068 -0.089998454 0.004732236 0.058426272
00000000: 09e3 babd 8d0c 87bd 7634 37bd 3aaa adbd
00000010: e990 64bd 7faf 44bc 8a36 d83c b7f2 9dbd
00000020: 56f0 933d a032 95bd 85de 733d 31e6 bc3a
00000030: b3e0 b4bd e09b d83b 4d72 8abd 9d76 bcbd
00000040: 7a03 98bd dc4c 893d 0d65 bc3d c021 babd
00000050: cd20 48bd 327d f53c 4205 f1bc 5ad3 1a3d
00000060: a1e6 f93c 6a7c fc3a 0811 94bc 17e5 833d
00000070: af38 99bd 36ae 72bd 8d6b af3d 7346 88bc
00000080: ee6d 86bd 68a3 adbc b25f 1fbd 1ffc b33d
00000090: f5cc 903d e4a4 c1bd 1e8d 5cbd 97a9 16bb
000000a0: 359a 473d 80b7 febb 4c99 503d de4a ae3d
000000b0: 91f9 633d 7f2f 473d fb5d 64bc b397 4ebd
000000c0: dd7c d4bd c244 d5bd 4c11 a5bd 6514 4c3b
000000d0: beed b23d 0b04 8fbc bc8a ae3d 72ec b2bd
000000e0: 6d19 3fbd 0e57 cfbd ba0f b33d 6364 e1bc
000000f0: cdcd 70bd b398 a2bd 0f7c 123c e4e1 9ebd
00000100: b375 b1bd 8c69 76bc 37f5 babd 37a5 afbd
00000110: 9750 cabc 4501 71bd 5ab5 213c 7e2c 803d
00000120: 8eba ba3d 8b48 89bc de8c 4bbc b1a5 12bd
00000130: 31b0 853d f8b3 77bd 55da a0bd ddaa 273a
00000140: c6ab 92bd f1a0 4f3c 18b4 94bd fcc1 b03d
00000150: 660f c2bd 06fe e63a 2acc 423d 2abc b4bd
00000160: da3b 60bc 6cee a1bd 031a a0bd 58e6 68bd
00000170: 49c8 ef3c 2e13 db3c c558 a03b 992d bc3d
00000180: c33c a83d 4096 b1bc a9f3 dcbd ce9f ce3c
00000190: 1564 a0bd 2b33 963d 0a24 83bd 7232 3f3d
000001a0: c107 2c3c a3c0 893d 485f c9bd ad13 a63d
000001b0: 987a 9bbd b50a 92bc 36a5 9c3d 1395 8b3d
000001c0: 6a75 a13c 7e46 9b3d 2cd5 33bd f4ec 3d3d
000001d0: 2e9f cfbd aabf 9ebd 0667 3f3d 0ce8 973d
000001e0: 149e 9abd 04ac 18bc d93e dc3d 72d0 b4bd
000001f0: efa1 8a3d 47a3 05bd 8d6b bc3d 25bb 07bb
00000200: c2ec 3f3d dbfd 823d ff14 e1bb 7c9b 403c
00000210: cf18 a3bd ccb1 7abd af2e 883d 9d3a 25bd
00000220: d479 823c 52b9 573d fa9d da3c 7786 063c
00000230: 2520 9c3d 46b9 cbbd 96d5 7abd afc9 70bd
00000240: 5a01 b03d daeb 63bd def4 16bd a73a 9c3c
00000250: 3ddb d0bd c1d2 bb3d 1257 3f3d 5ffc 31bb
00000260: 8938 a93d 89d2 65bd 6a32 05bd 9e0c 8cbd
00000270: 52f1 99bd 9404 06bb 3800 cb3d 8421 25bb
00000280: 187f ccbd f235 4bbd 885e a63c c4ef 56bd
00000290: 132d f73c 6030 c6bd 626f e6bb 04eb 093d
000002a0: 2d92 d4bd b0f9 6ebc 0cf2 ca3d 2e77 63bc
000002b0: 0b52 543d c488 de3d e4e7 8c3d 25b7 8e3d
000002c0: 01a9 783d 622d 0bbd 8b5e 40bd 2ead 453c
000002d0: ab08 883d 9654 88bd 3e8c a7bd 35bd 9a3d
000002e0: d893 073d d106 33bd 759e 193c 0d7a 9bbd
000002f0: b691 10bd 1bc1 b4bd 2b5c d2bd cf48 163d
00000300: 5782 5b3d 13fa 97bd dff4 b23c b476 b8bd
00000310: 5881 b4bd 4925 d63c 957c d0bd 1495 3cbd
00000320: 96d7 c2bd 9abc 00bd c3c0 9e3c c5d0 a73c
00000330: 27c2 07bd b81a b5bd 1ec9 263c 3783 13bc
00000340: 6053 97bd c520 883c 48f0 e03c 8ed2 29bd
00000350: c596 52bb 6397 9cbd 282b 8d3d e805 f2bd
00000360: 1492 ebbb ac4a c5bd 3447 023d 008e 05bd
00000370: dcc8 38bd 7bf0 a33c 26ed c53c 2f30 9cbd
00000380: 37ec cebd 21b3 90bd 3d05 583d a71c f13c
00000390: 4522 783d da46 67bd 3d1c d7ba b0c3 89bd
000003a0: 6eb1 16bc e3b4 6bbd 13dd 9f3d 3401 823b
000003b0: 2170 a13d e217 14bd acdd 9d3d b37c c3bc
000003c0: 8510 283d c40a ddbd 45c4 7a3a 173b 373b
000003d0: 04a2 063c cb18 f03c cd17 7cbc 092b 2f3d
000003e0: b1ab 9c3d 09f2 41bd 0cda e03b 6b12 9e3d
000003f0: a59d 80bd 1c51 b8bd df10 9b3b 6350 6f3d

net.3.module.0.bias f4 [32]
0.016769677 -0.03542584 0.039031673 -0.008800608 -0.029742226 0.031092094 -0.0043436503 0.010916533
0.066628076 0.0615798 -0.054289307 -0.011752363 0.007835594 -0.02293369 -0.0060040774 0.107233934
0.095119566 0.0073628747 -0.006565267 0.10034461 -0.047891945 0.0029735446 -0.07592346 0.05817373
0.043645985 -0.042108737 0.007778698 0.051086456 -0.09669272 -0.008353772 -0.03193127 -0.047970057
00000000: 9060 893c b01a 11bd addf 1f3d 6d30 10bc
00000010: f8a5 f3bc d9b4 fe3c 2e55 8ebb 42db 323c
00000020: 4d74 883d 1a3b 7c3d 775e 5ebd fc8c 40bc
00000030: dd60 003c 6fdf bbbc dabd c4bb 779d db3d
00000040: 0cce c23d 4544 f13b 7421 d7bb 7a81 cd3d
00000050: 582a 44bd cddf 423b c27d 9bbd 9447 6e3d
00000060: 22c6 323d 367a 2cbd 73e4 fe3b 0840 513d
00000070: d506 c6bd 42de 08bc 5dca 02bd 407c 44bd

net.4.module.0.weight f4 [32, 32, 3]
-0.0089358995 0.053365216 0.085893944 -0.05666996 -0.10565076 0.056151494 -0.09848806 -0.03064985
-0.07082329 -0.11471319 0.038152482 -0.036183465 -0.04511622 0.0674336 0.017384872 -0.093182616
-0.011215848 -0.05805622 -0.06131027 -0.08644246 0.016150352 0.0061561107 -0.05382877 0.020442516
0.08925629 -0.0358544 -0.05592541 -0.012979209 -0.08213417 -0.012050732 -0.06495276 -0.047489706
0.01991883 -0.09926823 -0.049170345 0.075931214 0.045014616 0.07277677 0.047470864 0.016628813
0.029500522 0.024572432 -0.12226498 -0.08825183 -0.1048999 -0.0055160285 -0.033409555 0.09104143
-0.09783534 0.025921194 0.07840267 0.08409174 -0.026451727 -0.07567781 -0.088115975 -0.048767317
0.020029118 -0.0076775886 0.024318114 0.03150141 -0.045181133 0.083071195 -0.03249289 0.016635556
0.08854717 -0.07991062 0.053361878 -0.013739495 -0.09412715 -0.06462891 -0.03507706 -0.0037395163
-0.10173057 -0.09530536 -0.0055470704 0.086066104 -0.06615231 0.006325778 0.09498611 -0.07642714
-0.056722797 -0.0075754365 -0.07544755 -0.040206507 -0.04569201 0.075877786 0.084649585 0.07229062
0.036262546 0.06798304 -0.004851197 0.01940717 -0.08171842 -0.012207755 -0.08622159 0.07523029
0.0141092 -0.05812728 0.024448877 -0.06550279 0.056427717 0.010505099 0.049923375 -0.03262443
0.03872452 0.021897784 0.038286973 0.08588758 0.037207928 -0.021955023 -0.11076977 -0.076690696
-0.026132887 -0.09670713 -0.025632221 0.02849021 -0.06655892 0.05543398 -0.10246358 0.013507188
-0.107973196 0.08161225 0.063867606 -0.06319307 0.049258586 -0.07761313 -0.06843471 0.05466753
-0.024220655 0.10313047 -0.102334745 -0.07585577 0.06398495 -0.08368988 -0.0629793 0.04693963
-0.03957643 -0.07537167 -0.088803604 -0.08566914 -0.033953033 -0.0438761 0.041301485 0.030824292
-0.06133241 0.05455095 -0.0014793479 -0.011260423 -0.000100451674 -0.08869891 0.08736134 0.04600997
-0.07599607 0.050608497 0.03244483 0.015725482 -0.027299322 -0.019078434 0.039479572 0.04027456
-0.08224852 -0.0178719 -0.06560414 -0.07139243 0.10368695 -0.10065506 0.034780215 0.052445337
0.036990676 0.09357441 0.012188657 0.012782923 -0.062097404 -0.10734205 -0.09540333 0.1003672
-0.13058624 -0.05660466 0.013335155 -0.018466484 0.09842797 0.013176514 0.041954152 0.0056747184
0.014056087 0.042433657 0.0014104923 -0.043181933 -0.0023643142 -0.03568661 -0.063491866 0.04350651
-0.08307378 0.061560128 -0.034286924 0.049759265 -0.08415067 0.011078565 -0.12535545 -0.083267316
0.074252784 -0.002303535 0.08440849 0.09677436 0.0407701 -0.0773664 -0.06272494 0.053388856
0.048741244 0.080764286 -0.015531128 -0.060680136 0.06277477 -0.09199245 -0.07552596 0.07661019
0.0048338547 0.002453843 0.10146857 -0.058092434 0.0035763504 0.080174476 -0.039811928 -0.057470184
-0.107710116 -0.050050605 -0.08842416 -0.04444382 -0.048612084 -0.0010545455 0.066301145 0.074596904
0.086356275 0.08532327 -0.07591811 0.09258979 -0.08028537 0.05745487 0.017491234 -0.024734078
0.08881855 0.042281833 -0.053875573 -0.09880343 -0.0126589015 -0.033164512 0.016712476 0.043155737
-0.008996485 0.03777579 0.030104918 -0.01452072 0.028397175 -0.043634944 0.00020779173 0.06798384
00000000: e167 12bc 7c95 5a3d 2ae9 af3d c31e 68bd
00000010: 6d5f d8bd 1cff 653d 1cb4 c9bd 6515 fbbc
00000020: cd0b 91bd c0ee eabd c745 1c3d 1d35 14bd
00000030: c9cb 38bd a11a 8a3d b86a 8e3c 87d6 bebd
00000040: adc2 37bc 5ccc 6dbd 7a20 7bbd bf08 b1bd
00000050: be4d 843c 33b9 c93b 8e7b 5cbd 1077 a73c
00000060: 00cc b63d 10dc 12bd 0b12 65bd c0a6 54bc
00000070: f635 a8bd 6f70 45bc f405 85bd 9184 42bd
00000080: d02c a33c 244d cbbd d866 49bd d381 9b3d
00000090: 3f61 383d fd0b 953d cf70 423d 2639 883c
000000a0: 14ab f13c 204c c93c 1066 fabd 60bd b4bd
000000b0: c2d5 d6bd cdbf b4bb 75d8 08bd ee73 ba3d
000000c0: e55d c8bd af58 d43c 9491 a03d 4a38 ac3d
000000d0: 4bb1 d8bc f8fc 9abd 2676 b4bd 3dc0 47bd
000000e0: 1b14 a43c 4894 fbbb c836 c73c 9f07 013d
000000f0: da0f 39bd 3b21 aa3d 4417 05bd 4a47 883c
00000100: 3858 b53d 2ea8 a3bd fc91 5a3d 9e1b 61bc
00000110: bcc5 c0bd 295c 84bd f7ac 0fbd ac12 75bb
00000120: 1e58 d0bd 752f c3bd 33c4 b5bb 6d43 b03d
00000130: dd7a 87bd 7948 cf3b 1488 c23d d585 9cbd
00000140: 2a56 68bd 5e3b f8bb 3f84 9abd 94af 24bd
00000150: 8c27 3bbd d065 9b3d c35c ad3d 1b0d 943d
00000160: 0988 143d b13a 8b3d caf6 9ebb c9fb 9e3c
00000170: fd5b a7bd 0903 48bc f294 b0bd 5712 9a3d
00000180: 462a 673c df16 6ebd 0349 c83c 5426 86bd
00000190: c020 673d 941d 2c3c 747c 4c3d 32a1 05bd
000001a0: 9a9d 1e3d fb62 b33c cdd2 1c3d d4e5 af3d
000001b0: 5767 183d 05db b3bc 43db e2bd 0310 9dbd
000001c0: a314 d6bc 630e c6bd aafa d1bc 4d64 e93c
000001d0: 0b50 88bd be0e 633d 6dd8 d1bd 414d 5d3c
000001e0: 0d21 ddbd 5324 a73d 05cd 823d 5e6b 81bd
000001f0: 5fc3 493d a2f3 9ebd 7f27 8cbd 0feb 5f3d
00000200: 656a c6bc 1136 d33d e194 d1bd 455a 9bbd
00000210: 8b0a 833d 9a65 abbd 4bfb 80bd c543 403d
00000220: e51a 22bd 765c 9abd aade b5bd 4d73 afbd
00000230: 5612 0bbd 6db7 33bd bf2b 293d 3a83 fc3c
00000240: b137 7bbd d170 5f3d aee6 c1ba a37d 38bc
00000250: 95a9 d2b8 c6a7 b5bd 81ea b23d f374 3c3d
00000260: d4a3 9bbd db4a 4f3d dfe4 043d bad2 803c
00000270: d4a2 dfbc 604a 9cbc 55b5 213d f0f6 243d
00000280: e971 a8bd 1768 92bc 775b 86bd 3236 92bd
00000290: d359 d43d 3d24 cebd b375 0e3d ecd0 563d
000002a0: 8983 173d f1a3 bf3d efb2 473c 776f 513c
000002b0: d959 7ebd 26d6 dbbd d262 c3bd 528d cd3d
000002c0: 66b8 05be 4ada 67bd b27b 5a3c 0647 97bc
000002d0: 9b94 c93d 4ee2 573c 1ed8 2b3d fdf2 b93b
000002e0: 804b 663c eace 2d3d 45e0 b83a 8adf 30bd
000002f0: 9cf2 1abb 1f2c 12bd 0608 82bd e233 323d
00000300: 9622 aabd 7926 7c3d 7270 0cbd 5fd0 4b3d
00000310: 3057 acbd df82 353c 2e5d 00be 0e88 aabd
00000320: d811 983d e7f6 16bb 5cde ac3d a331 c63d
00000330: 8cfe 263d 4672 9ebd ef75 80bd 46ae 5a3d
00000340: e6a4 473d bf67 a53d 4676 7ebc bc8b 78bd
00000350: 0f90 803d 8a66 bcbd 5bad 9abd cee5 9c3d
00000360: 5065 9e3b a7d0 203b c1ce cf3d 55f2 6dbd
00000370: 3461 6a3b 8432 a43d d511 23bd db65 6bbd
00000380: 1f97 dcbd dd01 4dbd ba17 b5bd b90a 36bd
00000390: 771d 47bd ad38 8aba e5c8 873d 43c6 983d
000003a0: 8fdb b03d f7bd ae3d f47a 9bbd b79f bd3d
000003b0: a86c a4bd cc55 6b3d c749 8f3c 1f9f cabc
000003c0: 80e6 b53d b72f 2d3d a2ac 5cbd 7459 cabd
000003d0: 4867 4fbc 83d7 07bd 9ae8 883c 12c4 303d
000003e0: fe65 13bc c9ba 1a3d 979e f63c 50e8 6dbc
000003f0: 31a1 e83c 8eba 32bd abe2 5939 1d3b 8b3d

net.4.module.0.bias f4 [32]
0.07094162 0.09102634 0.050553434 0.05381395 -0.0131610185 0.031316582 0.06915711 -0.02574179
0.006854782 0.018893206 -0.022017945 0.092102304 -0.0032620875 -0.06034569 -0.049128972 0.07025307
0.097414844 -0.072152145 0.06237681 0.08490953 -0.06883616 0.017736914 0.06268014 0.08174793
0.061803028 0.09177183 -0.03522423 -0.018864594 -0.056850817 0.031460613 -0.08123645 0.011526336
00000000: d749 913d 056c ba3d 1e11 4f3d 046c 5c3d
00000010: 50a1 57bc d145 003d 3ea2 8d3d 72e0 d2bc
00000020: 149e e03b edc5 9a3c fa5e b4bc 22a0 bc3d
00000030: bfc8 55bb 0b2d 77bd 763b 49bd d7e0 8f3d
00000040: 6f81 c73d 81c4 93bd d37e 7f3d 0ce5 ad3d
00000050: f9f9 8cbd 014d 913c 725e 803d 756b a73d
00000060: 2c25 7d3d dff2 bb3d 4847 10bd ec89 9abc
00000070: 67dc 68bd d8dc 003d 4c5f a6bd f5d8 3c3c

net.5.weight f4 [32, 32, 3]
-0.05394557 0.06604957 0.058008075 0.06562602 0.004900352 -0.0151177505 -0.07462301 -0.08651908
0.052403163 0.00089749513 0.06843804 0.008427892 0.03128671 0.017692853 -0.08806278 -0.011845517
0.048425514 -0.0271349 0.03825746 -0.045972496 -0.011815913 -0.10434546 -0.05230016 -0.004617217
0.044125892 -0.079104654 0.09338819 0.057171732 -0.06570897 -0.058829274 0.06742828 -0.073897384
-0.06951455 -0.1252357 0.06790712 0.0593547 0.07761724 0.031638592 -0.0219459 0.02254793
-0.020067152 0.07611416 0.08199421 -0.011610592 -0.06833563 0.025551258 0.033389285 -0.05341712
0.06372374 0.079944804 -0.008679606 0.044152256 -0.03706837 -0.091950946 -0.1191807 -0.007492061
0.031786427 0.038696792 0.08103732 -0.009469509 -0.04614701 -0.063760675 -0.06869938 -0.0068028965
-0.07255076 -0.0934768 0.06251807 0.041029517 0.064785406 0.082615525 0.03372872 -0.031849783
-0.100647315 0.08280082 0.10393063 0.09164891 -0.022686036 -0.02518057 -0.034473363 -0.095330164
0.060055643 0.02900733 -0.0002091931 0.08214779 -0.0020019906 0.009156344 -0.088669725 -0.034392614
-0.083031505 0.0838568 0.064068295 0.072115295 -0.034980647 0.120276414 0.05928492 0.068651915
0.067913726 0.040811893 0.057109255 0.07368614 -0.05101504 0.0691509 -0.0938169 -0.045251522
0.09046639 0.032823224 0.008235891 0.008811664 0.0191945 0.08977986 0.039425287 -0.070784084
0.085177615 0.039159138 -0.015401356 0.026438404 -0.047013424 0.05315949 0.0770398 -0.092730805
-0.035468154 -0.0677965 0.009404037 -0.09685845 -0.052699637 0.07222867 -0.08726776 0.101150975
0.012803462 0.0044565545 -0.0811501 0.035494406 -0.067306474 0.07606445 0.022986727 -0.04596376
0.0075997068 0.022921773 0.0688248 -0.00082452124 0.051315848 -0.095639475 -0.08169555 0.025418654
-0.0068200505 0.06403393 -0.059604593 0.020273099 -0.0922492 0.10448245 -0.0783833 -0.07324981
0.071380995 -0.0384577 0.0844751 0.048455108 0.073618144 0.07396168 0.084075615 -0.021076227
-0.045770336 -0.028069941 0.08736497 0.00872207 -0.0105285095 -0.08451767 0.04168157 0.04947369
-0.014172841 -0.0009830876 0.018650817 0.041039255 0.047003515 -0.05820788 0.04079701 0.02889485
-0.049534094 -0.032106362 0.060511332 0.08888855 0.10689227 -0.046792258 -0.06466191 -0.023131298
-0.023883866 -0.037296515 0.0037543222 -0.015550069 -0.08734022 -0.02506168 0.032369815 0.03938972
-0.08536833 0.037697542 -0.0444501 -0.080691025 0.0069904127 0.07956891 -0.06215646 0.0861262
0.08782391 -0.033052646 -0.035053205 0.109101675 0.0075571463 -0.08168515 -0.09217184 0.042559
0.038708527 0.04084519 0.038535118 -0.029986009 0.1177895 0.0932581 -0.049085777 -0.05490819
-0.022753794 -0.002330133 -0.030130642 -0.047040775 0.05493941 -0.09392017 0.0337638 -0.030479858
0.07557372 -0.105742134 -0.001850631 0.08525108 0.030487813 -0.078517005 -0.07944887 0.00038836786
-0.07318132 -0.022329213 -0.046281017 0.0737565 0.103885025 -0.08473149 0.050552066 -0.09670702
-0.00964992 0.103847206 -0.024824034 -0.07298371 0.02158854 0.013169115 -0.07819502 0.016825303
0.115606084 -0.023203785 -0.037980538 -0.058679603 -0.054160427 -0.001765318 -0.03427245 0.09262889
00000000: 08f6 5cbd ff44 873d e099 6d3d ef66 863d
00000010: 2293 a03b 71b0 77bc f3d3 98bd ea30 b1bd
00000020: b3a4 563d e145 6b3a 3e29 8c3d 2415 0a3c
00000030: 7e26 003d 9af0 903c 425a b4bd b313 42bc
00000040: d559 463d 034a debc dbb3 1c3d a84d 3cbd
00000050: 8897 41bc 13b3 d5bd b138 56bd 064c 97bb
00000060: 5abd 343d 9f01 a2bd 4f42 bf3d e82c 6a3d
00000070: 6d92 86bd f7f6 70bd d717 8a3d 8357 97bd
00000080: a55d 8ebd ca3d 00be e312 8b3d ea1d 733d
00000090: caf5 9e3d 7897 013d e3c7 b3bc 70b6 b83c
000000a0: de63 a4bc bee1 9b3d 95ec a73d 5a3a 3ebc
000000b0: 8df3 8bbd df50 d13c 34c3 083d e9cb 5abd
000000c0: 9881 823d 1aba a33d e834 0ebc ffd8 343d
000000d0: 01d5 17bd c750 bcbd 0315 f4bd f67f f5bb
000000e0: 7c32 023d 8780 1e3d e5f6 a53d 0026 1bbc
000000f0: a604 3dbd f594 82bd 43b2 8cbd d5ea debb
00000100: 7e95 94bd c470 bfbd 7909 803d 910e 283d
00000110: 36ae 843d 5432 a93d 2027 0a3d eb74 02bd
00000120: 2e20 cebd 7a93 a93d 95d9 d43d 6cb2 bb3d
00000130: 11d8 b9bc 7c47 cebc f133 0dbd 763c c3bd
00000140: e8fc 753d c8a0 ed3c d85a 5bb9 1a3d a83d
00000150: d433 03bb 7e04 163c 7998 b5bd 45df 0cbd
00000160: 6c0c aabd 1dbd ab3d 3d36 833d 2fb1 933d
00000170: de47 0fbd 7b53 f63d bfd4 723d 6099 8c3d
00000180: 5a16 8b3d 5f2a 273d 65eb 693d c2e8 963d
00000190: 26f5 50bd fd9e 8d3d 1323 c0bd a959 39bd
000001a0: 7146 b93d a571 063d d5ef 063c cc5e 103c
000001b0: c93d 9d3c 81de b73d 697c 213d 3ff7 90bd
000001c0: 9a71 ae3d 5565 203d f855 7cbc 5a95 d83c
000001d0: 2691 40bd c4bd 593d 0bc7 9d3d a6e9 bdbd
000001e0: 0e47 11bd e4d8 8abd 6413 1a3c b95d c6bd
000001f0: 93db 57bd a0ec 933d 70b9 b2bd 3e28 cf3d
00000200: 9dc5 513c 4a08 923b 0632 a6bd 9562 113d
00000210: fad7 89bd aec7 9b3d a94e bc3c 7f44 3cbd
00000220: f606 f93b 71c6 bb3c 04f4 8c3d af24 58ba
00000230: 9130 523d a1de c3bd ff4f a7bd c83a d03c
00000240: bb7a dfbb 3924 833d f223 74bd c513 a63c
00000250: 26ed bcbd e5fa d53d 6c87 a0bd ff03 96bd
00000260: 3330 923d d285 1dbd 4801 ad3d dd78 463d
00000270: 1cc5 963d 3979 973d d62f ac3d 0da8 acbc
00000280: ad79 3bbd eff2 e5bc 68ec b23d 03e7 0e3c
00000290: c57f 2cbc 9a17 adbd 4bba 2a3d eda4 4a3d
000002a0: 3435 68bc f2da 80ba 99c9 983c c718 283d
000002b0: c286 403d 636b 6ebd c41a 273d e4b4 ec3c
000002c0: 43e4 4abd f681 03bd bbda 773d 330b b63d
000002d0: 56ea da3d 3da9 3fbd 776d 84bd d97d bdbc
000002e0: 19a8 c3bc 3bc4 18bd 130b 763b b7c5 7ebc
000002f0: 6edf b2bd 274e cdbc 3696 043d 1d57 213d
00000300: 97d5 aebd bd68 1a3d 4f11 36bd 5641 a5bd
00000310: d50f e53b 06f5 a23d c697 7ebd ef62 b03d
00000320: 06dd b33d 3662 07bd f393 0fbd b370 df3d
00000330: f0a1 f73b 8b4a a7bd 97c4 bcbd 5952 2e3d
00000340: d58c 1e3d 494d 273d 00d7 1d3d 38a5 f5bc
00000350: 9f3b f13d 1afe be3d 2b0e 49bd 69e7 60bd
00000360: 2a66 babc 25b5 18bb 89d4 f6bc d4ad 40bd
00000370: 2608 613d 3859 c0bd e94b 0a3d e5b0 f9bc
00000380: 65c6 9a3d 558f d8bd df90 f2ba 1e98 ae3d
00000390: 94c1 f93c 86cd a0bd 17b6 a2bd da9d cb39
000003a0: 17e0 95bd c1eb b6bc 2a91 3dbd a60d 973d
000003b0: acc1 d43d b487 adbd af0f 4f3d 550e c6bd
000003c0: b31a 1ebc d8ad d43d c65b cbbc 7c78 95bd
000003d0: 73da b03c 46c3 573c b624 a0bd 38d5 893c
000003e0: e2c2 ec3d dd15 bebc 7b91 1bbd 065a 70bd
000003f0: 53d7 5dbd 3e62 e7ba 4561 0cbd 37b4 bd3d

net.5.bias f4 [32]
0.031779747 0.07665085 -0.0523053 0.044613093 0.07341809 0.0435982 -0.03908859 0.0138401175
-0.01608977 0.07886699 0.029767323 0.018549277 -0.008551594 -0.011450854 -0.01997635 0.047484264
0.0155415805 -0.062740654 -0.03290706 0.022296282 0.032929063 0.07266031 -0.014204356 0.04851851
0.00684341 0.027669927 -0.08151245 0.06327064 -0.07097843 0.05904089 0.024963226 -0.05969845
00000000: 7b2b 023d 1ffb 9c3d 153e 56bd 38bc 363d
00000010: 395c 963d 0794 323d 5b1b 20bd a9c1 623c
00000020: b1ce 83bc 0485 a13d 9ada f33c a7f4 973c
00000030: fc1b 0cbc 5d9c 3bbc 71a5 a3bc dc7e 423d
00000040: 1da2 7e3c 2c7e 80bd 8ec9 06bd b1a6 b63c
00000050: a0e0 063d eece 943d 63b9 68bc 58bb 463d
00000060: af3e e03b 0bac e23c 00f0 a6bd 0a94 813d
00000070: 245d 91bd dcd4 713d ae7f cc3c 5d86 74bd

exp_avg f4 [32, 12, 2]
0.00055933325 0.00021587661 -7.746398e-05 8.5599575e-05 0.00014539593 4.643656e-05 -3.6413421e-06 -6.1700426e-05
-0.0011918652 -0.0009158475 -3.1672378e-05 2.2448274e-05 0.00019556991 1.7184979e-05 -0.00021035045 -0.0003876991
-7.080818e-05 -0.00035816545 -0.0012678591 -0.0022189785 6.056273e-05 -0.0002595783 5.506477e-06 -1.5285988e-05
-0.00023144158 -0.000112522685 2.5601446e-05 -0.0002459995 -4.6807538e-05 -5.239855e-05 -2.4518107e-05 -3.84037e-05
0.00011758087 -0.00038938422 3.6917925e-05 -8.548175e-06 -0.00028789905 -8.200673e-05 0.00077294745 0.0009086999
0.00020872557 0.00029032238 0.0008193002 0.00092053646 -3.7778645e-06 4.2707787e-05 2.2740198e-06 1.749424e-06
8.581544e-05 0.00017185151 -0.00023435487 -4.5124834e-06 -6.406114e-05 3.115277e-05 2.7045882e-05 -4.5096007e-05
-0.00030529438 -0.00041221647 2.0218911e-05 -8.664616e-06 4.014144e-06 -1.0513472e-06 -0.00010080715 -5.8696918e-05
-7.758075e-05 2.4561314e-05 -0.00042235837 -0.0004973223 2.173575e-05 -5.0081722e-05 -2.4024243e-06 3.463613e-06
-9.3568e-05 -0.00085741084 -4.4111803e-05 -0.00022065217 3.6148194e-05 -0.00027560582 1.1267977e-05 -0.00010672452
0.00029114468 -0.00029930586 1.1983534e-06 2.8226726e-05 -7.334543e-07 5.787422e-05 9.779287e-06 0.00021638
9.4580115e-05 -7.374716e-05 0.0010093516 0.00053581945 -2.1863347e-05 8.4912775e-05 2.2228314e-06 2.887885e-06
-0.00017250027 -0.00014159939 7.6315344e-05 0.00015100584 -4.344165e-05 -0.000406715 -4.7766727e-05 -9.3653834e-05
-0.00014398279 0.00016928682 2.6657815e-05 3.1915097e-05 -0.00013001148 8.842778e-06 6.972236e-05 0.00010374005
-1.2274631e-05 0.00017826227 0.00022188373 0.00041335984 -6.447184e-05 6.853991e-05 5.1409637e-07 6.3447703e-07
-1.3124307e-05 2.328623e-05 0.000113902875 2.0306336e-05 0.00023430436 0.0006070861 2.462599e-05 3.7960024e-05
5.6528068e-05 -0.00016845815 -7.082892e-06 1.0545737e-05 -1.3362633e-05 -1.1165642e-05 -0.00020824316 -4.0699364e-05
-1.6200376e-05 2.2652333e-05 -1.0619042e-05 5.475278e-05 1.9817118e-05 -1.6684062e-06 0.0 1.5391535e-11
0.00017174974 -5.9328126e-05 1.1240141e-05 -5.7257585e-05 5.661743e-06 -1.0408909e-05 -1.8253922e-05 -0.00010128037
2.7616794e-05 -8.736155e-06 -1.1182407e-05 -1.2774201e-05 -3.4459244e-05 -0.0001780822 4.41202e-05 0.0001832398
6.6884536e-06 -4.9601435e-06 8.220797e-06 -0.00013772165 2.4810288e-07 -5.439965e-05 -8.560323e-11 2.9308842e-26
0.00038367312 2.4597539e-05 0.00029281876 0.00023707454 0.00033122697 0.0005327854 -0.0001781042 -4.0118888e-05
-0.0006139042 0.00030942005 2.8125583e-05 5.9511316e-05 2.6147427e-06 6.397764e-05 -0.00021690504 -0.00013971698
-4.498905e-05 -5.4561802e-05 -0.00014274145 -2.5678455e-05 0.00018243576 4.589242e-05 8.911746e-06 -8.297655e-06
-0.0007659377 -0.0008773312 -0.00083627645 -0.00024257186 -8.165452e-05 -0.00031132187 5.3873056e-05 3.871727e-05
0.00010943826 0.00017352417 3.6238118e-05 3.5311634e-05 -9.776836e-05 -4.6549234e-05 -0.00014580297 -0.0006471762
-4.7565863e-05 -0.0002535191 -0.00046571763 -0.00037462637 3.284068e-05 -4.472649e-05 -5.7079023e-06 -1.8735264e-07
-0.00011802517 0.00039570744 -0.00020734023 0.0001060068 0.00014842299 -0.00033039993 0.000106698935 -1.2895506e-05
-9.74278e-05 -0.00022641833 -1.8164592e-05 -6.4110696e-05 -9.260152e-05 -9.184912e-05 0.00022469368 3.0415795e-06
1.6019798e-05 0.000116328694 0.00058259314 0.00026587548 -1.4089734e-05 -9.690202e-05 -8.257322e-06 2.871217e-06
0.00075863523 0.0009158815 0.0004542765 0.0005399722 -8.4639236e-05 -0.00010894016 6.87797e-05 4.744829e-05
0.00039767986 0.00012147716 -5.9477015e-06 -3.7544134e-05 -3.7773094e-05 -1.5102456e-05 0.0002544053 0.00022605999
00000000: 38a0 123a f05c 6239 2874 a2b8 ec83 b338
00000010: 6c75 1839 e0c4 4238 c85d 74b6 2a65 81b8
00000020: 5c38 9cba 7c15 70ba f5d7 04b8 4d4f bc37
00000030: e611 4d39 7628 9037 8591 5cb9 1844 cbb9
00000040: da7e 94b8 27c8 bbb9 4b2e a6ba 486c 11bb
00000050: bc04 7e38 0218 88b9 47c4 b836 693a 80b7
00000060: 20af 72b9 28fa ebb8 b0c2 d637 7ef9 80b9
00000070: 3653 44b8 84c6 5bb8 3cac cdb7 a913 21b8
00000080: c095 f638 4426 ccb9 52d8 1a38 226a 0fb7
00000090: 28f1 96b9 07fb abb8 a09f 4a3a d135 6e3a
000000a0: 58dd 5a39 6936 9839 4ec6 563a 2850 713a
000000b0: 3887 7db6 2321 3338 5d9b 1836 c0cd ea35
000000c0: d0f7 b338 0a33 3439 28bd 75b9 f069 97b6
000000d0: 9058 86b8 08aa 0238 97e0 e237 7825 3db8
000000e0: eb0f a0b9 c21e d8b9 c89b a937 3e5e 11b7
000000f0: 3cb1 8636 041c 8db5 6d68 d3b8 5631 76b8
00000100: d9b2 a2b8 0509 ce37 fb6f ddb9 bc5e 02ba
00000110: 2b55 b637 d70e 52b8 5639 21b6 6b70 6836
00000120: f039 c4b8 dec3 60ba b004 39b8 de5e 67b9
00000130: d49d 1738 307f 90b9 980b 3d37 4ad1 dfb8
00000140: c7a4 9839 27ec 9cb9 1cd7 a035 6fc8 ec37
00000150: 99e2 44b5 f8bd 7238 b811 2437 10e4 6239
00000160: 5059 c638 b4a8 9ab8 384c 843a 3c76 0c3a
00000170: 2e67 b7b7 3313 b238 f42b 1536 7dcd 4136
00000180: 30e1 34b9 4c7a 14b9 7d0b a038 5257 1e39
00000190: 1e35 36b8 5d3c d5b9 2259 48b8 0568 c4b8
000001a0: 16fa 16b9 9682 3139 399f df37 93dc 0538
000001b0: b153 08b9 715b 1437 e837 9238 048f d938
000001c0: 24ef 4db7 eaeb 3a39 76a9 6839 38b8 d839
000001d0: 0e35 87b8 16bd 8f38 6f00 0a35 ee50 2a35
000001e0: 7830 5cb7 cc56 c337 24df ee38 8657 aa37
000001f0: 99af 7539 dc24 1f3a e993 ce37 4437 1f38
00000200: 8d18 6d38 24a4 30b9 94a9 edb6 98ed 3037
00000210: 1230 60b7 1154 3bb7 d95b 5ab9 9cb4 2ab8
00000220: 0be6 87b7 8405 be37 7028 32b7 5aa6 6538
00000230: f03c a637 00ee dfb5 0000 0000 a862 872d
00000240: b817 3439 17d7 78b8 0a94 3c37 dd27 70b8
00000250: 01fa bd36 eca1 2eb7 0020 99b7 7c66 d4b8
00000260: 9daa e737 8091 12b7 139c 3bb7 c750 56b7
00000270: 5588 10b8 94bb 3ab9 b40d 3938 0f24 4039
00000280: 616d e036 4f6f a6b6 0eec 0937 6069 10b9
00000290: 0033 8534 2e2b 64b8 563e bcae 5f21 1115
000002a0: bc27 c939 d056 ce37 7885 9939 3697 7839
000002b0: 88a8 ad39 9faa 0b3a 7bc1 3ab9 5445 28b8
000002c0: 6aee 20ba a839 a239 3bef eb37 ca9b 7938
000002d0: f078 2f36 bc2b 8638 0171 63b9 fe80 12b9
000002e0: a0b2 3cb8 4ad9 64b8 deac 15b9 1068 d7b7
000002f0: 3a4c 3f39 9c7c 4038 a883 1537 2836 0bb7
00000300: 35c9 48ba b3fc 65ba 9039 5bba e35a 7eb9
00000310: f03d abb8 ea38 a3b9 c1f5 6138 5a64 2238
00000320: 3882 e538 0af4 3539 62fe 1738 941b 1438
00000330: fd08 cdb8 dc3d 43b8 b0e2 18b9 42a7 29ba
00000340: 7581 47b8 c2ea 84b9 902b f4b9 8069 c4b9
00000350: 69be 0938 b498 3bb8 8286 bfb6 1a2b 49b4
00000360: 4884 f7b8 f476 cf39 7869 59b9 f84f de38
00000370: fea1 1b39 8739 adb9 8ec3 df38 c759 58b7
00000380: 2752 ccb8 b56a 6db9 2a60 98b7 2b73 86b8
00000390: 1033 c2b8 1f9f c0b8 c09b 6b39 f01d 4c36
000003a0: 4162 8637 7ef5 f338 2ab9 183a 3465 8b39
000003b0: f262 6cb7 e037 cbb8 ee88 0ab7 22af 4036
000003c0: 26df 463a c417 703a f62b ee39 ec8c 0d3a
000003d0: 5880 b1b8 ce76 e4b8 d23d 9038 3703 4738
000003e0: b07f d039 8ec1 fe38 5e92 c7b6 b578 1db8
000003f0: 8d6e 1eb8 8e60 7db7 b461 8539 840a 6d39

exp_avg_sq f4 [32, 12, 2]
9.665513e-06 1.3807778e-05 6.594851e-06 5.4357106e-06 2.1589673e-07 2.7299088e-06 9.6429254e-08 1.9565142e-07
1.1332364e-05 8.491448e-06 2.1045695e-08 1.4471272e-08 5.9921966e-08 1.0358522e-07 4.792416e-07 7.526486e-07
3.119341e-07 3.1607823e-07 1.9243518e-05 2.0194553e-05 9.1111025e-07 1.147116e-06 4.9546767e-10 7.399865e-10
2.1199676e-05 1.6946018e-05 1.8129584e-06 3.0212623e-06 2.5209286e-07 2.4846008e-07 3.267805e-07 1.7639852e-07
1.1018369e-05 1.3887214e-05 3.2763214e-08 2.7660418e-08 8.820651e-07 7.452638e-08 2.8655547e-06 2.269893e-06
3.7674909e-07 4.2461662e-07 3.3674838e-05 3.1724772e-05 2.1899943e-07 1.5563725e-07 1.4113452e-09 5.1888627e-10
1.3031996e-06 4.3710114e-07 2.048534e-06 1.391745e-06 2.7952073e-08 7.2356613e-07 8.514186e-08 1.0790578e-07
2.5891204e-06 1.8404206e-06 4.76024e-09 1.1100772e-08 5.4630758e-09 4.680065e-09 3.4689037e-07 1.2881274e-07
8.633837e-08 2.5149813e-08 5.9084973e-06 6.3825814e-06 4.4407013e-08 2.1280026e-07 2.77819e-10 2.493812e-10
1.33338235e-05 1.2796445e-05 4.808976e-06 4.216355e-06 1.494568e-07 1.598578e-06 6.7042876e-08 8.064296e-08
5.233335e-06 8.802313e-06 1.2067507e-08 7.864796e-09 2.8146845e-08 2.8213762e-08 1.0334237e-06 1.019203e-06
8.214986e-08 1.3865993e-07 1.6485921e-05 1.7555174e-05 1.2336945e-07 1.3783308e-07 4.6870796e-10 3.7824793e-10
1.2983378e-06 2.5773804e-07 4.3075676e-08 3.7012367e-07 3.7922298e-08 1.4447305e-06 1.483455e-08 7.849377e-08
6.240238e-07 1.1927213e-07 5.367371e-09 1.6452534e-08 3.2369806e-07 2.49367e-09 4.620575e-08 1.5727382e-08
1.1915688e-08 1.4005039e-07 5.19574e-07 1.2709542e-06 5.5686417e-07 2.7941221e-08 5.4179234e-11 1.2722298e-10
3.9308557e-07 5.7521885e-07 3.6839253e-07 4.0249336e-08 1.7377415e-06 3.893504e-06 3.045888e-08 1.6527962e-07
1.813523e-08 8.0205643e-07 9.360009e-10 2.3078002e-09 3.258285e-09 1.0487232e-09 1.2527086e-06 1.1921483e-07
1.1434607e-08 3.3822154e-08 1.8065329e-07 7.451462e-07 6.7349035e-08 5.914664e-07 0.0 5.5151952e-21
2.0057923e-06 1.9303306e-07 2.4667724e-08 9.359633e-08 5.7501395e-09 1.6239724e-08 2.5599093e-08 1.0874742e-07
2.7655952e-08 1.05772806e-07 2.3962448e-09 5.841011e-09 4.0684874e-08 6.067719e-07 2.621813e-08 5.918035e-07
2.925814e-09 7.3838835e-10 8.3637005e-08 6.201872e-07 4.2011902e-07 5.5768776e-08 8.3881117e-16 2.6419414e-17
1.0842836e-05 1.0199859e-05 1.0327722e-06 1.1409596e-06 2.9273967e-06 1.0538636e-06 2.624426e-07 7.9468414e-08
7.065876e-06 7.1381724e-06 8.0832985e-09 1.28128885e-08 7.5657354e-08 3.303906e-07 1.3323248e-06 3.1195992e-07
2.6503818e-07 8.8586184e-08 1.54184e-05 1.2503206e-05 9.2029705e-07 7.141228e-07 8.1129276e-10 4.692184e-10
1.92034e-05 1.2396774e-05 6.996771e-06 1.9860151e-06 5.9412823e-06 5.518866e-06 2.2865822e-07 2.8378406e-07
4.6797686e-07 1.5468206e-06 2.0187127e-08 2.150374e-08 1.2862205e-07 6.5570265e-07 2.0514332e-07 1.6504353e-06
1.15400795e-07 1.5236985e-07 1.5963997e-06 2.2601057e-06 1.0682517e-07 9.525184e-07 1.04546066e-10 4.308962e-11
3.8400904e-06 7.999152e-06 2.262463e-06 7.9322825e-07 1.7027606e-06 1.995765e-06 6.077846e-08 1.0599625e-07
2.5680679e-06 1.3055005e-06 9.410065e-09 8.001498e-09 1.8048775e-07 1.1960492e-07 4.2902622e-07 1.3389757e-07
1.4019103e-07 1.117391e-07 5.3156273e-06 5.0561275e-06 6.4578934e-08 1.2051127e-07 1.6265779e-10 3.7939377e-10
5.777924e-06 1.0869154e-05 1.2005138e-06 3.6846018e-06 1.7276831e-06 4.7857594e-07 2.3896547e-07 1.9706918e-07
1.0083678e-06 6.63378e-07 8.367116e-09 1.9878795e-08 2.5293275e-08 6.037463e-08 2.5808075e-07 9.3869824e-07
00000000: 1029 2237 f4a7 6737 5749 dd36 6664 b636
00000010: 3ed1 6734 7a33 3736 8b14 cf33 4114 5234
00000020: 2220 3e37 7e76 0e37 f9c7 b432 549d 7832
00000030: 73ae 8033 9472 de33 3ba5 0035 9e09 4a35
00000040: e577 a734 76b1 a934 246d a137 7967 a937
00000050: 0593 7435 9bf6 9935 7031 0830 ec67 4b30
00000060: f5d5 b137 4c27 8e37 c754 f335 e4c0 4a36
00000070: 6157 8734 1864 8534 5f70 af34 0e68 3d34
00000080: 89db 3837 21fd 6837 89b7 0c33 e799 ed32
00000090: 0dc7 6c35 500b a033 db4d 4036 7754 1836
000000a0: 0044 ca34 ddf6 e334 153e 0d38 3710 0538
000000b0: 1b26 6b34 3e1d 2734 4bf9 c130 60a1 0e30
000000c0: 99e9 ae35 b9aa ea34 8c79 0936 fecb ba35
000000d0: 421b f032 163b 4235 3cd7 b633 d4b9 e733
000000e0: c0c0 2d36 5f04 f735 848f a331 b6b5 3e32
000000f0: b9b5 bb31 49ce a031 403c ba34 c74f 0a34
00000100: 0569 b933 0609 d832 9b41 c636 f529 d636
00000110: 07ba 3e33 177e 6434 8cbb 982f 4919 892f
00000120: 56b4 5f37 50b0 5637 ca5c a136 377a 8d36
00000130: 5f7a 2034 b98e d635 36f9 8f33 f02d ad33
00000140: 019a af36 a5ad 1337 7551 4f32 bd1d 0732
00000150: 91c7 f132 b85a f232 2bb4 8a35 8ccb 8835
00000160: 5d6a b033 8de2 1434 3f4b 8a37 7343 9337
00000170: 8977 0434 45ff 1334 64d6 0030 aaf1 cf2f
00000180: 8c42 ae35 3f5f 8a34 3502 3933 69b5 c634
00000190: 02e0 2233 90e8 c135 0adb 7e32 6890 a833
000001a0: 9782 2735 4611 0034 e56b b831 8153 8d32
000001b0: b9c8 ad34 1b5d 2b31 c273 4633 e118 8732
000001c0: c0b5 4c32 c260 1634 da78 0b35 a795 aa35
000001d0: 6a7b 1535 6503 f032 6548 6e2e 16e2 0b2f
000001e0: 4509 d334 bd68 1a35 7cc7 c534 9dde 2c33
000001f0: 583c e935 f2a4 8236 e5d1 0233 b777 3134
00000200: cbc7 9b32 e64c 5735 9ba4 8030 4097 1e31
00000210: 5be8 5f31 ab22 9030 bd22 a835 8601 0034
00000220: ef71 4432 da43 1133 99f9 4134 0f06 4835
00000230: 86a1 9033 43c5 1e35 0000 0000 b25b d01d
00000240: 409b 0636 8644 4f34 e6e4 d332 20ff c833
00000250: c392 c531 887f 8b32 00e5 db32 8788 e933
00000260: 1590 ed32 3725 e333 2fab 2431 13b2 c831
00000270: 7ebd 2e33 0ce1 2235 4736 e132 6ddc 1e35
00000280: 770f 4931 76f7 4a30 ee9b b333 f17a 2635
00000290: b88c e134 6b86 6f33 57c5 7126 14ad f323
000002a0: a0e9 3537 1020 2b37 c89d 8a35 1323 9935
000002b0: 4b74 4436 7a72 8d35 d6e5 8c34 39a8 aa33
000002c0: 6a17 ed36 6f84 ef36 b9de 0a32 ae1f 5c32
000002d0: 1279 a233 8a60 b134 55d2 b235 727b a734
000002e0: 924a 8e34 c53c be33 c356 8137 dcc4 5137
000002f0: 550a 7735 25b2 3f35 a701 5f30 4ffa 0030
00000300: fd16 a137 bdfb 4f37 cec5 ea36 7b47 0536
00000310: 3a5b c736 b32e b936 1885 7534 fc5a 9834
00000320: 403e fb34 5a9c cf35 f667 ad32 39b7 b832
00000330: 5c1b 0a34 8b03 3035 5e45 5c34 8684 dd35
00000340: 42d2 f733 1b9b 2334 e043 d635 52ac 1736
00000350: c267 e533 91b0 7f35 34e6 e52e 9982 3d2e
00000360: 20da 8036 1934 0637 d2d4 1736 3bee 5435
00000370: 698a e435 fbee 0536 5085 8233 0ea0 e333
00000380: 1257 2c36 a838 af35 e7a9 2132 f676 0932
00000390: 18cc 4134 c06c 0034 ea54 e634 7cc5 0f34
000003a0: 6b87 1634 38f5 ef33 e45c b236 cea7 a936
000003b0: a5ae 8a33 e365 0134 19d8 322f ed92 d02f
000003c0: fddf c136 a95a 3637 5721 a135 fa44 7736
000003d0: bde2 e735 7d77 0035 2a4b 8034 f799 5334
000003e0: 4157 8735 fd12 3235 f7be 0f32 efc1 aa32
000003f0: 8044 d932 4ea7 8133 598e 8a34 dafa 7b35

exp_avg f4 [32]
-0.00038340344 0.0015221533 1.0714866e-05 -0.00064868305 0.0003870407 0.0007671031 -0.0007047482 -0.00039969594
0.00031999702 -0.0009295632 -9.337518e-05 0.0005835864 -0.0010005565 -0.0012435849 0.0014503985 -0.000780359
8.390844e-05 0.0011905778 -0.0006333083 -0.00052593014 0.0010005551 -0.00061062083 0.00072805036 0.00030270155
0.00018149434 0.00022307501 0.00027998022 6.577189e-05 -0.00093109114 9.304454e-05 0.0007947316 -0.0007108392
00000000: 8a03 c9b9 fd82 c73a 00c4 3337 620c 2aba
00000010: b9eb ca39 6b17 493a dabe 38ba 488e d1b9
00000020: 46c5 a739 eead 73ba 6bd2 c3b8 d2fb 183a
00000030: 1b25 83ba c9ff a2ba 4c1b be3a 0291 4cba
00000040: 00f8 af38 290d 9c3a 9a04 26ba 93de 09ba
00000050: 0f25 833a 1212 20ba a2da 3e3a eab3 9e39
00000060: 844f 3e39 3ee9 6939 4fca 9239 04ef 8938
00000070: 7814 74ba e820 c338 8955 503a 9c57 3aba
