cebra_models/reach1_4/01/A/cebra_trialID_model_5000_32_reach1_4_A_02.pt (torch, 364501 bytes, 31 tensors)

net.0.weight f4 [32, 45, 2]
000000 18 50 85 bd 0f 9f 5c bc d8 2e e3 bc 5b e2 f3 3d
       -0.06509417 -0.013465657 -0.027732298 0.11908408
000010 5c c5 89 3d 84 4c 8c 3d 83 a9 4f bd af 48 b9 bd
       0.067270964 0.06850532 -0.05069877 -0.090470664
000020 28 d5 9c bd 67 df a2 bd 24 6b 9c 3d 02 63 dc 3d
       -0.07657844 -0.07952767 0.07637623 0.10761072
000030 29 c1 18 bd b6 69 60 bd 1d 26 8d bd 99 3d 91 bd
       -0.037293587 -0.054788314 -0.06892035 -0.07091827
000040 e8 e3 62 3d 1b d2 33 3d 9e 9d 62 bd f9 b6 f3 bd
       0.05539313 0.043901544 -0.055326097 -0.11900134
000050 75 87 94 bc 1b 29 81 bd 2a 1a db bd 44 8e bc bd
       -0.018130997 -0.06306668 -0.1069835 -0.092068225
000060 b4 b8 ee 3d a8 2b 2b 3c ae d3 66 3d 59 43 b5 bd
       0.11656323 0.01044742 0.056354217 -0.08850736
000070 f5 9b de 3d 55 ba 5b 3d 46 7a bb bd b1 8b 1e bd
       0.1086959 0.053644497 -0.09154181 -0.03870744
000080 a8 d7 94 bb fb 0c 1b 3d ad b2 5f bd 2c 10 99 3d
       -0.00454231 0.037854176 -0.054613758 0.07473788
000090 16 6d 06 3d d3 8e 7d bc 58 47 29 3d 38 4b 8a bd
       0.032818876 -0.0154759465 0.041327804 -0.06752628
0000a0 a8 54 0a bd 6f cd bf 3d fb 9e 2d bd 4e 34 27 3d
       -0.03377214 0.09365355 -0.042387944 0.040821366
0000b0 d5 35 24 3d d1 cc a0 3d 3d 09 69 bd f9 5c d8 bc
       0.0400904 0.07851566 -0.056893576 -0.02641152
0000c0 ad 20 26 bc 19 e7 7d bd c4 bc ab 3d 5f 15 1b bc
       -0.010139626 -0.06198797 0.083856136 -0.0094655445
0000d0 f7 fa 36 bd 3c d4 94 3d 10 ee 77 bb 04 3a a3 3d
       -0.044672932 0.07267043 -0.0037831105 0.0797005
0000e0 21 5d c4 3d 04 3a c2 bc 14 98 c2 3c 24 84 bb bd
       0.095880754 -0.023709305 0.023754157 -0.09156063
0000f0 a1 23 76 3d 71 2d 9a bd a1 06 bc bd 65 05 d6 bd
       0.060092572 -0.075281985 -0.09180952 -0.10450248
000100 2d 02 3d bc 4c db ba bd 35 e5 e0 bc 73 93 e2 bc
       -0.011536163 -0.09123859 -0.027453044 -0.0276582
000110 50 d3 c0 3d 1c a6 b0 3c 6b b5 ce 3d b5 ba 96 3d
       0.09415305 0.021563582 0.100931965 0.0735983
000120 2a 7a f8 3c 0c d5 c7 bd e7 a0 04 be 9a 40 38 3d
       0.03033169 -0.09757432 -0.12952004 0.044983484
000130 7b 7e 8d 3d e1 26 df 3c e2 0c 87 bb 85 32 73 bd
       0.0690889 0.027240219 -0.004121409 -0.05937435
000140 4f aa c4 bd 21 99 25 3d 69 b1 66 3d 8d b5 27 3d
       -0.09602796 0.04042924 0.056321535 0.040944625
000150 72 1b d3 3d ba 87 6c bd b6 40 22 3d ad 42 bf bc
       0.10307969 -0.057746626 0.039612494 -0.023347223
000160 4c 45 6f 3d ce a7 23 bd 98 43 c1 3d de ff 7c bd
       0.058415696 -0.039954953 0.094367206 -0.06176745
000170 db f8 f2 bd f2 ba 99 3d 9c 02 55 3d d4 4b a7 bd
       -0.11863872 0.0750636 0.05200444 -0.0816876
000180 6e a8 02 bd 21 3c 2c bd 90 66 98 bd 06 ec 29 3b
       -0.03189891 -0.04204953 -0.07441437 0.0025928034
000190 f1 c1 da 3d ce 71 8b bd 7a 5c fa 3c 41 33 56 3c
       0.10681523 -0.06808816 0.030561674 0.013073743
0001a0 29 5c a0 bd 15 7f 59 3d f1 10 83 3d f5 19 91 3d
       -0.07830078 0.05309971 0.06399716 0.07085029
0001b0 48 c2 d5 3c a1 e7 76 bd 62 2a 91 3d 93 3a 7c bd
       0.026093617 -0.060279492 0.07088162 -0.0615793
0001c0 72 e5 31 bd f5 cb e5 3d a4 43 42 bd 46 c9 72 3d
       -0.043431707 0.11220542 -0.04742779 0.05927398
0001d0 2f 37 c2 bc 37 53 6e 3d 4d 3d 99 3d 90 fb a8 3d
       -0.023707954 0.05818483 0.07482395 0.08251107
0001e0 46 fc 63 bd 20 b1 3c 3d d1 e5 31 3b 39 75 aa 3d
       -0.05566051 0.046067357 0.0027145038 0.0832314
0001f0 83 88 a4 bd ea d5 6d bd b8 36 f8 3c d3 fa 3c bd
       -0.0803385 -0.058065332 0.03029953 -0.046137642
000200 0b 90 00 bd f2 a9 05 3e 22 38 14 3d 89 9d 8a 3c
       -0.03138737 0.1305311 0.036186345 0.016920822
000210 bb 59 28 bd 59 76 e2 3d 91 c6 35 3d 1d 15 92 bd
       -0.0411012 0.11057729 0.04437882 -0.07132933
000220 21 47 9e bd 3e 24 8d 3d 8f 75 90 3d 3c 03 77 3d
       -0.077284105 0.06891678 0.070536725 0.06030582
000230 10 e9 78 3d 29 98 dd bd 37 e7 c4 3c ff 1c 9b bc
       0.06076914 -0.10820038 0.024036033 -0.018934725
000240 ff 85 1d 3c 20 3f 3d bd 66 96 50 3d 18 21 5e 3c
       0.009614467 -0.04620278 0.05092468 0.013557695
000250 e4 b4 60 bc c2 fd b8 3d e8 3e 5e 3d 7f b7 f0 bd
       -0.013715003 0.090327755 0.05425921 -0.11753749
000260 9f e8 00 be dc e5 0b bd da 4f 0d 3e 27 fa a2 3d
       -0.12588738 -0.034154758 0.13799992 0.07957869
000270 10 59 66 3d 48 16 97 3d e4 a7 96 3d a6 1d 07 3d
       0.05623728 0.07377297 0.07356241 0.03298726
000280 1b 41 f0 3c 12 26 c0 ba 6d 1b b7 bc c0 7c b1 3c
       0.02932792 -0.0014659783 -0.022351945 0.02166593
000290 5f 0d c2 3d 49 74 f9 bc a8 46 fb bc ca e8 70 bd
       0.094752066 -0.030450957 -0.03067334 -0.058815755
0002a0 b2 24 98 3d 95 56 41 3d e1 41 d1 3d 6a d2 86 bd
       0.07428874 0.04720171 0.102176435 -0.06583102
0002b0 3b a4 15 bd 6f 5f 8f bd d8 fe ac bd 50 7a 8f 3d
       -0.036533576 -0.070006244 -0.08447045 0.07005751
0002c0 87 26 03 be 6c 35 0f bd 4c fe 26 3c 3e 50 4a bc
       -0.12807666 -0.034963056 0.010192465 -0.012348233
0002d0 78 97 98 3d 09 83 8b 3d 09 66 91 bd 9a 7d e6 bd
       0.07450765 0.06812102 -0.0709954 -0.11254425
0002e0 56 0e 79 3d 7c b6 bc 3c 9c ef cd 3c be 7e d2 3c
       0.060804687 0.023036234 0.025138669 0.025695201
0002f0 09 8d e0 3d f5 9d 12 3d 4a 94 27 bd 0e d4 bf bd
       0.109644 0.03579517 -0.040912904 -0.09366618
000300 cc fe 50 bd 0e a6 d9 bd 6a cc 01 bd 13 c6 08 3d
       -0.051024243 -0.106273755 -0.031689085 0.033392023
000310 c9 60 4c bb d8 1b 41 3a 6c 71 76 3d 27 76 a8 bd
       -0.0031185618 0.0007366515 0.06016676 -0.08225661
000320 fd cb 1c bd 58 e7 1b 3d cf c4 94 bd 17 ae 0e be
       -0.038280476 0.038062423 -0.07264101 -0.13933598
000330 00 b6 96 3c d2 c3 90 bd d3 d0 14 bd 86 36 88 bc
       0.018397331 -0.070686 -0.036331963 -0.016627561
000340 e5 a5 c2 bd 26 ec 85 bc 96 c1 aa bd 33 27 fe 3c
       -0.09504298 -0.016347956 -0.08337705 0.031024551
000350 bc 2d 51 3d 0a a7 5f bd be e9 27 bd 68 d5 9e 3c
       0.051069006 -0.05460266 -0.0409944 0.01938887
000360 81 ad f3 3c 23 4e 1d 3d 1b bf 43 bd cb 63 1b 3b
       0.029745819 0.038404595 -0.047789674 0.0023710604
000370 4d ae 25 3d 9d ec 09 bc 4a da 92 bc 9c bd 0d bd
       0.04044943 -0.008418229 -0.017926354 -0.034604654
000380 d1 72 9b 3d 7c fc d5 3d da 4a 24 3d a8 a6 ac bb
       0.07590259 0.10448548 0.040110447 -0.0052688904
000390 a5 98 ed bd 14 88 42 bd 39 17 9c bd 74 ea b2 bd
       -0.1160138 -0.047493055 -0.07621617 -0.08736125
0003a0 a4 d2 b3 bd e2 32 eb 3d 5e 4a 42 bc b2 88 90 bd
       -0.08780411 0.114843145 -0.011858551 -0.070573226
0003b0 11 d5 7a bd df c1 be 3d aa 3b 86 bc 3f 1f d7 3d
       -0.061238352 0.09314322 -0.016385872 0.105040066
0003c0 b8 10 be bd 4c de b4 3d 8c 21 b4 3d d0 3c 93 bd
       -0.092805326 0.08831462 0.08795461 -0.071893334
0003d0 67 dd cc 3d e4 80 90 bd 66 40 cc bd a0 df 8f 3c
       0.10003167 -0.07055834 -0.099732205 0.017562687
0003e0 22 04 e6 3d f7 f5 14 3d 43 b0 02 3c 00 0a 96 bd
       0.11231257 0.036367383 0.007976594 -0.07326126
0003f0 51 56 f6 3d ea 42 b1 3d 0a f1 d0 3d 1c 99 90 3d
       0.12028182 0.08655341 0.102022246 0.07060453

net.0.bias f4 [32]
000000 43 21 fb 3d 7a 98 b0 bd d4 f8 c4 bb 52 a3 fe 3c
       0.122622035 -0.086228326 -0.006011108 0.031083737
000010 47 93 1a bd 9d 77 4a bd 1e 11 d2 bc a2 30 87 bd
       -0.03773811 -0.04943048 -0.025642928 -0.06601073
000020 e5 40 60 3d b2 c8 8b 3d db 70 e0 bc 95 99 9f 3d
       0.05474939 0.06825389 -0.027397564 0.07792965
000030 4e 85 ef bd 82 11 29 3c cd 2a b9 3c d5 07 6e bc
       -0.11695348 0.010319116 0.022603417 -0.0145282345
000040 a4 28 80 3d bd 3c be 3d 24 01 9e 3d 58 75 11 be
       0.062577516 0.09288929 0.07715061 -0.1420492
000050 69 c4 09 3d 86 78 9a 3c 6b e5 03 be 05 6f 54 3d
       0.033634577 0.018856298 -0.12880485 0.05186369
000060 e0 81 d5 bc 67 96 8f bd d9 65 7a bd 28 4c 8c 3d
       -0.026062906 -0.07011109 -0.061132286 0.06850463
000070 6d 4b 7f bd f3 9b 2f 3d d3 e7 ab 3d d2 ed ad bb
       -0.06232779 0.042873334 0.08393826 -0.0053078914

net.2.module.0.weight f4 [32, 32, 3]
000000 41 e7 d6 bd 59 4e 0e 3a 96 91 5d 3c 06 b8 1f 3d
       -0.10493327 0.0005428545 0.01352348 0.038993858
000010 f6 9e 0c bc 57 39 bd bd 7b 49 de bd 65 52 15 3d
       -0.008582821 -0.09239452 -0.10853859 0.03645553
000020 53 bd d6 bc ac d6 38 3d a5 4c 14 3d 6b e9 5b 3d
       -0.026213324 0.045126602 0.036205906 0.0536894
000030 e7 2d 41 bc 0f 44 38 bd 36 e6 67 bd 81 35 76 3d
       -0.011790729 -0.04498678 -0.05661603 0.06010962
000040 99 88 20 3d 79 3f 8c bd 5a 71 89 bd 44 f7 9d 3c
       0.03919277 -0.06848044 -0.06711073 0.019282945
000050 77 d3 88 bd 49 6e f6 bc 0f ed 98 bd 31 a7 26 3d
       -0.06680959 -0.030081885 -0.0746709 0.04068679
000060 15 e5 de 3c ee a9 7c 3d 5c b9 3d 3d 28 68 ac bd
       0.027208844 0.061685495 0.04631935 -0.08418304
000070 77 8a 83 3d 84 98 87 3d 17 ef f0 b9 3f c6 32 bd
       0.064228944 0.06620887 -0.00045954503 -0.043646093
000080 01 94 eb 3d 49 cf 92 bd 0c e2 05 bd 3a d7 8e 3c
       0.11502839 -0.07168443 -0.03268628 0.017436612
000090 ee b6 6c 3d 08 57 1c b8 05 4f af 3d 4f 7f 04 3c
       0.057791643 -3.7274353e-05 0.08559994 0.008086993
0000a0 9c ea 67 bd e3 f5 83 bc fd 6e 29 bd eb 35 3a bd
       -0.056620225 -0.016108459 -0.041365612 -0.045461576
0000b0 29 57 6f ba d6 b6 42 3d e7 43 2a bd 2c 7a 79 bd
       -0.00091301143 0.047537647 -0.041568663 -0.060907528
0000c0 ea f1 69 bd 78 f4 83 3d 43 d2 91 3d 9e 30 9f bd
       -0.057115473 0.06443113 0.07120182 -0.07772945
0000d0 6b df c3 3d a1 45 86 3c 9f 71 89 bc bf f1 b9 3c
       0.09564098 0.016390624 -0.016777812 0.022698281
0000e0 ad 27 47 3d 58 2e e6 3c 7a a4 38 3d c4 11 95 bd
       0.048621822 0.02809827 0.045078732 -0.07278779
0000f0 12 4e c5 3d 62 8f 20 3c b1 fa c2 3d 67 75 d1 3c
       0.09634031 0.00979981 0.09520472 0.025568677
000100 fa d3 88 3d 78 14 82 bd 66 86 56 bd ce d7 e6 3c
       0.06681056 -0.0635156 -0.052374266 0.028179076
000110 2d cd 84 3d ba 49 ab 3d 5d 33 04 3d 7e e6 0e bd
       0.06484447 0.083636716 0.032275546 -0.034887783
000120 f0 fe f3 bc 7e 3c 06 bc 7d 7b bd bc 25 dd 6f 3c
       -0.02978465 -0.008193133 -0.023130173 0.014640127
000130 98 98 7e 3a 4c 8c dd bb 81 1c dd 3d 69 a3 60 3c
       0.00097120693 -0.0067611095 0.10796452 0.013710835
000140 4a 00 9c 3d cd ae 04 3d 43 b2 9d bc 1d f8 43 bd
       0.07617243 0.032393266 -0.01925004 -0.04784404
000150 38 86 b3 3d d7 5c 0a bd 45 ff de 3c b1 dd 9c bd
       0.087658346 -0.033779945 0.027221331 -0.07659472
000160 4f 63 95 bd 25 b7 fa 3d 6c 55 81 3d 34 58 86 3d
       -0.07294332 0.12241963 0.06315121 0.06559792
000170 14 7c 7c 3d cb 74 62 3d c1 07 3b bd 1f cc b3 bd
       0.061641768 0.055287164 -0.04566169 -0.087791674
000180 f1 5d 16 bd 0f 96 b8 3d 5f 1d 49 bc 7a f9 a0 bd
       -0.036710683 0.090129964 -0.012275069 -0.07860084
000190 83 33 27 3d 34 8c b6 3d 59 45 a4 3d db 3f b5 bd
       0.04082061 0.089134604 0.080210395 -0.0885007
0001a0 d6 fe 07 bd a0 d0 91 bd 4f 33 96 bd 6f 43 08 3e
       -0.033202015 -0.0711987 -0.07334005 0.13306974
0001b0 04 be 86 bd 73 ea 13 3d eb 9c ba 3d e4 71 e0 bc
       -0.06579211 0.03611226 0.09111961 -0.027398057
0001c0 ec 88 c5 bc 49 4b 5c 3d 0b 06 0e bd 79 3d ce bc
       -0.024113141 0.053782735 -0.03467373 -0.025175797
0001d0 a1 15 eb 3c 4c 14 e4 bc a9 8b 35 3d f2 a1 6a bd
       0.028696837 -0.02784171 0.044322643 -0.05728335
0001e0 47 2e 37 3d f0 7c 25 bd 54 29 dd 3c 5c 39 cc bc
       0.044721868 -0.040402353 0.026997246 -0.024929695
0001f0 c3 75 ce 3b a7 00 c5 3d bb af 53 bd 40 95 ba bc
       0.0063006594 0.09619265 -0.05168126 -0.022776246
000200 d7 d1 89 bb a2 a0 54 bd 73 0f 8e bc 1d 95 3c 3d
       -0.004205923 -0.051911004 -0.017341351 0.046040643
000210 93 e8 3f bd 32 69 b4 3d 61 60 65 bd 87 0c 13 bd
       -0.04685266 0.08809127 -0.056000117 -0.03590062
000220 00 c9 ab 3b 44 9b b6 3b 3b 1c a0 bb 74 c9 4e 3c
       0.005242467 0.0055727083 -0.004886178 0.012621272
000230 b4 14 ad 3d 71 95 be bd 76 3e f1 3c a0 6e f7 3b
       0.084512144 -0.093058474 0.029448729 0.0075510293
000240 51 74 2c bd 7e cc 09 bd c3 c2 98 3d 4f 7a 26 bd
       -0.042103115 -0.033642285 0.07459023 -0.040643986
000250 0c f2 51 bd 2b af cd 3d 44 37 14 3d 5e 61 e6 3d
       -0.051256225 0.10043176 0.036185518 0.1124904
000260 c0 26 d9 3d 4f a5 9c bd 7e 73 06 3d b8 32 c6 bd
       0.10603094 -0.076487176 0.032824986 -0.096776426
000270 3b 15 46 3d 6e 44 3b bd ee 37 ca 3c 37 2a b0 bd
       0.04836009 -0.045719557 0.024684872 -0.08601802
000280 eb bb 8a 3c 0c d3 8c bd 9f c2 ed bc 57 27 cc bd
       0.01693531 -0.068761915 -0.029023467 -0.09968441
000290 1c 59 5c bd 66 f9 8b 3d df d6 71 bd 16 bf ef bc
       -0.05379592 0.06834678 -0.059042808 -0.029265922
0002a0 40 78 a5 3d 4a b9 d2 bd 50 2a 57 3d c3 36 05 bd
       0.080795765 -0.10289247 0.052530587 -0.032522928
0002b0 4c 99 00 be c6 2a c2 3d 84 cc ec 3c ec a2 ed bd
       -0.12558478 0.09480815 0.028906114 -0.116033405
0002c0 d7 f2 1b 3c f7 7d c0 3b fd a6 5d 3c bb a3 97 bb
       0.009518347 0.005874391 0.013528583 -0.0046276725
0002d0 cd a9 ae bd 45 25 c2 bd e2 8a d3 3d 77 17 00 3c
       -0.08528481 -0.09479765 0.10329224 0.007818094
0002e0 90 fe 82 3d 1e 3e e5 bd 27 11 74 bd 64 e5 88 3d
       0.0639621 -0.111934885 -0.05958667 0.06684378
0002f0 c4 fe 93 bd e4 29 86 bd c4 4d b8 bd 72 79 bf 3d
       -0.07226327 -0.06550959 -0.089992076 0.09349336
000300 37 01 55 3c ec 09 36 bd c6 ea 65 bd 3a 0e c8 3a
       0.013000778 -0.044443056 -0.0561321 0.0015263029
000310 c3 91 51 bd 21 ca 8b 3c 11 38 c3 3c c0 fe e3 3d
       -0.0511644 0.017064156 0.023830445 0.11132574
000320 82 61 f6 3d 62 85 38 3d 04 de 38 bd 9b 22 8c 3d
       0.12030317 0.04504908 -0.045133606 0.06842538
000330 20 7e 57 bd 99 0a 9d 3d 61 e7 43 3d 9d 38 74 bd
       -0.052610517 0.07668037 0.047828082 -0.059624303
000340 27 71 8f 3c f1 93 8a 3d 2f c2 15 39 33 58 de 3d
       0.01751001 0.06766499 0.00014282086 0.108566664
000350 d7 c8 7b bd 71 4d 0e bc 6a 7a 29 bd ea 15 15 3a
       -0.061470833 -0.008685456 -0.04137651 0.00056871644
000360 f3 e9 b3 bd f1 ef a6 bd fb 65 30 3d bd 91 ac bd
       -0.08784857 -0.08151234 0.043066006 -0.08426235
000370 7b 3d ee 3b bd 87 63 bd b1 d8 cd bd 92 a2 d8 3d
       0.0072705126 -0.055549372 -0.10051096 0.10577883
000380 a0 2a ec 3c bf d7 0b bd 88 e7 c8 bd 14 ca eb 3d
       0.028828919 -0.0341413 -0.09809786 0.11513153
000390 56 c6 b5 bd fc 1f 8d 3d 1a d4 eb bd 1a 13 8f 3d
       -0.0887572 0.06890866 -0.115150645 0.06986065
0003a0 aa 96 0e bd 7f ba b6 3b 63 0d a9 3d b7 75 54 bd
       -0.034811653 0.0055764313 0.082545064 -0.051870074
0003b0 35 0b a9 3d 08 0e b0 3d 23 ec 29 bd 90 4f 53 bd
       0.08254091 0.08596426 -0.041484963 -0.05158955
0003c0 42 28 98 3c c9 2f 7a 3d 23 fc 82 bd 6a 98 a7 3d
       0.018573884 0.061080728 -0.063957475 0.081833676
0003d0 7b 53 61 bd 68 60 f3 bc 5e ab 5f 3d af 2e 50 3d
       -0.055011254 -0.029709056 0.054606788 0.05082577
0003e0 82 6a 7c bb f7 d0 b3 3c 31 4c 98 bd 42 81 c6 bd
       -0.0038515632 0.021950228 -0.07436407 -0.09692623
0003f0 df 9a 28 bc 79 60 70 bd 6b c6 ba 3d ee 21 27 bb
       -0.01029083 -0.058685753 0.091198765 -0.0025502401

net.2.module.0.bias f4 [32]
000000 bf 42 96 3d 3e 99 48 bc 3b 47 7e 3c 91 0a 99 bd
       0.073369496 -0.012243567 0.015519912 -0.074727185
000010 44 6c 09 bd 84 1b 11 3e 5c c1 0a bd 67 bf 25 bd
       -0.033550516 0.14170653 -0.033875808 -0.04046574
000020 e6 c1 ac bd 7d 1c bf bc 95 32 be bd cf 41 83 bc
       -0.08435421 -0.023329014 -0.092869915 -0.01602259
000030 c1 24 db bc b3 e2 2e 3d 01 d6 c9 bd b0 cb f5 3d
       -0.026750924 0.042696666 -0.09855271 0.12001741
000040 db 9e bf 3d d3 eb 81 bd b7 16 e8 3c b0 95 fa 3c
       0.09356471 -0.06343808 0.028331144 0.030588955
000050 1e c3 44 3d e3 04 9d 3d f2 49 2d 3c 67 da ff 3c
       0.04803764 0.07666948 0.010576712 0.031232072
000060 2c f5 45 3d ca 74 c0 3b 22 65 9a bd 68 02 25 bd
       0.048329517 0.0058732973 -0.07538821 -0.040285498
000070 91 78 f1 3c 34 8a 86 bd 34 d6 a2 3d 5c 6c e0 bc
       0.029476436 -0.06569329 0.07951012 -0.02739542

net.3.module.0.weight f4 [32, 32, 3]
000000 08 c6 88 3d 83 09 92 3b 54 f9 c8 bb 86 b6 36 3d
       0.066783965 0.0044567003 -0.006133238 0.04460766
000010 8c be 84 bd 91 d6 4e 3d fb bd 87 b9 f2 c9 a3 bd
       -0.064816564 0.050497595 -0.00025890753 -0.079975024
000020 ae 8e be bd 0d 4c 37 3d 6b 22 03 3d 78 3d f6 3b
       -0.09304558 0.044750262 0.032015245 0.007514652
000030 ef 50 7a 3b 9e 75 fb 3c a9 95 ad bd ad f2 b1 3d
       0.0038195213 0.030695733 -0.08475811 0.08688865
000040 29 b6 cf bd fb 13 36 3c a1 29 22 3d 47 83 d1 bd
       -0.10142166 0.011113162 0.03959048 -0.10230117
000050 ae 03 cc bc f4 0d 16 3d 1e 7b aa bc 83 d7 69 3d
       -0.024904098 0.0366344 -0.02081066 0.057090294
000060 27 e8 01 3d 65 aa e9 3b 9e 69 40 3d 49 da 08 3e
       0.03171554 0.0071309083 0.046975724 0.13364519
000070 f4 21 bc ba ae 49 b6 3d e8 f4 b7 3d b9 8a 00 3b
       -0.001435338 0.08900772 0.08982259 0.0019613935
000080 ec e5 06 3c 3a 46 33 3c b0 2b b4 3d 8e 91 19 3d
       0.008233529 0.010942036 0.08797395 0.037492327
000090 62 27 dd 3d 01 80 b1 bd dd b6 85 bd 1e 08 74 bd
       0.10798527 -0.08666993 -0.06529019 -0.059578054
0000a0 52 cf 21 3d d8 c6 f7 3c f3 9f b1 3d df d7 0c 3d
       0.039504357 0.030246183 0.08673086 0.03438556
0000b0 bc f7 c9 3d 9b db aa bb 9b 5b 8f 3d 7a 52 0e 3d
       0.09861705 -0.0052141673 0.06999894 0.034746625
0000c0 d2 60 13 3d 9e d5 3a bd c4 fc f6 bd 92 dc 47 3d
       0.035981007 -0.045613877 -0.1205993 0.048794337
0000d0 3f 25 fc bc 0b a7 55 bb 34 6b c8 bd b1 a1 d7 3d
       -0.03077948 -0.0032600786 -0.097860724 0.10528887
0000e0 2a 65 be bd 22 3d 31 bd 8d cd 5b 3d 59 5b 70 bd
       -0.09296639 -0.04327119 0.053662825 -0.058680866
0000f0 7e a3 3b bd 45 da ba 3d e0 4f b8 bc 70 77 de bc
       -0.045810215 0.09123663 -0.022499025 -0.027156562
000100 2b 9c 3e bd b7 14 be bc 31 ba 9e bd a7 78 db bd
       -0.046535652 -0.023203237 -0.07750357 -0.10716372
000110 98 29 95 bc 33 a9 85 bd 4b 24 40 bc 33 c2 ec bd
       -0.01820831 -0.06526413 -0.011727403 -0.11560478
000120 ba df 64 bd fe e7 c5 3c 86 1a 1c 3d 92 84 9f bd
       -0.055877425 0.024158474 0.038111232 -0.07788958
000130 65 4f 67 bd 7e 74 28 bd 76 91 be bc be 16 16 3d
       -0.0564722 -0.04112672 -0.02326272 0.036642782
000140 4b cf a9 bd ed 2c 85 3d 5a a5 8e b8 cd a1 bf bb
       -0.08291491 0.065027095 -6.801887e-05 -0.0058481456
000150 ad 06 1e bd 89 fd 05 3d ac bd 08 3c 23 94 87 3d
       -0.038580585 0.032712493 0.008346003 0.06620052
000160 71 fa 30 3d aa 21 a8 bd 64 ed 97 3d ce 35 83 3d
       0.04320759 -0.08209546 0.074183255 0.06406747
000170 06 cc 06 3d 7c 26 8a bd a1 77 79 3c 3f 55 6e bd
       0.032909416 -0.067456216 0.015226276 -0.058186766
000180 7c ab 28 3d 04 6c aa 3c 53 8f fb bc e1 9e 9e bd
       0.041179165 0.020803459 -0.03070799 -0.077451475
000190 bb f6 4b 3d 39 79 7d 3d 18 a0 3f bd ba a5 4d bd
       0.049795847 0.061883185 -0.046783537 -0.050206877
0001a0 e3 99 96 bc 18 ac 75 3d 42 d4 55 3c 94 10 29 3d
       -0.018383926 0.059978575 0.0130510945 0.041275576
0001b0 40 52 cd bd 20 ab 8d 3d 59 e9 b8 bd 1c 77 f9 bd
       -0.100254536 0.06917405 -0.090288825 -0.121809214
0001c0 c3 4a f2 bb 33 7d 37 3d dd 3f a3 bd 5e 6c c4 3c
       -0.007394166 0.044797134 -0.07971165 0.023977455
0001d0 86 0c b7 3c 8c 47 e2 bd 15 30 f4 bd c9 be 92 3d
       0.022344839 -0.11048803 -0.119232334 0.07165296
0001e0 ba b9 13 3d 23 ed 38 3c c3 6d 18 bd 19 76 27 3d
       0.036065795 0.011287007 -0.037214052 0.04088411
0001f0 c4 88 8a bd 40 b8 4f 3d d0 9e 78 3d 22 4f fb bd
       -0.06764367 0.050712824 0.06069833 -0.12270953
000200 c0 c3 b7 bd 38 1a b3 bc 21 3c d0 bc 0d 9c 99 3d
       -0.08972883 -0.021863088 -0.025419297 0.075004674
000210 c0 3d 6d bd 6c d7 05 3c 2a c3 7f 3c 45 46 b9 3d
       -0.057920218 0.008169036 0.015610496 0.09046606
000220 be f8 75 bd a4 5e ad 3d bf d7 ed bd 56 a4 b7 3d
       -0.060051672 0.08465317 -0.11613416 0.089668915
000230 a7 02 c3 3d 2c 3e 16 3d 83 c1 36 3d 6d 49 58 3d
       0.0952199 0.036680385 0.04461814 0.0528044
000240 94 f9 64 3d 4a 30 92 bd fe fc bc bb cc 58 9d 3d
       0.05590208 -0.07138117 -0.0057674637 0.07682952
000250 1f 8f 92 3c cb 17 c1 3d cc b3 77 3c 3a 45 81 bd
       0.017890511 0.09428366 0.0151185505 -0.06312032
000260 f1 9e 52 3d ce 2d a1 3d 78 ce 7c bd 46 67 d1 bc
       0.05142111 0.07870065 -0.06172034 -0.02556194
000270 07 14 cd 3c 6b 78 3e bd bb e9 83 bd a2 42 b7 bd
       0.025033964 -0.04650156 -0.06441065 -0.08948256
000280 1d 1c 83 bb 03 35 90 bc 45 32 9a bc fe 30 2d 3d
       -0.004001154 -0.017603403 -0.018822799 0.04228305
000290 1c fb 70 bd 5d 1f 52 bd 18 b9 80 bd 80 e4 18 3d
       -0.058833227 -0.05129944 -0.06285304 0.03732729
0002a0 09 ed 1a 3c 6e dc 00 3d 1c 46 89 bd 90 25 a0 bd
       0.009455928 0.031460218 -0.067028254 -0.078196645
0002b0 77 62 19 3d d5 f5 65 3c 87 7b fc bd 6b 91 c6 3c
       0.03744742 0.014035662 -0.123282485 0.024239263
0002c0 9c 60 58 3d a5 5a 79 bd 74 a9 41 bc 72 09 b3 bd
       0.05282651 -0.06087746 -0.011820186 -0.08742036
0002d0 db 63 8d 3d 8e a9 93 3d ee 71 3e bd 77 21 4a 3d
       0.069038115 0.07210074 -0.04649537 0.04934832
0002e0 99 c8 ab bd 95 3f 64 3b fa 49 31 bc 5e c3 be bd
       -0.0838787 0.0034827937 -0.01082086 -0.09314607
0002f0 3b b9 ba 3b 78 d6 d2 bd c8 89 8d 3b 93 81 1e 3a
       0.0056983507 -0.10294813 0.0043194033 0.000604653
000300 3e cd 3f 3d 6f c8 89 3b 5b 85 51 bd 6c 83 87 ba
       0.046826594 0.0042048017 -0.05115257 -0.0010338849
000310 ae 9f 45 bc c5 fe f8 bc 16 ba 9c bd 72 c3 d1 3d
       -0.012061996 -0.030394921 -0.076526806 0.10242356
000320 24 f3 0c 3c 65 75 02 bc b4 9e c7 bd 89 fb ce bd
       0.008602891 -0.007962559 -0.09747067 -0.1010657
000330 31 ca e0 bd 4c aa c1 3d c2 8a 60 3d 5a ac d6 bc
       -0.10976065 0.0945631 0.05481983 -0.02620523
000340 9a a2 b7 3d 03 43 9b 3d eb 9e a2 bd ab 50 01 3e
       0.08966561 0.07581141 -0.079404674 0.12628429
000350 bb d4 e6 39 06 18 fe bc 2f ad 92 3d c8 07 63 3d
       0.00044027515 -0.031017315 0.071619384 0.055427343
000360 60 4e 8d bd 66 4e 9d bd 68 bb 8f 3d e8 0d 22 3d
       -0.068997145 -0.07680969 0.07018167 0.039564043
000370 c3 ee d4 3b f9 37 8a bc 6f cf d3 bc 87 a8 22 bd
       0.006498189 -0.016872393 -0.025855748 -0.0397115
000380 b9 b3 d5 bc 74 22 6f bc bc cd b2 3d 2a 29 9d bd
       -0.026086675 -0.014595617 0.08730647 -0.07673867
000390 4f 24 c9 bd 7c a2 bd 3d 41 62 67 bd ee c0 80 bd
       -0.098213784 0.09259507 -0.056490187 -0.062867984
0003a0 84 88 bf 3d cc fa 83 3c 87 bb 95 3d 54 55 f9 3b
       0.0935221 0.0161108 0.073111586 0.007609049
0003b0 d7 4e 12 bc 42 c9 c8 3c 2c a5 31 3d 91 ef e3 bd
       -0.00892993 0.02451003 0.04337041 -0.11129678
0003c0 d3 db bb bd 41 15 38 3d 3d e1 cf 3d 4b 2e a8 bd
       -0.091727875 0.044942144 0.10150383 -0.08211955
0003d0 0c db 94 3d 45 87 d5 3d 1c a2 be 3d 59 14 fe 3b
       0.072683424 0.10426191 0.09308264 0.0077538905
0003e0 94 a3 e0 3c 92 ca 61 3d 25 a6 d4 3d 7e af 0f 3d
       0.02742175 0.055124827 0.10383252 0.03507947
0003f0 0c c7 9d bd a0 db a5 3d 47 e9 50 3d 40 40 99 3d
       -0.07703981 0.08098531 0.05100372 0.07482958

net.3.module.0.bias f4 [32]
000000 ac 22 d0 3c 55 6e e9 bc 66 2b bf 3d 99 84 49 3d
       0.025407158 -0.028494993 0.093344495 0.04919872
000010 8c c4 88 bd 1b 3f 88 3d 14 6a f4 bd 93 89 3f 3c
       -0.06678113 0.066526614 -0.11934295 0.011690515
000020 f7 21 bc 3d a5 56 ba bd 29 b7 5f 3d 99 42 67 3c
       0.09186166 -0.090985574 0.054618035 0.014114999
000030 4c fd 72 bd 1a 61 99 bd f6 73 96 bd d1 a4 88 3d
       -0.059323594 -0.07489224 -0.073463365 0.06672061
000040 9d 22 fc bc 92 2a be 3d ee 9f 50 3c db 75 ae bd
       -0.030778224 0.092854634 0.012733443 -0.08518573
000050 85 a5 9d 3b 1f da 12 bd 09 4a 89 bd 55 45 ed 3b
       0.004810991 -0.035852548 -0.06703574 0.007240931
000060 5d 4b 83 bd 1e 58 d6 3d c5 23 6d 3c 09 35 38 bb
       -0.06410859 0.10466026 0.01447386 -0.0028107783
000070 70 df cc bc 30 ef ec bd df 74 93 3c 16 1a e2 bc
       -0.025008887 -0.11569059 0.018000064 -0.02760033

net.4.module.0.weight f4 [32, 32, 3]
000000 11 45 8a 3d 49 a6 3d 3d b5 8d 27 3c 87 6b c7 bc
       0.067514546 0.04630116 0.010226657 -0.024343265
000010 df ed db bc 9c 0a c7 bc a6 9b b1 bd 3a 1d 8c bc
       -0.026846824 -0.024297051 -0.08672266 -0.01710378
000020 f1 a7 26 3d 9c a9 19 3d ce f7 bb bd a6 c0 34 bd
       0.040687505 0.037515268 -0.09178124 -0.044129036
000030 28 7e 5a 3c 29 95 bc bd 5c 1f 41 bd 5a ef 95 bc
       0.013335742 -0.092081375 -0.047149047 -0.018302608
000040 32 06 a8 bc 3d 43 6f 3d 5b ce ab 3d 8c 59 a6 3d
       -0.020510767 0.058413733 0.083889686 0.081225485
000050 a7 c1 c8 3d 02 ec 22 bd f0 29 42 bd cd d0 81 3d
       0.09802561 -0.039775856 -0.047403276 0.06338654
000060 50 0c 8c bd f5 c0 fd bd 05 1e a3 bd ec 2d ed 3c
       -0.06838286 -0.12390319 -0.0796471 0.028952561
000070 ef 96 c6 bc d3 9a c8 bd ef 9d f1 3c 4b a8 f7 bb
       -0.024241893 -0.097951554 0.029494254 -0.007557904
000080 ba 07 7c 3d 57 2c 6c bd b2 4f 9c bd 45 ea 3a 3c
       0.061530806 -0.057659473 -0.07632388 0.011408393
000090 c7 94 17 bb fe a9 58 bd 96 74 38 bd 88 1e be 3b
       -0.002312945 -0.052896492 -0.04503306 0.0058019795
0000a0 70 1a bd bd 1f a7 b7 bc 1a 2e 6f bc b3 d5 b8 bd
       -0.09233558 -0.022418557 -0.014598394 -0.09025135
0000b0 8c 90 74 3d 6c ac 6c bd 90 61 65 bd 46 48 ad bd
       0.059708163 -0.05778162 -0.056001246 -0.08461051
0000c0 35 45 b0 bd e8 8b d9 3c 83 c6 28 bc bd 87 13 3d
       -0.0860695 0.02655597 -0.010301235 0.036018122
0000d0 47 4a 52 3b 83 8a 52 3d 6d 52 9f 3d 59 ec eb bd
       0.003208773 0.051401626 0.07779393 -0.11519689
0000e0 ff a5 17 bd a5 ed b2 bd 74 3a dd bc 93 2e b4 3c
       -0.03702354 -0.08736733 -0.027005412 0.021994865
0000f0 32 ea c2 3c 38 92 24 bd 97 15 45 bd 4c 2f c9 bc
       0.023793314 -0.040178508 -0.048116293 -0.024558686
000100 72 e5 1e 3d 51 63 eb 3c e5 38 8e bd 97 88 b0 3d
       0.038793035 0.028733881 -0.069444455 0.086198024
000110 3e d9 6a 3d 6d fe ee bd 2a be 4c 3d 70 65 b0 3d
       0.057336085 -0.116696216 0.049986042 0.08613098
000120 aa e6 4c 3d 1f 14 90 3d 42 39 d6 bb 4d cf b7 bd
       0.050024666 0.07035088 -0.0065375874 -0.08975086
000130 d8 b5 58 3d 49 04 4d bd ab e8 d8 bd 95 26 f2 3b
       0.052907795 -0.050052915 -0.10591253 0.0073898532
000140 1a 5e d1 39 56 cd 1b bd 3b 7b 8c bd 77 d1 9b bd
       0.00039933698 -0.03803762 -0.06859442 -0.076083116
000150 79 39 17 3b db c8 1a bd b5 b4 db bd 52 75 ad ba
       0.0023075028 -0.037789207 -0.107278265 -0.0013233817
000160 f8 32 30 bb 1e 0d 19 3b 1d 19 1c bd c0 91 3f 3d
       -0.0026885848 0.0023353766 -0.038109887 0.046769857
000170 75 b6 a3 bc 29 37 a6 3c 78 18 b8 bc 76 78 8d 3d
       -0.019984463 0.020289974 -0.022472605 0.06907742
000180 3d 61 e3 bd 60 4d 87 bd bb ad 34 3d 5f 0b 3d 3a
       -0.11102531 -0.06606555 0.044110995 0.0007211472
000190 b2 9d 9f bd ea 9d 28 3d 5c d7 23 bb 59 cb ca 3c
       -0.0779375 0.041166224 -0.002500019 0.024755167
0001a0 ae c6 b6 3d f2 66 33 bc a4 b8 7d 3d 5e 8a 8d bc
       0.08924614 -0.010949837 0.061943665 -0.017277893
0001b0 61 a7 f4 3c 62 3f f4 3c 03 80 89 bd 3e bd b5 3d
       0.029864969 0.02981538 -0.067138694 0.08873986
0001c0 7b 57 75 3b 89 a3 40 3d ff 8e ab bc 50 b1 74 bd
       0.0037436176 0.04703096 -0.02094221 -0.05973941
0001d0 a8 35 76 bd 16 f4 bd bd fa ac 99 bd f6 15 6d 3d
       -0.060109764 -0.09275071 -0.07503696 0.05788227
0001e0 e0 15 61 3d 16 4f c4 bd 04 f6 7a bc c7 32 6f 3d
       0.054952502 -0.09585397 -0.015317444 0.058398034
0001f0 e4 13 09 3d e5 a8 01 bd 2b af eb bb 10 48 72 3d
       0.033466235 -0.03165521 -0.0071925125 0.059150755
000200 24 75 ac 3d 6d ed ae bd 14 a1 d4 3d 6e 52 55 bd
       0.0842078 -0.08541379 0.10382286 -0.052080564
000210 9d ac 62 bc 41 7f b0 bb 7c 02 a6 3c f9 1b a4 3c
       -0.0138350995 -0.0053862636 0.020264857 0.02003287
000220 20 27 a2 3d f3 22 51 bb 0f aa ef bd 93 0d fb bd
       0.07917619 -0.00319117 -0.11702358 -0.122584485
000230 ee 26 5b bb 5f 0d df 3c 34 0b 5a 3d 2a 15 bc 3d
       -0.0033439952 0.027228056 0.05323334 0.09183724
000240 72 a8 ac bd b2 aa b5 bd 96 f3 65 3d ce 24 b1 3d
       -0.08430566 -0.08870448 0.056140505 0.08649598
000250 fd 76 73 3d 34 f0 86 bd 9e 37 2c bd 0d 69 1f bc
       0.059439648 -0.06588784 -0.04204523 -0.009729636
000260 ba ae 48 bd b5 29 93 bb f0 d5 ca 3d 1f 54 b8 bd
       -0.048994757 -0.004491056 0.099040866 -0.0900042
000270 82 43 81 bd 00 9a 12 3d 45 5c 59 bd 5b c4 2c 3d
       -0.06311704 0.035791397 -0.05306651 0.042179447
000280 f9 41 78 3d 4f 4a ad bd 77 41 8e 3d f4 92 9e 3d
       0.06060979 -0.08461439 0.0694608 0.07742873
000290 db a1 cd 3b 87 bc bc 3d e4 29 a8 3d 52 71 17 3d
       0.006275398 0.09215646 0.08211115 0.036973305
0002a0 8b 3e 46 3c 22 51 b5 3d e2 7b 8f bd 67 ad 83 bd
       0.012099872 0.088533655 -0.07006051 -0.06429558
0002b0 ba cc 58 bd 8c d8 88 3c ed 83 91 3d f8 f7 5d bd
       -0.052929617 0.01670482 0.07105241 -0.05419156
0002c0 a0 31 ab 3c 51 5f 72 3d 34 88 d8 bb 24 f6 9f 3b
       0.020897686 0.059172932 -0.0066080336 0.004881637
0002d0 e8 84 df bb 25 ab 8e bc 96 60 97 bd bb 22 b8 3d
       -0.0068212636 -0.017415592 -0.07391469 0.08990999
0002e0 70 51 ad bb 5b 47 89 bd e8 11 2b bd 98 1b fb 3b
       -0.005289249 -0.06703063 -0.041765124 0.0076632015
0002f0 f3 82 95 bd b9 41 fd bc ea 90 07 3d 75 eb 4e 3d
       -0.07300367 -0.030915128 0.033097185 0.050517518
000300 6a dc a7 bd d3 06 bf 3c 80 ce 27 bd 6f 2e c1 3d
       -0.081963375 0.023318684 -0.040968418 0.09432685
000310 60 a4 d2 bc 7e 00 cd bd d2 49 dc 3d ce 22 4b bd
       -0.025713146 -0.100098595 0.107562676 -0.04959374
000320 77 6d b2 bd df 18 6f bd b7 92 5f bd 77 6d a0 bc
       -0.08712285 -0.05837333 -0.054583278 -0.019583447
000330 a0 65 3e bd 09 ec 14 3d a1 ea ad bd d2 ce c5 3b
       -0.046483636 0.036357913 -0.084920175 0.006036618
000340 53 34 d7 bd 71 51 ac 3d 0b 6b cf 3d 86 d1 8d 3d
       -0.10508027 0.08413971 0.10127839 0.06924729
000350 5d a7 ed bc c4 b8 c1 bd d8 21 91 bd 4e 41 a3 bc
       -0.02901047 -0.09459069 -0.07086533 -0.0199286
000360 42 08 28 3c a1 0e 71 3d 2b ad 87 bc a1 59 a6 bd
       0.010255875 0.05885184 -0.016562065 -0.08122564
000370 b0 93 49 bd 8f 5d 7b 3d 94 5e 49 bd e5 32 fa bd
       -0.04921311 0.06136852 -0.049162462 -0.122167386
000380 22 b3 14 bd 5c 14 0c 3d 98 88 46 3d 5f bb ac 3b
       -0.036303647 0.034199104 0.04847011 0.00527136
000390 f0 97 44 bd 4c 17 03 bc 13 11 a6 3d cd 79 b0 3d
       -0.04799646 -0.00800116 0.081087254 0.08616982
0003a0 dc 13 b9 bc 71 5c 2a bb 0c e6 a1 3d 0d 07 c7 3c
       -0.022592478 -0.002599504 0.07905206 0.024295354
0003b0 fd 9d 68 bc 1a a8 85 bd 31 e8 ce bd e2 cc ab bb
       -0.014197824 -0.065262035 -0.10102881 -0.00524293
0003c0 fe 2c 22 3d 14 16 6a bd a4 e8 24 bd 1f ee e9 bc
       0.03959369 -0.05714996 -0.040260926 -0.028555928
0003d0 2f 80 f0 b8 42 8d 9d 3c a3 19 51 bd 83 16 05 3c
       -0.00011467968 0.019232396 -0.05104984 0.008123043
0003e0 52 96 48 3d 68 b7 9e bd 83 a2 32 bd db fe 5f bd
       0.04897148 -0.07749826 -0.043612015 -0.05468641
0003f0 d5 ed 2f bd c5 94 1d bd c8 f5 3f 3d 84 49 3c bd
       -0.042951424 -0.038471956 0.046865255 -0.045968547

net.4.module.0.bias f4 [32]
000000 df 20 37 bc 6f 76 b0 bd d2 c7 95 bb 23 9e b0 3d
       -0.011177271 -0.086163394 -0.0045709396 0.08623912
000010 21 33 ab 3c 95 6d 8b 3d 5e 17 f0 3b d7 3b 3d 3d
       0.020898404 0.068080105 0.0073270043 0.046199646
000020 b9 9a 89 bd 1c 86 9a 3d e5 cc c6 bd c8 0a 53 3d
       -0.06718964 0.075451106 -0.09707049 0.051523954
000030 9b 2d 07 3d 9c 88 33 bd 06 74 1d bc b2 44 0e 3e
       0.033002477 -0.043831453 -0.009610182 0.13893393
000040 d7 11 17 bd 46 01 5a bd 4b d6 78 3c a1 ee 14 be
       -0.036882248 -0.05322387 0.01518781 -0.14544155
000050 99 ad c7 3d 2e 12 08 bb e8 b2 67 bd 28 33 9b 3d
       0.09749908 -0.002076279 -0.056567103 0.07578117
000060 87 49 72 bd 5a 79 fa 3d 13 35 05 bd 8f 84 f6 3d
       -0.059152152 0.12230177 -0.03252132 0.12037002
000070 e2 3c 0e 3d 3d a0 9b 3d db 33 83 3d dd fd 15 bd
       0.03472603 0.075989224 0.06406375 -0.036619056

net.5.weight f4 [32, 32, 3]
000000 8e 34 94 3d 96 5b ae 3b ec d0 e0 3d 07 97 b1 3d
       0.072365865 0.0053209765 0.10977349 0.08671384
000010 44 77 61 bd 22 da 4a 3d d5 55 96 bc 96 bb 71 3d
       -0.05504538 0.049524434 -0.018351475 0.059016787
000020 8b 25 ee 3d 2c 2c 37 bd 51 2b 45 bd 36 05 af bd
       0.116282545 -0.04471986 -0.048137013 -0.08545916
000030 a1 f5 96 bd 10 a1 34 bd cd 19 7e 3d c2 4d 5f bd
       -0.07371069 -0.044098914 0.062036324 -0.054517515
000040 0f ef 90 3d 2c aa 95 3d f2 7c fc bb 88 37 c2 bd
       0.07076847 0.07307848 -0.0077053243 -0.09483248
000050 ea 4d 29 bc 32 22 b3 bb d6 d3 0d bd 3e 84 76 bc
       -0.010333518 -0.005466723 -0.03462585 -0.015046177
000060 f1 2c b8 3d 84 c1 0d bd 89 ee b3 bd c1 a2 81 bd
       0.08992947 -0.03460838 -0.08785731 -0.06329871
000070 c5 b8 a0 bd fd ab a2 3b ee fd 10 bd e0 22 da 3d
       -0.07847742 0.0049643503 -0.035398416 0.10651183
000080 69 e5 c3 bd 55 ea d0 3d a6 9f f4 b8 ce 50 8d bd
       -0.09565241 0.10200945 -0.000116645635 -0.06900178
000090 3e 82 68 3d ea 3b 3d bd 57 94 06 3e 83 2c 8d bd
       0.056764834 -0.046199717 0.13142525 -0.068932556
0000a0 45 a8 4f 3d 2e 28 a7 bc 22 dc 94 3d 18 2b bb bd
       0.050697584 -0.020404901 0.072685495 -0.09139079
0000b0 04 a6 50 bd ad 59 f5 bb 1a 0c 1e bc b5 b7 9c 3d
       -0.050939575 -0.007487497 -0.00964644 0.07652227
0000c0 35 1b 3f bd 0b 70 bf bd 13 73 09 bd a3 43 ce bd
       -0.046656806 -0.093475424 -0.03355701 -0.100714944
0000d0 a6 ed 38 3d f1 c0 51 bb 96 c1 84 bd e6 b5 01 3d
       0.045148514 -0.0032005871 -0.06482236 0.031667612
0000e0 f8 32 be 3d a5 6b ce 3d 10 d0 95 bd be 2b 4e bd
       0.09287065 0.10079125 -0.073150754 -0.050334685
0000f0 7b a2 ab bd 3e fc cc bd 37 a5 2f 3d b2 75 f5 3b
       -0.083806 -0.10009049 0.04288217 0.007490837
000100 aa 6e 8c 3d 1b 40 63 3c 43 14 27 bd 61 c8 29 bb
       0.06857045 0.013870264 -0.040790807 -0.0025906789
000110 1b ed a1 3d 6a 21 01 bd d8 f2 74 3d 07 cc 8d bd
       0.079065524 -0.031526007 0.059801906 -0.06923681
000120 9d 89 8e bc c7 a2 45 3c 3b aa 21 bd 8a 44 bb bc
       -0.017399604 0.012062735 -0.039468985 -0.02285983
000130 87 f1 9b 3c 74 8a a1 bb cd d2 68 3d d3 17 68 bd
       0.019036068 -0.004929835 0.05684166 -0.056663346
000140 f4 67 9b bc 6f 46 da bd fe 34 30 bd 86 1e 73 3d
       -0.018970467 -0.106579654 -0.043019287 0.05935528
000150 3e 5e 9d bd d0 ae 87 3d c8 0e 82 bd 71 bc 35 3d
       -0.07683991 0.0662514 -0.063504755 0.044369165
000160 cc 97 30 bd 25 66 32 3d 7b 48 80 3d 25 db 19 3e
       -0.043113515 0.043554444 0.062638246 0.15025003
000170 33 52 07 3d e2 ed e3 bc f3 57 b6 3d 19 f8 90 3c
       0.033037376 -0.027823392 0.08903494 0.017696427
000180 d6 95 40 bd 17 16 91 bd 02 41 72 3d 32 dd 86 3d
       -0.047017895 -0.070842914 0.059144028 0.065851584
000190 e3 8c 92 3d ec fd 98 bd 87 2f 65 bd 1e 94 d4 bd
       0.07155778 -0.07470307 -0.05595353 -0.103798136
0001a0 5a d7 55 3d 59 22 87 3d 4b 66 2d 3d 93 46 e2 3c
       0.05220733 0.06598348 0.042333882 0.027621543
0001b0 f6 6b 92 3c 1c dd af 3c 0c 0d 74 3b 06 f8 02 3d
       0.017873745 0.021467738 0.0037239222 0.031974815
0001c0 fb 13 73 bd c5 af c4 3d 9a 6c 8f 3d 47 6b c3 3d
       -0.059345227 0.09603838 0.07003136 0.09541946
0001d0 ca fd 84 3d aa 6b 92 3d ed f8 cf bd 0f 64 b4 3b
       0.06493719 0.071494415 -0.10154901 0.005505092
0001e0 21 0c 89 3d 11 79 86 3d 19 ab a2 3d 55 cf bd 3c
       0.066917665 0.0656606 0.079427905 0.023170153
0001f0 5b 92 f2 bd 77 7f ce bd e9 d1 4e bd c8 87 92 3d
       -0.11844321 -0.10082906 -0.050493155 0.071548045
000200 1f 3d bd bd 39 da 06 3d d9 1d 12 3d 2a 66 86 3d
       -0.092401735 0.032922957 0.035672996 0.06562455
000210 3c 2c b0 bd 1c b9 5d bb e6 b8 7b 3d 33 43 d1 bc
       -0.08602187 -0.0033832258 0.06145563 -0.025544738
000220 6b ae db bd 65 10 23 bd db db 9a bb e7 69 97 3d
       -0.10726627 -0.039810557 -0.004725916 0.07393246
000230 f9 9f 03 bc 31 d1 ae bd b3 0f aa bd a3 f9 e1 bd
       -0.008033746 -0.08535994 -0.08303776 -0.110339426
000240 60 1e c3 bd 2a 5a 0f bb bd fa a7 bd bc 34 15 bc
       -0.09527278 -0.002187381 -0.082021214 -0.009106811
000250 00 ce d3 3d 67 b1 1a bd 99 69 db bd 7d 5d 24 3d
       0.10342026 -0.03776684 -0.107135005 0.04012822
000260 d0 7c 9c bd be 92 b9 bd 96 3d d4 3d 56 ee f2 bc
       -0.076409936 -0.09061192 0.10363309 -0.029654663
000270 bb 81 b3 3d 2d 99 4f 3d d9 ca 71 3d ce 43 b6 3b
       0.087649785 0.05068319 0.05903134 0.005562282
000280 a5 fa 0d 3d 30 8b dd bd da 61 74 3c 4e 36 ba 3d
       0.03466286 -0.108175635 0.014915908 0.09092389
000290 da cc 23 3b d0 8d 86 bd 40 6b 52 bd 80 5c 87 3b
       0.0024993927 -0.06570017 -0.051371813 0.0041309
0002a0 82 af 51 3d 10 f2 27 3d 56 64 bb 3d e6 d7 a1 bd
       0.051192768 0.041002333 0.09149997 -0.079025075
0002b0 2c 83 c0 bd ea d9 b7 bd f8 f9 07 3d 07 40 7f bc
       -0.09400019 -0.08977111 0.033197373 -0.01557923
0002c0 9a 90 b5 3d c2 1a 5d bd 0c 84 1d bd 66 b6 10 3d
       0.08865471 -0.053980596 -0.038456008 0.0353302
0002d0 96 df 6c bc 21 59 3b bd 48 88 2f bd 65 ab 27 bd
       -0.014457604 -0.045739297 -0.042854577 -0.04093494
0002e0 c2 8c 48 bd 40 c7 4a 3d 02 40 93 3d cd 84 92 bd
       -0.048962362 0.049506426 0.07189943 -0.07154236
0002f0 50 bb ae bd cc 2a d3 bd 8d e3 a1 3c b6 4e d3 bc
       -0.08531821 -0.10310897 0.019761825 -0.025794368
000300 a8 06 24 3c f6 63 8b bc 59 97 54 3a 52 39 d5 bc
       0.010011353 -0.017015439 0.0008109711 -0.026028309
000310 ed d2 74 bd 88 b2 2b bd 2c 4e 2c 3d 72 a0 d7 3c
       -0.059771467 -0.041918308 0.042066738 0.026321623
000320 ea 76 08 bc 23 1b 90 bd fb 55 8d 3d 07 7a a4 3d
       -0.008329133 -0.07036426 0.06901165 0.08031087
000330 17 87 93 bd c2 34 f8 3d a7 ce 1e bd 47 7c ae bb
       -0.07203501 0.12119438 -0.038771298 -0.0053248736
000340 4f c2 47 bc fc 8c 6a bd 9d c6 66 bd 91 d8 0c 3d
       -0.012192323 -0.05726336 -0.056341756 0.03438622
000350 0d 63 b5 3d 74 8e b6 3d 19 c4 a1 3d 43 21 5c 3d
       0.08856783 0.089138895 0.07898731 0.05374266
000360 41 68 be bb d4 8a d8 3d 9b fd 02 bd 6a 25 4a bd
       -0.005810768 0.10573354 -0.03198014 -0.049352087
000370 86 f4 55 bd 82 f3 3c bd 28 e4 42 bd a8 be 6a bd
       -0.05223515 -0.046130665 -0.047580868 -0.05731073
000380 7a 8b 47 bd 5f a6 40 bd 46 e0 c4 bc e3 20 13 3e
       -0.048717 -0.047033664 -0.024032723 0.14368014
000390 97 17 b4 3d 08 2b 92 bd a3 b6 21 bc 6a b1 06 bc
       0.08793562 -0.07137114 -0.009870204 -0.00822101
0003a0 87 06 7f 3d 21 97 2d bd f0 48 ed 3c ab d1 c2 3b
       0.062262084 -0.042380456 0.028965443 0.0059454045
0003b0 83 9e 53 bd e6 8b c1 bd 0e 90 79 bd 05 7b a2 3d
       -0.05166484 -0.09450512 -0.060928397 0.0793362
0003c0 c3 62 73 3d 26 d0 e5 3c cf 0f 23 bd c8 d3 75 3d
       0.05942036 0.028053354 -0.039809998 0.060016423
0003d0 96 5b 17 3d a2 1a 14 bd 12 51 cf 3c 8f 51 6f bd
       0.036952578 -0.03615821 0.025307212 -0.05842739
0003e0 24 1a 5a 3d 93 26 85 bc e8 70 94 bb 33 da ab 3d
       0.053247586 -0.016253745 -0.004530061 0.083912276
0003f0 e3 b1 81 3d 7a 57 33 bc 0f 23 95 bd 35 73 cb 3d
       0.06332757 -0.010946149 -0.072820775 0.09934083

net.5.bias f4 [32]
000000 1b cf ba bd 42 d0 28 be 95 9c d3 bc d5 3e 16 3a
       -0.091215335 -0.16485694 -0.0258315 0.00057314086
000010 a0 4f 8b 3d d5 37 00 3d b8 28 d3 3d c9 bb a0 bd
       0.06802297 0.031303246 0.10310501 -0.07848317
000020 6b c7 cc bc ce 54 0f 3e 90 d1 46 bd 7b c2 2b be
       -0.024997434 0.13997194 -0.048539698 -0.16773407
000030 86 82 37 bd 87 81 6e 3d 99 80 38 ba d6 35 3e bd
       -0.04480221 0.058228996 -0.00070382055 -0.04643806
000040 fe 83 d5 bc e5 a3 a7 3d e0 03 ba 3c dd e6 b8 bd
       -0.026063915 0.08185557 0.022706926 -0.09028409
000050 46 72 9b 3d 04 be 49 3c 24 9a c3 3c 69 10 aa b9
       0.07590155 0.01231337 0.02387721 -0.00032437153
000060 9e 9d 87 3d 7a 20 f7 3a 82 60 ae 3b 11 15 1d 3d
       0.0662186 0.0018854283 0.005321563 0.03835017
000070 d9 ec b4 bd 95 6a 80 bd f1 15 83 3c 56 14 00 3e
       -0.088342376 -0.06270329 0.016001673 0.12507758

exp_avg f4 [32, 45, 2]
000000 ae 77 54 37 db bd 2f 37 b4 a5 a3 38 be 36 9d 38
       1.266405e-05 1.0475017e-05 7.80331e-05 7.49654e-05
000010 d2 04 24 b8 90 12 fb 36 76 33 41 38 f0 e9 89 35
       -3.9105136e-05 7.482544e-06 4.6062712e-05 1.027538e-06
000020 a0 be 3b b9 a5 cf a3 b9 d7 17 af b8 fc f3 08 b8
       -0.00017904723 -0.0003124449 -8.349091e-05 -3.2652155e-05
000030 bc df 3d 39 e1 5b 69 b9 e9 c1 b9 b9 24 8d 3e 39
       0.00018107792 -0.00022254839 -0.00035430424 0.00018172391
000040 50 2f 75 38 86 12 ae b8 36 7c 83 37 e6 4a ee 37
       5.8456615e-05 -8.300417e-05 1.5674257e-05 2.8406688e-05
000050 45 81 1b b8 b4 7b 5f b7 6e 0b 0d 36 62 07 d0 b6
       -3.707527e-05 -1.3320638e-05 2.101729e-06 -6.1997425e-06
000060 e6 f4 87 39 2a eb 10 39 28 6b f1 b7 21 02 e7 b8
       0.0002593167 0.00013820516 -2.8779337e-05 -0.00011015335
000070 cf 29 4c ba 38 8b 82 b9 d0 65 78 b9 ef 33 7b 38
       -0.00077882124 -0.00024899258 -0.00023689051 5.989143e-05
000080 34 65 07 36 09 69 e5 35 f4 23 35 b7 59 67 1b 39
       2.0175476e-06 1.7092399e-06 -1.0796812e-05 0.00014820452
000090 2a 30 79 38 50 d8 8a 38 60 71 56 39 26 51 23 b9
       5.9411082e-05 6.620644e-05 0.00020450866 -0.00015575122
0000a0 c0 af a3 36 da 7a a7 38 2d b9 96 b8 7a 6c b9 38
       4.8782385e-06 7.9860634e-05 -7.187049e-05 8.841693e-05
0000b0 58 0e af b9 00 ce 21 b9 30 18 9a b7 f7 f6 eb b7
       -0.00033389288 -0.00015430897 -1.8369494e-05 -2.8129185e-05
0000c0 fa eb e7 b9 ea 61 36 39 3e 26 e0 39 a1 db b1 39
       -0.0004423557 0.00017393348 0.00042753102 0.00033923707
0000d0 54 9f 15 37 7b c8 d0 37 24 0d 77 b7 bf ad 14 39
       8.9181885e-06 2.4888888e-05 -1.4725407e-05 0.00014179105
0000e0 00 00 00 00 00 00 00 00 64 74 c0 b7 58 3d 07 39
       0.0 0.0 -2.2942382e-05 0.00012897456
0000f0 a4 26 93 b8 d4 2b 2b 38 9a 08 e0 b8 e9 a2 03 b8
       -7.0167036e-05 4.0810395e-05 -0.000106827545 -3.1384556e-05
000100 14 c1 ce 37 8d 36 1d b8 0f 9e 33 b7 e2 33 36 b8
       2.4647023e-05 -3.748252e-05 -1.0706032e-05 -4.34405e-05
000110 11 cd 4b b9 b4 f1 97 b9 fc bd b0 b8 c9 ce ce 39
       -0.00019435982 -0.00028981047 -8.427721e-05 0.0003944545
000120 36 f1 c1 b6 9f bd af b4 b5 9c fb 35 39 51 89 36
       -5.779929e-06 -3.2734258e-07 1.8746565e-06 4.0923737e-06
000130 f4 54 50 b8 31 ff 3b b6 e8 5b 1a 2a 2c 0d fd a9
       -4.9670183e-05 -2.8013712e-06 1.3709834e-13 -1.1237742e-13
000140 2e 9f 24 b7 fc d9 14 b8 28 61 c5 b8 01 47 30 39
       -9.812224e-06 -3.5488963e-05 -9.411789e-05 0.00016811119
000150 df 57 88 b8 6e 10 06 b8 51 c9 32 38 6a 2f c2 37
       -6.5013526e-05 -3.196339e-05 4.2625998e-05 2.3148681e-05
000160 f8 ef 4c 3a 72 e9 32 3a b4 82 32 39 b7 d3 a8 b9
       0.00078177406 0.0006824947 0.00017024094 -0.00032201197
000170 69 3c f4 b7 c7 06 d1 38 93 d6 9f ba 6b a3 51 b9
       -2.9115197e-05 9.967159e-05 -0.0012194685 -0.00019992671
000180 d8 c3 43 38 f7 91 80 b8 30 31 f4 ba 0a de 9d b9
       4.6674017e-05 -6.130704e-05 -0.0018630382 -0.00030110806
000190 c8 79 c1 b9 fd 13 27 39 a6 ba de ba d6 aa 84 ba
       -0.00036902563 0.00015933807 -0.0016992881 -0.0010121714
0001a0 4f f7 f9 3a b0 ed c6 b9 c4 e5 84 b8 6c 23 91 b8
       0.0019070896 -0.00037942594 -6.337048e-05 -6.9207366e-05
0001b0 93 be 71 b8 de c1 86 b6 e3 8e ab 39 66 78 f7 38
       -5.7636364e-05 -4.0160803e-06 0.0003272212 0.00011800304
0001c0 82 16 4f 37 09 f5 72 36 8f 4e 8c b9 7e 9a 0d ba
       1.2343402e-05 3.620344e-06 -0.00026761412 -0.0005401744
0001d0 e1 05 b2 b8 08 ab 2f 38 e4 49 c7 39 0c f6 bf 39
       -8.4887964e-05 4.1882537e-05 0.0003801129 0.00036613678
0001e0 ec f3 ad b9 12 ea 53 ba 82 d5 74 38 ac 86 39 38
       -0.00033178867 -0.00080838904 5.8372978e-05 4.423286e-05
0001f0 70 46 d6 37 00 1c 94 b9 bb 6d 9f ba 12 41 2e 39
       2.5543588e-05 -0.0002824962 -0.001216344 0.00016618174
000200 d5 cc d9 39 cc 3f 17 38 69 96 9d 39 1c 40 cc 39
       0.00041542077 3.606062e-05 0.00030057438 0.00038957677
000210 12 ce 6a b7 e9 9b 63 39 f0 ff 71 b8 27 b0 4a b9
       -1.3995466e-05 0.00021706488 -5.7697238e-05 -0.00019329843
000220 5f 6b 57 b9 a1 31 e4 39 d3 b5 fc 38 1c d7 ed 37
       -0.00020543997 0.00043524525 0.00012050164 2.835277e-05
000230 53 14 07 ba c9 2f 55 39 82 2f 0c b8 05 34 42 37
       -0.000515287 0.00020331064 -3.3422846e-05 1.1575413e-05
000240 28 68 3d b9 45 ce 2b b9 00 00 00 00 00 00 00 00
       -0.00018063246 -0.00016384672 0.0 0.0
000250 1d 21 0e ba aa e6 62 ba fe db 33 3a a7 4d bb ba
       -0.00054218044 -0.00086555874 0.00068610895 -0.001429011
000260 ff ee b6 b8 ca 64 47 39 52 fb 18 b9 b9 18 91 b8
       -8.722953e-05 0.00019015666 -0.00014589474 -6.918744e-05
000270 d7 55 25 38 d5 6d 6e b8 cc 2e ed ba 9b 95 3a ba
       3.941901e-05 -5.684591e-05 -0.0018095612 -0.000711763
000280 29 f5 d1 b9 01 14 2b b8 26 de 22 37 15 00 de 37
       -0.00040046245 -4.0788207e-05 9.707675e-06 2.64645e-05
000290 a8 29 01 38 42 c4 e7 b6 b3 0f 0e 37 a8 a2 96 35
       3.0794792e-05 -6.907184e-06 8.467515e-06 1.122321e-06
0002a0 9f 5f 95 b6 89 db d1 36 d3 f8 aa b8 91 f1 62 38
       -4.451678e-06 6.2542426e-06 -8.152579e-05 5.4107575e-05
0002b0 3a 8f f2 b7 5c 99 82 b9 01 95 b7 37 5f 4d 53 38
       -2.8915343e-05 -0.00024909794 2.1884685e-05 5.0378378e-05
0002c0 68 84 4b 37 d5 45 1c b8 e0 b5 9f b9 0e b2 b5 38
       1.2130571e-05 -3.7258334e-05 -0.0003046235 8.663918e-05
0002d0 0c a8 73 b7 04 c7 f3 38 fc 64 2a b9 2c 06 14 38
       -1.4523055e-05 0.000116242125 -0.00016250083 3.5291698e-05
0002e0 36 fe 8b 3a 00 ed 5b 3a 0e fb 25 38 52 2a e1 38
       0.0010680619 0.0008389503 3.957288e-05 0.00010736719
0002f0 c2 98 7f 3a 92 fa 5e 3a 19 d3 6c 39 9e 44 1a 39
       0.0009750241 0.0008505966 0.00022585354 0.00014712146
000300 a8 4b b0 39 20 e6 dd 39 e4 43 a6 ba 7c 4f de ba
       0.00033625704 0.0004232386 -0.0012685028 -0.0016960944
000310 72 ef ef 38 9a d3 24 38 c0 5e b3 35 f8 ab 7b b7
       0.00011441008 3.9297716e-05 1.3364115e-06 -1.5000805e-05
000320 cc db 90 39 bc 71 6f 38 f3 4f d8 b6 fe ea f9 37
       0.00027629582 5.7087964e-05 -6.446609e-06 2.979254e-05
000330 24 1c 09 ba 26 07 5b b9 d8 c9 c6 b9 fa 01 31 ba
       -0.00052303285 -0.0002088813 -0.00037915888 -0.00067523087
000340 7e b2 ec 39 44 17 fb b9 76 87 9f 39 48 c9 0b 38
       0.00045146415 -0.00047891785 0.0003042777 3.332764e-05
000350 d9 68 8c 37 1c cc 7f 38 aa ba ca b8 d9 ac dd b9
       1.6738124e-05 6.098683e-05 -9.6668795e-05 -0.00042281186
000360 d7 69 87 ba b2 ef 3c ba 64 23 3d 39 70 78 bd b8
       -0.0010331225 -0.0007207348 0.00018037629 -9.0346555e-05
000370 d8 a5 11 b8 a0 9b 4a 38 71 71 b4 38 b8 8b 82 b7
       -3.4725148e-05 4.830549e-05 8.604199e-05 -1.556227e-05
000380 21 71 4a 39 83 3a 27 39 48 a5 a5 37 86 07 29 39
       0.00019306365 0.00015948158 1.9746498e-05 0.00016119899
000390 d9 86 93 37 d1 85 6b b9 ec 37 ee 39 72 39 66 39
       1.7586559e-05 -0.00022461197 0.00045436563 0.0002195591
0003a0 82 6d 2f 38 9c ea a9 b5 8d ea f5 b9 fe 32 da 39
       4.182524e-05 -1.2659762e-06 -0.00046904795 0.00041618192
0003b0 00 00 00 00 00 00 00 00 6f 7d d8 39 7d 0a 37 3a
       0.0 0.0 0.00041292186 0.0006982459
0003c0 15 c0 0f 3a fc c1 86 3a c6 d6 58 ba e4 6f 6a b9
       0.00054836395 0.00102812 -0.000827175 -0.00022357662
0003d0 20 72 d9 37 ba 5b b5 38 54 1e 72 37 a5 7b 4d 39
       2.592156e-05 8.647838e-05 1.4431385e-05 0.00019596385
0003e0 dc e8 f1 3a 0b 46 bd 3a 97 4c 82 ba 22 4d 09 b9
       0.0018456238 0.001444043 -0.0009941038 -0.00013094072
0003f0 e0 f2 5a 37 f0 0f 05 b9 6a d0 32 b7 10 61 37 b6
       1.3050361e-05 -0.00012689806 -1.0658152e-05 -2.7325623e-06
