cebra_models/reach1_4/01/A/cebra_trialID_shuffled_model_1000_32_A_02.pt (torch, 207125 bytes, 31 tensors)

net.0.weight f4 [32, 12, 2]
0.062980406 -0.10089427 0.13704242 -0.11449257 0.15093769 0.11761945 -0.038789827 0.21506988
0.10087321 0.17561014 0.06420724 -0.04759912 0.07033152 -0.17336063 0.20504549 -0.10269418
0.10611306 -0.08223931 -0.007983334 -0.11936717 -0.08984715 -0.09034746 0.1826533 0.063739605
0.1417367 -0.118052885 0.20662294 -0.055285696 -0.19705518 -0.022485215 0.15865289 0.029997893
-0.060175363 -0.21344005 -0.08632447 0.17677583 -0.0477372 0.18219352 -0.03401258 -0.17429276
-0.16786464 -0.15041617 0.13599722 -0.02612279 0.0262085 -0.18389797 -0.16730426 -0.14039283
-0.049379945 0.1841794 0.1233765 -0.051600654 0.19392382 0.15400259 0.040473633 0.18036786
-0.079068005 -0.036062703 -0.0145155275 0.10804705 0.08050388 0.090061486 -0.10484502 0.007924584
-0.20535392 -0.1307119 -0.07593578 0.09981197 -0.08940465 0.14161515 0.14817311 -0.06723326
-0.031553905 -0.08153078 -0.19156337 -0.14370897 -0.16468643 -0.0080410885 0.120488204 0.09113544
0.028952757 0.101320654 -0.02954841 -0.14379887 0.14664651 0.043220278 -0.18774733 -0.1859155
0.06576079 0.025809817 0.0382133 -0.15454702 -0.008247785 0.09265624 -0.10778673 -0.18361032
-0.21230362 0.022746634 -0.022783147 -0.15650605 -0.17358994 -0.028843964 -0.16192557 0.0030382234
0.123495266 0.1045411 -0.107491896 0.16273287 -0.12306985 0.12170905 0.13359633 -0.20401588
0.011304785 0.0067741945 -0.028537164 0.1289023 -0.13195656 -0.16963483 -0.033699438 -0.1191839
0.11901139 -0.011766145 0.1255253 0.0651307 -0.08673434 -0.1615435 -0.035489824 -0.13001898
-0.046007197 0.019084748 -0.17349605 0.050913386 -0.1688077 0.0025492047 0.032991763 0.023902226
0.058097396 0.119238555 -0.0073996205 0.11209251 0.19759113 0.17321351 -0.09910703 0.06950692
0.17082512 -0.13261189 0.10955223 -0.012928931 0.038280744 -0.07794753 -0.14538138 -0.087738395
-0.0672399 0.17477909 -0.08497454 -0.14786907 -0.11673202 -0.13792041 -0.0061373967 0.22103897
0.16431583 0.09331357 -0.14780274 0.15058684 0.09488075 -0.19069397 -0.21239206 0.05808951
-0.1374858 0.035948735 0.006690266 -0.18399006 -0.05739242 0.14089146 0.15374152 0.13289426
0.05906231 -0.061235666 -0.14618173 -0.1798679 -0.08083072 0.120088436 -0.02720911 0.18376008
0.15628451 0.015760468 0.19889148 -0.15525454 0.041450687 -0.13492812 -0.029936088 -0.025581738
-0.026236076 0.113149524 -0.018828806 -0.034639463 -0.1741543 -0.14817233 -0.05177656 0.09970435
0.14099684 0.03892677 -0.08223574 0.16089714 -0.022691596 -0.003842023 0.0110372035 0.13369638
0.18396343 0.11570094 0.14855768 -0.012507068 -0.12391134 0.0025387562 0.1964488 -0.13743843
0.051090978 -0.19164065 -0.1128022 -0.00084281736 0.09295644 0.10505239 -0.046888333 -0.095274396
-0.18797684 0.21349569 -0.094388716 -0.18745092 -0.09511028 0.11705319 -0.13895784 -0.10096686
-0.14558332 -0.19159661 -0.1453758 0.17553866 0.033700094 -0.19158614 0.07733956 0.026597878
-0.17195144 0.08640508 0.07139386 0.074047975 0.16422442 0.100749314 -0.034617044 -0.056145836
-0.08198599 -0.058085848 0.13369626 0.12185235 -0.06304382 -0.1754729 0.21681993 -0.14425142
00000000: dffb 803d a8a1 cebd d954 0c3e 157b eabd
00000010: 698f 1a3e 77e2 f03d 15e2 1ebd 473b 5c3e
00000020: 9d96 ce3d 25d3 333e 167f 833d 4bf7 42bd
00000030: f909 903d 7385 31be 72f7 513e 5451 d2bd
00000040: ce51 d93d 156d a8bd 88cc 02bc c676 f4bd
00000050: c801 b8bd 1708 b9bd 7709 3b3e e989 823d
00000060: 6d23 113e b6c5 f1bd f794 533e 4173 62bd
00000070: d5c8 49be ea32 b8bc e775 223e 24be f53c
00000080: 717a 76bd 0790 5abe e2ca b0bd b904 353e
00000090: 1588 43bd f090 3a3e c650 0bbd cd79 32be
000000a0: b5e4 2bbe b206 1abe db42 0b3e 76ff d5bc
000000b0: 35b3 d63c c04f 3cbe cf51 2bbe 23c3 0fbe
000000c0: a042 4abd 8699 3c3e d2ac fc3d 355b 53bd
000000d0: f793 463e dbb2 1d3e aec7 253d 5ab2 383e
000000e0: 68ee a1bd 7cb6 13bd 89d2 6dbc c647 dd3d
000000f0: 38df a43d 2872 b83d fcb8 d6bd 1dd6 013c
00000100: 4c48 52be 57d9 05be 3884 9bbd 386a cc3d
00000110: c919 b7bd 9003 113e b1ba 173e 97b1 89bd
00000120: ab3e 01bd 9cf9 a6bd 3029 44be 7228 13be
00000130: 8fa3 28be c5be 03bc 85c2 f63d 38a5 ba3d
00000140: 552e ed3c 3481 cf3d 820f f2bc 0340 13be
00000150: 812a 163e bf07 313d d640 40be a260 3ebe
00000160: 98ad 863d 1c6f d33c 8d85 1c3d 9341 1ebe
00000170: b821 07bc 8ec2 bd3d 4abf dcbd 5804 3cbe
00000180: 1f66 59be 2657 ba3c b9a3 babc 1f43 20be
00000190: 90c1 31be 2d4a ecbc d1cf 25be ee1c 473b
000001a0: 16eb fc3d a519 d63d b624 dcbd 72a3 263e
000001b0: 0c0c fcbd 9842 f93d 7acd 083e 8ae9 50be
000001c0: b437 393c 10fa dd3b c5c6 e9bc f7fe 033e
000001d0: 9f1f 07be c1b4 2dbe 6c08 0abd b016 f4bd
000001e0: 3ebc f33d cac6 40bc b489 003e 3f63 853d
000001f0: c6a1 b1bd a96b 25be c75d 11bd b223 05be
00000200: 0b72 3cbd 9e57 9c3c f3a8 31be 8e8a 503d
00000210: eddb 2cbe 8f10 273b 5f22 073d 9ace c33c
00000220: 89f7 6d3d 5833 f43d 8478 f2bb c290 e53d
00000230: 5455 4a3e e25e 313e a0f8 cabd a559 8e3d
00000240: c8ec 2e3e 69cb 07be eb5c e03d ded3 53bc
00000250: 45cc 1c3d f4a2 9fbd dbde 14be 30b0 b3bd
00000260: 13b5 89bd 4af9 323e 2207 aebd fd6a 17be
00000270: 3311 efbd 023b 0dbe 371c c9bb 0a58 623e
00000280: 6942 283e 2f1b bf3d 9a59 17be 7033 1a3e
00000290: d750 c23d 4845 43be 4e7d 59be 44ef 6d3d
000002a0: 14c9 0cbe fb3e 133d 053a db3b e467 3cbe
000002b0: 5014 6bbd da45 103e 6b6e 1d3e 6f15 083e
000002c0: 52eb 713d 40d2 7abd aab0 15be 4a2f 38be
000002d0: 948a a5bd edf0 f53d a4e5 debc 9a2b 3c3e
000002e0: 0c09 203e 191c 813c 35aa 4b3e 0cfb 1ebe
000002f0: 32c8 293d 992a 0abe 873c f5bc cb90 d1bc
00000300: 0aed d6bc f0ba e73d de3e 9abc 1ce2 0dbd
00000310: 8155 32be 7dba 17be a813 54bd cb31 cc3d
00000320: 7a61 103e ad71 1f3d 366b a8bd 38c2 243e
00000330: bae3 b9bc 73ca 7bbb 63d5 343c b4e7 083e
00000340: e960 3c3e 9df4 ec3d 811f 183e 72ea 4cbc
00000350: 3bc5 fdbd 4361 263b e029 493e a9bc 0cbe
00000360: c644 513d 723d 44be d704 e7bd 84f0 5cba
00000370: f25f be3d b525 d73d fb0d 40bd 391f c3bd
00000380: 007d 40be 9d9e 5a3e df4e c1bd 22f3 3fbe
00000390: 2ec9 c2bd 95b9 ef3d f74a 0ebe b7c7 cebd
000003a0: cb13 15be e731 44be 65dd 14be 68c0 333e
000003b0: 1c09 0a3d 282f 44be 3464 9e3d cbe3 d93c
000003c0: 0a14 30be 26f5 b03d f236 923d 77a6 973d
000003d0: 722a 283e a855 ce3d 9aca 0dbd 2df9 65bd
000003e0: 45e8 a7bd 6deb 6dbd ace7 083e ba8d f93d
000003f0: 1e1d 81bd 2baf 33be 0b06 5e3e a5b6 13be

net.0.bias f4 [32]
0.19147491 -0.15322147 0.06442225 -0.12399878 -0.18979989 -0.17590694 0.1294106 0.1847106
-0.05165299 -0.13024214 0.1588741 -0.18646343 0.15486242 -0.19350824 0.17338936 0.11218723
-0.042893562 -0.06945211 0.14602765 -0.05211371 0.11653513 0.071246855 -0.1492904 -0.18916014
0.003434005 -0.093782976 0.03970595 -0.023614846 -0.09384365 0.16942881 -0.19352758 -0.13560109
00000000: 0012 443e 17e6 1cbe d0ef 833d 13f3 fdbd
00000010: e75a 42be f320 34be 3684 043e c724 3d3e
00000020: 1692 53bd 325e 05be e4af 223e 45f0 3ebe
00000030: 4194 1e3e 0627 46be fb8c 313e 6bc2 e53d
00000040: 29b1 2fbd e83c 8ebd 4688 153e 3075 55bd
00000050: f8a9 ee3d dfe9 913d 95df 18be 32b3 41be
00000060: 0b0d 613b 4a11 c0bd b5a2 223d ec73 c1bc
00000070: 1931 c0bd bf7e 2d3e 182c 46be 03db 0abe

net.2.module.0.weight f4 [32, 32, 3]
0.07850789 0.07157658 -0.087010086 -0.028761303 0.07848366 0.015494097 -0.008032598 0.064561926
0.039718684 -0.011354488 0.038441215 -0.06496688 0.055466805 0.056506872 0.014002969 0.0110670505
-0.0016117595 0.097212106 0.0002359626 0.07367533 -0.08223753 0.050229535 -0.01784745 0.033448964
0.018538175 -0.080997735 -0.05687128 -0.011550305 0.03263359 0.09486647 -0.027049502 0.06287978
-0.060587734 0.052245732 0.063549906 -0.032074455 0.036816712 0.08716398 0.07313715 -0.08916431
-0.09549395 -0.078318566 0.034204297 -0.018181847 -0.06854261 0.100767165 -0.033729978 0.027451519
-0.04523094 0.05225669 -0.024551457 0.00970198 -0.097859696 -0.04910986 -0.09957853 -0.05565275
0.0906425 -0.018551059 0.03861036 -0.08609474 0.017705001 -0.105805136 -0.094996534 0.042936765
-0.10014658 0.09001491 -0.06252368 0.050546907 -0.016734429 0.025931302 0.027980775 0.0017175534
-0.08831647 0.07092447 0.017229633 0.058660805 0.09082545 0.08944633 0.012804696 -0.050780162
-0.057882126 -0.06277801 0.07276728 0.011041632 0.055280223 -0.0423843 0.10577722 -0.057760477
-0.045181595 -0.021732219 -0.068210855 -0.1041687 -0.020245867 0.026443316 -0.108912796 0.013839843
0.10923952 0.00044337814 -0.07142943 0.08222274 0.03611837 -0.023583654 0.054758076 -0.107656084
-0.060957823 0.07970925 -0.022347871 0.0029679986 0.039785415 0.011330891 0.018682973 0.06711904
-0.0195012 -0.09253236 -0.05621742 0.050659444 -0.048618067 0.018031254 -0.057337116 0.086306326
0.012136028 0.012748902 0.05517298 0.050823517 0.050658423 -0.031628303 0.058117118 -0.07157005
-0.055087704 0.085120104 0.0061184377 0.022167157 0.09818938 -0.08371109 -0.07918647 0.054111544
-0.11293229 -0.10547283 0.092092596 0.037678998 -0.03095382 -0.0072235586 -0.012155189 -0.007928983
-0.038029015 0.04184032 -0.0002851762 0.11099524 -0.111450225 -0.00922691 0.033657365 -0.082076766
0.08347128 0.034703553 0.079882205 0.035235215 0.11412016 0.020849476 -0.06741226 0.08590163
-0.037537847 0.09421183 0.024546195 0.048194367 -0.0015444482 -0.07708524 0.08724709 0.065947495
0.028245527 0.03378306 0.049220607 -0.04117253 -0.000122016674 -0.03760844 0.007879643 0.044507965
-0.010826183 0.003331945 -0.03197459 -0.01832976 0.065110646 -0.036386926 -0.015576083 -0.02815392
-0.061619576 0.129906 0.031458452 -0.1021593 0.038875964 0.045055937 -0.041881055 -0.05290717
0.12749137 -0.08060367 -0.058346365 0.081347026 0.080526724 0.049713977 0.10593 -0.0281837
0.030289978 0.012049495 -0.060345408 0.039440583 0.008419731 0.060831595 0.10081287 0.075291075
0.008451899 0.0770766 -0.031812638 0.099556334 0.10455999 -0.018509254 -0.08831476 0.0647962
0.06367864 -0.08305995 -0.048879083 0.08128903 -0.09558715 -0.058265176 0.09852976 0.08240315
0.072247304 0.1154575 -0.10237337 0.008212998 0.09259455 0.049126603 0.023799833 -0.0373785
0.07763675 -0.043801304 0.09569661 0.1082965 0.057642825 -0.060829457 -0.08931615 -0.06728725
0.044598863 -0.080734886 -0.06387239 -0.024117444 0.011751309 0.060947992 0.09900927 -0.09559557
0.09166062 -0.01057201 -0.07466654 -0.08985871 0.09927857 -0.07102914 0.097606696 -0.02320376
00000000: bfc8 a03d be96 923d 5832 b2bd d39c ebbc
00000010: 0bbc a03d f4da 7d3c 289b 03bc 0b39 843d
00000020: 0fb0 223d 2d08 3abc 8974 1d3d 5b0d 85bd
00000030: 2931 633d c073 673d b56c 653c 9352 353c
00000040: ad41 d3ba 2417 c73d ba6c 7739 17e3 963d
00000050: 266c a8bd 7cbd 4d3d d134 92bc c801 093d
00000060: 5fdd 973c 24e2 a5bd dcf1 68bd 7e3d 3dbc
00000070: cdaa 053d 5a49 c23d eb96 ddbc 1dc7 803d
00000080: d82a 78bd 9fff 553d 7426 823d 8160 03bd
00000090: 1fcd 163d 0783 b23d eec8 953d c79b b6bd
000000a0: 5592 c3bd 7c65 a0bd ce19 0c3d 19f2 94bc
000000b0: 1160 8cbd 045f ce3d 7228 0abd 02e2 e03c
000000c0: 1444 39bd 1c0b 563d 2320 c9bc 0ef5 1e3c
000000d0: aa6a c8bd 6c27 49bd d4ef cbbd 23f4 63bd
000000e0: c6a2 b93d 64f8 97bc e625 1e3d 7052 b0bd
000000f0: 140a 913c 5db0 d8bd 8b8d c2bd 76de 2f3d
00000100: a619 cdbd bd59 b83d 6a0c 80bd 460a 4f3d
00000110: a416 89bc e26d d43c f037 e53c 871f e13a
00000120: 44df b4bd d940 913d 2925 8d3c 5046 703d
00000130: b202 ba3d a32f b73d caca 513c dcfe 4fbd
00000140: cf15 6dbd c291 80bd 0307 953d f6e7 343c
00000150: 846d 623d 299b 2dbd baa1 d83d 4096 6cbd
00000160: 5610 39bd c407 b2bc 22b2 8bbd 6656 d5bd
00000170: a9da a5bc a79f d83c ac0d dfbd 82c0 623c
00000180: f8b8 df3d 3575 e839 9849 92bd 6564 a83d
00000190: dbf0 133d 8232 c1bc 014a 603d cb7a dcbd
000001a0: e9ae 79bd 9a3e a33d e212 b7bc c182 423b
000001b0: 08f6 223d 34a5 393c 090d 993c b575 893d
000001c0: fbc0 9fbc 9b81 bdbd 3d44 66bd 4780 4f3d
000001d0: bd23 47bd 48b6 933c 53da 6abd 5fc1 b03d
000001e0: 31d6 463c c5e0 503c 10fd 613d 522c 503d
000001f0: 357f 4f3d ae8c 01bd 370c 6e3d 5293 92bd
00000200: a5a3 61bd 7353 ae3d 2d7d c83b e697 b53c
00000210: 8317 c93d b870 abbd 842c a2bd 11a4 5d3d
00000220: 0b49 e7bd 2402 d8bd 0b9b bc3d 4b55 1a3d
00000230: de92 fdbc 9ab3 ecbb 8f26 47bc 91e8 01bc
00000240: 50c4 1bbd c160 2b3d b483 95b9 7951 e33d
00000250: 0440 e4bd 772c 17bc 4edc 093d dd17 a8bd
00000260: fef2 aa3d 5025 0e3d 4899 a33d cd52 103d
00000270: d5b7 e93d 85cc aa3c 700f 8abd 32ed af3d
00000280: 49c1 19bd 22f2 c03d 1a15 c93c 7567 453d
00000290: 156f caba dede 9dbd 9aae b23d 7b0f 873d
000002a0: 2a63 e73c 1b60 0a3d 8c9b 493d 87a4 28bd
000002b0: 34e3 ffb8 4f0b 1abd 9e19 013c fc4d 363d
000002c0: 4d60 31bc c35c 5a3b caf7 02bd 4b28 96bc
000002d0: bb58 853d 750a 15bd d432 7fbc 0da3 e6bc
000002e0: cf64 7cbd 1406 053e 94da 003d e538 d1bd
000002f0: 673c 1f3d 938c 383d 788b 2bbd 30b5 58bd
00000300: 198d 023e 8913 a5bd 99fc 6ebd 4599 a63d
00000310: 32eb a43d e2a0 4b3d d4f1 d83d 81e1 e6bc
00000320: b022 f83c 3f6b 453c bf2c 77bd 738c 213d
00000330: e9f2 093c 8d2a 793d fa76 ce3d 3532 9a3d
00000340: d579 0a3c 56da 9d3d f84d 02bd 31e4 cb3d
00000350: 8c23 d63d b8a0 97bc 5ede b4bd dfb3 843d
00000360: f269 823d 561b aabd 6f35 48bd dd7a a63d
00000370: 32c3 c3bd 77a7 6ebd f9c9 c93d fcc2 a83d
00000380: 65f6 933d fb74 ec3d 21a9 d1bd cf8f 063c
00000390: 36a2 bd3d fa38 493d def7 c23c 331a 19bd
000003a0: 0400 9f3d ff68 33bd 96fc c33d 8eca dd3d
000003b0: e21a 6c3d 4f28 79bd 63eb b6bd e6cd 89bd
000003c0: 4cad 363d 5558 a5bd 87cf 82bd f291 c5bc
000003d0: 9088 403c 9aa4 793d 5fc5 ca3d 9cc7 c3bd
000003e0: 90b8 bb3d 3936 2dbc c5ea 98bd d807 b8bd
000003f0: 9052 cb3d ba77 91bd 05e6 c73d d015 bebc

net.2.module.0.bias f4 [32]
-0.015345117 0.07615368 -0.004459031 0.068680026 0.09150946 0.10433651 0.066459835 0.04523033
0.005999048 -0.023993114 0.0030123454 0.045991577 -0.031703457 -0.028706213 -0.06496793 0.07300058
-0.08101398 0.082658514 0.005566769 -0.038673848 0.0707074 -0.003119773 0.025761496 -0.0586528
0.050883275 -0.07361545 0.055126887 0.09746657 -0.061745 -0.040255804 0.004808134 0.03235124
00000000: 166a 7bbc 76f6 9b3d 101d 92bb 1da8 8c3d
00000010: 5069 bb3d 61ae d53d 181c 883d 7043 393d
00000020: a993 c43b 358d c4bc c56a 453b aa61 3c3d
00000030: 7cdb 01bd 4b29 ebbc e80d 85bd 5481 953d
00000040: a8ea a5bd de48 a93d 7169 b63b 7868 1ebd
00000050: 0bcf 903d 1b75 4cbb c609 d33c eb3d 70bd
00000060: fb6a 503d b2c3 96bd bbcc 613d 8e9c c73d
00000070: 53e8 7cbd 45e3 24bd 8d8d 9d3b bc82 043d

net.3.module.0.weight f4 [32, 32, 3]
0.059579164 0.095728986 -0.011772531 0.06719921 -0.034645915 0.081861004 -0.06061584 0.07477481
0.07873262 0.029862076 -0.085764594 0.102528796 -0.058372803 -0.09628195 -0.026086668 -0.0065343804
0.011954944 -0.006900133 0.0045949114 0.08333296 0.014496058 -0.035985615 0.016638556 -0.05328206
-0.009060965 -0.0005546417 0.0247104 -0.09716321 0.05747722 -0.042068776 0.0136900265 -0.03865981
0.046937045 0.06272415 -0.06563691 6.298091e-05 -0.066546746 0.015322782 -0.023403807 0.02944295
0.08239823 0.0034246051 0.06873303 0.011638092 0.035467725 0.07958719 0.005283897 -0.023945943
0.041719913 0.0116103925 0.023505488 0.06494201 0.018178 -0.08585032 -0.020139882 0.012856803
0.07465725 0.07518688 0.0046917144 0.020252617 0.09358774 -0.027085463 -0.060308464 -0.08780953
0.021101158 0.098230876 0.04859979 -0.044888455 0.098588265 -0.008067662 -0.04778034 0.077615
0.033099134 -0.034675047 0.09960001 0.050077327 -0.09043724 -0.029284252 -0.09446657 -0.0968316
-0.019647527 -0.028092563 -0.07098015 0.010736696 -0.07729363 0.017456219 -0.019302068 -0.07770773
-0.0045793597 -0.11215996 -0.05085071 0.015247571 0.10168148 -0.032922123 0.031659685 0.09731073
-0.039760865 0.08516712 -0.102112554 0.0047614644 -0.09092472 -0.004337128 -0.01613658 0.071738556
0.09573791 -0.029884381 0.046888772 -0.08871391 0.05188434 0.08547648 -0.07335411 0.095643334
0.07595635 -0.095626116 0.08672069 0.05685602 -0.08149373 0.085147165 0.047485575 -0.004189705
0.008799097 0.01831273 0.013859336 0.0015709095 -0.113662414 0.06139535 0.06700989 0.0051329513
0.018556586 0.034275007 -0.0018752466 -0.07550247 -0.017191852 0.02171296 0.018216047 0.05813955
-0.08706447 0.0708164 0.027209839 -0.0083091445 0.12444328 -0.100777626 -0.08726225 0.03751689
-0.040043376 -0.07269158 0.091450535 0.0427753 -0.029480835 0.015400497 -0.09134367 0.072413184
-0.0082928715 -0.025969796 -0.06322607 -0.049479447 -0.012916797 0.017990794 0.09221154 -0.04086237
-0.07900765 -0.04373558 -0.1031944 0.012278334 -0.01406916 -0.08064989 -0.032557346 0.06240521
0.07260147 -0.08088567 -0.10231883 0.0560606 0.09302478 0.05819875 -0.096288845 0.015303268
0.00046990716 0.027754392 -0.048105028 0.052978586 0.0056008496 -0.0007592737 0.018075008 0.11091257
-0.0999754 0.11100299 0.014191756 -0.06319269 0.08518767 -0.0712954 0.035211686 -0.06596273
-0.077578604 0.038674757 -0.09631648 0.067079596 -0.08118652 0.013921201 -0.089581445 0.07724984
0.03689769 -0.05467022 -0.106025435 0.0939966 -0.03378265 -0.0831121 0.062444773 0.029008346
-0.0996835 -0.031294636 -0.05589545 -0.029176254 -0.012643153 0.06542166 -0.061871313 -0.076435156
0.044773377 0.068197474 0.038048122 0.0102524655 0.045857873 0.011694799 -0.095416814 -0.061807763
0.06894132 -0.102193564 -0.0018042643 -0.036506213 -0.03386923 -0.06776416 -0.00073040917 -0.030739406
0.088275254 -0.10194073 0.081791304 -0.023656579 -0.07171601 -0.0068451464 0.04255718 -0.10254621
0.024390751 0.09471417 -0.06280192 -0.0068938043 0.04833602 0.007951363 -0.06869157 0.039630808
0.01556774 -0.09444216 -0.07522665 -0.015265517 -0.03512083 0.0109142875 -0.074203625 0.01888222
00000000: 4809 743d 8f0d c43d 93e1 40bc bd9f 893d
00000010: e0e8 0dbd bea6 a73d 5148 78bd 8923 993d
00000020: 913e a13d 50a1 f43c 59a5 afbd 9efa d13d
00000030: 5218 6fbd 792f c5bd b5b3 d5bc 5b1e d6bb
00000040: abde 433c 831a e2bb e990 963b 79aa aa3d
00000050: e080 6d3c a765 13bd 954d 883c 4a3e 5abd
00000060: 7174 14bc 6065 11ba 776d ca3c 81fd c6bd
00000070: 3c6d 6b3d 4f50 2cbd 224c 603c c059 1ebd
00000080: 0f41 403d 8575 803d a56c 86bd 9e14 8438
00000090: a949 88bd 680c 7b3c 57b9 bfbc 5732 f13c
000000a0: 67c0 a83d 576f 603b e7c3 8c3d b2ad 3e3c
000000b0: 9b46 113d 9cfe a23d 8a24 ad3b 482a c4bc
000000c0: 80e2 2a3d 8439 3e3c 958e c03c 5100 853d
000000d0: 07ea 943c 4bd2 afbd 65fc a4bc 57a5 523c
000000e0: e6e5 983d 94fb 993d f4bc 993b d1e8 a53c
000000f0: eeaa bf3d 55e2 ddbc 0206 77bd 7cd5 b3bd
00000100: 56dc ac3c 452d c93d 9310 473d f5dc 37bd
00000110: a5e8 c93d 3a2e 04bc 51b5 43bd 9df4 9e3d
00000120: f592 073d 6c07 0ebd 17fb cb3d e21d 4d3d
00000130: 2937 b9bd 87e5 efbc b077 c1bd a54f c6bd
00000140: daf3 a0bc 6022 e6bc 0a5e 91bd f8e8 2f3c
00000150: 1f4c 9ebd 5800 8f3c 5f1f 9ebc 3b25 9fbd
00000160: 740e 96bb 1fb4 e5bd d648 50bd f3d0 793c
00000170: 613e d03d 59d9 06bd 96ad 013d d94a c73d
00000180: 4adc 22bd 196c ae3d 6320 d1bd 0f06 9c3b
00000190: bd36 babd 771e 8ebb dc30 84bc aaeb 923d
000001a0: 3d12 c43d 17d0 f4bc 710e 403d a3af b5bd
000001b0: ac84 543d 4b0e af3d ae3a 96bd a7e0 c33d
000001c0: 018f 9b3d a0d7 c3bd 9e9a b13d dce1 683d
000001d0: 2fe6 a6bd a361 ae3d 3c80 423d cb49 89bb
000001e0: 162a 103c 9404 963c 4512 633c fae6 cd3a
000001f0: d7c7 e8bd b179 7b3d 7b3c 893d 5132 a83b
00000200: fb03 983c f363 0c3d d6ca f5ba 0aa1 9abd
00000210: edd5 8cbc 61df b13c d239 953c bd23 6e3d
00000220: db4e b2bd 3008 913d 2be7 de3c 1423 08bc
00000230: 1edc fe3d 8064 cebd 8db6 b2bd 4fab 193d
00000240: 8604 24bd 53df 94bd 6b4a bb3d 2735 2f3d
00000250: cb81 f1bc 5e52 7c3c 6412 bbbd 5d4d 943d
00000260: d3de 07bc 9cbe d4bc ab7c 81bd f6aa 4abd
00000270: f9a0 53bc 6e61 933c 67d9 bc3d 4d5f 27bd
00000280: c3ce a1bd 1424 33bd 9657 d3bd 112b 493c
00000290: 5682 66bc c52b a5bd da5a 05bd 9b9c 7f3d
000002a0: 14b0 943d 63a7 a5bd 898c d1bd cd9f 653d
000002b0: c783 be3d d061 6e3d 1633 c5bd 8fba 7a3c
000002c0: df5d f639 2e5d e33c c709 45bd 1300 593d
000002d0: 5587 b73b ff09 47ba 0a12 943c 2126 e33d
000002e0: e7bf ccbd 8955 e33d 8a84 683c 2b6b 81bd
000002f0: e076 ae3d 5303 92bd 213a 103d 7817 87bd
00000300: 88e1 9ebd 6c69 1e3d 9341 c5bd 0761 893d
00000310: 1e45 a6bd c015 643c 7a76 b7bd 2a35 9e3d
00000320: 0822 173d e1ed 5fbd dd23 d9bd 4a81 c03d
00000330: ad5f 0abd ad36 aabd 17c6 7f3d e9a2 ed3c
00000340: dd26 ccbd ce2e 00bd a1f2 64bd 0a03 efbc
00000350: 3a25 4fbc cbfb 853d c66c 7dbd 098a 9cbd
00000360: 4a64 373d 1eab 8b3d 59d8 1b3d f5f9 273c
00000370: 77d5 3b3d 8b9b 3f3c e469 c3bd 232a 7dbd
00000380: 1b31 8d3d dc4a d1bd 107d ecba 8a87 15bd
00000390: 76ba 0abd f0c7 8abd ee78 3fba 35d1 fbbc
000003a0: a8c9 b43d 4dc6 d0bd 3382 a73d 71cb c1bc
000003b0: d8df 92bd 404d e0bb 7050 2e3d bf03 d2bd
000003c0: 1dcf c73c 81f9 c13d 4b9e 80bd 6ce5 e1bb
000003d0: fefb 453d 6f46 023c 2aae 8cbd ea53 223d
000003e0: d60f 7f3c e46a c1bd 6e10 9abd 381c 7abc
000003f0: dcda 0fbd d7d1 323c 12f8 97bd e3ae 9a3c

net.3.module.0.bias f4 [32]
-0.06273542 -0.032293208 -0.10021826 -0.025766712 -0.038487602 -0.049793847 0.030710926 0.013423438
-0.058448516 -0.030710394 -0.02838876 0.067527525 -0.0403969 0.049722992 0.07108169 -0.010757105
-0.020803899 0.012051892 0.0525205 -0.030285934 -0.021255644 -0.09136892 0.04420371 0.015779871
0.03816162 0.014496359 0.089283064 0.08122731 -0.043157537 0.009844133 -0.008077811 -0.092630684
00000000: 6e7b 80bd e245 04bd 3b3f cdbd b614 d3bc
00000010: 2da5 1dbd a2f4 4bbd 7b95 fb3c fbed 5b3c
00000020: b667 6fbd 5d94 fbbc 8b8f e8bc df4b 8a3d
00000030: 3877 25bd 56aa 4b3d 4793 913d 923e 30bc
00000040: f06c aabc 4c75 453c bc1f 573d 351a f8bc
00000050: 5120 aebc a11f bbbd f30e 353d ca44 813c
00000060: 5c4f 1c3d 2382 6d3c 0ada b63d 815a a63d
00000070: f5c5 30bd 4949 213c cc58 04bc 28b5 bdbd

net.4.module.0.weight f4 [32, 32, 3]
-0.04878797 -0.05096884 0.09626845 0.05306326 0.03693676 0.09231361 0.09751044 0.08495391
-0.08180578 0.07282683 0.018338798 -0.08351926 0.06357492 0.058837865 0.036995728 -0.006723141
-0.020075733 0.0024042989 -0.074692145 -0.024652338 0.027691295 0.036885746 0.039632205 0.0596602
0.006844926 -0.00043867697 -0.084043555 -0.059538167 0.087850265 -0.094580285 -0.026366178 -0.0046683466
-0.06471533 -0.0057492 0.029021278 -0.045289453 -0.07185043 -0.07362047 -0.053025123 0.09329483
0.04520401 0.0030451217 -0.050910037 -0.10518244 -0.009321411 0.062273923 -0.07945891 0.017675767
0.09125777 -0.0061621 0.026049495 -0.041397452 -0.039563645 -0.07435055 -0.012600587 0.041223213
0.061815135 -0.004979247 -0.054661766 -0.0737029 0.05475288 0.0008397371 0.019747028 0.08070469
0.087809995 0.055734895 -0.0368391 0.0075392444 -0.020064576 0.068551764 0.022065664 -0.062955044
-0.09931387 0.08532382 0.061950188 0.016733244 0.059138473 -0.08497076 0.06784615 -0.021713559
-0.018332906 -0.044306878 0.006573783 -0.051963292 0.052219167 0.07655172 -0.055873517 -0.050497953
0.050303437 0.01900983 -0.01436482 -0.09557237 0.015466095 0.10866682 0.036625214 -0.0302672
-0.012509752 -0.07024774 -0.053696148 0.0003663562 -0.08032243 0.091467924 -0.1049972 -0.07055931
-0.0559593 -0.018918766 -0.0025029215 0.05947371 -0.06706077 0.09191697 -0.03436555 0.06688212
-0.06927312 -0.03523331 0.007502818 0.07996947 -0.0841865 -0.0755775 0.042958718 0.0787969
-0.021630721 -0.036424603 0.084807515 0.003663421 0.05557634 0.061826363 0.06947421 0.04854088
0.04288704 0.00444236 0.04569988 0.089307934 0.03523101 0.049907435 0.035541065 -0.02753599
-0.036065586 -0.09252217 0.095760055 0.091982946 -0.06370146 -0.103931 0.032455523 -0.06145762
0.06310543 -0.03465707 0.008805362 -0.001728076 -0.085767955 -0.0044658245 -0.00048857456 -0.0544891
0.039779533 0.08225074 0.07122463 0.019482842 -0.0113525335 0.020922694 -0.030293936 -0.09596029
-0.028245833 0.07447906 0.051471263 0.0029345267 -0.072210595 0.029956024 -0.06056218 0.038184304
0.08810612 -0.073755 0.083089545 0.058480438 0.06890741 -0.10349907 0.006904435 -0.04605759
0.06684845 0.08996872 -0.012173404 0.079046406 -0.103480555 -0.0883321 -0.07994012 0.0090989685
-0.024162358 -0.02995781 -0.06184123 0.082699075 -0.055528924 -0.038161382 -0.09354726 0.073252186
0.09757064 0.028056253 -0.052773047 -0.035090566 -0.059071407 0.055084154 0.05632233 0.08019281
-0.07613409 -0.0005113784 -0.021899445 0.031087674 -0.08909153 0.0057034474 0.060054157 -0.009256494
0.034038574 -0.02143177 0.030914146 -0.0778767 -0.08018923 -0.0026286175 -0.043986507 -0.07060601
-0.037822824 -0.024983834 -0.04835241 0.024340639 -0.010093001 0.037801057 -0.014736608 -0.024966313
0.10924321 -0.03359857 0.05603804 0.076634616 -0.012673121 0.05720284 0.050270498 -0.055506367
-0.046701152 0.0021036249 -0.066744976 0.015869835 -0.016871622 -0.01951841 -0.07432011 0.016060017
0.07512789 -0.087437905 0.098746285 0.031408228 0.046490934 -0.03501899 -0.03897395 0.06235593
-0.06978246 0.00507159 -0.09304209 -0.052028306 0.050384555 0.009797828 0.015607627 -0.028048597
00000000: e5d5 47bd b4c4 50bd 6528 c53d dc58 593d
00000010: 004b 173d eb0e bd3d 8eb3 c73d 51fc ad3d
00000020: ca89 a7bd 3c26 953d 3f3b 963c 250c abbd
00000030: 9133 823d f9ff 703d d588 173d cb4d dcbb
00000040: dd75 a4bc 7191 1d3b 32f8 98bd b3f3 c9bc
00000050: dbd8 e23c 8215 173d 6155 223d 415e 743d
00000060: 674b e03b 3afe e5b9 071f acbd 4bde 73bd
00000070: d7ea b33d 4fb3 c1bd e2fd d7bc eef8 98bb
00000080: 7989 84bd c963 bcbb 08be ed3c 6f81 39bd
00000090: 5126 93bd 54c6 96bd df30 59bd 5c11 bf3d
000000a0: d727 393d aa90 473b 0b87 50bd e469 d7bd
000000b0: d5b8 18bc f112 7f3d 5abb a2bd c5cc 903c
000000c0: 5be5 ba3d 71eb c9bb c065 d53c 6090 29bd
000000d0: 7d0d 22bd 1a45 98bd b172 4ebc acd9 283d
000000e0: de31 7d3d f428 a3bb 04e5 5fbd 8cf1 96bd
000000f0: 8e44 603d ce21 5c3a 85c4 a13c 8048 a53d
00000100: bad5 b33d 464a 643d 99e4 16bd c40b f73b
00000110: 775e a4bc de64 8c3d 0dc3 b43c 93ee 80bd
00000120: 1265 cbbd 41be ae3d 7bbf 7d3d 2814 893c
00000130: 2f3b 723d 2605 aebd ecf2 8a3d a2e0 b1bc
00000140: e42e 96bc 217b 35bd e368 d73b 76d7 54bd
00000150: c4e3 553d 26c7 9c3d a1db 64bd f1d6 4ebd
00000160: fa0a 4e3d 81ba 9b3c 6c5a 6bbc 72bb c3bd
00000170: 8165 7d3c b68c de3d 5204 163d ebf2 f7bc
00000180: b4f5 4cbc 0cde 8fbd 7ef0 5bbd 7f13 c039
00000190: 1680 a4bd 8953 bb3d c608 d7bd 6681 90bd
000001a0: 9435 65bd 87fb 9abc 0e08 24bb b49a 733d
000001b0: 2857 89bd f73e bc3d e4c2 0cbd 7ef9 883d
000001c0: 11df 8dbd ce50 10bd 33da f53b 09c7 a33d
000001d0: f969 acbd 60c8 9abd 7bf5 2f3d 4560 a13d
000001e0: e932 b1bc f731 15bd 90af ad3d 0116 703b
000001f0: 04a4 633d a43d 7d3d 7f48 8e3d cdd2 463d
00000200: 52aa 2f3d 3791 913b cc2f 3b3d 14e7 b63d
00000210: 644e 103d bd6b 4c3d 8293 113d 2893 e1bc
00000220: 82b9 13bd 437c bdbd d91d c43d 8e61 bc3d
00000230: e975 82bd c7d9 d4bd 15f0 043d fcba 7bbd
00000240: 6b3d 813d 92f4 0dbd 5d44 103c 9c80 e2ba
00000250: 1ca7 afbd 0d56 92bb af13 00ba f62f 5fbd
00000260: ddef 223d 1373 a83d 38de 913d 7b9a 9f3c
00000270: faff 39bc 1266 ab3c fd2a f8bc d486 c4bd
00000280: ce63 e7bc 7a88 983d 88d3 523d 3051 403b
00000290: 26e3 93bd 5666 f53c 0c10 78bd 2567 1c3d
000002a0: fb70 b43d dd0c 97bd da2a aa3d 2f89 6f3d
000002b0: 541f 8d3d 52f7 d3bd 993e e23b e2a6 3cbd
000002c0: d7e7 883d 8541 b83d f572 47bc 15e3 a13d
000002d0: 9ded d3bd 76e7 b4bd a5b7 a3bd d713 153c
000002e0: 23f0 c5bc 156a f5bc 3b4d 7dbd 225e a93d
000002f0: 4c72 63bd 1c4f 1cbd b595 bfbd 3e05 963d
00000300: 1ed3 c73d 3ad6 e53c 8d28 58bd 20bb 0fbd
00000310: dcf4 71bd ec9f 613d 3eb2 663d 213c a43d
00000320: 31ec 9bbd 060e 06ba 7766 b3bc 94ab fe3c
00000330: 9f75 b6bd fce3 ba3b 59fb 753d 8da8 17bc
00000340: 086c 0b3d ae91 afbc aa3f fd3c d27d 9fbd
00000350: 403a a4bd e244 2cbb 322b 34bd e299 90bd
00000360: 1bec 1abd e6aa ccbc 2d0d 46bd 0566 c73c
00000370: 1d5d 25bc 48d5 1a3d d071 71bc 2786 ccbc
00000380: e7ba df3d a79e 09bd 2588 653d 9cf2 9c3d
00000390: eca2 4fbc 864d 6a3d 70e8 4d3d a55a 63bd
000003a0: b549 3fbd f8dc 093b 97b1 88bd 7501 823c
000003b0: 5b36 8abc 13e5 9fbc 2435 98bd 4c90 833c
000003c0: a7dc 993d a512 b3bd 7e3b ca3d eaa5 003d
000003d0: 476d 3e3d 1370 0fbd 26a3 1fbd ef68 7f3d
000003e0: 1bea 8ebd 952f a63b da8c bebd a21b 55bd
000003f0: 0960 4e3d 1287 203c 22b7 7f3c 2cc6 e5bc

net.4.module.0.bias f4 [32]
0.021109296 0.019229611 -0.008736958 0.12254821 0.04704309 0.030986821 -0.039391764 0.019248918
0.06360839 0.06742276 -0.052280176 -0.034145102 0.074686676 0.09399844 0.0026271266 0.0116959
0.005258376 -0.04709791 0.020370075 0.100941405 0.024173738 -0.046295412 -0.09741073 0.041351944
0.073210075 0.072173454 -0.008721966 0.082978874 -0.07471151 0.059037264 -0.093964666 -0.006585259
00000000: 67ed ac3c 6b87 9d3c 7525 0fbc 8efa fa3d
00000010: 41b0 403d 13d8 fd3c 4259 21bd e8af 9d3c
00000020: 1e45 823d f214 8a3d bd23 56bd bcdb 0bbd
00000030: 54f5 983d 4182 c03d df2b 2c3b 29a0 3f3c
00000040: 744e ac3b bde9 40bd 25df a63c 5eba ce3d
00000050: 0108 c63c 42a0 3dbd 477f c7bd a860 293d
00000060: 2aef 953d adcf 933d 94e6 0ebc d4f0 a93d
00000070: 5902 99bd 0fd1 713d 8c70 c0bd 28c9 d7bb

net.5.weight f4 [32, 32, 3]
0.026213335 -0.010848952 0.096232794 0.080193006 -0.08342144 0.09215424 0.058683373 -0.07852397
-0.08356374 0.032585632 -0.011303708 -0.06393453 0.07302863 -0.0553891 -0.004501451 0.058879334
0.010888444 0.06338236 0.03905033 -0.058957472 0.068213925 -0.0104327295 -0.04169723 0.034359362
-0.10859143 -0.061628334 0.005248248 0.102582514 -0.07990185 0.014003446 0.091464005 -0.09860238
0.0862363 -0.01871011 0.04450399 -0.08941351 -0.06336145 0.07803325 0.09872995 0.0144242365
0.0709698 0.010142094 0.09989122 0.06637666 0.049044736 -0.025233567 -0.069124356 -0.029383836
0.010113639 0.035175446 -0.04735443 -0.08272213 -0.11071778 0.04669634 -0.005673518 0.04793187
0.019321727 0.051132284 0.08086675 0.055580426 -0.023144174 -0.03482921 0.09555381 -0.072918765
-0.06468592 0.052463055 0.024311425 0.020843726 0.014669218 0.094331056 0.06454053 0.07341618
-0.07656132 0.010962538 -0.086228125 -0.008848222 0.0051508085 -0.05991323 -0.022200424 -0.0881767
0.018523533 0.06830421 0.081162505 -0.008137968 -0.045405358 0.10339531 0.06242992 -0.10117321
-0.040708367 0.05426712 0.02348415 -0.011559328 -0.013077909 -0.04066518 -0.045351602 -0.08244905
0.012188285 0.06004848 0.0054385825 0.060888037 0.050763458 0.0015954816 -0.054904964 0.09330537
-0.08966234 0.024145594 0.06501357 0.06529752 -0.05334836 -0.022558957 0.091884494 -0.0734519
-0.026487913 -0.1072234 -0.07934478 -0.033350646 0.07699568 -0.043408927 0.09832447 0.020997068
0.0001584857 -0.09143442 -0.030707076 -0.09015974 -0.01367983 0.019107418 0.0944329 -0.039794896
0.038096443 0.00705194 0.035518453 -0.051649723 -0.107533514 0.049973845 0.02851287 0.0013808825
-0.011403252 0.04908436 -0.014876064 -0.07021444 0.04267933 -0.04037028 0.020083765 -0.0171662
-0.0155515475 -0.01715039 0.051044136 0.07763387 -0.0843332 0.010489692 -0.024785403 -0.018468011
-0.04840243 -0.037790578 -0.030039975 0.07309243 0.07389045 -0.0626973 -0.054936554 0.053751606
-0.04664395 -0.08069002 0.0989623 -0.009193041 -0.068427235 0.04935001 0.038715504 0.047876082
0.014519864 0.082613245 0.054850444 0.053503305 -0.05881607 -0.078923546 0.11788861 0.014295817
0.004395648 0.038840335 0.0755295 0.01686148 0.0045846486 -0.049066007 -0.009031212 -0.038546145
-0.035679024 0.060474586 0.043765195 0.053657558 0.011725177 0.047998507 -0.0630971 -0.008514711
-0.013302335 -0.101905376 -0.08021586 0.04807097 0.042316787 0.06722488 0.081839845 -0.009469939
0.039823867 -7.424179e-05 0.08401237 0.06959316 0.045694347 -0.06364585 0.09347714 0.021935388
-0.010652395 0.071199745 -0.08202491 -0.073382586 -0.035012618 -0.07843215 0.103346616 0.048140787
0.035890717 -0.06506425 0.0737413 -0.06856752 0.09513057 -0.09070494 -0.055583246 -0.030872295
0.040755928 -0.036340926 0.03859264 0.051055335 0.045935508 -0.050501864 -0.10133449 -0.021450676
0.051273953 0.08127318 0.00803436 -0.08822572 0.065709256 -0.07548759 -0.034642484 -0.06288171
-0.021474032 0.08986852 -0.06667475 -0.048039854 0.112157166 -0.0022395938 0.03903625 0.07472556
-0.052128103 0.066749886 -0.017313698 -0.035702456 -0.027586143 -0.06776002 0.05289585 0.06252324
00000000: 59bd d63c cebf 31bc b315 c53d 3b3c a43d
00000010: dcd8 aabd 5dbb bc3d fa5d 703d 2dd1 a0bd
00000020: 7723 abbd 8378 053d 3033 39bc 1bf0 82bd
00000030: 0990 953d aedf 62bd e880 93bb 752b 713d
00000040: 7265 323c 9cce 813d 3df3 1f3d 647d 71bd
00000050: beb3 8b3d 0aee 2abc b7ca 2abd 67bc 0c3d
00000060: 2f65 debd fe6d 7cbd 7ff9 ab3b c816 d23d
00000070: 95a3 a3bd b66e 653c 7b51 bb3d 0bf0 c9bd
00000080: a89c b03d f245 99bc d149 363d 6e1e b7bd
00000090: a6c3 81bd e6cf 9f3d ee32 ca3d a253 6c3c
000000a0: 9d58 913d 072b 263c c593 cc3d 7cf0 873d
000000b0: 22e3 483d a0b6 cebc 1291 8dbd 5fb6 f0bc
000000c0: adb3 253c 2114 103d b8f6 41bd 386a a9bd
000000d0: 01c0 e2bd a944 3f3d ebe8 b9bb 3554 443d
000000e0: 9948 9e3c 1670 513d 779d a53d 4da8 633d
000000f0: da98 bdbc 13a9 0ebd b7b1 c33d 6f56 95bd
00000100: 0d7a 84bd 80e3 563d c128 c73c 76c0 aa3c
00000110: 2957 703c a430 c13d d32d 843d 395b 963d
00000120: 2ecc 9cbd 389c 333c 5f98 b0bd 22f8 10bc
00000130: 1dc8 a83b 9367 75bd aadd b5bc fc95 b4bd
00000140: aabe 973c 14e3 8b3d 8738 a63d 1d55 05bc
00000150: f8fa 39bd ecc0 d33d 84b6 7f3d e633 cfbd
00000160: d1bd 26bd 3347 5e3d d561 c03c 5663 3dbc
00000170: ba44 56bc 8890 26bd 9ac2 39bd 0cdb a8bd
00000180: 5fb1 473c 65f5 753d 2336 b23b bc65 793d
00000190: 58ed 4f3d 7b1f d13a 07e4 60bd e316 bf3d
000001a0: e4a0 b7bd fbcc c53c d625 853d b5ba 853d
000001b0: cf83 5abd 90cd b8bc f02d bc3d f36d 96bd
000001c0: 2efd d8bc f197 dbbd 847f a2bd b09a 08bd
000001d0: e9af 9d3d 8fcd 31bd 575e c93d 0b02 ac3c
000001e0: 2e2f 2639 f841 bbbd 688d fbbc aba5 b8bd
000001f0: 5e21 60bc 2987 9c3c 0966 c13d f9ff 22bd
00000200: 040b 1c3d f613 e73b cc7b 113d a98e 53bd
00000210: 883a dcbd 60b1 4c3d d393 e93c bafe b43a
00000220: b5d4 3abc af0c 493d bcba 73bc 97cc 8fbd
00000230: 85d0 2e3d 4f5b 25bd b586 a43c 21a0 8cbc
00000240: ebcb 7ebc fa7e 8cbc a813 513d 82fe 9e3d
00000250: e2b6 acbd f5dc 2b3c c20a cbbc 3a4a 97bc
00000260: a041 46bd 4bca 1abd 6516 f6bc 7cb1 953d
00000270: e053 973d 7167 80bd 2705 61bd a52a 5c3d
00000280: ba0d 3fbd cf40 a5bd bfac ca3d 699e 16bc
00000290: 9423 8cbd 3c23 4a3d 2694 1e3d b619 443d
000002a0: b9e4 6d3c 2231 a93d dcaa 603d 4826 5b3d
000002b0: 1fe9 70bd aba2 a1bd 956f f13d 0139 6a3c
000002c0: 5e09 903b 0b17 1f3d 36af 9a3d 1621 8a3c
000002d0: d23a 963b 70f9 48bd a6f7 13bc 90e2 1dbd
000002e0: 2b24 12bd 33b4 773d 2243 333d 07c8 5b3d
000002f0: f51a 403c 159a 443d 0d39 81bd 4981 0bbc
00000300: 09f2 59bc c4b3 d0bd 3648 a4bd 11e6 443d
00000310: 5e54 2d3d 33ad 893d a69b a73d ce27 1bbc
00000320: 5a1e 233d 42b2 9bb8 ad0e ac3d dc86 8e3d
00000330: ff29 3b3d c158 82bd f170 bf3d d8b1 b33c
00000340: 6287 2ebc 2cd1 913d adfc a7bd 9c49 96bd
00000350: 6469 0fbd 09a1 a0bd 64a7 d33d 462f 453d
00000360: 2502 133d 6840 85bd ae05 973d 216d 8cbd
00000370: d1d3 c23d 83c3 b9bd 42ab 63bd e5e7 fcbc
00000380: b0ef 263d 39da 14bd 5113 1e3d 661f 513d
00000390: df26 3c3d 0bdb 4ebd 7588 cfbd 54b9 afbc
000003a0: a304 523d 8e72 a63d 8ca2 033c b0af b4bd
000003b0: 9392 863d 3d99 9abd 47e5 0dbd 20c8 80bd
000003c0: 4fea afbc fd0c b83d c58c 88bd 70c5 44bd
000003d0: a8b2 e53d 26c6 12bb 7ae4 1f3d b709 993d
000003e0: 4784 55bd 2ab4 883d 75d5 8dbc bd3c 12bd
000003f0: 56fc e1bc c4c5 8abd 52a9 583d 2f0c 803d

net.5.bias f4 [32]
0.09074993 0.02735898 -0.021113664 0.033228803 0.017263707 0.0025495219 -0.041695967 0.046335004
0.0030749922 -0.05343814 -0.023592452 0.01400317 -0.015564801 0.060601402 -0.07474517 -0.0061873924
0.08519647 0.03512019 0.06879676 0.080253296 -0.033164423 -0.011211857 0.034642126 0.01733758
0.08049205 -0.005129987 -0.03489433 -0.06086849 -0.09284265 0.017636733 -0.07140998 0.054091003
00000000: 19db b93d f11f e03c 90f6 acbc ed1a 083d
00000010: 9e6c 8d3c e115 273b 64c9 2abd c6c9 3d3d
00000020: cf85 493b f3e1 5abd f544 c1bc 8d6d 653c
00000030: 8203 7fbc 2d39 783d ff13 99bd 9cbf cabb
00000040: 7d7b ae3d 30da 0f3d 51e5 8c3d d75b a43d
00000050: 6bd7 07bd f0b1 37bc e7e4 0d3d 8a07 8e3c
00000060: 04d9 a43d 7319 a8bb 5bed 0ebd 3d51 79bd
00000070: 4a24 bebd e97a 903c 653f 92bd 878e 5d3d

exp_avg f4 [32, 12, 2]
-0.00010526883 0.0003279843 -8.6200474e-05 -0.00016201989 -0.00027455486 -9.328175e-05 0.00014905677 -8.833275e-05
0.00013153617 0.0004138017 -1.13328515e-05 -1.9607241e-05 4.571982e-05 5.2856526e-06 -0.0004064916 -2.808694e-05
-5.172394e-05 6.168973e-05 0.00018835142 0.00027150646 -8.45959e-06 2.5131503e-06 -2.3704638e-06 -6.0115863e-06
-0.0007838649 -0.00024912402 -0.00083445106 -0.00042401976 -4.546871e-05 3.2125557e-05 0.00017345641 -1.936324e-05
-0.000352924 -3.4902296e-05 -1.0450521e-05 -1.706489e-05 -4.119541e-05 2.4542704e-05 -0.0001066418 -4.6795176e-06
-4.3609507e-05 2.0185744e-05 -0.00035171595 -0.0004999144 0.0001975283 -2.0919044e-05 -3.0132846e-08 -3.7245158e-09
0.00011657499 0.0005156031 -0.00065867475 -0.00017005822 -7.199238e-05 0.0002721217 5.3460215e-05 -7.5823955e-05
-0.00027273636 -2.9430128e-05 -4.872036e-06 7.766702e-05 5.884158e-06 0.00014039363 -0.00019151784 -0.00010699132
-1.4968204e-05 2.1228363e-05 -0.0004273307 -0.0006538752 9.667873e-05 -0.000108267326 5.8157816e-06 2.8716888e-06
4.525686e-05 0.00013129937 1.831885e-05 1.1045042e-05 5.459329e-06 -4.5270015e-05 0.00016729836 5.4605003e-05
0.0004463456 -0.000108691944 1.7327853e-06 -1.3373889e-06 6.812051e-05 9.5591626e-05 8.942051e-06 9.905307e-09
4.3407203e-05 7.663402e-05 0.00023987878 0.00013675177 -2.991208e-06 -0.00015629627 2.443203e-13 -1.8285461e-22
0.00010485705 -5.0365168e-05 4.007077e-05 -5.10866e-05 -2.1241533e-05 0.00011696791 -0.00010466637 -0.00017484909
-0.00027548935 -0.00059603364 -3.9962728e-05 -2.0544992e-05 3.913042e-05 8.806441e-05 -6.9375325e-05 -0.00033825167
0.00010215063 -1.9890242e-05 -0.0015290233 -0.0018083137 -3.0637504e-05 9.851781e-06 5.7028774e-06 1.2209647e-05
0.0008855031 0.001275095 -0.0006456333 -0.00052433636 0.00017172884 -4.0508705e-05 2.0337899e-05 -0.00015449636
-0.0005877984 -0.0012994532 1.1251974e-05 3.857766e-05 4.071142e-06 0.00010941883 -0.00036860784 0.0003359128
0.00039720978 0.00016826775 -0.00070518476 -0.0014351218 -0.00039824695 3.2770768e-05 -5.3450126e-06 -2.4934752e-06
-0.0012038008 -0.0009139924 -1.8462844e-05 7.62558e-05 0.00010249225 -5.9334343e-06 -3.8108876e-05 -2.3899156e-05
0.00036793487 -6.187256e-05 -3.2612486e-05 2.868464e-05 0.00012277711 -2.3366922e-05 0.00018675506 -0.00020026768
-0.00033553864 -8.974553e-05 0.00055242237 0.00068434817 0.00048539095 -6.687107e-05 -5.72397e-06 3.0361634e-06
-0.00036351828 -0.00088058854 -6.0565715e-05 3.11182e-05 -3.326709e-05 -0.00039741155 6.629379e-05 7.235999e-05
-0.000110276975 0.0003354604 -2.6171267e-05 2.1582791e-06 -6.377154e-05 -0.0001032111 -8.932133e-06 -0.00035617233
-2.7375423e-05 -6.272568e-05 0.00052224303 0.00084323884 0.00022371006 -2.9244324e-05 -2.662653e-06 -3.812538e-06
-0.000109251705 -0.00095541857 -0.0006848484 -0.000604335 8.352454e-06 7.5678854e-06 -0.00017135507 -0.00016359107
-0.00078374427 -0.0009515755 -5.3790045e-06 8.507373e-05 -2.7438804e-05 5.0241397e-08 -1.2418044e-05 0.00017858994
0.00016004994 5.236413e-05 -0.0010676294 -0.00094326853 1.820427e-05 -8.5035004e-05 -4.004512e-06 4.344182e-06
-2.0576408e-08 3.6448837e-05 9.1849426e-05 -0.0001301039 -0.00023435203 -0.00020645092 1.4931375e-05 -1.7766053e-05
-0.00037692394 1.1293407e-05 9.824865e-06 1.9204677e-05 -4.306864e-06 0.00012041574 9.751821e-06 0.00016373188
-1.5273694e-05 -1.1474076e-05 4.9833034e-05 0.00035165134 3.7850747e-05 9.3889044e-05 -4.4932863e-06 3.0446645e-06
0.00022567257 -9.173818e-06 0.00036930724 8.4413376e-05 3.8539e-05 -0.00010072741 0.00023797528 0.00025977584
0.0015043399 0.0017728063 -6.396214e-05 -6.16569e-05 -4.190866e-06 -2.5991745e-05 0.00010429414 4.8889513e-05
00000000: c6c3 dcb8 4ff5 ab39 87c6 b4b8 e2e3 29b9
00000010: 21f2 8fb9 42a0 c3b8 1f4c 1c39 493f b9b8
00000020: f9ec 0939 86f3 d839 3a22 3eb7 3b7a a4b7
00000030: 48c3 3f38 695b b136 611e d5b9 3f9c ebb7
00000040: 28f2 58b8 6c5f 8138 3380 4539 fb58 8e39
00000050: aaed 0db7 98a7 2836 4214 1fb6 22b7 c9b6
00000060: 487c 4dba dc9c 82b9 10bf 5aba f84e deb9
00000070: a8b5 3eb8 8ebe 0638 dae1 3539 3e6e a2b7
00000080: a808 b9b9 0e64 12b8 a554 2fb7 9226 8fb7
00000090: 3cc9 2cb8 0ee1 cd37 e1a4 dfb8 c004 9db6
000000a0: 5ae9 36b8 8e54 a937 8466 b8b9 b00c 03ba
000000b0: 991f 4f39 4e7b afb7 6a6b 01b3 60f2 7fb1
000000c0: b979 f438 8a29 073a eaaa 2cba a851 32b9
000000d0: 9dfa 96b8 8eab 8e39 783a 6038 ad03 9fb8
000000e0: 0efe 8eb9 b8e0 f6b7 787a a3b6 2ae1 a238
000000f0: 8870 c536 a136 1339 2ed2 48b9 8760 e0b8
00000100: f21f 7bb7 9013 b237 5b0b e0b9 d268 2bba
00000110: ffbf ca38 940d e3b8 2f25 c336 3db7 4036
00000120: 2fd2 3d38 68ad 0939 6eab 9937 184e 3937
00000130: 472f b736 4fe0 3db8 d06c 2f39 ad07 6538
00000140: 7e03 ea39 8bf1 e3b8 0d92 e835 5580 b3b5
00000150: ecdb 8e38 5d78 c838 d105 1637 002c 2a32
00000160: 2110 3638 94b6 a038 f887 7b39 0665 0f39
00000170: 90bc 48b6 76e3 23b9 448a 892a c30e 5d9b
00000180: b3e6 db38 303f 53b8 a911 2838 d245 56b8
00000190: d82f b2b7 ab4c f538 5480 dbb8 b257 37b9
000001a0: 8e6f 90b9 243f 1cba a79d 27b8 0958 acb7
000001b0: f81f 2438 38af b838 987d 91b8 5f57 b1b9
000001c0: b439 d638 f8d9 a6b7 8269 c8ba f004 edba
000001d0: c580 00b8 1449 2537 585b bf36 09d8 4c37
000001e0: 1b21 683a 1721 a73a b83f 29ba 9e73 09ba
000001f0: 1c12 3439 e4e7 29b8 4e9b aa37 4d00 22b9
00000200: 7c16 1aba 6a52 aaba dcc6 3c37 72ce 2138
00000210: d89a 8836 c977 e538 b541 c1b9 741d b039
00000220: 9840 d039 0871 3039 26dc 38ba b21a bcba
00000230: cdcb d0b9 5873 0938 4f59 b3b6 9455 27b6
00000240: dac8 9dba fe98 6fba a8e0 9ab7 85eb 9f38
00000250: 1cf1 d638 d017 c7b6 18d7 1fb8 0c7b c8b7
00000260: 62e7 c039 94c1 81b8 64c9 08b8 cc9f f037
00000270: bbbd 0039 1504 c4b7 aed3 4339 f2fe 51b9
00000280: 3ceb afb9 c435 bcb8 70d0 103a d465 333a
00000290: 127c fe39 223d 8cb8 8710 c0b6 e4c0 4b36
000002a0: 9996 beb9 4cd7 66ba f107 7eb8 ea84 0238
000002b0: 4488 0bb8 ad5b d0b9 3507 8b38 f9bf 9738
000002c0: 8044 e7b8 bce0 af39 5e8a dbb7 f4d6 1036
000002d0: 16bd 85b8 0a73 d8b8 38db 15b7 a4bc bab9
000002e0: 46a4 e5b7 988b 83b8 23e7 083a cd0c 5d3a
000002f0: b693 6a39 b551 f5b7 08b0 32b6 e7da 7fb6
00000300: 101e e5b8 0e75 7aba 6687 33ba 3c6c 1eba
00000310: 8421 0c37 a4ef fd36 c7ad 33b9 a589 2bb9
00000320: 3074 4dba 2773 79ba 4c7d b4b6 9c69 b238
00000330: 622c e6b7 00c9 5733 1857 50b7 df43 3b39
00000340: 14d3 2739 8ea1 5b38 b3ef 8bba ae45 77ba
00000350: 5fb5 9837 d254 b2b8 7f5e 86b6 3dc4 9136
00000360: 00c0 b0b2 a4e0 1838 499f c038 806c 08b9
00000370: 65bc 75b9 bf7a 58b9 c481 7a37 4f08 95b7
00000380: e09d c5b9 d078 3d37 79d5 2437 bb19 a137
00000390: ae83 90b6 b587 fc38 c19b 2337 71af 2b39
000003a0: 0220 80b7 c880 40b7 d003 5138 d85d b839
000003b0: eec1 1e38 4ce6 c438 09c5 96b6 f052 4c36
000003c0: 85a2 6c39 40e9 19b7 949f c139 1607 b138
000003d0: f0a4 2138 9e3d d3b8 0189 7939 8632 8839
000003e0: 452d c53a 825d e83a 6a23 86b8 cc4d 81b8
000003f0: 449f 8cb6 d908 dab7 7db8 da38 b70e 4d38

exp_avg_sq f4 [32, 12, 2]
7.65284e-06 2.5345012e-06 5.5356663e-06 2.0512866e-06 3.816871e-06 4.389228e-06 1.0160228e-07 2.3225816e-07
8.936529e-06 8.4669255e-06 1.30639775e-08 9.157817e-09 5.4844645e-07 5.4774767e-09 1.5326526e-06 4.0765045e-07
2.276196e-07 1.02846144e-07 7.927632e-06 7.1241398e-06 1.6731906e-07 1.417735e-07 3.571634e-10 2.9520528e-10
8.369277e-06 1.5225726e-06 8.0726395e-06 1.5096979e-06 6.0570066e-08 1.3941693e-07 4.6956134e-07 1.7959032e-07
8.4060116e-07 4.1878585e-07 8.129507e-09 1.5584309e-08 3.2149707e-08 3.7044117e-07 2.9306725e-07 5.729761e-08
1.9090125e-08 2.3662093e-08 3.720523e-06 2.600326e-06 6.0546404e-07 1.8463835e-08 2.7627803e-10 2.0320921e-13
8.98081e-06 1.2936454e-05 5.5680907e-06 2.4855585e-06 3.5101912e-06 3.8428107e-06 1.564585e-07 2.1429904e-07
1.3990057e-06 1.6244578e-06 1.4079739e-08 1.6025613e-08 3.8869686e-07 3.78804e-07 3.0081904e-07 7.94452e-07
6.432162e-08 1.04666775e-07 4.0064074e-06 5.4785487e-06 1.5949227e-07 7.147408e-07 3.5400177e-10 3.5018705e-10
2.9175882e-07 1.6746081e-07 7.5795015e-09 9.507008e-09 1.7240603e-09 7.451473e-08 3.1675938e-07 2.631939e-07
2.68113e-06 3.6882493e-06 6.0114265e-09 1.6676895e-10 5.87782e-07 3.6611627e-07 5.8961436e-09 6.1229053e-09
1.653219e-07 1.0894929e-07 5.0994373e-07 1.6187596e-07 2.6246906e-07 1.0025537e-06 7.404526e-20 3.3029597e-23
6.2764667e-07 3.7519083e-06 1.5527827e-06 1.0526637e-06 2.3371237e-08 1.789091e-07 6.1568784e-08 1.4934842e-07
8.051715e-06 9.513795e-06 1.0120055e-08 2.2194355e-08 9.832948e-09 2.382121e-07 1.7464081e-06 1.358611e-07
1.7182897e-07 1.4195962e-07 1.0181747e-05 1.25557235e-05 6.588998e-08 2.6877556e-08 6.9679656e-10 6.91397e-10
2.7312495e-05 2.1546753e-05 1.2981296e-05 1.0516732e-05 5.8860206e-07 2.3344734e-07 4.1256422e-07 2.9927187e-07
9.220548e-06 1.1473408e-05 4.6316895e-08 6.860975e-08 1.1627551e-07 2.5788083e-07 3.1523355e-06 2.226231e-06
7.3675795e-07 5.934049e-07 2.0099496e-05 1.9850275e-05 1.686207e-06 1.4784663e-06 1.696317e-09 2.1451023e-09
2.542399e-05 1.374823e-05 1.156528e-05 6.4239593e-06 3.3113945e-06 1.1403345e-06 2.0524172e-07 2.272768e-07
7.597664e-06 1.2104197e-05 3.39984e-08 2.5325603e-08 8.224155e-08 5.2870654e-08 2.0679688e-06 3.3260153e-06
7.847726e-07 6.914035e-07 1.4901356e-05 1.6599124e-05 1.7274988e-06 2.3494492e-07 5.862384e-10 1.0816318e-09
5.706555e-07 3.847354e-06 1.4737311e-06 2.1464017e-07 1.9076379e-06 4.4795293e-06 1.4637496e-07 1.4286302e-07
3.913039e-06 1.0473179e-06 3.6411307e-09 3.1894203e-09 1.6610546e-08 3.4612515e-07 4.085668e-07 1.1545408e-06
1.4123349e-07 1.01193734e-07 4.885157e-06 3.022275e-06 7.549704e-07 3.253953e-08 1.9680664e-10 7.246623e-11
1.1916966e-05 1.6359434e-05 3.6421534e-06 3.519587e-06 7.718397e-08 1.0692098e-07 1.4511538e-07 2.8943194e-07
9.468022e-06 8.276574e-06 2.0626501e-08 2.9687529e-08 6.143563e-08 5.9599476e-08 1.1898319e-06 1.960628e-06
3.1386892e-07 3.309685e-07 1.5897605e-05 1.4978337e-05 1.486003e-07 3.1450193e-07 7.341341e-10 4.2349696e-10
4.6100363e-06 5.7738384e-07 1.0582964e-06 2.5436573e-06 4.24592e-06 4.5777465e-06 1.00683756e-07 7.983503e-08
1.372111e-06 6.9228126e-06 1.6654045e-08 3.85972e-09 2.5927033e-08 7.4647494e-07 1.6721334e-07 2.555486e-07
4.9274526e-08 5.7759244e-08 4.2808647e-06 7.332154e-06 7.015049e-07 9.5864216e-08 1.2582167e-10 1.697506e-10
4.7942385e-06 1.3402498e-05 1.171508e-05 1.048663e-05 9.0075355e-06 6.940308e-06 3.8167815e-07 3.867887e-07
8.296577e-06 8.242688e-06 4.8245084e-08 4.3644924e-08 9.135304e-08 2.3795524e-08 3.4290579e-06 1.056756e-06
00000000: b364 0037 6616 2a36 03bf b936 d6a8 0936
00000010: ac12 8036 2e47 9336 7230 da33 a362 7934
00000020: 1aee 1537 2b0d 0e37 fb6f 6032 8154 1d32
00000030: f438 1335 6534 bc31 8bb5 cd35 0ddb da34
00000040: 9967 7434 44dc dc33 ec00 0537 e50b ef36
00000050: 50a8 3334 673a 1834 485a c42f 734a a22f
00000060: c569 0c37 325b cc35 b96f 0737 d3a0 ca35
00000070: bf12 8233 a2b2 1534 0518 fc34 69d5 4034
00000080: aca5 6135 7dd5 e034 f3a9 0b32 42de 8532
00000090: fa14 0a33 0ce1 c634 db56 9d34 6317 7633
000000a0: a1fb a332 7e41 cb32 19ae 7936 4381 2e36
000000b0: 2c87 2235 679a 9e32 ade2 972f 11cb 642a
000000c0: 49ac 1637 a609 5937 89d5 ba36 92cd 2636
000000d0: a090 6b36 7ef1 8036 fcfe 2734 121a 6634
000000e0: 78c5 bb35 f207 da35 59e3 7132 b2a8 8932
000000f0: 17ae d034 6d5e cb34 4180 a134 5342 5535
00000100: 2f21 8a33 2bc5 e033 c76e 8636 60d4 b736
00000110: e740 2b34 9ddc 3f35 529d c22f 7284 c02f
00000120: 07a3 9c34 47cf 3334 0037 0232 4354 2332
00000130: fbf3 ec30 e804 a033 140f aa34 184d 8d34
00000140: 76ed 3336 a483 7736 118d ce31 495d 372f
00000150: 12c8 1d35 a38e c434 0797 ca31 a561 d231
00000160: 5683 3134 81f7 e933 11e3 0835 20d0 2d34
00000170: 79e9 8c34 7c8f 8635 9dd5 ae1f a9b8 1f1a
00000180: 8d7b 2835 4bc9 7b36 3569 d035 4049 8d35
00000190: e5c1 c832 291a 4034 cc37 8433 955c 2034
000001a0: da15 0737 709d 1f37 79dc 2d32 e7a5 be32
000001b0: c3ed 2832 3ec7 7f34 2066 ea35 37e1 1134
000001c0: fd7f 3834 906d 1834 45d2 2a37 6ca6 5237
000001d0: 667f 8d33 5fe0 e632 b388 3f30 bd0c 3e30
000001e0: 231d e537 4dbf b437 3eca 5937 0571 3037
000001f0: 6d00 1e35 84a9 7a34 657e dd34 9dab a034
00000200: f4b1 1a37 ea7d 4037 f7ed 4633 9c56 9333
00000210: 23b3 f933 df72 8a34 b68c 5336 5b66 1536
00000220: 9fc5 4535 794a 1f35 579b a837 2484 a637
00000230: a251 e235 b76f c635 d923 e930 0a69 1331
00000240: 9a45 d537 33a8 6637 8008 4237 648d d736
00000250: 5339 5e36 980d 9935 6a60 5c34 5f09 7434
00000260: 70ef fe36 2113 4b37 a305 1233 978b d932
00000270: c59c b033 e613 6333 6fc7 0a36 8234 5f36
00000280: 2aa9 5235 e398 3935 d600 7a37 593e 8b37
00000290: 68dc e735 2b45 7c34 dc24 2130 89a8 9430
000002a0: 262f 1935 8518 8136 04cd c535 d777 6634
000002b0: f804 0036 dd4e 9636 3e2b 1d34 e365 1934
000002c0: c04c 8336 9291 8c35 7337 7a31 e02c 5b31
000002d0: faae 8e32 14d3 b934 fe58 db34 b8f5 9a35
000002e0: f7a5 1734 d84f d933 2eeb a336 4ad2 4a36
000002f0: 2ca9 4a35 97c1 0b33 2564 582f dc5a 9f2e
00000300: fbee 4737 9e3b 8937 b86b 7436 0b32 6c36
00000310: 56c0 a533 6e9c e533 03d1 1b34 3963 9b34
00000320: d8d8 1e37 9ddb 0a37 282e b132 9103 ff32
00000330: 98ee 8333 51fa 7f33 50b2 9f35 5593 0336
00000340: d181 a834 f7af b134 d95b 8537 784b 7b37
00000350: f08e 1f34 d1d8 a834 18cc 4930 e6d1 e82f
00000360: e9af 9a36 84fd 1a35 ca0a 8e35 b3b3 2a36
00000370: 2d78 8e36 8b9a 9936 7b37 d833 c671 ab33
00000380: 6029 b835 824a e836 a20e 8f32 759e 8431
00000390: 26b6 de32 5e61 4835 418b 3334 5532 8934
000003a0: eaa1 5333 f612 7833 59a4 8f36 b906 f636
000003b0: 0d4f 3c35 e9dd cd33 a757 0a2f 8ca4 3a2f
000003c0: 32de a036 4adb 6037 e38b 4437 bcef 2f37
000003d0: 121f 1737 cbe0 e836 72e9 cc34 d6a7 cf34
000003e0: 8731 0b37 134a 0a37 0836 4f33 1a74 3b33
000003f0: dd2d c433 e966 cc32 c41e 6636 dcd5 8d35

exp_avg f4 [32]
-0.0006455292 -0.0001272791 0.0026220297 -0.001263856 -0.00059450464 0.0011162541 0.00087034365 -0.0014463019
-2.5979272e-05 0.0012392341 0.00072501326 0.00026443024 -0.00011315126 0.00042120603 -0.00024143886 -0.0018913739
0.00021368396 0.00068948633 0.0014435449 -0.003076611 0.002489697 -0.00032831775 -0.00088784646 0.0005695583
-0.001541169 -0.00035429475 -0.00071573205 -0.0016756495 0.00043455706 -0.00019232513 -0.00035407412 -0.0018477257
00000000: bb38 29ba 3976 05b9 5cd6 2b3b f8a7 a5ba
00000010: 88d8 1bba 464f 923a c627 643a d791 bdba
00000020: 10ee d9b7 cc6d a23a d10e 3e3a 3aa3 8a39
00000030: 9f4b edb8 51d5 dc39 c02a 7db9 fae7 f7ba
00000040: 5a10 6039 a5be 343a 5435 bd3a f8a0 49bb
00000050: 2f2a 233b 1022 acb9 5ebe 68ba 694e 153a
00000060: 0d01 caba a3c0 b9b9 f79f 3bba 78a1 dbba
00000070: 43d5 e339 e2aa 49b9 06a3 b9b9 632f f2ba
