cebra_models/reach1_4/01/A/cebra_trialID_SucessFailure_model_5000_32_reach1_4_A_02.pt (torch, 365195 bytes, 31 tensors)

net.0.weight f4 [32, 45, 2]
00000000: 7cc2 163c c891 c93c f8c3 c33c cdf8 ddbd
00000010: f290 c13d 7386 713d 4d53 23be b022 90bd
00000020: 0ae0 c93d a5d2 c7bd 6b8e 743d 0d11 db3c
00000030: 2be9 5fbd 715b 1d3d d497 243d 6af5 76bd
00000040: 2e80 a33d 2255 193d 48c5 03be 1656 173d
00000050: bb42 3abb 6758 84bd f2bf 13be a715 8a3d
00000060: d4de cb3d f198 bfbb 1261 fcbd 82d9 003e
00000070: be49 7c3c c8fc 73bc ea28 ad3d 1120 8e3d
00000080: 74f8 b3bb d890 30be 42a7 92bd fa11 6a3d
00000090: 0b8f b6bc 619b 1abd 793a 88bd 9fd1 09bd
000000a0: 32a0 ab3d 6958 17bd 023a 363d ab89 97bd
000000b0: 496d 67bd 861a 11bd 1bad 503d afa0 2cbe
000000c0: d067 a03d 0579 1fbd 5a64 5bbd 06f7 d4bc
000000d0: ee17 20be b23b 0d3e 9250 3e3d 99e3 7abb
000000e0: fe42 2c3d 151e 863d 111d 8d3c 1ead 71bd
000000f0: 6f51 9c3d 59a6 da3d 5d25 5abc 6b24 84bd
00000100: d3a2 b93d 85c0 a03d 4986 86bb e503 bdbd
00000110: d6bb 7e3d b3d9 103d fb7b 4b3d 7a8a 29be
00000120: a1f2 f03b e055 4dbc 2ec7 6dbe 1724 473b
00000130: 0856 1a3c 9a7b 073d 7a4b 01be b97f 2dbd
00000140: ca79 59bd da7a 09be 2007 233d caff 123e
00000150: 63a2 963d 3d1f f33c 2e0b e73d 1847 81bd
00000160: 2465 cf3c 976e 44be 690b e73c bdc9 abbd
00000170: e3f7 3e3c e52e bbbd a861 5139 5fe2 233e
00000180: f0e4 9ebd b650 dbbd f5b6 b93d 8f6b 00be
00000190: ef35 6fbd 7dcf 87bc 1493 0d3d 2ade 963c
000001a0: 0d18 0c3d 4327 07bd c7b5 af3c fb1c 8fbd
000001b0: f4f4 f33a 8b11 273c 520c 843d 3a43 bd3d
000001c0: d5a0 18be 83a2 d5bc f35d 35bd 758a 0c3e
000001d0: e35d d7bc 929f 793a 4b43 17bd 83c0 9cbd
000001e0: 6471 fc3c 4493 143d 44f6 abbb 5729 d5bc
000001f0: 5115 0ebc 9565 8dbd 0fce fb3d ad70 a13d
00000200: acff 67bd fcc0 403d bd66 413d 0e5b 8c3d
00000210: ab0d 123d 17e1 38bc 1126 b43d 18e6 0f3e
00000220: bbdc 3ebd e697 11bd 71e6 a93c 0055 b23c
00000230: d444 2a3d 6d91 f43d 58ab 653d 9274 003d
00000240: 2963 ecbc 2213 273e f1e1 aabd 345d fb3c
00000250: 0782 2bbc c505 13be a264 d2bd f1ad 6f3c
00000260: 035b 21bd 6d03 cebd 5338 08be 5c02 ea3d
00000270: 4c84 c03d e429 473d 342d 4d3d 7903 bbbb
00000280: a9bd 9bbc 5265 603c e91b fc3c 3147 debd
00000290: eb49 d2bc 7fa1 42be a5a7 953d efd1 d13d
000002a0: e934 633e b502 d73d 59b0 14be 51e5 bb3d
000002b0: fd26 d2bc 47b3 183e 1262 ddbd 484d 4ebd
000002c0: fc67 a1bc b948 093d d02b aebd 506a edbb
000002d0: 2037 a23d d1b7 1a3e e675 e9bd f9d7 f13c
000002e0: 50d9 b73d 17bd 553d 4606 fabc a80f 19be
000002f0: d967 0d3d d199 0fbd 9881 693d 93c5 4c3d
00000300: c878 013c a9cc a8bd 63d2 0c3d 725f 603b
00000310: 7466 87bd 0736 e13b 58cb 853d 65d7 a23d
00000320: 3638 a33c 1ac8 273d dcaa 9bbe 7e7d e23d
00000330: 54d3 babd 1ab8 dfbd 2609 34bd 5596 18bd
00000340: b1a1 a23c f06a f63c e465 cfbd 33ff 24bd
00000350: 9dcb dc3d 9697 af3d 6121 4a3d 3c75 fc3d
00000360: 6cde 7b3d 7a39 d53d d621 87bd 6f7a 46bd
00000370: 260a d9bb 9efd 7bbd 1547 9d3d 7599 95bd
00000380: f653 223d 2310 713d 2d68 94bc 38fc c1bc
00000390: 891f c63d 420d b43d 408c ef3b bb2d 803d
000003a0: fea2 5f3d 8074 693d 22e7 48bd efa5 223b
000003b0: 9041 69bc ecff a73c 5e89 013e 96b5 e3bd
000003c0: 45c7 0f3c bccf afbd 34ac 08be 66f1 95bd
000003d0: b79e 29be 2a60 a3be 9d13 86be 123a e8bd
000003e0: d7a0 c0bc 2040 a2bc 5658 69bc fbc7 6e3d
000003f0: e5bf 0d3d 117f 95bd ed72 77bc 4c99 8dba
0.009201642 0.024605647 0.023897156 -0.108384706 0.09451474 0.05896611 -0.15949745 -0.07037866
0.09857185 -0.09756974 0.059706133 0.026741529 -0.054665726 0.038417283 0.040183857 -0.06029264
0.07983433 0.037434705 -0.12868226 0.036947332 -0.0028421122 -0.06462174 -0.1442869 0.06742411
0.099546105 -0.0058470895 -0.12323202 0.12582973 0.015398441 -0.014891811 0.08455069 0.0693971
-0.0054922644 -0.17242754 -0.07160808 0.05714605 -0.022285005 -0.037745837 -0.06651778 -0.033647176
0.08380164 -0.03694955 0.044488914 -0.07399305 -0.056500707 -0.035425685 0.050946336 -0.16858171
0.07832301 -0.038933773 -0.0535625 -0.025996696 -0.15634128 0.13792303 0.046463557 -0.0038282631
0.042056076 0.065487064 0.017225774 -0.059002988 0.0763272 0.106762595 -0.013314572 -0.06452259
0.090642594 0.0784922 -0.0041053635 -0.092292584 0.062190853 0.035363864 0.049678784 -0.16556731
0.0073531424 -0.012532681 -0.23220512 0.0030386501 0.0094199255 0.03307686 -0.12626448 -0.042358134
-0.053094663 -0.1342577 0.039801717 0.14355388 0.073551916 0.029677982 0.11281429 -0.06312388
0.025316782 -0.19182812 0.028203683 -0.08388088 0.0116557805 -0.09139804 0.00019968173 0.16004322
-0.0775851 -0.10708754 0.090680994 -0.1254103 -0.058401044 -0.01657843 0.034564093 0.018416483
0.034202624 -0.032996427 0.021448983 -0.069879495 0.001861243 0.010197054 0.064476624 0.09241338
-0.14905103 -0.026078468 -0.04427905 0.13724692 -0.026289886 0.0009522374 -0.03692941 -0.07653906
0.030815788 0.036273256 -0.005247863 -0.026020689 -0.008672074 -0.06904141 0.12295162 0.07882819
-0.056640312 0.047059044 0.04721712 0.06853305 0.035657566 -0.011284134 0.08796323 0.14052618
-0.046597224 -0.035545252 0.020739766 0.021769047 0.041569546 0.119418 0.05607161 0.03136117
-0.028855877 0.16315892 -0.08343876 0.030684091 -0.010468013 -0.1435767 -0.102731004 0.014628873
-0.039393436 -0.10059247 -0.13302736 0.11426231 0.094002336 0.048623934 0.050091937 -0.005707201
-0.019011335 0.013696032 0.030775027 -0.108534224 -0.025670012 -0.19006918 0.07307366 0.1024512
0.22188152 0.10498563 -0.14520396 0.09174598 -0.025653357 0.14912139 -0.10809721 -0.05036667
-0.019702904 0.03351662 -0.0850445 -0.0072453395 0.079206705 0.15109183 -0.113994405 0.02952193
0.08976996 0.052182283 -0.03052057 -0.14947379 0.034522865 -0.0350588 0.057008356 0.04999311
0.007902332 -0.08242161 0.034380328 0.0034236577 -0.06611338 0.0068728956 0.06532925 0.079512395
0.019924264 0.040962316 -0.30403793 0.11059092 -0.09122339 -0.109237865 -0.043954037 -0.037252743
0.019852491 0.030080289 -0.10126856 -0.04028244 0.10781024 0.085738346 0.04934824 0.12327048
0.061491415 0.104113534 -0.065982506 -0.048456606 -0.0066235242 -0.061521165 0.076795734 -0.0730466
0.039630853 0.05885328 -0.018116081 -0.023679838 0.096739836 0.08791591 0.0073104203 0.062587224
0.0545988 0.05699587 -0.04904855 0.0024818142 -0.014236823 0.020507775 0.12650058 -0.11118619
0.008775537 -0.08584544 -0.1334694 -0.07321434 -0.16564451 -0.31909305 -0.2618684 -0.11339201
-0.023514194 -0.019805968 -0.014242252 0.058296185 0.034606833 -0.072996266 -0.015103084 -0.0010803132

net.0.bias f4 [32]
00000000: 54f6 af3c 18fd 3e3d 7af3 593c f3c4 c23d
00000010: 1817 efbd eae9 f3bc b584 cebd 8a22 9fbd
00000020: bae3 2e3d eb70 45bd 6372 bc3d fac2 dcbd
00000030: 2205 6fbd cd6f 97bd ef35 c5bd 73ac a33d
00000040: 780b aabc 3432 993a 8f9e 50bd a14b 7cbd
00000050: 9725 16bd 4f4c 713d f4a6 b33c bb4b 083e
00000060: 3e07 a03d 4a44 ebbc ada3 f0bc d544 b4bd
00000070: 9980 693d e447 633c 35ed 02be 0ec0 773d
0.021479763 0.046628088 0.013302678 0.09510221 -0.11674327 -0.029774625 -0.100839056 -0.0777026
0.042697646 -0.04820339 0.09201505 -0.10779376 -0.058354504 -0.07394371 -0.09629428 0.079918765
-0.020757422 0.0011687935 -0.050932463 -0.061595563 -0.036656942 0.058910664 0.021930195 0.13310139
0.07813881 -0.028719086 -0.029374922 -0.08802191 0.057007406 0.0138721205 -0.127858 0.060485892

net.2.module.0.weight f4 [32, 32, 3]
00000000: 7438 11bc 0802 15be 579f 013e f97d 67bd
00000010: 3f69 8b3d d7c3 f5bd 4bf8 71bd 3430 55bd
00000020: 8bac 11bd 5693 91bd 780a ff3c 44a2 f33c
00000030: 35f0 24bd 2315 13be 9ceb 5a3c 5683 f7bd
00000040: 5966 a13c 3aba 54bc ae2d ccbd d6af d4bd
00000050: 1934 07bc a799 df3c 749e 5e3e c598 ee3d
00000060: 3b86 4f3d c24b 173d 1237 9a3d e02d 933d
00000070: 59f6 983d eaee e1bd 1536 81be b360 3f3d
00000080: 1c80 04be baba 903c 6278 24bc 30f1 a53c
00000090: b112 933d 5301 42bd 157c 413c 9144 da3d
000000a0: 6b2b 903b 1fb8 063e b589 9f3c 9f32 833d
000000b0: fd73 d23c a8d2 edbd f39b d0bd b417 723d
000000c0: 50fe ee3b 195e dc3d 4705 6dbd b71e bf3b
000000d0: 05f9 44bd 5c62 903d 9f0a 213c 58aa f83d
000000e0: 028e 6bbc fd46 7ebd 7da2 a53c 6c3f ae3c
000000f0: ae57 dbbc bf81 023c 0af4 12bd 1ec4 e3bd
00000100: 606a 963d 46e1 25be e19c 80bd 9348 8c3d
00000110: 24fb 353d 878c dfbd fdeb e6bd 10e9 bdbd
00000120: 537b 72bd cd7e adb9 2e79 fdbd c716 493d
00000130: 32ed f0bc a1a8 083e f89b 293d 335e 0bbd
00000140: 03d5 6fbd 4f97 4fbc d266 703d 54a6 0cbe
00000150: e583 02bc 75ba b13c eb7c 023d 5a98 cabc
00000160: 59d0 b73d 9aeb 353d 1485 19bd 957f 86bc
00000170: 8f21 4a3d ba16 4fbc 7103 a4bd 5c14 b63b
00000180: 56a5 b83d 950b bebd f60f 6a3d 3a80 883c
00000190: 21ca 633d 787a e73d 8bab 543d 60da 183d
000001a0: 99e9 d23d 0116 373d e40f 313d 4384 ad3d
000001b0: 3395 aabd ef4a 9abd 9e85 113c 7ae7 c139
000001c0: 9ded a53d 8783 303e 1238 fabd 6a60 0bbe
000001d0: 3f40 c6bd d2d9 79bd 58e6 8fbd 83eb 803e
000001e0: cec4 94bd 2284 aabd 9a71 0c3c a4f4 483a
000001f0: 455b 50bd 2688 de3d 31f8 87bb d295 2dbd
00000200: ea55 cf3c 7853 833d fd4c 9c3c a4fd 45bc
00000210: 7646 e43d d817 b93d 54b1 843d 70e0 603c
00000220: 461a 64bd 3dc5 bd3d 5be9 983d 3e97 f43c
00000230: bf61 c03d efe3 a73c 3a41 96bd a968 823d
00000240: cf78 fa3d f7a4 2fbc 9870 323d ccde e2bc
00000250: 3c48 d6bd 546a dc3c 2d03 913c 530a 92bd
00000260: 3537 97bd a525 ee3a ed8e 393c 3115 91bd
00000270: ee5a e93d 727e 1a3d e695 8ebd 8b5e bebc
00000280: 0af2 37bc 4977 873c 282e c9bd cf83 59bd
00000290: b982 82bd ea0d d33d b134 bd3d ecae d1bd
000002a0: 524f 85bd d748 d43d cdb0 d83d ec5f 3b3d
000002b0: ae1b 25be de22 503e b4f3 bbbc 8418 853d
000002c0: 433b c83c bfbb c73c f371 0e3e 8ca8 e5bc
000002d0: e78c 8c3b 709b 3cbd 5e09 95bd f79c f93d
000002e0: 852b 0abd 6dfe 01be 1b95 55bc 885d 0e3d
000002f0: f166 0dbe 96b7 87bd 4c4e cd3d 3f76 eb3d
00000300: b204 d03d 8e18 a03a ad38 9d3d 642f e6bc
00000310: cf7a 0dbc 14ff fa3d 4ad1 86bd 6536 18bd
00000320: 9c2b 3a3d 4d9e d23d 340a 7abd 2399 cfbd
00000330: f754 993d 5321 09bc 6f76 f13d 778a 07bc
00000340: 276d 683c b15d 8e3d a832 58be 3afb 15bd
00000350: 1f72 ca3d 0a94 24be be1b fcbd c26c 493c
00000360: 1082 1dbd ad02 d8bd 7d73 fe3c 656f 2fbe
00000370: 7074 a23d ef20 9b3b 6567 12bd 5569 5fbe
00000380: 5bee 97bd 40aa f13d b084 4dbe cd5c 8bbe
00000390: acba 50be 5f17 39bd 54de 6ebd a800 a53d
000003a0: ae7e 953c 7e5c 2dbd 9858 eebd dc9f 2c3d
000003b0: 40ff f1bc 6347 5dbc ca96 573c 874c 6f3d
000003c0: eb7b a1bd 5419 0cbe 685a c03d 268b 70bd
000003d0: 784b 693b 4dc8 1fbe 64f8 b8bd d4b1 9e3d
000003e0: 49c5 0fbe 7fa6 a7bd 1375 db3c 41e7 47be
000003f0: 5643 c6bc d3a5 043d c4c6 6fbc 5562 a6bd
-0.008863557 -0.14551556 0.1265844 -0.05651662 0.068071835 -0.12000244 -0.05907468 -0.052047923
-0.03556494 -0.0710818 0.031132922 0.02974046 -0.04026814 -0.14363532 0.013361838 -0.12085597
0.019702123 -0.012983853 -0.0996965 -0.103851005 -0.008252167 0.027294947 0.21740133 0.11650232
0.05066512 0.036937483 0.07530035 0.07186484 0.07468862 -0.11031897 -0.25236574 0.04672308
-0.12939495 0.017667163 -0.010038467 0.020256609 0.071812995 -0.047364544 0.011809369 0.10657609
0.004399707 0.13156174 0.019474844 0.064061396 0.025690073 -0.11612445 -0.10185995 0.059104636
0.0072935 0.10760135 -0.05786636 0.005832519 -0.048089046 0.070500106 0.009829192 0.121418655
-0.014377119 -0.06207942 0.020219082 0.021270476 -0.026775207 0.007965504 -0.035877265 -0.11121391
0.07344508 -0.16199216 -0.06279922 0.0684978 0.04442896 -0.10915475 -0.1127548 -0.09272969
-0.059199642 -0.00033091605 -0.12376629 0.049093988 -0.029409979 0.13345577 0.04140851 -0.034025382
-0.058552753 -0.012670352 0.058691807 -0.13735324 -0.007966016 0.021695355 0.031857412 -0.02473085
0.08975286 0.04441414 -0.03748043 -0.016418258 0.04934841 -0.012639696 -0.08008469 0.0055566262
0.0901591 -0.09279553 0.057144128 0.016662706 0.055612687 0.11302656 0.05192141 0.037317634
0.102984615 0.04469872 0.043228045 0.084724925 -0.08329239 -0.07533824 0.0088819545 0.00036984292
0.08101962 0.17237674 -0.12217726 -0.13610998 -0.09680223 -0.060998745 -0.070263565 0.2517968
-0.072641 -0.083259836 0.008572007 0.0007665849 -0.05086829 0.10865812 -0.00414946 -0.042379208
0.025309522 0.06412405 0.01907968 -0.012084398 0.11146252 0.09037751 0.06479135 0.013725385
-0.05568912 0.09266136 0.07466384 0.029857274 0.093936436 0.02049443 -0.0733666 0.063676186
0.12230074 -0.010720483 0.04356441 -0.027694128 -0.10462996 0.02690617 0.01770171 -0.071308754
-0.07383577 0.0018169178 0.01132558 -0.0708412 0.113942966 0.037718244 -0.069621846 -0.023238441
-0.01122714 0.016536372 -0.09823257 -0.053104218 -0.063725896 0.10305388 0.09238566 -0.10238442
-0.0650927 0.103654556 0.10580597 0.045745775 -0.1612384 0.20325801 -0.022943355 0.064988166
0.02444232 0.024381517 0.13910656 -0.028034471 0.004289258 -0.046046674 -0.07277177 0.12188142
-0.03373291 -0.12694712 -0.013036038 0.034757167 -0.138088 -0.06626813 0.100246996 0.11497163
0.101571456 0.0012214349 0.07676826 -0.02809877 -0.008635237 0.122556835 -0.065828875 -0.03716125
0.045451745 0.102841 -0.061044887 -0.101366304 0.07486909 -0.0083697615 0.117901675 -0.008272759
0.01418618 0.06951464 -0.21113074 -0.03661654 0.09885048 -0.16072097 -0.12309979 0.012293996
-0.038454115 -0.10547385 0.031060928 -0.17132337 0.07932365 0.0047341506 -0.035743136 -0.21817525
-0.074185096 0.11800051 -0.20070148 -0.2721924 -0.2038371 -0.045188304 -0.058317497 0.08056766
0.018248882 -0.042324536 -0.11637992 0.04214464 -0.029540658 -0.013505789 0.0131585095 0.05842259
-0.078849636 -0.13681537 0.093922436 -0.058726452 0.0035597961 -0.15603752 -0.09031752 0.07748762
-0.14040102 -0.081860535 0.026789224 -0.1952181 -0.02420203 0.032384705 -0.014634792 -0.08124224

net.2.module.0.bias f4 [32]
00000000: c534 763d 6f8b ef3d 3968 e9bb 3a34 0b3c
00000010: 721e ad3c 8959 9d3c 5038 f93d c25b 47bd
00000020: ad1f 7a3d cc04 b73d 0032 613b 938c d7bc
00000030: 185b 463d 2d67 90bc de87 a33d 0a40 2a3d
00000040: 7d87 a03c 1d40 133d 04c0 ac3c 2a8f 5c3d
00000050: c8d0 c63d f1b4 623c eb5b 0b3e 6246 b63b
00000060: 8ad6 78bd 667e b33d 6f8e c83c ed86 81bd
00000070: 4a98 043e f087 65bd e1c7 6c3d e311 123e
0.06010892 0.11696517 -0.00712302 0.0084963385 0.021132682 0.019207733 0.12168944 -0.04867149
0.061065365 0.08936462 0.0034362078 -0.026312148 0.048426718 -0.017627323 0.07984899 0.04156498
0.019595856 0.035949815 0.021087654 0.05384747 0.097077906 0.013837085 0.13609283 0.0055625895
-0.060751475 0.08764343 0.02448198 -0.06324563 0.12948719 -0.056037843 0.057807807 0.14264636

net.3.module.0.weight f4 [32, 32, 3]
00000000: e5e7 07ba 9133 523c b6cd 1d3e 51f5 9abd
00000010: 9e6b 1b3d cad1 0e3e ff4b 853d 8a62 3dbd
00000020: 2d91 6a3b 90f9 093c dc74 683d b30d a03e
00000030: 66a1 cb3d 73c9 9c3d c69b 113d 63a0 bfbc
00000040: 68bd 2d3d 9e5c 3c3e 7927 6a3d 79b3 00bc
00000050: dcc0 01be 5f5b 35bd 941f b93d 056c 9f3d
00000060: 70a0 c33d e132 e0bb 898a 20be d4b1 a8bd
00000070: 4aca 9b3d 2bca be3d e13e b8bd 1d3a 26bd
00000080: a1af 4d3d a3f4 0d3d 41e6 6e3d 5105 8bbe
00000090: c11b c2bb a6c0 803c effd 3cbd 01ce 95bd
000000a0: c9d8 c53c f2d0 543d 7966 dfbd 3733 f73d
000000b0: dd75 983d 701d 283d 3108 743d f822 b13d
000000c0: 45ab ddbd a7f4 f43c fff5 443d 004e d93b
000000d0: 3e1f babc e8ba b73d 26d5 41bd b7f6 a6bd
000000e0: fc65 1b3d e12e 463d b3ab 843c 1d15 bb3b
000000f0: e10c 633b a2f4 23bd 4a86 13bc dcba ddbc
00000100: 11cd c1bd 0309 adbc 1d6e 1cbd c3cd 21bd
00000110: bce1 623d 6eea 46bd b319 b93d 6a9a f0bc
00000120: 0801 3b3d de9b 013d 264b 3d3d 2034 4bbd
00000130: d8a7 b73d a37f 953e 4069 623d 3d7b 9e3d
00000140: 7b5a f73c acb9 e73d 9574 663b a154 4abe
00000150: af1b 873d 0eb3 28bd 39d6 073c 6fa5 41bd
00000160: 11e3 11be 476d 1fbe 717e 893d d284 a5bd
00000170: 2901 51bd f799 a53d 2c94 e53b aef3 81bc
00000180: dc12 a73d 2eef 9c3d 0fdf acbd 840e 0abe
00000190: ac5c 953c 583f 233d 13fc 4ebd e2e7 203d
000001a0: ffb9 b73c b822 f4bc 1b53 bcbd 553c bb3d
000001b0: 14ae ac3d d844 dcbd dfa0 19bd eea9 be3c
000001c0: 828e 963c 04d0 003e 0ae2 24bd 5a27 683b
000001d0: 40a4 79bd 1feb 1fbc 178c 81bd 4229 69bb
000001e0: ccd0 88bd 2285 64bd 5ea7 583d f002 8d3d
000001f0: 2b24 543d da04 81bd 5842 acbd 6e79 7bbd
00000200: 50f0 c43d 0c68 47ba 44b1 013c 7e59 0dbe
00000210: a405 16bd 263d 113d 37d2 c53d 705f 54bd
00000220: 727c a93d a93e 833c 4786 97bc 5a02 503d
00000230: 43d4 2abd 1e07 9b3b f9ef 383d 6d74 89bd
00000240: 9040 04bd 2f5e d63c b032 183d 16d5 013e
00000250: 01e5 75bc b346 e3bd 8fa4 e83b 931f 90bd
00000260: e3e1 ebbd 3349 853d da11 493d dcaa a63c
00000270: 3681 7bbc 197a cabd fb1f bb3c e49a 93bc
00000280: a482 803d 5d37 853d 9c84 dfbc 40cd aebd
00000290: f997 e23d f99e 1a3c 43f3 bd3d df84 94bc
000002a0: 12ec 97bd 81f1 32bd bfa1 69bd ad62 d6bd
000002b0: b949 b1bd d612 383e a1eb 773c efe5 fbba
000002c0: 38a7 9f3d c5bc d43c 4b65 df3c 8195 243d
000002d0: ecd7 913d 39c2 bfbd 9d65 03bd 56c2 b03d
000002e0: 9006 703d a443 79bd 33df dbbd 6a26 aebd
000002f0: 8baf f53d e3bd b8bd 6fa5 893d 45a6 d33c
00000300: bdfd 2d3e e42b 23bd 6a68 b23b 9597 a9bc
00000310: d489 b33d ac90 02bc 71cf ae3d d4ac b1b7
00000320: 5c28 cd3d 8761 b6bd 7ab8 d03d 918e 9a3c
00000330: 1872 08be 28b6 473d 6682 013c a792 753c
00000340: 6522 043e 62a7 233d 38a5 77bd 7d4c 8abd
00000350: bbf5 fbbc 70bb 8fba 9079 dcbd 795a 43bd
00000360: 2e2d dabc 7510 3e3c 9834 6b3d e1dc df3c
00000370: f0e9 e2ba 116f eabd f4a3 02bd 35b3 14bd
00000380: cbef 653d 1154 2b3d 6385 87bc 3c58 9a3d
00000390: d9cc 8abd 80fd f13c 3503 873d 09a8 10be
000003a0: c12c d1bd 15a0 28bd af5b 3b3c 9bbe f3bc
000003b0: 6cfd 46bc d26f 1ebd 0312 953b 87ec a2bd
000003c0: 6697 1c3d c55a 993c 4ad6 12bc 2f1f 01bd
000003d0: 2a73 07bd b13f 853d 8d33 36bc ff24 71bd
000003e0: f761 923d aadf 6d3d 6e14 363c 9a55 06be
000003f0: 3621 9abd 47f8 fbbd 42c0 d33c 4e24 863d
-0.0005184396 0.012829677 0.15410504 -0.07566322 0.03794443 0.13947216 0.06508636 -0.046236552
0.0035792098 0.008421317 0.05675207 0.31260452 0.09942894 0.07655611 0.035548948 -0.023391908
0.04241696 0.18394706 0.05716655 -0.00785529 -0.12671226 -0.04427659 0.09039226 0.07784275
0.095520854 -0.0068420027 -0.15677847 -0.08237043 0.07606943 0.09315904 -0.08996368 -0.040582765
0.05021632 0.034657132 0.058325056 -0.27152494 -0.0059237187 0.015716862 -0.046140607 -0.07314683
0.024151223 0.05195708 -0.10908217 0.12070315 0.07444356 0.0410437 0.059578124 0.08649248
-0.10823683 0.029901816 0.048086163 0.006631613 -0.022719976 0.089711964 -0.047322415 -0.08152526
0.037939057 0.04838455 0.016195154 0.005709304 0.0034645128 -0.040028222 -0.009004185 -0.02706664
-0.094629414 -0.021122461 -0.03819095 -0.03950287 0.05539106 -0.048563413 0.09038105 -0.029370505
0.04565528 0.031642787 0.046214245 -0.049610257 0.089675605 0.29198942 0.055276155 0.077383496
0.030194512 0.11314711 0.0035164703 -0.19758846 0.06597077 -0.041186385 0.008290821 -0.04727691
-0.14246775 -0.1556903 0.0671357 -0.08081974 -0.051026497 0.08086007 0.007006189 -0.015863266
0.08157894 0.076628074 -0.084409826 -0.134821 0.018232666 0.03985533 -0.050533365 0.03928364
0.022427557 -0.029801711 -0.091955386 0.09142367 0.0843164 -0.107553184 -0.037506934 0.023274388
0.0183785 0.12579352 -0.04025463 0.0035423846 -0.060947657 -0.009760647 -0.06325548 -0.003557757
-0.0668045 -0.055791028 0.05289399 0.06885326 0.051792305 -0.062997535 -0.084110916 -0.0613951
0.096161485 -0.0007606752 0.007915799 -0.1380367 -0.036626473 0.035458706 0.09659236 -0.05184883
0.08275689 0.01602109 -0.018496646 0.050783493 -0.041706335 0.004731073 0.04515073 -0.067116596
-0.032288134 0.026167957 0.037157714 0.12678942 -0.015008212 -0.11097469 0.007099695 -0.07037272
-0.11517694 0.06508102 0.04908929 0.020345144 -0.0153506305 -0.098865695 0.022842398 -0.018018194
0.06274918 0.065047 -0.027284913 -0.08535242 0.11064143 0.009437316 0.09274914 -0.018129764
-0.07418074 -0.043687347 -0.05703902 -0.1046804 -0.086566396 0.17975935 0.015131862 -0.0019218306
0.07795566 0.025968919 0.02726998 0.04018164 0.07121262 -0.09363217 -0.032079328 0.08630817
0.05860001 -0.060855523 -0.10735931 -0.08503421 0.11996373 -0.09020593 0.06721007 0.02583612
0.16991325 -0.03983678 0.005444576 -0.020702163 0.08766523 -0.007969063 0.0853566 -2.1180524e-05
0.100174636 -0.089053206 0.10191436 0.01886681 -0.13324773 0.048757702 0.007904625 0.014988578
0.12903745 0.03995455 -0.0604603 -0.0675287 -0.030756822 -0.0010965895 -0.10765374 -0.047693703
-0.026632871 0.011600603 0.057423204 0.027327003 -0.001731215 -0.114469655 -0.03189464 -0.036303718
0.056136888 0.04182822 -0.016543096 0.075363606 -0.06777353 0.029539824 0.065924086 -0.141266
-0.10213614 -0.04116829 0.011435433 -0.029753974 -0.012145381 -0.03868086 0.0045492663 -0.0795527
0.038230322 0.01872004 -0.008962223 -0.03152388 -0.033068813 0.06506289 -0.011120689 -0.058873173
0.071475916 0.05807463 0.011113269 -0.13118592 -0.07525866 -0.123032145 0.025848512 0.06549893

net.3.module.0.bias f4 [32]
00000000: 9d12 e93d 8c26 c03d 570b 39bd 7bee 89bd
00000010: c6f2 0c3e 5415 e43c 9a5a 6a3d 007f 873d
00000020: fa09 c33c f055 dc3d e943 633d e349 c9bd
00000030: e4f7 bcbb ab25 1e3d 5f01 cfbb eedf 7f3d
00000040: d630 90bd c92c 9f3c b9ce 483d f1ad 74bd
00000050: fbe8 b5bc c809 27bb 7f64 94bc 04e8 313d
00000060: eac4 a9bc 93f8 8f3d 0660 d43d 8f84 143d
00000070: 9c09 8bbd a7bb 4fbd cbf2 a6bc ffaa b23d
0.11380503 0.09382352 -0.04517683 -0.0673494 0.13764486 0.027842201 0.05721531 0.0661602
0.023808468 0.10758579 0.055484686 -0.09828546 -0.0057668556 0.03861014 -0.006317302 0.062469415
-0.07040565 0.019430535 0.04902527 -0.059736196 -0.02220582 -0.0025488008 -0.018114327 0.043434158
-0.020723779 0.07029834 0.103698775 0.03625923 -0.06788942 -0.05071607 -0.020379445 0.08724021

net.4.module.0.weight f4 [32, 32, 3]
00000000: df63 dcbc 5498 0cbd 6f5d 713d 6b7f 6abc
00000010: 2858 c3bc 4665 eabc 00b5 e63c a575 05bd
00000020: 9bea 453c 71b0 59bc 65f2 a5bc 379f 243d
00000030: 9613 dc3d 1c68 12bd 275c 823d 1f1d d8bd
00000040: b5b3 b3bc 12d9 263e 3e8f 8d3b f53c 6c3c
00000050: 7226 f9bb 9cfc 713d fc01 57bd 9305 a63d
00000060: 6659 d23d aeae b83c bc42 673b 584a 1c3e
00000070: 4654 113d 7390 a03d 3d48 d4bd 9443 21bd
00000080: 5d51 793d bd2e 71bd 2d8d b93c 8b65 81be
00000090: fa2e 9a3b d569 b33d 60c9 4fbd 5dc6 9b3d
000000a0: 5bbf 8ebc cf6e 013c b4fe 503d 7d58 30bd
000000b0: 8f8c 093d 204c c4bd 7e6f 20bd 792b 793c
000000c0: 9356 62bd b883 92bd 63b2 d33c 6a98 aa3d
000000d0: a320 a73d faa9 f33c 399d 963c b061 b63c
000000e0: 2faa d4bd da06 813d 8211 91bd fd0f f3bc
000000f0: ae64 b33d db40 683d 3d4b 92bd 8399 6ebd
00000100: 9588 37bd b845 87bd 35d0 573d 329b f13c
00000110: 2c3e 0d3e a37d d4bc 3f47 14be 27ac 06bd
00000120: ad96 553d 436c cd3d 8776 26bd 3512 8f3c
00000130: 6e36 44bc d9b4 b13d b6cb 3d3d 753f 913c
00000140: c595 67bc 0ea8 c83d 2be8 3bbc cd36 cebc
00000150: 7720 38bd 3449 b83d 9e38 82bd d15d e0bc
00000160: dd80 8e3d e92f fabd 0c35 a83c c9d3 b63d
00000170: dd82 ca3c 9141 11bd 24a6 c03d c1f6 1ebd
00000180: 25be babd a2a2 00bd 3d0c 6b3d 668a 96bd
00000190: f19e 84bd 2c2f bdbd eeac 41bd 885c 573d
000001a0: 15bd 1dbc efe5 22be 3037 9dbb 1181 b5bd
000001b0: ba29 b53d 5e6a ec3d 9518 c03d 60e2 f73b
000001c0: 439f d3bd 60a6 74bd 4670 113d 6ba5 383d
000001d0: 8819 b93d f3c2 93bb 49f8 a43d 6cdb 8cb8
000001e0: 2efb f43d 463a fd3c bf40 e93c 06b9 c33d
000001f0: c724 4d3d 8532 0bbd 2cdc 9dbd 7c63 52ba
00000200: 2027 22bd 6a78 003e dc08 a33c dcab 16bd
00000210: 40c5 e2bc bd5f cdbc 36a2 c53c ff5c 34bd
00000220: ec5c 693d 5a2b d3bc 98fa a73d 05d2 c63d
00000230: e6e0 e3ba c20f 8dbd 8aeb 88bc e52e 863b
00000240: aa75 8bbd ee0a 9fbd c7d0 3fbc 2c03 1dbd
00000250: 252c 6ebd e599 a63d eb56 0abc 5ede 4d3d
00000260: d01d 6fbd 96be 813d bbfe b3bc 8f40 9fbd
00000270: 7002 38bd 2fb1 88bd a0c1 9dbb c4e5 21bd
00000280: 203d 703c dac2 78bc d256 17bd 5dde 753d
00000290: 3fbf 8f3b e351 b33d dfe5 d5bd 50ef 05be
000002a0: 5a87 333d 7cdd 363d 896a 823b b1a1 adbd
000002b0: 15bb 863d 8567 083e c761 a43c f3a1 1cbc
000002c0: ccfe 73bc e23a ec3d ed5d 653c d030 d2bd
000002d0: 9c25 683d 5d33 7bbd f6c0 acbd f355 853d
000002e0: 56cd ad3d 8c75 53bd 44ec 9c3d 6372 513d
000002f0: 122e 1d3d d1d9 afbd d409 6c3d bd21 89bd
00000300: 0a5f b03d 2b22 803c d899 c23d 781d dd3c
00000310: e3c0 c73d d926 7abc 3297 073d 7ffc 4bbc
00000320: 46fe bc3d 4ba6 393e e981 d43d 1e84 cc3d
00000330: 73ad f03c 479f 32bd 003b 193d 827c 293e
00000340: 9805 ea3d 12c6 9e3c ab7e 4e3d 141c a13c
00000350: 8d10 593d 6228 1a3d c973 8f3d ee87 1dbd
00000360: 7b77 14bd 8f35 6e3d fda4 053d a99e 1dbd
00000370: 4301 84bd 0877 56bd 79df 5a3d 719c 983d
00000380: dcaf fa3c 400c cabc b2dd e63c 86d0 49be
00000390: 77fa 9d3d 84fd 983d feae 98bd e98d c03d
000003a0: 5e5b d5bc 3e73 f738 20d6 86bc edd6 2d3c
000003b0: 3a95 2b3d a2df 7339 238d 13bd 6b60 15bd
000003c0: 0b63 473d f5a2 923d 8ba6 59bd 7032 e2bb
000003d0: bee3 aebd 8619 623d fc84 34bd 85f1 a4bd
000003e0: 5ad0 eabc dfd4 693d 675f 79bd 9943 92bd
000003f0: d7d3 3b3d 48ea b7bd 256a 07be 5d7e b0bc
-0.026903091 -0.03432496 0.058926996 -0.014312605 -0.023845747 -0.028612744 0.02816248 -0.032582898
0.01207986 -0.013286696 -0.020257184 0.0401909 0.10745923 -0.035743818 0.06365233 -0.105524294
-0.021936277 0.16293743 0.0043200543 0.01441883 -0.00760346 0.059078798 -0.052492127 0.08106532
0.10270958 0.022544231 0.003528758 0.15262735 0.03548076 0.078400515 -0.10365341 -0.03937109
0.06086861 -0.058882464 0.022650326 -0.25272784 0.004705307 0.0876042 -0.050729156 0.07606194
-0.01742523 0.007899954 0.051024154 -0.04305314 0.033581313 -0.09584832 -0.039168827 0.015208119
-0.055258345 -0.071540296 0.025841897 0.08329852 0.08160522 0.029744137 0.018385516 0.022263378
-0.103840224 0.06300135 -0.070834175 -0.02967071 0.087594375 0.056702476 -0.07143257 -0.05825187
-0.04480799 -0.06605095 0.052688796 0.029492948 0.13793248 -0.025938815 -0.14480303 -0.03287902
0.05214565 0.10030415 -0.04064038 0.017464736 -0.011975868 0.08677072 0.046336852 0.017730454
-0.014134829 0.09797679 -0.011468927 -0.025172615 -0.044952836 0.089983374 -0.06358455 -0.027388485
0.069581725 -0.122161694 0.020533107 0.089271136 0.024720604 -0.03546292 0.09406689 -0.03880954
-0.091182984 -0.0314051 0.05738472 -0.07350616 -0.06475628 -0.09237513 -0.04728406 0.05257848
-0.0096276 -0.15908025 -0.0047978386 -0.08862508 0.08845849 0.115437254 0.09379689 0.007564828
-0.10333111 -0.05972898 0.035507463 0.04507963 0.09038073 -0.0045093237 0.08055169 -6.716591e-05
0.11961971 0.030911576 0.028473256 0.09556775 0.0500839 -0.033983726 -0.0770801 -0.00080256886
-0.039588094 0.12545934 0.019901685 -0.03678499 -0.027681947 -0.025070066 0.0241252 -0.044034
0.056973383 -0.025777508 0.08202094 0.09708027 -0.001738575 -0.06887771 -0.016713876 0.0040949457
-0.06809552 -0.077657565 -0.011707491 -0.038333103 -0.05814757 0.08134822 -0.008443574 0.050260894
-0.05837804 0.063351795 -0.02197205 -0.077759854 -0.0449242 -0.0667442 -0.0048143417 -0.039525762
0.014663011 -0.015183175 -0.036948033 0.060026515 0.004386812 0.08755853 -0.10444235 -0.13079572
0.043830253 0.044644818 0.003979985 -0.08478106 0.06578652 0.1332074 0.020066155 -0.009560096
-0.014892291 0.115346685 0.013999444 -0.102632165 0.056676492 -0.06132828 -0.08435242 0.06510534
0.0848643 -0.051625773 0.076622516 0.05113448 0.038374014 -0.08586467 0.05762656 -0.06695888
0.08611877 0.015641293 0.095019996 0.02699159 0.09753587 -0.015268051 0.033103175 -0.0124503365
0.09228186 0.18129842 0.10376341 0.09986137 0.029379582 -0.04360893 0.037409782 0.16551402
0.11426848 0.019381557 0.05041377 0.019666709 0.0529943 0.03763617 0.07004506 -0.03845971
-0.036246758 0.058156546 0.03262805 -0.03848139 -0.06445553 -0.05235961 0.053435776 0.07451714
0.030601434 -0.024664044 0.028181884 -0.19708452 0.07713788 0.07470229 -0.07455252 0.09402067
-0.026044544 0.00011799343 -0.016459525 0.010610324 0.04189036 0.00023257596 -0.03602327 -0.036468904
0.04867844 0.07159988 -0.053137343 -0.0069029853 -0.08539532 0.055200122 -0.044072136 -0.08053879
-0.028663803 0.057087775 -0.060882 -0.071417995 0.045856323 -0.089802325 -0.13224085 -0.02154463

net.4.module.0.bias f4 [32]
00000000: 4040 f4ba 2672 933a 2dc6 213d 5361 22bc
00000010: 3714 c73c 805f cd39 6d6f db3d c0b9 063d
00000020: 42c0 2bbd 15d4 d63c a727 a7bc 0d21 b8b9
00000030: 3e64 d03c bb6b 21bd 5055 ec3d 65e4 23bd
00000040: 7bac 87bd a94b 29bd db79 9c3c 8704 b53c
00000050: 0e8b 44bd effe aa3c 1c78 5c3d 50cd 03bb
00000060: 5026 b23d 1a64 963c 18f5 a9bd 3cf3 263d
00000070: ec91 563d 83a0 b2bd 6884 573d 4bef d23d
-0.0018634871 0.0011249229 0.039495636 -0.009910899 0.024301631 0.000391718 0.10714612 0.03289199
-0.0419314 0.026224175 -0.02040465 -0.0003511984 0.025438424 -0.03940938 0.115397096 -0.040012736
-0.06624695 -0.04133192 0.019101074 0.022096885 -0.047984175 0.020873515 0.053825483 -0.002011139
0.08698714 0.018358279 -0.08298701 0.04075931 0.052385256 -0.087220214 0.052616507 0.10299548

net.5.weight f4 [32, 32, 3]
00000000: ee7a 31bd c48e c63c d4c9 a23d 1820 8a3d
00000010: ecc5 45bd e516 d8bc 38e1 703c 8897 ecbc
00000020: cb7d fe3d 28dc 303d fd5f e83c 69bb 463d
00000030: 217f a5bd 803a 233d c34f 463c 0889 3c3e
00000040: 1eaa 17bd e95a 683d 6217 7bbd 0409 06ba
00000050: 8927 b2bd 07bb cfbc 8388 d83d ca58 70bc
00000060: daa2 deba c464 c43c c5b4 0fbe e470 ac3d
00000070: b21c 183d 9e58 4e3d c62e aa3d 5ac5 0c3c
00000080: da1c f63d aef5 d8bd 8461 3a3d 26a1 35be
00000090: e839 0d3d 70dc 3d3d 20e1 f7bd 954a 393c
000000a0: b3d8 6e3d 774d 843d 4045 5abd 8cb9 343d
000000b0: 2066 853d 2024 54bc afa3 b63d c452 b53b
000000c0: 94ce 31bd 4eb2 0e3d ad86 743d b5fe 8cbc
000000d0: 73de 96bd 91e6 3fbb 8acb 80bd 5014 553d
000000e0: 8e88 c0bb 50e9 833c 04b0 793c 00d1 7d3b
000000f0: 0101 cbbd c935 60bd 2497 8bbc bf8c 61bb
00000100: 2a24 93bd 590b 12bd be51 92bc 516a 8b3d
00000110: 177e d33d de9d 86bd a6ee cfbd ca21 53ba
00000120: 5b80 a73d 2662 2ebd ecb5 ea3c 4df8 e43d
00000130: 94fe 0c3d 9fb4 e63d 7748 d33d 6e1c f6bc
00000140: bb93 063e 5e7e 45bd f79b a23d a6cb 6dbd
00000150: bf20 0bbe f0a1 75bd a0d2 32bd e8ad b7ba
00000160: 6e6c 3fbd 09c0 c3bd 7a4a 04bd ecc4 12bd
00000170: f77d 81bd 5e36 c13d 0086 37bd 58bd e03d
00000180: 50b6 c5bc 6944 333b f021 b73b c004 8bbc
00000190: be75 e8bc eb25 193d f09a 913a 3271 7cbc
000001a0: 1d9f 04bc 4598 6ebd c03e 1f3c bf16 6f3d
000001b0: 6c53 6e3b 3684 96bd fbf4 b3bc d3a2 983c
000001c0: cdd2 973c da03 d23c 8ce7 b8bd cc14 313d
000001d0: 4b71 4bbb ad79 5fbd f601 8abb 9571 99bd
000001e0: eb2a c0bc 8783 af3d b8e5 583d 6dcb ab3d
000001f0: dd5a 17bc e5e8 d2bc e8ed 863d 3e65 f0bd
00000200: 96eb 55bd 0c2d 12bd d116 66bc 3f25 303d
00000210: 239c 1a3d 067c 8bbc 5c72 c33c 85de 4f3d
00000220: 59cc 95bd b6db 043d 02dc 5cbd b3d3 ef3c
00000230: a95f 97bd c354 99bb 4ba9 c2ba e0fe 213a
00000240: d2a5 f03c 2971 babc 6177 19bd d32c 18bd
00000250: 8106 1bbc 1e6d 7dbb 1895 58ba c6c1 26bd
00000260: 12f7 b83d 1a66 fe3c 76a7 a3bd 1e05 903d
00000270: fd73 9dbb 0b02 053d 690a 90bc 4a02 5e3c
00000280: 60dc f5bc 28b0 3a3c ccde 7fbb cead 6e3c
00000290: e28d 2e3d a721 ad3d cb1a 61bd 29b5 85bc
000002a0: 2f3a 03bd 7c8a ad3c bcb0 54bd 1c79 c2bc
000002b0: b1c5 31ba 2c9e 0a3b 9ff7 873d 03a2 8e3d
000002c0: 4a25 1b3d 8a48 0dbd c814 c73c 0a0b b238
000002d0: 49f4 6c3d 59cc e3bc 4f3a 6d3d 9978 a03b
000002e0: 8bac 49bd 6cb2 6f3d 9ade 1abd 3344 813d
000002f0: f8aa 0abc 3d76 99bd 3369 b5bb 0c3a 02bb
00000300: bd56 483d b2ab bfbd af99 083d 3cd9 103d
00000310: 6281 bdbc b56f d1bc 76d6 023e 9035 173d
00000320: 9acd 533d 4f5c 083e 6967 723d 0d91 203e
00000330: 4933 82bd 0544 afbd 4aa3 103d 7c54 113d
00000340: 0715 9e3d 3626 a237 6449 f1bd eaed f13c
00000350: a58c 223d a103 bb3d 7e41 ee3c 3e6a 153d
00000360: 1e7a 15bd d237 65bc d74b 41bd efc2 3dbc
00000370: c829 363c dd32 66bb 084c b73d 226d 273c
00000380: 6d01 d23d beff b6bd b8fa 96bd af22 5ebe
00000390: 43a6 2b3d becf a33d 701c 63bd bc60 8c3d
000003a0: ac63 83bc 07aa 043c 47f9 89bd 9538 6c3d
000003b0: ea4e aa3d 7a14 833d 1216 1f3d ff66 773d
000003c0: 9d8f 833c 16ef 283d 60bd 71bd 58cd d1bd
000003d0: 0a57 c23d 1a8c 0d3c b54a cabd fadc 963d
000003e0: 5ada 20be 2a8b d33c 1787 c3bd 3c25 90bd
000003f0: 6db2 5ebd 44af babd 090c f7bd 7c0c 0cbd
-0.043330126 0.024237998 0.07948652 0.06744403 -0.048284456 -0.026378104 0.014702134 -0.02888085
0.12426337 0.043178707 0.028366083 0.048518572 -0.080808885 0.03985071 0.012103978 0.18411648
-0.03702747 0.056727324 -0.061301596 -0.0005113038 -0.08698947 -0.025357736 0.105729125 -0.014669606
-0.0016985789 0.02397383 -0.14033802 0.0841997 0.03713674 0.05037748 0.083097026 0.008591974
0.12017222 -0.10593735 0.045503154 -0.17737255 0.03447905 0.046352804 -0.12103486 0.011309286
0.05831213 0.06460088 -0.0532887 0.044122264 0.065136194 -0.012948066 0.08917939 0.005533548
-0.0434099 0.034838013 0.05969875 -0.017211298 -0.073666476 -0.0029281715 -0.06288822 0.052021325
-0.0058756536 0.016102463 0.015239719 0.003872931 -0.09912301 -0.054738794 -0.017039843 -0.0034416167
-0.07184632 -0.035655353 -0.017861243 0.068073876 0.10326784 -0.065730795 -0.101529405 -0.0008054046
0.08178779 -0.04257407 0.0286512 0.11180172 0.034422472 0.112649195 0.10316556 -0.030042853
0.13142292 -0.048216216 0.07939904 -0.058055542 -0.1358671 -0.05996889 -0.0436579 -0.001401362
-0.046734266 -0.09558112 -0.03229759 -0.03583233 -0.06322854 0.09434198 -0.044805527 0.109736145
-0.024134785 0.0027354008 0.0055887625 -0.016970038 -0.028376456 0.037389677 0.0011108797 -0.015407847
-0.008094576 -0.058250684 0.009719551 0.0583713 0.0036365641 -0.07349436 -0.021967402 0.018632328
0.018533135 0.025636602 -0.09028539 0.043232724 -0.003104287 -0.0545594 -0.0042116595 -0.07492367
-0.023457965 0.08570009 0.052953452 0.0838841 -0.009237972 -0.025745818 0.06588346 -0.117380604
-0.052226625 -0.03568749 -0.014043526 0.04300427 0.03774656 -0.017026912 0.023858242 0.05074932
-0.07314367 0.032436095 -0.053920753 0.02927575 -0.073912926 -0.004679294 -0.0014851479 0.0006179642
0.029375944 -0.022759037 -0.037467364 -0.037152123 -0.009462 -0.0038669775 -0.0008261963 -0.04071214
0.090315 0.031054545 -0.07990925 0.07032226 -0.0048050866 0.03247265 -0.017583089 0.01355035
-0.03001231 0.011394538 -0.003904271 0.014567805 0.04261578 0.08453684 -0.054957192 -0.016321735
-0.03203791 0.021184199 -0.05192636 -0.02373939 -0.00067814725 0.0021151407 0.06639027 0.06964495
0.03787736 -0.034493007 0.024301901 8.4897576e-05 0.057850156 -0.027807401 0.057916936 0.004897189
-0.049236815 0.058519766 -0.037809946 0.06311836 -0.008463614 -0.07493255 -0.0055362224 -0.0019871024
0.048910845 -0.0935892 0.03334969 0.03536342 -0.023132984 -0.025565961 0.12777123 0.036916316
0.05170975 0.13316463 0.05918065 0.15680332 -0.06357438 -0.085578956 0.035311975 0.03548096
0.077188544 1.9329698e-05 -0.11781576 0.029532392 0.03968491 0.091315515 0.029083963 0.036478274
-0.036493413 -0.013990359 -0.047191467 -0.01158212 0.01111836 -0.0035125532 0.08950049 0.01021889
0.10254178 -0.08935498 -0.073720396 -0.21692918 0.041906606 0.07998608 -0.055447042 0.06854388
-0.016038738 0.008097178 -0.06736999 0.05767115 0.08315833 0.0640039 0.038839407 0.06040096
0.016059691 0.041243635 -0.059018493 -0.10244244 0.09489258 0.00863936 -0.098775305 0.07366367
-0.15708295 0.025823195 -0.09547251 -0.07038352 -0.05436938 -0.091154605 -0.120628424 -0.034191594

net.5.bias f4 [32]
00000000: f9ac e13c c043 e6bd 5d2f 8b3d 2801 b1bd
00000010: 2638 a1bd b859 b33c f1fa 443d ce31 9ebc
00000020: 7679 71bd 79ac 26bd 988f 53b9 a11d f93c
00000030: 507a 20be 5247 913c 7afe fbbc 0024 c93d
00000040: 121a 8c3d fed0 183d 2199 3fbb c709 023e
00000050: e769 bfbc 436c aabd f6dc 1d3d d42e 7ebd
00000060: f3af 233d f9b5 6abd 7104 e3bd 52db 1abd
00000070: 7bbd 8bbd c2f0 b8bd 6df4 643d 29f9 2e3d
0.0275483 -0.11243391 0.06796143 -0.08642799 -0.078720376 0.021893367 0.04809088 -0.019310858
-0.058953725 -0.040691826 -0.00020176021 0.030409636 -0.15671659 0.017734203 -0.030760992 0.098213196
0.0684091 0.037308685 -0.002923556 0.12699042 -0.023365928 -0.083214305 0.038540803 -0.062056378
0.03996272 -0.05730245 -0.110848315 -0.037806816 -0.0682325 -0.09030296 0.055897165 0.042718086

exp_avg f4 [32, 45, 2]
00000000: 0149 893a a8ff 24ba e658 aa3a f069 bf3a
00000010: 76b6 d43a b1b9 ef3a 7d6d 183a 5510 9639
00000020: 2f0f a9b9 be91 813b e1e6 0b3a 62b4 043b
00000030: 9846 6e3b 646a 7e3b 0ad7 d83c e292 16bb
00000040: c638 01bb a6fb c939 348d f9b8 5ecc cb39
00000050: d70f 9fba 128d 23b9 a08b a5b9 4aa6 43b9
00000060: 7cdb 753b 8e10 873b a211 0e3b 3c00 973a
00000070: 086f df3b a48f adba 9b6e 93b9 b058 803b
00000080: 39eb 20b9 6a15 013a aaec 1a3a 70b3 4c3b
00000090: be4e ff3b b438 803b 02c4 583b f5d1 8d3a
000000a0: 40d7 8bba 6287 9f3b cb33 533a 289d f939
000000b0: 892b adb9 1813 2dba 6a9d 98ba ba6e bc38
000000c0: 5a93 feba fc04 07bb 2c3e d439 b2f5 0d3a
000000d0: e29f 01b9 e4e3 af38 5261 02ba 08c4 063a
000000e0: 0000 0000 0000 0000 cea3 323b 43c0 cf3a
000000f0: 1d91 9f3a 541e 84bb 765e a23a e212 6b3b
00000100: 30d0 68ba 1e43 143a ea71 073a 1dd4 4e39
00000110: 5730 033b 0d7a 5c3b a5f4 47bb 2cd5 b4ba
00000120: 2999 99b9 71e1 ee38 b047 26b8 601c c935
00000130: b491 b0b9 9178 8fb9 d057 c438 bff4 93b8
00000140: ae85 c0b7 9a13 bfb7 8394 94ba c66f 963a
00000150: d0d1 99b9 1923 9839 7c29 ccb9 f9af 8c3a
00000160: d81c 4d39 eb4a d03b 0884 b439 d044 abb9
00000170: 7cd1 8b39 027c a73a 80c4 7dba ba2b 22ba
00000180: 28e8 423a 1cbb 923a 3ee6 673a ec78 fcb8
00000190: 4af5 67ba 30f4 8d37 3a48 903b cef7 563b
000001a0: dbfa b93c e46a 623b f053 a0b9 f0b2 3e39
000001b0: f237 093a a99c 0d39 d393 37b9 beff 6139
000001c0: c060 7a38 e3cb 1939 f55b 94ba debc 223c
000001d0: c8a7 21bb dd34 253b 458a 08bb 380c cfb9
000001e0: 9e99 143b 3566 40bb f093 853a f8f8 a1b8
000001f0: e6e0 5fba 97c4 3fba 02ed ac3b 5cf2 133b
00000200: fffc 673b 5817 f23a 3680 9e3a d0a6 283a
00000210: 2075 ba3a 2cb4 243a 3538 433b 6498 8739
00000220: f898 6238 9ef5 8aba 8e69 a13a 22f2 ef3a
00000230: 22fd 833b bb68 ff3b 9423 bfb8 6509 3038
00000240: 9424 253b 9804 cd3b 0000 0000 0000 0000
00000250: ce3a 013c ef8e 923b 58f2 823b 8e18 a239
00000260: da60 c739 be0e 1d3a 5af9 65b9 986b 8bb9
00000270: 2e65 78ba d91e a83a dd72 103b 506d 723a
00000280: 336e 653b b085 9fb8 c407 5539 c2f6 2b37
00000290: 5045 d6b5 7205 acb8 1e77 dbb9 1f64 6139
000002a0: daf6 8f37 a4a5 8138 c96e 88b9 0098 1fb4
000002b0: 67b3 db3a f146 ae3a 293a 5f39 83e7 a339
000002c0: e0af 6eb7 f413 403a 2a26 cc3b a7e3 703c
000002d0: 8fae 61ba b084 cfb9 5535 20b9 daf9 0ebb
000002e0: 2bca 20bb 0a91 08bb 6c67 72b9 28ba c539
000002f0: 30dd 55ba 9eb9 4cbb 2c4a efb9 b847 28ba
00000300: 0bef b0bb 2b4c babb e0ef a63c 2b2a 013d
00000310: 1021 00b8 f8fe 42b9 5527 263a e11f 26ba
00000320: de87 35ba 8605 a8b9 8dca 23b9 3541 e0b9
00000330: 789e 63ba 666f 57bb 305f b13b a83c 2b39
00000340: a0db 14bc 0e0e 07bc 275b a5bb d102 0e3b
00000350: 5064 2cb9 6eda 113b 7034 f7b9 d990 753b
00000360: 78b4 93bb 7bcf 5cbc 8076 5339 de4f 04ba
00000370: 9614 88bb 6c29 763a 0401 eab9 0fcb 67ba
00000380: f10b 15ba a09a 2039 c8f3 f139 f3ff acbb
00000390: 76fe 423a 4af2 7fbb 8edf 333b e89e 93ba
000003a0: 1e29 1c3a 9f13 363a fbe7 ca3a b6e0 ea3b
000003b0: 0000 0000 0000 0000 ce9f 843b 60f9 273b
000003c0: 8ca4 203c 3f6c a63b 8b49 ac3b 0c4e dc3a
000003d0: 5d3e 293a 56d8 5139 4875 0839 6039 5139
000003e0: 12db 00ba dd06 6ebb 6445 6f3b baed 983b
000003f0: 28a6 25ba e871 b437 5806 d039 a89e b6b8
0.0010474027 -0.0006294199 0.0012996465 0.0014603715 0.0016228694 0.0018289593 0.0005814655 0.00028622398
-0.00032245505 0.0039541414 0.0005336833 0.0020249118 0.0036357995 0.0038820738 0.026469726 -0.0022975733
-0.0019717677 0.000385252 -0.000118995464 0.00038871443 -0.0012135458 -0.00015597444 -0.0003157528 -0.00018658597
0.0037514856 0.0041218465 0.002167799 0.0011520456 0.006818656 -0.0013241661 -0.00028120432 0.0039168224
-0.00015346416 0.00049241504 0.00059098995 0.0031234883 0.007791369 0.0039130095 0.0033075814 0.0010820018
-0.0010669008 0.004868434 0.0008056729 0.00047610071 -0.00033029568 -0.00066022715 -0.0011643593 8.985163e-05
-0.0019422576 -0.0020602336 0.00040482113 0.00054153346 -0.0001236196 8.387098e-05 -0.00049736083 0.0005140905
0.0 0.0 0.002725828 0.0015850145 0.0012173984 -0.0040319357 0.0012387771 0.003586941
-0.000888112 0.0005655753 0.0005166816 0.0001972471 0.0020017826 0.0033642084 -0.003051081 -0.001379644
-0.00029296547 0.00011390716 -3.964425e-05 1.4983925e-06 -0.00033677893 -0.00027364914 9.362365e-05 -7.055094e-05
-2.2950433e-05 -2.2778102e-05 -0.0011335764 0.0011477403 -0.00029338757 0.0002901785 -0.0003894082 0.0010733596
0.00019561069 0.006356587 0.00034430646 -0.0003266693 0.00026668224 0.0012778046 -0.0009680465 -0.00061863253
0.00074351067 0.0011194679 0.00088462594 -0.0001203882 -0.00088485016 1.6922218e-05 0.0044031413 0.0032801512
0.022702625 0.0034548575 -0.00030580116 0.00018186471 0.0005234472 0.00013505168 -0.00017507309 0.00021552944
5.969475e-05 0.00014667171 -0.0011318909 0.009932725 -0.0024666656 0.002520851 -0.0020834368 -0.0003949122
0.002267457 -0.0029357795 0.0010191184 -7.723452e-05 -0.00085402874 -0.0007315366 0.005277277 0.0022574877
0.00353986 0.0018470092 0.0012092653 0.00064335484 0.001422558 0.0006282951 0.002978814 0.00025862746
5.4025062e-05 -0.0010601764 0.0012314783 0.0018306414 0.0040279785 0.0077944673 -9.114217e-05 4.197042e-05
0.0025198804 0.006256651 0.0 0.0 0.007887555 0.0044726054 0.003996175 0.00030917343
0.00038028398 0.00059912715 -0.00021932033 -0.0002659231 -0.0009475526 0.0012826576 0.002204112 0.0009247856
0.003500831 -7.606612e-05 0.00020316156 1.0249847e-05 -1.5964415e-06 -8.2026134e-05 -0.00041859684 0.0002149497
1.7161878e-05 6.182052e-05 -0.00026022483 -1.4863326e-07 0.001676184 0.0013296289 0.00021288604 0.00031262272
-1.4226855e-05 0.0007327192 0.0062301354 0.014702714 -0.000860908 -0.00039580977 -0.00015278657 -0.0021816404
-0.0024534564 -0.0020838403 -0.00023117446 0.00037713465 -0.00081582647 -0.0031238566 -0.00045640895 -0.00064193783
-0.00539959 -0.0056853495 0.020378053 0.031534355 -3.054837e-05 -0.00018596265 0.00063382584 -0.0006337148
-0.0006924848 -0.00032047572 -0.00015620347 -0.00042773192 -0.00086829765 -0.0032872795 0.0054129586 0.00016330427
-0.009085566 -0.008243097 -0.0050462666 0.002166916 -0.00016440568 0.0022255438 -0.0004715058 0.003747037
-0.0045075975 -0.013477202 0.00020166673 -0.00050473015 -0.0041528447 0.00093903276 -0.00044632715 -0.0008842209
-0.00056856783 0.00015316391 0.00046148733 -0.005279535 0.00074384303 -0.0039054328 0.0027446481 -0.0011262568
0.00059570547 0.0006945673 0.0015480513 0.007167901 0.0 0.0 0.0040473705 0.0025630817
0.009804856 0.005078822 0.0052577904 0.0016807928 0.0006456131 0.00020012385 0.00013013661 0.00019953167
-0.00049154565 -0.0036320009 0.0036509866 0.004667011 -0.00063190097 2.1510714e-05 0.00039677578 -8.707988e-05

exp_avg_sq f4 [32, 45, 2]
00000000: 90fb 8d36 0487 da36 4b21 7838 c6a9 8f37
00000010: 5441 3138 a7d3 ca37 00d0 aa36 700c 7236
00000020: 9599 d438 371c 8b38 0584 ee37 a5b3 3038
00000030: 4c11 9639 982d 8839 5d7a 533c 44a6 7b3b
00000040: c142 3837 d3a6 6a37 ac44 9135 5c0f d535
00000050: 1507 2137 0c12 c636 9ca4 4434 435c 3434
00000060: 7082 4839 eebe 8938 fa70 1138 2d54 ce38
00000070: 0288 f239 c9e7 5339 10c8 2839 2b03 0a39
00000080: d9b2 6236 be97 d935 149a 0138 2bbb 6938
00000090: 11c9 8939 fbe7 de38 e506 4338 88ba 0b38
000000a0: 283d 2739 202c 9838 26dc 5437 7958 1737
000000b0: d77c 8337 42b7 6637 6855 4338 2759 7937
000000c0: b380 7238 d4e5 2138 e7fc 0e39 0502 1839
000000d0: c158 1935 9f51 6235 d273 2738 bb98 fd37
000000e0: 0000 0000 0000 0000 1eb5 ac39 6538 1139
000000f0: 6279 be39 1711 c639 1d10 6b38 c25c 0a38
00000100: a9b8 7a37 ed9f 4337 3f73 8236 c749 f435
00000110: c570 c738 deab ff38 2131 d238 b207 5537
00000120: 8fa7 e535 c758 a035 6b9f b333 263d b633
00000130: 2adb 5635 c74f 7435 0254 d032 c07f a233
00000140: c107 e234 c7f8 3a34 7121 2737 098d a437
00000150: 8c35 0c36 9bc8 5236 9f79 7836 1cc4 0836
00000160: 995c 173a 16ae ad38 e671 c034 6fa9 8736
00000170: d6ea 7437 07c4 8637 1283 f337 f18a d737
00000180: e3c4 4f36 8ec6 2536 603c ac38 aef3 2938
00000190: 6ecd cd37 6c25 4036 d48f d139 397f bb39
000001a0: 184d c83b fb0a 8a3b d841 3637 70a7 2437
000001b0: ebba 5136 ec20 5236 6b5d 2737 dab9 6837
000001c0: 58ee ca33 cd5d 0e34 4b39 1239 c8c2 0a39
000001d0: 5e6a 5f38 960c 8138 7fa3 3839 be67 ba38
000001e0: a690 8339 7409 3739 5e45 6e36 7494 9936
000001f0: d6e6 7038 05a3 4238 7a40 743a 989c e539
00000200: a5ad 3d38 e932 8b38 68c3 3a39 2013 5d39
00000210: 1463 7537 66d5 2d37 f600 6f38 6737 8438
00000220: f768 ed37 a1b4 2e38 50d3 8a38 696c 8938
00000230: 9ceb b139 9954 013a b06b 8b35 ca28 9035
00000240: 5500 0038 8f03 dd38 0000 0000 0000 0000
00000250: 25fd 4939 6035 0639 16c3 3539 6e14 f739
00000260: e4da 0d38 fd7f 0838 9cb0 7436 d8f4 3d37
00000270: b05c 8636 bd01 5b36 83fb d838 fdfc ee38
00000280: 879b 9238 1a31 6338 8d24 ca34 19a8 a333
00000290: d162 6334 c826 9d34 cfb4 c035 8c11 bf35
000002a0: 588d 4e33 55d3 1433 5a9e b134 53d0 6235
000002b0: d111 1037 7928 8a37 7322 3935 d074 df35
000002c0: 7641 ed35 0d61 1c36 f70d 9539 3ede 0a3a
000002d0: a69e 3c37 1788 3436 40e5 5737 476c d537
000002e0: 863b c938 45f0 bc38 44d1 3636 4855 ae35
000002f0: 11d1 8d39 6218 8939 7fab d938 7f4f 3138
00000300: 2d2e fc39 c24f 8439 41f6 373e 29c8 473e
00000310: 02a6 4f37 2631 8c37 07fb da36 2b69 8c36
00000320: cbcd 5238 47b7 2638 6b9e 6e34 fae4 9435
00000330: bdff f939 b7fb b039 61b0 6439 f7a7 5339
00000340: 6f01 003b 3270 213b 0e6b 773a 56b5 a23a
00000350: 47eb f737 38c6 fd37 3984 ad39 aaab ec39
00000360: cd32 f93a a0ad 0d3b e10b d438 e6ab 3139
00000370: 66df fe39 227b ac39 a484 8938 66ee b337
00000380: e4fa ca39 ecae a939 c7a0 0b39 3d81 4739
00000390: 6262 273a 0034 103a c5c8 5e3b edf9 523b
000003a0: e697 3936 45b7 a936 ebc6 d138 ae95 0d39
000003b0: 0000 0000 0000 0000 1e50 2a3b 4757 a23a
000003c0: ec0e 423b 4a2a c43a a870 ce38 c8a1 1639
000003d0: 2d60 a836 1ee5 bd34 d2fb 5434 ced1 f635
000003e0: f45a 5a39 a5af 0a3a 4e8f 1c3a 8d84 3e3a
000003f0: ea35 5736 a44a 0635 24e4 e034 f424 e834
4.231413e-06 6.512624e-06 5.9158814e-05 1.7125985e-05 4.226093e-05 2.4178835e-05 5.090609e-06 3.606805e-06
0.00010137555 6.633292e-05 2.8433287e-05 4.2128977e-05 0.00028623117 0.0002597391 0.012907592 0.0038398663
1.0982797e-05 1.3986329e-05 1.0823328e-06 1.5874207e-06 9.597997e-06 5.9029608e-06 1.8313807e-07 1.6797371e-07
0.00019122078 6.5682325e-05 3.467591e-05 9.8385244e-05 0.0004625917 0.00020208875 0.00016096258 0.00013161886
3.3780727e-06 1.6211923e-06 3.0899493e-05 5.5725843e-05 0.00026280482 0.00010628995 4.6498044e-05 3.3313903e-05
0.00015949144 7.256144e-05 1.2687442e-05 9.0209005e-06 1.567455e-05 1.3751736e-05 4.6571164e-05 1.4862314e-05
5.7817157e-05 3.8599435e-05 0.00013636389 0.00014496602 5.7126095e-07 8.4310335e-07 3.992377e-05 3.0231071e-05
0.0 0.0 0.0003294134 0.00013849286 0.0003633006 0.00037778236 5.6043373e-05 3.298815e-05
1.4944156e-05 1.1660141e-05 3.8877183e-06 1.8200889e-06 9.5100644e-05 0.0001219136 0.00010022731 1.2697581e-05
1.7110596e-06 1.1946767e-06 8.364335e-08 8.486158e-08 8.004014e-07 9.1013175e-07 2.425259e-08 7.5669504e-08
4.2101422e-07 1.7413105e-07 9.961762e-06 1.9615998e-05 2.0892794e-06 3.1409206e-06 3.7025673e-06 2.037973e-06
0.0005773991 8.281709e-05 3.584566e-07 4.043038e-06 1.459821e-05 1.6065327e-05 2.9028892e-05 2.5694697e-05
3.0960007e-06 2.470249e-06 8.212845e-05 4.0519684e-05 2.4533565e-05 2.8632012e-06 0.00039970747 0.00035762208
0.006112706 0.0042127348 1.0863376e-05 9.814146e-06 3.1252227e-06 3.1311602e-06 9.975726e-06 1.38715495e-05
9.4497125e-08 1.3258905e-07 0.00013944988 0.00013233267 5.3266405e-05 6.153544e-05 0.00017608514 8.8884946e-05
0.0002509404 0.00017455762 3.550514e-06 4.5770375e-06 5.743544e-05 4.6405028e-05 0.0009317469 0.00043794955
4.522283e-05 6.637519e-05 0.00017811137 0.00021083327 1.4626206e-05 1.0361289e-05 5.6982935e-05 6.30457e-05
2.830148e-05 4.1653057e-05 6.619713e-05 6.552862e-05 0.00033935613 0.00049335655 1.0387648e-06 1.0740707e-06
3.0517887e-05 0.00010538764 0.0 0.0 0.00019263157 0.0001279912 0.0001733418 0.00047126733
3.3820877e-05 3.2544125e-05 3.6461633e-06 1.1322285e-05 4.0043014e-06 3.2634555e-06 0.0001034653 0.00011395847
6.990792e-05 5.4166747e-05 3.7652026e-07 7.620856e-08 2.1176972e-07 2.9271746e-07 1.4357737e-06 1.4235716e-06
4.8091664e-08 3.465114e-08 3.3084035e-07 8.449471e-07 8.587217e-06 1.6469729e-05 6.8968e-07 1.6648792e-06
1.7676928e-06 2.3302302e-06 0.000284299 0.0005297399 1.1242611e-05 2.6901305e-06 1.2868375e-05 2.5442e-05
9.595514e-05 9.009292e-05 2.7241922e-06 1.298883e-06 0.00027049382 0.00026148843 0.0001037931 4.2274125e-05
0.0004809959 0.00025236426 0.17965032 0.19509949 1.2376813e-05 1.6712187e-05 6.5261297e-06 4.1845683e-06
5.025956e-05 3.9748174e-05 2.222311e-07 1.10935e-06 0.0004768352 0.00033756878 0.0002180948 0.000201851
0.0019532104 0.0024633524 0.00094382546 0.0012413661 2.9554254e-05 3.0252253e-05 0.00033095645 0.00045141327
0.0019012332 0.002161838 0.000101111604 0.00016944073 0.000486131 0.00032898138 6.557375e-05 2.1449476e-05
0.0003871537 0.0003236452 0.00013315967 0.00019026264 0.00063852046 0.00055009127 0.003399418 0.0032192424
2.7655565e-06 5.057928e-06 0.00010002948 0.00013502568 0.0 0.0 0.0025987695 0.001238563
0.0029610945 0.0014966216 9.843829e-05 0.00014365383 5.0179865e-06 3.5370698e-07 1.983565e-07 1.838949e-06
0.00020823983 0.00052904553 0.0005972282 0.00072676764 3.2068879e-06 5.0027506e-07 4.1889245e-07 4.3240254e-07

exp_avg f4 [32]
00000000: 2d95 e438 5a78 2e3a ae4c 0b3a ed95 d1b9
00000010: d4d8 d839 5293 e039 2f6b bcba 5967 093a
00000020: 77ca 533a 0c2f 6539 d57e 043b 5c56 6139
00000030: f8fd 14ba b0fa fe39 001e 7937 d6d9 253a
00000040: 944b 9039 f4d7 a6b9 7d21 88ba 4ec8 ab3a
00000050: 4cf1 cdba 4a7f b9b8 046d 1339 02dc 44ba
00000060: d185 7d3a 1dce 143a 0007 443a 44cb 4139
00000070: b01c 2eb9 e0d6 80b9 08b0 7539 6992 57ba
0.00010899673 0.0006655507 0.00053138554 -0.0003997529 0.0004136028 0.00042834372 -0.0014375205 0.0005241535
0.0008079181 0.00021856668 0.00202172 0.00021489843 -0.0005683596 0.00048633432 1.48485415e-05 0.00063267106
0.0002752213 -0.00031822885 -0.0010385957 0.001310596 -0.0015712171 -8.845197e-05 0.00014059624 -0.00075095904
0.0009671124 0.0005676465 0.000747785 0.00018481637 -0.0001660462 -0.00024574157 0.00023430598 -0.0008223416
