cebra_models/reach1_4/01/A/cebra_trialID_model_1000_32_reach1_4_A.pt (torch, 206457 bytes, 31 tensors)

net.0.weight f4 [32, 12, 2]
0	0x3dc03233	0.09384575
1	0x3cd695f2	0.026194546
2	0x3d84a218	0.064762294
3	0x3e06659c	0.13124698
4	0xbe80b6ef	-0.25139567
5	0xbe91de5e	-0.28489965
6	0xbd9ef475	-0.0776147
7	0x3b82f900	0.0039969683
8	0xbcd0738e	-0.025445726
9	0xbb5d14bc	-0.0033734282
10	0x3b2175bd	0.0024636828
11	0xbd6fa762	-0.058509238
12	0xbc9109e1	-0.017704906
13	0x3e2dda7b	0.16977875
14	0x3db1d496	0.08683126
15	0x3bb90bce	0.005647159
16	0xbc8699bf	-0.016430734
17	0x3e599e5f	0.2125182
18	0x3e34b4ad	0.17647047
19	0x3e298908	0.1655618
20	0xbc73624e	-0.014854981
21	0x3e1459ab	0.1448733
22	0xbd8db1d8	-0.06918687
23	0x3d17c2f9	0.037051175
24	0xbd698277	-0.057009187
25	0x3dcee773	0.10102739
26	0x3e1c12ef	0.15241598
27	0x3c2a8580	0.010407805
28	0xbe5d33f1	-0.21601845
29	0xbdbbf4f2	-0.09177579
30	0x3cf57bd9	0.029966282
31	0xbd7b9d26	-0.061429165
32	0x3c1897a9	0.009313502
33	0x3cbc6267	0.02299614
34	0x3e18c2cf	0.14918064
35	0xbd59da96	-0.053186975
36	0xbe36b056	-0.17840704
37	0x3d3d150a	0.046162643
38	0xbd283d98	-0.041074365
39	0xbe64383b	-0.22287075
40	0x3e2f1e0c	0.17101306
41	0xbe278fef	-0.163635
42	0x3cc221d8	0.023697779
43	0xbd6fd8ff	-0.058556553
44	0x3e3d5be1	0.1849208
45	0x3e3ae9ab	0.182532
46	0xbe2e1ded	-0.17003603
47	0x3d5d5409	0.05403522
48	0x3dfae80b	0.1225129
49	0xbca3e754	-0.020007767
50	0x3b218aa8	0.0024649296
51	0x3ded16ac	0.1157659
52	0xbe4bdf88	-0.19909489
53	0xbc5b6a45	-0.013392036
54	0xbe0d6a23	-0.13810019
55	0xbdf990f9	-0.121858545
56	0xbd5060d6	-0.0508736
57	0xbd7f5255	-0.062334377
58	0xbd59f5bd	-0.05321287
59	0xbd9b9f66	-0.07598762
60	0xbde69dd7	-0.11260574
61	0xbe1c601f	-0.15271042
62	0xbe0fbb5f	-0.1403632
63	0xbe9c9c9b	-0.3058823
64	0x3e61d37b	0.2205333
65	0xbd52278a	-0.05130724
66	0xbe718744	-0.23586756
67	0xbe0319fd	-0.12802882
68	0xbc52846d	-0.012848956
69	0xbdc16c31	-0.09444464
70	0x3d2660d5	0.04061969
71	0x3e1dfa09	0.15427412
72	0x3d0d2708	0.03446105
73	0x3e3cf689	0.1845342
74	0xbde00722	-0.109388605
75	0x3dd66b64	0.10469702
76	0xbe8471d6	-0.258681
77	0x3cfde68c	0.030993722
78	0x3df10baa	0.11769803
79	0x3bfb5bb9	0.0076708463
80	0x3cc08467	0.023500634
81	0xbda90726	-0.082533166
82	0x3d7ea71f	0.062171098
83	0xbdeb9021	-0.115021
84	0x3d55671e	0.052100293
85	0xbdeb4190	-0.114871144
86	0xbd9404b1	-0.07227457
87	0x3e39be53	0.18139009
88	0x3dc01838	0.09379619
89	0x3db1db98	0.08684462
90	0xbd6503c7	-0.055911805
91	0xbe6b45f5	-0.22975905
92	0x3d668d55	0.05628713
93	0x3bc8ebcb	0.0061316243
94	0x3dcbf232	0.099583045
95	0x3e5c6c70	0.2152574
96	0xbe644e2e	-0.22295448
97	0x3bc660fa	0.006054041
98	0xbd6465fa	-0.055761315
99	0xbd75338d	-0.059863616
100	0xbd17d122	-0.03706468
101	0x3d2ea88e	0.042641215
102	0x3e1c89c2	0.15286925
103	0x3e28c4e5	0.1648136
104	0x3e2c6633	0.16835861
105	0x3e257feb	0.16162078
106	0xbd1dd935	-0.038537223
107	0xbdd8944d	-0.10575161
108	0x3e195487	0.14973651
109	0xbd817415	-0.06320969
110	0x3e4361b4	0.1908024
111	0x3d0cc905	0.034371395
112	0x3d8faec1	0.070157535
113	0x3dd57c6b	0.104241215
114	0xbd836b8c	-0.06416997
115	0xbdd928d8	-0.106034935
116	0x3a433395	0.0007446346
117	0xbb077656	-0.00206699
118	0x3e4e4b05	0.20145805
119	0x3e8f1c5a	0.27951318
120	0xbe558f8a	-0.20855537
121	0xbe14725a	-0.14496747
122	0x3cd6a061	0.026199521
123	0x3d23a4c5	0.03995206
124	0x3db2a041	0.08721972
125	0xbe10da55	-0.14145787
126	0x3e1ea7fd	0.1549377
127	0x3e67cf19	0.22637595
128	0x3ca17794	0.01971034
129	0xba5b1bb7	-0.0008358317
130	0x3e8c6b97	0.27425835
131	0xbe20b403	-0.15693669
132	0x3d22fcf7	0.039792027
133	0xbd0408a1	-0.03223479
134	0x3e08bffb	0.13354485
135	0x3e173391	0.14765765
136	0xbd58f00e	-0.05296331
137	0xbd2461da	-0.04013238
138	0x3cc40759	0.023929285
139	0x3d658070	0.05603069
140	0xbd5e7af5	-0.05431648
141	0x3da06af8	0.07832903
142	0x3d3d9586	0.046285175
143	0x3df64852	0.12025513
144	0xbe006356	-0.12537894
145	0xbe201cc6	-0.15635976
146	0x3dc9d8e9	0.098558255
147	0x3ddb0a07	0.10695272
148	0x3e55a78b	0.20864694
149	0xbcf2888f	-0.029606132
150	0x3dbdac05	0.09261326
151	0x3daa549e	0.08316921
152	0x3df8f781	0.121565826
153	0xbdd39cb5	-0.10332624
154	0x3e20fb37	0.15720831
155	0x3e557bce	0.20848009
156	0x3da2981c	0.07939169
157	0xbe0beefc	-0.13665384
158	0xbb997838	-0.0046835206
159	0x3df6c28c	0.120488256
160	0x3e491a0e	0.19638845
161	0x3e0c57b2	0.13705328
162	0x3de856fc	0.11344716
163	0xbe37f293	-0.17963628
164	0xbe5ffe7b	-0.2187442
165	0xbd8cb381	-0.06870175
166	0xbe27cda5	-0.16387041
167	0xbcb2c5fc	-0.021822922
168	0xbd43aa46	-0.047769807
169	0xbcee8490	-0.029115945
170	0xbca7151e	-0.020395812
171	0x3c2b8964	0.010469768
172	0xbe829e75	-0.25511518
173	0x3e47efa4	0.1952501
174	0x3d958410	0.073005795
175	0x3b7164a4	0.0036833668
176	0xbc9042f8	-0.017610058
177	0xbd25f940	-0.040520906
178	0xbe06e366	-0.13172683
179	0xbc9563bd	-0.018236035
180	0x3e26897b	0.16263382
181	0xbddb3d8f	-0.10705101
182	0xbe37ffb5	-0.17968638
183	0xbc5203e4	-0.01281831
184	0x3e3d2ddb	0.18474524
185	0xbdf10516	-0.11768548
186	0x3cad0cd1	0.021124275
187	0x3db1b2cd	0.08676682
188	0xbe072ed5	-0.13201459
189	0x3c8676cf	0.016414074
190	0xbdaff383	-0.08591368
191	0xbe1d22f0	-0.15345359
192	0xbd963a53	-0.07335343
193	0xbdeed424	-0.11661556
194	0xbdfe39a5	-0.124133386
195	0x3d60751f	0.054799195
196	0x3e59e297	0.21277843
197	0xbe4b377f	-0.19845389
198	0xbe0aed53	-0.13567095
199	0xbe3cb05f	-0.18426655
200	0x3dd5c0ce	0.10437165
201	0xbdbab830	-0.09117162
202	0x3e1b4e6a	0.15166631
203	0xbdc24da2	-0.094874635
204	0x3df682ee	0.120366916
205	0xbda688d8	-0.081315696
206	0x3e518d93	0.20464163
207	0xbca5539d	-0.020181471
208	0xbd5bcd87	-0.053662803
209	0xbda3b8cb	-0.07994231
210	0x3da41de8	0.08013517
211	0x3d1b8fc0	0.037978888
212	0x3d81c5b5	0.06336538
213	0x3e0741c9	0.13208689
214	0xbe378cf9	-0.1792487
215	0xbe4f89b4	-0.20267373
216	0x3e699301	0.22809984
217	0xbdfe45c0	-0.124156475
218	0xbc92247d	-0.017839665
219	0xbe71ff1c	-0.23632473
220	0xbd2e0ca7	-0.042492535
221	0x3b81e3c2	0.0039639184
222	0x3d5b9874	0.053612188
223	0xbc043319	-0.008068823
224	0xba736927	-0.0009285383
225	0x3d629461	0.055317286
226	0x3cabbce3	0.020964092
227	0x3d6ff0aa	0.058579125
228	0xbcc01f83	-0.023452526
229	0x3d4f06d9	0.05054364
230	0x3e3b547c	0.18293947
231	0x3dde2a9a	0.10847969
232	0xbe672c8c	-0.22575587
233	0xbe91278b	-0.2835048
234	0x3c9be8fc	0.019031994
235	0xbe487fb1	-0.1957996
236	0xbd9d0be4	-0.076682836
237	0xbd265f10	-0.040618002
238	0xbda69b7e	-0.081351265
239	0xbe468b47	-0.19389068
240	0xbc2d44b3	-0.010575461
241	0xbd626f1c	-0.055281743
242	0xbe2e2d91	-0.1700957
243	0xbd8d433b	-0.06897589
244	0xbe5086ff	-0.20363997
245	0xbe59ef1c	-0.21282619
246	0x3dc5ac7f	0.09652042
247	0x3dd1f55f	0.10251879
248	0x3dd6e437	0.10492747
249	0x3e1f1aa2	0.15537503
250	0xbdd4e8aa	-0.1039594
251	0x3d913eab	0.07092031
252	0x3b318b6f	0.0027091166
253	0x3cbd55a8	0.023112133
254	0xbe2fbaf0	-0.17161155
255	0x3cf7514a	0.030190129

net.0.bias f4 [32]
0	0x3d27b27f	0.04094171
1	0xbd23050a	-0.039799727
2	0x3d9a040b	0.075203024
3	0xbd2741df	-0.040834304
4	0x3dbfa5b8	0.0935778
5	0xbe030f45	-0.12798794
6	0xbc401b3a	-0.011725241
7	0x3da4193c	0.080126256
8	0x3db74791	0.08949197
9	0x3e595610	0.21224236
10	0xbb9183a3	-0.004440741
11	0xbdd09f9d	-0.10186694
12	0xbe33503e	-0.17511079
13	0xbc008004	-0.007843021
14	0x3d26e45b	0.04074512
15	0xbe05ea16	-0.13077578
16	0x3ca938a8	0.020656899
17	0x3e293cba	0.16527072
18	0x3e0e32f1	0.1388662
19	0x3b753c4d	0.0037419975
20	0xbe031e23	-0.12804465
21	0xbe17485f	-0.14773701
22	0x3d144f5f	0.036208507
23	0x3e4b404a	0.19848743
24	0x3dc4491e	0.095842585
25	0xbdee49ca	-0.11635168
26	0xbdc36c68	-0.09542161
27	0xbe0442b7	-0.12916075
28	0xbe24e87e	-0.16104314
29	0xbe19f5ae	-0.15035126
30	0x3d259d25	0.040433068
31	0xbe2e57f9	-0.17025746

net.2.module.0.weight f4 [32, 32, 3]
0	0x3d576240	0.052583933
1	0x3d87aee0	0.06625152
2	0x3d9243de	0.07141851
3	0xbcd45efc	-0.025924198
4	0x3d88d0eb	0.06680473
5	0xbdad986f	-0.0847634
6	0x3b7dccec	0.003872688
7	0xbc7c1fe6	-0.015388465
8	0xbdb79a1d	-0.08964942
9	0xbdd6ddbe	-0.10491513
10	0xbd44cfef	-0.048049863
11	0x3db4285b	0.0879676
12	0x3d31aad6	0.043375812
13	0xbdf691db	-0.120395385
14	0xbdf85cb6	-0.12127058
15	0xbd95a8d7	-0.07307594
16	0x3d73632d	0.059420753
17	0xbc15e7e3	-0.009149524
18	0xbd1168fb	-0.035500508
19	0x3dcdfe2b	0.10058244
20	0x3d3e5b5b	0.046473842
21	0xbdb90d31	-0.09035719
22	0x3c0a00ed	0.008423072
23	0x3d9e492d	0.07728801
24	0xbc86035a	-0.01635902
25	0xbd79e807	-0.061012294
26	0xbd049414	-0.03236778
27	0xbdbf2f1c	-0.09335157
28	0x3c3eb3c3	0.011639538
29	0xbd695015	-0.056961138
30	0x3d76a357	0.060214367
31	0xbdb6f5ea	-0.08933623
32	0xbdb7fcaf	-0.089837424
33	0x3cc373ee	0.02385899
34	0xbdd525f4	-0.104076296
35	0xbdc5164f	-0.09623396
36	0xbc0e6d34	-0.008693028
37	0x3d2ccf56	0.04218992
38	0x3dbaeac1	0.09126807
39	0x3ce4115d	0.02784031
40	0xbd87cac2	-0.0663047
41	0x3d0db61d	0.034597505
42	0xbd7bbb0c	-0.06145768
43	0xbc742c59	-0.014903151
44	0x3d0d377e	0.03447675
45	0x3d8ecefb	0.06973072
46	0xbe002711	-0.12514903
47	0x3d6fa0b6	0.058502875
48	0x3d868fc5	0.065703906
49	0xbdda27e8	-0.10652143
50	0x3d875e27	0.06609755
51	0xbd68f148	-0.05687073
52	0xbc251955	-0.01007684
53	0x3d2f9937	0.042870726
54	0x3c747e0c	0.01492263
55	0x3bb53cd8	0.005530935
56	0xb8b0e719	-8.435379e-05
57	0xbd65ee91	-0.056135718
58	0xbdedefc9	-0.11618001
59	0x3b84aba1	0.00404878
60	0x3dd48303	0.10376551
61	0x3d06c591	0.032903258
62	0xbb26fdbb	-0.0025480825
63	0x3ddfae94	0.1092197
64	0xbd398524	-0.04529299
65	0xbc2b6cef	-0.0104629835
66	0xbdd6707f	-0.10470676
67	0xbc8db831	-0.017299743
68	0x3db2b06d	0.08725057
69	0x3d740814	0.059578016
70	0xbd1b18f0	-0.03786558
71	0xbdaa0e11	-0.08303464
72	0xbd3c82f5	-0.046023328
73	0xbcc0b226	-0.023522448
74	0xbc3d4158	-0.011551224
75	0xbd664bac	-0.05622451
76	0x3db54546	0.088511035
77	0x3da5fc39	0.08104748
78	0xbbf876ff	-0.007582545
79	0xbcd9d11d	-0.02658897
80	0xbd65e417	-0.056125727
81	0xbd151f36	-0.03640672
82	0x3d15598f	0.036462363
83	0xbcefbb2a	-0.029264051
84	0xbc074d49	-0.008258172
85	0xbb426fa2	-0.002966859
86	0x3d61398e	0.05498653
87	0xbc983c97	-0.018583579
88	0x3ce7c19e	0.028290566
89	0x3cff7110	0.031181842
90	0xbe0b5bc8	-0.1360923
91	0x3c9e4df8	0.019324288
92	0x3cc385bf	0.023867486
93	0xbd8f8324	-0.07007435
94	0xbcf25231	-0.029580208
95	0xbd7603ba	-0.060062148
96	0xbaea8091	-0.0017891099
97	0x3bbb68c6	0.005719277
98	0xbd301290	-0.042986453
99	0xbe003607	-0.1252061
100	0xbd15a739	-0.03653643
101	0x3db846f8	0.08997911
102	0xbd249884	-0.040184513
103	0xbd8af93e	-0.067858204
104	0xbde1ebbe	-0.110312924
105	0x3d524716	0.051337324
106	0xbd80c433	-0.06287422
107	0x3cf94d45	0.030432353
108	0x3d14bfbd	0.03631567
109	0x3c6e6ad0	0.014551833
110	0x3c8ace2e	0.016944017
111	0xbd86b23c	-0.06576964
112	0x3d517832	0.051140018
113	0x3dae5c6d	0.085137226
114	0x3cc7312f	0.024315445
115	0xbd84ed1b	-0.06490537
116	0xbd8343e8	-0.064094365
117	0x3d686c1b	0.056743722
118	0xbd0bf03f	-0.034164663
119	0xbd024c7e	-0.03181123
120	0xbd1a7d75	-0.0377173
121	0x3dc8a983	0.09797957
122	0xbd34115a	-0.04396186
123	0xbddb9b57	-0.10722988
124	0xbdc06433	-0.093941115
125	0xbd70a181	-0.058747772
126	0xbc40638e	-0.011742486
127	0xbd448010	-0.047973692
128	0x3dd1dedd	0.10247586
129	0xbc8dd259	-0.017312216
130	0xbd3f4daa	-0.046704926
131	0xbdabd5f5	-0.083904184
132	0xbc43d09d	-0.011951593
133	0x3cb7e56e	0.022448268
134	0x3d04eccf	0.0324524
135	0x3d24d88f	0.04024559
136	0xbd220518	-0.03955564
137	0x3ccdc678	0.025119051
138	0x3d0f801d	0.035034288
139	0x3bac4206	0.005256894
140	0xbdcf052e	-0.1010841
141	0x3bdd6b0e	0.0067571467
142	0xbcbaaa45	-0.022786269
143	0x3de01887	0.10942178
144	0xbe06f669	-0.13179936
145	0xbd71b655	-0.059011776
146	0x3d88e083	0.06683447
147	0xbbe7b124	-0.0070706774
148	0x3d9c11ef	0.07620608
149	0x3c1bb845	0.0095043825
150	0x3d4a504d	0.049392987
151	0xbbdf28be	-0.006810277
152	0xbd4a028c	-0.049318835
153	0xbbf179f2	-0.0073692733
154	0xbd682d62	-0.056683905
155	0x3e107c1d	0.14109845
156	0xbd2d89c8	-0.042367727
157	0x3d876ed9	0.066129394
158	0xbdddea7f	-0.10835742
159	0x3c98cc65	0.01865215
160	0xbdd1e1c0	-0.102481365
161	0xbda539fb	-0.080676995
162	0xbd08e346	-0.03341987
163	0x3d31b590	0.043386042
164	0xbce5c7ff	-0.028049467
165	0x3cb100ac	0.021606766
166	0x3d99534f	0.07486593
167	0x3d6cd033	0.05781574
168	0x3cf7cbcb	0.030248543
169	0x3d2b8c82	0.041882046
170	0xbda3fc07	-0.08007055
171	0xbdb4c97c	-0.088274926
172	0xbd195740	-0.037436724
173	0xbce4e08e	-0.027939107
174	0x3d81ddce	0.06341134
175	0xbdb62039	-0.08892865
176	0x3da26739	0.079298444
177	0xbd02f680	-0.031973362
178	0xbcfbb9f0	-0.03072831
179	0x3cd9a2de	0.026566919
180	0xbd470630	-0.048589885
181	0xbd4611dc	-0.048356876
182	0x3d68d747	0.05684593
183	0xbcb6c9c7	-0.022313012
184	0xbd14c803	-0.03632356
185	0xbdc2c274	-0.09509745
186	0xbdb94b94	-0.090476185
187	0x3c9f64a4	0.019457169
188	0x3d537f38	0.051634997
189	0x3d880f1f	0.06643509
190	0x3cdf7b4a	0.027280468
191	0x3daaebbf	0.08345746
192	0x3b590fba	0.0033120946
193	0x3d4349f0	0.047677934
194	0x3d41ccf8	0.047314614
195	0xbda692a5	-0.08133439
196	0xbd01e00b	-0.031707805
197	0x3d3d5a32	0.046228595
198	0x3b571da8	0.0032824073
199	0xbdb817ba	-0.089889005
200	0x3c88b1eb	0.0166864
201	0xbc44eca7	-0.012019313
202	0x3ca7e789	0.020496147
203	0x3df18f5a	0.1179492
204	0xbc770666	-0.015077209
205	0x3d8336ce	0.064069375
206	0x3b2aadd9	0.0026043563
207	0x3da6a6f4	0.081373125
208	0x3dec690b	0.11543473
209	0xbca2e4cc	-0.01988449
210	0xbd89f0b2	-0.06735362
211	0x3de7a478	0.11310667
212	0xbd8c8425	-0.06861142
213	0xbb8f9c13	-0.004382619
214	0x3d81bd6b	0.06334957
215	0x3d979700	0.07401848
216	0x3dde6230	0.108585715
217	0xbbce3176	-0.0062925173
218	0xbd352681	-0.044226173
219	0x3ba78b38	0.0051130317
220	0x3dbfb7c2	0.09361221
221	0x3d9ec942	0.07753231
222	0xbd9316b9	-0.071820684
223	0x3d7b83a7	0.06140485
224	0xbdce9769	-0.10087473
225	0xbdbc1aa9	-0.091847725
226	0xbcef5026	-0.029213022
227	0xbcfa95cd	-0.030589009
228	0x3d693977	0.05693957
229	0x3cb4c65d	0.022067243
230	0x3e1b2303	0.15150075
231	0x3cef7551	0.029230746
232	0x3ccb056d	0.02478286
233	0x3deacaec	0.114644855
234	0xbb9d3f90	-0.004798837
235	0x3adf25ff	0.0017024874
236	0xbdc9aec4	-0.09847787
237	0x3def2a47	0.11677986
238	0x3dd4e16a	0.10394557
239	0x3b80e01a	0.003932965
240	0x3d66871d	0.056281198
241	0xbcfdcc11	-0.030981096
242	0x3cd6692f	0.026173202
243	0x3dda8308	0.106695235
244	0xbd42a963	-0.04752482
245	0x3d901897	0.0703594
246	0xbdf2ade1	-0.11849571
247	0x3d46b8df	0.04851615
248	0x3db75f62	0.0895374
249	0xb9ace6ad	-0.00032978263
250	0xbdbdc460	-0.09265971
251	0x3ca37942	0.019955281
252	0x3d2bb0ce	0.04191666
253	0xbd97757f	-0.073954575
254	0xbde30774	-0.11085406
255	0xbc29f426	-0.010373151

net.2.module.0.bias f4 [32]
0	0xbdb93104	-0.09042552
1	0xbd82ffeb	-0.06396469
2	0x3dd29977	0.10283177
3	0x3dd7aaad	0.10530601
4	0xbdab115f	-0.08352923
5	0x3d71ded2	0.05905039
6	0xbd69473a	-0.056952693
7	0x3dab84de	0.08374952
8	0x3d7530a7	0.05986085
9	0x3d96f83d	0.073715664
10	0xbc115974	-0.008871425
11	0x3dcf2b1f	0.101156466
12	0xbda1bbd3	-0.07897153
13	0x3d7a2854	0.061073616
14	0xbdad6eb5	-0.08468381
15	0xbd8866cc	-0.06660232
16	0xbdba78c1	-0.09105063
17	0xbd0117a6	-0.031516694
18	0xbd53755d	-0.0516256
19	0xbd88e785	-0.06684784
20	0x3c4d008c	0.012512337
21	0xbda6aea4	-0.08138779
22	0xbda24f1b	-0.079252444
23	0x3d752d6c	0.05985777
24	0x3d3dc423	0.04632963
25	0xbdcb05bb	-0.099132024
26	0x3ce2b5af	0.027674524
27	0xbcafaa47	-0.0214435
28	0xbc86fb29	-0.016477184
29	0xbc9ae998	-0.018910214
30	0xbd9d6208	-0.076847136
31	0xbd984b80	-0.074362755

net.3.module.0.weight f4 [32, 32, 3]
0	0x3d6dffad	0.05810516
1	0x3d7a7d1c	0.06115447
2	0xbd221269	-0.03956834
3	0x3c8a71c1	0.016899945
4	0xbd77de78	-0.060514897
5	0xbd559b4e	-0.052150063
6	0x3dad35d2	0.08457531
7	0xbc9422e6	-0.018083047
8	0x3bef2f7f	0.007299363
9	0xba67db48	-0.0008844626
10	0x3d9aaebd	0.0755286
11	0xbcc28533	-0.023745155
12	0xbd73ed0e	-0.059552245
13	0xbdc25439	-0.094887204
14	0xbd2b012b	-0.04174916
15	0x3c8b1901	0.016979696
16	0x3c76d208	0.015064724
17	0x3d2bfa61	0.041986827
18	0x3da6d416	0.08145921
19	0xbdafef5e	-0.085905775
20	0xbd9924d2	-0.07477726
21	0xbb9e7338	-0.0048355125
22	0xbd228342	-0.03967596
23	0xbcf08db0	-0.029364437
24	0xbabe676c	-0.0014526672
25	0x3d50efcf	0.05100995
26	0x3d9beebb	0.076138936
27	0x3d8bb0d3	0.06820836
28	0xbd9bf76b	-0.076155506
29	0x3da37835	0.07981912
30	0x3d2987b9	0.0413892
31	0xbdafec1f	-0.085899584
32	0xbd35201a	-0.044220068
33	0xbd8a181c	-0.0674288
34	0xbc93627a	-0.017991293
35	0x3d064ab1	0.032786075
36	0x3dcacff0	0.09902942
37	0x3d51eedb	0.05125318
38	0xbd512567	-0.05106106
39	0xbc9d635c	-0.019212417
40	0x3a77ea50	0.00094572175
41	0xbdd55fee	-0.10418688
42	0x3db29ac9	0.08720929
43	0xbd834d69	-0.06411249
44	0x3d931af1	0.07182873
45	0x3d8c3f98	0.06848067
46	0xbdb348ba	-0.08754106
47	0x3d0e0730	0.034674823
48	0x3da4df20	0.0805037
49	0x3d9446d9	0.072400756
50	0x3d645587	0.055745628
51	0x3dbdae7e	0.09261797
52	0xbc2f2b11	-0.01069142
53	0x3d9f0bb5	0.07765905
54	0xbd5c11be	-0.053727858
55	0x3e025423	0.12727408
56	0x3d6a33eb	0.05717842
57	0x3defd316	0.11710183
58	0x3d6f81de	0.05847346
59	0xbd2c3014	-0.04203804
60	0xbd94ec6d	-0.07271657
61	0xbca88d03	-0.020575052
62	0xbc9145c3	-0.01773346
63	0x3d6a4656	0.057195984
64	0x3d27dcb5	0.040981967
65	0xbcda83f3	-0.026674246
66	0x3d334de1	0.043775443
67	0x3cbd5ef9	0.023116576
68	0x3d7a11c9	0.061052117
69	0x3d3950db	0.045243125
70	0xbd7588f2	-0.059945054
71	0xbdde51b3	-0.10855427
72	0x3d4f6f03	0.05064298
73	0xbdc86d80	-0.097865105
74	0x3c3c82e2	0.011505814
75	0xbd5cc32a	-0.05389706
76	0x3c7c1ce1	0.015387745
77	0x3d81d947	0.063402705
78	0xbb6950cc	-0.0035601137
79	0xbdf85023	-0.1212466
80	0xbda77a7e	-0.081776604
81	0xbbd7aa57	-0.0065815854
82	0xbd106639	-0.035253737
83	0xbde62b8f	-0.11238777
84	0xbc0aceec	-0.008472186
85	0xbd479a00	-0.04873085
86	0x3d70aab4	0.058756545
87	0xbdcccea2	-0.100003496
88	0xbdb2e47d	-0.08734987
89	0xbc381456	-0.011235317
90	0xbdba27cf	-0.09089624
91	0x3c341469	0.010991194
92	0xbd89f5a3	-0.067363046
93	0x3df9ef24	0.122038156
94	0x3d9fb17f	0.077975266
95	0xbd10ba50	-0.03533393
96	0x3c925f8b	0.017867824
97	0x3d24b781	0.040214065
98	0xbc71c87d	-0.014757273
99	0x3c64bda3	0.013961229
100	0xbdc59d84	-0.09649184
101	0xbda54661	-0.08070064
102	0x3da70f25	0.081571855
103	0x3d1e3875	0.03862806
104	0x3dadef53	0.08492913
105	0xbd5574e5	-0.052113432
106	0xbde44e7c	-0.11147782
107	0x3c92ebb4	0.017934658
108	0xbd50da27	-0.050989296
109	0xbda573f5	-0.08078758
110	0xbdc11da4	-0.094294816
111	0xbd243de9	-0.040098105
112	0xbcdfc44b	-0.02731528
113	0xbd7164bc	-0.05893396
114	0xbd1fb81e	-0.038993947
115	0x3c8514d1	0.016245278
116	0x3d29aa9b	0.041422468
117	0xbc74d28c	-0.014942776
118	0x3db63775	0.08897296
119	0xbd9847f0	-0.07435596
120	0xbc34006a	-0.010986427
121	0x3da89a3d	0.082325436
122	0xba8d10b2	-0.0010762422
123	0xbdacc68f	-0.084363095
124	0x3d88817a	0.06665321
125	0xbd92e465	-0.07172469
126	0x3d9e5e1a	0.07732792
127	0xbd6be11a	-0.05758772
128	0xbda08a67	-0.07838898
129	0x3b1c20b8	0.0023823213
130	0xbc08ae85	-0.00834239
131	0x3da108b7	0.0786299
132	0x3d7c4a15	0.061594088
133	0xbdc41e06	-0.09576039
134	0x3c21f60f	0.009885325
135	0x3ca45bcb	0.020063302
136	0xbcfc3f95	-0.030792037
137	0xbd5a715b	-0.05333076
138	0x3b8d5aa5	0.004313784
139	0xbc689848	-0.014196463
140	0xbcb7b3c7	-0.022424592
141	0x3da95563	0.08268239
142	0xbd01406f	-0.03155559
143	0x3d54dd0c	0.05196862
144	0x3cabf8af	0.020992605
145	0x3c9fe23d	0.019517059
146	0xbdb8bf25	-0.09020833
147	0x3cf008b8	0.029301032
148	0x3ca2d45b	0.01987665
149	0xbd8d628e	-0.069035634
150	0x3d7fea47	0.062479284
151	0x3d0ff97f	0.035150047
152	0x3d83c0bb	0.06433245
153	0xbca65429	-0.020303803
154	0x3d83ce6c	0.06435856
155	0x3dd3a16f	0.103335254
156	0x3cd70e90	0.026252061
157	0x3d463852	0.048393555
158	0xbdf9ce1c	-0.12197515
159	0x3db280d5	0.08715979
160	0xbbf88b43	-0.0075849607
161	0x3d13cfed	0.036086965
162	0x3dbb9c08	0.0916062
163	0x3d55a875	0.052162606
164	0xbcdc6bd7	-0.02690689
165	0x3d99bd1a	0.075067714
166	0x3c985cf3	0.01859901
167	0x3b8acb0b	0.0042356304
168	0xbc8932a8	-0.016747788
169	0xbbee4407	-0.007271293
170	0x3d96d704	0.0736523
171	0x3d39f619	0.045400713
172	0xbd853d32	-0.06505813
173	0xbdbde889	-0.09272868
174	0xbdceb8c0	-0.10093832
175	0xbd9adc4b	-0.07561549
176	0xbd1ca28a	-0.038240947
177	0x3c1db789	0.009626278
178	0xbbbb7b38	-0.005721476
179	0x3d954dd2	0.07290234
180	0xbd76a602	-0.06021691
181	0xbde0efbe	-0.10983227
182	0xbd257bfb	-0.04040144
183	0xbd4a8710	-0.049445212
184	0x3cef83e8	0.029237702
185	0x3d165cd3	0.036709618
186	0xbc20892d	-0.00979833
187	0x3b01877d	0.0019764595
188	0x3bd6a2f4	0.0065501872
189	0x3d88b721	0.06675554
190	0x3d2052c8	0.039141446
191	0xbc1e05d5	-0.009644945
192	0xbcaf2d44	-0.021383889
193	0x3da23004	0.079193145
194	0x3c31f1aa	0.01086084
195	0xbd1d5875	-0.038414437
196	0x3d8eaf38	0.06967014
197	0x3d2b5d31	0.04183692
198	0x3d180fde	0.037124507
199	0x3d9d5d4f	0.07683813
200	0x3d1f85aa	0.03894583
201	0x3a1d0f26	0.0005991332
202	0xbca9509e	-0.020668324
203	0x3db137b5	0.086532034
204	0xbd1ee59e	-0.0387932
205	0x3c0e3584	0.008679751
206	0xbe24e783	-0.1610394
207	0x3da82ed7	0.08212059
208	0xbd99a352	-0.07501854
209	0xbc758cd7	-0.014987192
210	0x3d0e95a2	0.03481067
211	0xbc0e6586	-0.008691197
212	0xbd0f03fb	-0.034915905
213	0xbdcb1181	-0.09915448
214	0x3da4a8da	0.080400184
215	0xbe0a74ca	-0.13521114
216	0xbdb47e1c	-0.08813116
217	0x3dc200e8	0.09472829
218	0xbdfc51ba	-0.123202756
219	0xbde47156	-0.111544296
220	0x3d7bf8dc	0.061516628
221	0x3d972287	0.073796324
222	0xbdc061e9	-0.09393675
223	0xbd494c58	-0.049145073
224	0xbc683c31	-0.014174507
225	0xbc26cd39	-0.010180765
226	0xbd8574b5	-0.06516401
227	0xbd2debbc	-0.042461142
228	0xbdf4a198	-0.11944884
229	0x3cf7059b	0.03015404
230	0x3dfc79f4	0.12327948
231	0xbdfdeb78	-0.12398428
232	0xbd64c03d	-0.055847395
233	0xbbe35a09	-0.0069382233
234	0x3dc223b1	0.09479464
235	0xbd9f91b6	-0.07791464
236	0x3dc866a9	0.09785206
237	0x3d0de9cf	0.034646805
238	0xbdd772a2	-0.10519911
239	0xbd160b9e	-0.036632173
240	0xbda2e399	-0.07953567
241	0x3dc79e39	0.097469755
242	0xbdfd1e10	-0.123592496
243	0xbd978a75	-0.073994555
244	0xbd8ce7c8	-0.06880146
245	0x3e12d0a4	0.14337403
246	0xbd1cac04	-0.038249984
247	0x3daafcc0	0.083489895
248	0xbd171a0f	-0.036890086
249	0x3dfa2a5c	0.12215111
250	0x3dbd2f23	0.09237506
251	0xbb96db04	-0.0046037454
252	0x3df09856	0.11747806
253	0x3db76a99	0.08955879
254	0x3ab7bc13	0.0014017842
255	0x3cd0e72b	0.025500854

net.3.module.0.bias f4 [32]
0	0xbd1c06f2	-0.03809256
1	0x3d827729	0.06370384
2	0x3d481cbe	0.048855536
3	0x3cd79299	0.02631502
4	0xbbb1258a	-0.0054060863
5	0xbd1d5af5	-0.03841682
6	0x3d8320d5	0.064027466
7	0xbcd2f421	-0.025751175
8	0xbd63c1bc	-0.05560468
9	0x3d48b365	0.04899921
10	0xbd8c3c9e	-0.06847499
11	0x3d06047f	0.03271913
12	0x3c066b3c	0.008204278
13	0xbd95e823	-0.07319667
14	0x3ce17cc3	0.027525311
15	0x3d87b0a4	0.066254884
16	0x3cad9638	0.021189794
17	0xbd8e19cb	-0.06938513
18	0x3d5e4ede	0.054274432
19	0xbb5e21a7	-0.003389457
20	0x3ce36795	0.027759353
21	0x3da26c14	0.079307705
22	0x3c1c880d	0.009553921
23	0xbca0d0b2	-0.019630764
24	0x3d4229c9	0.04740313
25	0x3d0886e0	0.03333175
26	0x3ce06f4f	0.027396826
27	0x3d65f375	0.05614038
28	0xbc947db9	-0.018126355
29	0x3d48f355	0.049060185
30	0x3d9889bc	0.07448146
31	0x3c41f2e6	0.011837697

net.4.module.0.weight f4 [32, 32, 3]
0	0x3d88ffcc	0.066894144
1	0xbd830def	-0.06399142
2	0xbda67e0e	-0.08129512
3	0x3d9fe3bb	0.07807108
4	0xbda7e413	-0.081977986
5	0x3d3677b1	0.04454774
6	0xbc8e62dd	-0.017381126
7	0x3d9e1291	0.07718385
8	0x3dc10686	0.09425072
9	0x3d57da11	0.0526982
10	0x3c151611	0.009099499
11	0xbd8f9fd2	-0.07012905
12	0xbe1304ff	-0.14357375
13	0x3c51c1d0	0.012802556
14	0x3d4e7afb	0.050410252
15	0x3ca74b99	0.02042179
16	0x3c351311	0.011051909
17	0x3cffa3c4	0.03120602
18	0xbc9113ef	-0.0177097
19	0xbd8f59aa	-0.06999524
20	0xbcdaeb89	-0.02672364
21	0x3d1015da	0.03517709
22	0xbdeac21a	-0.11462803
23	0x3d355674	0.0442719
24	0x3d7f591c	0.06234084
25	0x3dec7cb3	0.11547222
26	0x3d888492	0.06665911
27	0x3adb52cd	0.001673305
28	0x3d122317	0.035677996
29	0x3da4b6c9	0.08042676
30	0x3d4c681f	0.049903985
31	0x3d8614d2	0.0654694
32	0xbcc9c323	-0.024629181
33	0xbcc1c75c	-0.023654632
34	0x3cc3a06a	0.023880202
35	0xbde2026b	-0.110356174
36	0x3d027ace	0.031855397
37	0xbd532cb3	-0.0515563
38	0x3d465e97	0.04843005
39	0x3d93c99c	0.07216188
40	0x3d28af3a	0.041182734
41	0x3d68f5c8	0.05687502
42	0xbb5dec4d	-0.003386277
43	0xbd5d2bdb	-0.053996902
44	0xbdba086b	-0.09083637
45	0x3dde99a1	0.10869146
46	0xbd1a1726	-0.037619732
47	0x3d8adbca	0.06780203
48	0xbda0cbec	-0.07851395
49	0xbcca7951	-0.024716051
50	0x3b282357	0.002565583
51	0x3de9d002	0.114166275
52	0xbb97ef97	-0.0046367156
53	0xbdd152dc	-0.10220882
54	0xbde47f45	-0.11157087
55	0x3dddf037	0.10836833
56	0xbd86ceb8	-0.06582397
57	0xbe02524a	-0.12726703
58	0x3b086f72	0.002081838
59	0x3d0ec08f	0.034851607
60	0x3cf38ad7	0.02972929
61	0x3d1ed6bf	0.038779017
62	0xbbfc5d5f	-0.0077015604
63	0xbc9ed282	-0.019387487
64	0x3d2e75a6	0.042592667
65	0xbc9d8f5c	-0.019233398
66	0x3dc691df	0.096957915
67	0x3d8c2ac0	0.068440914
68	0x3d2b0d43	0.041760694
69	0x3d5a07ed	0.053230215
70	0x3d88da99	0.06682319
71	0xbdc2fbfb	-0.09520718
72	0xbd714ad2	-0.058909245
73	0x3da6251e	0.08112548
74	0x3c552d1d	0.013011244
75	0xbd336957	-0.04380163
76	0xbd4aeaa0	-0.049540162
77	0x3cdbc263	0.02682609
78	0xbcbf2e78	-0.023337588
79	0x3d1990d1	0.037491623
80	0xbdb3b609	-0.08774955
81	0x3da9f2ac	0.08298239
82	0x3d03e931	0.03220481
83	0xbdf227fa	-0.11824031
84	0x3da48db0	0.08034837
85	0xbd50ec29	-0.05100647
86	0xbc082520	-0.008309633
87	0xbceca9c1	-0.028889539
88	0x3d470c44	0.04859568
89	0x3d64d118	0.05586347
90	0x3b0bec49	0.0021350554
91	0xbd513e06	-0.05108454
92	0xbcb7d32f	-0.022439567
93	0xbd74a70e	-0.05972963
94	0xbdbb5e6c	-0.09148869
95	0x3ce21cb6	0.027601581
96	0x3da546d9	0.08070154
97	0xbdd1424c	-0.10217723
98	0xbcb15db0	-0.021651119
99	0xbd03248b	-0.032017272
100	0xbb882ebd	-0.0041559623
101	0xbbe2c40b	-0.006920343
102	0xbd92f2ad	-0.07175193
103	0x3d87176b	0.065962635
104	0xbbfe08f9	-0.0077525345
105	0xbd10b1e9	-0.03532592
106	0xbd04bc44	-0.032406107
107	0xbdaf971b	-0.08573743
108	0x3d9e3136	0.0772423
109	0xbb71b10e	-0.0036879214
110	0xbc39b702	-0.011335136
111	0x3d83ca9b	0.06435128
112	0x3da5be98	0.080929935
113	0x3dc2833d	0.09497688
114	0xbd3ed23f	-0.046587225
115	0x3cafda5e	0.02146643
116	0xbb9472ab	-0.004530271
117	0x3cd05e93	0.025435722
118	0x3c4f80b7	0.012664965
119	0x3d091c7d	0.033474434
120	0xbdb0043d	-0.085945584
121	0x3d71d0bf	0.059036966
122	0x3da22815	0.07917801
123	0xbd9d8029	-0.0769046
124	0x3ccaaf19	0.024741696
125	0xbb9fc877	-0.004876192
126	0x3daadc9f	0.083428614
127	0xbcd215db	-0.025645187
128	0xbcf0594b	-0.029339453
129	0xbd3285ab	-0.043584507
130	0xbcf9af0f	-0.030478982
131	0xbdad40f8	-0.084596574
132	0x3da6bd62	0.08141591
133	0xbcbe867e	-0.02325749
134	0x3d90d0a6	0.070710465
135	0xbcef19bd	-0.029187078
136	0x3da30144	0.07959226
137	0xbd1f0f7c	-0.038833126
138	0xbdae9bf5	-0.0852584
139	0xbb50d6e6	-0.003186637
140	0xbc0483a3	-0.008088025
141	0x3d9757d6	0.073898
142	0xbd47f897	-0.048821058
143	0xbc91e79d	-0.017810637
144	0x3c4c4d49	0.012469598
145	0xba9a3507	-0.0011765071
146	0xbdbd124f	-0.09232008
147	0xbdbd4ca4	-0.09243134
148	0x3bab320f	0.0052244733
149	0xbd802bee	-0.06258379
150	0xbc69e5ea	-0.014276007
151	0xbd48af23	-0.04899515
152	0xbc1ba0c1	-0.009498776
153	0xba9dab94	-0.0012029284
154	0xbda1a32c	-0.07892451
155	0xbdb264c3	-0.08710625
156	0xbdada5a4	-0.08478859
157	0xbd34bdb7	-0.04412624
158	0xbcbe1142	-0.023201589
159	0x3b4df8e7	0.0031428875
160	0x3d796100	0.060883522
161	0x3ce39eec	0.02778574
162	0xbcb76b77	-0.02239011
163	0x3d5f32c0	0.05449176
164	0xbdb56dc2	-0.08858825
165	0x3c052a26	0.008127725
166	0xbbb91532	-0.0056482786
167	0x3d918006	0.07104497
168	0x3da668ff	0.08125495
169	0xbd292fc6	-0.041305326
170	0x3d4e58e3	0.050377738
171	0xbdaac885	-0.08339027
172	0x3d084b37	0.033274855
173	0xbda52c54	-0.080650955
174	0x3d4ba35c	0.04971634
175	0x3d375ee2	0.04476822
176	0x3d8c11ed	0.068393566
177	0xbcc04acf	-0.023473172
178	0x3c8ea9d9	0.017414974
179	0xbd24f448	-0.040272027
180	0x3d00f5ba	0.031484343
181	0x3d858b92	0.065207615
182	0xbdc4caf3	-0.09609022
183	0xbdd2e2ca	-0.10297163
184	0x3d59d12e	0.053178005
185	0x3cba04de	0.022707399
186	0xbaa2ced8	-0.0012421263
187	0x3d172bf3	0.036907148
188	0x3cf02420	0.0293141
189	0xbc94a0ec	-0.01814314
190	0x39b7b37e	0.00035038212
191	0xbae1a96e	-0.0017216632
192	0xbc3d2d79	-0.011546486
193	0x3d0ae87e	0.033913128
194	0x3da5ef0f	0.081022374
195	0x3c102657	0.008798203
196	0xbd172775	-0.036902864
197	0x3ba06804	0.004895212
198	0x3c6a9069	0.014316657
199	0xbc9f16cb	-0.019420048
200	0x3d185dc5	0.0371988
201	0x3d20d986	0.039269947
202	0xbd9504ea	-0.07276328
203	0x3d478bca	0.048717298
204	0xbd8e8ea6	-0.06960802
205	0x3b6e0bbe	0.0036322917
206	0x3d797153	0.06089909
207	0xbdc7b297	-0.0975086
208	0x3d2e7401	0.0425911
209	0xbdaba446	-0.08380942
210	0xbd3cbfda	-0.0460814
211	0xbdb12be5	-0.0865095
212	0xbd3270d2	-0.043564625
213	0xbc5aefb6	-0.013362816
214	0xbd3b6366	-0.04574909
215	0x3d9d69b9	0.076861806
216	0x3d1b77a6	0.037955903
217	0x3d37ee0e	0.04490476
218	0x3ce7a35f	0.028276144
219	0x3d7502e9	0.05981723
220	0xbdc11906	-0.09428601
221	0xbdcbb0e9	-0.09945852
222	0x3d493274	0.04912038
223	0xbd9d1122	-0.076692834
224	0xbd70e65e	-0.058813445
225	0x3d83e465	0.06440047
226	0xbdc6f25d	-0.09714196
227	0x3d7da8f6	0.06192871
228	0x3d996671	0.07490242
229	0x3dcb6bfb	0.09932705
230	0x3c4d342a	0.012524644
231	0x3df4a8b5	0.11946241
232	0x3d623275	0.0552239
233	0x3b8b2a57	0.0042469907
234	0xbc67c1b1	-0.014145301
235	0xbd541c0c	-0.05178456
236	0xbdfa60e5	-0.122255124
237	0xbc0cd72b	-0.008596222
238	0xbc9fcecc	-0.019507788
239	0xbce4e187	-0.027939571
240	0x3d2762cd	0.04086571
241	0xbd213e36	-0.03936597
242	0x3bd9e00a	0.006649022
243	0x3dcb6b68	0.099325955
244	0x3d935ec1	0.07195807
245	0x3de8ba10	0.113636136
246	0x3de719a9	0.11284191
247	0xbdb09bd1	-0.086234696
248	0xbcceae5f	-0.025229631
249	0x3d2f81f4	0.042848542
250	0xbbd78102	-0.006576658
251	0x3d808e7a	0.06277175
252	0x3d702f73	0.058639
253	0x3ca9a320	0.020707667
254	0xbdc31769	-0.095259495
255	0xbd4e0291	-0.050295416

net.4.module.0.bias f4 [32]
0	0x3d94079d	0.072280146
1	0x3c9891b2	0.01862416
2	0xbca0445e	-0.01956385
3	0xbdac3942	-0.084093586
4	0x3c04bb43	0.008101287
5	0xbcbd68ff	-0.023121355
6	0xbdaabe85	-0.0833712
7	0x3d012dc8	0.0315378
8	0xbd809769	-0.06278879
9	0x3b97283b	0.00461295
10	0x3d9daec4	0.076993495
11	0xbd035e98	-0.032072634
12	0x3dcc7961	0.09984089
13	0x3da9e239	0.08295102
14	0x3d109f7b	0.035308342
15	0xbd6c2186	-0.057649158
16	0x3da43e1b	0.08019658
17	0x3ba79fdf	0.0051154937
18	0xbd20e23e	-0.03927826
19	0x3bbc84ec	0.00575315
20	0x3d22f5ad	0.039785076
21	0xbbdc7311	-0.006727584
22	0x3ddb68d4	0.10713354
23	0xbc530315	-0.012879153
24	0x3ddb47f8	0.10707086
25	0x3d56aee2	0.052412875
26	0x3d1aeac8	0.03782156
27	0xbc4e2d5b	-0.012584056
28	0x3d1fd988	0.039025813
29	0x3d674ce5	0.056469817
30	0xbc004f1d	-0.007831362
31	0x3dc284c2	0.09497978

net.5.weight f4 [32, 32, 3]
0	0x3a99c625	0.0011732025
1	0x3c843f97	0.016143603
2	0xbd2794c7	-0.04091337
3	0xbddcd70d	-0.10783205
4	0x3ce5771f	0.028010903
5	0xbc493276	-0.012280097
6	0x3d0aae90	0.033857882
7	0x3d50414f	0.050843533
8	0x3c3658cd	0.01112957
9	0x3d6f8b2a	0.058482327
10	0xba379da3	-0.00070043857
11	0x3d983192	0.0743133
12	0xbd557a4a	-0.052118577
13	0x3d95139e	0.07279132
14	0xbd3cc4ce	-0.046086125
15	0x3d72178b	0.059104484
16	0xbd84a791	-0.06477273
17	0xbd29f8d4	-0.041497067
18	0x3ce92668	0.028460696
19	0x3d8847b4	0.06654301
20	0xbdc1eca0	-0.09468961
21	0x3ce92b2f	0.028462974
22	0x3c07843f	0.008271276
23	0x3d698f94	0.057021692
24	0xbda7c055	-0.08190981
25	0x3d6a6231	0.05722255
26	0x3bca1dd3	0.006168106
27	0xbd096f6c	-0.033553526
28	0xbcb09a79	-0.021558033
29	0x3d34087a	0.043953396
30	0x3cec2e7c	0.02883076
31	0xbd1ac934	-0.03778954
32	0xbcbd3c85	-0.023100147
33	0x3dd339d7	0.103137664
34	0xbc4b5216	-0.0124097075
35	0x3c89a4c5	0.016802201
36	0xbdab0c06	-0.08351903
37	0xbc70a8e8	-0.014688708
38	0xbcc0535e	-0.023477253
39	0xbcf35408	-0.029703155
40	0xbd990366	-0.07471351
41	0xbdee5d22	-0.116388574
42	0xbd38c75d	-0.045112003
43	0xbd15ba24	-0.03655447
44	0x3ddb5e16	0.10711305
45	0xbda479f5	-0.08031074
46	0x3b991beb	0.0046725175
47	0x3d15312c	0.036423847
48	0xbd7abc2f	-0.061214622
49	0x3cfb697d	0.03068995
50	0x3d9e0058	0.07714909
51	0xbd981008	-0.07424933
52	0xbd565ea7	-0.05233636
53	0xbcae0e92	-0.021247182
54	0x3d3635c2	0.04448486
55	0xbd53ea73	-0.05173726
56	0x3d46a8e6	0.048500918
57	0x3d7e6429	0.06210724
58	0xbd156cc0	-0.036480665
59	0x3d473848	0.04863766
60	0xbd225759	-0.039634082
61	0x3dbbad92	0.09163965
62	0xbdcc2e10	-0.09969723
63	0x3c2181e9	0.009857633
64	0xbc954e13	-0.018225705
65	0xbdb898db	-0.0901353
66	0x3cd841e4	0.026398607
67	0xbdcdc03a	-0.1004643
68	0x3cb7288b	0.0223582
69	0xbc9ebf99	-0.01937847
70	0x3968e669	0.00022211079
71	0xbbf0a429	-0.007343788
72	0x3d9267fa	0.07148738
73	0xbddb82e2	-0.10718323
74	0x3b563d4c	0.0032690344
75	0xbcb85acd	-0.022504235
76	0xbd3faafa	-0.046793915
77	0x3db65cb4	0.089044005
78	0x3d66a75d	0.056311954
79	0x3c64b405	0.013958936
80	0x3d322dda	0.04350076
81	0xbd436623	-0.047704827
82	0xbd730efa	-0.059340455
83	0x3da2ef7f	0.079558365
84	0x3c13d099	0.0090219015
85	0xbc3cf5e9	-0.011533239
86	0x3b0b5a68	0.0021263603
87	0x3b89d0eb	0.004205813
88	0x3db05a47	0.08610969
89	0x3d573a93	0.052546095
90	0x3df5ebe0	0.1200788
91	0xbc866b41	-0.016408565
92	0x3da3e399	0.08002395
93	0xbb1b1030	-0.0023660772
94	0x3c6f4d93	0.0146058975
95	0xbd1ceadb	-0.038309913
96	0xbd88f479	-0.066872545
97	0x3d4c2709	0.049841914
98	0x3cabf474	0.020990588
99	0xbd55bffd	-0.052185047
100	0x3d594d52	0.053052254
101	0xbd35722a	-0.04429833
102	0x3d40fb41	0.047114614
103	0xbdc275d9	-0.09495134
104	0xbdd291d8	-0.10281724
105	0x3d6bd73d	0.057578314
106	0x3d1360e5	0.035981078
107	0x3bf5a9b0	0.007497035
108	0xbcbee324	-0.023301668
109	0xbcab8012	-0.020935092
110	0x3df6d0de	0.12051557
111	0xbd957a07	-0.072986655
112	0x3ca5d3af	0.02024254
113	0xbd9fa75c	-0.07795593
114	0xbdf20525	-0.118173875
115	0xbd83820e	-0.0642129
116	0x3d06256c	0.032750532
117	0xbcf739c4	-0.030178912
118	0xbd51d23f	-0.051225897
119	0x3dd6d3f9	0.10489649
120	0xbdc8004f	-0.09765684
121	0xbc2b43ec	-0.010453206
122	0x3c51d8b8	0.012808017
123	0x3cda71a4	0.026665516
124	0x3d0ebbcd	0.03484707
125	0x3df72b71	0.12068833
126	0x3d23e99c	0.04001771
127	0x3ac611aa	0.0015111465
128	0xbc195275	-0.009358038
129	0x3defa684	0.11701682
130	0x3db3b4db	0.0877473
131	0x3dbb4d0e	0.091455564
132	0xbd791c36	-0.06081792
133	0x3c3ed792	0.011648076
134	0xbcf5e1b2	-0.030014846
135	0xbd48a7cf	-0.04898816
136	0xbd95a578	-0.07306951
137	0xbd87151f	-0.065958254
138	0x3dcc3840	0.09971666
139	0x3b6b2bf4	0.0035884352
140	0xbda35d67	-0.079767995
141	0xbd197ad6	-0.03747066
142	0xbca9b200	-0.02071476
143	0xbd97e2c3	-0.07416298
144	0xbd84492c	-0.06459269
145	0xbd128818	-0.03577432
146	0x3d593553	0.05302937
147	0x3d203647	0.039114263
148	0xbdcb1c3a	-0.09917493
149	0xbcbceed7	-0.023063106
150	0xba226ede	-0.000619633
151	0xbcb85f60	-0.022506416
152	0xbd8f01a0	-0.06982732
153	0x3d32dbdd	0.04366671
154	0x3c4dba67	0.012556649
155	0x3dbfdef7	0.09368699
156	0x3d9af485	0.0756617
157	0xbd384d2a	-0.044995464
158	0x3d1b57b1	0.037925426
159	0xbdf1ec9f	-0.1181271
160	0xbb648b84	-0.0034873197
161	0xbde16814	-0.110061795
162	0x3d75128e	0.05983215
163	0xbdb117f5	-0.086471476
164	0xbd9ce11e	-0.07660125
165	0x3d4f7ad8	0.050654262
166	0xbd8aae49	-0.067715235
167	0x3dff8242	0.124760166
168	0x3e0edc6e	0.13951275
169	0xbcdb1c14	-0.026746787
170	0x3e30638e	0.17225477
171	0x3c13c16f	0.009018286
172	0xbd714485	-0.058903236
173	0xbc91a835	-0.017780403
174	0x3dc9f42b	0.098610245
175	0xbdbbdb38	-0.09172672
176	0xbdcb0ff1	-0.0991515
177	0x3c8fe574	0.017565466
178	0x3da252b2	0.07925929
179	0x3dd66068	0.10467607
180	0xbb736d20	-0.00371439
181	0xbd0add7b	-0.033902626
182	0xbc68c583	-0.014207247
183	0x3c9d4b03	0.019200807
184	0xbd4abcc3	-0.049496423
185	0xbd4eb8ea	-0.050469317
186	0x3e1556e2	0.14583924
187	0x3c8ab0a1	0.016929926
188	0x3cc4f609	0.0240431
189	0x3d457710	0.04820925
190	0x3aed2241	0.0018091873
191	0x3c31a269	0.010841944
192	0xbca843a7	-0.020540072
193	0x3d948d59	0.072535224
194	0xbda70b34	-0.08156434
195	0xbd53a2e4	-0.051669016
196	0xba90aec3	-0.0011038411
197	0xbd7b6155	-0.06137212
198	0xbd18c887	-0.037300613
199	0xbb9a974d	-0.0047177435
200	0xbdb27822	-0.0871432
201	0xbbf31a1e	-0.007418885
202	0xbb1151dd	-0.0022174038
203	0x3cf2f13e	0.029656049
204	0x3ba3c025	0.0049972706
205	0x3d90e44f	0.070747964
206	0x3cca0c02	0.024663929
207	0x3cc80642	0.024417046
208	0x3d099a03	0.033594143
209	0x3d327fb4	0.04357882
210	0xbd52d76a	-0.051474966
211	0x3d7f06bb	0.062262278
212	0x3d200707	0.0390692
213	0x3d0deabd	0.034647692
214	0xbd8b9a62	-0.068165556
215	0x3d3158ac	0.043297455
216	0x3d8d4283	0.06897452
217	0x3d68acd6	0.056805454
218	0xbd82efe7	-0.06393414
219	0x3d83d1cf	0.06436502
220	0x3d135802	0.035972603
221	0x3d6c0258	0.057619423
222	0xbc7c7e11	-0.015410916
223	0x3ca4a8ec	0.02010008
224	0xbce7695c	-0.028248481
225	0x3c52597e	0.012838719
226	0x3bfb82f2	0.007675522
227	0xbc2cd0ae	-0.0105478
228	0xbcfcf4bb	-0.030878415
229	0xbd6b44dd	-0.05743872
230	0xbde09c61	-0.10967327
231	0xbbe648a4	-0.0070277024
232	0x3d203635	0.039114196
233	0xbdc9045e	-0.09815286
234	0x3da2a25c	0.07941124
235	0x3dc4c67f	0.096081726
236	0x3d276f24	0.040877476
237	0xbd3db403	-0.04631425
238	0x3d86bac3	0.06578591
239	0xbb05d912	-0.0020423573
240	0xbd9d2002	-0.07672121
241	0x3d7b5190	0.06135708
242	0x3c1908fd	0.009340522
243	0xbdbc1166	-0.09183006
244	0xbc22af7e	-0.009929536
245	0x3d92c2f5	0.07166091
246	0xbbd853f3	-0.0066018044
247	0x3d197086	0.037460826
248	0xbd864919	-0.06556911
249	0xbd0634be	-0.032765143
250	0xbd8d6df4	-0.069057375
251	0x3cf8f421	0.030389847
252	0xbd091be6	-0.03347387
253	0xbc954769	-0.018222528
254	0x3c056477	0.0081416285
255	0x3d845b16	0.06462686

net.5.bias f4 [32]
0	0x3d901675	0.07035533
1	0xbc7daf2a	-0.015483657
2	0xbd61af72	-0.05509896
3	0x3d18dbf7	0.03731915
4	0x3d1203cd	0.035648156
5	0xbd3deaf3	-0.046366643
6	0x3c256763	0.01009545
7	0x3c39e1e3	0.0113453595
8	0xbda043da	-0.07825442
9	0x3d5bffe2	0.053710826
10	0x3da6fd5d	0.08153794
11	0x3c9f6921	0.019459309
12	0x3d42eb43	0.047587644
13	0x3d8ead85	0.0696669
14	0xb821ecac	-3.860581e-05
15	0xbda011a3	-0.07815864
16	0x3cea6608	0.028613105
17	0xbc6c813a	-0.014435107
18	0x3cdcb75c	0.026942901
19	0xbd6b370a	-0.057425536
20	0x3cf527be	0.029926177
21	0xbd808910	-0.062761426
22	0xbc091c8c	-0.0083686225
23	0xbd837f4e	-0.06420766
24	0xbbb886a2	-0.005631284
25	0xbd551161	-0.052018527
26	0x3a532fa1	0.00080561085
27	0xbd875b95	-0.06609265
28	0xbd1a8450	-0.03772384
29	0xbcbcac42	-0.023031358
30	0xbca1bb38	-0.019742593
31	0x3d74da88	0.05977872

exp_avg f4 [32, 12, 2]
0	0xb8ef603f	-0.00011414335
1	0xbaa02f89	-0.0012221198
2	0xbbd713e2	-0.0065636495
3	0xbb4cc5e6	-0.0031245886
4	0xb91f7fea	-0.00015211073
5	0x39a8602c	0.0003211511
6	0xb8c48a99	-9.371824e-05
7	0xba16110d	-0.00057245867
8	0xb8e63f40	-0.00010979036
9	0xb9dba1d0	-0.00041891495
10	0xb73d7630	-1.12927955e-05
11	0xb8e3cd11	-0.000108624
12	0x398f159b	0.00027291183
13	0xba8832cf	-0.0010391119
14	0x39d4b9b0	0.0004057414
15	0xb95b6eec	-0.00020926789
16	0xb9748aca	-0.00023321356
17	0xb9ce2c2b	-0.0003932429
18	0xba0032bb	-0.0004890372
19	0xba59e6cd	-0.0008312285
20	0xb9c0c5f7	-0.0003676859
21	0x398b8db8	0.00026617735
22	0x37289960	1.0049291e-05
23	0x3714c2d3	8.8668485e-06
24	0xba57c9a7	-0.00082316477
25	0x3a6141d1	0.0008592876
26	0x3c39bc8e	0.011336459
27	0x3bf605d8	0.007508021
28	0x3a33ac1c	0.00068539544
29	0x394c3826	0.00019475873
30	0xb82745fc	-3.988108e-05
31	0x39515894	0.00019964791
32	0x3a834d4a	0.0010017541
33	0x38b46180	8.60123e-05
34	0x392358d6	0.00015577985
35	0xb8ee8721	-0.00011373894
36	0xba1f4201	-0.0006075204
37	0x3b1a6bd0	0.0023562796
38	0x392b049a	0.00016309545
39	0x394cfb2a	0.00019548522
40	0x394f436d	0.00019766176
41	0x393e453c	0.00018145604
42	0x3a641398	0.00087004295
43	0x3a0ea9d7	0.0005442178
44	0xbab656de	-0.0013911386
45	0xbb1a87be	-0.0023579444
46	0x370c9e1e	8.381465e-06
47	0x36bb525f	5.5826235e-06
48	0xbb2d8752	-0.0026478362
49	0xbb19b5ba	-0.0023454265
50	0x3ad9d6a2	0.0016619752
51	0x3a1cdb7f	0.0005983635
52	0xba4385a0	-0.00074585713
53	0xbb2cf8ca	-0.0026393407
54	0x38a5d9df	7.908395e-05
55	0x396728a4	0.00022045017
56	0x3923bf3e	0.00015616135
57	0x36f47040	7.2848343e-06
58	0xb89ec732	-7.57113e-05
59	0x3847386a	4.7497837e-05
60	0xb89bde70	-7.432408e-05
61	0xb810d97b	-3.453482e-05
62	0x399675b6	0.0002869793
63	0x3932e2cb	0.0001705989
64	0xba98f99d	-0.001167107
65	0xb92c59da	-0.0001643667
66	0x393ef184	0.00018209784
67	0x39060a90	0.0001278317
68	0xb984199c	-0.00025196082
69	0xb99d26e7	-0.00029974358
70	0x350d5aaf	5.2658555e-07
71	0xb303edb2	-3.0716997e-08
72	0xba234de8	-0.00062295655
73	0xbb184660	-0.0023235306
74	0xb7d1d22c	-2.501261e-05
75	0x394d12c0	0.00019557308
76	0xba78b2fa	-0.0009487119
77	0xbb0d6450	-0.0021574683
78	0xba72f2d0	-0.0009267749
79	0x390c6ed2	0.00013392724
80	0xbab5535f	-0.0013834051
81	0xb99bd655	-0.00029723594
82	0x39abe9ea	0.0003278994
83	0x35e08418	1.6727745e-06
84	0xbb57e64e	-0.0032943669
85	0x39007d7b	0.00012253776
86	0xbaeb6ddd	-0.0017961819
87	0x3a0561b3	0.00050881057
88	0xba181950	-0.00058021117
89	0x38c21502	9.254554e-05
90	0x3a56dee2	0.0008196664
91	0x38cf03af	9.871215e-05
92	0x3b22b51e	0.0024827193
93	0x3ac4945c	0.0014997828
94	0x359274d9	1.0911855e-06
95	0xb583a58a	-9.808439e-07
96	0xb7c8dc20	-2.3944362e-05
97	0x3ad3ce24	0.0016159457
98	0xb9ff78e6	-0.00048727466
99	0x38e9a9ed	0.00011141957
100	0x3b0a13a6	0.002106884
101	0x3c1f2920	0.009714395
102	0x3a17ba22	0.0005787929
103	0x3a609603	0.00085672754
104	0x3ba7a0ec	0.005115619
105	0x3adf2de0	0.0017027222
106	0xb70d9580	-8.439063e-06
107	0xb8e179c4	-0.00010751517
108	0x3b3ac3ae	0.0028497982
109	0xba26ce3e	-0.000636313
110	0x3b1da922	0.002405711
111	0x3a074c4c	0.00051612104
112	0xb9e71289	-0.00044073563
113	0xb98df18c	-0.00027073582
114	0xbaa4390a	-0.0012529206
115	0xba5f3b28	-0.000851559
116	0xbb665a46	-0.0035149022
117	0xbb2e1912	-0.0026565236
118	0xb8219e53	-3.8532842e-05
119	0xb495b200	-2.7882925e-07
120	0xbb53c240	-0.0032311827
121	0xbad97d16	-0.0016593065
122	0xba7a8444	-0.0009556452
123	0xbb75c17a	-0.0037499354
124	0xba84ba0f	-0.001012625
125	0xb903b365	-0.00012559963
126	0xba0d5134	-0.00053908234
127	0xbacf7d83	-0.0015830252
128	0xbbb43483	-0.005499424
129	0xbb89e99c	-0.0042087566
130	0x396c4eb2	0.0002253603
131	0x38c5eab1	9.437407e-05
132	0xbab396ac	-0.001370152
133	0xb97d6a88	-0.00024167646
134	0x38e1fb70	0.0001077567
135	0xbb1d98bf	-0.0024047343
136	0xba08fe86	-0.0005225915
137	0xb9dab3a2	-0.00041714037
138	0xbb85e35e	-0.004085942
139	0xbba2d16e	-0.0049688136
140	0x3a680089	0.00088501774
141	0x3b883002	0.0041561136
142	0xb7c1e037	-2.3111801e-05
143	0x37becab8	2.2744163e-05
144	0x39f924a9	0.00047520295
145	0x3988719e	0.00026024593
146	0xbb65c3f8	-0.0035059433
147	0xbb8ed510	-0.004358895
148	0xba62e93c	-0.00086559705
149	0xbb0a94e3	-0.0021145872
150	0x3868f6e4	5.5543045e-05
151	0x39a7bfa7	0.00031995514
152	0xba28741e	-0.0006425994
153	0xb92b6b9e	-0.00016347921
154	0xb8408ef9	-4.590952e-05
155	0xb83dcefc	-4.525388e-05
156	0x3a2d2574	0.0006605007
157	0xb7a81db2	-2.0040989e-05
158	0xb9b10048	-0.0003376028
159	0x3904f57c	0.00012679951
160	0xb9331b09	-0.00017080842
161	0xb9c5cd14	-0.00037727563
162	0x3a4cbd60	0.00078102015
163	0x3a018f00	0.0004942268
164	0xb8383b88	-4.392446e-05
165	0x37ddf96d	2.6461401e-05
166	0xb51234e3	-5.44662e-07
167	0xb5e2c371	-1.6895193e-06
168	0xb89fd570	-7.621467e-05
169	0x3a4ce718	0.0007816418
170	0xba77a774	-0.00094472547
171	0xbb31e4d8	-0.0027144458
172	0x3a7cfad8	0.0009650416
173	0x39db0050	0.00041771168
174	0xba11b910	-0.00055588875
175	0xb9966937	-0.0002868862
176	0x392261a4	0.00015485898
177	0xba370dea	-0.00069829694
178	0x391d3271	0.00014991478
179	0x38ca837a	9.6566e-05
180	0xb9020dac	-0.0001240286
181	0x3a03d823	0.00050294603
182	0xb91f9348	-0.00015218288
183	0xba340030	-0.0006866483
184	0x39991f72	0.00029205863
185	0xb76933a0	-1.3899902e-05
186	0xba86089f	-0.0010225958
187	0xbad1306b	-0.0015959864
188	0xb6e199c0	-6.7234214e-06
189	0x397edec5	0.00024306316
190	0xb5b4ef48	-1.3480685e-06
191	0x36b118b3	5.2778864e-06
192	0xba695926	-0.0008901529
193	0xbb2ee4ee	-0.0026686746
194	0xbb2cca80	-0.0026365817
195	0xbbcca07d	-0.0062447176
196	0xbbcc2ad6	-0.0062306924
197	0xbaa08c64	-0.0012248871
198	0x394678a0	0.00018927688
199	0xb7ac911e	-2.0571573e-05
200	0xbb38e4fa	-0.0028212653
201	0xba276219	-0.0006385162
202	0x38e7bb3c	0.000110498135
203	0x39453cdc	0.00018810056
204	0xbab233f7	-0.0013595809
205	0x39c25fef	0.0003707404
206	0xbb13c824	-0.0022549713
207	0xba25269e	-0.0006300005
208	0xb8e95699	-0.00011126436
209	0xb8ac379e	-8.2119586e-05
210	0xba6307b2	-0.00086605095
211	0xb94336e0	-0.00018617092
212	0xb8bc4f40	-8.9793e-05
213	0x3a72da22	0.00092640717
214	0xb7181a7a	-9.066071e-06
215	0xb5120378	-5.4394286e-07
216	0xbba5e160	-0.005062267
217	0xbaec0181	-0.0018005819
218	0xbabbdd6e	-0.0014332959
219	0x39ebc35e	0.00044968253
220	0xba400ed3	-0.0007326428
221	0xbabe78e7	-0.0014531881
222	0xba06db3d	-0.00051443634
223	0xba52cfaf	-0.00080418115
224	0xba9494da	-0.0011335865
225	0xbacc490e	-0.0015585737
226	0x38908793	6.891708e-05
227	0xb985bfa7	-0.0002551053
228	0xba3613ed	-0.0006945718
229	0xbb685129	-0.0035448766
230	0xb9ef1660	-0.00045602303
231	0x3a9f4829	0.0012152243
232	0xb990c67d	-0.00027613706
233	0xb7be91b2	-2.271761e-05
234	0xb9dd05dd	-0.00042156773
235	0xba117d18	-0.00055499515
236	0xba00e168	-0.00049164006
237	0x39aec0f2	0.00033331622
238	0x36e55187	6.834223e-06
239	0xb40dbe9a	-1.3200989e-07
240	0xba89f295	-0.0010524566
241	0x3b16adb9	0.002299173
242	0x39b7dff0	0.00035071326
243	0x39ad6ddc	0.00033078983
244	0x386b9844	5.6170175e-05
245	0x386e7232	5.6849974e-05
246	0x3989d697	0.00026290558
247	0x3a1d92dc	0.00060109585
248	0x3b3acbce	0.0028502825
249	0x39c82ca8	0.00038180244
250	0x3915b519	0.00014277211
251	0xb8ed0bb1	-0.00011303218
252	0x3a00a8fb	0.00049079926
253	0x3ae0f827	0.0017163799
254	0xb9f2c7bc	-0.0004630665
255	0xb9a9e311	-0.0003240337
