cebra_models/reach1_4/02/A/cebra_trialID_hybrid_model_1000_32_reach1_4_A_2024-05-06_19-41-47.pt (torch, 204877 bytes, 31 tensors)

module.net.0.weight f4 [32, 45, 2]
00000000: aa39 5bbb 5477 163e bb78 3f3b 76f4 3a3c
00000010: 7319 333d 2e17 9b3d 7f62 bf3c 4987 1fbe
00000020: e217 8cbd a82d 47bd f48e 3abd 3113 afbd
00000030: d8e3 8bbb 6cd9 0cbd d593 c2bc 230e 3c3c
00000040: fe05 f7bb c679 9bbc 5539 05be a863 c43d
00000050: 63d5 61bd d5d9 97bc 034f d6bd b0f9 06be
00000060: 7c81 b73d f2fe 9d3c 2bfc e1bd 0cef 93bb
00000070: 0550 e93c f24b 123e 0f2d 8d3d f703 1fbc
00000080: 1acc 6b3b 7b31 a4bc adc9 98bc 13bd cc3c
00000090: ec06 16bc 41bf ab3d 9605 dabd a61f 66bc
000000a0: 66e3 58bd 301a a5bd 04f7 0a3e c7c2 eb3d
000000b0: 8983 c93d 24d2 863d 74a1 54bd 7ca0 34bc
000000c0: 3a8b b83d f1ca 96bd b5ef c53d c68b 08be
000000d0: b0f7 613d 68f2 703d e49c 443d a048 0e3d
000000e0: 309b 4ebc e908 c93d dc38 713d 139c 083d
000000f0: 3a38 5c3d 6533 b539 5c71 b5bd 0a28 1a3e
00000100: 739d b63c 39cb 92bc 7ca6 be3d eab1 c43d
00000110: ca6f e9bc d6d0 bdbd 6f33 d53c 6592 f53c
00000120: b9e6 f2bd e72f 56bc 9247 853d 5e5f dcbc
00000130: ec68 76bd 3024 763d 89bf e7bb e9d4 9dbd
00000140: a24a 063e 893e ec3d a574 863d abb7 fa3c
00000150: d36c f43c 7d57 2bbd c1d7 4fbe 9741 a03c
00000160: ce94 0cbd 808b aa3c 9ae1 b1bc 8013 cd3b
00000170: 077a 7d3c 7528 bbbd e86b 14be 41cc f63c
00000180: f0da 8a3c e89e 03bd ef82 b03d c723 80bd
00000190: 08d8 c2bd f65d a9bd 0905 893a aacf 863d
000001a0: 1625 f2bb cd7f 99bd 09dc 853c 71bd 21be
000001b0: dd4e 873d 58d4 b2bb 35a9 a03b 2749 6ebd
000001c0: 72bc 0cbd afe4 17bd d7a5 a0bd f0f8 473d
000001d0: 4a6d c43c b418 e9bd e04f 133d 5dcd e33d
000001e0: 5050 1cbd 9712 873c 5ca7 163e d5c3 4d3d
000001f0: b1ba 4e3b ef2c 5c3d 672a 793d a434 ae3d
00000200: 483b 1abd bf6c cc3b 25c9 883d d118 9ebd
00000210: 44bb 0f3d 9cd0 643d fc34 813c 8cd4 adbd
00000220: 59d7 ac3d 8993 83bd 6621 ad3d 3e9d 1ebe
00000230: 6b86 543d 476d 1cbc d4e4 cc3c 87d4 afbb
00000240: 4d81 78bb 28ae 7d3d 88d2 a8bd 6443 bdbd
00000250: d100 613d 25a7 903d 0bb8 b63d 02f6 45bd
00000260: 0cba cfbd 1a74 7abd 6403 3b3d 1d16 533d
00000270: 9b05 7fbd 10ba 91bd 42c1 3a3d 3db6 493c
00000280: bf50 12be c8e1 6fbd 8718 a0bd c41d 1cbd
00000290: 366e 9ebc 67b4 de3d 2e44 72ba 2885 973c
000002a0: 4f49 cbbd 7606 d6bd 9797 67bd 213f 6dbd
000002b0: c636 d4bc dd10 f6bd 5253 e5ba 9f4f 1abe
000002c0: 01b8 4dbc d7ea 24bc 15ad e83c 155b da3c
000002d0: 121b 103e fa67 bebd 3170 cf3d b7c7 193d
000002e0: 02b5 6a3c dcaa 20bd 5a18 a1bd 2ee1 a43c
000002f0: ef56 893b 2f51 abbc a50a a0bd e2eb bbbc
00000300: a7d6 6c3d 2257 5d3c 22a9 483d 4a9d 0d3d
00000310: 6696 b8bd 1aa9 28bd 5032 92bd 3940 103d
00000320: 0602 40bb 01be 38bd f5bf 873c 5ef9 4dbc
00000330: bc43 debb 32a5 903c 1719 933d 18f5 46bd
00000340: 63b6 b73d 4f29 193e a7f7 eb3c 624e 443d
00000350: cd27 cb3c 83d9 b73b a208 bd3c ee73 2b3d
00000360: f4a1 ceba 5953 29bd aa9f 353d 0a41 a33d
00000370: 3b84 933d 4429 2f3d e8c5 95bd 9735 36bd
00000380: 598a 96bc 8414 c03d 10dc 403d e91d 8b3c
00000390: c689 5dbd fab2 3abb 0bbe 613d fe91 ffbc
000003a0: 28de 31b9 6567 32bd dd93 b7bc f9f5 13bd
000003b0: e227 c1bd 84bf db3c beaf 863d 5412 a73c
000003c0: c6cd 0ebd 9ce2 923d d18c adbc bf04 88bd
000003d0: 5048 083d ce8d c63d ffd1 91bc 1992 053d
000003e0: 690f babd 1c54 a9bd 1d4c 6d3c 51f4 dabc
000003f0: 36b0 e5bd 60e7 99bd 4d8c bfbd e205 60bd
-0.0033451119 0.14693958 0.0029216248 0.011410823 0.043725442 0.075727805 0.023362396 -0.15578951
-0.06840493 -0.048627526 -0.045546487 -0.08548582 -0.0042691045 -0.034387037 -0.023752132 0.01147798
-0.007538556 -0.018978965 -0.13010152 0.095893204 -0.055135142 -0.018536488 -0.10464289 -0.13181186
0.08960244 0.019286606 -0.11034425 -0.0045145806 0.02848054 0.14286783 0.0689336 -0.009705535
0.0035979808 -0.020043125 -0.018650854 0.024992501 -0.009156924 0.08386088 -0.10645597 -0.0140456315
-0.05295124 -0.080616355 0.13570791 0.1151176 0.098395415 0.0658305 -0.051911786 -0.011024591
0.0901093 -0.07362927 0.09664861 -0.1333457 0.055167854 0.058824927 0.048001185 0.03473723
-0.012610242 0.098161526 0.058892116 0.03335197 0.05376456 0.00034561302 -0.08859512 0.15054336
0.022291875 -0.01791917 0.09309098 0.09604247 -0.028495688 -0.09268348 0.026025502 0.029977033
-0.11860413 -0.013072944 0.065077916 -0.026900943 -0.060158655 0.060093105 -0.0070723933 -0.07706625
0.13114408 0.11535365 0.06565217 0.030605158 0.029837048 -0.041831482 -0.20297147 0.019562526
-0.0343216 0.020818472 -0.02171402 0.006258428 0.015470988 -0.09138576 -0.14494288 0.030126693
0.0169501 -0.032133967 0.086187236 -0.06256824 -0.09513861 -0.08269875 0.0010453771 0.065825775
-0.007389675 -0.07495079 0.016340273 -0.15794922 0.06606839 -0.0054574423 0.0049029835 -0.058175232
-0.034359403 -0.037083324 -0.078441314 0.04882139 0.023977894 -0.11381665 0.035964847 0.11123154
-0.03816253 0.016488357 0.1471228 0.050235588 0.0031544382 0.05375379 0.060831454 0.08506134
-0.03765419 0.0062385495 0.0667899 -0.07719577 0.0350907 0.055863008 0.015772335 -0.08487806
0.08439512 -0.064246245 0.08453636 -0.1548967 0.051886003 -0.009547538 0.025011458 -0.0053659114
-0.0037918866 0.061933666 -0.08243281 -0.09241369 0.05493242 0.0706313 0.08921822 -0.048330314
-0.101429075 -0.06114588 0.04565753 0.05153476 -0.062261205 -0.07115567 0.04559446 0.012311515
-0.14288615 -0.05856493 -0.07817178 -0.038114324 -0.019339662 0.10874253 -0.0009241727 0.018496111
-0.09926092 -0.10450451 -0.05654105 -0.057921533 -0.025905024 -0.12014935 -0.0017496145 -0.15069436
-0.012556077 -0.010065756 0.028402844 0.02665476 0.14072827 -0.09297176 0.10128821 0.03754398
0.014325382 -0.039225444 -0.07865973 0.020126905 0.0041912715 -0.020912735 -0.0781453 -0.022939626
0.057821896 0.013509544 0.048989423 0.03457383 -0.09013061 -0.041176893 -0.071385026 0.035217497
-0.002929808 -0.045103077 0.016571024 -0.012571661 -0.006782977 0.017656896 0.0718252 -0.048573583
0.089703344 0.14957164 0.028804613 0.047926314 0.024799252 0.005610646 0.023075406 0.041858606
-0.0015764819 -0.041339252 0.04434172 0.079713896 0.07202955 0.042763963 -0.07313138 -0.0444847
-0.018376516 0.09378913 0.047084868 0.016982036 -0.05408647 -0.0028488026 0.05511288 -0.031197544
-0.00016962795 -0.043555636 -0.022409374 -0.03612325 -0.09431435 0.02682472 0.06576489 0.020394482
-0.03486421 0.071721286 -0.02118531 -0.0664153 0.033272088 0.09695016 -0.01780033 0.032610033
-0.090849705 -0.08267996 0.014483479 -0.026727827 -0.1121525 -0.075148344 -0.09352932 -0.05469311

module.net.0.bias f4 [32]
00000000: 8280 683e 9f73 a63c 633a cabd 6877 5b3e
00000010: 7724 b33c 2ca3 acbd 8c13 463d 89f1 32bd
00000020: cbdf cc3d 2240 a33d 841e fe3d 037b dfbc
00000030: aa6e 703e 806d dabd e5a3 383e e683 98bd
00000040: 61eb 223e 7c9d 1b3e 9c17 183d 8ce9 a2bd
00000050: d9b1 0dbd 2a34 10bd fbbe 323d 8344 f03d
00000060: cab8 bebd b20d dbbd b8e8 f4ba e590 ddbc
00000070: de4e bb3d 3b54 403e 51a6 283d 29d7 893d
0.22705272 0.020318804 -0.09874418 0.21432269 0.021867974 -0.0842956 0.048358485 -0.043687377
0.100036226 0.07971217 0.12408164 -0.027280336 0.23479715 -0.10665417 0.18031271 -0.07447033
0.15910102 0.15196794 0.03713189 -0.07954702 -0.034593437 -0.035205998 0.043639164 0.117318176
-0.093125895 -0.106959715 -0.0018685078 -0.02704663 0.09145902 0.18782131 0.041174237 0.06730492

module.net.2.module.0.weight f4 [32, 32, 3]
00000000: d60c 003e 7ce0 bc3d 02d8 f53d 1366 f93d
00000010: 220c 48bd 7820 003e c41e 873d 22a4 b43d
00000020: 86fc d0bc cfc0 203d e29c d43d bb19 a83d
00000030: 7c48 843d 112a 9d3d ac82 ac3d 605f 13be
00000040: df5b 8c3d 4dc1 dfbc 79c6 58bd 93a0 a83d
00000050: c1d3 5b3d 3462 053e 4760 2b3d 8450 7b3d
00000060: 80a8 07bd 32de ad3c fd06 3e3d 53a1 123d
00000070: bcde 2cbc c034 a9bc c494 8d3d 1b47 b83d
00000080: 568c 213e 0320 05be 69da 7bbd 1714 903d
00000090: 8aae f03d 541b d03d 2ba0 cabc 76fe 8f3b
000000a0: d038 68bd fe1d a43d eac7 7c3d 6937 993d
000000b0: ef80 e53c fd2a 7ebd 6064 7bbd 7a48 993d
000000c0: 907f 2c3e 3386 0d3d e005 023b 8d1d 9a3b
000000d0: 003e c13d 49af 813d aa66 4cbd 3502 fdbc
000000e0: 9a8d d53b a48d a1bd 8492 183d 8bd8 8c3b
000000f0: 28ea e1bd 5bfe c8bd 49c4 e4bd 6ae3 f93d
00000100: ac89 db3c ac70 a83d 52d1 24bd e0cc 8f3d
00000110: 56db 233e cac1 4e3c e14a d03c 4828 5cbd
00000120: 37e1 933d f8fb b13d 56c5 7a3c 0f0b cc3d
00000130: fad3 973d cffa 98bd c0d6 9f3b 00ed be3d
00000140: 739b 433d 7ee7 6cbd e5b5 44bd e104 d43d
00000150: 0d63 a6bd 95bc 9cbd 9bc1 57bd 901b 363c
00000160: a803 e7bc bb28 61bd 3b67 633c f81a 9cbc
00000170: 0429 9dbd 0565 263e 00ed fa3c 2625 ec3d
00000180: cb6d 943d df7b 093e 096f d63d df46 f0bc
00000190: 2ffa 87bc 55fb b83d 89c0 083d 4c62 8c3d
000001a0: 58fa 913c 8f09 a53d 2022 4abb ead4 a839
000001b0: 0e0a 283e 44a3 f33d c2e0 ed3d fb13 1bbc
000001c0: 9a50 6139 ef29 85bd dde4 99bc 5d64 153d
000001d0: 63d2 a9bc 2e66 51bd 1dc8 193d 53bf cbbc
000001e0: 7d07 cc3d 8392 813d e8ae bf3d 2d57 24be
000001f0: 2b1c c9bd 69a9 86bb 9933 7d3d cc78 723c
00000200: 1e04 ee3d b488 c23c 800e eb3c d644 16bd
00000210: 4a12 bdbd 13d8 91bd 63ff 0b3e 73dc 38bd
00000220: b6cf e83b 22e2 1c3d 9a2b 993b 2e8c c0bd
00000230: 2978 bfbd 9fa2 a0bd 0cc8 c73b 5fc5 e0bd
00000240: 01f8 66bd 799f 9bbc 25ce 0f3c 2b9c d33d
00000250: d8df 083e ccc9 e53d 21c1 aabd 0892 00be
00000260: 9411 983b f7a1 aa3d b32d fcbc 9417 c63c
00000270: cec2 80bd 6534 833d a783 fb3c 3980 5f3c
00000280: 6e5d 923d 1a28 923d d7a3 133d c0bf 3b3c
00000290: 4814 4a3c 58dc 863d 0f76 89bc c24a 873d
000002a0: c4ee 283d 6198 85bd 61e3 1fbd 8a3c 14bc
000002b0: c63d fab9 fe23 783d ed61 40bc d77f 1fbd
000002c0: aab7 6f3c 34ca 9dbd 9589 03be 6df2 40bd
000002d0: ddec b03d f74b 5b3d e70e c33d 0dba 753d
000002e0: 2714 b23d 6168 d43d fc63 16be a22a 413d
000002f0: 8a58 ebbd 0826 49bd c23e 0d3d 482a 06be
00000300: 262f 88bc 79e6 92bd add5 fa3b 0536 2dbd
00000310: d898 a0bc 05be a33d 0a1c 02bd 9d14 02be
00000320: 4bf9 0dbd bd37 39bd 3f8a ca3d 677e e6bc
00000330: caf1 19bc 7694 4ebd 6df5 913c 8704 edbd
00000340: 9e99 a0bd 5152 53bc c2b0 66bd f34b c6bd
00000350: 3bf3 083c ff5c 5e3c b21f 34bc b67c 963c
00000360: 70a0 4c3d df8c 823d b542 be3c d439 4a3d
00000370: 98d7 a2bd ffd6 563d fbdc b3bd 5d8a a9bd
00000380: b919 b0bc 9da2 17bd 41c0 debc 12e4 09bd
00000390: 588d 523d 1329 f53c bf0a 2bbd 216a 033d
000003a0: 214f 93bc 0acc b23d ed5d 923d 5b15 1a3e
000003b0: de7d b9bd 24d7 183d f643 513d 4cdc f83d
000003c0: 365d e83d d56c e63d cf74 2e3c e713 9bbd
000003d0: be32 1bbd cccc ab3d f8a2 afbc 8b28 4a3d
000003e0: 1c9b 64bd c00f a23d a6fb 023d 7dd1 76bd
000003f0: 1f3b ecbc b892 cabc ee17 173d ec44 8dbd
0.12504897 0.092225045 0.12004091 0.12177672 -0.048839696 0.12512386 0.06597665 0.08820368
-0.025511038 0.039246377 0.103814855 0.08208033 0.06459138 0.07674039 0.08423361 -0.14391851
0.068534605 -0.027313853 -0.052923653 0.08233752 0.05366874 0.13025743 0.041839864 0.061356083
-0.03311968 0.021224115 0.046393383 0.035798382 -0.010551151 -0.020655036 0.069131404 0.08997937
0.1577619 -0.13000493 -0.06148759 0.07035082 0.11752041 0.101614624 -0.024734577 0.004394348
-0.056694806 0.08013533 0.06171409 0.07481272 0.028015582 -0.062052716 -0.061375022 0.07484527
0.16845536 0.03455181 0.0019839928 0.0047032298 0.09435654 0.06332261 -0.049902596 -0.030884841
0.0065171244 -0.07888344 0.037249103 0.004298275 -0.1103099 -0.098141395 -0.11170251 0.12201579
0.026799046 0.082246155 -0.040238686 0.07021499 0.16001639 0.012619445 0.02542633 -0.053749353
0.07220691 0.08690637 0.015305838 0.09963047 0.07413478 -0.07469713 0.004877895 0.09322548
0.04775567 -0.057837956 -0.04802503 0.10352493 -0.08124361 -0.07653157 -0.05267487 0.01111497
-0.028199986 -0.054970484 0.0138795925 -0.019055828 -0.07673839 0.16249473 0.030630589 0.11530523
0.07247504 0.1342616 0.10470397 -0.029330669 -0.016598789 0.09032313 0.03338674 0.06854686
0.017819569 0.08058464 -0.0030843094 0.0003220209 0.16410086 0.11896375 0.11615135 -0.009465213
0.00021487699 -0.06502139 -0.018785888 0.036472667 -0.020730203 -0.051122837 0.03754436 -0.024871504
0.09962366 0.06326773 0.093595326 -0.1604888 -0.09819826 -0.0041095507 0.061816785 0.014799308
0.11621879 0.023746826 0.028693438 -0.03668674 -0.09232004 -0.07121291 0.13671641 -0.04513211
0.007104839 0.038301595 0.004674387 -0.09401737 -0.093490906 -0.078435175 0.0060968455 -0.109751455
-0.05638886 -0.01899694 0.008777176 0.10332521 0.1336664 0.1122013 -0.08337618 -0.12555707
0.0046407674 0.083316736 -0.03078351 0.024181165 -0.06287156 0.06406478 0.030702425 0.0136414105
0.071467265 0.07136555 0.03604492 0.011459291 0.012333937 0.06584996 -0.016779928 0.06606056
0.04124333 -0.065232046 -0.039035205 -0.009047637 -0.0004772974 0.0605812 -0.011742097 -0.038940277
0.014631191 -0.07704583 -0.12845452 -0.047106195 0.08638928 0.053539243 0.09524327 0.059991885
0.0869525 0.10371471 -0.14686579 0.0471598 -0.11491497 -0.049108535 0.03448368 -0.13102067
-0.016624045 -0.071728654 0.0076548667 -0.042287845 -0.019604132 0.07995228 -0.03176502 -0.12703176
-0.034661572 -0.04521917 0.098896496 -0.028136445 -0.009396026 -0.050434552 0.017817223 -0.11573129
-0.078418 -0.012898044 -0.056320913 -0.09682455 0.008358772 0.013571977 -0.010993885 0.018370014
0.049957693 0.06374525 0.023225168 0.049371555 -0.079512775 0.05245113 -0.08782383 -0.08278344
-0.02149664 -0.037020314 -0.027191283 -0.03366477 0.051404327 0.029926812 -0.041758295 0.032083634
-0.017982068 0.087303236 0.07146821 0.15047209 -0.090572104 0.03731455 0.051090203 0.12151393
0.113459036 0.11251227 0.0106479665 -0.075721554 -0.03789019 0.08388671 -0.021440014 0.04935507
-0.055811986 0.0791316 0.031978272 -0.060258377 -0.028836785 -0.024728164 0.036888056 -0.068979114

module.net.2.module.0.bias f4 [32]
00000000: 15b3 b33d 9cf7 f83d db57 7e3d 0a54 f83d
00000010: 263f f7bd c9f1 69bd e170 fd3d 1b3e dbbc
00000020: 97d6 82bd 5941 2b3e a046 493e 03c3 2abe
00000030: f0b6 3a3e 0fd4 a03d a933 1fbb 0121 1abe
00000040: cf79 003e b334 683e de4e 0bbd bb97 143d
00000050: 452f d83d ea35 413d 3512 cd3d d73f acbd
00000060: 5499 1cbe 75db 8cbd 11e9 d1bd 23f5 aa3c
00000070: a319 3ebd 1425 e73d b792 c9bc 7397 e9bc
0.087743916 0.12156603 0.062095504 0.12125404 -0.120725915 -0.05711535 0.123750456 -0.026763013
-0.06388586 0.16724147 0.19655848 -0.16675954 0.18233848 0.07852947 -0.0024292266 -0.15051652
0.12546466 0.22676353 -0.03401076 0.036277514 0.10555891 0.047170557 0.10013238 -0.08410614
-0.15292865 -0.068777956 -0.10249532 0.020868843 -0.046411168 0.11286369 -0.024606092 -0.0285146

module.net.3.module.0.weight f4 [32, 32, 3]
00000000: 7465 b43d 2b0e 503d 0530 e33d d16e b33c
00000010: c160 853d 12f8 25bd 9098 79bd 03f1 12bd
00000020: 4f33 80bd 3b83 11bc 89e3 5d3d d487 973a
00000030: f3e4 52bd 6264 97bd baf1 533d dd14 6b3b
00000040: 36fc 3e3d e19b 56bd b809 3f3c fb8c 923c
00000050: e16e 8b3d a362 05ba 04ea a0bc 5584 e43d
00000060: 9852 b83d 07b4 243d 1fd4 f93d 6d05 a53d
00000070: 021d 843d 21e3 bfbd 792e cb3c e7d4 cc3d
00000080: 20a4 98bc 587f b43c ce5e 9dbd 876b d23d
00000090: a8b7 b63d e733 bbbc 8865 3cbc a7c6 e8bc
000000a0: f937 8c3d 5c39 53bd 4ef8 64bd 6953 303d
000000b0: 8de7 813d 87ca a03b 529d b93d fad1 ffbd
000000c0: 8f93 073e ae71 9cbd d620 c63d e640 fb3d
000000d0: 7eb6 86bc 250e f13c 78f7 043d 5e3c 52bd
000000e0: 779c 743d ae6c 833d 5b9d 5f3d f362 4a3d
000000f0: 9a4e 2fbd 875b 793d b726 c23d 1b04 c0bd
00000100: 8351 93bd bed5 8a3c ad0a 0e3d 1302 d43d
00000110: bb7a 1c3e e719 2e3d 8adf 37bd 705b f5bd
00000120: 4a6f c6bc cc78 08ba 9fa8 ab3d 95a5 82bd
00000130: e6dc f4bd 9c05 21be 3c23 793c 2cd3 99bd
00000140: 8193 073d 48ff 4dbc d89f febc 96fe 9fbd
00000150: c40f 293d 9eb7 8abd 0ef1 c03b e7e0 2dbd
00000160: 5be9 a43c 1cf6 ccbd 7bd7 ab3d f752 0d3e
00000170: 568a c93d 9fb7 9e3d 7fe4 57bc 235c 09bd
00000180: 6ea4 913d b50b b33d eca5 d03d 3394 153d
00000190: e49c 843d 3b24 5f3e 1b65 943c 2ed2 803d
000001a0: 6589 163d 5f52 633d 5c42 ea3c cca8 d1bd
000001b0: eea1 90bb d199 0b3e 0298 0d3d 9584 30bd
000001c0: d6c4 093d acac b4bd 91f1 703d 781b b6bd
000001d0: 4cf3 e3bd 42a8 ce3d 2717 22bd 109f d93b
000001e0: 3399 de3d 2c13 2fbd f9cf 523d bb20 d83d
000001f0: b2cb 693d 41d2 763d e90d 723d 54f0 1e3c
00000200: a327 c63c 4f13 b4bd 5b94 4abb 02e6 5fbd
00000210: d479 9c3d 7223 c03d c6e0 f13d aa32 1fbd
00000220: 9eef 843d 131d ffbd e5ba a7bc 159c 1bbd
00000230: 4338 bd3c 0119 f7bc a5bc bc3d dfd7 b8bc
00000240: af0e b13d 98a1 b83c 27e5 42bd 22a7 0e3c
00000250: f3a5 0d3d cb77 413c 2574 06be 2fff 40bc
00000260: dda9 e5bd c052 ec3d 8714 0a3e 58fe fb3d
00000270: bd7f 86bc b76a c0bd da4c bfbd ca49 343d
00000280: a269 013e ab52 653e 0493 47be 0580 a7bc
00000290: 9746 6fbd 7b04 17bd ec46 913d 7cf7 b4bc
000002a0: 5aa4 ba3d a66c adbc c34d 04bd 34b2 ce3b
000002b0: 99d6 8cbc 7892 19be 3372 b6bd 8770 d73d
000002c0: c98c 2f3c 9036 e9bd 02db e1bd bfdc 10be
000002d0: e6bd a23b 9829 e03c 4725 76bc 1014 e03d
000002e0: f2e8 a83d d5b8 7f3d 3644 15bd e952 46bd
000002f0: 59e8 9fbd 0e79 91bd bd90 96bd f18c adbd
00000300: 43aa 65bd c3ba a0bd 797b 71bc 0257 383d
00000310: ab12 88bd d5e9 abbd 1431 043c da67 e9bd
00000320: 26b1 cc3c 88dd 043d 58ab 19bd 141d 9e3d
00000330: 8ce0 153e 4ff4 923d a388 cb3c 0caa 223d
00000340: 902a f13c f6e7 34bc 3147 0f3d 31e5 60bd
00000350: ff1b 893d 2d7f 6e3d 0d48 b03b f1ee de3d
00000360: 1fb3 ebbc 53eb 9cbd bac9 3dbc 6518 41bc
00000370: 013a 8ebc 4931 e8bd 3050 61bd 05b0 d83d
00000380: df96 b23b 287a b7ba 4d2d 16bd e46c 983d
00000390: 7d46 d1bd 825c 31bd 0fff 92bd ce78 6fbd
000003a0: fb12 4bbd f1e2 ee3d 45ec f3bd 96c7 e3bc
000003b0: 87ba e53d 746c 4fbd 1f70 96bd 12a7 8dbd
000003c0: 77df 5c3d fcd4 e73d bf5b afbb 85fc 64bd
000003d0: bf4e 66bd a799 bf3d f5af c73d abf5 153d
000003e0: 2bfb b33d 8ff1 9aba 8e89 5ebd 5150 cebd
000003f0: c63f 473d c79c dd3d 58c1 d3bd 2a15 91bd
0.08808413 0.05079476 0.110931434 0.021903427 0.06512595 -0.04051978 -0.06093651 -0.035874378
-0.06259786 -0.008881385 0.054172073 0.0011560866 -0.051487874 -0.073921934 0.0517442 0.003587059
0.046627246 -0.05239475 0.011660032 0.01788949 0.06808258 -0.00050882454 -0.019642837 0.11158053
0.090001285 0.04021075 0.12198662 0.080576755 0.06450845 -0.09369493 0.024802433 0.100015454
-0.018632948 0.022033378 -0.07684098 0.102744155 0.089217484 -0.022851897 -0.011498816 -0.028415037
0.068466134 -0.051568374 -0.055900864 0.043048296 0.06342993 0.0049069556 0.090632096 -0.12491222
0.13239883 -0.0763887 0.09674232 0.12268238 -0.01644444 0.02942569 0.032462567 -0.051327102
0.05971953 0.064172134 0.054593425 0.04941077 -0.04279957 0.060878303 0.094800405 -0.09375783
-0.071932815 0.016947623 0.03467815 0.10351958 0.15281193 0.04250517 -0.044890918 -0.11980331
-0.024222989 -0.00052059884 0.08381771 -0.063792385 -0.119561955 -0.15724796 0.015206154 -0.07510981
0.033099655 -0.012573071 -0.031082079 -0.0781223 0.0412748 -0.067733034 0.005888111 -0.04245081
0.020130804 -0.10007879 0.08390709 0.1380118 0.098408386 0.07749867 -0.013177036 -0.033535134
0.071114406 0.08742467 0.10187897 0.036518287 0.06475237 0.21791165 0.018114617 0.062900886
0.036752123 0.055498477 0.028596096 -0.102372736 -0.004413835 0.13632895 0.034568794 -0.04309519
0.033634983 -0.08821997 0.058824126 -0.08891958 -0.111303896 0.100906864 -0.03957286 0.006641276
0.10869064 -0.042742893 0.05146787 0.10553118 0.057079025 0.060259108 0.059095297 0.009700853
0.024188822 -0.08792745 -0.003091118 -0.054662712 0.07640424 0.09381761 0.1181045 -0.038866676
0.06491016 -0.12456717 -0.02047486 -0.03799065 0.023098117 -0.03016329 0.092156686 -0.022563873
0.08645379 0.022537991 -0.047581818 0.00870684 0.03458209 0.011808346 -0.13130243 -0.0117795905
-0.112140395 0.11539221 0.13484393 0.123043716 -0.016418332 -0.09395354 -0.0934083 0.044015683
0.12637952 0.22394817 -0.19489676 -0.020446787 -0.05841693 -0.036869507 0.070936054 -0.022090666
0.09113379 -0.021169972 -0.03230072 0.0063078646 -0.017192172 -0.1499728 -0.089085005 0.1051951
0.010714718 -0.1138736 -0.110281006 -0.14146708 0.0049664853 0.027363583 -0.015023536 0.109413266
0.08247556 0.06243213 -0.036442004 -0.048418913 -0.07807989 -0.071031675 -0.073518254 -0.08474148
-0.056070577 -0.07848122 -0.014738911 0.045004852 -0.06644186 -0.08394209 0.008068342 -0.11396761
0.024986815 0.03243783 -0.03751692 0.0772039 0.14636439 0.071755044 0.024845427 0.03971295
0.02943924 -0.011041632 0.034980003 -0.054906074 0.06694793 0.058226753 0.005379683 0.10885418
-0.028771935 -0.07662072 -0.01158374 -0.011785601 -0.017361643 -0.113375254 -0.055008113 0.10580448
0.005450114 -0.0013998197 -0.036664296 0.07442644 -0.10218523 -0.043301113 -0.07177555 -0.058464818
-0.049578648 0.116643794 -0.11910299 -0.02780513 0.11217218 -0.05064054 -0.07345604 -0.06916632
0.05392405 0.113199204 -0.005351513 -0.055904884 -0.056227442 0.09355479 0.09750358 0.03661124
0.08788141 -0.0011821258 -0.0543304 -0.10073913 0.048644803 0.108209185 -0.10339612 -0.07084115

module.net.3.module.0.bias f4 [32]
00000000: a2ad 9a3d dc68 59bd a923 64be cbc5 873e
00000010: 8888 003c 2887 2cbd 86b9 79bd 0418 153e
00000020: edc0 f53c 5c0a 23be c0d5 053e a885 09bd
00000030: abdb 96bd 1a90 f3bc 150e 993d 29b4 2dbe
00000040: 011d 00be 5e51 e43d 053d f5bd ca5b 4d3e
00000050: 0f75 3f3c aab3 e43d 4a8c 7a3d 17b0 64bd
00000060: e0e0 93bd e0d4 c03c 304e 953d d725 b8bd
00000070: d70d 07bd 56c8 693e 3793 a33d e7c7 133e
0.07552649 -0.053078517 -0.22279228 0.26518092 0.007845052 -0.042121083 -0.060967945 0.14559942
0.02999922 -0.1592192 0.1306982 -0.03357473 -0.07366117 -0.029731799 0.07473389 -0.16963257
-0.12511064 0.11148332 -0.11974529 0.20054546 0.011685624 0.11167081 0.061168946 -0.055831995
-0.07220626 0.023539007 0.07290304 -0.089915924 -0.032972183 0.22830328 0.079870634 0.14431725

module.net.4.module.0.weight f4 [32, 32, 3]
00000000: 2070 cf3c ea9d 663d 32b9 913d bc00 6abd
00000010: 9cdc 57bd a2a4 febd 7c59 1ebe 44c5 9fbd
00000020: 9ef4 713d ec40 5d3c 36c6 4abd ff58 7cbd
00000030: 2466 2c3d b4b6 98bc 8589 d43a 03b3 fb3c
00000040: bc99 d7bd 95bb 363d e75f ad3b bfd7 acbd
00000050: 515e 7ebd fe4e 9b3d cdcf 1f3d 233f bebd
00000060: 95dd 333d 5257 623d 8e64 15bc cec3 58bd
00000070: 005e edbc cb43 0ebe 5f48 be3d 371d 0ebd
00000080: bbe5 bc3d 6832 88bd 1c77 d5bc 85fd 023d
00000090: e055 393d 8a52 96bd 9f76 063d b0da 40bd
000000a0: e21b 9dbd b915 33bd bfb2 013d 15bd d4bb
000000b0: 38e4 babb 3c86 6e3d e3c5 00bd 4a47 f43c
000000c0: 8771 093d 5139 293c 55a8 83bd e476 96bd
000000d0: fd16 d6bd 31ce a0bb 07f2 3d3d 7072 853d
000000e0: 57ab d4bc 9ef6 0cbc 0441 bf3d 452a edbc
000000f0: 2947 573d eac1 b03d acd5 dfbb c1c4 e8bc
00000100: 9970 14bd 7a69 163d 855e b73d 7ae9 52bc
00000110: 4e00 613e 81d9 a33d 4dc3 783d 70cd df3c
00000120: 2aac c3bd 699c 02be 250c 633d e3f5 a3bc
00000130: dc9b 05bd 3ae0 bbbc d4a7 513d 1b34 c2bd
00000140: c214 58bc 11f5 833d 9c51 903d 7bc3 45bd
00000150: 15d6 86bd 95d9 343d 1ab3 7dbd dca6 d8bd
00000160: 1566 373d 09d1 99bd 9e33 523c a811 0cbd
00000170: 848c 843d 2285 773d e931 d83d 2902 063d
00000180: 88c2 863b db08 a3bd 207b 78bd 57e7 3f3c
00000190: 8d14 023d 4f14 b53c e62b 3eba 5623 943d
000001a0: 69fe 633d c142 8a3c fe81 aebd 28a5 c8bd
000001b0: be96 cabd d48f b6bd 3d3d 8fbd 0be5 c0bd
000001c0: 2996 6c3d ffdd 4f3c 96b2 89bd a1fe b03a
000001d0: 5142 5a3c 662c b7bd 8618 0a3d 91ef 7abd
000001e0: 0b59 603d 767d 083d 82a2 733d e0c7 9f3d
000001f0: 6df6 933d fa3c e2bd 7356 d13c 57cc 703d
00000200: d475 d5bc 4ee7 98bd 7a52 94bd 042b 593d
00000210: ac22 3c3d ea70 58bd 1b7f 7f3c f44b 32bd
00000220: 1181 8dbc a8e9 653d e418 bbbd f360 373d
00000230: 91ac a33b 5a02 46bc 0542 8bbc 2b83 90bd
00000240: 24cf 7fbd 3b31 953c 18fb 1d3d a2e0 7c3d
00000250: 7bdb 4c3c 7bd9 15bc 2a2b c83c f2b7 f03c
00000260: d0d4 31bd f8ee ea3c 875c a43d a88d a9bc
00000270: 495d f73c dd3a c2bc 382b ae3c 9796 59bd
00000280: f370 8ebb c07c 423d c727 cf3c 55e6 ec3d
00000290: f87d 9e3d 580d c03c 7432 873c 0f8c 9fbc
000002a0: c156 b23c f132 6e3c 956c 3c3d 54ad 7f3d
000002b0: 48fc 213d be8c 6ebd ef75 91bd 37fe 8b3d
000002c0: 8ac7 e73c 69e9 55bd e704 153d f52a 2ebd
000002d0: 4727 33bd 8ae3 3dbd aaaa b7bd ccf5 0abd
000002e0: d0e1 ffbc 282d cabd 9c8c 643d c2e4 87bd
000002f0: 03d2 613d e4df 98bd 3628 8a3c 5dd0 103d
00000300: 3d12 de3d 2b22 433d fefe 22bd 3f32 963d
00000310: adc5 80bc e307 b23c b37f 103e 35fa 32bc
00000320: 85e8 9aba dbef 9bbc c03c 833d cf63 9a3d
00000330: d8b4 ea3d 1b5b a53d 000c 1f3e dbbb 4dbd
00000340: 843f 723d 30e5 0e3d 9f6a a1bc b178 e5bc
00000350: 0bb2 3f3c 7602 7bbd 761d 8b3d 5891 013c
00000360: 9c66 c73d bf58 a7bd 565f c2bd e51a c2bd
00000370: 231f f7bd 224e 1cbd 7ebe b6bd e1a5 02bd
00000380: cb63 10be 20b9 ab3b 7b1c 933d fd64 e23d
00000390: 21a7 f7bc 5bc2 6f3d dd3a 3b3d bc24 0e3d
000003a0: bfa7 a33d c300 d3bd 63e9 abbd 6d75 92bc
000003b0: 57d7 b7bd 474d e7bd 7dd2 873d 236d 7f3c
000003c0: cc6d dd3d 16f7 aebd 9b2a fabd 22f7 ffbc
000003d0: 7d56 a7bd 5e2a 44bd 179f 91bc d080 cbbb
000003e0: 40a5 5cbd 9f5e d4bc 1324 8e3c eca1 503d
000003f0: 8f38 ad3d a880 853d a2b1 883d a269 d63c
0.02532202 0.056302942 0.07115401 -0.057129607 -0.052700624 -0.12433745 -0.15463823 -0.07801297
0.059071176 0.013504248 -0.049505435 -0.06160831 0.042089596 -0.018641807 0.00162153 0.030725008
-0.105273694 0.044612486 0.0052909735 -0.08439588 -0.062101666 0.07583426 0.039016534 -0.09289386
0.04391249 0.055259056 -0.009118212 -0.05292111 -0.028975487 -0.13893048 0.092911474 -0.03469583
0.09223505 -0.06650239 -0.026057772 0.031980056 0.045247912 -0.07339962 0.03282797 -0.047083557
-0.07671334 -0.04372189 0.031664606 -0.006492267 -0.0057034753 0.058233485 -0.03143872 0.02981915
0.033555534 0.010328607 -0.06428591 -0.07346895 -0.104536034 -0.0049073924 0.046373393 0.06515968
-0.025960607 -0.00860372 0.093385726 -0.02895082 0.052558098 0.08630736 -0.0068308916 -0.028414132
-0.036240194 0.036721684 0.08953575 -0.012873048 0.21972772 0.0800047 0.06073313 0.02731964
-0.09554322 -0.12754978 0.055431504 -0.020014709 -0.032619342 -0.022934068 0.051185444 -0.094825946
-0.013188543 0.06443227 0.07046816 -0.048282128 -0.06583802 0.044152815 -0.061938383 -0.10578701
0.044775087 -0.075105734 0.012829689 -0.034196526 0.06472114 0.0604297 0.105563946 0.032716904
0.0041125454 -0.079606734 -0.060664296 0.011712871 0.03175788 0.02210441 -0.0007254466 0.07233302
0.055662546 0.016877534 -0.08520888 -0.09797126 -0.09892033 -0.08914152 -0.06994102 -0.094186865
0.05776039 0.012687205 -0.06723516 0.001350362 0.013321475 -0.08944015 0.033714794 -0.061263625
0.054772418 0.033322774 0.05948115 0.07801795 0.07224736 -0.110467866 0.025553918 0.058788624
-0.026057161 -0.07465993 -0.07242294 0.05301954 0.045931503 -0.05284206 0.015594269 -0.043529466
-0.017273458 0.056131035 -0.09135607 0.044770192 0.0049949368 -0.012085522 -0.016999254 -0.07056268
-0.062453404 0.018211951 0.03856954 0.061737664 0.0125035 -0.00914609 0.024434645 0.029384587
-0.043415844 0.028678402 0.08025461 -0.02069743 0.030195849 -0.023709709 0.021260843 -0.05312213
-0.0043469607 0.047482252 0.025287522 0.1156737 0.077388704 0.023443863 0.01650355 -0.019475965
0.021769883 0.014538513 0.04600199 0.062421158 0.039547235 -0.05823969 -0.07102572 0.06835597
0.02829339 -0.05222455 0.03638163 -0.042521436 -0.04373863 -0.046359576 -0.089680985 -0.033925816
-0.031235605 -0.09871894 0.055798158 -0.06635429 0.055131923 -0.07464579 0.016864877 0.03535496
0.108433224 0.047640007 -0.03979396 0.073338024 -0.01571926 0.021732276 0.14111213 -0.010923912
-0.0011818564 -0.01903527 0.064080715 0.07538568 0.114602745 0.080740176 0.15531921 -0.05022798
0.059142604 0.03488654 -0.019704161 -0.028011652 0.011700164 -0.061281644 0.067927286 0.007908188
0.09736368 -0.08171224 -0.0949084 -0.09477786 -0.12066486 -0.03816045 -0.08923052 -0.031896476
-0.14100568 0.0052405745 0.071831666 0.11054418 -0.03023106 0.05853496 0.045710433 0.034703
0.079909794 -0.1030288 -0.08394124 -0.017878259 -0.0897662 -0.11294036 0.06631944 0.015589985
0.10811958 -0.08543222 -0.122151576 -0.031245772 -0.08170793 -0.047891967 -0.017776055 -0.006210424
-0.053868532 -0.025924025 0.017351186 0.05093567 0.08458053 0.0651868 0.06674506 0.026173417

module.net.4.module.0.bias f4 [32]
00000000: c364 093e d0fc 873c c387 5abd dcdb 043e
00000010: bac2 85bd 1e60 513d 57e0 403d 9eeb e8bb
00000020: 48b3 f8bd f183 70bd d465 733e 36e2 e4bb
00000030: 29c5 883d f679 fb3b 5d10 663d de99 42be
00000040: f644 4d3d e08f 1e3d f76f 2ebd 62a8 fc3d
00000050: 1105 d23d 9acd c93a 0a82 e6bd ced2 373d
00000060: b747 30be de15 eebd b671 a23c 3c91 593d
00000070: 1aea 9e3d 4976 c43d d537 303d 5342 13bd
0.13417344 0.016600043 -0.05335213 0.12974495 -0.06531282 0.051117055 0.047088947 -0.007108166
-0.1214357 -0.05871958 0.23769313 -0.0069849743 0.0667823 0.007674451 0.05616795 -0.19004008
0.050114594 0.03871143 -0.042587247 0.12336804 0.102548726 0.0015396357 -0.11255272 0.044878773
-0.17214857 -0.116252646 0.019829612 0.053117022 0.07759495 0.095928736 0.043021996 -0.035951924

module.net.5.weight f4 [32, 32, 3]
00000000: b043 4a3c af01 9f3c e769 af3d 40e0 ddba
00000010: c113 d93c 420e 0abd 1311 e43d ebdf 463d
00000020: 95d2 41bd c4d4 c7bd b944 68bc 6ef1 6e3d
00000030: 3057 043e af24 b9bc 3f03 143e 5441 a0bc
00000040: b75c a73d 5187 19bd 6ff3 5cbc 2a64 f6bc
00000050: 048f b0bd 43c2 723c c32f 8b3d b91c 85bd
00000060: 1a3f 183e 1e92 25bd 9ff6 86bd 22cf 84bd
00000070: 292e 613d f961 96bd 9231 8b3c 629a 0a3d
00000080: ba04 cabd 69ae 1c3d 9760 113c f88a f6bb
00000090: 6b15 1bbc d48d 173c 83db 36bc 37af 9639
000000a0: 601e 8dbd b0fb c1bd b2b2 fbbd fa75 14bd
000000b0: 344e dfbd 7caf f03b f4c3 92bd b718 a3bd
000000c0: e07d a93d e55d 1d3d c137 093a 94df 58bd
000000d0: 31a2 0d3d cc82 5bbc 8519 1ebd 9dab 193d
000000e0: 5b23 473c 839d 86bd f971 c83d bd40 f03c
000000f0: 2f43 9cbd 9fcf bbbd 2938 273c 103b 873d
00000100: 078d d03d 2ee8 093d b49c 76bd 3d93 8ebc
00000110: fb84 c4bc b0e7 0abe 81b3 053d 5630 0ebe
00000120: 9334 3dbd f5b1 a73c 2126 9f3d cc01 edbc
00000130: 4cb0 60bd 90a8 cfbc e7f4 c7bd a60a 53bd
00000140: ae70 023c 2b5a 8abd 3256 9e3d 158d cf3d
00000150: 5329 913c c3a5 e83c c2b3 2d3e 69d0 00be
00000160: d0e5 c4bd 9189 0cbd 7bf9 cd3c 8e2d ed3d
00000170: eaff 243e 6d45 973d fba7 84bd 1003 0d3d
00000180: 08d7 aa3c ef7a 59bd 6c77 fbbd 24ff 82bd
00000190: a36c 8f3d 95ba d23d b839 9dbd e17a 15bd
000001a0: 876d 88bd 38c9 993d b48e 543c dbc0 303d
000001b0: 907b 71bb d7bc 91bd d38d 07bd 83bf 103e
000001c0: eee0 4d3c eab7 b53d fd50 a03d 0a61 8d3d
000001d0: f111 4bbd 13a7 9a3c 803c f3bd 8336 dabd
000001e0: 7bfb 40be c8f2 4fbd d1be c03d 9c04 363e
000001f0: 0a0c 9c3d 06da 103e 6d87 48bb f8d4 e83c
00000200: e11d cc3d d6c8 3ebc a19e 8abd 77f3 8fbd
00000210: 058f d73c 6f2d 5bbd 98b9 ac3d c141 a63d
00000220: de25 f33d 6c14 e03d 6fb6 babd dfcd a63d
00000230: 6de6 1f3d 66f9 c1bc 9e68 f33c 621c 0e3e
00000240: 992c edbd 30d2 fcbd 0cd7 abbb e207 493e
00000250: a69e 2d3e af48 4a3e be81 8abd e98a 44bd
00000260: 6492 ac3d 566e 34bd a9f5 20bd a274 abbd
00000270: b708 09bd 2a03 063d cde3 9cbd b168 a0bc
00000280: 4e02 13bd 0765 00be 3823 2e3c 2d82 fabc
00000290: 413a 17be 1b94 183e c555 163e cda8 213e
000002a0: 0655 ac3d 8f48 f6bb 8ddc c03d c10e 0d3e
000002b0: 5aa9 bd3c 39d2 453e a9bf f13c e584 54bd
000002c0: 7f10 e43c 1b4e 2abb a4d2 c1bd 1d1f a93d
000002d0: 021d 84bd 66db a73c 95e9 0bbe 7707 273c
000002e0: ed5a 9b3c 1b17 00bd 433a 9b3c 8e41 08bd
000002f0: e19e 8abd 80cd e7bc 15a7 4c3d c4c6 aebd
00000300: a774 0fbd c686 e4bd 19fe 763c cf20 9ebd
00000310: 1589 fa3d 5399 0e3c 1bf9 3c3d dded 82bd
00000320: 0f6f 4d3d 183e f0bd 3505 c1bd 2c41 fbbd
00000330: dafd 973d 07c3 ddbc e986 0e3e bfec 053e
00000340: c142 39bd 21af be3d 907a 913c 4b71 01be
00000350: 17f4 22bd 6667 cbbd a675 96bc d18a a83d
00000360: 4e3d ba3c 122c b93a 1b1b d3bb 3c75 b43c
00000370: 7514 923d 2b3a 773d b069 88bb 6466 273d
00000380: 3443 4abd 9e4a e0bd a20e aebb 24eb 83bd
00000390: 5904 0d3e a009 7d3c 615e 8d3d 6b85 a7bd
000003a0: 643c 213c 72e5 babd f94a 33be 7d8c f5bd
000003b0: c140 b5bd 1ca0 cd3d 5156 2ebd d5e7 323d
000003c0: c416 803d b23a 86bd 3901 0dbd 2dc0 a13c
000003d0: 6f54 2e3c ce92 2d3e 9d9a a7bd fe5f 613d
000003e0: 37ee 033e 1558 50bd db96 b2bc 4a56 04be
000003f0: 87f0 4e3d 354b 73bd 45df f7bd 1977 583d
0.0123452395 0.019409982 0.08565121 -0.0016927794 0.026498677 -0.033705004 0.11136069 0.04855339
-0.047319967 -0.09757379 -0.014176541 0.058335714 0.12923884 -0.0226005 0.14454363 -0.0195624
0.08171981 -0.037482563 -0.0134857735 -0.030077059 -0.08621028 0.014816823 0.06796219 -0.06499619
0.14867821 -0.04042255 -0.06590008 -0.0648482 0.054975662 -0.073429056 0.01699141 0.033838637
-0.09864183 0.038252268 0.0088731265 -0.0075238906 -0.009465556 0.009250123 -0.011160734 0.00028740775
-0.06890559 -0.09471834 -0.12289943 -0.036245324 -0.10903588 0.007345138 -0.07166281 -0.07963698
0.08275962 0.038419623 0.0005234443 -0.052947596 0.034578506 -0.013397884 -0.038598556 0.03751718
0.0121544255 -0.06573012 0.097873636 0.029327745 -0.07630002 -0.0917046 0.010206261 0.06603062
0.10183149 0.03366869 -0.060208037 -0.017404193 -0.023989191 -0.13564944 0.03264189 -0.13885626
-0.046192717 0.020470599 0.077709444 -0.02893152 -0.05485563 -0.025348932 -0.09763508 -0.051523827
0.007961435 -0.067554794 0.07731284 0.10134331 0.0177199 0.028399354 0.16963103 -0.12579502
-0.09614146 -0.03431088 0.025143376 0.115809545 0.16113248 0.07386289 -0.06477352 0.03442675
0.020854488 -0.053095754 -0.12278637 -0.063963205 0.07003143 0.10289494 -0.076770246 -0.03649414
-0.06661516 0.075090826 0.012973476 0.04315267 -0.003684733 -0.071160965 -0.03309424 0.14135556
0.012565834 0.088729694 0.07827947 0.06903274 -0.049577657 0.018878495 -0.11876774 -0.106549285
-0.18845932 -0.050768644 0.09411395 0.17775196 0.07619484 0.1414567 -0.0030598298 0.028421864
0.099666364 -0.011644563 -0.06768537 -0.07028859 0.026313314 -0.053510126 0.08433837 0.0811801
0.11872457 0.10941395 -0.09116828 0.081447355 0.03903811 -0.023678493 0.029712971 0.13878015
-0.11580772 -0.123447776 -0.0052441414 0.19631913 0.16955051 0.19754289 -0.067630276 -0.047984038
0.08426359 -0.044050537 -0.03929678 -0.08371855 -0.033455577 0.03271786 -0.07660637 -0.01958117
-0.03589087 -0.12538539 0.010628514 -0.03057965 -0.14768316 0.14900248 0.14681156 0.15787049
0.084146544 -0.007515974 0.09417067 0.1377516 0.023152042 0.19318475 0.029510336 -0.05188455
0.027839897 -0.0025986496 -0.09464005 0.082578875 -0.06450845 0.02049036 -0.13663323 0.010194651
0.018964255 -0.031272035 0.01894868 -0.033265643 -0.06768585 -0.028296232 0.04996403 -0.08534005
-0.035023358 -0.111585185 0.01507523 -0.077211015 0.122331776 0.0087035475 0.046136003 -0.06393025
0.05015474 -0.117305934 -0.09424821 -0.1226829 0.07421465 -0.027070535 0.13918652 0.13078593
-0.045229677 0.09310747 0.017758638 -0.12640874 -0.039783563 -0.09931831 -0.018366646 0.08229602
0.02273431 0.0014127514 -0.00644244 0.022028558 0.07132808 0.060358208 -0.0041629896 0.04086913
-0.049380496 -0.10951732 -0.005311803 -0.06441334 0.1377119 0.015444189 0.06902767 -0.08179744
0.009841058 -0.091257945 -0.17509069 -0.11989687 -0.088502415 0.10040304 -0.042562786 0.043678124
0.06254342 -0.06554164 -0.034424994 0.019744957 0.010640248 0.16950533 -0.08183787 0.055023186
0.1288384 -0.05086525 -0.02180045 -0.12923542 0.050522354 -0.059397895 -0.12103132 0.052847955

module.net.5.bias f4 [32]
00000000: c7a0 933c c9e7 afbd 6923 ec3b a1e7 20be
00000010: 8de7 313a c5b2 b2bd 7c37 f03c eba3 1dbc
00000020: dab3 4b3c 9413 3bbd 0053 113d b41a 473e
00000030: b2f9 723c aa31 0f3e f140 a0bd 3620 56bd
00000040: aa57 bd3d 5942 c23d ab2c 1e3c e3f4 183d
00000050: c4c3 1dbe 08da 6a3d eff2 29bd 6855 2b3e
00000060: 9d63 45be 3e61 1e3d f787 173e d780 9fbd
00000070: 0ced 8ebd f8c4 633d 2e13 bcbd a505 ce3c
0.018021 -0.085891314 0.0072063697 -0.1571336 0.0006786518 -0.08725504 0.029323332 -0.009621601
0.012433017 -0.045672968 0.035479546 0.1944378 0.01483004 0.13983789 -0.078248866 -0.052276812
0.09245236 0.09485311 0.009654204 0.037342917 -0.1540671 0.057336837 -0.041491445 0.16731799
-0.1927628 0.038666956 0.1479796 -0.07788246 -0.06978807 0.055607766 -0.09183346 0.025149176

exp_avg f4 [32, 45, 2]
00000000: 721f 7db9 493a 55b9 1197 7a3a d28e 21bb
00000010: 3057 32b9 6a16 2eba 7719 09bb ae51 9738
00000020: 3c7f 31bb 0abd 93b9 ba19 d6b9 3615 c539
00000030: 8aa3 ffbb a98b 2cbb de02 aabb ec56 b3bb
00000040: 7dcd dbb9 c71c abb9 0ccd f838 0db2 2cba
00000050: 84eb 1d3a a42f 2fb9 740d 3e37 4d63 9939
00000060: b877 30ba 8c23 71ba 04cb feb9 5aca 273b
00000070: b628 213a 9b67 45bb 1846 afb9 2442 e8ba
00000080: 9ef2 c939 a8b4 68b9 ead8 5e3b 09f9 623b
00000090: e069 1c3a 84f3 82ba 31ae 883a 6c12 243b
000000a0: a653 943a 1287 d73a 225d cfb9 b852 6b38
000000b0: 0864 1639 8248 70ba 81b2 46bb 85f4 06bb
000000c0: 8090 64b7 040e 723a 4c1b 913a b48d 0fba
000000d0: 512a 5a3a d816 f6b8 10ab 14bb f004 9d39
000000e0: 0000 0000 0000 0000 38e4 4cba 3d59 3abb
000000f0: 90ce f23a 60a1 6b3a 3679 8f3a 0835 8f38
00000100: 1cd4 b039 a11e 01ba 2b31 1fb9 472b 40b9
00000110: b920 aaba 2e62 4db9 13fd 53bb 3f6a 08bb
00000120: 5cb0 e537 eed0 2538 bc15 80b8 11d0 92b8
00000130: 8302 7537 02b6 9239 a4c1 1eb7 4896 9cb4
00000140: f334 9bb8 005f e5b7 9797 1b3a cc2b 0f39
00000150: 010f 2a39 5173 aa39 16f4 e2b9 1fdf 81ba
00000160: dc43 013c 69fe 46bb c702 e2b7 3e9a 9cb8
00000170: a3e5 13ba fade ccb9 c618 29b8 2e41 17b9
00000180: a451 77ba 6027 2737 1111 2dbb ff88 2bbb
00000190: ea05 8d38 0efd 2ab9 4eb6 83bb a97d 85bb
000001a0: 5e47 72bb 10a0 1cbb 6c27 71b8 253c 5138
000001b0: 248c 3fba 2143 09ba 9612 7939 4a72 39b8
000001c0: 9e63 3338 44fb 6a37 382a d9ba ea75 c5ba
000001d0: b67d 8fba b6c7 74ba 6078 28b9 9c6c 02ba
000001e0: 7c3e 4139 1c4b c0ba 90de 8439 7c3c 5f37
000001f0: ffb3 1bba 975b 8aba 30c7 69bb 5a36 8bba
00000200: 2e5d 1ebb fb03 b339 b823 c2ba 076f 03bb
00000210: f0d1 92b9 885a 5738 ba41 7cb9 1c1b ba39
00000220: ca45 24bb 6112 abba 7253 52ba 3013 9e39
00000230: 807a 99b7 c42d c139 1e91 b339 41da 3437
00000240: c1f5 51ba 8e9f 14ba 0000 0000 0000 0000
00000250: b242 a8ba e867 14bb 5d86 8bbb e03d fab9
00000260: d3ed c6b9 7f4d 8eba c801 1db7 0ab1 8d38
00000270: c104 ebb7 b938 46b8 a326 fdb9 7aba 32b8
00000280: 5c74 ffb9 b283 6bba 5e03 bc36 d235 1b36
00000290: 839a eeb7 b05d 31b5 984c 4ab8 5e13 d338
000002a0: 51e1 5232 b73f 9834 570c 52b8 faf9 83b7
000002b0: 47f7 35b9 df97 1ab9 0466 5d38 dd5b 4639
000002c0: f9a5 6cb8 6464 4eb9 163d ddba 001f 68bb
000002d0: 423b fab8 eb4a f1b8 20d4 21ba d5a8 6aba
000002e0: 76c1 5dba 2536 81ba ae58 97ba 5e83 e3b9
000002f0: 420e 02bc fc21 dbbb 2e93 fab9 5a9e ddb9
00000300: f858 a0bb 1238 bebb 22e3 69bc fe66 71bc
00000310: 7939 fc39 ae27 7539 a0b1 40ba 8183 d5b9
00000320: c320 b1b9 326c 3dba f8ff 52b6 c2b0 8938
00000330: e03d 7139 007a 97b8 9058 11b9 1a2f d5ba
00000340: e0fa 7d3a de0f 623a 10cd fab9 2465 3d3a
00000350: 48d7 3d39 c0b5 8436 202c cf39 6c37 9639
00000360: d4b7 ecba 9617 14bb 7d9b b9ba 005a d339
00000370: 40d4 f13a a733 173b faba 443a 27e0 8b3a
00000380: 3299 fe39 584d c03a 3007 64bb f6de 8ebb
00000390: 980f 2739 e600 e539 4440 7cba 1835 1fbb
000003a0: 4467 8139 486e 1439 2c0b daba 9863 3dbb
000003b0: 0000 0000 0000 0000 1f8d da3a d836 76ba
000003c0: 525f 05bc 1026 8cbb e62a c5ba 269c c1ba
000003d0: 82d3 bd39 8e45 8c39 0047 78b9 5658 66b8
000003e0: 1e20 2cb9 9691 a7b9 c0a6 23bb 41c2 75ba
000003f0: b95d 1838 a957 2038 f800 20b7 e8a6 5cb7
-0.00024139674 -0.00020334976 0.0009559254 -0.0024651778 -0.00017007883 -0.0006640913 -0.002091972 7.215455e-05
-0.0027083894 -0.0002817887 -0.00040836429 0.0003759057 -0.007801478 -0.002632836 -0.00518833 -0.0054730084
-0.00041924036 -0.00032637102 0.000118637545 -0.0006587811 0.0006024169 -0.00016707048 1.1328015e-05 0.0002925642
-0.00067317067 -0.00091987173 -0.00048597914 0.0025602789 0.0006147729 -0.0030121568 -0.00033430825 -0.0017719907
0.0003851847 -0.00022192544 0.0034003803 0.00346333 0.00059667043 -0.0009990786 0.001042789 0.0025035394
0.0011316433 0.0016443452 -0.00039551506 5.6105404e-05 0.0001434238 -0.0009166078 -0.00303188 -0.0020592522
-1.3623503e-05 0.0009233656 0.0011070757 -0.00054761325 0.00083223457 -0.00011734449 -0.002268497 0.00029949052
0.0 0.0 -0.00078159897 -0.0028434538 0.0018524695 0.00089885853 0.0010946158 6.828649e-05
0.0003372737 -0.00049255235 -0.00015181738 -0.00018326669 -0.0012979723 -0.00019586898 -0.003234689 -0.002081528
2.7381051e-05 3.9533646e-05 -6.107564e-05 -7.000578e-05 1.4603723e-05 0.00027982896 -9.462619e-06 -2.9166608e-07
-7.4008385e-05 -2.7343165e-05 0.00059353694 0.00013653858 0.00016218053 0.00032510844 -0.00043287937 -0.0009908414
0.007889714 -0.0030364043 -2.6942593e-05 -7.4673895e-05 -0.00056418235 -0.00039076043 -4.0315812e-05 -0.00014424764
-0.00094344676 9.963143e-06 -0.0026407877 -0.0026174185 6.7245055e-05 -0.00016306734 -0.004019535 -0.0040738177
-0.0036968808 -0.0023899116 -5.7495592e-05 4.9885497e-05 -0.00073069544 -0.0005236138 0.00023753414 -4.4213877e-05
4.27697e-05 1.4005989e-05 -0.0016568368 -0.0015065048 -0.0010947499 -0.00093376206 -0.00016066572 -0.00049752905
0.00018429192 -0.0014670822 0.00025342824 1.3305918e-05 -0.0005939602 -0.001055586 -0.0035671704 -0.0010621056
-0.0024164426 0.00034144506 -0.001481167 -0.002005519 -0.00028003706 5.134431e-05 -0.00024057078 0.00035496883
-0.0025066012 -0.0013051742 -0.00080232986 0.00030150404 -1.8296065e-05 0.00036845927 0.0003424966 1.0779652e-05
-0.00080093375 -0.00056695275 0.0 0.0 -0.001283726 -0.002264494 -0.0042579607 -0.00047729816
-0.00037942696 -0.0010856836 -9.358344e-06 6.75638e-05 -2.8016397e-05 -4.7259706e-05 -0.00048284707 -4.2612177e-05
-0.00048724085 -0.00089841627 5.6032286e-06 2.3128127e-06 -2.8443761e-05 -6.607397e-07 -4.8231886e-05 0.000100648715
1.227484e-08 2.8358565e-07 -5.0079394e-05 -1.5732821e-05 -0.00017353623 -0.00014743161 5.2785515e-05 0.00018916973
-5.642136e-05 -0.0001968309 -0.0016879167 -0.0035418868 -0.000119319666 -0.0001150573 -0.00061732717 -0.00089515495
-0.0008459309 -0.0009858055 -0.0011546814 -0.0004339469 -0.00793797 -0.006687401 -0.00047793373 -0.00042270386
-0.0048934184 -0.005805024 -0.014275344 -0.014734028 0.00048108006 0.00023379803 -0.0007350687 -0.00040724504
-0.0003378448 -0.00072259 -3.1441432e-06 6.565593e-05 0.00023006601 -7.222965e-05 -0.0001386127 -0.0016264648
0.00096885674 0.000862358 -0.000478365 0.0007224849 0.00018104643 3.955065e-06 0.00039514992 0.00028651522
-0.0018060156 -0.0022597066 -0.0014160719 0.0004031211 0.0018450096 0.0023071559 0.00075046683 0.0010671661
0.00048560795 0.0014671488 -0.0034794323 -0.004360075 0.0001593217 0.00043678953 -0.00096226134 -0.002429312
0.00024681736 0.00014155463 -0.001663541 -0.0028898474 0.0 0.0 0.0016674137 -0.00093923276
-0.008140402 -0.0042769983 -0.0015042692 -0.0014771267 0.00036206475 0.00026754703 -0.00023677573 -5.4918542e-05
-0.00016415163 -0.00031961192 -0.0024971217 -0.00093749544 3.632691e-05 3.8228613e-05 -9.536969e-06 -1.3151883e-05

exp_avg_sq f4 [32, 45, 2]
00000000: afff 7334 b360 d534 5b63 1537 072d 1a37
00000010: 5036 a336 66a8 6337 37e1 9e36 60cf f235
00000020: 8e23 0c38 cab6 f937 e282 0a36 08ef 0d36
00000030: 39c8 8b38 1c5e d737 cd85 5f3b 6f14 953b
00000040: e5db bb36 8b25 cc36 6510 c035 a2c7 2536
00000050: 2ffe 4d36 042c 7036 b06e 1534 1ff1 3134
00000060: 4642 dd38 aa89 cf38 434a 1538 f378 8c38
00000070: c7b1 6037 9e8f 7a37 4e86 9438 4e0c 4f38
00000080: ea91 4436 a868 5e36 ac2a 7b38 8140 9638
00000090: cae3 ca38 83b9 1c39 6541 6937 5f6c ae37
000000a0: 035f 8538 73c3 8c38 6c0f fa36 6de9 de36
000000b0: 680e a337 4764 5a37 585b d637 fcd6 b137
000000c0: ff84 8437 2ea4 2437 14a7 8c39 f077 d638
000000d0: b609 0f36 c631 e335 f0b0 1a38 c271 be37
000000e0: 0000 0000 0000 0000 6e4f 8539 f058 4439
000000f0: 6550 173a c482 bb39 58cd ef37 396e 0439
00000100: 80d3 b335 27ce 9635 cf8c 6435 7101 7d35
00000110: 6812 ad36 5a06 f235 3d3b 9138 ed34 6d38
00000120: 8ef8 2434 ea35 ce34 6bb3 f232 5138 e932
00000130: 4f6a e234 346e 8035 5af0 9a32 9da9 6632
00000140: 90dc 0c34 1148 4534 b6ed 3837 9967 fc36
00000150: 0bf2 2736 0ac8 be35 d985 7735 f3ed 3637
00000160: 0d59 0f3a 4665 5c3a 5f64 6c32 75be 5e33
00000170: ffae 7635 b26c 0e35 3d61 1535 7bee bd36
00000180: 3c5e d234 eace c534 0439 1a38 97ca ec36
00000190: 2b20 6234 307f 3634 7a1d e537 cbba b737
000001a0: 7aee 9c39 cf72 0839 56fe f734 4055 1c34
000001b0: 553a 0235 1006 9134 33e9 5434 f7a8 b933
000001c0: 0a14 a631 748b 0b32 fe24 a836 5116 4137
000001d0: 1ed0 1137 6d5f 3236 2378 a936 e534 9436
000001e0: 6be8 cc36 b8c4 d136 d08b 0934 3319 8833
000001f0: 17c1 bb36 5443 2237 e059 9a37 9ede 0e38
00000200: 015e 7b37 61eb 5236 40c8 3437 fa57 1037
00000210: 081d 5f35 0d1d 4d35 5e1f c135 e7f6 6e35
00000220: 836c 9137 3b07 8436 f0f5 3136 cafa 7835
00000230: 1baa 1338 302d 9d37 e935 0934 4215 4b33
00000240: 8084 f536 197f c636 0000 0000 0000 0000
00000250: 682b ba37 5155 b137 fb60 8c38 dc81 8637
00000260: d423 1c36 c1a3 9937 bdb7 fe34 5e24 e234
00000270: 94a7 d032 be34 9c32 ab4f 1d36 0a5b ff35
00000280: 9944 f835 1151 6836 5da5 9a31 f16e cc30
00000290: 433a 7332 2532 1532 4cab 9833 d857 2733
000002a0: d1ce 2c2b ebcf b42d 56d4 b432 ffcd be32
000002b0: 6cce 6836 5360 b734 c2ea 1d34 1b0a 5933
000002c0: 6b79 ba34 9cb8 9636 ed82 3539 b1f4 0c39
000002d0: ffa3 4334 49ee 9f34 7c8f e936 153e 1037
000002e0: d81a e936 e12c f736 0b3a a036 ef82 b736
000002f0: abc2 df38 6fa3 8938 3ee7 c135 1c6e cf35
00000300: 6d8b 8438 b8a9 a638 5115 b03b fb37 b23b
00000310: ed94 a736 221c b636 762e ae35 8412 bd35
00000320: a64c bd36 08c2 ba36 13c8 9d34 2300 a534
00000330: edd4 df38 2297 1c39 bb57 9f38 a3ea ab38
00000340: 1b08 5c38 58e0 5138 073c 8f38 bf3d 8638
00000350: 582a 8236 7991 8536 56fe 6e38 8b68 8838
00000360: 8c98 1039 581e 2639 b16c 4f38 3893 0838
00000370: aa40 0a39 a643 0b39 3edd 7336 a2ff 7a36
00000380: e603 6f37 efd3 6b37 5438 4038 4978 3e38
00000390: 6b12 6c37 ac27 7e37 d1f2 6539 9de9 5e39
000003a0: 448d 6b35 01b5 6535 5ee0 9d37 cdec cb37
000003b0: 0000 0000 0000 0000 08b4 0f39 41e8 0839
000003c0: 1ecd e939 5375 de39 7f87 8138 e87a 8938
000003d0: 265f 1f36 28e5 1636 a311 1f35 33b3 3a35
000003e0: 2590 c136 020a 3f36 376c 5338 91f4 2a38
000003f0: 07b9 0235 2552 2635 c455 0d33 c9d7 1f33
2.2724156e-07 3.97447e-07 8.904225e-06 9.189599e-06 4.8641014e-06 1.3569463e-05 4.7349854e-06 1.8090759e-06
3.3411714e-05 2.976823e-05 2.0639786e-06 2.1149772e-06 6.665331e-05 2.567382e-05 0.003410685 0.004549555
5.5986334e-06 6.0840443e-06 1.4309886e-06 2.4703118e-06 3.0695335e-06 3.5788407e-06 1.3916974e-07 1.6572129e-07
0.000105504456 9.896171e-05 3.559353e-05 6.698249e-05 1.3392832e-05 1.49346e-05 7.082206e-05 4.9364106e-05
2.929121e-06 3.3141496e-06 5.9882805e-05 7.164572e-05 9.6745396e-05 0.00014946428 1.3903108e-05 2.079288e-05
6.3596315e-05 6.7121255e-05 7.452376e-06 6.64329e-06 1.9437823e-05 1.301716e-05 2.5553323e-05 2.1200154e-05
1.5797557e-05 9.813388e-06 0.00026827364 0.00010226655 2.1314313e-06 1.6927304e-06 3.6881247e-05 2.2702738e-05
0.0 0.0 0.00025426917 0.00018725148 0.00057721726 0.00035764847 2.858664e-05 0.00012629562
1.3398094e-06 1.1235869e-06 8.514152e-07 9.425194e-07 5.1579445e-06 1.8032254e-06 6.925173e-05 5.6554494e-05
1.5364114e-07 3.8409718e-07 2.8254098e-08 2.715038e-08 4.217313e-07 9.568816e-07 1.8037259e-08 1.3426328e-08
1.3118756e-07 1.8373272e-07 1.1022601e-05 7.5222456e-06 2.5025827e-06 1.4214322e-06 9.2209444e-07 1.0903447e-05
0.00054682867 0.0008407425 1.375983e-08 5.1861623e-08 9.1896794e-07 5.3057295e-07 5.5648326e-07 5.6604017e-06
3.9184113e-07 3.684466e-07 3.676956e-05 7.0569326e-06 2.1059593e-07 1.6996341e-07 2.7312653e-05 2.1902282e-05
0.00029932318 0.0001301274 4.619239e-07 1.4559646e-07 4.851366e-07 2.7012766e-07 1.9828876e-07 8.645468e-08
4.833514e-09 8.122573e-09 5.0110966e-06 1.1508892e-05 8.69113e-06 2.6579612e-06 5.0505782e-06 4.4169014e-06
6.106731e-06 6.2515865e-06 1.2809983e-07 6.337577e-08 5.595513e-06 9.6716285e-06 1.8400082e-05 3.4062767e-05
1.4982653e-05 3.1429447e-06 1.077546e-05 8.6035525e-06 8.311622e-07 7.6410726e-07 1.438875e-06 8.90212e-07
1.7335877e-05 3.9347483e-06 2.651821e-06 9.2752146e-07 3.5205954e-05 1.87369e-05 1.2778732e-07 4.7283955e-08
7.316994e-06 5.915656e-06 0.0 0.0 2.219314e-05 2.1139773e-05 6.693784e-05 1.6034515e-05
2.3266666e-06 1.8315275e-05 4.7444874e-07 4.212224e-07 2.4290593e-08 1.8184775e-08 2.3441196e-06 1.9025476e-06
1.8497404e-06 3.461788e-06 4.5007895e-09 1.4874485e-09 1.4157709e-08 8.684343e-09 7.10921e-08 3.896261e-08
6.139369e-13 2.0555965e-11 2.1051317e-08 2.2212587e-08 3.4690847e-06 3.415649e-07 1.4707169e-07 5.053344e-08
3.4733543e-07 4.4918397e-06 0.00017310279 0.00013442595 1.8220452e-07 2.9789433e-07 6.960645e-06 8.597523e-06
6.947066e-06 7.366398e-06 4.7751287e-06 5.4690677e-06 0.00010669728 6.563111e-05 1.4446921e-06 1.5454748e-06
6.3202206e-05 7.9471094e-05 0.005373635 0.0054388023 4.994325e-06 5.4272978e-06 1.2977532e-06 1.4086986e-06
5.641562e-06 5.56582e-06 2.9389102e-07 3.0733744e-07 0.00010673129 0.0001493362 7.598052e-05 8.19762e-05
5.2459636e-05 5.003842e-05 6.829952e-05 6.401119e-05 3.8792314e-06 3.980644e-06 5.698049e-05 6.504458e-05
0.00013789738 0.00015842298 4.9453873e-05 3.2562035e-05 0.00013184795 0.00013281274 3.6338602e-06 3.74017e-06
1.4246418e-05 1.4056436e-05 4.5828827e-05 4.5411554e-05 1.4070984e-05 1.5148817e-05 0.00021929598 0.00021258598
8.774989e-07 8.5572543e-07 1.8820338e-05 2.4309755e-05 0.0 0.0 0.0001370461 0.00013056492
0.00044594047 0.00042430553 6.1764375e-05 6.555562e-05 2.374823e-06 2.2485128e-06 5.925778e-07 6.955117e-07
5.768629e-06 2.8467043e-06 5.0407103e-05 4.075893e-05 4.8698024e-07 6.1959355e-07 3.2907124e-08 3.7216328e-08

exp_avg f4 [32]
00000000: da52 25ba 99c8 bfb9 0735 6739 aa2f dbb9
00000010: 8cd0 de39 4858 8539 95f9 16ba 3840 abb8
00000020: c0b8 f0b6 7385 01ba ac91 bbb9 b91f 8139
00000030: 8762 2cb9 369f 6a39 0862 f2b9 15b6 5c39
00000040: 9e25 cfb9 9cae afb9 bd40 9c39 14e9 d0b8
00000050: cf41 b539 749e 4eb9 6b57 02b9 84e1 6fb9
00000060: c270 0a39 4329 a339 f01b 1ab7 ff06 a939
00000070: 0e3e 3339 153b 65b9 b87e 4439 285e 0eb9
-0.00063065963 -0.00036579816 0.00022049631 -0.00041806448 0.0004249852 0.00025433511 -0.00057592365 -8.165877e-05
-7.174065e-06 -0.0004940845 -0.00035775953 0.00024628433 -0.00016439903 0.0002237529 -0.00046230876 0.00021048666
-0.00039510144 -0.00033508695 0.00029802872 -9.961627e-05 0.00034572041 -0.0001970472 -0.00012430332 -0.00022876827
0.00013202711 0.00031120525 -9.18562e-06 0.00032239404 0.00017093887 -0.00021861152 0.00018739223 -0.00013577251
