cebra_models/reach1_4/01/B/cebra_SucessFailure_model_5000_32_reach1_4_B.pt (torch, 743196 bytes, 31 tensors)

net.0.weight f4 [32, 538, 2]
000000 39 52 e4 bc 20 0f 36 3b bb 66 23 3d 26 ae 80 3c
       -0.027871238 0.0027780011 0.039892893 0.01570804
000010 d1 dc 8d bd 2a 4a 44 bc 59 28 b6 3c 7b 7f cf ba
       -0.06926883 -0.011980573 0.022236036 -0.0015830839
000020 40 10 1b 3c d5 06 8c bc 05 fc 92 3c 4b c7 84 3c
       0.0094643235 -0.017093102 0.017942438 0.016208312
000030 db c6 83 bc 74 51 10 bc 1e 3a f5 3c df c7 e8 ba
       -0.016086033 -0.008808482 0.029934939 -0.0017759762
000040 16 7f 4d 3c 57 0d 89 bd 1f b8 6e bc 8a f0 f9 bc
       0.012542507 -0.066919975 -0.014570265 -0.030510206
000050 db f3 8a bc 12 19 a2 bc a2 f4 18 bd 05 07 fe 3c
       -0.016961982 -0.019787345 -0.037342675 0.031009207
000060 6e 2d c4 3a 4c 25 c9 3c dc ac 42 3c a9 71 cd 3b
       0.0014967152 0.024553917 0.011882033 0.006269653
000070 59 28 a8 3c 0e 93 fa ba f7 64 80 bb f2 38 63 3c
       0.020527052 -0.0019117312 -0.003918286 0.013868557
000080 6d e0 8d 3c a1 b4 2b 3d 90 28 02 3d 8c 6b 37 be
       0.017318929 0.041920308 0.031776965 -0.1791212
000090 5e aa 81 bd e9 fc 00 3d 25 31 59 bb 22 fb 3d bb
       -0.06331323 0.031491194 -0.0033140865 -0.0028988798
0000a0 e7 12 5a bb 35 0d 37 3b f7 03 14 3b 95 89 85 bb
       -0.0033275427 0.0027931456 0.002258537 -0.004075239
0000b0 01 e2 80 3c 25 5b dc bc d3 72 a6 3b c9 e9 03 3c
       0.015732767 -0.02689893 0.005079606 0.008051344
0000c0 6e f5 17 bc 37 8d af 3b a4 6a 9d bd 95 7f 08 3d
       -0.009274824 0.0053574103 -0.07686356 0.033324797
0000d0 be 92 a1 3b 7c 0c 9d bc c8 c3 94 3c 31 09 02 3d
       0.004930823 -0.019170992 0.018159762 0.031747047
0000e0 7a 57 fc 39 28 f4 e9 bb 39 e7 e8 3c 1a 6e ab 3b
       0.0004813036 -0.0071397014 0.028430568 0.005231631
0000f0 e5 15 88 bb 75 c2 05 3c f4 89 d9 3c e9 c5 90 ba
       -0.0041530007 0.008164038 0.026555039 -0.001104531
000100 00 3b d8 3c 24 aa ca bc b6 8d ab 3d 7f 11 1d 3c
       0.02639532 -0.024739332 0.083766386 0.009586691
000110 7a 2b 84 3c 8e 41 0a 3c c0 49 51 bd 59 cb 9e ba
       0.016134012 0.008438481 -0.051095724 -0.0012115046
000120 42 93 e8 3b 3c ed 39 3d 6c 2e bf 3c 48 06 df bc
       0.0070976326 0.04539226 0.023337565 -0.027224675
000130 a4 72 a9 bc 94 00 df bb d6 db a5 3c 1a f9 ad 3c
       -0.020684548 -0.006805489 0.020246428 0.021236945
000140 74 19 8c 3c b5 b1 60 bd 63 6e 88 bb fa ec a5 bc
       0.01710198 -0.054856975 -0.0041635497 -0.0202546
000150 86 44 f9 bb 02 69 c6 3c 52 fa 9e 3c 75 1e 4c bc
       -0.0076070456 0.024219994 0.019406471 -0.012458433
000160 52 aa fb 39 5b e9 9c bc 7b 5d 9c bc 41 b0 2b 3d
       0.0004800135 -0.019154241 -0.019087544 0.041916136
000170 71 ea 8f 3c 23 fa 81 3d d5 c0 2b 3c e7 e0 7e bc
       0.017567845 0.06346538 0.010482986 -0.015556551
000180 30 64 a4 bc 38 f3 31 bd 04 6d 1f bc 3f 0b e5 bc
       -0.020067304 -0.043444842 -0.009730581 -0.027959464
000190 f1 7d bf bc 59 60 0e bd 34 45 0e bc 1b 3d ed bc
       -0.023375483 -0.034759853 -0.0086834915 -0.028959801
0001a0 75 e1 fd bc f3 f7 60 3c 8b 3e de 3c 87 15 a3 3a
       -0.030991295 0.013730991 0.027129432 0.0012442329
0001b0 f8 03 9f bd 74 ea bc bb 18 ac 81 3b e5 c8 b4 bc
       -0.07764429 -0.0057652537 0.0039572828 -0.02206845
0001c0 77 b3 8d 3b b9 7e 34 bd 66 f7 25 3c 74 08 12 3d
       0.0043243724 -0.044066165 0.010129785 0.035652593
0001d0 9f 99 8b 3d b3 6b 11 bc ec c3 55 3c e2 89 07 3c
       0.0681641 -0.008875775 0.0130472 0.00827262
0001e0 b0 d7 a1 3b aa f9 a3 bc d1 fc 91 bc 85 95 14 bd
       0.004939042 -0.02001651 -0.017820748 -0.036275405
0001f0 97 8b 15 bd 3c 9c 81 bc d4 11 cf 3c de 10 17 3d
       -0.036510076 -0.015821569 0.025277056 0.03688132
000200 e6 76 5f 3b 88 4c f0 3c 4e 8e 92 bc b0 20 83 3b
       0.0034097969 0.029333368 -0.017890122 0.0040016994
000210 99 f1 50 bc d0 62 2b 3c 14 6c 22 bc 40 4c 99 3c
       -0.012752914 0.01046057 -0.009913463 0.018713117
000220 e5 91 0e bd 02 d5 2d 3d 09 40 34 3d 90 12 20 3d
       -0.034807105 0.04243947 0.04400638 0.039080203
000230 0c 54 e0 bc 39 9d 0b bc 21 e5 89 bc 70 a3 a0 3b
       -0.027383827 -0.0085213715 -0.01683289 0.004902296
000240 6e c0 81 bb 0c d2 34 bc 07 58 61 bd 9b 76 24 3b
       -0.003959707 -0.011036407 -0.05501559 0.0025095108
000250 27 83 5f bd 2f a2 14 bc 3c 2f a5 bc 3e 9f d8 ba
       -0.054568436 -0.009071871 -0.020164125 -0.001652695
000260 40 9b 18 3d f2 68 82 3c 55 d9 24 bc 10 ab 96 bc
       0.037257433 0.015919182 -0.010061582 -0.018392116
000270 38 cd 36 bc f3 11 c7 3a a3 c9 b6 3c d3 12 96 bc
       -0.011157326 0.0015187844 0.022312945 -0.018319523
000280 24 c6 4f b9 fe a2 55 3d 58 6a b8 bc 46 2f 95 ba
       -0.00019814871 0.052157395 -0.022511646 -0.0011381886
000290 02 90 95 3c 96 50 03 3d 97 c1 5b bb 6f d9 c1 3c
       0.018257145 0.032059275 -0.0033532137 0.02366325
0002a0 3b 72 9a 3c 95 fe 03 bd 04 50 d4 bb 46 86 c9 3c
       0.018853297 -0.03222521 -0.006479265 0.02460016
0002b0 8b 6b a5 bc f9 94 8e ba 0e 1d 2d bb 60 41 97 3c
       -0.020192882 -0.0010878138 -0.0026415023 0.01846379
0002c0 f9 8a 3f 3b 65 f3 2f 3d 95 b1 2c 3d 21 f2 9d 3d
       0.0029227121 0.04295673 0.042161543 0.07712198
0002d0 15 b5 a6 3c d1 ad 91 3c 4c bd 76 3c d4 bf ec bc
       0.020350019 0.017783077 0.01505978 -0.028900065
0002e0 c1 b6 24 bd 48 a5 68 bc f5 4e 3b 3c fa 70 59 3c
       -0.04021335 -0.014199562 0.011432399 0.013271565
0002f0 33 83 5f 3d 4c cf ae 3c a5 23 32 3c bf 23 16 bd
       0.05456848 0.021339081 0.010872756 -0.036655184
000300 d4 1e 14 b9 9c f4 f8 bb 01 ed 7e 3c ab 9a 91 bc
       -0.00014125864 -0.007597519 0.015559436 -0.017773947
000310 20 b1 a4 bc 79 9f 89 bd 3f 16 ad bc db ba 06 bd
       -0.020103991 -0.0671987 -0.021128772 -0.032893043
000320 15 73 fe bb 12 61 44 bc d6 b5 12 bd 44 4f 31 3d
       -0.0077651837 -0.011986034 -0.035817944 0.043288484
000330 96 82 cf 3b 5a 24 e7 3b 6c 12 89 3c 41 d1 0e 3b
       0.0063327057 0.007053894 0.016732417 0.0021792206
000340 41 ec 62 3c 0c 0e 8a bb d2 9c 6a bb a3 85 08 3b
       0.013850273 -0.0042131003 -0.0035799039 0.0020831607
000350 a0 c2 92 bc 1b 3a ab bc 3b bb bf bc 8a 22 07 3c
       -0.01791507 -0.02090173 -0.023404708 0.008247981
000360 1b 1d 69 bd e7 2c 57 bd 2d c1 cc 3c b4 c2 0c bc
       -0.056912523 -0.052533057 0.024994457 -0.008591343
000370 66 44 fa 3c 26 d9 95 bb db 3e 47 3b c4 51 a2 bb
       0.030550193 -0.0045730053 0.0030402455 -0.004953595
000380 4c a3 ef bc 17 32 02 bb 24 ef 07 3d 03 e9 c1 bb
       -0.02925267 -0.0019866282 0.033187047 -0.0059176697
000390 c7 b7 47 3d 9f bb 67 3d 5d 99 c1 3c b8 cd 05 3c
       0.048759248 0.056575414 0.0236327 0.008166723
0003a0 63 fd 6a bd 98 d2 7f bd 84 f9 5c 3c 3e cd 60 3c
       -0.057370555 -0.062456697 0.013487224 0.013720809
0003b0 26 a9 86 3c fe 87 4b 3c 86 45 b6 3c 3d a3 ab bb
       0.016438078 0.01242256 0.022249948 -0.0052379654
0003c0 c8 42 98 3c b1 8f 92 bd d3 1b af bc 81 bb df bd
       0.018586531 -0.07156313 -0.021375572 -0.109244354
0003d0 2a e8 7f bd f2 31 22 bc 49 44 ae 3c b9 31 ba bc
       -0.06247727 -0.009899603 0.021272795 -0.022728788
0003e0 de 1f cd 3c 3c dc 0a 3e 68 cd 66 3c 1b 0e b0 ba
       0.02503961 0.13560575 0.014087059 -0.0013431938
0003f0 9c 47 06 bd 11 85 3c bd 66 56 db ba 1e a5 16 bd
       -0.032783136 -0.04602534 -0.0016734123 -0.03677856

net.0.bias f4 [32]
000000 ca 01 a2 bc 22 08 01 3c dc 5c ad bb e3 f7 ac 3c
       -0.019776244 0.007875474 -0.0052906107 0.021114295
000010 73 be 85 bb be 46 4d bc a7 e7 9f 3c b8 8e b7 3c
       -0.004081541 -0.012529073 0.01951964 0.02240692
000020 23 c2 b2 bb 81 dd bc bc fc c6 a1 3c cb 16 55 3c
       -0.005455272 -0.02305484 0.019748203 0.013005923
000030 5b 8e c9 bc 19 30 88 3a 6a e4 ce 3c c5 c3 98 bc
       -0.024604013 0.0010390311 0.0252554 -0.018648038
000040 32 81 cb 3d 51 c7 b6 3c 85 66 86 3c 18 a8 36 3d
       0.099367514 0.022311838 0.016406307 0.0445939
000050 96 23 bd 3c d8 cb ef 39 a5 e7 0d bd 4e b3 73 3b
       0.023088258 0.00045737508 -0.03464474 0.0037185731
000060 55 af a8 bc d6 7c 99 3c 36 b2 bf 3c 5a 68 5c 3c
       -0.020591417 0.018736284 0.023400407 0.013452614
000070 5d 37 0c 3c e5 a0 c9 3c 6c d4 c9 bc a9 a2 96 b8
       0.0085581215 0.024612853 -0.024637423 -7.182855e-05

net.2.module.0.weight f4 [32, 32, 3]
000000 75 98 34 3d cd bb 5e 3d e3 a7 6a bd fe 55 55 bd
       0.044090707 0.05437832 -0.057289016 -0.05208396
000010 75 b9 15 bd e2 e3 32 3d c7 b4 70 bd a7 4a 24 be
       -0.03655382 0.043674357 -0.058766153 -0.16044103
000020 9f 44 11 bc 92 08 de 3d 7d 3b 37 bd 64 f1 ab 3c
       -0.008866458 0.108414784 -0.044734467 0.020989127
000030 15 06 c4 3c da 00 7a 3d bd 7e cd bd 19 f7 29 be
       0.023928681 0.06103597 -0.10033939 -0.16598167
000040 90 c3 34 bd 05 a1 7d bd d2 84 bd bd a3 31 5f 3d
       -0.044131815 -0.06192114 -0.09253849 0.054490697
000050 e1 dc e6 bd a5 12 d3 bd 6f 5b 71 bb 1d a6 99 3c
       -0.11272598 -0.103062905 -0.003682818 0.018755967
000060 73 6f 26 3e 71 91 c6 3d 5a f0 ee 3d 67 39 d2 bd
       0.16253452 0.096957095 0.11666937 -0.10264855
000070 39 7e de bd 41 a7 49 3d e2 7e 9d bc 14 db 35 bd
       -0.10863919 0.04923177 -0.019225542 -0.044398382
000080 56 d5 f1 3c 39 c3 b9 3c d7 c2 e6 3d b1 ea e3 3c
       0.029520672 0.022676097 0.112676315 0.02782187
000090 f8 8d a6 3b cb b1 93 bd 31 a4 41 3d d1 c2 de 3d
       0.005082842 -0.07211646 0.047275726 0.10877002
0000a0 d7 9c 64 3d 1f bc a2 3d ab 71 9d bc 48 07 cd 3c
       0.055813637 0.079460375 -0.01921924 0.025027886
0000b0 e8 8b 89 3d 0b 6a 21 3c 77 0c a6 3d 54 be 8e bd
       0.06716138 0.009851943 0.08107846 -0.06969896
0000c0 f4 64 0b be dc 8f 02 3e 37 30 84 3e c9 85 1e bd
       -0.1361273 0.1275019 0.25818035 -0.038701806
0000d0 eb aa 94 bd ae 9f 07 be 5c e0 bc 3d 44 01 8d bd
       -0.072591625 -0.13244507 0.09222481 -0.06885007
0000e0 4c 85 9b 3d 28 42 c1 3d c5 8d e3 3d de 5e 17 3e
       0.07593784 0.094364464 0.11111025 0.14782283
0000f0 68 a9 9a 3d da e6 9d bc 9c 08 d3 3c b6 f7 c0 bb
       0.07551843 -0.019275118 0.025760941 -0.0058889044
000100 5d 65 be 3d 68 7a 3c bd d9 f3 f2 3c 26 d5 da bd
       0.09296677 -0.046015173 0.029657291 -0.10685186
000110 e5 e1 0f be 00 c0 c8 3d d2 85 85 3d ea f7 64 bd
       -0.14051016 0.09802246 0.06519665 -0.05590049
000120 6d 94 13 be 26 d0 eb bd 88 d7 64 bb a4 30 2a 3e
       -0.14412089 -0.115143105 -0.0034918506 0.16620117
000130 34 9c 6e bd ce b0 10 3e 43 c3 05 bd 92 9b 8b bd
       -0.058254436 0.14129946 -0.03265692 -0.06816782
000140 08 c6 6a bc 0e 27 c4 3d 28 aa 38 3d 00 47 93 bd
       -0.014329441 0.095777616 0.04508415 -0.071912766
000150 2c 84 0a be 1c 2c 77 3d e5 79 e1 3c c3 0a ea 3d
       -0.13526982 0.0603448 0.027523944 0.11427834
000160 00 52 9e bd 64 39 be 3d 60 33 ec 3d 33 1e aa 3d
       -0.07730484 0.0928829 0.115332365 0.08306541
000170 38 7e d0 3c a9 ca 96 ba e4 26 ed bc cb 6f b9 bd
       0.02545081 -0.0011504489 -0.028949209 -0.09054526
000180 b4 d5 95 bc 93 4b 79 3d 94 6b 11 3d e7 d9 5f bd
       -0.018290378 0.06086309 0.035502985 -0.054651167
000190 80 6c e6 bd e8 10 2b bd d1 24 4b 3e e9 33 b5 3d
       -0.112511635 -0.04176417 0.19838263 0.08847792
0001a0 df 23 a3 3c 39 86 97 bd b3 4a 86 3c e9 6b bd 3d
       0.019914566 -0.07398648 0.016393041 0.09249098
0001b0 7d 28 a4 3c 3a b4 53 bd a9 30 18 3d 2d 33 62 3d
       0.020038838 -0.05168555 0.03715578 0.055224586
0001c0 8c 0f 5b bb cd b5 6a 3d 90 c0 fb 3d 7f 38 10 bd
       -0.0033426015 0.057302285 0.12292588 -0.03521013
0001d0 4d c9 45 3d 28 fc 89 bb 52 9a a8 bc 3b cd 62 bd
       0.04828768 -0.0042109676 -0.020581398 -0.055371504
0001e0 94 0e 96 bd 83 52 b0 bd a3 f8 01 3d 2f 84 f0 3c
       -0.07326999 -0.08609488 0.03173126 0.029359905
0001f0 f5 51 12 3b 70 0f 0f 3d 1b 1b 9a bc ea 91 57 bd
       0.0022326682 0.03492683 -0.018811753 -0.05262939
000200 2e f9 3f bd 0d c3 14 3d ae b2 c0 bd d4 79 13 3e
       -0.046868496 0.036318827 -0.094090804 0.14401942
000210 8e b2 0c 3e 12 07 29 bd 8d cc 9c bc 1e 06 16 bd
       0.13739988 -0.04126651 -0.019140506 -0.036626928
000220 12 11 98 bd b6 be ac 3d 02 b3 17 bd 22 8b 13 bd
       -0.07425131 0.08434813 -0.03703595 -0.03602136
000230 94 d4 95 bd e2 ad 21 3d 9d fe 1f 3d 90 3f be 3c
       -0.07315937 0.03947247 0.039061178 0.023223668
000240 95 3e 82 3c 00 c8 ff bc 97 d6 61 3c 28 dc b9 bd
       0.015898982 -0.031223297 0.013784072 -0.090751946
000250 54 78 b6 3c 35 03 aa 3c 90 4e ab bd 54 6b 17 bb
       0.022274174 0.020753482 -0.08364594 -0.0023104744
000260 45 f3 76 3d 3e 85 3a bd 93 95 67 3d 76 32 e2 3d
       0.060290594 -0.045537226 0.05653913 0.11044781
000270 82 ca 56 3d df af 77 3d 0f a5 9c 3d 15 50 d1 bc
       0.05243922 0.060470458 0.0764867 -0.025550881
000280 3d e9 ff 3d 0d 0c a6 3d f8 d2 f1 3d bd 6c b6 bd
       0.124956585 0.08107767 0.11807817 -0.08907459
000290 a8 f5 14 bd 69 82 37 3d 7a ea 3e bd 1c 01 c0 3d
       -0.03636709 0.044802103 -0.046610333 0.093752116
0002a0 91 3e 87 3c 95 23 24 bc 83 40 32 bd b0 f4 29 3d
       0.016509326 -0.010018249 -0.043518554 0.041493118
0002b0 64 73 9a 3d 2c f3 1c 3d 67 ba 01 be 65 51 10 bd
       0.0754154 0.038317844 -0.12668763 -0.035233874
0002c0 84 23 21 3b 40 e1 62 bd a3 a6 81 bc a8 fd 7e bd
       0.002458782 -0.055390596 -0.015826529 -0.062253624
0002d0 77 e9 44 3d 9b 88 90 3d 66 94 64 3d 45 c9 ef bd
       0.048074212 0.070573054 0.055805586 -0.11708311
0002e0 b7 f8 5f 3c d2 4f d4 3c 72 ff 05 bd 1a 47 62 3d
       0.013670138 0.025916968 -0.032714315 0.05524359
0002f0 53 48 ae 3d f6 1e e9 3c 96 3e 0c ba b7 bc 7c 3d
       0.085098885 0.028457146 -0.0005349902 0.06170341
000300 b7 1f c5 3d 2f a0 78 bd 60 bd b2 bd ea e2 27 3d
       0.0962519 -0.060699638 -0.08727527 0.040987886
000310 46 e9 9b bc ab ac c6 3d bc 6a f1 bd c3 37 a7 bb
       -0.019032132 0.097009026 -0.11787936 -0.005103083
000320 ae 57 01 3e 47 1e f3 3d 7e e9 7b bc d9 32 83 bd
       0.12631103 0.11871009 -0.015375493 -0.06406183
000330 be 36 f8 bd 4b e8 16 bc 16 ee 2f 3e d8 28 cd bd
       -0.12119816 -0.009210656 0.17180666 -0.10017556
000340 00 53 bb 3d 84 f2 34 3e 47 f8 20 3d 95 8d 64 3c
       0.0914669 0.17670637 0.039299276 0.013949771
000350 02 7b 9c 3d 19 e1 10 be 66 49 59 bd 65 e9 14 3e
       0.076406494 -0.14148368 -0.053048514 0.14542158
000360 20 d6 31 3d 18 c6 57 bd 5a 71 27 be da 60 19 bd
       0.043417096 -0.05267915 -0.16351834 -0.03744588
000370 6d 11 23 3d 20 fd 44 3c 76 30 92 bc eb b6 53 3d
       0.03981154 0.01202324 -0.017845374 0.051688116
000380 d1 c8 f7 3d 21 03 4a 3d be ab 80 3d d1 4d 1f bd
       0.120988496 0.04931939 0.06282757 -0.03889257
000390 93 54 87 bd bf 08 d1 3c 41 09 ad 3d dd e8 70 3d
       -0.06607928 0.025516866 0.08449031 0.058815826
0003a0 73 1f be 3c 81 59 12 bd 94 a5 f2 bc 70 79 9f 3d
       0.023208356 -0.03572989 -0.02961997 0.07786834
0003b0 0e a7 2a 3e 1e cb b7 bb 8f fa 6a 3c f4 a6 32 3d
       0.16665289 -0.0056089303 0.014341964 0.04361625
0003c0 60 6e 42 bd 1d 3c 2f ba 9c af f1 bd 90 bc a5 3d
       -0.047468543 -0.0006684678 -0.11801073 0.08092606
0003d0 2e 3c d9 3c 18 7a 08 3d 09 c5 bf 3d 0c 19 30 3d
       0.026517954 0.033319563 0.09363753 0.042992637
0003e0 db d0 60 3d bd af e9 3d 0b 27 88 3d 0c a7 be bd
       0.05488668 0.114104725 0.06648072 -0.093092054
0003f0 6f 03 55 3d 99 64 5a bd 79 bf 50 3d 8a 07 28 3e
       0.052005228 -0.053318594 0.050963853 0.16409126

net.2.module.0.bias f4 [32]
000000 58 a5 95 3d 5d a4 9c 3c 1f 5c ba bc a7 1f f2 3c
       0.073069274 0.019121343 -0.022749005 0.029556109
000010 51 5d 94 3d d6 cb af bc 08 ce 9f bd 01 30 a8 3c
       0.07244361 -0.021459501 -0.07802969 0.020530703
000020 4c b6 25 3d cf 56 d9 3c 82 b9 26 bd 59 d2 cd 3d
       0.040457055 0.026530651 -0.040704258 0.10049886
000030 18 1e e1 bc 38 12 b2 3d e2 1e 61 bd 76 24 50 3d
       -0.02748017 0.08694881 -0.054961093 0.05081602
000040 44 bd e5 3d eb 76 aa 3d df b0 9c 3d f8 44 de 3c
       0.1121774 0.08323463 0.07650923 0.027132496
000050 60 a4 80 3c a8 50 8d 3c 6f d9 46 bd 59 f1 8e 3d
       0.01570338 0.017250374 -0.048547205 0.06979627
000060 a2 ee 7e bd c5 fa 41 bd c0 94 0a bd 44 94 86 bd
       -0.062239297 -0.047358293 -0.033833265 -0.06571248
000070 0a ed c8 3d b5 1d a4 bd 4b 79 b3 bd 3d c4 87 bb
       0.098108366 -0.08013479 -0.08763369 -0.0041432665

net.3.module.0.weight f4 [32, 32, 3]
000000 c2 95 c3 bc ae fa 77 3d 43 ab a5 bb ee 1d fa bc
       -0.023875121 0.0605418 -0.0050558164 -0.03053185
000010 4d f8 6f 3d 47 02 f0 bc 6d a0 1b bd 3f 37 18 3d
       0.058586407 -0.02929796 -0.03799479 0.03716206
000020 92 c8 1b 3c 63 7b 2a 3d 3d 43 d8 bb 90 cd bd bc
       0.009508269 0.041621577 -0.0065998123 -0.023169309
000030 9a 46 9c bc 3e 25 3c bd 2e 4b 01 be fa e2 a4 ba
       -0.019076634 -0.045933954 -0.12626335 -0.0012579851
000040 d4 25 8a bd 02 bb ab 3c 36 3f 95 3d cb f6 8b bd
       -0.067454964 0.020963196 0.07287447 -0.068341814
000050 85 c2 d8 3b c5 95 40 bc c2 6d 86 bd 7e 4b 14 be
       0.0066149854 -0.011754458 -0.065639034 -0.14481923
000060 b5 6b 5f 3d b9 b1 08 bd 12 d9 db 3d 1c e5 a9 3c
       0.054546077 -0.033372615 0.10734762 0.02073913
000070 c8 8f 9e bc 42 5d 46 bd 7a 47 9d bc ac 9d 00 bd
       -0.01935567 -0.04842878 -0.019199122 -0.031400368
000080 4f e8 6b 3d 97 5a ee 3c d5 0b 4b bd f8 33 e3 3d
       0.057594594 0.029095931 -0.04957183 0.110938966
000090 ad c7 ea bd ee e2 8f bd a2 85 b2 bc 97 96 30 3d
       -0.114638664 -0.07025705 -0.021792237 0.043112364
0000a0 d9 a1 12 bd f6 ad 00 bd 28 8d a1 3c d6 44 aa 3c
       -0.03579888 -0.031415902 0.019720629 0.020784777
0000b0 32 0c 45 bd 9a 85 d4 3c f6 e6 a8 3d 43 2c f8 bd
       -0.048107333 0.025942612 0.08247177 -0.12117817
0000c0 28 76 21 3d 67 2c 60 bd bb 16 06 3e 8e f3 b0 3d
       0.039419323 -0.054729845 0.13094608 0.08640204
0000d0 dc 01 06 bd d9 e8 29 3d 2c 36 51 3d a1 66 e3 3c
       -0.032716617 0.041481826 0.051077053 0.027758898
0000e0 8c d9 e9 bc 38 15 50 3d 6e 24 80 3d fc d0 43 bd
       -0.028546117 0.050801486 0.062569484 -0.047806725
0000f0 dd 5e af bd 0a f1 3d bd 10 ae 64 3d 43 0c 16 bd
       -0.085630156 -0.04637245 0.05583006 -0.036632787
000100 28 a0 46 3d 3d 4e c2 3d 9d eb 83 ba fc 1f a8 bd
       0.04849258 0.09487579 -0.0010064725 -0.082092255
000110 6f c4 a9 3d 2c 63 82 ba 9e ad bf 3d b5 d5 20 3d
       0.0828942 -0.0009947768 0.09359287 0.039266307
000120 d1 07 0a 3c 78 cc bf bd e9 b6 94 3c 58 4c b9 3c
       0.008424715 -0.09365171 0.018153625 0.022619411
000130 06 95 42 bc 71 49 53 bc 13 42 29 bd 98 87 55 3d
       -0.01187635 -0.012895928 -0.04132278 0.052131265
000140 36 af df 3d 24 9c dd bd 96 dd 82 bc a1 99 1a 3d
       0.10922091 -0.10820797 -0.015974801 0.03774417
000150 8d 03 09 bd 6a 80 4f 3d 63 db 38 3d 47 f2 61 bd
       -0.033450652 0.050659575 0.0451311 -0.055162694
000160 5e b6 d5 bd 1c e4 a9 3d e9 20 53 ba e7 49 58 3d
       -0.104351744 0.082954615 -0.0008053915 0.052804854
000170 ee ef a4 3a 26 d8 22 3e d7 29 cd 3d 62 c7 41 bd
       0.0012583712 0.15902767 0.10017746 -0.047309287
000180 16 d2 da 3c 95 73 9a 3d 2d b7 85 bd 28 45 6e bd
       0.026711505 0.07541577 -0.06529079 -0.05817142
000190 e3 63 82 3d ee 39 08 3d ea f9 1d be 27 db 58 3b
       0.06366708 0.03325837 -0.15427366 0.003308961
0001a0 c1 33 19 bd 27 c1 82 3d ee ea fa bd 02 42 00 be
       -0.037402872 0.06384497 -0.122518405 -0.1252518
0001b0 a5 41 fd 3c 4e 2c e5 bc 3b 61 50 3d 0e d9 6a 3d
       0.03091509 -0.027975228 0.050873976 0.057335906
0001c0 40 2d 92 3d 1b 81 3f 3d 74 fa 8e 3d a0 af 33 bd
       0.07137537 0.046753984 0.06981364 -0.04386866
0001d0 85 7f 8d 3d bc 18 09 3d 3b 1d aa bd 42 9c 41 3b
       0.06909088 0.033470854 -0.083063565 0.00295426
0001e0 7d c6 8b bd db e0 80 bd 93 6e 7f 3d 64 99 18 bc
       -0.06824968 -0.06292888 0.06236131 -0.009313915
0001f0 66 1a b8 bd a2 94 51 bd 87 27 af 3c 7e 0c 94 bd
       -0.0898941 -0.051167138 0.021381153 -0.07228945
000200 09 bd d7 bd fc 1c b6 bd e0 d4 c2 3c 86 48 91 bd
       -0.105341025 -0.08892247 0.023783147 -0.07093911
000210 26 d6 53 bd 5a 37 90 3d bb f9 4b 3c 9a f7 08 bd
       -0.0517179 0.070418075 0.012449677 -0.033439256
000220 2d 90 9f 3d f2 9b fe 3c 7a f0 3a 3c ca f0 38 bc
       0.07791171 0.03108022 0.011409873 -0.011287877
000230 d2 af 97 bd 05 6a 31 bd 4b 5f 87 3c 64 3e 96 bd
       -0.07406582 -0.043314 0.016524931 -0.07336119
000240 f9 f3 3f be 6a 70 33 3d 41 9a 50 3c dc b5 81 bd
       -0.18745412 0.04380838 0.0127320895 -0.06333515
000250 4d 2c 03 bd 00 74 44 3c 52 82 47 bd 3d b1 89 3b
       -0.03202467 0.011990547 -0.048708268 0.0042020367
000260 4a b7 ec 3c ee ff 92 3d 9f 05 1b 3d cb 3c bb bd
       0.028895993 0.07177721 0.037847158 -0.09142455
000270 6d 6b 43 3d eb 93 fc 3c 75 9e dc bc 24 27 58 3c
       0.04770987 0.030832252 -0.026931027 0.013192926
000280 a6 bd ca 3d 6f 6a 9a 3d ae 4b 1e bd 7a 9e 97 3d
       0.09899454 0.07539832 -0.038646393 0.07403274
000290 0a 7c c4 bb 0c ec 30 bd 7a 2d 7f bd 74 bf e9 3d
       -0.005996232 -0.04319386 -0.06229923 0.1141347
0002a0 e3 f2 26 bd 4a df 9d 3c 0f 50 fe 3c 2d 93 a4 3d
       -0.04075898 0.019271512 0.031044034 0.08035884
0002b0 62 3d 43 3d 84 95 e3 3d 18 4b 2d 3d a7 9c 45 bd
       0.04766596 0.11112502 0.042307943 -0.0482451
0002c0 e7 fb 0a 3e 2f a3 35 bd f8 6a 87 bc f9 78 b5 3d
       0.13572656 -0.044345077 -0.016530499 0.08860964
0002d0 d0 a6 ce bd 35 d3 92 3c 7a c2 9d bd 09 33 d0 3c
       -0.10090411 0.017922977 -0.07703109 0.02541496
0002e0 b0 0f 4b 3d ae ce 13 3d 8c ad a1 3d 5c ea 8f 3c
       0.049575508 0.036085777 0.078944296 0.017567806
0002f0 3e 4e 84 3c 71 b0 28 be 68 e2 92 bd a0 7c 2e bd
       0.01615059 -0.16473557 -0.0717209 -0.04259932
000300 1e 45 08 3e f6 a8 ad 3d 00 45 3c bd 06 5c 49 bd
       0.13307616 0.08479492 -0.04596424 -0.049160026
000310 8d 44 2d 3e b2 d9 1e 3d 5a 53 85 3e 35 7c 6c 3d
       0.16920681 0.03878183 0.26040155 0.05773564
000320 64 3a 7a 3e 86 b4 b8 3d 18 a7 d0 3d d9 82 ee 3c
       0.24436337 0.09018807 0.101881206 0.029115127
000330 d6 ff 86 bd 2d 54 c7 3d 1c db 4a 3e cb 1d 10 be
       -0.065917656 0.09732852 0.19810146 -0.14073865
000340 b3 55 b4 3d 62 fb 0b 3d 39 3e b4 bc 63 1c 1d 3d
       0.08805408 0.034175284 -0.022002326 0.03835715
000350 d9 5f 59 3d e3 a4 0a be ce 53 7f 3a 83 80 b5 3d
       0.053069923 -0.13539462 0.0009739966 0.08862402
000360 25 3b ab 3d 4c 70 9c bc ea ee 21 be e0 e5 37 3d
       0.0836089 -0.019096516 -0.15813795 0.04489696
000370 22 b9 41 bd 18 04 d2 3d cf 41 b0 bd d1 dc 81 3d
       -0.047295697 0.10254687 -0.08606302 0.063409455
000380 ea 4c 9e 3d 82 16 fc 3b 91 27 9f 3d 03 ff af bd
       0.07729514 0.007693113 0.077712186 -0.085935615
000390 ec bf 7c bc 3e 27 45 3d ec 16 b9 3d bf 57 a5 3d
       -0.015426617 0.048133127 0.09037575 0.08073377
0003a0 57 41 c1 3c e4 81 1a be da d5 a6 3d bb 5a bc 3d
       0.023590727 -0.15088612 0.08146258 0.09196993
0003b0 6b 1f 1a 3e b3 0c fb bc c6 75 98 bd f7 9e 94 3d
       0.15051048 -0.030645704 -0.074443385 0.07256883
0003c0 b6 e6 06 3e cd 2f db bd 1d 6d 99 bd c5 6c 6c 3d
       0.13173947 -0.10702477 -0.07491515 0.05772092
0003d0 1c 5a 93 bc 68 0a cc 3d 85 80 1c bd 00 44 61 bd
       -0.017987303 0.09962922 -0.038208503 -0.05499649
0003e0 a0 ba bb bd 9f d8 64 3e 9b ec 3f bd 3e 6a 2a be
       -0.09166455 0.2234826 -0.046856504 -0.1664209
0003f0 b5 39 07 3b 1e 08 ae 3d ca d2 77 bd 70 5d 15 3d
       0.0020633761 0.08497642 -0.06050376 0.036466062

net.3.module.0.bias f4 [32]
000000 fe d6 c3 bd de c4 3d bc f8 cf f8 3c 81 a2 7a bd
       -0.09562491 -0.011582581 0.030372605 -0.061190132
000010 65 54 f1 3d 31 71 94 bd af 10 f1 3c 5c b1 3d 3d
       0.11783675 -0.07248152 0.0294269 0.04631172
000020 2e 3d 9d bd c2 0f 26 bd 17 1d 50 bd 6f 3b aa 3d
       -0.07677685 -0.04054237 -0.050808992 0.08312117
000030 40 d3 67 3d 5a f7 84 bb 65 cc 7d bd 1c 72 41 bd
       0.056597948 -0.004057807 -0.061962504 -0.047227964
000040 81 19 3c 3d c4 4f 57 bd d4 fe 5c 3d 3c 52 b8 3d
       0.04592276 -0.052566305 0.05395396 0.0900006
000050 51 cc 9e 3c 3c d0 9c bd d1 0a d0 3d e2 03 22 bd
       0.019384535 -0.07656905 0.10158313 -0.039554484
000060 c7 c6 a5 3d cf 65 c7 3d 5c d6 ba bb 6b cf 8d 3d
       0.080945544 0.09736215 -0.005701823 0.069243275
000070 dc 18 87 3d 9f 30 00 3e 15 6a e3 bd 4d c3 bb 3c
       0.065965384 0.12518547 -0.11104218 0.022920275

net.4.module.0.weight f4 [32, 32, 3]
000000 6e 3f d1 bd 84 3e a7 bc 0e f9 54 3d 40 12 a7 bd
       -0.102171764 -0.020415552 0.05199533 -0.08157778
000010 f4 2a a9 bd 83 3c 3a bd d9 55 4f 3c b4 ba 15 3d
       -0.08260146 -0.045467865 0.012654745 0.036555007
000020 bc 09 3a bd 8a 7d 88 3d 76 03 88 bd 44 6a 86 3d
       -0.04541944 0.0666457 -0.06641285 0.06563237
000030 0c 14 95 3d 69 fc 91 bd e5 70 6b bd cc 18 27 bc
       0.07279214 -0.071282215 -0.05748071 -0.010198783
000040 54 6d 6b 3d d7 68 e2 3c ad f2 3d 3d fe 5c 7d 3d
       0.05747731 0.027637882 0.04637401 0.061856262
000050 df 66 0c bd ca b9 0c 3d 0d d7 18 ba ed 10 67 bc
       -0.034277793 0.03435687 -0.0005830385 -0.0141031565
000060 6f 89 cd bd 9e 72 c8 bc 54 8f 61 3d d3 ae e0 bd
       -0.10035979 -0.024468716 0.05506833 -0.10970845
000070 0e 86 b9 bd b5 6a 35 3d 72 58 83 bd bf 31 92 bc
       -0.09058772 0.044291217 -0.06413354 -0.017845986
000080 d7 82 b5 3d 7f f4 ed 3c 38 1c 3d 3c 54 ed bc bc
       0.08862846 0.029047249 0.011542372 -0.023062386
000090 23 d6 81 3d dd 31 97 bd f4 91 66 bd 40 a5 29 bb
       0.063396715 -0.073825575 -0.056291535 -0.002588585
0000a0 15 5e 70 3d 6b ee 7a bd 33 1d 6a 3d c4 ac bf 3c
       0.058683474 -0.06126253 0.057156753 0.02339781
0000b0 c7 88 7f 3d ae f3 df bd 4e 7f b9 bd ac 9c 4c 3d
       0.0623863 -0.1093515 -0.090574846 0.0499541
0000c0 40 c2 f4 bc 0f 36 fa bc 26 89 e9 bd 97 b4 65 bd
       -0.029877782 -0.030543355 -0.11403112 -0.056080427
0000d0 0f 6a 17 bd 45 3f 8f 3d ee 39 5a 3d 14 d5 b5 bd
       -0.03696638 0.069944896 0.053277902 -0.08878532
0000e0 18 9a 9e bd 5b 89 34 bd 94 38 c8 bb d1 86 d8 bd
       -0.07744235 -0.044076305 -0.0061102603 -0.10572589
0000f0 7e 65 05 3e e5 17 b1 3d af 41 49 bd bb c3 6c bc
       0.13026997 0.08647136 -0.049134906 -0.014450963
000100 db 1d 95 bc e3 92 5b bd e7 c7 5e 3d 9d 94 c0 bb
       -0.018202713 -0.05360688 0.05438986 -0.005877091
000110 8d d9 cc bd 25 47 54 3d 4f 7a 9a 3d b1 42 d3 bd
       -0.10002432 0.05182566 0.0754286 -0.10315455
000120 58 8d e1 bd 65 14 a9 3c 90 3b bd bd 0e 0d 4f 3d
       -0.11013287 0.020639608 -0.09239876 0.05054956
000130 42 64 96 bc 0f 8e a8 bd 19 1f 7f 3d 5a f6 87 3d
       -0.018358354 -0.082302205 0.062285516 0.06638785
000140 4e ac 69 3d e8 c3 91 bd 35 03 1b 3b 20 54 25 bc
       0.05704909 -0.07117444 0.0023653035 -0.010090858
000150 b8 27 87 3d 37 a1 2f bd b0 43 85 3d 7e d8 bb 3c
       0.065993726 -0.042878356 0.06507051 0.02293038
000160 5f 10 00 3d 36 48 3d 3d 6b be e4 bd 7f 5a 24 bd
       0.031265613 0.046211444 -0.11169132 -0.040125366
000170 dc 94 c3 bd ce 16 4b 3d 5c f6 a4 bd b3 5d 90 bc
       -0.09549877 0.049582295 -0.08054802 -0.017622804
000180 53 a8 af bb e7 fd a7 ba c5 88 ac 3c a5 b1 4b bd
       -0.005360642 -0.0012816758 0.02106131 -0.049729962
000190 55 67 b1 3a 06 05 81 bd d1 a0 0d be 06 20 30 3d
       0.0013534824 -0.06299786 -0.13830878 0.04299929
0001a0 d3 22 52 3d 46 b7 b2 3c d7 40 62 3d 3b c7 ab ba
       0.051302742 0.021815907 0.055237617 -0.001310564
0001b0 fc 35 1b 3c 99 c7 b8 bd 05 8f 92 3d 9a 02 9e bd
       0.00947332 -0.09022445 0.07156185 -0.0771534
0001c0 69 67 15 3e ae b0 94 3d 05 b8 f6 b9 0c d4 4e 3d
       0.14590229 0.072602615 -0.00047057882 0.050495192
0001d0 c2 fd c2 3d 24 c7 51 3a 5a 56 5a 3d 08 10 c0 ba
       0.09521057 0.00080023916 0.053305008 -0.0014653215
0001e0 d4 38 30 3d e9 24 f2 bd 4a 88 8c 3c bf ef 9d 3d
       0.043022946 -0.11823446 0.017154831 0.077117436
0001f0 a7 53 2e bc 2c ec db 3d 2d a7 46 3d b0 69 7a bc
       -0.010640061 0.107384056 0.048499275 -0.015283987
000200 1a 0b ff bc a5 80 a0 bd f8 4d 81 bd d6 66 0c 3c
       -0.031133223 -0.07837037 -0.063136995 0.00856944
000210 d2 a5 04 3d 67 b0 77 bd e6 87 49 3d 8d 86 7c bc
       0.0323847 -0.060470965 0.04920187 -0.015412939
000220 1b 40 d7 3d 66 3e 91 3d e4 2e 58 ba da 33 80 3d
       0.10510274 0.0709198 -0.00082467333 0.0625989
000230 b5 bd d6 bd ad df 9c bd e2 e9 aa 3c 46 4f ae 3d
       -0.104854025 -0.0765985 0.020863477 0.08511214
000240 10 28 2c b9 20 e0 ee 3d 10 c5 6e bd 15 a8 8c bc
       -0.00016418123 0.11663842 -0.058293402 -0.017169992
000250 b4 87 be bd 84 24 de bc 95 1e 2d bd 7b 67 00 3e
       -0.09303227 -0.027117021 -0.042265493 0.12539475
000260 97 ab 2b bd fc d3 d6 bd 97 1b bc 3d a9 ac d1 3c
       -0.041911688 -0.104896516 0.0918495 0.025595026
000270 9c 5a 9a bd 8d 12 c2 bd a1 bb ab 3d 10 79 9a 3d
       -0.075368136 -0.094761945 0.08385397 0.07542622
000280 31 81 a9 3d 39 a6 87 3d b9 51 b8 bc cb 09 11 3c
       0.082765944 0.06623501 -0.022499906 0.0088524325
000290 81 43 26 3c 18 e1 58 bc c6 38 bb bc 65 be a6 3d
       0.01014793 -0.01323726 -0.02285422 0.081417836
0002a0 20 66 da bd ef 37 51 3c 1c 71 57 3c 68 82 50 3d
       -0.1066401 0.012769683 0.013149526 0.050905615
0002b0 39 b7 60 bd e3 ca b0 3b 39 fe ae bc 7a f4 20 3d
       -0.054862235 0.0053952797 -0.021361457 0.03929565
0002c0 22 60 ba 3d 14 50 de 3b 07 6c a1 3d 29 cf 3c bd
       0.09100367 0.0067844484 0.07881933 -0.046096
0002d0 6c df 98 bd ad bc ad bd 04 d1 76 bd f3 cf 81 bd
       -0.07464489 -0.08483253 -0.060257927 -0.06338491
0002e0 df cf 05 3d c4 5e 69 bd 66 04 53 3d ca 9b 82 bd
       0.032668944 -0.05697514 0.051517867 -0.06377371
0002f0 9f f2 cc 3d c5 29 d7 bd c1 de cf 3d ab 4e ff bc
       0.10007214 -0.10506014 0.10149909 -0.031165441
000300 be e1 ba bd f0 31 dd bc 19 31 41 bd 55 5c d0 3c
       -0.09125088 -0.027001351 -0.047165964 0.025434652
000310 29 0c d5 bc 29 ca 26 3d 29 cb 10 3e 87 f0 af bd
       -0.026006775 0.04072014 0.1414 -0.08590799
000320 11 5f bb 3d d6 87 75 bd 35 35 dd bc 46 12 c5 bd
       0.09148992 -0.059943996 -0.02700291 -0.09622626
000330 6b d5 a3 bc e3 c8 5c 3c af 29 50 3d f0 bd b2 3d
       -0.019999227 0.0134756295 0.050821003 0.08727634
000340 30 b7 4e bd 79 1d 08 bd 03 13 39 bc 8e 02 1b 3d
       -0.05046767 -0.033231232 -0.011296037 0.037844233
000350 b9 f6 a9 3d 8f 5e 40 bd b7 8b 90 bc bb 7d 91 bc
       0.08299012 -0.046965178 -0.017644746 -0.017760148
000360 aa 94 e3 3d 69 c1 5b bd 39 ef 62 3d 4a 62 f1 bc
       0.1111234 -0.053651247 0.05540392 -0.029465813
000370 b9 45 b0 bc 21 92 6d 3c b9 0d 3c 3d 18 39 dc 3b
       -0.021517621 0.014500172 0.045911524 0.0067206733
000380 57 69 e9 3a cc 4f bc bd 1e 4b 6f bc 1a 51 94 bd
       0.0017807883 -0.091949075 -0.014605312 -0.072420314
000390 d0 a4 4e 3c 6d f6 5a 3d 90 05 97 bc 7b a4 8c 3d
       0.012612537 0.053457666 -0.01843527 0.0686731
0003a0 4d 28 7d bd 92 44 72 bd 65 7a 27 3d 22 13 13 bd
       -0.061806012 -0.059147425 0.04088821 -0.03590692
0003b0 bc 40 0a bd 1d 48 4f bc 54 fe 14 bd 73 be 80 3d
       -0.03375314 -0.0126514705 -0.03637536 0.06286325
0003c0 d5 18 40 3e ed ac 87 bd 29 c2 00 be d5 47 98 3c
       0.18759473 -0.0662478 -0.12574066 0.01858894
0003d0 3c b1 65 3d 30 0d c8 3c b4 54 da bd ab 81 7a bc
       0.056077227 0.02442035 -0.10660687 -0.015289704
0003e0 a4 a1 42 bd 59 72 16 3e 29 98 56 bd 87 6c 29 3d
       -0.047517434 0.14692058 -0.052391205 0.041363265
0003f0 3b 82 1e 3d a3 f5 c2 3d 76 7f c7 3d d4 56 ce 3d
       0.038698416 0.09519508 0.09741108 0.10075155

net.4.module.0.bias f4 [32]
000000 f1 98 d2 bc bf 92 82 bd 87 27 fa 3d 06 ee 52 3d
       -0.025707694 -0.06375646 0.122145705 0.051496528
000010 c6 4b 9a 3d 94 42 5d 3d 59 bd a5 bd d4 1c 3d 3d
       0.07533984 0.054018572 -0.08092756 0.04617007
000020 10 a0 2f bd 4a 0f c6 3d a8 4d f2 bb f0 e0 08 3d
       -0.042877257 0.09670885 -0.0073945113 0.033417642
000030 c5 16 27 3d 5c 10 c4 3c 5c 4b ee bc 8a d7 4a bd
       0.0407932 0.023933582 -0.029088669 -0.04952196
000040 e2 bf 84 bd 1b 85 97 3c fe 93 9d bd a2 9f a3 3d
       -0.06481911 0.018496087 -0.07694243 0.07989432
000050 78 59 98 bd 36 64 a4 bd be 38 88 bd b2 9a 36 3d
       -0.0743894 -0.08026926 -0.06651448 0.044581123
000060 9f 4c 73 3b 5b e1 ef 3b 24 3f e2 bc ef d7 82 bd
       0.0037124527 0.0073205656 -0.027617998 -0.06388842
000070 b8 4f b2 3c bf 6a 13 bb 97 99 36 bd 47 d2 81 bc
       0.021766528 -0.0022494046 -0.04458007 -0.015847338

net.5.weight f4 [32, 32, 3]
000000 0d 8c d9 bd 3d cf 47 bb e3 ab c4 3c 12 3f bf 3d
       -0.10622416 -0.0030488514 0.024007743 0.093382016
000010 f4 b1 ea 3c 91 c2 31 bd d9 d1 b5 bd 52 9f e7 3b
       0.028649308 -0.043398444 -0.08877916 0.007068553
000020 1f 2f a2 bd 6f 7e ae 3c a2 f0 53 bd 17 b4 86 bd
       -0.07919144 0.021300523 -0.051743157 -0.06577318
000030 17 e9 e7 3b 1f 58 b6 bd 3c 10 89 3d 98 1a 83 3c
       0.007077347 -0.089035265 0.066925496 0.016003892
000040 b3 6e c0 bc 70 b8 28 bd 5c 4d 07 3d d0 61 b6 bd
       -0.023490286 -0.04119152 0.03303276 -0.08905375
000050 7b f2 2e 3d 0b c6 f9 bb d7 7e 08 3b c2 0a 7e 3d
       0.042711716 -0.0076224855 0.0020827556 0.06202198
000060 5f 0f c8 bb 93 be 82 bc 84 52 8f 3d 8a 8e 76 3d
       -0.006105348 -0.015960013 0.069981605 0.06019453
000070 df 32 bc 3d da 4c 8e 3d 3d ee 42 3d 6f a1 04 3c
       0.091893904 0.06948252 0.047590483 0.008095129
000080 28 aa 07 bb f5 75 8d 3c 62 07 92 bd 06 ad 96 ba
       -0.0020700786 0.01726816 -0.071303144 -0.0011495657
000090 90 51 7f 3a be 30 33 3d 97 6a f4 3d 9d f4 c1 3d
       0.0009739632 0.043747656 0.11934393 0.094704844
0000a0 66 1c d3 bd 3b d4 43 3d 49 1e b5 3c eb 62 c8 3c
       -0.10308151 0.04780982 0.022109168 0.02446123
0000b0 3a 4b bb 3d 16 05 5e bd 15 64 49 bc d3 f6 b3 3d
       0.09145208 -0.05420407 -0.012291928 0.08787312
0000c0 a2 e9 37 bd 09 c8 02 bb 58 ea 1b 3c 81 77 85 bd
       -0.044900544 -0.0019955656 0.009516321 -0.06516934
0000d0 59 1c 74 3d c2 83 b4 bc c0 7d d6 3c c5 28 71 bd
       0.059597347 -0.022035483 0.02618301 -0.05887677
0000e0 6e 8f 94 bd 25 22 9b 3d 9b ba 99 3d d7 7e d9 3d
       -0.072539195 0.07574872 0.07506295 0.10619896
0000f0 d7 1f 65 bd 3a 24 74 3d cf 0a 99 3d 96 75 00 be
       -0.055938568 0.05960486 0.07472765 -0.12544855
000100 92 24 8d 3d 76 7a 45 3d 8b ee b4 3d b2 bc c0 3d
       0.06891741 0.04821249 0.08834561 0.09410991
000110 14 dd 26 bd 50 63 9e bd e2 1e 20 3c 8c 29 99 bd
       -0.04073818 -0.07733786 0.009772988 -0.074786276
000120 d6 d2 8a bd ab ab 5c bd f5 82 19 3d 3b 4e a6 bc
       -0.06778495 -0.053874653 0.037478406 -0.020300975
000130 cc 54 a5 3d b8 a3 b4 3c 92 1f bf 3d e4 16 b6 bd
       0.08072814 0.022050723 0.093321934 -0.08891085
000140 e6 b1 7f bc 3e 5d 03 bd 1d 31 95 3d ff 41 7d 3c
       -0.015606379 -0.032071345 0.07284758 0.015457629
000150 f6 7d d4 bc 2e 6d af bd b5 24 95 bd 15 bf df 3d
       -0.02593897 -0.08565746 -0.07282392 0.10925118
000160 d9 47 0a bd 41 f9 75 bd 3b 2f f5 bc 43 e3 ce 3d
       -0.033759926 -0.06005216 -0.029929748 0.101019405
000170 f9 36 a3 bc 92 36 80 bd 73 5f 15 bc 29 0d 1c be
       -0.019923674 -0.062604085 -0.009116995 -0.15239395
000180 55 a4 22 3d 63 23 bf 3b d1 13 67 3d fb 0f 3a bd
       0.0397075 0.005833076 0.056415383 -0.045425396
000190 29 6c f0 bd f4 f1 45 bd 2b cc 43 3d ad 96 b5 bd
       -0.1173938 -0.048326448 0.04780213 -0.0886663
0001a0 1e cb 0f 3d c9 39 70 3d cb d3 96 ba 5b 44 f0 bd
       0.035105817 0.05864886 -0.0011507211 -0.11731788
0001b0 9e a7 db bd 48 13 a8 3d c1 4c 3b bc 5b a7 86 3b
       -0.1072533 0.082068026 -0.011431874 0.004109306
0001c0 7c 74 07 bd 45 04 07 3e 48 52 61 bd d4 d5 0e bb
       -0.033070073 0.13185222 -0.05501011 -0.0021794932
0001d0 17 14 1d 3c 0f 8a 97 bd e3 9a 65 3c 58 e8 38 3d
       0.009587309 -0.073993795 0.014013979 0.045143455
0001e0 f3 84 ac 3d 9a 15 be 3d 8d 46 a9 bc b2 bd 59 3d
       0.084237956 0.09281464 -0.020663524 0.053159423
0001f0 bf 16 48 bd 96 8a dc 3c 41 cc 28 bd b8 d0 a9 bd
       -0.048849817 0.026921552 -0.041210417 -0.08291763
000200 c3 fd 70 3d 1f 2e bd ba 97 26 a0 3d d4 96 fe 3c
       0.058835756 -0.0014433301 0.078198604 0.03107778
000210 e4 44 11 3d 7c 2f 41 3d 8d 1e 94 bd be 41 a7 bd
       0.03546609 0.047164425 -0.072323896 -0.08166836
000220 b9 b3 8b 3c 71 d1 f9 bd e1 1d ec 3b 14 6a f9 bb
       0.017053472 -0.12198151 0.0072057103 -0.0076115225
000230 2d 76 3c 3c f7 55 b6 3c 1a b0 32 bd 7b bb ac bd
       0.011502785 0.022257788 -0.043624975 -0.084341966
000240 9c aa 41 3c 35 d6 5a bd b7 2b 02 3d df f6 c4 bd
       0.011820462 -0.05342694 0.03177997 -0.096173994
000250 66 95 4b 3d 00 18 88 bd f3 71 88 3d 74 a0 a0 3d
       0.049703024 -0.06645203 0.06662359 0.07843104
000260 88 dc 7e 3b 38 ff cd 3d fd 63 3d 3d 1a ab 91 3c
       0.003888877 0.10058445 0.046237934 0.017781783
000270 b8 9e 9f bd 18 48 74 bc 87 86 75 bc 12 0a 26 3d
       -0.07793945 -0.014909767 -0.014985687 0.040536948
000280 a5 7b 4e 3d ba 2d b0 3d 87 84 61 3d 78 de 94 3d
       0.050410885 0.08602472 0.05505803 0.07268995
000290 1e 55 c2 bd e0 11 25 bc 0b 23 2a 3d e1 48 a3 bd
       -0.09488891 -0.0100750625 0.041537326 -0.07972885
0002a0 16 1b 12 bc 63 4f b4 3c 52 d8 83 3d e1 a0 71 3b
       -0.008917591 0.02201051 0.06437744 0.0036869573
0002b0 22 ec 1e bd 75 d0 a9 3d 23 57 92 3c 8a 73 cb bc
       -0.038799413 0.08291713 0.017863816 -0.024835367
0002c0 22 26 22 3d 78 e1 de bd 87 d7 0e bd 7b 38 61 3d
       0.039587148 -0.108828485 -0.03487351 0.054985505
0002d0 39 5b 7b 3d c8 8f 74 bd 45 46 95 bd 18 cc a9 bd
       0.061366294 -0.059707433 -0.072887935 -0.08290881
0002e0 45 3b 81 bd e1 ea 3b 3c c7 db 94 3d c1 10 ca 3d
       -0.06310133 0.011469574 0.07268482 0.09866477
0002f0 db 62 96 3d ab 80 02 bd 62 18 be 3d e5 66 b1 3d
       0.07343074 -0.03186099 0.092819944 0.08662204
000300 de 19 c0 bd b8 ce 81 bd 9e 5a 87 3c aa ee 7a bd
       -0.09379934 -0.063382566 0.016522702 -0.061262764
000310 81 d1 0e 3c b4 88 f1 bc b6 94 06 bc ff e7 ca bb
       0.008716942 -0.02948413 -0.008214166 -0.006192207
000320 df 85 70 3d 4a e6 a3 bd 5b 27 cb 3c ac 1b 4d 3a
       0.05872142 -0.080029085 0.02479904 0.0007824253
000330 3f 6e ba bc 13 87 40 3b b8 d4 37 bc bc da 84 bd
       -0.022757648 0.0029377386 -0.01122015 -0.06487033
000340 50 d1 a5 bd c7 64 26 be b3 7c ed 3b b1 5a 87 3d
       -0.08096564 -0.16249381 0.0072475313 0.06609095
000350 68 29 7f bd 8e d5 b7 3c b8 af 46 bd 00 27 ef 3c
       -0.062295347 0.022440698 -0.048507422 0.029193401
000360 9b 36 66 3d f7 87 87 3d 28 6f fc 3d 37 33 50 3d
       0.05620442 0.0661773 0.12325889 0.050830092
000370 12 da 2f bd 26 12 e0 bc 94 e9 62 3d 6b f6 13 bd
       -0.042932577 -0.027352404 0.05539854 -0.036123674
000380 2b 4f 92 3d a0 ec 09 3c 00 fa 8e 3d d7 d6 a9 bc
       0.07144006 0.008418232 0.069812775 -0.020732326
000390 cc 9f d9 3d bc cc 7c 3d 32 bd 53 bc 95 2a 9c bd
       0.10626182 0.061718687 -0.012923526 -0.076253094
0003a0 a1 12 b5 bd ba 64 0e 3c c7 ad 9a 3c 71 26 3e 3d
       -0.08841444 0.008691007 0.018881692 0.04642338
0003b0 a4 dc 8f 3d 15 e0 6a 3d 40 48 8e 3d 12 c7 9c bd
       0.07024506 0.057342608 0.06947374 -0.07655157
0003c0 57 07 e4 3b f6 cc a5 3d 35 77 a6 3c f7 d5 c2 bd
       0.006958883 0.08095734 0.020320514 -0.09513467
0003d0 8f 4b 35 3b 70 59 8e 3d d8 64 cb bc 15 95 bd 3d
       0.0027663445 0.069506526 -0.02482836 0.09256951
0003e0 f2 c5 ba bd 4e 62 61 bd fe 4b 2f 3d d3 88 cc 3d
       -0.09119786 -0.05502539 0.04279708 0.09987035
0003f0 03 0e 83 3c 54 3c 42 3d b7 93 75 bd c6 a4 0d be
       0.015997892 0.047420815 -0.059955325 -0.13832387

net.5.bias f4 [32]
000000 f2 cc 70 3c 32 0a 07 3d 3e af 83 bd 6e d8 eb bb
       0.0146973 0.032968707 -0.06429909 -0.0071974313
000010 16 9d 45 3d 59 61 c6 3d bc e0 c3 3c 55 a6 0a bd
       0.048245512 0.09686536 0.023910873 -0.033850033
000020 a1 23 d0 3d 17 c7 1c 3c 0b 26 a0 bd 1d f2 97 3c
       0.10163046 0.009568951 -0.07819756 0.018548066
000030 96 79 cd bd e0 7f 44 3d 05 9f 25 3c f5 92 5e bc
       -0.10032956 0.047973514 0.010108714 -0.013584842
000040 58 4d f3 3c ef dd 6c 3d e9 d9 36 bd e2 4e b0 3d
       0.029699966 0.05782884 -0.04464141 0.08608796
000050 0d ac 5f 3d ba 87 91 3c be 07 cb 3d 43 5e 91 bd
       0.05460744 0.017764915 0.09913586 -0.07098057
000060 aa d6 b0 bd 04 64 7f 3c 06 ed aa 3d 34 1e e2 bd
       -0.08634694 0.01558781 0.0834599 -0.11040917
000070 ff 1c c1 3c f2 3f da 3d 6a b2 8f bd f8 87 7b 3d
       0.023573397 0.10656728 -0.07016452 0.061408967

exp_avg f4 [32, 538, 2]
000000 e3 d9 21 3a cb 5a 8c 3a 38 3e 68 3a 84 95 df 3a
       0.000617413 0.0010708211 0.0008859369 0.0017058109
000010 92 45 1d 37 f2 35 4e 37 c8 89 bf 37 e8 2e b4 39
       9.374127e-06 1.2291117e-05 2.2833134e-05 0.00034367223
000020 82 fb 9e 39 34 ea 8f ba d0 5c 73 37 2f 6f 04 b9
       0.00030323496 -0.0010979832 1.4505538e-05 -0.0001262992
000030 26 81 9c b9 1e d7 d6 39 ed 62 08 3b 0d 71 59 3b
       -0.00029850862 0.00040977536 0.0020810917 0.0033178956
000040 60 58 b1 b7 66 fd 6f 38 c6 84 cb 3a de 59 90 3a
       -2.1141197e-05 5.7218036e-05 0.001552724 0.0011013111
000050 4a fe fa b8 90 e3 b7 b9 33 8b 04 37 f7 a3 69 b5
       -0.00011968294 -0.00035074027 7.900223e-06 -8.7037864e-07
000060 51 13 0f 3a e4 0b a7 37 6e 20 43 35 8b dd a6 37
       0.00054578955 1.9913488e-05 7.269035e-07 1.9891906e-05
000070 ff 8f 0b ba b2 91 6e b9 95 76 2f 3a ed 67 89 3a
       -0.0005323886 -0.00022751724 0.00066933903 0.0010483243
000080 82 2a 1c 39 30 e5 9e 38 b1 de 59 37 b4 af 01 37
       0.00014893155 7.5767166e-05 1.2986057e-05 7.729908e-06
000090 9a 1e 6e 38 38 c2 d7 36 6e 17 86 38 1c ed 07 38
       5.677212e-05 6.4301094e-06 6.393982e-05 3.2407333e-05
0000a0 1c 05 0e ba dc c5 2e 39 c0 fb fe 36 db 22 8b 39
       -0.00054176315 0.00016667641 7.5990974e-06 0.00026538115
0000b0 86 7a 21 b8 0d 3d 89 b7 ab 6a 90 ba f0 e6 56 bb
       -3.84995e-05 -1.6360102e-05 -0.0011018118 -0.0032791458
0000c0 0e 04 d9 39 9b 9b e4 3a ac 41 99 39 a0 ef 39 38
       0.00041392486 0.0017441394 0.00029231363 4.4330605e-05
0000d0 c7 08 02 b8 7a 08 8f 3a 7a 5c 1a ba 88 91 fe b7
       -3.100259e-05 0.001091256 -0.0005888414 -3.0346928e-05
0000e0 14 1f 37 38 7a d4 96 38 66 44 10 3a 20 95 bb 39
       4.3659544e-05 7.192134e-05 0.0005503356 0.00035778526
0000f0 1e 75 0d ba 28 59 11 39 09 7d 13 39 0a e4 ac 39
       -0.0005396175 0.00013861491 0.00014065592 0.000329763
000100 f1 ac a3 39 7a 5d 1a 39 40 b0 12 b6 a9 4a 23 32
       0.00031218634 0.00014721407 -2.1858286e-06 9.5048245e-09
000110 8b 69 46 b8 77 6a 2f b8 2d 03 9c 38 1c 83 5c b7
       -4.7305173e-05 -4.1822404e-05 7.439251e-05 -1.3143548e-05
000120 18 94 9d b7 ff c2 14 37 0f b9 33 39 cc 00 08 38
       -1.878482e-05 8.8668885e-06 0.0001713971 3.242567e-05
000130 21 de 27 b7 b2 d6 64 b8 04 31 79 ba d8 3f 6f ba
       -1.0005694e-05 -5.4559387e-05 -0.00095059 -0.000912664
000140 d8 f8 00 39 8a cc 53 38 eb d8 2d bb 23 55 2d bb
       0.00012299733 5.0496812e-05 -0.0026526998 -0.002644845
000150 12 26 5f ba 78 88 1a 38 02 7e ae 3a 56 13 2f ba
       -0.0008512448 3.6843558e-05 0.00133127 -0.00066786015
000160 3e d8 16 39 5b d8 a5 b9 8d e5 0d b9 48 20 10 ba
       0.00014385671 -0.0003163245 -0.00013532322 -0.00054979743
000170 bc 57 e0 38 bc 95 96 38 4a ca 16 38 1e 9e 10 b8
       0.00010697494 7.1804476e-05 3.5951183e-05 -3.4479533e-05
000180 2e 96 6d 3a 0e c4 6f 3a 00 00 00 00 00 00 00 00
       0.0009063211 0.0009146341 0.0 0.0
000190 f0 31 27 b9 b2 ab 98 b8 a6 c4 bf 39 f6 cb 08 3b
       -0.00015944964 -7.2799055e-05 0.00036576873 0.0020873523
0001a0 32 b0 b8 3a f5 6e 87 b9 11 a7 50 ba 10 01 29 b8
       0.0014090596 -0.00025831876 -0.0007959465 -4.029373e-05
0001b0 34 e6 cd b9 d4 e1 20 39 bc ce 5d b7 a4 6a 08 b9
       -0.00039272162 0.00015342917 -1.3220761e-05 -0.00013009697
0001c0 7a 91 a3 b8 b8 e0 56 37 cf 0b 1c 39 d4 cb d6 39
       -7.799543e-05 1.2807715e-05 0.00014881718 0.00040969125
0001d0 a2 f2 1f b8 52 31 0d b7 22 90 a5 39 c4 b6 cd 38
       -3.8134523e-05 -8.415738e-06 0.0003157864 9.8092045e-05
0001e0 99 81 f3 39 86 7b b6 b9 5a e4 94 3a 84 4d 83 38
       0.0004644513 -0.00034805777 0.0011359558 6.261005e-05
0001f0 04 a1 b4 ba f2 45 0d bb 90 7a 36 36 de 28 9d b9
       -0.0013780897 -0.0021556583 2.7191454e-06 -0.00029975822
000200 aa 25 62 3a 67 f3 df 39 bd 36 1d 39 01 12 8c b9
       0.0008626828 0.00042715223 0.00014993078 -0.00026716295
000210 ef 38 84 b9 9f 91 f6 3a b4 af a0 b8 9a dd fa 38
       -0.0002521942 0.0018811709 -7.662122e-05 0.000119622055
000220 6f bf 1f 39 d6 4e af b9 20 76 87 b8 21 8a 23 b9
       0.00015234736 -0.00033437338 -6.459304e-05 -0.00015596348
000230 2b f6 0c 3a 5e 9c ff b9 14 f7 03 bb ec cb ec ba
       0.0005377258 -0.00048753893 -0.0020136284 -0.0018066145
000240 51 b0 bb 3a fb af 8f 3a 8c 06 26 38 78 66 a6 37
       0.0014319514 0.001096248 3.958358e-05 1.9836458e-05
000250 b5 02 e9 b9 4e ba 97 38 ec b4 8f b9 de e9 18 ba
       -0.0004444324 7.234943e-05 -0.00027409883 -0.0005833189
000260 fd 93 03 3a f3 0e 49 ba 42 fe 26 b9 be fb 97 3a
       0.00050193054 -0.0007669769 -0.00015925712 0.0011595411
000270 2a 79 48 38 ec 5d 92 b9 d4 8e da b8 1e d1 0f bb
       4.779656e-05 -0.00027917267 -0.00010421654 -0.0021944712
000280 d0 8a 32 ba fb a3 8f b9 c1 51 1b 3a ca 5a 75 3a
       -0.0006810846 -0.0002739726 0.0005924963 0.0009359537
000290 f8 a5 65 3a 06 5c a9 3a 58 14 09 bb 57 3f c1 39
       0.0008760388 0.0012921102 -0.0020916667 0.0003685902
0002a0 ff 3e d3 3a 32 5b d6 39 24 a7 ee ba 74 03 0c b9
       0.0016116797 0.00040885207 -0.0018207771 -0.00013352727
0002b0 bc 23 2f 3a 01 e8 bd ba e5 fb 9f b9 84 01 13 39
       0.0006681045 -0.0014488698 -0.0003051452 0.00014019577
0002c0 61 77 50 b9 7b b3 20 b9 32 6a 30 b8 13 94 19 b8
       -0.00019880898 -0.00015325651 -4.2060572e-05 -3.6615947e-05
0002d0 82 0b 3d ba 3e e3 3e bb 0a c8 a4 39 de a3 03 b9
       -0.00072114926 -0.0029127146 0.00031429558 -0.00012554179
0002e0 d3 34 bd ba 88 9c 9f b9 20 9e 09 3b fb 59 a7 3a
       -0.0014435299 -0.00030443468 0.002099879 0.0012767905
0002f0 d9 3b 26 b8 36 05 b6 b7 7e e7 a0 39 7d c2 6c 39
       -3.963322e-05 -2.1698517e-05 0.00030690053 0.00022579166
000300 ff 23 5e 38 18 47 da 38 c2 52 32 ba 6d 7f ea 39
       5.296245e-05 0.00010408292 -0.0006802493 0.00044726898
000310 86 af 0f b9 34 83 ef b9 43 db 09 3a bb 2b 15 3a
       -0.0001370293 -0.00045683386 0.0005258808 0.0005690415
000320 7e d3 7a 39 75 39 82 b9 d2 13 4c b6 0c 4b df b7
       0.00023920645 -0.0002483834 -3.0409906e-06 -2.6618618e-05
000330 5c ed 4a b9 d1 09 36 ba 40 63 64 3b 9c 51 0b 39
       -0.00019352644 -0.0006944212 0.0034849197 0.00013286475
000340 8e 7b 68 3a 80 16 32 ba 21 e8 b0 ba d5 cf a7 3a
       0.0008868509 -0.0006793514 -0.0013496914 0.0012803028
000350 60 91 d0 b9 ca 37 8e ba 30 03 27 3a de 03 f6 b9
       -0.00039781164 -0.0010850367 0.00063710194 -0.00046923658
000360 0c e2 41 37 ce 85 af 36 b0 93 77 b8 61 e5 89 3a
       1.1556327e-05 5.2309833e-06 -5.9026934e-05 0.0010520631
000370 30 92 9e ba 09 fd 78 ba fd d2 7e 3a 84 9e 02 3a
       -0.0012098011 -0.00094981544 0.0009720771 0.0004982727
000380 ec 37 4e b9 aa 9c 14 ba 82 5c b0 39 63 99 c0 39
       -0.00019666523 -0.0005669097 0.0003363826 0.00036735376
000390 00 a0 35 38 6a dc ad 38 a5 d1 28 38 c8 5f ea b8
       4.3302774e-05 8.290338e-05 4.0249568e-05 -0.0001117583
0003a0 b1 44 dc 39 c7 a6 7e 3a cc 2f e3 38 53 9b 94 3a
       0.0004201285 0.0009714183 0.00010833106 0.0011337794
0003b0 5e 16 a6 3a 46 d9 57 3a d2 36 89 3a 33 cc e7 3a
       0.0012671461 0.00082339754 0.0010468608 0.0017684757
0003c0 d0 eb 3e b6 7c d1 41 b8 f2 6d 17 b9 2e f3 fa 38
       -2.8449467e-06 -4.6209883e-05 -0.0001444144 0.00011966225
0003d0 50 c3 c0 b2 bd 04 19 b6 9a c8 bb 3a 4c 2f d7 3a
       -2.244056e-08 -2.2801535e-06 0.0014326752 0.0016417294
0003e0 f0 e0 8e 38 ea ad 09 38 60 af cb b9 58 c9 80 39
       6.8129855e-05 3.2825315e-05 -0.00038849842 0.00024564075
0003f0 4d 90 0b 38 3c 9e a9 37 50 07 02 bb eb 81 3a ba
       3.3274573e-05 2.0220054e-05 -0.0019840784 -0.0007114696
