cebra_models/reach1_4/01/B/cebra_trialID_SucessFailure_shuffled_model_5000_32_reach1_4_B.pt (torch, 744089 bytes, 31 tensors)

net.0.weight f4 [32, 538, 2]
00000000: a959 babc 5f04 29bd edb4 24bd 2291 3fbd
00000010: a53d 45bc ee75 85bc c919 65bc 2ba1 20bd
00000020: 899e 0fbc 53bc 47bd cd53 53bd 56c9 88bc
00000030: c673 d4bb 1dce c13c d1bb 993b 3d8e a1bc
00000040: e757 b83c aed6 8bbc 1506 71bc f0d2 10bd
00000050: f87f 943c 32e5 e53c bee7 83bc 939e 743b
00000060: c9f1 ff3c 8c8d b2bc 38e5 b2ba aa81 c9bc
00000070: 2b47 bcbb e689 23bc 11b8 033d 387b 8c3b
00000080: e992 623c fa42 91bc 4fc8 1abd 946f e8bc
00000090: 0f6f cdba 3819 983c 9ee0 9cbc a7f8 c5b9
000000a0: e48a 253c 0374 7cbc 4831 0d3c f148 873c
000000b0: e71c 113c cc8c 21bd d2bb e8bb 056c 05bd
000000c0: 3614 bf3c bf8d a63c b97f eeba b792 91bb
000000d0: 7462 75bc d7a9 ac3c d62d df3c a3ef e1bb
000000e0: f693 8a3c 2674 c0bb c64c 2bbc 26a5 1bbd
000000f0: a339 3d3c 1275 6abb cc68 4dbd 29c8 533c
00000100: 16a4 97bc 31e1 9e3c d200 a63c cb4d 883c
00000110: 8b76 893c 1dda a43c 0d9a e13a d5a5 12bd
00000120: a406 d23b 9617 83bc a63e 70bd e436 84bc
00000130: 3bfb b93c e5ce 1a3c 4bf0 cf3c b0bd 3abc
00000140: 2404 613c 8792 34bc 14f7 f2bc 27cc aa3c
00000150: 8652 d53b 0f4a ec3c fc03 63bc da74 e43b
00000160: 5033 d3bc 7b5e 573c 7f51 b63c e580 9d3c
00000170: df9a 9f3c e0ae 283d 71ae eebc e61f 5cbd
00000180: 97e9 053c fa10 b8b8 bae7 d6bc 665c a3bc
00000190: 2472 c53b e970 ecba 22b6 27bd 8c66 e03a
000001a0: 6538 163c d4e8 573c e9df 97bc 3d5d dcbc
000001b0: 4b31 8abb 33a3 8f3c 07a6 91bc 54de 92bc
000001c0: 89f2 10bd 8a9b 303d a217 0ebd 5f60 563c
000001d0: 0aad 0abd 30ff c8bc 6929 643c 8961 57bd
000001e0: 3390 8bba 85b7 e03b ce94 073d 0295 e3bc
000001f0: 83e1 ff3a 7807 e8bc 25b9 24bd c05d 03bc
00000200: 023d 53bc cdfe af3c f063 053c b589 813b
00000210: 3b26 d6bc 9d46 94bc 4bca 07bd 5316 9e3c
00000220: eacb cb3c 5065 fbbb 6372 23bd c379 1a3d
00000230: 226b c6bc 673b b63b d6c7 c1bc 66c0 1c3c
00000240: a5f2 9abb c192 1ebd 39bd 603c a12e 143c
00000250: f82f bebc c2f5 3d3a 6f72 d03b 3489 a3bc
00000260: 9428 b93c 9f57 213d 21c8 863c 61eb 22bc
00000270: 568d 253c 3af3 f4bc e577 d5bc 3e96 e3bb
00000280: 2572 29bc 1a47 09bd 102d 9dbc a786 dfbb
00000290: 3bb8 b439 893d d6b9 4032 2b3d 9ca4 483a
000002a0: 265f bebb 63ed 1ebc ef2c 86bb e713 3e3c
000002b0: 35c3 a1bc 179f 1cbd 925f 603b fa95 18bd
000002c0: f91c 8dbc 6364 8cbc f85e 7e3c 15ea ad3c
000002d0: b732 553c af43 26bd 49f9 9a3c 27d4 f7bc
000002e0: 50d4 4fbc b248 063c 12c1 ccbb 37e4 213d
000002f0: 16f2 0e3b dd20 e83b d43b 8a3c 8521 64bc
00000300: 3015 023d ef8f 2cbc 329c d6bb 2a3f 1039
00000310: c7e3 dfbc f29e d63c acec 2ebd ff43 493c
00000320: 601b 91bc 9494 82bc 9680 a5bc a79a 753c
00000330: b53d 85bc b074 60bc 7c91 01bc cf12 0cbc
00000340: 00fa 35bc fe39 7fbc c2d1 603c 68fa 66bc
00000350: a940 ed3c 96bb 643c 815d 53bc d71c b5ba
00000360: 4fa3 9cbb bc9f 39bd e63d 0fbb 5dc8 e73c
00000370: 9f7a c2bc 1005 5c3b e3ec 95bc 669e e7bc
00000380: 3daa e6bc f69a b6bb 6e38 873c 1997 17bd
00000390: 7906 42bd 982f 0ebd a241 c63b d3e5 fdbc
000003a0: 4721 dabb 0d6e 483c 9b88 b4bb f2d4 063c
000003b0: f7f7 4eba efca 72bd 80c8 11bd c4a1 febc
000003c0: 360b c0bb add6 7dbc 980d 043b 89c5 cf39
000003d0: 2e30 febb d4c4 943c 531e f73c 0031 073c
000003e0: 9679 2f3d 70c9 f8bb ab6c bebc 9dbd c0bc
000003f0: 7939 473c 2304 ac3c 71bc 503c 57f3 103d
-0.022747831 -0.041263934 -0.040211607 -0.04676927 -0.012038623 -0.016291585 -0.013983198 -0.0392162
-0.008765825 -0.048763584 -0.05159359 -0.016697567 -0.006483528 0.023657853 0.004691579 -0.019721145
0.022502853 -0.01707014 -0.014710923 -0.035357416 0.018127427 0.02806339 -0.016101714 0.0037325963
0.031243222 -0.02179601 -0.0013648635 -0.024597961 -0.0057457886 -0.009981608 0.03215796 0.0042871498
0.013828971 -0.017732132 -0.037788685 -0.028373517 -0.0015673357 0.018566713 -0.019150075 -0.00037760028
0.010103915 -0.015408519 0.008617707 0.016514273 0.0088569885 -0.039440915 -0.007102468 -0.03257372
0.023325067 0.020331262 -0.0018196023 -0.0044425386 -0.014977086 0.02107708 0.027243536 -0.006895022
0.016916256 -0.005873221 -0.010455316 -0.037999295 0.011549386 -0.0035775346 -0.05014877 0.01292614
-0.01851086 0.019394489 0.020264063 0.016638657 0.016780159 0.020123536 0.0017212048 -0.03580268
0.006409483 -0.016002458 -0.058653496 -0.016139455 0.022702804 0.009448742 0.025383135 -0.011397764
0.013733897 -0.011021263 -0.029658832 0.0208493 0.0065100817 0.028843908 -0.01385593 0.0069719376
-0.025781304 0.0131450845 0.022255657 0.0192265 0.019483028 0.0411824 -0.029135915 -0.05374136
0.008173368 -8.776966e-05 -0.026233543 -0.01994152 0.0060255695 -0.0018039021 -0.04094518 0.0017120405
0.009168719 0.013178069 -0.018539386 -0.026899928 -0.004217302 0.017533874 -0.017779363 -0.01792828
-0.03538755 0.043117084 -0.034690507 0.0130845 -0.03385643 -0.024535745 0.013925889 -0.05258325
-0.0010647833 0.0068578147 0.033100896 -0.027781013 0.0019522164 -0.028323874 -0.04021563 -0.008017957
-0.012892963 0.021483803 0.008141503 0.0039531835 -0.026141277 -0.018100077 -0.033151906 0.019297754
0.024877507 -0.0076719895 -0.03990401 0.037713777 -0.024221007 0.0055612805 -0.02365486 0.009567356
-0.0047286325 -0.038714174 0.013716989 0.00904432 -0.023216233 0.00072463986 0.006361298 -0.019962884
0.022602357 0.039390203 0.01645285 -0.009943814 0.010104498 -0.029901136 -0.026058147 -0.0069454005
-0.010342156 -0.033515073 -0.019186527 -0.0068214717 0.00034469538 -0.00040863108 0.04179597 0.0007653923
-0.0058096824 -0.009700152 -0.004094712 0.011601425 -0.019746402 -0.038237657 0.0034236652 -0.037252404
-0.01722573 -0.017137712 0.015525572 0.021229783 0.01301258 -0.04059189 0.018917697 -0.03025253
-0.012684897 0.008196043 -0.0062486017 0.039524283 0.0021811775 0.0070839957 0.016874231 -0.013924007
0.031758487 -0.010532363 -0.0065493817 0.0001375644 -0.027330292 0.026198838 -0.042706177 0.012284278
-0.017713249 -0.015939988 -0.020202916 0.014990485 -0.016264776 -0.0136996955 -0.007908221 -0.008549406
-0.011106968 -0.015577791 0.013721885 -0.014097787 0.028961496 0.01396074 -0.012900711 -0.0013817799
-0.00478021 -0.04531835 -0.0021856963 0.028293783 -0.02374011 0.0033572353 -0.018301433 -0.028273772
-0.028157348 -0.005572672 0.0165064 -0.037009332 -0.047369454 -0.034713358 0.0060503045 -0.030993378
-0.006656799 0.012233269 -0.0055094487 0.008229481 -0.0007895226 -0.059275564 -0.035591602 -0.031082995
-0.0058607114 -0.015493077 0.0020149704 0.00039629292 -0.0077572083 0.018160261 0.030165827 0.008251429
0.042840563 -0.0075923726 -0.023245176 -0.023527915 0.012159699 0.020998066 0.01274024 0.035388317

net.0.bias f4 [32]
00000000: 7cfe 89bc ab7a ab3c eae2 8bbc 69a6 e53c
00000010: ffbe 7a3b 834f edbc c16b f8bb 47b4 4e3c
00000020: 9a85 7d3c 83d7 19bd 2336 a9bc 6718 e13c
00000030: 1423 e2bb 0b33 02bd fec5 c03b e8ca 24bc
00000040: 9c2b 44bc 2815 8bbc 7924 e0bc 7d7d b7bc
00000050: 9753 b63b f813 353c 442b 73bc d0ca 343d
00000060: e673 6abb 7df1 f1bc b623 d1bc 4e00 e83c
00000070: d8f7 83bc 3abe c4bc 86ba 67bc fef0 f0bc
-0.01684498 0.020932516 -0.017075974 0.028033452 0.0038260815 -0.028968578 -0.0075812046 0.012616224
0.015473748 -0.037559044 -0.020655697 0.027477456 -0.0069011543 -0.03178696 0.0058829775 -0.010058142
-0.011973288 -0.016977862 -0.027361142 -0.022398705 0.005564164 0.011052124 -0.014841858 0.04413873
-0.0035774647 -0.029534096 -0.025529724 0.028320458 -0.016109392 -0.024016488 -0.014143592 -0.029411789

net.2.module.0.weight f4 [32, 32, 3]
00000000: ab72 acbc 6980 c6bd b7f3 43bd 94b4 1fbb
00000010: a554 003d 8db8 5d3d a7f9 82bd da82 4a3d
00000020: b5f6 333c 685d 973d a301 9c3d c932 febc
00000030: 0e8c 62bd 1449 9a3d 46e7 e2bc 7788 f7bd
00000040: 888a 5cbd 6153 4a3d f7a0 943d ef0b b7bc
00000050: f797 1fbd a60a dc3b 8fd5 e3bd f641 393d
00000060: 729a babd d1c5 093b f7ff edbd 7630 873d
00000070: 1bb9 eb3a a5dd 75bd c983 283d fa54 34bc
00000080: cbdf 243d 76c2 a1bd 91db 76bd bef1 d6bd
00000090: f8d9 2f3d 0a88 e0bc 83b8 323d 6bb7 a23d
000000a0: f682 dabc f518 9f3d 44aa 6dbd 1712 1c3d
000000b0: 1aa8 b4bd dea9 0e3e 2604 c5bd bb96 72bc
000000c0: 179f 673c 8b46 97bc 6627 01be ece8 4c3d
000000d0: 8abc d83d d3f3 2f3d aaaa aa3c 982c e33c
000000e0: 3699 05bd f2d5 403c 7567 053d 51f0 96bd
000000f0: 1b59 03bd d37e 4cbd 05ca 753d da49 033c
00000100: adbf 2d3d 583b 543d 02c3 493d 2100 443d
00000110: 0f1e 8cbc 5f30 ae3d 1e2d f9bb a9d4 1cbe
00000120: 09c4 3fbd 15df 5abd d3b7 0b3d cfe4 d3bd
00000130: a90d 823d 854a 3b3d 720d 2a3d fd80 0bbd
00000140: 956c 093d b607 08be d80a a93d 5124 273d
00000150: 857b 80bb 5eef a2bc 802e c13d 9c5c abbd
00000160: 92a6 a5bd ddd7 713c 4e25 073c 64a6 52bd
00000170: 17d3 babd 3cf2 34bd ceb0 9c3d b2c5 503b
00000180: e3e7 7cbd 37ba 1dbd 98de 923d 842a 103d
00000190: 7676 89bb 957b acbd eb13 813d 9f0f 453c
000001a0: 3e56 153d c731 67bc 220c 09be 583b 04bd
000001b0: e1ee d53d f678 47bd f45f a13d 360d ddbd
000001c0: 603d 513d 128e 64bc 9b82 51bd b470 88bc
000001d0: f05a e4bd 69da bbbd 8dbe 94bd f317 0e3c
000001e0: b8bc 313d 4b44 ad3d 415b e53c c8ea 98bb
000001f0: 0dea 11bd e372 cbbd d5b0 c8bc 2a6a 343c
00000200: 0274 943d 3ad0 273d 2b26 8dbd bd11 d73b
00000210: f3d6 a8bd d01e 1cbd d7fe 153d 0203 cfbd
00000220: 452d 553d 5c32 003d e5b5 30bd bbb8 903d
00000230: d29c 673d 9d61 af3c fe06 3abd 9f34 9c3d
00000240: 31c3 ddbc 7fdb d9ba 0980 17bd 5d2b b93d
00000250: 8e3b 34bc e8e8 e03b 4495 bebd 4446 b03b
00000260: bb84 21bd 0e7b 79bd 7d23 5b3c 73b8 313d
00000270: 61fe 11bd 0f04 96bd cc21 91bd 7187 6ebd
00000280: 1f3e f6bc 4731 0dbd bbd8 45bd 2544 90bd
00000290: 5f03 073d bb86 af3b 0aa7 393d 2666 5ebd
000002a0: dcfa 88bd 58b8 783c fa1a ba3c ac3e a6bd
000002b0: d474 f93c 4788 66bd 8180 fbba 2d08 e7bc
000002c0: a0a8 8b3d 756e bebd 87db 3d3d ecbc 82bb
000002d0: 9106 853b f212 283d edf8 853d 142a 97bd
000002e0: df06 4dbd ed96 9fbc 06ce aeba adc9 d1bd
000002f0: 2db9 a03d e57f e33d 4ead 7fbd bb8c 51bd
00000300: 43df 40bc d5b1 1bbc 9a87 d4bd 92cf 553c
00000310: ad0b 4cbd 0d54 873d c426 d3bd c691 323d
00000320: 37e9 1cbe 60c6 32bd 9484 f2bd 6713 853d
00000330: f429 8fbd 667a a4bd 9e80 ed3b 9e39 e8bb
00000340: d5c7 d2bd eeee a13b 703e 1c3d bfd2 9ebd
00000350: df3f e7bd 8afc 903c a9b4 193d cd54 1a3d
00000360: c144 dcbd 8625 8f3c 909c 98bd 5ef7 263d
00000370: eb39 bbbd 4e64 44bd dabe 16bd 2d8e 703d
00000380: fa70 f5bc 3622 b43d 08f7 27bd c31c aabd
00000390: 759d e1bc 4f19 a13d 3af3 b03d 68d3 e5bd
000003a0: 31dc 0f3d a9f7 a23d 71a4 9f3d 9af3 ab3d
000003b0: 7b37 f2bc 2439 133d ea39 1ebd 8be2 b7bd
000003c0: 793a aebb 720d d5bd 2c4a 2c3d 5c30 2d3d
000003d0: 07ea 793d 2177 95bc 0a4d 623d 52cc 40bd
000003e0: 56e3 4fbd 0d31 a23d 02b7 3cbd 8d23 89bd
000003f0: 751d b6bd 6480 283d c1ae c4bd eeb7 33bc
-0.021050772 -0.09692461 -0.047839846 -0.0024369108 0.031330723 0.05413108 -0.06395274 0.049441196
0.0109841125 0.07390863 0.076175 -0.031030076 -0.055309348 0.0753347 -0.02769817 -0.120865755
-0.05384305 0.049395923 0.07257264 -0.022344558 -0.038963284 0.0067151366 -0.111247174 0.04522892
-0.09111489 0.0021022449 -0.11621087 0.0660104 0.0017984243 -0.06002583 0.041141305 -0.011006588
0.040252488 -0.078984186 -0.06026799 -0.104953274 0.04293248 -0.027408618 0.043632995 0.079451405
-0.026673775 0.07768432 -0.058023706 0.03810319 -0.08821125 0.13931987 -0.09619932 -0.014806445
0.014137051 -0.018466255 -0.12612686 0.05002682 0.10582836 0.04295714 0.020833332 0.027731225
-0.032616816 0.011769759 0.032569367 -0.073700555 -0.0320674 -0.049925637 0.060007114 0.008013213
0.042419124 0.051814407 0.04925824 0.047851685 -0.017104177 0.0850532 -0.0076042553 -0.15315498
-0.046817813 -0.053435404 0.034110855 -0.10346376 0.06350262 0.045725364 0.04151673 -0.03405856
0.033550818 -0.13284191 0.082540214 0.04080612 -0.0039209747 -0.01988953 0.09432697 -0.08367273
-0.080884114 0.0147609385 0.00824864 -0.051428214 -0.091222934 -0.044176325 0.0765091 0.0031856117
-0.061744582 -0.038507666 0.07171363 0.035196796 -0.00419503 -0.08422009 0.06302627 0.01202765
0.0364592 -0.014110989 -0.13383535 -0.032283157 0.10445953 -0.04869934 0.0787963 -0.107935354
0.051083922 -0.013949888 -0.051149946 -0.016655304 -0.111501575 -0.09172518 -0.07262907 0.008672702
0.043392867 0.084602915 0.027997615 -0.00466666 -0.0356236 -0.09934022 -0.024498383 0.01101164
0.07248689 0.040970065 -0.068920456 0.006563394 -0.08244123 -0.038115323 0.036619987 -0.101079956
0.052045126 0.031298026 -0.04314222 0.070664845 0.05654604 0.02140885 -0.045416825 0.07627224
-0.027070614 -0.0016621201 -0.03698734 0.09041474 -0.011000527 0.006863702 -0.09305814 0.00537947
-0.039433222 -0.06090837 0.01337516 0.043388795 -0.035642985 -0.07324993 -0.07086524 -0.058234636
-0.030058919 -0.034470823 -0.048302393 -0.070442475 0.0329622 0.0053566373 0.045325316 -0.054296635
-0.06688473 0.01518067 0.022717942 -0.081174225 0.030451216 -0.056282308 -0.0019188077 -0.02820214
0.06819272 -0.09298412 0.046351936 -0.0039898064 0.0040596207 0.041033693 0.065416194 -0.07381073
-0.05005538 -0.019481147 -0.0013336546 -0.10243545 0.078478195 0.11108378 -0.062421136 -0.0511596
-0.01177198 -0.009502848 -0.103774264 0.013049977 -0.049815822 0.06607828 -0.10310128 0.04359605
-0.1532334 -0.043646216 -0.118416935 0.06497841 -0.06990424 -0.08031158 0.0072479984 -0.0070869466
-0.10292021 0.0049418127 0.038145483 -0.077550404 -0.11291479 0.017698545 0.037525807 0.03767853
-0.10755301 0.017473947 -0.07451737 0.04076325 -0.09141906 -0.04794722 -0.036803104 0.05872934
-0.029961098 0.08795588 -0.04100707 -0.08306267 -0.027540902 0.07866155 0.08640142 -0.11221963
0.0351221 0.07957394 0.077950366 0.08396073 -0.02956747 0.035943165 -0.03862945 -0.089787565
-0.005317029 -0.10402955 0.042062923 0.042282447 0.0610142 -0.018245282 0.05524925 -0.047069855
-0.050753914 0.07919512 -0.046072967 -0.06696234 -0.08892337 0.041138068 -0.09603644 -0.010969145

net.2.module.0.bias f4 [32]
00000000: 51df a93d 7c2f f93b c719 dc3d 2823 3bbd
00000010: 043b 84bd 84d3 acbd 6cba 34bd f2b0 4b3d
00000020: 0957 e33d adf6 c73c 5805 c93d d00b 143e
00000030: 481a 8f3c 0107 183b c558 b73c 63e7 b2bd
00000040: 2e01 b53c df8f 7ebd d220 1a3d cc08 083e
00000050: c9f4 29bd 7ca1 67bd 362b 533d b912 13bd
00000060: 5f95 c53c ff94 a33d d89b b739 8896 85bd
00000070: 78bf 5a3d 016c 85bd 2437 54bd 76e4 2dbc
0.08294547 0.0076045375 0.10747104 -0.045687824 -0.06456569 -0.08438781 -0.0441231 0.049729295
0.11100585 0.024409616 0.09815472 0.14457631 0.017468587 0.0023197534 0.022381196 -0.0873554
0.02209529 -0.062148925 0.037628956 0.13284606 -0.04149321 -0.056550488 0.05155488 -0.035906527
0.024119077 0.07987403 0.00035020593 -0.06522852 0.053405255 -0.06514741 -0.0518104 -0.010613551

net.3.module.0.weight f4 [32, 32, 3]
00000000: c3fa a43d 8819 723d bbd2 dc3b c651 afbd
00000010: 5f5e bd3d 9ab0 8fbd 9034 623d 315b 82bd
00000020: 13ed abbd 66d5 273d 7e46 4f3d 80e6 a5bd
00000030: 0085 e63b 423a 10bd 7205 57bd d7cb a6bd
00000040: 11a5 f73c ecc3 8cbd 4f58 5bbc 87c0 d93c
00000050: 6791 b6bd 909b c5bd 9445 353d 673d dcbb
00000060: 75a6 76bd 0d2b 3ebd 08fb a8bd 054b 92bc
00000070: 6f42 e43b e349 adbc 0cf8 27bc 9d27 443b
00000080: f68a e3bd b80e 773d 746e bc3c fb98 a3bd
00000090: 68a2 8dbb 1d24 36bd 6e44 4bbc 7462 7d3d
000000a0: 742e 76bc c0c4 503d c5a2 93bd 4630 83bd
000000b0: 56dd e3bc b0ea cb3d 248a a93b 4a8e a63d
000000c0: 0c78 a83d 258d 733b 775b 8d3d 9393 55bc
000000d0: 17e6 793b fd63 3b3c d8ee 713d 099d f1bd
000000e0: 0e4b 203d 11d7 67bd bfe2 2dbc 894b 8f3d
000000f0: 6a4e 733d 6554 853d 9a86 2bbd 6d6c a73c
00000100: a9fb 373c 73d3 bc3d 43ec ccbd 924b 20bd
00000110: e5d8 afbd 673c debd ef65 c5bd d21c 14be
00000120: 3a48 bcbc d3ce 81b9 bc42 57bd 44c6 a73c
00000130: 98d8 a4bd 8456 cdbd e901 bfbd 907a 06bd
00000140: 3ae8 92b9 0f41 20bc c4e7 6fbc a235 afbc
00000150: 6728 72bd 0a4f c43d 0cfd b43d 412f bc3d
00000160: a8e7 9fbd 7bf5 983d 5f07 aebd 1fac a3bd
00000170: 4499 a83b c3b0 913c 4118 8dbd e86d eb3b
00000180: b0aa c13d e829 82bc f38c 04bd 4af9 ecbd
00000190: ccb0 d03c de60 9d3d 3bc7 833d fb15 13bd
000001a0: a375 c6bd badb 04be 2489 a23d 72c4 69bd
000001b0: ab5e 92bc 69a5 d2bd a401 37bd 8843 a8bc
000001c0: 618d e1bd e143 d83d 3c27 8dbc 5732 5b3c
000001d0: c2fd 683c 41d8 adbd 43cd eebd d4e6 8e3d
000001e0: 5650 2f3d 8ab8 aabb 5494 bbbd ae7a c3bd
000001f0: 7182 d3bc 07ae 01bc ab7d 6d3d 38cc 1ebd
00000200: fabe 62bd 90b5 e23d 88e4 643b 1495 d73d
00000210: 7218 d9bd d149 b63d 51bd 2c3d 730b a73d
00000220: 6efc ae3d 09b2 08bd 0be5 403d baf3 943d
00000230: e782 b23d c7b6 933c ac5f 483d e0c2 a43d
00000240: a06f ecbd c400 8d3c bb9d bc3c f48d af3a
00000250: e838 b1bd 26ca cfbb f9d8 19bd a4cf a0bd
00000260: f529 a0bd 6172 dbbc a964 883d f6ed 92bb
00000270: 41e1 b8bd 1391 293d ff66 5dbd 103c b1bd
00000280: ad8b a63d 8851 08bd 2bba 95bd af60 a13d
00000290: 54a0 0cbd 581a 83bd 604e e9bd 2fb6 98bd
000002a0: 1a71 91bd d4e0 b0bd 3258 ae3d f12f 8dbd
000002b0: b7ee ebbd e670 f0bd 753f 2d3d eea4 8d3d
000002c0: 057c 69bd dc8a 09be a2b4 b63d 7977 9fbd
000002d0: ec6d 00bd ab52 1c3d a0da eb3c 1ba6 a43d
000002e0: a139 e43d 34d6 823c 1460 75bd e0ef babd
000002f0: e8e2 a93d 09ba c73c 3ebc 933d c5d0 683c
00000300: 0b5e a23d db51 aabc 196e c3bd 189f 973d
00000310: 030d 283c 918d 09bd 66f0 02be d851 953c
00000320: dcc0 e4bd 7dfb 603d 102b a9bd f987 af3d
00000330: 2a50 cbb9 0841 5d3c 2474 833d eb78 b4bd
00000340: 9192 0a3d 6228 93bd 3248 3dbd e1a6 883d
00000350: 52cf c83c c436 36bd 27e6 ce3c 8af2 76bd
00000360: 3355 433d 996e 96bd f590 99bd 4974 cabd
00000370: 2c56 da3c 3319 3c3d 914d b8bc 8987 cc3a
00000380: 13bd aebd dbc5 163d eeec 183d dd84 2fbd
00000390: 493f 853d 56b6 b5bd 5f84 c8bc 0673 a0bd
000003a0: 7897 923c 30c7 753d cff2 cebd 1bbe a13c
000003b0: 5236 a43d 1969 1e3c 4872 0b3d b253 e0bd
000003c0: 95c0 363d 35f3 4b3c 206c 83bd 53a9 81bd
000003d0: df6c 773b ea34 f03d 7405 37bd d884 57bd
000003e0: c4fc 9a3d 57a3 83bd fab1 993d 1d98 04bd
000003f0: cee3 383d 4635 663d 126b 6abd 3552 e83c
0.080556415 0.05910638 0.006738988 -0.08560519 0.092465155 -0.07016106 0.05522591 -0.0636505
-0.08394828 0.040974997 0.050604336 -0.08100605 0.007034898 -0.03521181 -0.052495427 -0.08144348
0.030230077 -0.06873307 -0.013387754 0.026581062 -0.08914452 -0.09648812 0.044255808 -0.006721187
-0.06021734 -0.046427775 -0.082510054 -0.017858038 0.0069659273 -0.021153396 -0.01025201 0.0029930838
-0.11110489 0.06031677 0.023001887 -0.07988163 -0.004322339 -0.044468034 -0.012406452 0.06186147
-0.015025724 0.050968885 -0.0720878 -0.06405692 -0.027815502 0.099568725 0.0051739383 0.08132608
0.08226022 0.0037162986 0.06902211 -0.013035673 0.003813153 0.011437413 0.05906567 -0.1179753
0.039134078 -0.056601588 -0.0106131425 0.06996829 0.059400953 0.065102376 -0.041876413 0.020437444
0.011229434 0.09220018 -0.10006001 -0.03913457 -0.08586291 -0.108513646 -0.09638583 -0.14464119
-0.022983659 -0.00024758893 -0.052553877 0.020480283 -0.080491245 -0.10026267 -0.09326536 -0.03283173
-0.00028020312 -0.009781136 -0.01464266 -0.021387879 -0.059120562 0.09585388 0.08837327 0.091887005
-0.07807857 0.07468697 -0.084975 -0.07991814 0.005145224 0.017784482 -0.06889392 0.0071847327
0.09456384 -0.015889123 -0.032360982 -0.115709856 0.025474928 0.076844916 0.064344846 -0.035909634
-0.09690406 -0.12974444 0.07936314 -0.05707211 -0.017867407 -0.10285456 -0.0446793 -0.020540014
-0.11013294 0.10559822 -0.017230622 0.013378701 0.014220657 -0.08488513 -0.11660244 0.06977621
0.042801224 -0.005209987 -0.09159151 -0.09544884 -0.025819035 -0.0079150265 0.057981174 -0.038768977
-0.05535791 0.110697865 0.0034926254 0.10526481 -0.10600366 0.08900798 0.042172734 0.08156481
0.08544241 -0.033372913 0.047093432 0.0727305 0.08716374 0.018031491 0.048919365 0.08044982
-0.11544728 0.01721228 0.02302443 0.0013393746 -0.08653432 -0.0063412366 -0.037560437 -0.07852104
-0.07820503 -0.026787939 0.066598244 -0.0044839336 -0.09027339 0.04139812 -0.054053303 -0.08654034
0.0813211 -0.03328088 -0.07310899 0.07879769 -0.03433259 -0.06401509 -0.11391902 -0.07456624
-0.071016505 -0.086366326 0.08512916 -0.0689391 -0.115201406 -0.11740284 0.042296845 0.069162235
-0.05700304 -0.13431877 0.08921172 -0.077864595 -0.03135483 0.038164776 0.028790772 0.080394946
0.11143804 0.01597128 -0.05990608 -0.09127784 0.08295232 0.0243807 0.07213639 0.014209931
0.079280935 -0.020790985 -0.09542484 0.074033916 0.0102570085 -0.033582274 -0.12787017 0.018227503
-0.111695975 0.054927338 -0.08260167 0.085708566 -0.00038778904 0.013504274 0.064186364 -0.08812126
0.033831183 -0.07185437 -0.04621143 0.066724546 0.02451292 -0.044485822 0.02525623 -0.060289897
0.047688674 -0.073453136 -0.074983515 -0.09885461 0.026652418 0.04592247 -0.022497924 0.0015604357
-0.08532157 0.036809783 0.03733533 -0.042851318 0.06506211 -0.088726684 -0.024477182 -0.07834439
0.017894492 0.060004413 -0.10104906 0.01974397 0.08018173 0.009668612 0.034044534 -0.109534636
0.044617254 0.012448122 -0.064171076 -0.06331124 0.0037754101 0.117288426 -0.044682935 -0.052616924
0.075677425 -0.06427639 0.075046495 -0.03237163 0.045139126 0.05620315 -0.057231016 0.028359512

net.3.module.0.bias f4 [32]
00000000: d2a4 3ebd c911 273e 6c1d 41bd a322 7d3d
00000010: e10e 433c d629 4dbb a7e4 ad3d 6861 ae3d
00000020: a432 123e d00b a8bd b397 b03d 5196 6a3d
00000030: 9890 303c 8630 363c 0d47 60bd f49c 1abb
00000040: 285b 323a 9f7c 39bd be18 ff3c c0bb f33d
00000050: caa9 8a39 92ba 603d 9b3d 6c3d 4290 2a3d
00000060: 4e7a 95bc 914a aa3d e1bb b8bc 4370 65bd
00000070: 9b08 38bd e2cb d3bd bfd2 53bd a8f2 efbb
-0.046543904 0.16315378 -0.0471472 0.06180061 0.011905403 -0.0031305454 0.084908776 0.085146725
0.1427713 -0.08205378 0.08622684 0.05727226 0.010776661 0.011119967 -0.05475526 -0.0023592087
0.00068037445 -0.045284864 0.031139728 0.11901045 0.00026447914 0.054865427 0.05767594 0.04164148
-0.018246796 0.08315004 -0.022550525 -0.056015264 -0.04493008 -0.10341622 -0.051714655 -0.007322628

net.4.module.0.weight f4 [32, 32, 3]
00000000: ad58 26bd e1e0 f5bd d8a4 233d 543e 91bc
00000010: a52f 3e3d c0fe 7a3d 2620 703d 9fbc 873c
00000020: c253 223c a3ed 33bd fcd0 123d d65c 783c
00000030: d2f9 9ebd 3a82 973c cdb8 7dbc fb67 b1bd
00000040: 25d3 8b3d 5b51 91bd 3621 a6bd 8b04 39bc
00000050: 1ab2 d43c 3809 d23d 55cf f9bc d8bb b2bd
00000060: d3b2 6ebd 0aaa c4bd dd03 8e3d 060c d9bd
00000070: 1704 99bc 35e8 283c 70c7 093d 1f4e 70bd
00000080: 6df1 ca3c 7bb7 0bbc 0999 ddbd ef05 c03c
00000090: d058 8e3c 7972 b03d d5ae 99bd 09ae 2ebd
000000a0: cef3 6a3c d39a 14bd 2af8 e7bb 6675 64bc
000000b0: 95e4 3cbd 40b2 a8bd 817a a13d 7c3c eebb
000000c0: c0be 63b6 2c34 223c e4b3 193d dc73 923d
000000d0: eae7 0abe 7489 27bd 7d9d 96bd 52df a7bd
000000e0: 4f48 d1bd 3517 863c 8bfa 96bd c5e4 e3bd
000000f0: 3521 5b3d 8ace b5bc 487e cdbd 6471 0bbd
00000100: c430 053c 73b2 1a3d 1e18 26bd 4738 5ebd
00000110: ae56 823d 11e0 f93b ac4f 09bd 1fe3 cf3c
00000120: 0751 f6bd f913 ddbc b0b5 06bc 3386 d7bd
00000130: ab51 ebbc 1ebb 253d 8639 bcbd deeb c8bd
00000140: c4b9 d83c d360 523d 51b1 cd3d 8446 9a3c
00000150: b6af 5e3d 59e1 ab3d 2b70 993c 673e 86bd
00000160: b546 a13c 1c4e f7bd d7f3 7c3d e2a8 ab3c
00000170: 8bf9 d6bd 4761 cabc 14e1 efbc 6219 993d
00000180: 3d46 98bc d731 ae3d d0be 4d3d 066d 56bd
00000190: f15f 8dbd 2f87 4b3d dc3f c1bb a0b7 b5bd
000001a0: 4e18 86bd 0307 17bd 79ae 183d 9fbd 62bc
000001b0: 60ae 1e3d f9fc 6b3c 02f7 123b fdf6 6fbd
000001c0: 28f7 cf3d 6486 1dbc 502d 173c 7032 0cbd
000001d0: f177 da3d e361 0d3c 5e9a f23c 1b1f 3ebd
000001e0: 5b54 9fbc 8d18 623d 16c8 3d3d 5c68 91bb
000001f0: 4d4a 84bc a980 963d 906f 85ba 0ae9 95ba
00000200: 0468 6c3d b7b6 ee3c 95bb 91bd a0f7 1b3d
00000210: ca22 af3d 3839 5ebd 0890 43bd ae9c 943d
00000220: d881 f43b bdff 23bd f465 013c 69a1 d13a
00000230: 087d b23b 0634 8cbd 311c 1b3c de93 783d
00000240: 63f3 e5bb 130b 0a3c 9370 0ebd 571e 8cbd
00000250: 7ba4 95bd 7791 d1bd 0925 86bd 1585 063d
00000260: c40f cbbc dc40 933d c28c 2f3d 6da6 c7bd
00000270: 5bb3 94bc d2c3 15bd 8e1f b13d 82dc a53c
00000280: 0ed3 89bd 6b14 b0bd f6b4 dd3d 8d71 8d3c
00000290: 6a6f 21bd 487c 4c3d 132e b03d 05e3 573d
000002a0: 64b9 3f3c e866 0ebd 37b7 7fbd 2244 b73d
000002b0: 2a85 14bd dce4 99bd b468 acbc 5ce2 a03d
000002c0: cae0 38bc f755 0abe 1939 1abc bfa2 a0bd
000002d0: a80b bd3d 09fb 2c3d ebda 8d3d 872e aabd
000002e0: 875a 093d 9bc0 bbbd baa1 c2bd a481 ebbc
000002f0: 68ad 9a3d 2264 083d c440 cf3d 932c a73d
00000300: eb34 fabc 181c 45bd 5f84 653d 5d82 1fbd
00000310: 1c71 863d 3fb4 6f3d 2b01 6bbd 55ac a4bd
00000320: a527 98bd e800 f0bc 4f66 863d 7021 acbd
00000330: 9d5b f33d 94e2 83bd 0ee2 07be a32a b4bd
00000340: 59b3 9a3d d380 cfbc e8c2 5f3a 5b73 4f3d
00000350: 6737 243d 1080 453c 2d4e 72bd 3195 a93d
00000360: 4c75 9cbc d13f bd3d 989c 1ebb 8b46 903d
00000370: 9dd6 0cbd cd47 93bd 1961 99bd cde8 a9bd
00000380: 3c01 793d 66ed b4bd feff a43d a440 d7bd
00000390: f0e6 36bd f925 9f3d 9bc2 9ebd 3915 c8bd
000003a0: 863a 9a3d 3510 42bd b224 bcbd 40c1 73bd
000003b0: bf50 8d3d d203 c8bd 1586 ae3d 2158 363c
000003c0: 2c17 853d 5826 54bd 80b2 223c b8f7 aebd
000003d0: 3d5a 8abc 13d4 71bc 1242 b13b b076 b4bd
000003e0: b299 67bd 0e2c 6f3d 176e 92bc 27a6 6abd
000003f0: a1ef 6e3d e3f3 b8bd 8680 13bd 25f2 cbbd
-0.04061191 -0.12005783 0.03995213 -0.017729916 0.046432156 0.061278105 0.05862441 0.016569434
0.009907665 -0.0439278 0.035843834 0.015158853 -0.07762493 0.018494714 -0.0154859545 -0.08662411
0.06827382 -0.070955954 -0.08111803 -0.011292587 0.025963832 0.102556646 -0.030494371 -0.087272346
-0.05827601 -0.09602745 0.069343306 -0.105979964 -0.018678708 0.010309269 0.033637464 -0.058668252
0.024773324 -0.008527632 -0.10820205 0.02344033 0.017376333 0.08615584 -0.0750405 -0.04264644
0.014340354 -0.036280464 -0.007079144 -0.013944006 -0.04611643 -0.082371235 0.07884694 -0.007270394
-3.3936667e-06 0.009900134 0.037525073 0.07151005 -0.1356503 -0.04090257 -0.07354257 -0.08196892
-0.1021887 0.016368488 -0.07372006 -0.11127619 0.053498466 -0.022193212 -0.10033852 -0.034043685
0.008129302 0.03776784 -0.040550344 -0.05425289 0.06364189 0.0076255878 -0.033523247 0.025376854
-0.120271735 -0.026987063 -0.008222029 -0.10523643 -0.028725466 0.040461652 -0.09190659 -0.09810613
0.026455767 0.05136187 0.10043586 0.018832453 0.05436679 0.08392591 0.018730244 -0.06554871
0.019687036 -0.12075445 0.06175598 0.020954553 -0.10496815 -0.024704589 -0.02928213 0.074755445
-0.01858818 0.085056 0.0502308 -0.052350067 -0.06903065 0.049689468 -0.005897505 -0.08872914
-0.065476045 -0.03687192 0.037275765 -0.0138391545 0.038740516 0.014403575 0.002242506 -0.058585156
0.10154563 -0.009614561 0.009227112 -0.03422779 0.10667408 0.008629295 0.029614624 -0.046416383
-0.019449404 0.055199195 0.046333395 -0.0044374894 -0.01614871 0.07348759 -0.0010180343 -0.0011437249
0.057716385 0.02913986 -0.071158566 0.03807795 0.08551557 -0.054253787 -0.04774478 0.07256447
0.0074617676 -0.040038813 0.007897843 0.0015993539 0.005447034 -0.0684586 0.009467171 0.060687892
-0.0070175393 0.008425492 -0.034775328 -0.06841724 -0.07306763 -0.10232823 -0.06550033 0.03284176
-0.024787791 0.07190105 0.042858846 -0.0974854 -0.01815193 -0.036563702 0.08648597 0.020246748
-0.067297086 -0.085976444 0.10825531 0.01726606 -0.039412893 0.04992321 0.08602538 0.052706737
0.011701915 -0.034766108 -0.062430587 0.08948542 -0.036259808 -0.075143546 -0.02104602 0.078556746
-0.011284063 -0.13509355 -0.009413027 -0.07843541 0.09230739 0.042231593 0.06926521 -0.08309656
0.0335336 -0.09167596 -0.09503503 -0.02874834 0.07552606 0.03329862 0.10119775 0.08162799
-0.030542811 -0.048122495 0.056034442 -0.038942683 0.06564543 0.058521505 -0.05737416 -0.08040682
-0.074294366 -0.029297307 0.065624826 -0.08404815 0.11882708 -0.06439701 -0.13269827 -0.08797195
0.07553739 -0.025329983 0.0008535818 0.05064712 0.0400919 0.012054458 -0.059156585 0.08280409
-0.0190989 0.09240688 -0.0024202224 0.07044705 -0.03438436 -0.07191429 -0.07489223 -0.08296356
0.060792193 -0.08834343 0.08056639 -0.10510376 -0.044653833 0.077709146 -0.07751962 -0.09769673
0.07530694 -0.047378737 -0.091866866 -0.05951047 0.06900167 -0.09766354 0.08521668 0.01112941
0.0649856 -0.05179438 0.009930253 -0.08543342 -0.016888732 -0.014760035 0.0054094875 -0.088117
-0.05654306 0.058391623 -0.01787476 -0.05728736 0.058333997 -0.09030893 -0.03601124 -0.09958295

net.4.module.0.bias f4 [32]
00000000: 79cf 76bc c715 b6bb 5d84 cb3d 157a ebbd
00000010: cb75 32bd bd25 08bd b937 b0bd 15c9 95bd
00000020: 3ff3 c73d 8ab9 e83d a509 b2bd 8f57 1bbd
00000030: 88d5 b63d 6198 963d 0468 ce3c 9978 63bd
00000040: ba7b f53d de69 9abd 2287 e9bc 10d2 09bd
00000050: e4f6 cd3c 5206 7cbc e4aa a23d 3541 3ebd
00000060: d3a7 f13d 1750 3f3d ccf4 073e e6d5 bfbc
00000070: 579a 47bd 9b15 e3bc e99d aebd f9f9 d73c
-0.015064114 -0.0055567953 0.09937356 -0.11497895 -0.043569367 -0.033239115 -0.08604378 -0.07313744
0.097631924 0.11363514 -0.08693246 -0.0379253 0.089274466 0.07353283 0.025196083 -0.055534933
0.119864896 -0.07539724 -0.02850682 -0.033647597 0.02514214 -0.015382366 0.07942751 -0.046448905
0.11799588 0.04670724 0.13276976 -0.023417424 -0.048731174 -0.027720263 -0.08526213 0.026364313

net.5.weight f4 [32, 32, 3]
00000000: 1107 07bc c98f 013d 4c65 18bd fcb4 45bd
00000010: 61e8 173c a4bb 35bd 69b8 63bd 6363 a5bd
00000020: a0b7 56bd 6369 f63d 2524 a8bd e284 373d
00000030: 1d04 6bbd 08b5 80bb 92ac 3abd 6058 813c
00000040: 2137 353d 0006 edbd 28e2 d93d 6a35 d1bd
00000050: fa66 ae3d d0e5 b8bc 6ec1 a43d db1d 82ba
00000060: 3f64 963d 8568 0b3c e8c0 23bc 276a 623d
00000070: 468c 4cbd 18d8 603c b6d2 8fbd aede 083d
00000080: c5c0 98bd 0272 743c 6ed2 95bd e27d e03d
00000090: ad8d c43c 29a1 95bd 2755 cc3c 9b7e b33d
000000a0: db70 29bd dd22 7f3c e448 9b3d f142 263d
000000b0: 4f33 123d b1cf 7a3d 5b90 e0bc 48c1 463d
000000c0: a8f3 babd c154 05bd 262a 08bd e9bb b53d
000000d0: b4d3 bbbd f812 96bd dadd 51bd 28c6 55bd
000000e0: c064 253d 81c9 f63c be67 bfbd 36af 143e
000000f0: f72d d33c 7c23 8ebd 3d0c 37bc ed28 8fbc
00000100: 7ae3 463d 3003 c5bc 11c4 203d 60b2 bdbd
00000110: 42e0 8fbd 6a5f 9fbd cb9f 31bd a5f3 f03d
00000120: 91f4 bb3b e584 d53d 3f1c bbbc bba3 bbbd
00000130: 3b8b 4bbc 4d31 0e3d 9c9a a43d 2957 aebd
00000140: 5b6b e9bd 3ca1 0cbd 07ea db3d 5a16 8c3c
00000150: f62e 753d 6905 653d 841d 023e dd22 c3bd
00000160: 3464 c33d eb21 4d3d 5789 393d d384 9b3d
00000170: 3c5e 7abd 4e86 fa3c 6190 a6bd 1bf4 18bd
00000180: 8369 6fbd fddb e23d 36bf d2bc 5a92 cdbc
00000190: 0f00 35bd 0b7f cf3d 63f2 b7bd a2b2 3bbd
000001a0: 6050 443d 7e34 7dbd 4b0f 0cbd ce99 e03c
000001b0: e446 0cbd 8bbd 62bd fe14 f93c dadf 58bd
000001c0: 1f44 c83c 7790 b9bc 6dc4 ed3d fbdb dbbc
000001d0: 4100 113e 5908 943d 5b95 99bd 5f22 a7bb
000001e0: 85e0 c93d 273e 5a3d 4a32 18bd 5e13 7e3b
000001f0: 7243 6b3d a93e a03c c765 41bc 7f1a 9b3d
00000200: 04a7 7f3d 8697 ed3d 5a5b 883c ce82 1fbc
00000210: c360 343d 5564 b33d 5ef5 4cbd e0cf 47bd
00000220: f7e6 95bd 5f70 053e 7d2b 89bd d3ab a8bd
00000230: efc1 a13c c9d9 65bd c671 4e3c 13c7 6abd
00000240: 0855 4ebd da61 06bd e6d6 cdba 90de 483c
00000250: d72c 8c3d 9df3 a3bc 43aa d6bd 6c8f 723d
00000260: 85d2 5cbd 7b9f 39bb f104 4f3d 7a01 9ebd
00000270: d830 a23d dc27 6e3d b4de d03d fb90 683d
00000280: 0834 af3c 62d4 613c 1d85 41bd 37e1 eabb
00000290: 01a6 6a3d f77e 6f3d eded 1dbd 4a8b 23bb
000002a0: 18b4 b4bd 5993 2fbd 09d5 e53d 4ac5 c2ba
000002b0: 93c0 9e3c 2da7 bc3d e89e 273d ff66 953d
000002c0: 8ad4 acbd 588d 2e3c fee3 7dbc ed07 913c
000002d0: 37e5 25bd 4b95 a2bd 6b66 3d3d ace8 9f3b
000002e0: e8f3 32bd 662c 6a3c b677 89bd 1ec0 cb3c
000002f0: 301c 393d 36e8 303d 05dc 17bd d3d8 adbd
00000300: 6043 8e3d 352f 4b3d b78a 6e3d 59e8 abbd
00000310: 835b 23bd 82bb 08bd e6b7 1f3d ab4c 6a3d
00000320: c8cc 07bd 1f28 28bd 4e49 d0bd d180 d83c
00000330: e13b 6e3d 3f27 99bd 72e2 7cbd 58f7 3dbd
00000340: a656 6a3d 542d e5bc f404 d03c 87db 993c
00000350: ff5b 843a 2615 2dbd 5d95 803d 44ea a4bc
00000360: 89da c3bd df91 b0bd dc8f 7b3d a3de e83c
00000370: 0b5d 48bd 88df 98bd 2c25 88bd ed3d 88bd
00000380: 8314 84bc 3c5e b23c a54f d83d 5135 c03b
00000390: 0cfb e43d 5cad af3d 383e abbd bd73 dd3d
000003a0: 8d87 0f3d c6a2 06be 3b0a 853d 761f d53d
000003b0: 8eb7 4e3d 32f4 4a3d 44ff 823d 9065 fcbd
000003c0: e65b 163c c45a 9fbd 83e3 6dbc c728 b3bd
000003d0: a299 443d dfe3 883d 0912 8ebd 3246 b2bd
000003e0: d99f ea3d cb22 4fbb 3e4e 3abd 1be6 83bc
000003f0: f613 863d 2835 d43c 1bcc 8c3d dd84 3f3d
-0.008241431 0.031631265 -0.03720598 -0.048268303 0.009271712 -0.0443684 -0.05559579 -0.08075597
-0.052421212 0.1203182 -0.08210019 0.04480446 -0.05737697 -0.0039278306 -0.045574732 0.01578921
0.04424203 -0.1157341 0.10638839 -0.10215266 0.08515735 -0.02257052 0.08044706 -0.000992711
0.07343339 0.008508806 -0.009994723 0.055277016 -0.049938463 0.013723396 -0.07022612 0.03341549
-0.07458643 0.01491976 -0.07315527 0.1096151 0.023993338 -0.073061295 0.024942948 0.087643825
-0.041367393 0.015572277 0.07582262 0.040591184 0.035693463 0.061233226 -0.027412584 0.04852417
-0.09128505 -0.03255153 -0.03324332 0.08873732 -0.091712385 -0.07327837 -0.051236965 -0.05219093
0.040379286 0.030125381 -0.09345959 0.14519963 0.025778754 -0.06940362 -0.011172351 -0.01747557
0.048556782 -0.024049371 0.039249483 -0.09262538 -0.07025196 -0.07781871 -0.04336528 0.117652215
0.0057359417 0.10425738 -0.022840617 -0.091620885 -0.012423332 0.034714986 0.08037302 -0.08512718
-0.113974296 -0.034333453 0.107379965 0.017100502 0.05985924 0.055913363 0.12706572 -0.09528134
0.095405966 0.050081175 0.045296993 0.075936936 -0.061125025 0.03058162 -0.08133007 -0.037342172
-0.058450233 0.11077116 -0.025725942 -0.0250942 -0.04418951 0.101316534 -0.089817785 -0.045824654
0.047928214 -0.06181764 -0.034194272 0.02741709 -0.034247294 -0.055356544 0.030405518 -0.052947856
0.024446545 -0.022651894 0.11609731 -0.026838293 0.14160253 0.07228155 -0.074991904 -0.005100533
0.09857277 0.05328193 -0.037157334 0.0038768868 0.057437368 0.019561129 -0.011804051 0.07573413
0.062415138 0.116011664 0.016645122 -0.009735776 0.04403759 0.08759371 -0.050038688 -0.04878223
-0.07319444 0.13031147 -0.06697748 -0.08235898 0.019745795 -0.0561159 0.012600368 -0.05731876
-0.05037406 -0.032808162 -0.0015704304 0.012260094 0.0684449 -0.020013625 -0.104816936 0.05921881
-0.053911705 -0.0028323818 0.050541822 -0.077151254 0.079194725 0.05814348 0.10198727 0.05677889
0.021387115 0.013783546 -0.047246087 -0.007167961 0.05728722 0.058470692 -0.03855698 -0.002495485
-0.08823413 -0.04286513 0.11222274 -0.0014859822 0.019378936 0.09211574 0.04092303 0.072950356
-0.08438976 0.010653816 -0.015496252 0.017703975 -0.0405018 -0.079386316 0.04624025 0.0048800316
-0.04368964 0.014292812 -0.06712286 0.024871882 0.045192897 0.043190204 -0.03707506 -0.084886216
0.069464445 0.049605567 0.058237758 -0.08393926 -0.039882194 -0.033381946 0.03899374 0.057202023
-0.03315428 -0.041053887 -0.10170232 0.026428612 0.058162574 -0.07478189 -0.061739393 -0.046378464
0.05721154 -0.027975716 0.025392987 0.018781437 0.0010098218 -0.042256497 0.06278489 -0.020131238
-0.09563167 -0.08621573 0.061416492 0.028426474 -0.048916858 -0.0746451 -0.06647715 -0.066524364
-0.016123062 0.02177345 0.10562066 0.005865731 0.11180696 0.085779876 -0.08361477 0.10813091
0.03504138 -0.1314803 0.06496092 0.10406391 0.05046802 0.04954929 0.06396344 -0.12324059
0.009177184 -0.07780984 -0.014519575 -0.08748012 0.04799808 0.06684088 -0.06937034 -0.08704795
0.1145627 -0.0031606432 -0.045484774 -0.016100934 0.06546776 0.025904253 0.068748675 0.046757568

net.5.bias f4 [32]
00000000: 1625 1b3d e3fa b63d 9ab2 5b3d 1fc7 42bd
00000010: 8220 f93c b187 863d 8943 003d 5a1a 13be
00000020: 3004 253d e4c8 293c f7d3 96b9 65d4 6e3d
00000030: 034d 313d 8924 c0bd f92a b1bd 3bcb c4bd
00000040: 24b6 833d 14dc 29bc 5f50 f03b 8b32 ba3c
00000050: a13f 933c 43e1 a3bb 2bbe 1bbd fc0a 07be
00000060: 6053 0a3a 1168 0ebc 139f b63d 3421 b7bd
00000070: 555f 3b3c ed8e 6abd 7b27 c23c a21e 493d
0.037877165 0.089345716 0.053637125 -0.047553178 0.030411009 0.0656885 0.031314407 -0.14365521
0.040287197 0.010362837 -0.00028768156 0.058308024 0.043286335 -0.093819685 -0.086507745 -0.09609076
0.06431225 -0.010367412 0.0073337997 0.022729179 0.017974677 -0.0050012185 -0.038023155 -0.13187784
0.0005276706 -0.008691804 0.0891706 -0.0894188 0.011436303 -0.05726521 0.023700466 0.04910148

exp_avg f4 [32, 538, 2]
00000000: 0d05 6638 694f 2d38 6263 e8b8 df58 02b8
00000010: 16e8 9cb4 afe8 a1ac e2cb 1837 9a75 64b7
00000020: 88d8 c337 6fc2 feb8 7b33 06b8 1de6 a0b8
00000030: e830 4cb8 43e4 4eb8 768b 17b8 bf23 d537
00000040: 94d7 8736 0b7f d7b4 8570 9fb7 ebf9 dcb7
00000050: a229 9eb9 8b7c fcb8 9a9f 5d05 630a 89a4
00000060: 4e03 30b5 ec53 eb37 db56 2f27 164d a927
00000070: 0a2b 9238 0fdd a4b7 e0af 2f38 7ea1 62b9
00000080: cfa7 9037 b84d 36b6 09b4 262b 0400 0080
00000090: e488 1ab7 fb4a 8fb7 babb 7538 e0fd c634
000000a0: f3fd 3ab9 40b4 6338 1e7a 00b8 f0ba 1fb7
000000b0: e049 cfb2 69bb f4b4 7eb8 beb9 c29c 1f39
000000c0: 2039 8eb9 306f dab7 451b 83b7 8cba 2cb7
000000d0: 480b 27b8 fa8a b5b8 80fa fdb6 4342 2bb9
000000e0: 75c9 9033 0fc2 80b6 3009 ae37 5591 2e37
000000f0: 10e2 0cb7 ccd6 2ab7 e3bc 8e36 b85d e3b4
00000100: 4d44 1fb9 3651 4f38 0400 0080 0400 0080
00000110: 28c6 8ea7 c638 5b2c 87fa 882f a91b 5daf
00000120: db8f 9435 6edd 4031 8aab 8237 7e8f b235
00000130: f9fc 51b8 dc4f 7ab9 b3d0 ad38 4807 b737
00000140: 94b2 c737 a31d 73b6 6c81 e137 42ca c8b7
00000150: d61b beb7 abe8 8cb9 185a f237 8821 1738
00000160: 3e3e 2f38 7af0 0cb9 50b0 2e37 74fb 8ab8
00000170: e8f4 5337 9cd7 d1b7 3e59 1cb8 8ca0 aeb7
00000180: 52f8 0539 fd47 82b8 0000 0000 0000 0000
00000190: 3103 cc33 8af2 9436 045b f837 3321 90b8
000001a0: 1521 d5b8 e419 6e38 88b8 01b8 aeb9 03b7
000001b0: 607b 93b7 fce5 c4b6 a279 01b7 bdf0 e135
000001c0: 6b93 47b6 ff30 8c37 603f 0db5 d83b fcb6
000001d0: 095a 4ab2 1a1a 552b 529b 5137 68f6 7e35
000001e0: a11d 35b9 4002 f4b6 b6b4 b538 685a 3937
000001f0: 3e69 5138 4354 0239 04d0 0435 749f c9b4
00000200: dd88 d337 ccde 1237 3fdc 68b8 a29a 1238
00000210: 7f9c 8938 9d78 b0b8 0800 29ae 7d25 8435
00000220: b0d3 5e2d 3a85 ad2e f413 f1b8 2f93 1db9
00000230: b86e 73b8 8e74 1238 f87a 97b8 a059 e0b6
00000240: 8059 abb6 bcfa 75b8 ae94 b3b7 a6b2 df36
00000250: bfae 33b7 0304 4135 f3a7 3a37 f168 db37
00000260: f098 55b6 016b 02b8 e760 9139 42e8 8d37
00000270: e9c1 22b7 8917 ed37 7e3a 22b9 1c51 07b9
00000280: 0c97 2f36 7fde 41b6 dea8 9937 8c46 c7b7
00000290: c877 e3b9 007b 4c38 50bd 45b8 7ea3 2ab8
000002a0: 00f8 6f33 d78f c038 9852 f138 3d16 36b9
000002b0: ec3e 0639 746b 9836 fefd df37 8eba 95b5
000002c0: f7d1 c2b7 a2f4 f137 0400 0080 28ed 9a2f
000002d0: 1b67 c338 359c 39b9 b18f 9039 9c72 05b9
000002e0: 705a 1cb6 e081 3e38 fdbf c9b9 b0d4 9eb7
000002f0: 2eda 5daa da0e 0bb0 867d c1b5 50ce 8fb4
00000300: 23f0 962d 8d94 a1a8 4529 8db9 c850 9fb8
00000310: 608c 6837 8757 8ab4 04bc 1537 b5f5 cfb7
00000320: d734 14b3 7244 92b5 085e 422d 3643 a09d
00000330: 62fc 8838 6d3d 7b38 623a be38 57bd 91b9
00000340: 1555 1a39 d80b e1b7 548c 1f38 34bd f038
00000350: cf50 0c38 2e1c 97b8 721f adb8 d45d e238
00000360: 0400 0080 0400 0000 06fe 42b9 5ca1 66b9
00000370: d8ff f1b7 2828 6ab8 504b 9335 903e 18b9
00000380: 44b0 07b9 48d3 4837 6f82 c238 57e0 af37
00000390: 1e5c 0136 d86b b330 e66e b237 e8fc 8337
000003a0: 46dd 6ab8 b0f9 4238 607f 43b7 e8b2 cc37
000003b0: a628 b8b8 b958 1fb9 ce35 bfb7 a0f9 3b35
000003c0: 1878 a138 4a0a aeb7 4ded a2b6 a27d 13b7
000003d0: 0400 0080 781e a636 ceab f339 e6a7 21b9
000003e0: 46f3 6aac 28ec 57a5 9795 37b7 80bf 6b38
000003f0: fedd ab33 0073 25af d10f e238 9acf 5039
5.4840977e-05 4.132037e-05 -0.000110811336 -3.1077183e-05 -2.922613e-07 -4.6017283e-12 9.107376e-06 -1.361724e-05
2.3346642e-05 -0.0001214788 -3.1996035e-05 -7.6722565e-05 -4.8682938e-05 -4.9326813e-05 -3.613109e-05 2.5408224e-05
4.04841e-06 -4.0139307e-07 -1.9006673e-05 -2.634242e-05 -0.00030167127 -0.00012039494 1.0420684e-35 -5.9431875e-17
-6.556992e-07 2.8053262e-05 2.4333213e-15 4.69905e-15 6.969839e-05 -1.9653262e-05 4.1887048e-05 -0.000216132
1.724428e-05 -2.7165352e-06 5.9224896e-13 -6e-45 -9.210988e-06 -1.7081844e-05 5.8587386e-05 3.7065092e-07
-0.00017832946 5.428889e-05 -3.063131e-05 -9.520663e-06 -2.4131566e-08 -4.55849e-07 -0.0003637708 0.00015221818
-0.00027126912 -2.60394e-05 -1.5629115e-05 -1.0295433e-05 -3.982641e-05 -8.656639e-05 -7.5691496e-06 -0.00016332515
6.7421674e-08 -3.8372887e-06 2.0746695e-05 1.0405046e-05 -8.397285e-06 -1.0182801e-05 4.253919e-06 -4.2350234e-07
-0.00015188866 4.942828e-05 -6e-45 -6e-45 -3.962776e-15 3.1153287e-12 2.4916266e-10 -2.010966e-10
1.1068727e-06 2.8065545e-09 1.5577087e-05 1.3303795e-06 -5.0065082e-05 -0.00023871608 8.288156e-05 2.181869e-05
2.3805806e-05 -3.6227073e-06 2.6882357e-05 -2.3936042e-05 -2.2662727e-05 -0.00026876232 2.8890601e-05 3.6032434e-05
4.178122e-05 -0.00013441025 1.0412259e-05 -6.6271896e-05 1.2633602e-05 -2.5015142e-05 -3.727641e-05 -2.0817177e-05
0.00012776375 -6.212292e-05 0.0 0.0 9.500071e-08 4.438979e-06 2.9606286e-05 -6.872639e-05
-0.000101627935 5.6767734e-05 -3.0927855e-05 -7.85144e-06 -1.7581217e-05 -5.868029e-06 -7.717319e-06 1.683387e-06
-2.973912e-06 1.6712116e-05 -5.2618816e-07 -7.517152e-06 -1.1778419e-08 7.5709025e-13 1.2493534e-05 9.498094e-07
-0.00017272543 -7.2720286e-06 8.6644126e-05 1.1047909e-05 4.9927497e-05 0.00012429156 4.9476535e-07 -3.7555185e-07
2.5216892e-05 8.754152e-06 -5.551823e-05 3.4953126e-05 6.561819e-05 -8.4148e-05 -3.842618e-11 9.845677e-07
1.2666243e-11 7.890795e-11 -0.00011495492 -0.00015027517 -5.803883e-05 3.4917663e-05 -7.223146e-05 -6.686154e-06
-5.1066163e-06 -5.8646066e-05 -2.1407697e-05 6.6667153e-06 -1.0709918e-05 7.190394e-07 1.1125568e-05 2.6155702e-05
-3.1828495e-06 -3.109407e-05 0.00027728753 1.6916663e-05 -9.701101e-06 2.8263561e-05 -0.00015471314 -0.00012904819
2.6164953e-06 -2.888875e-06 1.8317656e-05 -2.37555e-05 -0.00043386058 4.8751943e-05 -4.714477e-05 -4.0683422e-05
5.587208e-08 9.182066e-05 0.0001150716 -0.00017365157 0.00012802676 4.542462e-06 2.6701946e-05 -1.115566e-06
-2.3224375e-05 2.8843355e-05 -6e-45 2.8180946e-10 9.3175295e-05 -0.00017701167 0.0002757288 -0.00012726564
-2.3298453e-06 4.5420486e-05 -0.0003848075 -1.8934108e-05 -1.970444e-13 -5.058901e-10 -1.4416153e-06 -2.6785938e-07
1.7159668e-11 -1.7939014e-14 -0.00026924364 -7.5967575e-05 1.3860961e-05 -2.5768188e-07 8.924868e-06 -2.479074e-05
-3.4506993e-08 -1.0897768e-06 1.1048502e-11 -4.242114e-21 6.531995e-05 5.990027e-05 9.070781e-05 -0.00027797624
0.0001471828 -2.6827605e-05 3.8039245e-05 0.000114793336 3.345386e-05 -7.20549e-05 -8.25514e-05 0.000107939966
-6e-45 6e-45 -0.00018595913 -0.0002199462 -2.8848575e-05 -5.5827346e-05 1.0974272e-06 -0.00014519156
-0.00012940267 1.1970122e-05 9.274936e-05 2.0966092e-05 1.9276117e-06 1.3054615e-09 2.1270895e-05 1.5734186e-05
-5.5996024e-05 4.6485744e-05 -1.16525625e-05 2.4402005e-05 -8.781375e-05 -0.00015196473 -2.2794029e-05 7.002618e-07
7.6994475e-05 -2.0747208e-05 -4.8556017e-06 -8.791134e-06 -6e-45 4.9507325e-06 0.00046476576 -0.00015416704
-3.3388444e-12 -1.872829e-16 -1.0942479e-05 5.6206714e-05 8.003188e-08 -1.5047519e-10 0.00010779466 0.00019913763

exp_avg_sq f4 [32, 538, 2]
00000000: 8008 be35 5c6e 8f35 6b12 c535 ec3b c935
00000010: a23a 1230 2c3d 7330 a6e2 3034 de6c 2d34
00000020: 105f 5236 aecd 2f36 5ff3 0c34 3f01 9434
00000030: 0402 f434 896f 0d35 6ba2 3336 13ae 2136
00000040: 4d04 8131 3546 9031 9956 8e35 5966 9335
00000050: f335 6236 557e 9636 f567 d12e c065 042e
00000060: fcde 1734 6611 0234 7cb9 7b30 eb02 e82f
00000070: 57a9 6835 30b7 6535 467c 4336 760c 8436
00000080: 09ee 3033 05bf ff32 6f82 9e2f d75c 022f
00000090: d6dc f232 c6b9 2b34 8820 0634 2c20 d833
000000a0: 397d 0736 5672 1536 6771 b336 c6b3 a836
000000b0: 3203 6d31 c88a cf30 7540 b236 c679 9236
000000c0: ba19 d036 321b bc36 ab0b c832 e43b 8632
000000d0: 7c8a 6f36 2570 f535 7273 ab36 6f26 6d36
000000e0: aca9 fa31 d262 0c32 5a44 8c34 cf8c 8c34
000000f0: 54d7 4b36 bda4 2536 7113 8233 d268 b333
00000100: dd32 2435 e1fc 6e35 1d5d 452b 8a93 042a
00000110: bced 6c30 0952 9d30 6234 f831 fa42 a731
00000120: 47e0 1c31 6109 ca30 0496 4334 852f b434
00000130: a8af 6d35 2103 6835 21af 2c36 e377 1036
00000140: 6890 4b32 38c9 1231 870d 9636 8b58 d336
00000150: 746b 1d36 7321 5436 d40c 5935 3b4f 8b35
00000160: 7ef5 2b36 3754 8036 add0 8a35 4f1c b635
00000170: df40 a932 e199 1833 a3b9 8133 a6a3 6433
00000180: 32f6 3b37 ffa6 5936 0000 0000 0000 0000
00000190: b50e 0e33 ac20 5e33 85a5 8535 c84d d935
000001a0: 0f3e db36 9024 9d36 5943 2533 1843 2f33
000001b0: 83df 9c33 a7fc af33 c9ae c033 dde0 b933
000001c0: 2216 9933 0681 6c34 5c08 f132 eae3 2f33
000001d0: f44e 1731 df84 b230 9a04 4433 730a 1e33
000001e0: 18d7 8236 fc2a 9936 a1b0 e535 4e9e 6d35
000001f0: ccd1 9136 eb45 7d36 1757 a832 5c56 da32
00000200: 1d96 7c34 995f a234 d3e3 8035 79ef 8735
00000210: 8254 8835 944a 3a35 39b5 cb31 6786 2632
00000220: a71a 0b32 ffdb fc31 12d3 b935 1e6c 0b36
00000230: 66a4 9f35 1b4e ac35 ba83 a435 5c40 a335
00000240: eee2 b335 882b 5a35 c61b 3335 ccb3 2e35
00000250: d1b1 9d32 15fb de32 d3f2 e033 c835 5533
00000260: e55a c533 d877 7434 d143 fc36 a439 3136
00000270: 92d5 ca33 86d3 cd33 2a50 2a36 de41 6f36
00000280: 4122 a233 a001 7733 5646 f333 3387 1234
00000290: e033 e836 0692 fe36 5f1a 1237 935f 5336
000002a0: 92b7 0136 eb85 9835 dd52 fd35 9f82 1936
000002b0: c37f 1536 0ef8 cf35 e31c b433 871b 8e33
000002c0: e47a 1d33 894f 1733 68a7 5f2f f6c6 3330
000002d0: cc5c a035 cea2 8435 dc00 5537 fbbf 3c36
000002e0: c949 aa35 7e3d b035 995a 1937 aa94 4437
000002f0: d6b6 8730 ffba 7831 71ba 5233 183f fb32
00000300: 3d3e d330 3c1d 4f30 69d5 2e36 2060 6436
00000310: 0bec a333 c4d4 e133 c608 7234 2ead b734
00000320: 339d 0b33 2640 1533 631a 032f b529 412e
00000330: 3e90 c435 7d66 c735 c2fc d336 1472 d236
00000340: d06a 3136 a5ad 3736 c7e9 0036 dd8c 9235
00000350: b1ba 7235 1c58 6035 3974 8836 8b96 6436
00000360: f530 d22d 72ef 1a2e b0eb 2336 a5e3 4536
00000370: 5748 4e36 792f 6036 b7bd 8235 ba78 dd35
00000380: d3d1 9f35 1938 a835 c356 2c35 9088 fe34
00000390: fc65 7432 49d0 c332 6a48 1d34 0de0 0c34
000003a0: 595b c035 c6de 6835 7974 cc34 7f9c 0b35
000003b0: 37c2 5036 2855 0f36 146e 9034 53b1 9234
000003c0: b63e 0633 6598 0033 d17f e332 ad2f cb32
000003d0: da98 c42e 28d5 e730 2059 d537 d9e4 c436
000003e0: c494 0731 012d 4730 fd78 6a34 0fb5 4634
000003f0: 93c5 e231 6fc7 ec31 cbf3 ae35 8ff1 e135
1.4158577e-06 1.0686449e-06 1.4683004e-06 1.4993107e-06 5.3197813e-10 8.8489815e-10 1.6473732e-07 1.6151486e-07
3.1347772e-06 2.6196753e-06 1.3127054e-07 2.7568055e-07 4.5450008e-07 5.26889e-07 2.6767618e-06 2.4092194e-06
3.754883e-09 4.198933e-09 1.0605028e-06 1.098214e-06 3.3708027e-06 4.4850553e-06 9.522686e-11 3.0103697e-11
1.4144092e-07 1.2113523e-07 9.1576857e-10 4.2202628e-10 8.6673157e-07 8.557572e-07 2.91296e-06 3.935357e-06
4.1194685e-08 2.9772773e-08 2.883271e-10 1.1856414e-10 2.8272932e-08 1.59932e-07 1.2491557e-07 1.0064136e-07
2.0189457e-06 2.2269282e-06 5.3478175e-06 5.0277185e-06 3.4489855e-09 1.5100676e-09 5.312317e-06 4.3653154e-06
6.201878e-06 5.6060026e-06 2.328837e-08 1.5626888e-08 3.5694384e-06 1.8286561e-06 5.1096367e-06 3.5338123e-06
7.295247e-09 8.171542e-09 2.6126764e-07 2.6179484e-07 3.0374695e-06 2.4682806e-06 6.057133e-08 8.354404e-08
6.1168777e-07 8.9029896e-07 7.011768e-13 1.1775143e-13 8.619414e-10 1.1446569e-09 7.223705e-09 4.867954e-09
2.2828475e-09 1.47001e-09 1.8215366e-07 3.3562188e-07 8.8544994e-07 8.643129e-07 2.5731936e-06 2.1527455e-06
1.1848989e-08 2.1360176e-09 4.471923e-06 6.298598e-06 2.345737e-06 3.1609932e-06 8.0857467e-07 1.0379366e-06
2.562388e-06 3.824501e-06 1.0342534e-06 1.3568296e-06 1.970369e-08 3.553021e-08 6.040798e-08 5.3234224e-08
1.120339e-05 3.2432724e-06 0.0 0.0 3.3075327e-08 5.1718118e-08 9.957445e-07 1.6190397e-06
6.533933e-06 4.683221e-06 3.847831e-08 4.0806384e-08 7.3049726e-08 8.19503e-08 8.97249e-08 8.655636e-08
7.1286436e-08 2.2026151e-07 2.8059894e-08 4.095265e-08 2.2018272e-09 1.2988969e-09 4.563899e-08 3.6796745e-08
3.899342e-06 4.5647594e-06 1.7113235e-06 8.8519744e-07 4.3457603e-06 3.7740635e-06 1.9597378e-08 2.5417812e-08
2.352394e-07 3.0244408e-07 9.603049e-07 1.012798e-06 1.0157385e-06 6.9398925e-07 5.92868e-09 9.693031e-09
8.096925e-09 7.359176e-09 1.3845004e-06 2.0775547e-06 1.1894269e-06 1.283773e-06 1.225729e-06 1.2163177e-06
1.3402584e-06 8.1274675e-07 6.672311e-07 6.508169e-07 1.8358067e-08 2.595838e-08 1.0474982e-07 4.964184e-08
9.190061e-08 2.276787e-07 7.51808e-06 2.6408607e-06 9.445206e-08 9.584532e-08 2.5378636e-06 3.5652115e-06
7.5499436e-08 5.7510647e-08 1.1328363e-07 1.3646495e-07 6.920178e-06 7.5867893e-06 8.708418e-06 3.1497082e-06
1.932935e-06 1.1363858e-06 1.8874085e-06 2.2874808e-06 2.2277097e-06 1.5494895e-06 8.3871576e-08 6.6173975e-08
3.666618e-08 3.5229764e-08 2.0341206e-10 6.540256e-10 1.1947936e-06 9.882149e-07 1.2695989e-05 2.812593e-06
1.2687461e-06 1.3130918e-06 9.140605e-06 1.1717124e-05 9.874508e-10 3.6195045e-09 4.9064003e-08 2.9248937e-08
1.536996e-09 7.5347706e-10 2.6052242e-06 3.40306e-06 7.633215e-08 1.0516081e-07 2.2541198e-07 3.421241e-07
3.250643e-08 3.475011e-08 1.1923755e-10 4.3920163e-11 1.4645118e-06 1.4856483e-06 6.317715e-06 6.271768e-06
2.6437228e-06 2.73702e-06 1.9209563e-06 1.0918844e-06 9.0423697e-07 8.357472e-07 4.066646e-06 3.4062275e-06
2.3895977e-11 3.5228216e-11 2.442608e-06 2.9487794e-06 3.07385e-06 3.3406234e-06 9.740969e-07 1.6500919e-06
1.190749e-06 1.2533302e-06 6.420125e-07 4.741055e-07 1.4225858e-08 2.2795705e-08 1.4648109e-07 1.3120025e-07
1.43317e-06 8.6750913e-07 3.8082706e-07 5.2009267e-07 3.1107463e-06 2.1358228e-06 2.6902183e-07 2.732364e-07
3.125634e-08 2.9940924e-08 2.6484402e-08 2.365399e-08 8.9402e-11 1.6868045e-09 2.543308e-05 5.8678966e-06
1.972965e-09 7.245973e-10 2.1836964e-07 1.8506056e-07 6.5999273e-09 6.891177e-09 1.3034963e-06 1.6834109e-06

exp_avg f4 [32]
00000000: b625 26b7 ebb0 62b6 0dff 6137 be30 e5b7
00000010: 1e9e 0537 40f7 a037 0686 c6b7 7815 f2b6
00000020: 648c d2b6 f230 bdb6 08df 7935 144a 22b6
00000030: 2e8a 17b8 7116 71b5 23b3 bcb5 d029 cb36
00000040: 6460 a737 02f2 c8b7 d198 31b7 e486 71b8
00000050: 8023 c2b5 9d4d 9337 387f fab6 d756 9eb6
00000060: 94a8 6cb8 c825 4138 6588 cdb6 e3e0 a2b6
00000070: 90c2 3837 8461 b935 a652 9ab7 bdaf 0737
-9.903151e-06 -3.3779604e-06 1.3470429e-05 -2.7321625e-05 7.964232e-06 1.9188621e-05 -2.3665849e-05 -7.2146613e-06
-6.2748313e-06 -5.638337e-06 9.308428e-07 -2.4183e-06 -3.6129895e-05 -8.981215e-07 -1.4059227e-06 6.054739e-06
1.9952837e-05 -2.3954552e-05 -1.05856025e-05 -5.7584504e-05 -1.4464458e-06 1.7559907e-05 -7.465391e-06 -4.7188764e-06
-5.6423785e-05 4.6049972e-05 -6.1253545e-06 -4.8541565e-06 1.1012555e-05 1.3811955e-06 -1.8396717e-05 8.087544e-06
