cebra_models/reach1_4/01/B/cebra_trialID_model_5000_32_reach1_4_B.pt (torch, 742926 bytes, 31 tensors)

net.0.weight f4 [32, 538, 2]
00000000: e4f0 eebb 9d72 923c ea98 e73b 727e 1a3d
00000010: 5518 c5bc e7ec 76bd 6bf4 1f3b 49c2 963c
00000020: 3397 8fbc 0ee6 f1bc cfa1 d8bb 3ba5 c2bc
00000030: 135b 9f3c 0459 06bd 58a6 6b3b a135 943c
00000040: 4c8d 7abd cee9 4fbd c811 05bc 0cca b73c
00000050: 0f91 91bb 049c 2abd 8a6c 4fbd 3142 28bd
00000060: 62f3 2dbc 3b52 7f3c 2b3b 843d 9722 053d
00000070: 94c0 ba3b 73b4 87bb c7e1 ae3c 2142 cebc
00000080: a563 7c3b 2901 873b 1221 193d 74d4 d83b
00000090: 6863 20be 3a94 18bd 3b55 a239 93d2 02bb
000000a0: d71b d7bb d3ba 123d 022e 803c b784 d33a
000000b0: 9c14 cd3d c2dd 1cbd 0dd1 cb3b a9aa 13bd
000000c0: 6b84 e23c f4f9 14bd f034 e53b 83db d8bc
000000d0: 7a05 3dbc 61f0 4cbc 67ba eebb 6a8d db3a
000000e0: 0832 c6bc 9319 d23c 93d2 693c 7f2a dabb
000000f0: ad90 403c bb40 853c 9c9b 033d b199 823d
00000100: a040 28bc cb92 cfbb fc26 26be 396b a1bd
00000110: 25da 9fbd 10e6 98bb a8c0 933d 17f3 69bd
00000120: 4b6a 4a3b 6d65 e33c 2433 0fbc 1463 593c
00000130: 8c16 8cbb 1dd9 293c 72a3 803c 6b4a d43a
00000140: becf c0bc 93c3 843c 2843 e43b 9892 e53b
00000150: 0396 ef3b 8154 09bd 3562 3d3c 0777 f63b
00000160: 96f3 84bb 7902 ccbc a77b 4bbb a176 2c3c
00000170: 3ade c9bd 02cf 96bd ca6a 18bd fa0e b6bc
00000180: 8d29 c0bc 71ea 12bc c603 51bc c431 a83b
00000190: 8510 b0bc 8831 4e3b 3867 e13c b1f0 263b
000001a0: 8fb8 923c 2f15 8b3b 86cb ed3c 22c6 203d
000001b0: 241a a03c 19ab 30bd dbbd 9c3c 3959 4abd
000001c0: ea65 50bb 3d4d 29bc 8228 1cbd 7460 12bd
000001d0: e0a4 0d3d e3cc 16bc 9b4f 4d3b 6a74 4f3b
000001e0: 6b85 c0bb b62f 9abc 17a2 2c3b bb84 d43c
000001f0: 2867 edbc 726d 9e3c 798c 73bd 796f abbd
00000200: da42 27bd 1928 b1bc 4c52 08bd 8e2b 033d
00000210: dcee 713a a3c5 5b3c 4e0d 873c 2cf2 f9bd
00000220: 8ec9 663b 16fe e53c ee50 0d3d acea 8fba
00000230: c9cb 84ba a654 01bd ccf8 153c e403 1abd
00000240: 52d0 97bc 17f5 c0bc 1fc4 8e3c d849 e0bc
00000250: 6b5b f3bd 192c 20bd a1da 883c 6cc9 683c
00000260: c1f1 39bc 969e b0bc 8ae6 943b 4e16 a63c
00000270: 672e fdbb 5452 713c 2f59 95bc ed1e a03c
00000280: 8d52 f1bc 57bb fcbb 533b bc3c f58b 323c
00000290: ceb3 37bc 2baa fc3b de27 8d3c dc24 253b
000002a0: 74f9 0bbc fa28 7abc 6954 a63b fc5e 053c
000002b0: 858c 18ba 1dda 30bb 55c5 783b e7a2 7ebd
000002c0: e6bb 23bc 4e5e 2d3c fb3a c6ba 8c68 cdbc
000002d0: 902f de3c c272 bbbc 9fb8 fb3c 564d 873c
000002e0: de6b 923c e18c c43a f420 9d3c f195 673c
000002f0: 02f5 eb3b 03b2 0e3c e339 233d e5ba 723c
00000300: f1b8 dfbc d797 84bd 5e24 e4bc f41d f5bc
00000310: ac2f a3bc b99a a93b 0620 9ebc a5a2 37bc
00000320: 8df4 1a3d 0d45 b4bc 81e1 483d 6ff2 953b
00000330: 0806 913c 95d6 0abd 895e 023c 5058 94bc
00000340: fa70 f93b 3044 023c 72f5 3aba c3c1 b8bc
00000350: 84c0 d03c ed35 d0bb 4702 bb3b 747f 9e3b
00000360: b4ce b03c 8091 0c3b d31d a4bc 1f58 babc
00000370: a56d e0bc 76f5 0cbd a8cc 6dbc 35ba 003c
00000380: 771f 623b 19cf 133c 0af9 6d3c 9270 a7bc
00000390: bf32 e1bc 2554 96bc 679c 6d3c a847 30bb
000003a0: 390b e73b dcea a7bb 7ef2 ec3c daf8 033c
000003b0: 792f 9e3b 6fad 3a3c 7285 d33c 96ef 653c
000003c0: 17cc b3bd e209 38bd f692 35bd af8d 81bd
000003d0: df65 8abc 0141 193d a005 a23c ad06 5b3b
000003e0: ebe8 163d 69f4 b13c e115 abbc ef40 82bc
000003f0: 6f30 20bd 67b9 31bd eb27 ea3c 6932 5d3c
-0.0072919 0.017876917 0.0070677893 0.037718244 -0.024059454 -0.06028452 0.002440716 0.01840319
-0.017528152 -0.029528644 -0.006611086 -0.023760429 0.019452607 -0.032799736 0.0035957303 0.018091979
-0.061169907 -0.050760083 -0.008121915 0.02243521 -0.004442341 -0.041652694 -0.05064062 -0.04107875
-0.010617109 0.01558357 0.06456598 0.03250369 0.0056992266 -0.0041413843 0.021347893 -0.025178017
0.0038511541 0.0041200113 0.037385054 0.0066171233 -0.1566292 -0.037250735 0.0003096255 -0.0019961938
-0.006564598 0.0358227 0.015646938 0.0016137575 0.100136966 -0.038297422 0.006219989 -0.036051426
0.027651032 -0.036371186 0.006994836 -0.026471859 -0.01153695 -0.012508483 -0.0072854045 0.0016750519
-0.024193779 0.02564696 0.014271396 -0.006657898 0.011753243 0.016266217 0.032130823 0.063769706
-0.010269314 -0.0063346378 -0.16225809 -0.07881779 -0.0780528 -0.0046660975 0.07214481 -0.057116594
0.003088611 0.027758325 -0.00874022 0.013268251 -0.0042751487 0.010366705 0.015702937 0.0016196495
-0.02353656 0.016206538 0.0069660135 0.0070060007 0.007311584 -0.033527855 0.011559059 0.0075215134
-0.004057358 -0.024903523 -0.0031049044 0.01052633 -0.098568395 -0.07363702 -0.037211217 -0.022223938
-0.023457313 -0.008967028 -0.012757247 0.0051328856 -0.021492252 0.0031462628 0.027515039 0.0025473053
0.01791027 0.0042444686 0.029027712 0.039251454 0.019543715 -0.04313192 0.019133499 -0.049401496
-0.0031799027 -0.010333356 -0.03812457 -0.035736516 0.034581065 -0.009204122 0.0031327966 0.0031655082
-0.0058752797 -0.018821578 0.002634173 0.025942197 -0.028979853 0.019339297 -0.059460137 -0.08370871
-0.04083524 -0.021625565 -0.03328161 0.03202396 0.0009229013 0.0134138195 0.016485836 -0.12204394
0.003521535 0.02807526 0.03450101 -0.0010979972 -0.0010131533 -0.031574868 0.009153556 -0.037601367
-0.018531952 -0.023554368 0.017427502 -0.027378961 -0.11882671 -0.039104555 0.016705813 0.014208179
-0.0113491425 -0.021559995 0.004544084 0.020274308 -0.007726479 0.014729101 -0.018231003 0.019545997
-0.029458309 -0.0077127623 0.022977507 0.010897626 -0.011212302 0.0077107153 0.017230924 0.0025198972
-0.008543361 -0.015268559 0.0050759804 0.008140322 -0.0005819279 -0.0026985474 0.0037959416 -0.062167075
-0.009993529 0.010581566 -0.0015123779 -0.025074266 0.027122289 -0.02288187 0.030727683 0.016516369
0.0178737 0.0014995598 0.019180752 0.01413487 0.007200838 0.0087094335 0.039850127 0.014815067
-0.027309867 -0.06474274 -0.027849372 -0.02992151 -0.019920193 0.005175915 -0.01930238 -0.011208211
0.037830878 -0.022005582 0.049043182 0.0045760195 0.017703071 -0.033896048 0.007957109 -0.018108517
0.007612345 0.0079508275 -0.0007131911 -0.02255333 0.025482424 -0.0063540847 0.0057070586 0.004836971
0.021582939 0.002144903 -0.020033753 -0.022747098 -0.027396033 -0.034413777 -0.014514126 0.007856895
0.0034503618 0.009021544 0.014524708 -0.02043942 -0.027490018 -0.01835067 0.014502621 -0.002689818
0.0070508984 -0.005124433 0.028924223 0.008054936 0.0048274365 0.011393889 0.025820468 0.0140341725
-0.087791614 -0.0449313 -0.044329606 -0.06325852 -0.016894279 0.03741551 0.019778073 0.0033420727
0.03684322 0.02172299 -0.020884456 -0.015900103 -0.03910869 -0.043389704 0.028583487 0.013500788

net.0.bias f4 [32]
00000000: 16a8 07bd 338e 86bb 4b9d 59bb 79fe 8b3c
00000010: 9a3d 063b b414 d63a 409c aebc 1211 2b3c
00000020: d4c7 45bc 0e64 ab3b 43c5 c939 751d 94bc
00000030: 9ba7 023d db3a 70bc 3bca 423c 6248 103c
00000040: 0fcb 203c c40b 84bc e385 11bc fb2c 48bd
00000050: d1cf b5bc ea83 b2bb 88eb 0a3c 7eaa cfba
00000060: 70ef 0d3c f118 33bd 448f 80bb 0194 6ebc
00000070: 3a6a 32bc cf6b c1bc 60f7 ecbb 820e 91bb
-0.033119284 -0.004106307 -0.0033205326 0.017089115 0.0020483495 0.0016333074 -0.02131474 0.010441082
-0.0120715685 0.0052304333 0.0003848468 -0.018080452 0.031898122 -0.01466247 0.011889036 0.00880632
0.009814038 -0.016118892 -0.008882019 -0.04887102 -0.022193821 -0.0054478543 0.008479007 -0.0015843657
0.008663043 -0.043724958 -0.0039233286 -0.014561654 -0.010889584 -0.023610977 -0.007231638 -0.0044267783

net.2.module.0.weight f4 [32, 32, 3]
00000000: 0204 b33d ee34 e0bd 653c ac3d f872 c3bd
00000010: 7107 553d df07 83bd 0acb b03c e5c3 163e
00000020: 105e 0b3e 51a9 e13d 4fd8 96bd 2e9f 9e3c
00000030: b698 b33d 8170 9e3d 982f cf3d 0826 a73d
00000040: 74ef 95bd 34cf 753d 0f60 bb3d 857b 0fbc
00000050: 9eac de3c 6168 1e3d d293 a0bc f6b4 713d
00000060: 3405 22be b85d aabc 0b50 05bd 3fdb 083e
00000070: d3e4 b53d 99cd 0bbd f14c 843d 07c0 8d3d
00000080: d334 c73d e87f 5ebd e7be f6bd 8749 4abd
00000090: 88db 9fbc c88e 91bd 3d4d c53d b12e a7bd
000000a0: 3e2f b3bd 28b4 08be 247c a4bd f2c2 58bc
000000b0: 38ec 1abd beef 0e3d 798d 683d e714 b93d
000000c0: bb69 e7bc 99f4 1abd 1139 843d 8a8a 3c3d
000000d0: b9ac a0bd 8ce2 2cbd 9a00 c33d 5596 cfbc
000000e0: 259b de3d 3f19 fc3c 6f86 ad3d 8112 d03d
000000f0: e662 653d 9414 e6bc e55f 10bd 3696 f93d
00000100: ab43 c13d 47ac fc3c b0e5 26bd 32f8 3d3d
00000110: cafd 5d3d fae4 b5bc 0d3f f6bd 6122 2e3d
00000120: e35a 10be dfed 9f3c 0c6f 74bd 2cef 8d3e
00000130: 178b 353e e143 9b3d aa76 5e3e b5c6 e9bc
00000140: 0e16 4c3d 3a5c 32be 137f 9cbd e2be 603d
00000150: 60db 9dbd d06c 57bd 87d5 0abe ed5a 30bd
00000160: cc70 e0bd 6dbc eabd 05e5 083e 68e9 c73d
00000170: 5c8d 133e 1adc efbc 3f05 e23c f91d 02be
00000180: c5d9 43bd 33bd 9fbd 700e 5fbd 8b80 60bd
00000190: f19f 23bd c2c5 83bd d380 ab3d f8ef a43d
000001a0: 5499 c73d 8642 b2bd bd99 32bd ac53 07bd
000001b0: ef92 92bc e67c 9bba 02ba 9fbd 221e 13be
000001c0: f952 133d 6318 4a3c be94 c13c be5d d8bc
000001d0: 75e2 bebd 74f3 633d e567 9b3c 9b33 7abd
000001e0: 019b b2bd 2e59 023d 2a98 a83d 66f1 ebbd
000001f0: df03 86bd 9a45 29bd 3aba a4bd e4d5 98bd
00000200: 62ba 253d 1ef3 ddbd 9e52 1fbc 9aa6 b3bd
00000210: fed9 1dbd 339b aa3d ec73 123d 69d8 883c
00000220: 4d66 c5bd ddcd 423b fe28 70bd 49a1 8ebd
00000230: 87a2 af3c 2dbd 1ebc acd0 803c bfbf 113c
00000240: 85f0 dabd b505 6a3d df5d dbbc 8a45 02bd
00000250: 2767 49bd 9457 6f3c 0c2c b2ba 9ae5 6fbd
00000260: 8386 c5bc 6b3b 10bd de6f e43d 2a3a 063d
00000270: 4bb3 233d a5f4 023d 86b2 113d 2194 fcbc
00000280: b9d7 45bc 062a e13d 82df 8cbd 3f93 ebbd
00000290: e384 25bc 2c69 bf3d 524b 0f3c 0ed0 9abb
000002a0: 4b02 f83c 989d aebd 4c27 cbbd 5778 4f3c
000002b0: fa85 b83d 2ed2 a0bc 8923 7cbd f3da a83d
000002c0: f0ae f4bc 9a92 17bd ea7e 79bd 3a38 9a3c
000002d0: 47e2 45bd 463d 26bd 9ab1 7fbd cdc5 fd3d
000002e0: fb9c 77bd a98e 9c3d c5c3 513d 2e2e 6ebd
000002f0: 0ba1 bd3d 023a a5bd 0fd3 953d e742 53bd
00000300: 8e06 9ebc 6212 d53d e3c0 923d d28a aebd
00000310: 70bc be3d 90e6 c7bc 4c4e 21bb deba 47bd
00000320: 5548 f5bc d4ca 2b3d ee18 afbd 7b68 493d
00000330: ad58 023d bb87 963d 45f5 9bbd 753f a33d
00000340: ddd4 133b 2f11 fabb c9ec a1bc 8026 3a3d
00000350: 8616 cdbc 991e b53d 9392 833d 1745 9abd
00000360: 8ccb d5bd 9397 2a3d ebea 80bd c322 b7bc
00000370: 0ad9 5abd e350 873d 30da be3d 7f4d 9b3d
00000380: 1bf0 c73c beec ebbd 5263 a8bd 7680 a6bd
00000390: 1425 66bd 1b15 233d d25e d83c c687 503b
000003a0: 76aa cfbd 1315 02bd 6fe0 9a3d cc0b f33c
000003b0: 2b5a 933d 5ed4 8d3d f943 67bd 1177 2ebd
000003c0: aa06 8fbc 8d15 a73d 8386 b93d 6918 763d
000003d0: 944c fdbd 32c6 00bd c52e 9fbc 657b 4d3c
000003e0: 8519 a8bd 2aab f2bc 3978 713d 1cc7 673d
000003f0: 66b5 5f3b a6c0 50bd fbcf 273c ad87 b83d
0.08740999 -0.109475955 0.08409957 -0.09543413 0.05200905 -0.06397986 0.021581192 0.14723165
0.13610101 0.11018623 -0.07365476 0.019363012 0.08769362 0.07736302 0.101165 0.08161551
-0.07321063 0.060012057 0.09149181 -0.008757477 0.02718192 0.038673762 -0.019601736 0.05901047
-0.15822297 -0.020796642 -0.032547038 0.13364886 0.088815354 -0.03413162 0.06459988 0.06921392
0.09726872 -0.0543212 -0.120481305 -0.049386527 -0.01951386 -0.071073115 0.09633873 -0.081632026
-0.08749245 -0.13349974 -0.080314904 -0.013230072 -0.037822932 0.034896605 0.056775544 0.0903719
-0.028248658 -0.037830923 0.06456197 0.04603056 -0.07845444 -0.04220824 0.09521599 -0.025340239
0.10869435 0.030773757 0.08472907 0.10159779 0.05600252 -0.028085984 -0.035247702 0.121868536
0.09436735 0.030843867 -0.04074639 0.046379276 0.05419711 -0.022203911 -0.12023745 0.042513255
-0.1409717 0.019522605 -0.059676215 0.27721536 0.1772884 0.07581306 0.21724954 -0.028537134
0.04982572 -0.17417994 -0.07641425 0.05486954 -0.07707858 -0.052594006 -0.13558017 -0.043055464
-0.10959014 -0.114617206 0.13368614 0.097613156 0.14409393 -0.029279757 0.027590392 -0.12706746
-0.047815103 -0.07799759 -0.054457128 -0.054810088 -0.039947454 -0.06434204 0.08374181 0.08053583
0.09746042 -0.087040946 -0.043603648 -0.03303878 -0.017892329 -0.0011862784 -0.0779915 -0.14366964
0.0359678 0.012334916 0.023630496 -0.026411887 -0.09320537 0.055652097 0.01897044 -0.06108437
-0.08720971 0.03182333 0.08232148 -0.115206525 -0.06543707 -0.041326143 -0.080433324 -0.074626714
0.04046095 -0.108373865 -0.009724287 -0.08772011 -0.03853797 0.08330383 0.035755083 0.016704755
-0.09638653 0.0029724755 -0.058632843 -0.069643565 0.021439804 -0.009688658 0.015724503 0.0088958135
-0.10690407 0.05713435 -0.02677816 -0.0318046 -0.04917064 0.014608283 -0.0013593449 -0.058568574
-0.024111992 -0.035212915 0.111541495 0.032770313 0.03996591 0.031971592 0.035570644 -0.030832352
-0.012075358 0.109943435 -0.06878568 -0.11502694 -0.010102483 0.09346232 0.008745985 -0.004724509
0.03027453 -0.08526152 -0.09919605 0.012662969 0.09009929 -0.019631471 -0.061557326 0.08244886
-0.029868573 -0.037005045 -0.06091205 0.018825639 -0.048311498 -0.04058578 -0.062425233 0.12391243
-0.060452443 0.07644398 0.05121209 -0.05814951 0.09259232 -0.08067705 0.07315647 -0.051577475
-0.019290235 0.10403897 0.071656965 -0.085225716 0.09313285 -0.024401933 -0.002461332 -0.048762195
-0.029941717 0.04194148 -0.08549677 0.049171906 0.03182285 0.07350107 -0.07615141 0.07971088
0.0022557296 -0.007631443 -0.019766228 0.045446873 -0.025035154 0.08843727 0.06424441 -0.07532709
-0.10439214 0.04164846 -0.06294807 -0.022355443 -0.05342964 0.06607225 0.0931896 0.075831406
0.024406483 -0.11519764 -0.08222069 -0.08129971 -0.056187704 0.03981505 0.026412401 0.0031819209
-0.10139935 -0.03175838 0.075623386 0.029668711 0.071949326 0.069252715 -0.05646131 -0.04259402
-0.017459232 0.08158407 0.09058859 0.060081873 -0.12368122 -0.031439014 -0.019431481 0.012541627
-0.082079925 -0.029622633 0.058952544 0.05658637 0.0034135222 -0.050964974 0.0102424575 0.09010253

net.2.module.0.bias f4 [32]
00000000: 041a 773d be34 12b9 6caa 92bb 90a8 183d
00000010: 8d29 fe3c bb0e bd3d 3886 10bd 0d53 7bbc
00000020: 530e ad3d 4fdd 6cbd 6386 9bbd fc8d 8cbd
00000030: 5e0f 493d 01f4 89bc c62a e23c d0ca d83d
00000040: 991f 923d 3e5c 063c ac5e 883d 7e61 25bd
00000050: 1bda 4bbd e575 a63d 6e92 84bd acc2 94bc
00000060: 47f8 8cbd a2d4 a0bd 2138 58bd 357f 803c
00000070: cfe4 aabd b46e 823d 7c75 743d 7c76 07bc
0.060327545 -0.00013943293 -0.0044758823 0.03727013 0.031025672 0.09231325 -0.03528425 -0.015339625
0.08449998 -0.057828244 -0.075939916 -0.06863019 0.04908692 -0.016839983 0.027608287 0.105855584
0.07134933 0.008200703 0.06658682 -0.04037618 -0.04976855 0.08127955 -0.06473242 -0.018159233
-0.06883293 -0.078530565 -0.052787904 0.015685657 -0.08344423 0.06368771 0.059682354 -0.008267995

net.3.module.0.weight f4 [32, 32, 3]
00000000: a62b e43c 6170 ae3d f962 723d aa93 bbbc
00000010: 0685 ebbc 2039 92bc 0fb9 cdbd 934b 80bd
00000020: 42bd 20bd df32 0ebd 6c0c 0d3c adc9 563c
00000030: 82fb 533c 79e4 d03c 782d 50bd 8999 113d
00000040: 2e9b 1abd bc00 cebc 4e2d d9bc 9ca0 583d
00000050: fd40 9fbd 1198 9bbd 76d4 abbc c77f a2bd
00000060: 50b9 63bd 550d 92bd 8284 dc3b 3310 50bd
00000070: e7a5 d7bd 3a92 913c 1b0a c43b 592b 48bd
00000080: 7540 033d 487b b93c 0c28 453c faf0 6dbd
00000090: 9c84 b93b 57d7 5ebc a810 9abd fce8 22bd
000000a0: e178 823d 8cd8 6cbd 01b5 0f3d 97bd a4bd
000000b0: 9a62 263d 0baf 693d 22ac 22bd 5bd3 85bd
000000c0: c47e bcbd 1f72 9cbd db0b 9f3c b44f 443d
000000d0: 2d66 6b3d 949d 283d caff d1bd f353 8a3c
000000e0: c8f8 cebc 3caf 3bbd 2694 f63c fc0e cfbd
000000f0: 6f41 9b3d 7514 02bd e849 943d 7125 b3bd
00000100: 4035 85bd c7f6 bbbc 760d e53c 1c62 d6bd
00000110: 6f19 483d bf2e 693d 2c05 dcbd 8c87 78bd
00000120: 6c2f 8fbd bb97 cdbd a77a ad3d 1014 c9bd
00000130: 9aa5 32bc 7a7b 92bd 2099 1ebd 2a96 e0bc
00000140: 26f3 a3bd 0de8 46bd 58e6 9a3d f846 96bd
00000150: 7a5a dbbd 5140 4f3d 35a7 083c a942 95bd
00000160: eecf a6bd 957f 54bb 0149 1fbd dc47 2a3d
00000170: 3f2c 1b3d 1356 833d a464 8cbd 6ede 28bd
00000180: 2301 a23c 6acd 47bd 7303 283d 26cc 9cbc
00000190: 7d0e 42bd 1035 98bd d4f2 c9bd 45bc a2bc
000001a0: bc84 7c3c bd80 8cbc 8199 c3bd d188 7abd
000001b0: 99c1 563d 08f9 c53d 6db9 ab3c ceab a0bd
000001c0: cacb d7bc fbb4 c03d 62a6 ecbd 426a 8ebd
000001d0: 7490 acbb 4e18 cc3d 025e d33d db12 393d
000001e0: ce98 b93d cc9f 203d b38b 393d 95e2 813d
000001f0: 16ca d53c c1f6 1f3d c52c 09bd 5240 9e3d
00000200: 5b33 5ebd 89ba da3d e45c 553d 381a f13d
00000210: b6d7 00bc eb23 01bd faf5 bb3d ee21 d1bd
00000220: 3878 dcbb 9b60 32bd bc16 623d f9f2 afbd
00000230: a863 503d ed12 b4bd 3bec 4fbd b7f0 223d
00000240: 39ae 583d 6be5 053c c3f4 bbbb a151 943c
00000250: 25cf e13c 0a04 79bd 35fe bc3d a289 b43d
00000260: aab2 42bb 2752 73bd 13fe bb3c 501a a03c
00000270: f63e 5fbc c0d3 11be 2aaf 06be 2ecf 7a3c
00000280: 60fa 8f3d 038a 60bd d78d b63d 155c afbd
00000290: ff12 4bbd 5b07 e43d 7d00 3b3d bede b93d
000002a0: 59e3 d53d f64b bc3d b1d1 02bd 86a9 42be
000002b0: 7cb2 1abe 47d4 2cbe 2794 adbd 4e29 5d3d
000002c0: 0d87 8abd 53f7 e3bd 12f7 603d 3fd9 143e
000002d0: 6a84 23be 65fc 09bd bd11 f4bd 52c2 cf3c
000002e0: f31a 7b3d f138 033e 396a ebbd 256a d4bd
000002f0: 64af de3c a657 c03c e525 79bd 9fb7 d2bd
00000300: ffe0 e9bd b6d9 273d ec88 bebd 17b0 0e3d
00000310: 8687 bb3d 5131 d33d 7f48 e0bd bed0 7bbd
00000320: a742 78bc 1986 babc fb6e 89bd 4785 ccbd
00000330: 8297 6f3d 52e5 853d f572 da3c f665 b03b
00000340: e677 da3d 879f 843d 6225 c3bd 5c41 41bd
00000350: 0d4e 053d 4566 8dbd e302 5dbd 367d 193d
00000360: 2d78 763d 1252 b5bb 4aa6 023d b1ff a8bd
00000370: eaed 18bd 35c8 9ebd 0265 74bd 3e8a 20be
00000380: 8bd6 023d 3e95 e83d 815d 3c3c 8f17 b33d
00000390: acf2 dbbc e449 0e3d 212d 573d 8162 ae3c
000003a0: 4d89 eabd c6d4 8f3d d029 573d 3983 d4bc
000003b0: ec3f 363c 2dbf 8abd f11e 7cbc cae3 20bd
000003c0: b61a 6fbd fde4 80bd 5799 3abd 8a4a 073d
000003d0: 60c4 893c d719 c1bd 2a3f 433d fd0f d4bb
000003e0: 9f78 92bd 1ef1 673d 2aa3 cfbc 3512 ce3c
000003f0: b7ca 723c 674a a5bd 4276 16bd 7d9e 0dbe
0.027852844 0.08517528 0.05917642 -0.02289756 -0.028749954 -0.017849505 -0.10045063 -0.06264415
-0.03924299 -0.034716483 0.008608919 0.013109607 0.012938382 0.02549957 -0.050824612 0.035546813
-0.037745647 -0.025146835 -0.02651086 0.052887544 -0.077760674 -0.07597364 -0.020975333 -0.07934528
-0.05559665 -0.07131449 0.0067296633 -0.0507967 -0.1052969 0.017769922 0.00598265 -0.048869465
0.032043893 0.022641793 0.012033474 -0.05809114 0.00566156 -0.013601146 -0.07522708 -0.039772972
0.06370712 -0.057823703 0.03508473 -0.08043974 0.040621378 0.0570517 -0.03971494 -0.065344535
-0.09203866 -0.07638954 0.019414833 0.047927573 0.05747049 0.041165903 -0.10253866 0.016885733
-0.025265113 -0.045821413 0.03009994 -0.1011028 0.0758084 -0.03175779 0.07240659 -0.08747376
-0.06504297 -0.022944821 0.02796052 -0.10467932 0.04885238 0.056929346 -0.10743174 -0.060676143
-0.06991467 -0.10038706 0.0847066 -0.0981828 -0.01090374 -0.071524575 -0.03872025 -0.027415354
-0.08005361 -0.048561145 0.07563466 -0.07337755 -0.107106164 0.050598446 0.0083406465 -0.07288105
-0.08145128 -0.0032424678 -0.03888798 0.041572437 0.037883993 0.06412902 -0.06855133 -0.04122775
0.019775933 -0.048779882 0.041018914 -0.019140314 -0.0473771 -0.07431996 -0.09860769 -0.019865165
0.015412506 -0.017151231 -0.09550763 -0.061165635 0.052430723 0.096666396 0.020962441 -0.07845269
-0.026342291 0.09409519 -0.115551725 -0.06953861 -0.0052662436 0.09965573 0.10320665 0.045183998
0.09062348 0.039214894 0.045299243 0.06342045 0.026097339 0.039053682 -0.03348996 0.07727112
-0.054248195 0.1068011 0.05209054 0.11772579 -0.0078639295 -0.031528395 0.09177776 -0.1021155
-0.0067281984 -0.04354916 0.055197462 -0.08591265 0.05087629 -0.08792672 -0.050762396 0.039780345
0.052900527 0.008172373 -0.005735965 0.01810533 0.027564595 -0.060794868 0.09228174 0.08815314
-0.0029708543 -0.05940452 0.0229483 0.019543797 -0.013625851 -0.14240932 -0.13152757 0.015308185
0.07030177 -0.05481912 0.089137726 -0.08562485 -0.049578663 0.111342154 0.045654763 0.09075688
0.10443754 0.09194176 -0.03193826 -0.1900998 -0.15107149 -0.16877852 -0.084755234 0.05399447
-0.0676404 -0.11131158 0.054923125 0.14535998 -0.1596848 -0.033687968 -0.11917446 0.025361214
0.061304998 0.1281469 -0.1149487 -0.10371808 0.027183242 0.023479294 -0.060827155 -0.10288929
-0.11419868 0.04097911 -0.093034595 0.0348359 0.091567084 0.10312141 -0.109513275 -0.06147837
-0.01515261 -0.02276902 -0.06710621 -0.09986358 0.0584941 0.0653788 0.026666144 0.0053832484
0.106674 0.0647574 -0.095286146 -0.047181472 0.03254514 -0.06904272 -0.05395783 0.037472926
0.060173202 -0.005533465 0.031896867 -0.08251894 -0.037336268 -0.0775303 -0.05966664 -0.15677735
0.031942885 0.11356591 0.011496902 0.08744728 -0.026849113 0.034738436 0.052533273 0.021287205
-0.11451969 0.07023005 0.05253011 -0.025941478 0.011123639 -0.06774745 -0.015388236 -0.039279737
-0.058375083 -0.06293676 -0.045556393 0.03303007 0.016817272 -0.09428757 0.04766766 -0.0064716325
-0.07151913 0.05662643 -0.025346357 0.025155166 0.014818839 -0.08070832 -0.036733873 -0.1382999

net.3.module.0.bias f4 [32]
00000000: 7e0e 0cba 078c d83d 32ab 433d c3a3 533c
00000010: d9ad 8a3c 45a6 8ebd 830e 7c3c 3bc4 413d
00000020: 204b 1a3d c29e b9bd f2f3 84bc 17f9 be3d
00000030: 0c82 ccbc 6d9b f03c 08d9 663d a9e4 333c
00000040: ce8c 6dbd 527e ea3c 343c ac3c 38cb 373b
00000050: 3ba9 f3bc 7251 92bd 2607 ae3d 0f16 cd3d
00000060: 097f 7a3d d90b 7cbd 4cdc a93c 2cdc f13d
00000070: 7570 a13d 761a 90bd b19f efbb 7bc4 9dbd
-0.00053427357 0.10573583 0.047770686 0.012917462 0.0169286 -0.06965307 0.015384319 0.04730628
0.0376693 -0.09063484 -0.016229603 0.09324854 -0.024964355 0.029370988 0.05635932 0.01097981
-0.05799561 0.028624687 0.0210248 0.0028044712 -0.029743781 -0.07144441 0.08497457 0.10013973
0.061156306 -0.061534736 0.020734929 0.118095726 0.078827776 -0.07036297 -0.007312738 -0.07703491

net.4.module.0.weight f4 [32, 32, 3]
00000000: dbfc 9ebd f274 843d 34d1 a4bd b785 b53c
00000010: 2dea 62bd 42c7 d63c 9e91 5ebd 05bc ad3b
00000020: 3b52 40bd b0b3 1c3d c72a 6bbd c36e 7bbd
00000030: edf5 aabd 8039 0f3d 1625 9a3d 38d1 913d
00000040: 001f 9a3d 278b 9a3d 2eec a6bd bdf5 573b
00000050: 3ea3 c6bd e0e9 833d ecc3 79bd 3bfb ff3c
00000060: 3948 99bd 42fe a73d 38f5 0b3e 1976 053d
00000070: 6905 f4bd cc2e bd3b 97de 95bd dc03 a9bc
00000080: 1e17 91bc cb6b 4bbd 3cd2 0d3d e0eb eb3d
00000090: 44a7 57bd 75f0 5d3d 1df7 b83d 1291 023d
000000a0: a4ff 99bd 89e3 1abc 1c7f c7bd 4fbf a7bd
000000b0: 4ee8 76bd 0188 a3ba 6fa1 26bc c473 23be
000000c0: f938 633d 053d a8bd 752e 2a3d da66 b9bb
000000d0: 406c 01be 98ad 0a3d 2c00 963d 4269 bdbd
000000e0: e9fa 463d ed5d 1f3c 43ec 6dbd 7442 9abd
000000f0: 617b b83d ade0 fb3c 45e6 613d 3d4f 76bc
00000100: 4507 70bd e03c e83b 2025 d6bd 5769 1dbd
00000110: 5cfe 6d3c 3e62 2b3d 4fc0 aa3c 62a9 a03d
00000120: 8fa4 5e3c 0a5d bebc 1372 a43d 2354 89bd
00000130: e060 383c 752a 5f3a 5143 fcbd 90fc eb3b
00000140: d332 9ebd 920e 1e3d 88e6 4d3d 1f26 2c3d
00000150: 5da8 833d 2db0 fb3d 820f f93a 5129 f6bc
00000160: 663d 2bbb ea74 9c3d 401b e73d 3601 93bb
00000170: 2774 33bd 4d75 6b3d 22b6 5ebd 3597 29bc
00000180: 2f16 7dbd e663 093c 1217 983d da6a dbbb
00000190: bb7d 9bbb 9aad d7bc 2b4c b2bd 30f5 1d3d
000001a0: 8f81 d03c 1d03 9b3d 0d24 a83d 4832 873d
000001b0: a69e 433d beab 0fbd 7740 15be 8c67 42bd
000001c0: 6e97 673d 08bc 0fbd 2c26 56bc e32b bdbd
000001d0: 7feb 5bbd d82e 1b3d 4238 21bd 71c2 07bd
000001e0: 6db1 923d 2839 ccbc 852f 673d 091e 933c
000001f0: f0c7 69bd b998 8bbd a5f8 b8bc 6db3 713d
00000200: 41da b8bd 8e85 ef3c 52d6 bfbd 53cf b03d
00000210: a0ac b5bd 502c a7bb 7e3e b63d 8bde 163d
00000220: bc41 5d3c 89f8 febd d296 733c 4a88 f5ba
00000230: e6be 073d 32bc 273d 97f2 7dbd e439 f0bd
00000240: d33f 9b3d d9fc c2bd 1850 a4bd 19ff ee3a
00000250: 779d 963d bca7 d2bd 7953 e03b b456 c53d
00000260: fe88 363d 0620 953d 83f6 a53d 2203 b7bd
00000270: 2631 4e3c bfef 033d a1a7 02be 8bfd e23c
00000280: 3444 83bd 69dc 4a3c e748 4fbd e5fe 8bba
00000290: 63fc 75bd 5b14 c83c ec4d 063d f9f6 d13c
000002a0: b268 c53d 4555 b13d e6c2 833d acf7 1a3d
000002b0: c0c7 843d e1be 293c 2dd1 d33b 4d25 91bd
000002c0: 5a33 09be 2f80 923d f542 123d 48b7 2d3e
000002d0: d7ca 1f3c ffcd 823d c6ef 14bb 06c1 4ebd
000002e0: 8417 25bc e8f6 2bbd 9c1d 063d f3f1 513d
000002f0: a984 023e 12e7 8cbd d636 8cbd 50c7 8abd
00000300: 7917 6c3d 5a7e 313c 5031 a83d 362a 64bd
00000310: 38f6 56bd ce0d 7cbd bf3d 1d3c 0890 b43a
00000320: ac63 52bd 61d3 dd3b 37d4 dd3d c7aa af3d
00000330: a598 b73c 5203 5a3d 4644 f5bd 1abf 383d
00000340: 5284 bc3d d5aa 24bd 399a 163e e34e 703d
00000350: d0db 0fbd 3898 aebc 1f6d 62bd fd1d 6c3d
00000360: b079 a7bd 8458 f7bc e5a8 ebbd 4b88 143d
00000370: 3912 5e3c 56b7 baba ee35 dcbb 90b2 eb3c
00000380: 33fd 3e3e bc28 bfbd 3388 1ebb 8dae d0bd
00000390: ea0a 1ebd 9295 2ebd b34f 94bd c242 053e
000003a0: c6d2 45bd 72e3 f6bc 59b9 afbd ddb0 153d
000003b0: 6013 5bbd ec6a df3d 6eb4 be3d b676 f33d
000003c0: f081 5139 327e 803d 762c 123d 2f13 48bd
000003d0: aced dfbd efd5 7f3d 39d6 9bbd 31a4 a7bd
000003e0: 05e6 db3d 50be 0f3d 6f36 1dbc 4299 383e
000003f0: 942a 553d dc44 91bd 97e8 d0bd 56c2 d73d
-0.07763072 0.06467618 -0.08047715 0.022158487 -0.05539911 0.02621806 -0.05433809 0.0053019547
-0.04695342 0.0382573 -0.057413843 -0.061384927 -0.08347688 0.034966946 0.07526605 0.071199834
0.07525444 0.075460725 -0.081505165 0.0032952868 -0.09699105 0.064410925 -0.06097786 0.031247726
-0.074844785 0.08202793 0.13667762 0.03258333 -0.119150944 0.005773401 -0.07317846 -0.020631723
-0.017711218 -0.049663346 0.034624323 0.11519599 -0.05264975 0.054184396 0.09031508 0.03187663
-0.07519463 -0.009453663 -0.09741041 -0.08190786 -0.060280137 -0.0012476445 -0.010170325 -0.1596213
0.055474255 -0.082147636 0.04154821 -0.005658013 -0.1263895 0.03385696 0.073242515 -0.09248592
0.04857913 0.0097269835 -0.058086645 -0.07532206 0.09007908 0.030746782 0.055151243 -0.01503354
-0.058600683 0.007087335 -0.104563 -0.038430538 0.014525976 0.041841738 0.020843653 0.07844807
0.0135890385 -0.023237724 0.080295704 -0.06705501 0.011253566 0.00085131015 -0.12317527 0.0072017387
-0.07724538 0.038588114 0.05026868 0.042028543 0.06428597 0.12289462 0.0019001814 -0.030048998
-0.0026129126 0.07639487 0.112844944 -0.0044862283 -0.043811943 0.057484914 -0.054372914 -0.010350992
-0.061788734 0.008385634 0.07426275 -0.0066960873 -0.004745213 -0.026327897 -0.08705934 0.038563907
0.025452403 0.07568953 0.08210001 0.06601387 0.04775872 -0.035075895 -0.14575373 -0.04746203
0.0565409 -0.03509143 -0.013070624 -0.09236886 -0.053691383 0.03788647 -0.039360292 -0.03314442
0.071627475 -0.024929598 0.056441803 0.017958658 -0.05707544 -0.06816239 -0.0225795 0.059009004
-0.09026004 0.029238489 -0.0936705 0.08633294 -0.08870816 -0.005101718 0.08898638 0.036833327
0.013504442 -0.12449748 0.014867501 -0.0018732634 0.03314104 0.04095096 -0.06199893 -0.11729792
0.07580533 -0.09520883 -0.08023089 0.0018233984 0.07354253 -0.10285899 0.006845888 0.09635678
0.04456424 0.072814986 0.08103659 -0.089361444 0.01258496 0.03221106 -0.12759258 0.02770879
-0.06409493 0.012381651 -0.050606634 -0.0010680823 -0.060055148 0.024423769 0.032789156 0.025630461
0.0963911 0.08658842 0.06433658 0.037833855 0.06483412 0.0103604505 0.0064641447 -0.07087193
-0.13398495 0.07153355 0.035708386 0.16964447 0.009752951 0.06386947 -0.0022725924 -0.05047705
-0.010076407 -0.041983515 0.03274308 0.05125613 0.12745918 -0.06880011 -0.068463966 -0.06776297
0.057639573 0.010833347 0.082125306 -0.055704318 -0.052480906 -0.061536603 0.009597241 0.0013775835
-0.051364586 0.006769583 0.108314924 0.08577495 0.022411654 0.053225823 -0.11975913 0.045104124
0.092049256 -0.04020198 0.14707269 0.058668982 -0.03512174 -0.021312818 -0.055279847 0.057645787
-0.08177507 -0.030193575 -0.115068235 0.03626279 0.013554149 -0.0014245312 -0.006720296 0.028771669
0.18651275 -0.09333941 -0.0024190068 -0.10189543 -0.038584627 -0.04262311 -0.07241764 0.13013747
-0.048296712 -0.030137751 -0.08580274 0.036545623 -0.053485274 0.109090656 0.09311758 0.11887877
0.00019980199 0.0627407 0.035686933 -0.04884642 -0.10934004 0.062459882 -0.07609219 -0.08185614
0.10737232 0.035093606 -0.0095954975 0.18027213 0.05204256 -0.07093212 -0.10200613 0.105351135

net.4.module.0.bias f4 [32]
00000000: d61c f63c e127 1e3d 01fc 373d 65d1 fbbc
00000010: cdd9 95bd ca37 d13c 2886 adbd 8377 6a3d
00000020: 8b81 5bbc fcff 20bd 3bc5 693c 3be9 b2bd
00000030: 49f8 963d c03a 813d 93a4 543d 8d0d c63d
00000040: 20e8 0d3d fee4 6c3c 0ea6 fd3d 35d9 a93c
00000050: 003d 903d cd99 8bbd 3e75 4e3d 2b48 34bd
00000060: 716a 043e c4fe 2abd 5741 af3d ddc5 9e3c
00000070: 6259 a3bd 7667 b23c d12f 49bc 5cde e93b
0.030043047 0.03861225 0.044918064 -0.030739496 -0.07316933 0.025539298 -0.08472854 0.05724288
-0.013397585 -0.039306626 0.014268215 -0.087358914 0.073715754 0.06310034 0.051914763 0.09670553
0.0346452 0.014458893 0.12385188 0.020733455 0.07042885 -0.068164445 0.05040478 -0.044014137
0.12931229 -0.04174687 0.085573845 0.019381458 -0.07976033 0.02177785 -0.012279467 0.007137103

net.5.weight f4 [32, 32, 3]
00000000: fbfc 3b3c 239b d03c 6e40 9abd aea3 253d
00000010: 1744 873d 7817 ad3d bde1 c0bd a371 353d
00000020: 7f6f 24bc 3454 bbbd 8539 593d 098d b13c
00000030: b6c5 b4bd 5bd4 dcbb 95d4 12be 3d42 4f3d
00000040: f433 c2bb b1a7 c33d f272 c5bd 52fc 76bd
00000050: 6d79 efbd e465 90bd f5fb 773d 0814 8f3d
00000060: 5edc a33d 2ed8 513d 22c0 a63d 9a7e 84bd
00000070: 4c41 acbd c7b2 a2bd 3630 bc3c 707e eb3c
00000080: 8e73 2e3c d556 d43d d7fc 8a3d b49b 603d
00000090: 9083 a2bd 3e66 513d 5b44 05bc f62f 523c
000000a0: 91cd 5c3d c1c4 0fbd 2fe6 003d a5ef 76bd
000000b0: 8082 1d3d 0c9e c3bb 0e30 a03d aa47 8dbd
000000c0: 733f 7bbd a3e0 503d 6dd8 8c3d ddb0 bfbd
000000d0: 3ca8 08be 8308 0abe 296b 933d 2225 74bd
000000e0: 8e9a 093c 2260 92bd 3e15 723d 0dbf 02be
000000f0: 90c9 9dbd 95fd 83bd 1725 b33d 16bd 06be
00000100: ce46 1c3d 275a f4bd 21e5 ea3b a0c6 9c3c
00000110: ec5b d33c 0fcb cdbc f305 013d 8c82 593c
00000120: f205 953d 9642 f73c 430d b83d dd51 41bc
00000130: 0ada b2bc d8d4 84bb 6d9f d8bd dee9 913c
00000140: 468e 55bd 5bd2 9e3c 61eb b33a 20b8 ca3d
00000150: 7068 8c3d 4ea8 e33c 1519 bdbd 531c fd3c
00000160: 6943 89bd e423 9cbc 32bc 1b3c 756b b2bd
00000170: 1672 c93d 96e3 d5bd 39f6 d1bd c9af 2abd
00000180: 1f5d b93d 2339 4bbd 166f 83bd a15a 2b3d
00000190: 00e4 a5bd 93f3 f7bd bd15 013e 6367 0a3e
000001a0: e316 cc3d 80d1 fd3c d1be 523d 3ccd 89bd
000001b0: 54c8 ca3d 778d e33d e910 473d 032f 29bd
000001c0: cfb6 84bd 5968 873d 21df a93c 5111 963b
000001d0: c41e 31bd 4fb8 5c3d 40da b93b ad1c 23bc
000001e0: 3ad2 04be 0a66 21be 944d c0bb 4ca4 0fbd
000001f0: 3796 37bd c884 d13c 0310 953d 6c04 82bd
00000200: 18a4 c03d 3f0c bcbd e109 a13d 7d8c 513d
00000210: d750 803c 53ef 48bd 69a9 333d 9945 a43d
00000220: 627c 93bd f02a 77bd ca64 5cbd 6259 91bb
00000230: 1f7e 10bd 2a42 1e3d 41b0 c1bd 8e6e 803d
00000240: 19d5 5ebc f975 4f3d 70e4 a23d 1527 023d
00000250: 3e19 47bd e2d9 d5bd 9cad cc3a ae93 0dbd
00000260: 8963 263d 1958 643d b209 ee3d 413f 053e
00000270: 1b19 d93d e02a 7cbd 089f 94bd 0eeb 8d3d
00000280: f99d 903d 7038 2a3d 28d0 e9bd 0c8d 24bd
00000290: 1df1 d6bd cf08 89bd aa67 ad3d 6f58 e6bd
000002a0: e514 54bd 9163 153d 369a c83c 091a 40bb
000002b0: b0ae 633d 23be 58bc 03de ba3c 7beb 663d
000002c0: 8e7f 083d ce67 6cbd c7d5 513d 65fe f8bd
000002d0: 145e d5bd 64e6 c6bd 55de 08bd c1a1 a63c
000002e0: 9b53 103d 0687 b13d b057 97bd e504 bc3d
000002f0: c4df 96bd bc61 a43c 1ed4 123d 0e22 c93c
00000300: 9bfb d7bd 128d c63c 0945 5a3d a7d2 d0bc
00000310: 4662 45bd 19db 6b3d d992 62bd 5ebf 603d
00000320: bba2 fd3b 88c7 c13d ed42 27bc ac7a e3bd
00000330: e9b1 0cbe 80a0 bcbd a167 e2bd 4143 e13c
00000340: 1ff0 373d 1917 e3bb b04e 20bd c1fc a83d
00000350: 60ab a5bd 2253 7cbd 8e95 ae3d 0143 92bd
00000360: 63b7 a33d d28f 0dbd 079a ab3d 0e80 91bd
00000370: 8fa9 7ebc 82b8 dc3b 86e6 2e3c 6d42 063d
00000380: 302b 9fbc c019 a03d 8e22 88bd 6e4e 5e3c
00000390: 39a4 043d e3e1 c33d ec70 46bd 4e56 94bd
000003a0: 9235 4e3d 8285 903d ee0f 203d 394f 8fbd
000003b0: a635 9abd 450a 51bd 2676 91bc 8709 e6bc
000003c0: cc75 263d c7c2 87bd d529 883d e27d 62bd
000003d0: abf4 fb3c db53 b43c 62fb 453d 404e 72bc
000003e0: d68f 37bc e25f e1bd be1a 9b3d 5810 15be
000003f0: fa30 febc 09ea b13d fe61 593c cdab c5bd
0.011473889 0.0254646 -0.0753182 0.0404393 0.06604784 0.08451742 -0.09418056 0.044297826
-0.010036348 -0.0914692 0.05303337 0.021673696 -0.08826773 -0.006739182 -0.14338906 0.05060028
-0.0059266035 0.09553469 -0.09641065 -0.060299225 -0.11693082 -0.07050684 0.06054302 0.069862425
0.08001016 0.051231556 0.08142115 -0.0646946 -0.08410892 -0.07944255 0.022972208 0.028746814
0.010647668 0.103681244 0.067865066 0.05483599 -0.0793525 0.051122896 -0.008133973 0.012828818
0.05390698 -0.03509975 0.03146952 -0.060287137 0.038454533 -0.0059697684 0.07821666 -0.068984345
-0.061339807 0.05099548 0.068772174 -0.09359906 -0.13345426 -0.1347981 0.071981736 -0.059605725
0.008398665 -0.07147242 0.05910229 -0.12768193 -0.077044606 -0.06444851 0.08747309 -0.13158068
0.038153462 -0.11931258 0.0071684276 0.01913768 0.025800668 -0.02512124 0.031499814 0.013275754
0.072765246 0.030183118 0.089869045 -0.011799303 -0.021832485 -0.0040536933 -0.10577283 0.017811712
-0.052137636 0.019387415 0.0013726765 0.098984 0.06855857 0.027790215 -0.092333 0.030897295
-0.067023106 -0.019060083 0.0095053185 -0.08711902 0.09836213 -0.10443799 -0.10252041 -0.041671548
0.090509646 -0.049615037 -0.06417672 0.041834477 -0.08100128 -0.12107005 0.12605949 0.13516001
0.09965303 0.030983686 0.051451508 -0.067285985 0.09901491 0.11110967 0.04860011 -0.0413046
-0.064801805 0.066116996 0.020736279 0.004579701 -0.04324223 0.053886708 0.0056717694 -0.009955567
-0.1297082 -0.15761581 -0.005868623 -0.035068795 -0.04482099 0.02557601 0.072784446 -0.063485
0.094062984 -0.09182023 0.078632124 0.05115937 0.015663547 -0.049056362 0.043862734 0.08021087
-0.072014585 -0.060343683 -0.053807057 -0.004435704 -0.03527653 0.038637318 -0.09457446 0.06271087
-0.013600611 0.050649617 0.07953727 0.031775553 -0.048608057 -0.104419485 0.0015615704 -0.034564666
0.040622268 0.05574808 0.11622943 0.1301241 0.106004916 -0.061564326 -0.07256895 0.06929599
0.07061381 0.04155773 -0.11416656 -0.040173575 -0.104952075 -0.06691133 0.08467038 -0.11247336
-0.05177774 0.036471907 0.024487596 -0.0029312393 0.055586517 -0.013228926 0.022810942 0.056376915
0.03332477 -0.057716183 0.051229265 -0.12157897 -0.104183346 -0.09711912 -0.033415157 0.020340802
0.035235982 0.08668332 -0.07389772 0.09180621 -0.07366899 0.020066135 0.035846822 0.024552371
-0.10546037 0.02423719 0.053288493 -0.025491072 -0.048189424 0.057581995 -0.055315826 0.054870002
0.0077403462 0.09461886 -0.010208827 -0.11107382 -0.13739742 -0.092103004 -0.11054922 0.02749789
0.04490673 -0.0069302437 -0.039137542 0.08251334 -0.08089328 -0.06160272 0.08524619 -0.07141686
0.079939626 -0.034560986 0.08378988 -0.071045026 -0.015543356 0.006735862 0.010675078 0.032778192
-0.019429773 0.078174114 -0.06647216 0.013568504 0.032383177 0.09564569 -0.048447534 -0.07243024
0.050344057 0.070567146 0.03907769 -0.069975324 -0.07529764 -0.051035184 -0.017756533 -0.028080715
0.040639684 -0.06628948 0.06648604 -0.055295832 0.030756315 0.022012642 0.04833544 -0.014789164
-0.011203727 -0.11004616 0.0757346 -0.14557016 -0.031029213 0.08687217 0.013267992 -0.09651909

net.5.bias f4 [32]
00000000: d554 b9bb 794d bc3c 1acc 193d 8195 f7bc
00000010: ef55 52bd 7099 5abb 78fe 86bd 6c41 45bd
00000020: 9ca0 c9bc 681c d73d ba74 babd e0b4 4d3d
00000030: 0325 2dbb 401a 843c 82cc 85bd bb15 d6bd
00000040: 1917 223b f152 913d d0b0 b23c 842c c93c
00000050: 49f8 99bd 13cd 56bd b06b d03a d997 7b3d
00000060: 92e6 b4bd 3d6d 1d3d 7826 8ebd f40f c93c
00000070: 32f4 e7bc 2673 17bc 11ec 123d b62a 20bd
-0.0056558647 0.02298616 0.037548162 -0.030222656 -0.051351484 -0.0033355616 -0.06591505 -0.048158094
-0.024612717 0.10503465 -0.09104295 0.050221324 -0.0026419766 0.016125798 -0.065331474 -0.104533635
0.0024733006 0.07095898 0.021812826 0.02455736 -0.0751806 -0.052441668 0.0015901234 0.06142411
-0.0883304 0.038434256 -0.06940931 0.02454374 -0.028314684 -0.009243762 0.03586966 -0.039103232

exp_avg f4 [32, 538, 2]
00000000: 9a8f 0cba 0f1e d2b9 5af8 0eba c30e 2dba
00000010: da03 6136 f85c 2035 c0ed 2ab6 2175 a6b9
00000020: d454 a4b9 6299 79b9 93c8 26b7 90fd 5136
00000030: 48fa 86b8 daa7 6539 2979 aa39 6827 8939
00000040: c49b 3537 3846 1f37 c61e 90b9 4067 e737
00000050: 946b dfb7 73c7 2f38 50e9 c4b1 9b7a 8a32
00000060: 090b e738 20b2 9737 08b2 0e37 b421 a1b6
00000070: 84bd a338 a1db 3cb9 cc18 97b9 1079 32b9
00000080: 7c42 b4b7 994b 8938 b614 2938 dee4 8537
00000090: b085 76b4 38f1 50b7 008d b735 2ea7 95b6
000000a0: b980 62b9 e695 0f39 d8e6 55b9 cf09 bbb9
000000b0: ae3b 51b6 faac 23b7 c468 0dba ec31 26ba
000000c0: d03e 8fb9 6833 59b9 cfb4 90b8 043a 50b7
000000d0: 9a02 c938 b848 0b38 a6af aab9 7b33 05ba
000000e0: e893 47b5 d0e6 f035 0a69 e638 2aa9 d2b8
000000f0: 3012 9d38 7ef8 02b8 6c24 07b9 ce57 06b9
00000100: cc7a acb8 70f4 b437 7e67 91b5 0ed9 78b6
00000110: 5460 8b37 5415 1037 74df f7b6 e09b 7f37
00000120: 72d7 dc37 3706 bb37 30f3 a638 5879 9bb8
00000130: d173 4036 992f a8b5 0b4f e4b9 903e 27b9
00000140: cffc b736 e221 d036 46ca c338 0094 b339
00000150: e072 26ba ad2a d2b9 8127 23ba 4c16 18ba
00000160: 30f6 8b39 8181 bfb8 f2cb 92b8 725c 00b8
00000170: 7a29 d237 65f1 22b7 0e41 74b6 0b30 09b6
00000180: 2c5a ceb9 af31 b6b9 0000 0000 0000 0000
00000190: ca95 2db9 a285 3537 bf22 b0b9 a618 cdb8
000001a0: ff50 62b9 abba 49ba ca82 a138 da0a 1338
000001b0: b6cc fab7 ffa3 0bb9 bca7 97b8 42fb f6b7
000001c0: 0d0a 75b9 76da 4bb9 ad11 4cb7 5c6c 83b6
000001d0: 4c88 02b8 4e5e 5bb7 da23 83b8 359e b0b8
000001e0: b01b efb7 7a6d 47b6 c0f3 4c38 7da0 1ab9
000001f0: e4c4 edb9 cfc9 9238 d979 c9b7 c84f 2536
00000200: 70ab 30b7 c02f 5d39 4a66 4d38 746f d839
00000210: 10e3 4a38 ab72 f7b8 9638 52b8 20da b9b7
00000220: 44f8 0738 9e9c 5837 f469 9eb9 2ec5 98b9
00000230: f26c c0b8 1913 6b38 f806 9ab8 a9c1 adb9
00000240: f725 ac38 fca1 9339 eeb1 ea38 72a3 c6b7
00000250: 3922 38b8 9f59 86b8 ab44 22b8 f436 9b37
00000260: e293 e538 2cc1 6eb7 2816 7c38 001f d6b6
00000270: d7f4 ce38 0068 7b32 3c83 7239 7921 2239
00000280: ec76 54b9 6689 bd37 9b91 a9b8 302e 2bb9
00000290: 757f 35b9 82ca 0fba e149 95b9 88ae 6338
000002a0: e045 0639 2cbb 59b7 6c11 bbb9 b2ba ff38
000002b0: 7de8 59ba 6c8f 7eb9 c4cf 71b8 2a45 56b8
000002c0: 3893 9b35 a090 3b39 706d aab5 993f 3f36
000002d0: 77be 2eb9 b54f fbb8 274e bbb9 a4df b038
000002e0: 568f 5b39 1cd5 1db9 5a14 2aba a52d 7eb9
000002f0: dc7f dcb7 d015 7436 e94d a337 8c8a 1339
00000300: a5bd 22b7 5f53 a837 4345 beb8 c45c 89b8
00000310: 3063 ceb8 536a c7b7 46c7 05b9 58df 95b8
00000320: 266a b3b7 e815 22b8 508e 76b5 8081 bf34
00000330: f88b cbb9 f833 1bb9 f74d 8eba 5c95 9dba
00000340: 5175 33b9 70dd 063a 80fa 19b9 20dd a5b9
00000350: 5169 c6b8 5763 2839 eeaa 44ba b607 25ba
00000360: ec25 37b6 4495 40b6 2ce8 0d39 c046 48b9
00000370: 8c6b c5ba 0262 92ba ce73 94b8 e66d ffb8
00000380: c72c 21ba e8e2 0138 28fb b3b9 78dc 0238
00000390: bfa0 d5b7 03a9 89b8 8ae3 06b8 18d4 6738
000003a0: 8255 09b9 85a6 0fb9 22c4 b8b8 cdd0 d9b8
000003b0: ec48 d7b9 4365 adb8 f084 0038 8001 0938
000003c0: 6cd0 a635 5c1b d4b4 1bec 7b37 1652 3fb8
000003d0: c5ea 42b6 7e73 b836 0977 04ba 1869 c4b9
000003e0: bb68 27b8 7069 da36 abb1 8eb9 e136 52b9
000003f0: 2887 8037 e26c 0538 1ec9 c538 bb09 c439
-0.00053619745 -0.00040076717 -0.00054538774 -0.0006601626 3.3529855e-06 5.973993e-07 -2.5470363e-06 -0.00031749255
-0.0003134372 -0.0002380363 -9.941071e-06 3.129102e-06 -6.4362364e-05 0.00021901671 0.00032515198 0.00026160036
1.0824708e-05 9.493488e-06 -0.00027488748 2.7585425e-05 -2.6633767e-05 4.1909003e-05 -5.7308753e-09 1.6121069e-08
0.00011016994 1.8083549e-05 8.505311e-06 -4.8020975e-06 7.807746e-05 -0.00018010895 -0.0002881944 -0.00017020502
-2.1488631e-05 6.54675e-05 4.031203e-05 1.596141e-05 -2.295917e-07 -1.2453929e-05 1.3675599e-06 -4.4600083e-06
-0.00021600992 0.00013693384 -0.00020399259 -0.00035674727 -3.1178165e-06 -9.755831e-06 -0.00053943344 -0.00063398364
-0.00027321884 -0.00020713883 -6.900133e-05 -1.2411274e-05 9.5849115e-05 3.3207907e-05 -0.00032555795 -0.00050812186
-7.434851e-07 1.7948569e-06 0.0001098682 -0.000100450896 7.489731e-05 -3.122584e-05 -0.00012888171 -0.00012811946
-8.224472e-05 2.1571497e-05 -1.0833462e-06 -3.7081222e-06 1.6614948e-05 8.588035e-06 -7.387187e-06 1.5235477e-05
2.6326368e-05 2.2295031e-05 7.960794e-05 -7.413578e-05 2.8677644e-06 -1.2530828e-06 -0.0004354644 -0.00015949667
5.483256e-06 6.2028275e-06 9.336001e-05 0.0003425181 -0.0006349515 -0.00040086117 -0.0006223843 -0.00058016623
0.0002669557 -9.131712e-05 -6.99981e-05 -3.0603675e-05 2.5053265e-05 -9.7121565e-06 -3.63967e-06 -2.0442556e-06
-0.00039358565 -0.00034750762 0.0 0.0 -0.00016554366 1.08195545e-05 -0.00033595224 -9.779753e-05
-0.00021583213 -0.0007695357 7.7014396e-05 3.5057637e-05 -2.9897648e-05 -0.00013317166 -7.231484e-05 -2.9442486e-05
-0.00023368765 -0.00019440972 -1.2163463e-05 -3.916719e-06 -3.112135e-05 -1.3075374e-05 -6.253245e-05 -8.421802e-05
-2.8503913e-05 -2.9717035e-06 4.88644e-05 -0.00014746371 -0.00045350858 6.999412e-05 -2.4017807e-05 2.4633355e-06
-1.0530333e-05 0.0002109399 4.8971073e-05 0.0004128177 4.837202e-05 -0.000117992364 -5.01206e-05 -2.2155291e-05
3.2417724e-05 1.2911069e-05 -0.0003021505 -0.0002913861 -9.175566e-05 5.6046152e-05 -7.34459e-05 -0.0003314142
8.2086706e-05 0.00028158713 0.000111911315 -2.367955e-05 -4.390089e-05 -6.406311e-05 -3.8687762e-05 1.850303e-05
0.00010947116 -1.4230882e-05 6.0102117e-05 -6.381306e-06 9.8684504e-05 1.463377e-08 0.00023127807 0.00015461993
-0.00020262197 2.2594537e-05 -8.085669e-05 -0.00016325037 -0.00017308987 -0.0005485193 -0.0002847454 5.4283562e-05
0.00012805266 -1.2977787e-05 -0.000356804 0.00012194122 -0.00083125365 -0.00024276756 -5.7652374e-05 -5.108599e-05
1.1591246e-06 0.00017887587 -1.2697838e-06 2.8498237e-06 -0.00016664887 -0.00011983459 -0.00035725647 8.43399e-05
0.00020938864 -0.00015052076 -0.0006488018 -0.00024240332 -2.6285583e-05 3.637153e-06 1.9467394e-05 0.00014070625
-9.7001075e-06 2.0065983e-05 -9.072807e-05 -6.549948e-05 -9.8413206e-05 -2.377216e-05 -0.00012758104 -7.146475e-05
-2.1387892e-05 -3.864421e-05 -9.1849233e-07 3.5670746e-07 -0.00038823462 -0.00014801312 -0.0010856976 -0.0012022662
-0.00017114474 0.0005144691 -0.00014684536 -0.00031636003 -9.4609924e-05 0.00016058735 -0.0007502277 -0.00062953995
-2.7291198e-06 -2.8697114e-06 0.00013533299 -0.00019099843 -0.0015061959 -0.0011168125 -7.07876e-05 -0.00012179818
-0.0006148335 3.096732e-05 -0.00034328667 3.1199743e-05 -2.5466432e-05 -6.56415e-05 -3.2160002e-05 5.527222e-05
-0.00013097192 -0.00013699576 -8.810336e-05 -0.000103862585 -0.00041062327 -8.268144e-05 3.0641386e-05 3.2664742e-05
1.2428623e-06 -3.9507984e-07 1.5015738e-05 -4.5614397e-05 -2.9044907e-06 5.4970724e-06 -0.0005053138 -0.00037462334
-3.991344e-05 6.509181e-06 -0.00027216724 -0.00020047605 1.5321726e-05 3.1811076e-05 9.431153e-05 0.00037391283

exp_avg_sq f4 [32, 538, 2]
00000000: 22ff 8e39 41f0 ab39 65ff ef39 ab5f 193a
00000010: f119 ef31 6613 1732 1c49 8338 4892 3c38
00000020: b97e bb39 d689 a339 abf4 9933 1b97 7033
00000030: 34c7 2438 b5c4 f437 a8cb 683a abc1 803a
00000040: 6b77 5033 b52b 8633 3a06 c139 5b37 dc39
00000050: c43e fe33 c54c 2634 fd8b 8a2c e7d9 f52c
00000060: e4d2 b035 6d2d a835 2431 3e32 fba2 0e32
00000070: 17ca 2c39 8eae 3139 5479 9639 f5ac a039
00000080: 8785 3236 e550 1b37 b8ce 3332 61b9 fa31
00000090: c3fd 4b32 453d a732 ea4d aa36 11bb c136
000000a0: dafc d939 7435 f039 7959 633a 9a86 503a
000000b0: 8e76 f432 951c 9c32 50d1 1a3a 4f68 df39
000000c0: ea49 4c3a 71c5 283a a542 3135 bb2f 2135
000000d0: f5b5 4739 44fd 1939 86f5 f439 b8e1 043a
000000e0: 83c1 5c33 4365 ab33 4adc 0b38 6113 e937
000000f0: 64e2 113a 66f6 203a e7fd 8236 95cb ba36
00000100: aa3a c436 3d84 ac36 cafc bb31 e038 0d31
00000110: 6ef5 dc32 4094 4832 bcf5 8d33 ee86 2633
00000120: 19bc af32 866c a332 af2e 4236 26e0 5636
00000130: cc1a b730 14f4 3431 c64e 1e3a 0be0 e939
00000140: b805 0133 3d0b 4e33 16a2 993a 8642 9e3a
00000150: 2bb2 5b39 3639 3139 f07c 3739 42f0 3339
00000160: 5179 663a 888b 4e3a 36b6 1e39 d477 1139
00000170: f00c 5c33 444d a433 dd1a 3d30 1b6e d82f
00000180: 491d f939 c0bc e539 0000 0000 0000 0000
00000190: ed0b 5036 f554 9f36 5bad 8b39 b70d 6639
000001a0: 9ca3 bf39 2fbb c139 81d4 f935 1a8d e635
000001b0: d231 9336 6087 4036 0929 9236 bee8 8b36
000001c0: 619e be36 1e13 5e36 2134 e635 5d96 f635
000001d0: be76 4d33 f8a5 9832 889f ed35 ec6d fe35
000001e0: 6389 bf39 f06a a139 107d fa38 65c1 0639
000001f0: 119b 4e3a 6feb 703a f57f 8935 7eee 6835
00000200: 4319 bb37 dea4 b637 24a6 e838 824e 0339
00000210: e22e eb38 77a6 ee38 432d df33 9633 8b33
00000220: 7b8b 5534 3e92 8b34 e12f c439 18b1 8a39
00000230: 9de0 5339 8a58 1c39 02b5 ea38 5d54 b238
00000240: d716 9a38 fe99 9138 aa72 3636 76a9 0c36
00000250: 2a2a 3335 0dcd 7a35 0302 3637 9aa5 b036
00000260: fdbb 9d36 98f7 9b36 643b 213a d343 3f3a
00000270: 959d 8d37 fac8 9837 b276 e939 f6c7 003a
00000280: 2afc 8236 9461 ae36 1d50 7937 e3fe 6637
00000290: 9df7 283a 4bde 283a e75e ac39 dd33 9e39
000002a0: 6d1a 7c39 095d 6f39 f955 bf39 ecef bf39
000002b0: 2fb9 193a 880b 0d3a 1bc5 0f37 7e88 b536
000002c0: ffbf d035 5e2d 0d36 fbd7 b032 9919 7d32
000002d0: 5ef2 cb38 1e19 9e38 8446 643a cb54 543a
000002e0: aaad 5239 dcaa 1739 c778 533a 633f 443a
000002f0: ff70 3a33 8879 3e33 4503 6b36 5806 4036
00000300: 43da 8c33 0158 7c33 c302 8439 b7b4 9239
00000310: 966c 0f37 05b4 f336 97d3 6138 2678 3a38
00000320: eb52 6736 5cb7 1a36 204c c631 0d2e 4c30
00000330: d227 9139 3cf3 7c39 ffe7 a73a 8af5 913a
00000340: 1e4c 013a 170f 003a a356 3e39 316f 0839
00000350: eb16 de38 46f8 a138 5be2 1c3a 350d e839
00000360: b82c 5830 316e 8a30 b461 c439 9855 ac39
00000370: 909e 4b3a 60f7 1a3a b0aa 5c39 6a13 7739
00000380: cbae 8539 49a5 6739 43eb df38 e0ee c138
00000390: 930f 2735 a78f 1e35 7664 c137 4b29 a037
000003a0: c91a 8638 f08d 7138 aa06 a038 03ca 8d38
000003b0: ebe5 0d3a 253c 1c3a b70d 4f38 8240 3b38
000003c0: 62b4 0030 1746 8e2e 4c0c ea34 63ae 0135
000003d0: 75c9 a131 5a7a 0932 d5ae 863a 0b19 813a
000003e0: 9c32 8533 cbad 1633 3052 9237 560a 8537
000003f0: b674 9433 235f 9233 6e43 0839 d265 0739
0.0002727444 0.00032794665 0.00045775916 0.00058507425 6.9587647e-09 8.7937675e-09 6.2601845e-05 4.4958928e-05
0.00035761835 0.00031192478 7.1691225e-08 5.6016784e-08 3.928617e-05 2.9178665e-05 0.0008880445 0.0009823343
4.8537384e-08 6.2478115e-08 0.00036816468 0.00042002913 1.1839214e-07 1.5487883e-07 3.9377377e-12 6.987511e-12
1.3174399e-06 1.2530196e-06 1.1070629e-08 8.302545e-09 0.00016478483 0.00016945062 0.00028700626 0.0003064644
2.660179e-06 9.257555e-06 1.0466174e-08 7.2970328e-09 1.1873854e-08 1.9469221e-08 5.075465e-06 5.7736256e-06
0.00041577854 0.00045816193 0.0008672695 0.00079546275 2.8459251e-08 1.8173788e-08 0.0005905824 0.0004261159
0.00077929965 0.00064381125 6.603462e-07 6.004663e-07 0.00019045903 0.00014685566 0.00046722236 0.0005069035
5.139874e-08 7.9812274e-08 3.3345343e-05 2.7784788e-05 0.0005565046 0.0006140232 3.90386e-06 5.566932e-06
5.8480846e-06 5.141394e-06 5.471155e-09 2.055053e-09 2.572298e-08 1.167524e-08 6.610523e-08 3.8772605e-08
2.0458218e-08 1.9025048e-08 2.8935426e-06 3.2018957e-06 1.3322619e-09 2.633219e-09 0.000603896 0.00044608148
3.0040354e-08 4.7973334e-08 0.0011721279 0.0012074269 0.0002095184 0.00016901348 0.00017498783 0.00017160273
0.0008791881 0.0007879068 0.00015135933 0.00013872917 5.1234508e-08 7.6509e-08 6.8795974e-10 3.9368406e-10
0.000475148 0.00043818913 0.0 0.0 3.1001357e-06 4.7484596e-06 0.00026641306 0.00021939618
0.00036552257 0.0003695129 1.8613792e-06 1.7177401e-06 4.3867412e-06 2.8689028e-06 4.355916e-06 4.1696176e-06
5.680879e-06 3.3091706e-06 1.7151507e-06 1.837219e-06 4.7838277e-08 1.7770603e-08 1.7704306e-06 1.8956466e-06
0.0003653272 0.00030787988 0.00011944224 0.00012851281 0.0007881383 0.0009190356 1.0244536e-06 8.6773787e-07
2.23039e-05 2.1772863e-05 0.00011093568 0.0001252238 0.00011214406 0.00011379731 1.039248e-07 6.482075e-08
1.9887914e-07 2.5997173e-07 0.00037419706 0.00026453356 0.00020206203 0.00014910303 0.00011191705 8.503415e-05
7.3475465e-05 6.942822e-05 2.7186857e-06 2.0960265e-06 6.6744053e-07 9.3430646e-07 1.0848514e-05 5.2644873e-06
4.7008493e-06 4.6481837e-06 0.00061505125 0.00072961784 1.688189e-05 1.8213399e-05 0.00044529658 0.0004912609
3.9036577e-06 5.1969637e-06 1.4860209e-05 1.3768414e-05 0.00064455887 0.00064418156 0.00032877104 0.0003017475
0.00024042437 0.00022827474 0.00036494414 0.00036609115 0.00058640813 0.00053804414 8.569356e-06 5.41011e-06
1.5553086e-06 2.1037044e-06 2.0587313e-08 1.47323584e-08 9.724939e-05 7.5387055e-05 0.00087080174 0.00080997933
0.00020091856 0.00014464132 0.00080670085 0.0007486252 4.340927e-08 4.4348354e-08 3.5019632e-06 2.8613922e-06
6.5589596e-08 5.875336e-08 0.0002517906 0.00027981933 8.548746e-06 7.2629214e-06 5.384124e-05 4.4457753e-05
3.4469947e-06 2.3054517e-06 5.771213e-09 7.428021e-10 0.00027686224 0.00024123205 0.0012810229 0.0011135798
0.0004932302 0.0004885061 0.00018152087 0.00013011393 0.00010590054 7.723323e-05 0.00059846573 0.00044260328
7.864389e-10 1.007214e-09 0.00037456828 0.0003287017 0.0007767463 0.00059114955 0.00021044421 0.00023562988
0.00025497968 0.0002209145 0.000106772895 9.247451e-05 6.223501e-07 5.906863e-07 2.3054174e-05 1.9092715e-05
6.394607e-05 5.7591067e-05 7.630636e-05 6.7610315e-05 0.00054129836 0.000595989 4.936542e-05 4.4644352e-05
4.682247e-10 6.469863e-11 4.3594844e-07 4.831001e-07 4.7086197e-09 8.002269e-09 0.0010275493 0.0009849382
6.202501e-08 3.508266e-08 1.7442828e-05 1.5859649e-05 6.913017e-08 6.81596e-08 0.0001299509 0.00012912534

exp_avg f4 [32]
00000000: 7c56 b636 583b a0b7 650e 18b7 c174 0538
00000010: 37da 2fb6 c62c 1bb7 2eb1 4db6 0032 bab5
00000020: 2e34 d836 6113 8a37 5ee5 14b7 666a 4037
00000030: 9886 07b7 76b8 67b6 4e15 7db7 fe34 76b7
00000040: f2dd 13b7 c5eb 54b6 214d b337 9692 e0b7
00000050: e033 a5b3 dca4 9136 62fd bfb6 5f84 09b8
00000060: 8502 86b7 ea03 6a36 8a1a e437 41c5 a3b7
00000070: 4582 fa36 f60f be36 5e1b e735 e377 3ab7
5.434091e-06 -1.910112e-05 -9.0632575e-06 3.1818407e-05 -2.620405e-06 -9.249145e-06 -3.0650513e-06 -1.3872632e-06
6.443376e-06 1.6459906e-05 -8.874891e-06 1.1468865e-05 -8.077965e-06 -3.4529053e-06 -1.50849355e-05 -1.4675081e-05
-8.813558e-06 -3.1727698e-06 2.1374379e-05 -2.677114e-05 -7.692847e-08 4.340529e-06 -5.721741e-06 -3.2786626e-05
-1.5975218e-05 3.4870995e-06 2.7192076e-05 -1.9522968e-05 7.465746e-06 5.6642994e-06 1.7218806e-06 -1.1114377e-05
