cebra_models/reach1_4/01/B/cebra_trialID_SucessFailure_model_5000_32_reach1_4_B.pt (torch, 743620 bytes, 31 tensors)

net.0.weight f4 [32, 538, 2]
0	0xbd15918e	-0.036515765
1	0xbd1bef4f	-0.03807002
2	0xbcea6515	-0.028612653
3	0x3c0b0dba	0.008487159
4	0xbd1c668b	-0.03818373
5	0x3cc17e72	0.023619864
6	0x3b7adb2b	0.0038277607
7	0xbd204751	-0.039130513
8	0x3d177a20	0.0369817
9	0xbc107c4a	-0.008818695
10	0xbd151fc8	-0.036407262
11	0xbd2458f2	-0.040123887
12	0xba0d4e0a	-0.0005390352
13	0xbbe60f83	-0.007020892
14	0x3b4eb416	0.0031540445
15	0x3a35c18f	0.00069334445
16	0xbcd58e32	-0.02606878
17	0xbd57d4a8	-0.05269304
18	0xbcc85ff8	-0.024459824
19	0x3c4914fd	0.01227307
20	0x3c9a1ffc	0.01881408
21	0xbbeecb55	-0.0072874227
22	0xbd172ab4	-0.03690596
23	0x3ccb3316	0.024804633
24	0xbc75cb58	-0.015002094
25	0x3d1b5a89	0.037928138
26	0xbb37ee30	-0.0028065555
27	0x3b320ff2	0.0027170149
28	0xbccaec2b	-0.024770817
29	0x3b45d999	0.0030189513
30	0x3c27c46a	0.0102397
31	0xbc1d60df	-0.009605615
32	0xbce869ea	-0.028370816
33	0x3dbeb4a5	0.09311799
34	0x3b1c22f5	0.0023824547
35	0x3c950d94	0.018194951
36	0x3c2d2016	0.010566732
37	0xbc642584	-0.01392496
38	0xbdb715af	-0.08939683
39	0xbd3a2ac2	-0.045450933
40	0xbc5caaaf	-0.0134684285
41	0x3b2d74e9	0.002646739
42	0xbc970afa	-0.018437851
43	0xbd46fa89	-0.048578773
44	0xbd6a890d	-0.057259608
45	0x3c61e3cc	0.013787221
46	0x3cb7c0c6	0.022430789
47	0xbac9be21	-0.0015391746
48	0x3aa8d0e0	0.0012879632
49	0x3c2385cd	0.009980631
50	0x3cac347d	0.021021122
51	0xbd109e63	-0.0353073
52	0x3bf27eee	0.007400385
53	0x3bd325a3	0.0064436956
54	0x3c705dcc	0.0146708
55	0xbcc3fe5f	-0.023925005
56	0xbc314b6e	-0.0108212065
57	0x3d3e3ca3	0.046444546
58	0xbcaefebc	-0.021361701
59	0xbd4b931b	-0.049700838
60	0x3ac8aa51	0.0015309547
61	0xbc235cc8	-0.009970851
62	0x3c33a566	0.010964727
63	0xbd5669c8	-0.052346975
64	0xbd0bb2f9	-0.03410623
65	0xbce434e1	-0.027857246
66	0xbc3d94b3	-0.011571097
67	0x3c56bd1a	0.013106609
68	0x3bc03d6a	0.005866696
69	0x3d024300	0.031802177
70	0x3d4cf02f	0.050033744
71	0xbcbd1c27	-0.023084713
72	0x3db2c744	0.08729413
73	0xbd9f6d1c	-0.07784483
74	0xbd879abc	-0.0662131
75	0x3d17ce6b	0.03706209
76	0x391f0b1c	0.0001516756
77	0x3b9441d9	0.004524451
78	0xbbb59261	-0.0055411314
79	0xbbd240d4	-0.0064164195
80	0x3cd15ad3	0.025556004
81	0x3c62cd9c	0.013842966
82	0xbcf25be9	-0.029584842
83	0xbd319884	-0.04335834
84	0xbcd19f06	-0.025588524
85	0xbc05e195	-0.008171459
86	0xbcce9e60	-0.025222003
87	0x3b73bd71	0.0037191773
88	0xbb9117a5	-0.0044278675
89	0xbcc7f938	-0.024410829
90	0xbcd8e639	-0.026476966
91	0xbd136294	-0.035982683
92	0xbd0e728e	-0.034777217
93	0xbcf60d2c	-0.030035578
94	0xbd07a80b	-0.033119243
95	0xbc8278f6	-0.01592682
96	0x3b025398	0.0019886252
97	0xbbb68ae6	-0.005570757
98	0x3cc55a83	0.02409101
99	0x3c59a3ea	0.013283709
100	0x3d03f62f	0.0322172
101	0xbc722c23	-0.014781031
102	0xbd617187	-0.05503991
103	0xbcb4a38a	-0.022050638
104	0xbbd22b80	-0.006413877
105	0x3cac67fe	0.021045681
106	0xbd4953db	-0.049152236
107	0xbd8664f0	-0.06562221
108	0xbc419283	-0.011814716
109	0xbd9c7620	-0.07639718
110	0xbd016a9e	-0.03159582
111	0x3d2e659c	0.04257737
112	0xbcf81673	-0.030284142
113	0xbd019b85	-0.031642456
114	0xbd9a919d	-0.07547305
115	0xbd4f58f7	-0.050621953
116	0xbbe91e91	-0.0071142395
117	0x3cb49739	0.022044765
118	0xbc7ce28c	-0.015434872
119	0xbcb4b164	-0.022057243
120	0xbc733a4a	-0.01484544
121	0x3cd2c3f5	0.025728205
122	0x3c5498e3	0.012975904
123	0x3ba4f781	0.0050343876
124	0xbc4232db	-0.011852945
125	0xbc3426d1	-0.010995583
126	0xbcf6d519	-0.03013091
127	0x3c627a81	0.0138231525
128	0xbc8ab6a8	-0.0169328
129	0x3ca0aefe	0.019614693
130	0xbcad1194	-0.021126546
131	0xbc8f8be6	-0.017522763
132	0x3ca3f80c	0.020015739
133	0xbcbb5ed9	-0.022872375
134	0xbc3a24a9	-0.0113612795
135	0xbca9d7ba	-0.02073275
136	0xbd2f1078	-0.042740315
137	0xbc89aaac	-0.016805016
138	0x3bbe92e4	0.0058158506
139	0xbd19f36a	-0.037585653
140	0xbd2a4cef	-0.041577276
141	0x3cff8e2c	0.031195723
142	0xbbffe59d	-0.0078093545
143	0xbc8d376b	-0.01723834
144	0xbcd276bd	-0.025691384
145	0xbd632446	-0.055454515
146	0xbcbc1e84	-0.02296377
147	0xba2379bd	-0.0006236097
148	0x3d180e39	0.03712294
149	0xbd1884c3	-0.037235986
150	0x3cc7d8c4	0.024395354
151	0xbc3ec984	-0.011644725
152	0xbb25dcbc	-0.002530857
153	0xbd9ec9f2	-0.07753362
154	0x3ad7e14e	0.0016470344
155	0xbc83e292	-0.016099248
156	0x3b6fddee	0.0036600786
157	0xbd41e3b2	-0.047336288
158	0xbd0d0c8a	-0.034435786
159	0xbc84d6cf	-0.01621571
160	0x3d6f6f71	0.05845589
161	0x3d1c8ebf	0.03822207
162	0xbc0cf3c4	-0.00860304
163	0xbc949387	-0.018136753
164	0x3bd59bf6	0.006518836
165	0xbbd99e34	-0.0066411737
166	0xbd82e5a8	-0.0639146
167	0xbd237696	-0.039908014
168	0x3cb06fd0	0.021537691
169	0x3ba72aa5	0.005101519
170	0xbc4dd9a5	-0.0125640975
171	0xba9d8fec	-0.0012021041
172	0xbb6a7c01	-0.0035779478
173	0x3b978ebc	0.0046251696
174	0xbd4d9286	-0.050188564
175	0x3ccb7e6f	0.024840562
176	0xbc41815e	-0.011810629
177	0xbbdb6086	-0.006694856
178	0xbc65d972	-0.014028894
179	0x3d157df3	0.036497068
180	0x3cb489ca	0.02203836
181	0xbccb879b	-0.024844935
182	0x3c047934	0.008085538
183	0xbd0df48f	-0.034657057
184	0x3cc20416	0.023683589
185	0xbc0576db	-0.008146013
186	0xbc2a9ea0	-0.010413796
187	0x3a111819	0.0005534902
188	0x3c032314	0.008003969
189	0x3c54eaed	0.012995464
190	0x3bb83542	0.005621583
191	0x3d7202e4	0.059084788
192	0x3cca661e	0.024706896
193	0x3c151180	0.009098411
194	0x3b866b3a	0.004102138
195	0xbbdfc68b	-0.006829088
196	0xbd4d86b3	-0.050177287
197	0x3d0e589d	0.034752477
198	0xbba66a8d	-0.00507862
199	0xbcff58cb	-0.03117027
200	0x3cab3ad7	0.02090208
201	0x3d0d9688	0.034567386
202	0xb9a3773c	-0.0003117862
203	0x38fde4a5	0.000121065685
204	0x3c4d37f9	0.012525552
205	0x3b9779ef	0.00462269
206	0xbcf097d0	-0.029369265
207	0xbc8d9c5e	-0.017286476
208	0x3c612a98	0.013743065
209	0x3cad78d2	0.021175776
210	0xbc95f221	-0.018303933
211	0x3c46a689	0.012124666
212	0xbc30fd21	-0.010802538
213	0x3ca56c3c	0.020193212
214	0xbd209612	-0.03920562
215	0xbc47ccf1	-0.012194858
216	0xbcfcd65e	-0.030863937
217	0x3cc82333	0.024430847
218	0x3c951561	0.01819867
219	0x3b988ca6	0.0046554385
220	0xbc4f875b	-0.012666549
221	0x3c445b87	0.011984712
222	0xbb9d5b5a	-0.0048021497
223	0xbcdb4c09	-0.026769655
224	0x3c834849	0.01602568
225	0x3c87b5e3	0.016566223
226	0x3c8db613	0.017298734
227	0xbd417982	-0.04723502
228	0x3d2ee46a	0.0426983
229	0x3caab17d	0.020836586
230	0xbbb28fc8	-0.005449269
231	0x3c47349d	0.01215854
232	0x3c7a6ad2	0.015284257
233	0x3c54b060	0.012981504
234	0x3c088cea	0.008334378
235	0xbc4a419c	-0.012344744
236	0xbc468a9d	-0.012118009
237	0x3c9ed774	0.019389845
238	0xbd9a4826	-0.075332925
239	0xbc00b2d3	-0.007855135
240	0xbb7f696a	-0.0038972744
241	0xbb77fd1c	-0.0037840074
242	0xbcce9972	-0.025219653
243	0x3c364f2b	0.011127274
244	0xbc919b53	-0.01777426
245	0x3bde3622	0.0067813555
246	0xbd2c900b	-0.042129558
247	0x3c62aec5	0.013835614
248	0x3ccf9515	0.025339643
249	0xbc0fdb72	-0.008780347
250	0xbd73587e	-0.059410565
251	0xbd4e8421	-0.050418977
252	0xbcedc098	-0.0290225
253	0x3d646d6f	0.055768427
254	0x39b3bec7	0.0003428368
255	0xbc2806cc	-0.010255527

net.0.bias f4 [32]
0	0x3c40ce2c	0.011767905
1	0x3c2f8b21	0.010714323
2	0xbc4f8c3c	-0.012667712
3	0xbaa073d3	-0.001224155
4	0xbd41a0c5	-0.047272462
5	0x3c6fe5d4	0.014642198
6	0xbb4a58ab	-0.0030875604
7	0xbd04de9c	-0.03243886
8	0x3ca39462	0.019968215
9	0x3aac9b09	0.0013168763
10	0x3b8cca8f	0.004296608
11	0x3c59a689	0.013284334
12	0xba96a9c5	-0.0011494687
13	0x3cd8fd24	0.026487894
14	0x3bfa2eac	0.0076349583
15	0xbc69796e	-0.0142501425
16	0x3b8dad04	0.0043236036
17	0xbceb9a8d	-0.028760219
18	0x3c6c71bc	0.014431413
19	0x3c59ae4d	0.013286185
20	0xbc8c1a10	-0.017102271
21	0xbc317d6e	-0.010833127
22	0xbcb4844f	-0.022035746
23	0xbc0b38fe	-0.008497475
24	0xbcf13f20	-0.029449046
25	0xbcf6ac51	-0.030111464
26	0x3c517570	0.012784347
27	0x3c1dd7f9	0.009634011
28	0xbcf24a77	-0.029576523
29	0xbc2e59fb	-0.01064157
30	0x3c0a6ba1	0.008448512
31	0xbc0a5d7b	-0.008445139

net.2.module.0.weight f4 [32, 32, 3]
0	0xb78d7f23	-1.6867712e-05
1	0xbda08655	-0.07838122
2	0x3d95ced9	0.07314844
3	0x3d8fbfb7	0.070189886
4	0x3dd95ec3	0.106137775
5	0x3dd20e2b	0.102566086
6	0x3da68d02	0.08132364
7	0xbc8ee972	-0.0174453
8	0xbe0bf32f	-0.13666986
9	0xbd85d9ac	-0.06535658
10	0xbc13ee59	-0.0090289945
11	0x3de1c8ac	0.11024603
12	0x3c8dc2e1	0.01730484
13	0xbda491d1	-0.08035625
14	0x3db813a8	0.08988124
15	0x3d4d9624	0.050192013
16	0x3d2f5f49	0.04281548
17	0xbdd85135	-0.10562364
18	0x3debae28	0.11507827
19	0x3ca732ae	0.020409908
20	0x3c179f05	0.009254222
21	0xbd84bb59	-0.06481046
22	0x3c29cd97	0.010363958
23	0xbce8e77d	-0.028430695
24	0xbdadc21d	-0.0848429
25	0xbc6af301	-0.014340163
26	0x3d41b0bd	0.04728769
27	0xbc8455ec	-0.016154252
28	0x3dceba23	0.100940965
29	0x3dee4d7d	0.116358735
30	0x3d2f38a0	0.04277861
31	0xbca7f33f	-0.020501731
32	0x3d16742e	0.03673189
33	0xbb3670bc	-0.002783819
34	0x3d144b05	0.036204357
35	0x3df69a2a	0.12041123
36	0x3cf21140	0.029549241
37	0x3dd68f01	0.104764946
38	0x3d9b17fa	0.075729325
39	0xbdbaef23	-0.09127643
40	0x3ccda010	0.025100738
41	0x3d21ea3a	0.039530016
42	0x3dbfde0e	0.093685254
43	0x3e1d3486	0.15352067
44	0x3d0d92b4	0.034563735
45	0x3d9e5eb7	0.07732909
46	0xbce2a200	-0.027665138
47	0xbe19526f	-0.14972852
48	0xbce09f96	-0.027419847
49	0x3dd2cbc0	0.102927685
50	0x3d071ca0	0.032986283
51	0xbcc92861	-0.024555387
52	0x3dd4839c	0.10376665
53	0x3ce9a0c3	0.02851904
54	0x3decbbca	0.115592554
55	0x3d8fb671	0.0701722
56	0xbcd3a30c	-0.025834583
57	0xbcfd51e3	-0.030922836
58	0x3dc09ff3	0.09405508
59	0xbd000676	-0.03125616
60	0x3d84b390	0.06479561
61	0x3d81e070	0.06341636
62	0xbda0b832	-0.078476325
63	0x3dca1d3e	0.09868859
64	0xbdb8c600	-0.090221405
65	0xbd30a576	-0.043126546
66	0x3d0fef1b	0.035140138
67	0x3d67d38e	0.05659824
68	0xbdeecd41	-0.11660243
69	0x3e10532f	0.14094232
70	0xbd829ac2	-0.06377174
71	0xbe0b9d27	-0.13634168
72	0xbca1e14b	-0.019760748
73	0x3d459afe	0.048243515
74	0xbd66127b	-0.056169968
75	0x3dde2c6a	0.10848315
76	0xbd023fdf	-0.031799193
77	0xbc58964e	-0.013219429
78	0x3cadb95e	0.021206554
79	0x3db2e89a	0.087357715
80	0x3d7ed5dd	0.062215675
81	0x3c406306	0.011742359
82	0xbda297f2	-0.079391375
83	0xbd889d15	-0.06670586
84	0xbcc0463a	-0.023470987
85	0x3d814fe5	0.06314067
86	0x3ccc4b30	0.024938196
87	0xbe04636b	-0.1292855
88	0xbd87c47b	-0.066292726
89	0xbde96def	-0.11397921
90	0xbd291f3d	-0.041289557
91	0xbaef4fe9	-0.0018258068
92	0x3cc53d0d	0.024076963
93	0xbd2123ab	-0.039340656
94	0x3d735d6c	0.059415266
95	0xbd8944ab	-0.067025505
96	0xbde4003f	-0.111328594
97	0xbb2c6edf	-0.0026311202
98	0xbd29c553	-0.04144795
99	0x3d222955	0.0395902
100	0xbd98640a	-0.07440956
101	0xbc9d7746	-0.019221913
102	0xbdec1322	-0.11527087
103	0xbb912217	-0.0044291127
104	0xbe0961ba	-0.13416186
105	0x3d5e3e10	0.054258406
106	0x3d05950f	0.032612856
107	0x3d242830	0.04007739
108	0x3d848c19	0.06472034
109	0x3df966b7	0.121777944
110	0x3dc7a682	0.09748556
111	0xbd858188	-0.06518847
112	0xbd99b82c	-0.07505831
113	0xbd4f65a4	-0.05063404
114	0xbe0752a6	-0.13215122
115	0xbe06e92e	-0.13174888
116	0xbe5b82cd	-0.21436615
117	0xbdf9d60f	-0.121990316
118	0xbd1d741c	-0.03844081
119	0xbdcdf884	-0.10057166
120	0xbb319841	-0.0027098807
121	0x3cff86b8	0.031192169
122	0x3d40796c	0.046990797
123	0x3dc3dcee	0.09563623
124	0x3d0463c3	0.032321703
125	0x3dd22920	0.1026175
126	0x3d105e5b	0.035246234
127	0xbda8ac4f	-0.0823599
128	0xbd8a5b41	-0.067556866
129	0x3d20aba2	0.03922618
130	0x3e02a4ec	0.12758225
131	0x3d32b663	0.04363097
132	0x3e34b9eb	0.17649047
133	0x3e270612	0.1631091
134	0x3e448a18	0.19193304
135	0x3e1f0204	0.15528113
136	0x3ddb3be0	0.107047796
137	0x3d13a8c1	0.03604961
138	0xbe18ba59	-0.14914836
139	0xbd8cfa6d	-0.068837024
140	0xbddc3799	-0.10752792
141	0xbd57ca99	-0.052683447
142	0xbd9b2dc5	-0.07577089
143	0x3d995c7c	0.07488343
144	0x3cdec401	0.027193071
145	0x3df52788	0.119704306
146	0x3e076dea	0.13225523
147	0x3dc43798	0.09580916
148	0xbc347617	-0.011014483
149	0x3dce29d4	0.10066572
150	0xbe410166	-0.1884819
151	0xbd7bb8a3	-0.06145538
152	0xbe0b44b2	-0.13600424
153	0xbd8f63d1	-0.0700146
154	0xbd9129c3	-0.070880435
155	0xbcd636b7	-0.026149137
156	0x3d22ea54	0.039774254
157	0x3d7caf59	0.061690662
158	0xbd333c88	-0.0437589
159	0xbdfb826e	-0.12280737
160	0x3c611f64	0.013740394
161	0xbdb3c03d	-0.08776901
162	0xbd7b6280	-0.061373234
163	0xbd3c6cdb	-0.04600225
164	0xbddda567	-0.108225636
165	0xbddc6ac1	-0.10762549
166	0xbdf98e2b	-0.121853195
167	0xbe258700	-0.1616478
168	0x3d7a0117	0.061036196
169	0x3c8c3144	0.017113335
170	0x3ca75c24	0.020429678
171	0xbcac7f2f	-0.02105674
172	0xbd80aeb5	-0.06283323
173	0xbdf1e80c	-0.118118376
174	0xbd6aa930	-0.057290256
175	0xbd5c29bf	-0.05375075
176	0xbd700625	-0.05859961
177	0x3d0dbb1d	0.034602273
178	0xbc1080a2	-0.008819731
179	0xbd7c281f	-0.0615617
180	0xbc3e11ca	-0.011600921
181	0xbd4f85f8	-0.050664872
182	0xbde9e1a1	-0.114199884
183	0x3cbad843	0.0228082
184	0x3b85bcb8	0.004081335
185	0x3db8878b	0.09010228
186	0xbbdc557d	-0.006724058
187	0x3d61f486	0.055164836
188	0x3d178f39	0.037001822
189	0x3d486021	0.0489198
190	0x3d540610	0.051763594
191	0x3ccb53db	0.024820259
192	0x3ddc0cb4	0.107446104
193	0xbd5b0ce8	-0.053479105
194	0x3e049e13	0.12950926
195	0xbd5a4184	-0.053285137
196	0x3c6ee9e0	0.014582127
197	0xbd8443e6	-0.06458263
198	0xbbc4b1c4	-0.0060026366
199	0x3c5ced02	0.013484241
200	0x3d443235	0.047899444
201	0x3d3d5c6f	0.04623073
202	0x3cfb2d2a	0.030661184
203	0xbe26e5c4	-0.16298586
204	0x3cb4824e	0.02203479
205	0x3cfcbe5a	0.030852485
206	0xbdf41dd0	-0.11919749
207	0x3d9e9f0e	0.07745181
208	0x3d3bdc8d	0.04586463
209	0x3cd74467	0.026277734
210	0x3e24a235	0.16077502
211	0x3d8d9b76	0.069144174
212	0x3e6bc624	0.23024803
213	0xbc7a4552	-0.015275316
214	0xbd30f722	-0.043204434
215	0xbdcdb8c1	-0.10045005
216	0x3da0dbdc	0.07854435
217	0xbd887094	-0.066620976
218	0x3e0aca01	0.13553621
219	0xbc648078	-0.013946645
220	0x3cb5d3cd	0.022195721
221	0xbdeb8b68	-0.11501199
222	0x3d97744e	0.0739523
223	0x3d845b2f	0.064627044
224	0x3d50459a	0.050847627
225	0xbd3d6819	-0.046241853
226	0xbda0cad4	-0.078511864
227	0xbd728ed3	-0.05921824
228	0xbc1ff4c2	-0.009762945
229	0x3c5ceec7	0.013484663
230	0xbdb99894	-0.09062305
231	0x3c0c0ecb	0.008548449
232	0xbd43ab72	-0.047770925
233	0x3c1c80c3	0.009552184
234	0x3dd94abb	0.10609957
235	0xbcf6e6ea	-0.030139405
236	0x3d187093	0.037216734
237	0xbb47b5fa	-0.0030473457
238	0xbcb21ff6	-0.021743756
239	0xbdecabbe	-0.11556195
240	0xbcead7bb	-0.028667321
241	0xbc949ccb	-0.018141171
242	0xbdc29ef5	-0.09502975
243	0xba5a0bb2	-0.0008317783
244	0x3db0ed7b	0.08639046
245	0x3db6ab92	0.08919443
246	0x3ddfdc3d	0.10930679
247	0x3de2c87b	0.11073395
248	0x3e3d49d4	0.18485194
249	0xbd07da94	-0.033167437
250	0xbcd8a215	-0.026444474
251	0xbd6e7a87	-0.05822232
252	0xbdb9a81e	-0.09065269
253	0x3c9c390b	0.019070169
254	0xbccdb5ea	-0.025111157
255	0x3d767fa2	0.060180314

net.2.module.0.bias f4 [32]
0	0xbb34812a	-0.0027542808
1	0xbd15e2c2	-0.036593206
2	0x3d937a6f	0.07201087
3	0x3bcb3e7c	0.006202517
4	0xbd5f4e00	-0.054517746
5	0xbd06d25a	-0.03291545
6	0x3d8136b6	0.063092634
7	0xbd5b3b83	-0.05352355
8	0xbd927894	-0.07151905
9	0xbce61afe	-0.028089043
10	0x3e090d5f	0.13384007
11	0x3d7941a4	0.060853615
12	0xbda4acb3	-0.08040752
13	0x3d1e8f70	0.03871101
14	0xbd090fac	-0.03346221
15	0xbcc9b569	-0.024622636
16	0x3b4b3ecb	0.003101277
17	0xbcfdb745	-0.030971179
18	0xbb469292	-0.0030299765
19	0x3cf8cc77	0.030370934
20	0x3d4d9a69	0.050196085
21	0xbd785f53	-0.060637783
22	0x3dac6a07	0.084186606
23	0xbd383e65	-0.04498138
24	0x3d5470e2	0.051865466
25	0x3dd2959b	0.10282441
26	0x3dfe5061	0.12417675
27	0x3da62dc5	0.081141986
28	0xbcd99186	-0.026558649
29	0xbba91323	-0.005159752
30	0x3d791c2c	0.060817882
31	0x3d7d7043	0.06187464

net.3.module.0.weight f4 [32, 32, 3]
0	0xbce65fe5	-0.028121898
1	0xbc0bfab6	-0.008543661
2	0x3d888954	0.06666818
3	0xbd0e27ac	-0.034705803
4	0xbc968232	-0.018372629
5	0x3d82aeb4	0.06380978
6	0x3db0c860	0.086319685
7	0x3c3bf1db	0.011471237
8	0x3cc2727c	0.023736231
9	0x3d9fad01	0.0779667
10	0x3afe9c6e	0.0019425282
11	0x3cb69cad	0.022291506
12	0xbe0fb085	-0.1403218
13	0xbd757d56	-0.059933983
14	0x3c857832	0.016292665
15	0xbecc4418	-0.398957
16	0xbe8e79db	-0.27827343
17	0xbe70e190	-0.23523545
18	0x3d423a09	0.047418628
19	0xbcc45f83	-0.023971325
20	0x3da58056	0.08081119
21	0xbd93df54	-0.07220331
22	0xbd7dcd84	-0.061963573
23	0xbe017518	-0.12642324
24	0x3d60a32d	0.054843117
25	0xbd23d7b1	-0.04000062
26	0x3d6df390	0.058093607
27	0xbdc606e7	-0.09669285
28	0xbd3dec3a	-0.04636786
29	0xbc2fb4b9	-0.01072424
30	0xbdbe6512	-0.092966214
31	0x3db5c8c6	0.08876185
32	0xbc979be1	-0.018506946
33	0x3d83bd41	0.06432582
34	0x3cb91321	0.02259213
35	0x3d787053	0.060653996
36	0x3d90c8b9	0.07069535
37	0x3d3f52f1	0.04670996
38	0x3de428e4	0.11140612
39	0xb9b91e28	-0.00035308418
40	0xbcc83dc8	-0.024443522
41	0x3d9bb876	0.076035425
42	0x3de01b52	0.10942711
43	0x3d01e1fd	0.03170966
44	0xbd7325c1	-0.059362177
45	0x3dafa922	0.085771814
46	0xbc8d63c0	-0.017259479
47	0xbd1f9a4c	-0.03896551
48	0xbe099f5a	-0.13439694
49	0x3d3dce46	0.046339296
50	0x3cfca4d4	0.030840315
51	0xbd16f191	-0.03685147
52	0x3c927219	0.017876672
53	0x3db5cb84	0.08876708
54	0xbcaa4650	-0.02078548
55	0xbd0e8d9d	-0.03480302
56	0xbdc427a5	-0.09577874
57	0xbd9a0d78	-0.075221
58	0xbc11ef11	-0.0089070955
59	0xbe002bc1	-0.12516691
60	0xbd82f34d	-0.06394062
61	0x3d044ff6	0.03230282
62	0x3e0f14d4	0.13972789
63	0x3d8a56bb	0.06754824
64	0x3d64f0cf	0.055893715
65	0x3d0a47a4	0.033759728
66	0x3dc10539	0.09424824
67	0xbc8fdcd6	-0.017561357
68	0x3db98715	0.09058968
69	0xbd9e351e	-0.07724975
70	0xbdc7431e	-0.097295985
71	0xbdcf3ecf	-0.10119402
72	0x3c8a651f	0.016893921
73	0xbd95ccd7	-0.07314461
74	0xbbdf4c47	-0.006814513
75	0x3cc3d161	0.02390355
76	0x3df43c0b	0.11925515
77	0x3bc99f3b	0.006153015
78	0xbdb40e37	-0.08791774
79	0x3d02ac86	0.031902812
80	0x3da14522	0.07874514
81	0x3e463531	0.19356228
82	0x3ddde15c	0.108339995
83	0x3db108dd	0.08644269
84	0x3db53ac8	0.08849102
85	0xbd02f3ce	-0.03197079
86	0x3db4111d	0.087923266
87	0x3e21916b	0.15778129
88	0x3bae5653	0.0053203492
89	0x3d7d549c	0.061848268
90	0x3d013332	0.031542964
91	0xbd9df991	-0.07713617
92	0x3c38b01f	0.011272459
93	0x3cd572e5	0.026055763
94	0xbc016830	-0.007898375
95	0x3d7c8ed2	0.06165964
96	0x3c901457	0.017587824
97	0xbd92654e	-0.071482286
98	0x3e01c9ee	0.12674686
99	0x3ce4bc4a	0.027921814
100	0x3dafe87c	0.08589265
101	0x3e2b5ef3	0.16735439
102	0xbd2e6da6	-0.042585038
103	0xbd3936e6	-0.04521837
104	0xbd38f131	-0.045151893
105	0x3e3e3731	0.18575741
106	0x3d8533ac	0.06503996
107	0x3e094929	0.13406815
108	0x3d99b058	0.07504338
109	0x3d290bdb	0.041271072
110	0x3e4ecad5	0.20194562
111	0x3be694a7	0.0070367637
112	0xbbc77e07	-0.0060880217
113	0xbd75c73a	-0.06000445
114	0xbd852749	-0.06501634
115	0xbcd2eb46	-0.025746953
116	0x3d2afd33	0.041745376
117	0x3d6be9b5	0.057595927
118	0xbcaa7d91	-0.020811828
119	0x3d09e1f2	0.033662744
120	0xbdaef45a	-0.085427
121	0xbd3c2120	-0.045930028
122	0xbe07a077	-0.13244806
123	0x3da1fe5b	0.079098426
124	0xbd308b5e	-0.04310166
125	0x3da1cf42	0.079008594
126	0xbc7e7c68	-0.01553259
127	0xbcc89194	-0.02448348
128	0x3d2236f8	0.039603204
129	0x3dd7633a	0.10516973
130	0x3d93c2c7	0.07214885
131	0x3d66630d	0.056246806
132	0x3c563643	0.01307446
133	0xbd8f8296	-0.07007329
134	0x3d4253ed	0.04744332
135	0x3cd33eac	0.02578672
136	0x3dafb3ac	0.085791916
137	0x3e230aca	0.15922084
138	0xbd6783fc	-0.056522354
139	0x3d8e13a3	0.06937339
140	0xbd169d60	-0.03677118
141	0xbdd4abaa	-0.10384305
142	0xbd6f1ab8	-0.05837509
143	0x3d4dcb0d	0.050242472
144	0x3da313ad	0.07962737
145	0x3d83598a	0.064135626
146	0x3dd3250b	0.103098
147	0xbc217a30	-0.009855792
148	0xbc51fc4c	-0.0128165
149	0xbb7bc4c7	-0.003841685
150	0xbe017b56	-0.12644705
151	0x3cc4b810	0.02401355
152	0xbe2cfc21	-0.16893055
153	0xbc99d681	-0.018779041
154	0xbd4a5a7a	-0.04940269
155	0xbb1f6257	-0.002432009
156	0x3da96dfd	0.08272932
157	0xbd76c24d	-0.060243893
158	0x3d13d458	0.03609118
159	0xbe23c9db	-0.1599497
160	0xbe094a08	-0.13407147
161	0xbe3b1bea	-0.18272367
162	0xbd9937f3	-0.074813746
163	0xbd57019f	-0.05249178
164	0x3bb43fdf	0.005500778
165	0xbdac2c7c	-0.08406922
166	0xbd4cb9df	-0.049981948
167	0xbcb60022	-0.02221686
168	0xbdcd6ddd	-0.100307204
169	0xbd79527d	-0.060869683
170	0xbdd895f1	-0.10575474
171	0xbd25882f	-0.040413078
172	0xbdd170e1	-0.10226608
173	0xbe326291	-0.17420413
174	0xbd0d4b61	-0.034495715
175	0x3d892467	0.06696396
176	0xbe0f678b	-0.14004342
177	0x3d4ca7a8	0.049964577
178	0x3dbc6662	0.091992155
179	0xbb51ad61	-0.003199421
180	0xbdc8d868	-0.09806901
181	0x3ce322c3	0.027726537
182	0xbdbe0e96	-0.09280126
183	0x3d4e458e	0.0503593
184	0x3dc55220	0.09634805
185	0x3d304033	0.043029975
186	0xbd175a45	-0.036951322
187	0xbe091241	-0.1338587
188	0xbe2f7517	-0.1713451
189	0xbd53a5c2	-0.05167175
190	0xbcd3114f	-0.02576509
191	0x3dad2416	0.084541485
192	0x3dd74aa5	0.10512284
193	0x3d2a2d66	0.0415472
194	0xbd8c81e0	-0.06860709
195	0xb9f4f7b3	-0.00046723857
196	0xbcecb1c9	-0.028893368
197	0xbd90ece6	-0.07076435
198	0xbb33f8f1	-0.0027461613
199	0x3d22e0da	0.039765216
200	0x3dedb089	0.11605937
201	0x3cff5010	0.031166106
202	0xbd14da52	-0.03634102
203	0x3be3f1d7	0.00695632
204	0x3c24a783	0.0100497035
205	0x3c87e4da	0.016588617
206	0xbda5c0e2	-0.0809343
207	0xbe19e1e8	-0.15027583
208	0xbdf5035c	-0.119635314
209	0xbe3c0bb2	-0.18363836
210	0xbd480985	-0.048837204
211	0x3c95372b	0.018214783
212	0xbc2b010a	-0.010437259
213	0x3b05a5ba	0.002039297
214	0xbd3875e0	-0.04503429
215	0xbe3dbc0f	-0.1852877
216	0xbc49f67f	-0.012326836
217	0xbd6a1126	-0.05714526
218	0x3dcd7034	0.10031167
219	0xbc4d32e4	-0.01252434
220	0xbc0ce3ca	-0.008599231
221	0xbdbbf6fb	-0.09177967
222	0x3d64a06b	0.05581705
223	0x3cbdb684	0.02315832
224	0xbc5222e9	-0.012825706
225	0x3d60e509	0.054905925
226	0xbda30c8e	-0.07961379
227	0xbd16bfad	-0.03680389
228	0xbdf53250	-0.11972487
229	0xbdaf88bf	-0.08571004
230	0xbe22bc46	-0.15892133
231	0x3da4a231	0.08038748
232	0x3d556edc	0.052107677
233	0x3c1af5bf	0.0094580045
234	0x3d73a3d1	0.0594824
235	0x3c1990da	0.009372914
236	0x3ddbd5cf	0.1073414
237	0x3d3ba728	0.04581371
238	0xbcf151fc	-0.029458039
239	0x3cb3d4cd	0.021952057
240	0x3da35184	0.07974532
241	0x3c6c0601	0.014405728
242	0xbb1c8df3	-0.002388832
243	0x3cbd4369	0.023103433
244	0x3c37b0b0	0.011211559
245	0x3d370672	0.04468388
246	0x3cbeebcd	0.023305798
247	0x3cda3cbf	0.026640294
248	0x3dfafa59	0.12254781
249	0x3d4b269c	0.049597368
250	0xbc738247	-0.0148626035
251	0x3d0211d1	0.031755272
252	0xbd7aa261	-0.061190013
253	0xbda207e1	-0.07911659
254	0xbd508f36	-0.050917827
255	0x3cd11a1b	0.025525143

net.3.module.0.bias f4 [32]
0	0x3da98074	0.082764536
1	0x3be8a833	0.007100129
2	0xbcceab0d	-0.025228048
3	0xbd609449	-0.054828916
4	0xbd856a0b	-0.06514367
5	0x3dae8275	0.085209765
6	0xbd5bac96	-0.053631388
7	0xbd798edb	-0.060927253
8	0x3d9e02d6	0.07715385
9	0xbda62147	-0.08111816
10	0xbd313a85	-0.0432687
11	0xbce99a76	-0.028516036
12	0x3c0f1a77	0.008734337
13	0x3d9cbdd3	0.076533936
14	0xbd04059d	-0.032231916
15	0x3cd4f380	0.025995016
16	0x3d619e83	0.05508281
17	0xbddd4bef	-0.10805499
18	0x3a8d8540	0.0010797158
19	0xbc0a624f	-0.00844629
20	0x3cd3f79f	0.02587491
21	0xbc041de7	-0.00806377
22	0xbcd43a80	-0.025906801
23	0x3c17e054	0.009269793
24	0x3d93d258	0.07217854
25	0x3d8b9c93	0.068169735
26	0x3d19edaa	0.03758017
27	0x3dbd4870	0.09242332
28	0x3d66c79e	0.056342714
29	0xbc66a3d7	-0.014077148
30	0x3c2eaf81	0.010661961
31	0xbce790b8	-0.02826725

net.4.module.0.weight f4 [32, 32, 3]
0	0xbdea87d1	-0.11451686
1	0xbb661ab2	-0.0035111126
2	0xbdc84b26	-0.097799584
3	0xbc0b4758	-0.008500896
4	0xbdbecd5f	-0.09316515
5	0xbd938f57	-0.07205074
6	0x3cfa3c02	0.030546192
7	0x3d3a3c63	0.045467746
8	0xbd97df34	-0.074156195
9	0xbddaa909	-0.10676772
10	0xbc97a246	-0.018509995
11	0xbbbeca90	-0.005822487
12	0xbcc7b617	-0.02437882
13	0x3d37d30b	0.044879
14	0x3d659b0b	0.056056064
15	0x3d01340c	0.031543776
16	0xbcde5c6b	-0.027143678
17	0x3d8f513d	0.06997917
18	0x3da18d6b	0.078883015
19	0xbd977b84	-0.073966056
20	0xbd57e3c3	-0.052707445
21	0x3da43373	0.08017626
22	0x3b4bdf30	0.0031108372
23	0x3d040ff8	0.03224179
24	0xbccf9623	-0.025340145
25	0xbcc9b70d	-0.024623418
26	0xbd807bcd	-0.06273613
27	0xbd7935f1	-0.06084246
28	0xbcc3a3a5	-0.023881743
29	0xbddba6e1	-0.10725189
30	0xbcfedac6	-0.031110179
31	0xbd9d1d36	-0.07671587
32	0x3d3f5e7a	0.04672096
33	0xbdcaaac2	-0.09895851
34	0x3d31c06a	0.04339639
35	0xbce30702	-0.027713303
36	0xbc7a06b9	-0.015260392
37	0x3d7eed9e	0.06223833
38	0x3cfdd08f	0.030983238
39	0xbd326175	-0.043549974
40	0x3d63d3d5	0.05562194
41	0x3dba9a57	0.09111469
42	0x3b908e07	0.004411462
43	0xbd95da84	-0.07317069
44	0xbcd0b821	-0.025478425
45	0x3cbc9735	0.02302132
46	0xbddb5ebc	-0.107114285
47	0x3d960619	0.07325382
48	0xbe037b72	-0.1284006
49	0xbd5b2160	-0.053498626
50	0x3bae7f09	0.0053252024
51	0xbd33cf0b	-0.043898623
52	0xbdaa496e	-0.08314787
53	0xbd2aa415	-0.041660387
54	0xbe0fdae5	-0.14048345
55	0x3c81d7e0	0.015850008
56	0xbdb7967e	-0.08964251
57	0xbdb1f823	-0.086899064
58	0xbd888fbe	-0.06668042
59	0x3adf1e09	0.0017022501
60	0xbdfedf2b	-0.1244491
61	0xbd76b3bd	-0.060230006
62	0x3d49c3d3	0.04925902
63	0xbdf1a7e7	-0.11799603
64	0x3beb1f07	0.0071753296
65	0xbd388a18	-0.04505357
66	0xbdc066f9	-0.093946405
67	0xbd999ced	-0.07500634
68	0xbd26ff44	-0.040770784
69	0xbd2c2b9a	-0.04203377
70	0xbd381496	-0.044941507
71	0x3c03948c	0.008031022
72	0x3c9be864	0.01903171
73	0xbdcc80d7	-0.09985512
74	0xbdbbc394	-0.09168163
75	0xbaca25f5	-0.0015422689
76	0x3da86654	0.082226425
77	0xbdb03c00	-0.08605194
78	0xbdc20f43	-0.09475567
79	0xbd2cc8f7	-0.042183843
80	0x3ab0709b	0.0013461293
81	0xbdc15bc9	-0.09441335
82	0x3dbec0da	0.09314127
83	0x3da2fdb9	0.0795855
84	0xbd03cf73	-0.03218026
85	0xbd997a1e	-0.07493995
86	0xbb344b38	-0.0027510654
87	0x3d5a0027	0.0532228
88	0x3cd637ba	0.02614962
89	0xbd397396	-0.045276247
90	0xbd10f7e9	-0.035392676
91	0xbb301c43	-0.0026872314
92	0x3c8a21c7	0.01686181
93	0xbda2a924	-0.07942417
94	0x3d1cd82c	0.038292095
95	0xbd2cf6ef	-0.04222768
96	0xbd278e1e	-0.040907018
97	0xbd6524ee	-0.055943422
98	0x3cf164ed	0.02946707
99	0x3d97c974	0.07411471
100	0x3df61689	0.12016017
101	0x3dd52f7c	0.104094476
102	0x3d633999	0.05547485
103	0xbda61bcb	-0.0811077
104	0xbda9599f	-0.08269047
105	0x3dfb2ccd	0.122644044
106	0x3ddac922	0.10682894
107	0x3e28e2ba	0.1649274
108	0x3dfb7597	0.12278288
109	0xbd188ee5	-0.03724565
110	0x3d9aa766	0.0755146
111	0xbd706f38	-0.058699816
112	0x3cfa0e1d	0.030524308
113	0x3d132f8c	0.035934016
114	0x3cce408b	0.02517726
115	0x3d2e5602	0.042562492
116	0x3ce208d8	0.027592108
117	0x3c9d41fd	0.019196505
118	0xbdaec768	-0.085341275
119	0xbdb6c8c6	-0.08925013
120	0x3c51f4a7	0.012814677
121	0xbd2a5838	-0.04158804
122	0xbcb4048c	-0.021974824
123	0x3dae8a24	0.08522442
124	0x3da0a66f	0.07844245
125	0x3e0423b2	0.12904242
126	0xbde25722	-0.110517755
127	0xbd76ec64	-0.060284033
128	0xbab84e40	-0.0014061406
129	0x3de422c4	0.111394435
130	0xbd7a5957	-0.061120357
131	0x3d479dd4	0.0487345
132	0x3d16911d	0.036759485
133	0x3dcf7202	0.10129167
134	0x3e3812f3	0.17975979
135	0x3de79043	0.113068126
136	0x3db5cd9f	0.0887711
137	0x3db9fe40	0.090816975
138	0x3ce6a76b	0.028156003
139	0xbcf6ea74	-0.030141093
140	0xbe05ef8a	-0.13079658
141	0xbe19b5a8	-0.15010703
142	0xbd93756a	-0.07200129
143	0x3dbae8ac	0.0912641
144	0x3d94563a	0.07243009
145	0xbc53bff0	-0.012924179
146	0xbd54858b	-0.05188517
147	0xbbee54eb	-0.0072733066
148	0x3db5be76	0.08874218
149	0x3d334236	0.043764316
150	0xbdfb4a6b	-0.122700535
151	0xbdc1a04a	-0.09454401
152	0xbd1915f7	-0.037374463
153	0xbdb584e4	-0.088632375
154	0x3c2d2e9f	0.010570197
155	0x3cfd8095	0.030945102
156	0x3dafd600	0.08585739
157	0x3dd20a01	0.10255814
158	0xbd195cf9	-0.03744218
159	0xbbd45c96	-0.0064807637
160	0xbd73d5d6	-0.0595301
161	0xbd107ae5	-0.03527345
162	0xbd975a2a	-0.07390244
163	0xbd906ce7	-0.070520215
164	0x3b61379d	0.0034365423
165	0xbe38fd2b	-0.18065326
166	0xbd8df905	-0.06932262
167	0xbe14f418	-0.1454624
168	0xbd95afe5	-0.0730894
169	0xbd266f1c	-0.040633306
170	0xbe13d5a8	-0.14436972
171	0xbe1f67b7	-0.15566908
172	0xbde33578	-0.11094183
173	0xbd65775a	-0.056022026
174	0xbd6fd3e0	-0.05855167
175	0xbd982a40	-0.074299335
176	0xbdc5dd43	-0.09661343
177	0xbc862a16	-0.01637749
178	0x3ddde256	0.10834186
179	0x3d8de16f	0.06927764
180	0xbdb72765	-0.08943061
181	0x3d53f1f3	0.051744413
182	0xbda44d24	-0.08022526
183	0xbd2337da	-0.039848186
184	0x3d5407d9	0.051765297
185	0xbc25a2ea	-0.0101096425
186	0x3d8350ac	0.06411871
187	0xbd416d39	-0.047223303
188	0xbdf3ca1c	-0.11903784
189	0x3dc22530	0.09479749
190	0xbd235b61	-0.039882068
191	0xbc45c43d	-0.012070713
192	0x3da138ec	0.07872185
193	0x3ca2202b	0.01979073
194	0x3dc1b56a	0.0945843
195	0xbdc6d7a0	-0.09709096
196	0xbdcdb2d8	-0.10043877
197	0xbe13e31b	-0.14442103
198	0x3ddec93e	0.10878228
199	0xbd42eeb6	-0.047590934
200	0x3da689ec	0.08131775
201	0xbde03382	-0.10947324
202	0xbd279910	-0.040917456
203	0xbd9d6be9	-0.07686598
204	0xbc2fcc75	-0.010729899
205	0xbceb30e7	-0.028709842
206	0xbde31f75	-0.11089984
207	0xbd815caa	-0.063165024
208	0xbaa42ad7	-0.0012524974
209	0x3d785522	0.060628064
210	0x3d5dc834	0.054146007
211	0xbd038c49	-0.03211621
212	0x3d83ee8e	0.06441985
213	0xbd5667aa	-0.052344956
214	0xbdf795a0	-0.120890856
215	0xbe2026d8	-0.15639818
216	0x3d05646e	0.03256648
217	0xbda74b74	-0.081686884
218	0x3db90c81	0.09035588
219	0xbd83e7d8	-0.06440705
220	0x3d46698c	0.0484405
221	0xbc5d94e5	-0.013524269
222	0x3b2dee62	0.0026539792
223	0xbdadba99	-0.08482856
224	0x3bcd0fd5	0.006257991
225	0x3c67911c	0.014133718
226	0x3d13d0ed	0.03608792
227	0x3c8cf85d	0.017208273
228	0x3c420153	0.011841136
229	0xbdec90a4	-0.115510255
230	0xbdc1f4b6	-0.09470503
231	0xbd61d723	-0.05513681
232	0xbd682d6e	-0.05668395
233	0x3da03796	0.07823102
234	0xbd414708	-0.04718688
235	0x3da2d785	0.07951263
236	0x3dba23e0	0.09088874
237	0xbc62b013	-0.013835925
238	0x3c0f8b72	0.008761274
239	0xbd538d96	-0.0516487
240	0xbd862015	-0.06549088
241	0xbd9bcc9d	-0.07607386
242	0x3d5dcce1	0.054150466
243	0xbd3256c9	-0.043539796
244	0x3d998b84	0.074973136
245	0xbbea6fd8	-0.007154446
246	0xbd164762	-0.03668917
247	0x3d900f6d	0.07034192
248	0x3dbd7641	0.09251071
249	0x3dd6e477	0.10492795
250	0x3d6ed43b	0.058307867
251	0x3c911109	0.017708318
252	0x3d7b0b60	0.061290145
253	0x3d9ef452	0.07761444
254	0x3d2bd50f	0.041951235
255	0xbcc5e129	-0.024155216

net.4.module.0.bias f4 [32]
0	0x3d1541c4	0.036439672
1	0x3cb8de1c	0.022566848
2	0x3db03e1f	0.08605599
3	0xbdbaac30	-0.091148734
4	0xbdbbcd7c	-0.091700524
5	0xbd1dadab	-0.0384957
6	0x3ccfa407	0.025346769
7	0x3d764cb1	0.060131732
8	0x3bca7089	0.006177966
9	0xbd8b487d	-0.068009354
10	0xbd32e5f1	-0.04367632
11	0x3d6675bf	0.056264635
12	0x3c9de5b1	0.019274564
13	0xbd65e514	-0.05612667
14	0x3cd33eac	0.02578672
15	0xbda1dd07	-0.07903486
16	0xbd80af28	-0.062834084
17	0x3d8087d7	0.062759094
18	0x3e111fcf	0.1417229
19	0xbd43a574	-0.04776521
20	0x3c82d57b	0.015970936
21	0x3daa168c	0.08305082
22	0xbcbcb409	-0.023035066
23	0xbc250009	-0.010070809
24	0x3d79497e	0.060861103
25	0xbdab09bc	-0.08351466
26	0xbd06314f	-0.032761868
27	0x3d698c68	0.057018667
28	0xbd8063c2	-0.06269027
29	0x3d97873c	0.07398841
30	0xbd883afd	-0.06651876
31	0x3ccb2895	0.024799624

net.5.weight f4 [32, 32, 3]
0	0xbcd0bac3	-0.02547968
1	0xbd3b7d4c	-0.04577379
2	0xbd8229e1	-0.06355644
3	0x3d8c036a	0.06836589
4	0xbcbb6974	-0.022877432
5	0xbcf67dea	-0.030089337
6	0x3cea99f1	0.028637858
7	0x3ccc83d0	0.024965197
8	0xbd2cf1fe	-0.04222297
9	0x3d49856b	0.049199503
10	0xbc7206a1	-0.014772088
11	0x3c94fee4	0.018187948
12	0xbc962960	-0.018330276
13	0xbd1392b0	-0.036028564
14	0x3c1c91e6	0.009556269
15	0xbd2ceeb4	-0.042219833
16	0xbd0e2b8b	-0.034709495
17	0xbc3d7709	-0.011564025
18	0x3da1c29c	0.07898447
19	0x3c5d4c11	0.013506905
20	0x3cc57ee3	0.024108356
21	0x3dae01e3	0.084964536
22	0x3b0a9b74	0.0021149786
23	0x3c4a9717	0.012365124
24	0x3bf0adf0	0.0073449537
25	0x3d247916	0.04015454
26	0xbcb86e99	-0.022513675
27	0x3d271b36	0.040797435
28	0xbc793bf3	-0.015212047
29	0x3b45371e	0.0030092667
30	0xbc560f83	-0.013065222
31	0xbd5cb13a	-0.053879954
32	0xbdacee74	-0.08443919
33	0xbd919251	-0.07107986
34	0x3d7e26a0	0.062048554
35	0x3db3ccef	0.08779322
36	0x3d7288dc	0.05921255
37	0x3d931ec7	0.07183605
38	0x3da73daa	0.08166058
39	0x3d2e20e3	0.042511832
40	0x3d80d949	0.06291444
41	0x3d1df289	0.038561378
42	0x3cf30905	0.029667387
43	0x3d614867	0.05500069
44	0xbbf01a4d	-0.007327354
45	0xbd1546c4	-0.03644444
46	0xbc8cdf63	-0.017196363
47	0x3d0463d6	0.032321773
48	0xbd5202a4	-0.05127205
49	0xbd503c21	-0.050838593
50	0x3cd7e3c6	0.026353728
51	0xbd83c574	-0.064341456
52	0xbda91ed4	-0.08257833
53	0x3ca957a3	0.020671671
54	0xbd41e1d6	-0.047334515
55	0xbbe23e37	-0.0069043892
56	0xbdfe5ecc	-0.12420425
57	0xbc153f2f	-0.009109302
58	0xbda549a1	-0.08070684
59	0xbcf5f50f	-0.03002408
60	0xbd082811	-0.033241335
61	0x3c8040c0	0.015655875
62	0xbc505e89	-0.012717851
63	0xbd354e1e	-0.04426395
64	0x3cf8bb27	0.030362679
65	0x3c3690cd	0.011142922
66	0x3d099007	0.03358462
67	0x3d96bbe2	0.073600546
68	0x3d911c1a	0.07085438
69	0x3d06cdb6	0.032911025
70	0xbca1c9cb	-0.019749543
71	0x3d8a5b0d	0.06755648
72	0xbd8d29ef	-0.06892764
73	0x3d737b1a	0.05944357
74	0x3cf51a5b	0.029919794
75	0x3d6b1732	0.057395168
76	0xbd680293	-0.05664308
77	0xbc93bffb	-0.01803588
78	0xbdc2d267	-0.09512787
79	0xbd59c0e7	-0.05316248
80	0xbe0e9cf7	-0.13927065
81	0x3d0bce48	0.034132272
82	0x3c29500c	0.010334026
83	0xbcaed74d	-0.021342898
84	0x3da42687	0.08015161
85	0xbd43b7c3	-0.04778267
86	0xbd18579d	-0.03719293
87	0x3db5eee9	0.08883459
88	0x3d203689	0.03911451
89	0x3ad24b1f	0.0016044116
90	0xbc005634	-0.007833052
91	0xbd7d62db	-0.061861854
92	0x3b89fd7c	0.004211126
93	0x3d1ad664	0.037802115
94	0xbd15e0b0	-0.03659123
95	0x3cdee64a	0.02720942
96	0xbcc8f6de	-0.024531778
97	0xbcda010d	-0.02661183
98	0xbd8e27ce	-0.06941186
99	0xbd19dd6e	-0.037564687
100	0xbd473c01	-0.04864121
101	0xbdb59596	-0.08866422
102	0xbd31c35b	-0.043399196
103	0x3c3cb79a	0.011518383
104	0x3cd50bf1	0.02600667
105	0x3d562416	0.052280508
106	0xbd6e9d2d	-0.058255363
107	0xbceb78e6	-0.028744172
108	0x3d49d37b	0.04927395
109	0x3d954118	0.07287806
110	0x3dc3ed7b	0.0956678
111	0x3e2c602f	0.16833566
112	0x3d72b64d	0.059255887
113	0xbd82047e	-0.06348513
114	0xbe24cd56	-0.16093954
115	0xbda57c8e	-0.080803975
116	0xbe16be2a	-0.1472098
117	0xbcc48fff	-0.023994444
118	0xbd8b9b3d	-0.06816719
119	0x3b99386f	0.004675917
120	0x3ce9b96e	0.028530803
121	0x3b038581	0.0020068588
122	0x3d49aa35	0.049234588
123	0x3928ffb7	0.0001611699
124	0x3d6e0761	0.058112506
125	0x3d560b5b	0.052256923
126	0x3d446409	0.047946963
127	0x3cee76d1	0.02910939
128	0x3d99432e	0.07483517
129	0xbd278d3b	-0.040906172
130	0x3d2197b0	0.0394513
131	0x3d8d662c	0.06904253
132	0xbcba3700	-0.022731304
133	0x3c462563	0.012093875
134	0xbd900d80	-0.07033825
135	0xbd64373f	-0.05571675
136	0xbc0b2a2b	-0.00849394
137	0xbd8d64da	-0.069040015
138	0x3d8a787b	0.06761261
139	0x3d826575	0.06367008
140	0x3db4d91a	0.08830471
141	0x3ce8ae72	0.028403495
142	0x3dd5699c	0.10420534
143	0x3dab53eb	0.083656155
144	0xbd6bfe27	-0.057615425
145	0xbc307c70	-0.010771856
146	0x3c720f4d	0.014774156
147	0x3d6bead3	0.057596993
148	0x3dbd78b6	0.092515394
149	0x3d97026a	0.07373507
150	0x3cb7b2b5	0.022424081
151	0x3d0be4c5	0.03415372
152	0x3d4630eb	0.048386496
153	0xbad6e826	-0.001639609
154	0xbd4e1dba	-0.05032132
155	0x3e32606f	0.17419599
156	0xbd927ce7	-0.071527295
157	0xbd66641a	-0.056247808
158	0xbd2919f8	-0.04128453
159	0x3dad4eb9	0.08462281
160	0x3d9e5707	0.07731443
161	0x3d1611b5	0.03663798
162	0xbd683f94	-0.056701258
163	0xbd9d98d3	-0.076951645
164	0x3cadac7f	0.021200417
165	0xbd253221	-0.04033101
166	0xbdbde8e3	-0.09272935
167	0xbbb0de51	-0.005397596
168	0x3d06e8ca	0.03293685
169	0xbd877af6	-0.0661525
170	0x3b840229	0.004028578
171	0x3d023ca7	0.031796124
172	0xbcdc8a18	-0.026921317
173	0x3c945fe2	0.018112127
174	0x3d21c31e	0.03949272
175	0xbcf8d5d1	-0.030375393
176	0x3d851247	0.06497627
177	0x3cfb2321	0.0306564
178	0xbd870565	-0.06592826
179	0xbd9e8c82	-0.077416435
180	0x3d1b59a1	0.037927274
181	0xbd7a0911	-0.061043803
182	0x3d61773b	0.055045348
183	0x3d9c62c4	0.076360255
184	0xba92ff04	-0.0011214917
185	0x3cb1c16c	0.021698676
186	0xbc2f75f2	-0.010709273
187	0xbd853ecf	-0.065061204
188	0xbd87a890	-0.066239476
189	0xbd94b211	-0.07260526
190	0xbd25b037	-0.040451255
191	0xbd33c0fa	-0.04388521
192	0x3bdc8fe5	0.0067310208
193	0xbcc023a1	-0.02345449
194	0x3d862417	0.06549852
195	0xbca758e7	-0.020428134
196	0xbca4671a	-0.020068694
197	0x3d98e863	0.07466199
198	0xbda471a6	-0.08029489
199	0x3db0e818	0.08638018
200	0xbd091d3f	-0.033475157
201	0x3d1f41a4	0.03888096
202	0xbd4384e5	-0.04773416
203	0x3d5803e3	0.05273808
204	0xbddb515f	-0.1070888
205	0xbe026ae3	-0.12736087
206	0xbd577a12	-0.05260665
207	0xbdeef260	-0.11667323
208	0xbcca3e7a	-0.024687994
209	0x3d25767b	0.040396195
210	0x3cdf0e8d	0.027228618
211	0x3e137e36	0.14403614
212	0x3e132ae3	0.14371829
213	0xbd188b84	-0.037242427
214	0x391218ea	0.00013932926
215	0xbd5c3061	-0.053757075
216	0x3d077682	0.033072002
217	0x3d7d863d	0.061895598
218	0x3d1a9906	0.03774359
219	0xbcd9bcf5	-0.02657936
220	0x3d57f41d	0.05272304
221	0x3dbf7efa	0.09350391
222	0xbd8ed0e0	-0.069734335
223	0xbd98f229	-0.074680634
224	0xbd2d7b66	-0.04235401
225	0x3d8d0643	0.0688596
226	0xbd00c6c8	-0.031439573
227	0x3d5b46d9	0.053534362
228	0x3d502499	0.050816152
229	0xbd5d7c2f	-0.05407351
230	0x3c9576ae	0.018245067
231	0xbd970be4	-0.07375315
232	0x3d860bb3	0.065452
233	0xbd02f7ea	-0.03197471
234	0xbdd2af19	-0.102873035
235	0xbd7f0c0d	-0.062267352
236	0xbd81b71b	-0.06333753
237	0xbd49cc80	-0.049267292
238	0xbdd9703b	-0.106171094
239	0xbd53576b	-0.05159704
240	0x3d8038d8	0.06260842
241	0x3d0f84e7	0.035038855
242	0x3c5d04e0	0.013489932
243	0xbda10878	-0.078629434
244	0x3cfc9d50	0.030836731
245	0x3c2f9399	0.010716342
246	0x3d596eae	0.053084068
247	0xbce8739e	-0.028375443
248	0xbcfa973d	-0.030589694
249	0xbc7b1f26	-0.015327251
250	0xbcd2228c	-0.025651239
251	0x3bb8f430	0.005644344
252	0xbd5082a7	-0.05090585
253	0x3d23de60	0.040006995
254	0xbd833b63	-0.064078115
255	0xbd1cbf15	-0.038268168

net.5.bias f4 [32]
0	0x3cd1e8c9	0.025623696
1	0xbdb6cac4	-0.08925393
2	0x3defe4df	0.117135756
3	0xbd0ba49c	-0.03409253
4	0xbd9ffb50	-0.07811606
5	0xbdcbd130	-0.09952009
6	0xbd814d19	-0.06313533
7	0xbd44713b	-0.047959547
8	0x3ce489f6	0.027897816
9	0x3d87c4bb	0.0662932
10	0x3d241787	0.0400615
11	0xbb8032da	-0.003912312
12	0x3c45a23d	0.012062606
13	0x3da80b01	0.08205224
14	0xbd73a66c	-0.059484884
15	0xbd8fa0f3	-0.070131205
16	0x3d4a4bbd	0.049388636
17	0xbd595ea6	-0.05306878
18	0xbd832dc4	-0.064052135
19	0xbdc6c10f	-0.09704792
20	0xbdaea307	-0.08527189
21	0xbd6328a4	-0.05545868
22	0xbd199726	-0.037497662
23	0xbd105386	-0.035235904
24	0x3c1d2e5d	0.009593573
25	0xbd6a7164	-0.057237044
26	0x3cdc8af9	0.026921736
27	0xbd46b6df	-0.048514243
28	0xbc1e2564	-0.009652469
29	0xbd586006	-0.05282595
30	0x3d9c0c39	0.07619519
31	0xbd5ee92b	-0.054421585

exp_avg f4 [32, 538, 2]
0	0xb5d75567	-1.6043604e-06
1	0x28a9e207	1.8860793e-14
2	0xb334e425	-4.2117012e-08
3	0xb5c2dff8	-1.451931e-06
4	0x80000004	-6e-45
5	0x00000004	6e-45
6	0x00000004	6e-45
7	0x00000004	6e-45
8	0xb56e5d6e	-8.879787e-07
9	0xb5c171a3	-1.4412693e-06
10	0x00000004	6e-45
11	0x00000004	6e-45
12	0x31c8c0c7	5.8426823e-09
13	0x80000004	-6e-45
14	0xb2d0bb5b	-2.4299586e-08
15	0x3088d114	9.954726e-10
16	0x00000004	6e-45
17	0x80000004	-6e-45
18	0x324b338e	1.1827877e-08
19	0xb5c2e0cf	-1.4519554e-06
20	0xb09f16f9	-1.1575302e-09
21	0x80000004	-6e-45
22	0x80000004	-6e-45
23	0x80000004	-6e-45
24	0xa91655e8	-3.3381203e-14
25	0x80000004	-6e-45
26	0x80000004	-6e-45
27	0x00000004	6e-45
28	0x00000004	6e-45
29	0x80000004	-6e-45
30	0xb533f413	-6.703787e-07
31	0x2dd7b547	2.4523173e-11
32	0x00000004	6e-45
33	0x00000004	6e-45
34	0x00000004	6e-45
35	0x80000004	-6e-45
36	0x00000004	6e-45
37	0x00000004	6e-45
38	0x00000004	6e-45
39	0x00000004	6e-45
40	0x356d531d	8.8410326e-07
41	0x2e57b547	4.9046347e-11
42	0xb43caec0	-1.7572438e-07
43	0x00000004	6e-45
44	0x80000004	-6e-45
45	0x00000004	6e-45
46	0xb5af59b8	-1.3064628e-06
47	0x2e57b547	4.9046347e-11
48	0x343fcace	1.7862041e-07
49	0x2dd7b547	2.4523173e-11
50	0x80000004	-6e-45
51	0x80000004	-6e-45
52	0xb52c5ade	-6.420722e-07
53	0x323795b3	1.068604e-08
54	0xb3ad93d1	-8.082828e-08
55	0x2dde7110	2.5288688e-11
56	0x80000004	-6e-45
57	0x80000004	-6e-45
58	0x00000004	6e-45
59	0x00000004	6e-45
60	0xb4092b30	-1.2774831e-07
61	0x00000004	6e-45
62	0x80000004	-6e-45
63	0x80000004	-6e-45
64	0x80000004	-6e-45
65	0x00000004	6e-45
66	0x80000004	-6e-45
67	0x00000000	0.0
68	0x80000004	-6e-45
69	0x00000004	6e-45
70	0x00000004	6e-45
71	0x00000004	6e-45
72	0x80000004	-6e-45
73	0x00000004	6e-45
74	0x2e4fa3d5	4.7211863e-11
75	0x80000004	-6e-45
76	0x80000004	-6e-45
77	0x80000004	-6e-45
78	0xb3c5271d	-9.180642e-08
79	0x28a28689	1.8043958e-14
80	0x80000004	-6e-45
81	0x80000004	-6e-45
82	0xb559fd42	-8.120734e-07
83	0x00000004	6e-45
84	0x2e4657dc	4.5098023e-11
85	0x80000004	-6e-45
86	0x31f9cfb5	7.2704673e-09
87	0x00000004	6e-45
88	0xb5c20685	-1.4456024e-06
89	0x00000004	6e-45
90	0xb5b4c2b4	-1.3467711e-06
91	0x00000004	6e-45
92	0x00000004	6e-45
93	0x00000004	6e-45
94	0x00000004	6e-45
95	0x80000004	-6e-45
96	0xb048c4ff	-7.3039524e-10
97	0x00000004	6e-45
98	0x00000000	0.0
99	0x00000000	0.0
100	0x00000004	6e-45
101	0x80000004	-6e-45
102	0xad12512a	-8.317161e-12
103	0x2929e207	3.7721586e-14
104	0xb40f6b1c	-1.3356879e-07
105	0x31576650	3.1344776e-09
106	0x2ec792b5	9.075533e-11
107	0x80000004	-6e-45
108	0x2d8412bd	1.5014984e-11
109	0x80000004	-6e-45
110	0xa73cf253	-2.6221605e-15
111	0x00000004	6e-45
112	0x00000004	6e-45
113	0x00000004	6e-45
114	0x00000004	6e-45
115	0x00000004	6e-45
116	0x00000004	6e-45
117	0x80000004	-6e-45
118	0x00000004	6e-45
119	0x80000004	-6e-45
120	0x3214f03f	8.6693595e-09
121	0x28a28689	1.8043958e-14
122	0xb2114de1	-8.4578184e-09
123	0x80000004	-6e-45
124	0xb2b050ae	-2.0525786e-08
125	0x3088ec04	9.962382e-10
126	0x00000004	6e-45
127	0x80000004	-6e-45
128	0x80000004	-6e-45
129	0x80000004	-6e-45
130	0xb5312a47	-6.599916e-07
131	0x3088d114	9.954726e-10
132	0x309ff036	1.1637045e-09
133	0x00000004	6e-45
134	0x00000004	6e-45
135	0x00000004	6e-45
136	0x00000004	6e-45
137	0x80000004	-6e-45
138	0x351e4fca	5.8975695e-07
139	0x28a28689	1.8043958e-14
140	0x31d9ad2a	6.3352177e-09
141	0x00000004	6e-45
142	0x320b8b32	8.122514e-09
143	0x00000004	6e-45
144	0xb5b58088	-1.3522958e-06
145	0x80000004	-6e-45
146	0x80000004	-6e-45
147	0x00000004	6e-45
148	0x00000004	6e-45
149	0x00000004	6e-45
150	0x00000004	6e-45
151	0x00000004	6e-45
152	0x00000004	6e-45
153	0x00000004	6e-45
154	0xb476d618	-2.2988422e-07
155	0x323801a1	1.071058e-08
156	0x00000004	6e-45
157	0x00000004	6e-45
158	0x3237744a	1.0678443e-08
159	0x2dd7b547	2.4523173e-11
160	0xb5358e32	-6.7634676e-07
161	0x80000004	-6e-45
162	0x80000004	-6e-45
163	0x80000004	-6e-45
164	0xb67b534c	-3.74504e-06
165	0x00000004	6e-45
166	0xb324225b	-3.821547e-08
167	0x00000004	6e-45
168	0x349dc56e	2.9387178e-07
169	0x2dd7b547	2.4523173e-11
170	0xb2ffdc78	-2.9786165e-08
171	0x00000004	6e-45
172	0xb4f81566	-4.620917e-07
173	0x00000004	6e-45
174	0x00000004	6e-45
175	0x80000004	-6e-45
176	0x00000004	6e-45
177	0x80000004	-6e-45
178	0x00000004	6e-45
179	0x00000004	6e-45
180	0x320c833d	8.178913e-09
181	0x00000004	6e-45
182	0xb34ea9c6	-4.811752e-08
183	0x00000004	6e-45
184	0xb3a26370	-7.5618004e-08
185	0x00000004	6e-45
186	0xb54e884c	-7.693932e-07
187	0x00000004	6e-45
188	0x80000004	-6e-45
189	0x80000004	-6e-45
190	0x80000004	-6e-45
191	0x80000004	-6e-45
192	0x80000004	-6e-45
193	0x80000004	-6e-45
194	0xb55d2c0e	-8.2393024e-07
195	0x00000004	6e-45
196	0x00000004	6e-45
197	0x00000004	6e-45
198	0x00000004	6e-45
199	0x00000004	6e-45
200	0x00000004	6e-45
201	0x80000004	-6e-45
202	0x80000004	-6e-45
203	0x80000004	-6e-45
204	0xb549f7d3	-7.5238967e-07
205	0x80000004	-6e-45
206	0x3557d142	8.039825e-07
207	0x00000004	6e-45
208	0xb52b34ed	-6.377948e-07
209	0x328d6670	1.6461144e-08
210	0xb14dedfe	-2.996671e-09
211	0x00000004	6e-45
212	0xb11fb7e5	-2.3242077e-09
213	0x00000004	6e-45
214	0x31c11d9d	5.620406e-09
215	0x00000004	6e-45
216	0x80000004	-6e-45
217	0x00000004	6e-45
218	0xb58d56d5	-1.053059e-06
219	0x00000004	6e-45
220	0xb5b40656	-1.3412889e-06
221	0x00000004	6e-45
222	0xb4a49565	-3.065608e-07
223	0x00000004	6e-45
224	0xb287f925	-1.5829366e-08
225	0x00000004	6e-45
226	0xb4c7bbb1	-3.7203202e-07
227	0x320d6762	8.230787e-09
228	0x80000004	-6e-45
229	0x00000004	6e-45
230	0xa8c589ce	-2.1931157e-14
231	0x00000004	6e-45
232	0x00000004	6e-45
233	0x00000004	6e-45
234	0xad8e3b58	-1.6169885e-11
235	0x80000004	-6e-45
236	0xb41c7e4e	-1.4574582e-07
237	0x323795b3	1.068604e-08
238	0x00000004	6e-45
239	0x00000004	6e-45
240	0x80000004	-6e-45
241	0x00000004	6e-45
242	0x80000004	-6e-45
243	0x80000004	-6e-45
244	0x80000004	-6e-45
245	0x80000004	-6e-45
246	0xb54ee7ee	-7.707848e-07
247	0x00000004	6e-45
248	0x00000004	6e-45
249	0x00000004	6e-45
250	0x00000004	6e-45
251	0x00000004	6e-45
252	0x00000004	6e-45
253	0x80000004	-6e-45
254	0x2f9536b0	2.71418e-10
255	0x00000004	6e-45
