cebra_models/reach1_4/01/B/cebra_trialID_shuffled_model_5000_32_reach1_4_B.pt (torch, 743395 bytes, 31 tensors)

net.0.weight f4 [32, 538, 2]
-0.017267916 0.018315801 -0.012882265 0.0071867188 -0.008085545 0.014949769 -0.023279788 -0.024452806
-0.01379245 0.03366814 0.0038823183 0.048115447 -0.033080023 0.04068358 -0.0016964257 -0.024805782
-0.025585584 -0.038344562 -0.041746534 0.025616862 0.019430907 -0.027107893 -0.007079304 -0.004710052
0.030726349 0.040661126 0.047988433 0.0066652494 0.006100546 0.009698575 -0.02289217 -0.014370145
-0.024380542 0.027393257 -0.041203145 -0.011465261 -0.04967079 0.044362396 -0.0075169876 0.032396093
0.009765678 -0.01696619 0.017372102 -0.008830746 -0.016094163 0.03537507 -0.011736752 0.0071237246
-0.013618733 0.01677715 -0.029894318 -0.0027860925 -0.0009631092 0.009720342 -0.032805886 -0.03255489
-0.009722831 -0.002735877 0.034911998 0.021836886 0.00798577 -0.0060648504 0.00023268166 0.0031731245
-0.015452676 -0.0035883074 -0.008820236 -0.004826249 0.019455574 0.016277703 -0.024365189 0.04349397
-0.023837915 -0.010343998 -0.04627068 -0.015103382 0.02296122 -0.0021656507 -0.012075806 0.015156782
0.029300228 0.02841856 0.0117895 -0.012609525 -0.009919847 0.0022478376 -0.0015451254 -0.0032061937
-0.026538713 -0.01124008 -0.005190644 0.0067847073 0.006202132 0.04215725 -0.0019602089 0.04785905
-0.0064071873 -0.027323531 0.009438699 0.02224859 -0.01228142 0.008344177 -0.02511337 -0.019812627
-0.018530464 0.014581514 -0.039318275 0.008176153 -0.015779922 0.016228464 -0.04740988 -0.013754689
0.015617507 0.02783603 0.021309257 -0.030498832 0.014809928 -0.088563904 0.012152899 0.013315763
0.030868247 -0.017452937 -0.028039468 0.02094741 -0.011688198 0.023231804 -0.019727241 0.0337619
0.0035588718 -0.01687001 0.029153185 0.017180357 0.03611563 0.020993447 0.018735915 -0.0025724103
0.059984777 -0.037622195 0.03251408 -0.029674593 -0.01242999 0.052860428 0.04287288 0.011370298
-0.013674664 0.0026285227 0.01969437 0.01884353 -0.045131296 0.028155131 -0.0056665377 0.025908513
-0.0028239624 -0.035144035 0.0011520714 0.028540745 0.021429539 -0.04683375 0.020232506 0.028797993
0.050903507 0.029364768 0.027623154 0.036733516 0.032032147 0.023769582 0.00178063 0.010443639
0.011482782 0.01805704 0.015630653 -0.030169347 0.008933287 0.018983545 -0.017557569 -0.01841583
0.026847713 -0.037187885 -0.049388535 0.0006082632 0.016927633 0.020350382 0.05532175 0.028523568
0.0064559532 -0.013283408 -0.0040559946 0.01919047 -0.0066522015 0.012309577 0.013148601 0.034000393
-0.03510572 -3.5456324e-05 -0.014948921 -0.01468938 -0.030464446 0.0035357105 0.011276221 -0.009642103
0.006431527 -0.01438506 -0.03995145 -0.029929977 0.0010930637 0.0026680636 -0.021116707 -0.016296785
-0.006270059 0.0044152103 -0.028420804 -0.008405391 0.053248286 0.026883328 -0.025138656 0.013208566
0.009851716 0.008063383 0.015354521 -0.0035101909 0.0058495114 0.013194876 -0.0072118393 0.0049505816
0.038784888 0.027460346 -0.021436198 -0.0050884862 -0.038895812 0.026014838 0.0008487776 -0.0051841694
-0.0092811175 0.021403635 0.030417318 -0.006898959 0.0074237427 0.013665231 -0.0064138668 0.029193264
-0.014410581 0.005168854 0.0033642629 -0.005063303 6.5061664e-05 0.006123696 -0.017439283 -0.0054648896
0.035220966 0.0048695 0.025950817 0.006371783 -0.0478653 0.0019136977 0.022644967 -0.02125389
00000000: 7275 8dbc 050b 963c 2310 53bc 917e eb3b
00000010: 3c79 04bc e0ef 743c 41b5 bebc 4051 c8bc
00000020: baf9 61bc 9be7 093d 7e6e 7e3b b414 453d
00000030: eb7e 07bd d3a3 263d 9a5a deba 7f35 cbbc
00000040: dc98 d1bc 300f 1dbd 6afe 2abd 74da d13c
00000050: 912d 9f3c 5f11 debc 82f9 e7bb c856 9abb
00000060: d3b5 fb3c 488c 263d 858f 443d 2a68 da3b
00000070: 17e7 c73b c6e6 1e3c 5c88 bbbc c270 6bbc
00000080: b4b9 c7bc d367 e03c a1c4 28bd cad8 3bbc
00000090: 9973 4bbd 58b5 353d 1051 f6bb c4b1 043d
000000a0: 3900 203c aefc 8abc f04f 8e3c d5ae 10bc
000000b0: e8d7 83bc 73e5 103d 824b 40bc 226e e93b
000000c0: 1b21 5fbc 3c70 893c eee4 f4bc e096 36bb
000000d0: 2a79 7cba 1242 1f3c 775f 06bd 4758 05bd
000000e0: 824c 1fbc 664c 33bb e2ff 0e3d 45e3 b23c
000000f0: bfd6 023c a7bb c6bb 02fc 7339 32f4 4f3b
00000100: 392d 7dbc cf29 6bbb c082 10bc 8325 9ebb
00000110: 4c61 9f3c d158 853c 8199 c7bc bc26 323d
00000120: bb47 c3bc df79 29bc 5386 3dbd 2d74 77bc
00000130: 2b19 bc3c 97ed 0dbb 9ad9 45bc 2754 783c
00000140: 0807 f03c 0ace e83c bf28 413c 2e98 4ebc
00000150: db86 22bc 7550 133b ce85 caba 011f 52bb
00000160: b767 d9bc 5028 38bc 4716 aabb 4052 de3b
00000170: 413b cb3b 15ad 2c3d d976 00bb da07 443d
00000180: 62f3 d1bb 99d5 dfbc c6a4 1a3c ad42 b63c
00000190: 0238 49bc 04b6 083c 8eba cdbc 174e a2bc
000001a0: 33cd 97bc 4de7 6e3c 330c 21bd 45f5 053c
000001b0: e544 81bc 8ef1 843c dd30 42bd 595b 61bc
000001c0: 92e0 7f3c 6308 e43c c090 ae3c b0d8 f9bc
000001d0: 57a5 723c fe60 b5bd f41c 473c 5c2a 5a3c
000001e0: 68df fc3c 76f9 8ebc 07b3 e5bc e799 ab3c
000001f0: db7f 3fbc a050 be3c 069b a1bc eb49 0a3d
00000200: f63b 693b fa32 8abc a9d2 ee3c d2bd 8c3c
00000210: fced 133d 73fa ab3c 107c 993c e295 28bb
00000220: 99b2 753d bb19 1abd 7c2d 053d 2218 f3bc
00000230: 28a7 4bbc 2d84 583d 799b 2f3d 7d4a 3a3c
00000240: b30b 60bc 4b43 2c3b 1656 a13c bf5d 9a3c
00000250: 98db 38bd 97a5 e63c 5dae b9bb 173e d43c
00000260: 3a12 39bb 31f3 0fbd 1a01 973a 48ce e93c
00000270: 008d af3c bfd4 3fbd a4be a53c c5e9 eb3c
00000280: 3280 503d 628e f03c f449 e23c e275 163d
00000290: 2434 033d 6db8 c23c 0764 e93a cc1b 2b3c
000002a0: 4722 3c3c 5cec 933c db0b 803c b525 f7bc
000002b0: ec5c 123c 6183 9b3c e4d4 8fbc cbdc 96bc
000002c0: bcef db3c 5352 18bd a24b 4abd da73 1f3a
000002d0: d2ab 8a3c d8b5 a63c 0f99 623d 42aa e93c
000002e0: 768c d33b a7a2 59bc 26e8 84bb 5535 9d3c
000002f0: b6fa d9bb 1cae 493c 3b6d 573c ff43 0b3d
00000300: 04cb 0fbd f0b6 14b8 52ec 74bc baab 70bc
00000310: 9390 f9bc 61b7 673b e6bf 383c e9f9 1dbc
00000320: 8fbf d23b 51af 6bbc 22a4 23bd b62f f5bc
00000330: 2245 8f3a aeda 2e3b f2fc acbc d680 85bc
00000340: 1175 cdbb 78ad 903b bfd2 e8bc c4b6 09bc
00000350: e01a 5a3d 6d3a dc3c 95ef cdbc be68 583c
00000360: 1869 213c 481c 043c 8791 7b3c 3b0b 66bb
00000370: 42ad bf3b 522f 583c 4b51 ecbb 7d38 a23b
00000380: e7dc 1e3d 85f4 e03c f79a afbc 51bd a6bb
00000390: 3751 1fbd 121d d53c 8080 5e3a f7df a9bb
000003a0: d40f 18bc ad56 af3c bd2d f93c aa10 e2bb
000003b0: de42 f33b 22e4 5f3c 6a2b d2bb b626 ef3c
000003c0: 5c1a 6cbc 7d5f a93b f77a 5c3b 10ea a5bb
000003d0: b771 8838 49a9 c83b d4dc 8ebc d112 b3bb
000003e0: dc43 103d 5490 9f3b cf96 d43c 64ca d03b
000003f0: 680e 44bd 0ad5 fa3a f081 b93c a31c aebc

net.0.bias f4 [32]
0.026217768 -0.020955965 0.03529124 -0.0070295697 0.025896672 0.020574806 0.0059032324 0.028589189
-0.010458799 0.013018513 0.0039809025 0.025967937 0.006524114 -0.015253143 0.025147455 -0.010298668
0.017593516 0.021219466 -0.024028938 0.013035107 0.018100493 0.017467486 -0.03502774 0.015588426
-0.024899542 -0.031314492 0.011740761 -0.016625047 -0.031782668 -0.022345271 -0.024992572 0.0128632905
00000000: a5c6 d63c d8ab abbc 8c8d 103d 4e58 e6bb
00000010: 4225 d43c 7f8c a83c e76f c13b e033 ea3c
00000020: 625b 2bbc 9a4b 553c 3b72 823b b6ba d43c
00000030: 3cc8 d53b 52e8 79bc 0902 ce3c bfbb 28bc
00000040: 4720 903c 72d4 ad3c 56d8 c4bc 3491 553c
00000050: 7c47 943c f917 8f3c 3f79 0fbd 9966 7f3c
00000060: 20fa cbbc a043 00bd 525c 403c 4031 88bc
00000070: 8b2e 02bd 6e0d b7bc 39bd ccbc 8dc0 523c

net.2.module.0.weight f4 [32, 32, 3]
-0.00039773213 -0.039955877 -0.07164066 -0.065014005 0.021024607 0.08915748 0.09474616 0.043258846
-0.061450876 0.053389717 -0.11307934 -0.05295998 -0.06006191 -0.10172512 0.0009730761 -0.087797046
0.026199754 -0.076242395 0.0423195 0.051123388 -0.07686196 0.027914498 -0.053815365 0.03001794
-0.097718835 -0.028395278 -0.044192307 0.022393232 -0.03975186 -0.031009559 -0.100350454 0.04398435
0.08667195 0.06451237 0.08861372 0.05157255 0.06085214 -0.01730254 -0.025998112 -0.028072637
-0.049353607 0.049897082 -0.0017474035 -0.08430086 -0.08986053 0.018369384 -0.083032064 0.08376928
-0.00078490144 0.0111536635 -0.055382267 0.061284836 -0.017209407 -0.09083796 0.074973226 0.007513734
-0.025599113 0.07227093 0.062480167 0.049870797 -0.023215154 -0.099940374 -0.07426872 0.017174186
0.047077138 -0.09234837 -0.053832013 0.06200699 0.029284164 0.051549364 -0.011781705 -0.058686346
-0.022930142 -0.01224954 -0.002129656 0.09902108 -0.014530995 -0.0615612 -0.034021795 -0.050542228
-0.019930845 0.049226053 -0.036684573 0.06426217 -0.0017618471 -0.06090755 -0.011061154 -0.02880684
0.006907953 -0.007147278 0.036857527 -0.099823415 -0.027886631 -0.11154511 0.023335347 -0.047307443
-0.09064818 -0.018055754 -0.098350674 0.021996167 0.05638944 -0.04431007 -0.0842876 -0.076384515
0.012202974 0.01604194 0.037369248 -0.048021976 -0.0035349748 -0.042426325 -0.03418293 -0.036923617
0.06983755 0.023830391 -0.040526137 -0.0060052043 0.025104998 0.07617364 0.0950868 -0.01697117
0.12767316 0.04939914 0.088859014 -0.062966526 0.008396971 -0.03739685 -0.0032474515 -0.013706366
-0.0049790344 -0.0454841 -0.044765513 0.030652294 0.05668601 -0.04545269 0.07300699 -0.09778653
-0.034524046 -0.042087663 0.019061042 -0.012992023 -0.009839502 0.08263527 0.07588693 0.028607193
-0.05280256 0.076546796 -0.00020130358 -0.0010657397 -0.051805504 -0.098111436 -0.012229025 -0.015948169
0.108018994 -0.080460444 -0.042497765 -0.07222752 -0.06976709 -0.08645314 -0.06507711 0.03524097
-0.015079783 0.04372774 0.071484454 -0.044141825 0.056469925 0.011021674 0.07650882 0.08420088
0.007665636 -0.11132069 -0.034131162 0.032746673 -0.038857408 -0.049620446 0.0928303 -0.03799235
-0.017166981 -0.039224464 -0.07710098 -0.03997218 0.06369402 0.074207015 -0.052513316 -0.10087903
0.0763685 0.052409094 -0.09513611 0.0749569 0.10844665 0.061377607 0.07005903 -0.009715972
0.0043947333 0.10410089 -0.093634605 -0.024038905 -0.015761588 0.06270511 -0.037618447 0.13354713
0.060332574 0.075908124 0.051892754 -0.053953826 0.0767163 -0.06998114 -0.011286963 -0.02435543
-0.059093066 -0.115547836 -0.07634091 -0.057235334 -0.015468665 -0.050956156 0.019435346 -0.009666896
-0.028498199 -0.05129986 0.050324194 -0.05579382 -0.021111418 0.04854295 -0.03774855 -0.040481757
0.049769334 -0.08671423 -0.03753422 0.10566392 0.050411083 -0.012559211 -0.015723182 0.08577956
0.11478765 0.06578687 -0.0047989967 0.012300591 0.017761605 -0.020946661 0.0431374 -0.011598053
0.052869897 -0.04653431 -0.021728968 0.018904485 -0.023992382 -0.068575025 -0.07348217 -0.07940695
-0.031904772 0.06903022 -0.07948471 -0.07497429 -0.030615965 -0.022679662 -0.0028928434 0.14698432
00000000: b486 d0b9 c6a8 23bd 57b8 92bd 1026 85bd
00000010: cc3b ac3c 3298 b63d 460a c23d 3030 313d
00000020: eab3 7bbd 2daf 5a3d 2496 e7bd 90ec 58bd
00000030: 7a03 76bd 4255 d0bd 0816 7f3a f0ce b3bd
00000040: dea0 d63c f924 9cbd 3657 2d3d c266 513d
00000050: ce69 9dbd f2ac e43c 806d 5cbd 2fe8 f53c
00000060: d020 c8bd 379d e8bc fe02 35bd 0372 b73c
00000070: d9d2 22bd c207 febc 8a84 cdbd ef28 343d
00000080: 1081 b13d 101f 843d 1c7b b53d bd3d 533d
00000090: 1840 793d 0ebe 8dbc fef9 d4bc 96f8 e5bc
000000a0: 0227 4abd e260 4c3d 2209 e5ba eea5 acbd
000000b0: cc08 b8bd 647b 963c b70c aabd 3a8f ab3d
000000c0: d8c1 4dba dbbd 363c 84d8 62bd cf05 7b3d
000000d0: befa 8cbc 4109 babd 908b 993d c535 f63b
000000e0: 3bb5 d1bc c802 943d 34eb 7f3d 5245 4c3d
000000f0: b52d bebc 8aad ccbd 331a 98bd e1b0 8c3c
00000100: f5d3 403d 2421 bdbd f57e 5cbd 0bfb 7d3d
00000110: 58e5 ef3c 6d25 533d 0d08 41bc 1861 70bd
00000120: fed7 bbbc 4bb2 48bc b391 0bbb 90cb ca3d
00000130: 6913 6ebc 9927 7cbd 705a 0bbd 5e05 4fbd
00000140: 0346 a3bc 42a1 493d 9042 16bd e29b 833d
00000150: c7ed e6ba 327a 79bd d839 35bc 52fc ebbc
00000160: 1c5c e23b b733 eabb ebf7 163d 3870 ccbd
00000170: 8172 e4bc c371 e4bd c529 bf3c 73c5 41bd
00000180: c1a5 b9bd a9e9 93bc 146c c9bd 4e31 b43c
00000190: 9df8 663d 7a7e 35bd fa9e acbd 7c6f 9cbd
000001a0: fcee 473c 636a 833c 7f10 193d b1b2 44bd
000001b0: 09ab 67bb 3ac7 2dbd 6603 0cbd 383d 17bd
000001c0: fd06 8f3d f437 c33c bcfe 25bd 4ec7 c4bb
000001d0: ffa8 cd3c ed00 9c3d debc c23d 2007 8bbc
000001e0: c1bc 023e c156 4a3d b7fb b53d 98f4 80bd
000001f0: 7393 093c 702d 19bd 32d3 54bb aa90 60bc
00000200: 2b27 a3bb 894d 3abd 0b5c 37bd 851a fb3c
00000210: 972f 683d 9a2c 3abd b084 953d 4e44 c8bd
00000220: 1669 0dbd 1d64 2cbd e725 9c3c 7edc 54bc
00000230: dd35 21bc ae3c a93d 9b6a 9b3d a259 ea3c
00000240: 7f47 58bd 91c4 9c3d 0515 53b9 4ab0 8bba
00000250: 0232 54bd a6ee c8bd 405c 48bc bca5 82bc
00000260: 1039 dd3d 72c8 a4bd 2312 2ebd 06ec 93bd
00000270: 0ce2 8ebd 580e b1bd 2647 85bd d658 103d
00000280: 3211 77bc dc1b 333d 7166 923d 0fce 34bd
00000290: 024d 673d 4094 343c a8b0 9c3d 8371 ac3d
000002a0: 0430 fb3b 1afc e3bd 1ecd 0bbd 6021 063d
000002b0: f228 1fbd cf3e 4bbd d01d be3d de9d 1bbd
000002c0: c5a1 8cbc d5a9 20bd 1ee7 9dbd deb9 23bd
000002d0: 0372 823d d9f9 973d 3418 57bd aa99 cebd
000002e0: 1767 9c3d ebaa 563d b9d6 c2bd 0183 993d
000002f0: 4719 de3d 1667 7b3d 1c7b 8f3d bd2f 1fbc
00000300: b201 903b d932 d53d 80c3 bfbd 3ded c4bc
00000310: 721e 81bc 896b 803d cd15 1abd 94c0 083e
00000320: 4a1f 773d b875 9b3d 7f8d 543d b0fe 5cbd
00000330: 6f1d 9d3d 4652 8fbd f4ec 38bc 0a85 c7bc
00000340: 920b 72bd 58a4 ecbd 9f58 9cbd 996f 6abd
00000350: 4970 7dbc 67b7 50bd e036 9f3c e761 1ebc
00000360: 0e75 e9bc cd1f 52bd be20 4e3d 1088 64bd
00000370: daf1 acbc f9d4 463d 399e 1abd 33d0 25bd
00000380: eeda 4b3d 3b97 b1bd 7bbd 19bd 5366 d83d
00000390: da7b 4e3d 26c5 4dbc e7cd 80bc 32ad af3d
000003a0: ca15 eb3d 44bb 863d e740 9dbb 6b88 493c
000003b0: c980 913c 5598 abbc d8b0 303d c305 3ebc
000003c0: 1b8e 583d c39a 3ebd f300 b2bc 94dd 9a3c
000003d0: ac8b c4bc 1071 8cbd d27d 96bd 1ca0 a2bd
000003e0: 94ae 02bd b75f 8d3d e1c8 a2bd 1f8c 99bd
000003f0: 55ce fabc b3ca b9bc dc95 3dbb 0f83 163e

net.2.module.0.bias f4 [32]
-0.039533585 -0.069660254 0.0276798 0.012306154 0.099442 0.022577237 -0.045060422 0.04374889
0.0053842743 0.032025177 -0.0015666027 -0.021313537 -0.08793481 0.06536907 -0.017686667 -0.069425374
0.06584359 0.037405483 -0.08049374 0.07626396 0.052517183 0.043255758 -0.020134626 0.048947114
0.075770676 -0.033704557 0.0790904 -0.04017935 0.035318945 0.06466104 0.011945783 0.05202058
00000000: f8ed 21bd 09aa 8ebd bfc0 e23c c09f 493c
00000010: 3fa8 cb3d e6f3 b83c 4791 38bd 0932 333d
00000020: 916e b03b d52c 033d 7756 cdba ba99 aebc
00000030: 2a17 b4bd 38e0 853d a1e3 90bc e42e 8ebd
00000040: 01d9 863d 7e36 193d e7d9 a4bd 4730 9c3d
00000050: 421c 573d f32c 313d 5ff1 a4bc c57c 483d
00000060: a82d 9b3d ca0d 0abd 26fa a13d 1a93 24bd
00000070: 99aa 103d 026d 843d 3fb8 433c 8813 553d

net.3.module.0.weight f4 [32, 32, 3]
0.03278641 -0.110316 -0.11040096 -0.02561744 -0.051075093 -0.10996915 -0.0055499356 0.05005057
-0.038813367 0.0020350243 0.06655364 -0.012464498 0.051595584 0.04194088 -0.022988912 0.03007597
-0.11188891 0.050042626 0.0069378023 0.07114664 -0.020058418 -0.060085658 -0.09321845 0.04903223
-0.0033144015 0.045280542 -0.01639787 0.056169607 -0.07232694 -0.06280191 0.043402635 0.019431872
-0.08307795 -0.014033991 -0.05414806 0.009555965 0.06443474 0.024479762 -0.0054601496 -0.009674628
0.018340819 -0.066078156 -0.08415892 -0.071483 0.036185775 0.03115295 0.060175978 -0.06545664
0.06511673 0.062417287 0.0111478325 0.0798483 -0.009016325 0.09033576 -0.09393396 -0.002473125
-0.11769017 -0.07514643 -0.09879856 0.08546169 -0.07995288 0.006409434 -0.03413754 -0.01543746
0.10659206 -0.017708248 0.06273828 0.0069847433 -0.056137454 -0.0081902435 -0.04630559 -0.038540613
-0.027935764 -0.0012871629 -0.058911555 -0.007487959 0.011340906 -0.009737731 0.086602665 0.029615732
-0.060541715 -0.08751036 -0.065493494 -0.05627985 0.06416727 -0.049725577 -0.012946721 -0.08655809
0.05574439 0.03066738 -0.09961008 0.079491235 0.058693923 0.0057400465 -0.03920223 0.05307201
-0.015788967 0.052199814 0.07609387 -0.07102363 0.008016857 0.06248941 -0.08774249 0.010027484
-0.049416937 0.094323196 -0.09527632 -0.026915938 0.059600666 0.080284506 0.06383136 -0.1157038
-0.07603584 -0.09820483 -0.020040214 -0.12341253 0.08370486 -0.048402246 -0.029390557 0.044797182
-0.045362025 0.0051150452 0.10425681 -0.1013022 0.059201438 -0.038674515 0.045387354 0.018346705
0.04633683 0.027049828 0.08541651 -0.079771146 -0.003778512 0.044445343 -0.0010049213 -0.047812928
-0.08507806 -0.10633553 0.01733912 -0.05138524 -0.07650996 -0.041034814 -0.0051167384 0.060267165
0.005610688 0.0039916206 0.050428856 0.0062092436 0.06690715 -0.093987934 -0.054289162 -0.051564038
0.011451487 0.02981593 -0.016211579 0.032666594 -0.12307142 -0.09290363 0.09186104 0.0679604
-0.12053722 -0.06619827 -0.040263984 -0.051794365 0.0009918795 0.018755203 -0.028576542 -0.0801829
-0.026449865 0.0011295378 0.07385459 -0.07955767 -0.0119664995 -0.03455025 0.06142859 -0.07040817
-0.056022078 0.027467778 -0.07075911 -0.07463751 -0.10383321 0.0035067599 0.0693515 -0.07754272
-0.03536992 -0.086777724 -0.09803186 0.058541033 0.011111374 -0.08589555 -0.023203243 0.07220359
0.1114221 -0.09075456 0.032944836 -0.04815187 -0.0052456534 0.06482716 0.07464233 -0.04483877
0.08346986 0.009540535 0.018836679 0.028188318 0.022602571 -0.0376094 0.07279299 0.029782498
-0.023272358 0.004288476 0.076308094 0.090213366 -0.056413308 -0.025608486 -0.024652282 0.04550607
0.017404944 -0.0771206 0.0994981 0.030861415 -0.027376184 -0.046339218 0.07126605 0.035355985
-0.04830368 -0.07797438 -0.06878631 -0.0472068 0.03805095 0.058181625 -0.009281371 -0.06148503
0.10083578 0.01361443 -0.06492016 0.09674986 -0.030106425 -0.06843179 -0.07631848 0.054804217
-0.038300116 -0.06803998 -0.0578904 -0.07460496 -0.08630637 0.12864295 -0.0839742 0.0718765
-0.13341805 0.090079024 -0.035024513 0.06258682 -0.08504278 -0.015241854 0.1138912 0.087411165
00000000: 0b4b 063d 5bed e1bd e619 e2bd aadb d1bc
00000010: 1e34 51bd 8137 e1bd 3cdc b5bb d401 4d3d
00000020: c4fa 1ebd 0b5e 053b 464d 883d e537 4cbc
00000030: e455 533d 33ca 2b3d 3e53 bcbc e161 f63c
00000040: 0326 e5bd 7ff9 4c3d 8156 e33b 54b5 913d
00000050: 8d51 a4bc 611c 76bd 51e9 bebd 05d6 483d
00000060: 6e36 59bb 1778 393d d354 86bc 1a12 663d
00000070: 2620 94bd 4a9e 80bd f6c6 313d 972f 9f3c
00000080: c624 aabd d3ee 65bc 5bca 5dbd 9f90 1c3c
00000090: 5cf6 833d c889 c83c 0eeb b2bb 5582 1ebc
000000a0: 7c3f 963c fc53 87bd 835b acbd ae65 92bd
000000b0: 8937 143d 7934 ff3c 167b 763d 220e 86bd
000000c0: ec5b 853d 45a9 7f3d 66a5 363c 8187 a33d
000000d0: 35b9 13bc f401 b93d 7360 c0bd 2714 22bb
000000e0: 8b07 f1bd 5fe6 99bd e656 cabd 8a06 af3d
000000f0: 56be a3bd 3b06 d23b ced3 0bbd 66ed 7cbc
00000100: f04c da3d e310 91bc ed7c 803d 46e0 e43b
00000110: 63f0 65bd 5f30 06bc eeaa 3dbd c3dc 1dbd
00000120: 8bd9 e4bc 05b6 a8ba 3e4d 71bd 8e5d f5bb
00000130: 35cf 393c 018b 1fbc bd5c b13d b19c f23c
00000140: 97fa 77bd a238 b3bd 7421 86bd b385 66bd
00000150: 216a 833d 0cad 4bbd 7c1e 54bc 5e45 b1bd
00000160: 3b54 643d 283a fb3c 5f00 ccbd 4dcc a23d
00000170: 0a69 703d 0017 bc3b 8492 20bd 0962 593d
00000180: dd57 81bc 79cf 553d 1ad7 9b3d d674 91bd
00000190: 2359 033c e5f4 7f3d 56b2 b3bd 514a 243c
000001a0: 6a69 4abd 852c c13d 3b20 c3bd d07e dcbc
000001b0: d41f 743d 346c a43d 04ba 823d 1df6 ecbd
000001c0: aeb8 9bbd 9d1f c9bd 602b a4bc b5bf fcbd
000001d0: 746d ab3d 6f41 46bd 77c4 f0bc 407d 373d
000001e0: 88cd 39bd 1c9c a73b 9884 d53d 8777 cfbd
000001f0: 357d 723d 2b69 1ebd 17e8 393d d44b 963c
00000200: b0cb 3d3d 9a97 dd3c daee ae3d 0e5f a3bd
00000210: e9a0 77bb 520c 363d 90b7 83ba 7dd7 43bd
00000220: 683d aebd 71c6 d9bd c50a 8e3c 5479 52bd
00000230: 41b1 9cbd 1f14 28bd 50aa a7bb b4da 763d
00000240: ddd9 b73b 24cc 823b 7d8e 4e3d e976 cb3b
00000250: 9e06 893d bf7c c0bd 505e 5ebd d034 53bd
00000260: 059f 3b3c 8a40 f43c 25ce 84bc 68cd 053d
00000270: de0c fcbd 4244 bebd a421 bc3d d22e 8b3d
00000280: 38dc f6bd f592 87bd d9eb 24bd 5426 54bd
00000290: f401 823a 83a4 993c 5a19 eabc ef36 a4bd
000002a0: 63ad d8bc 000d 943a 1341 973d 22ef a2bd
000002b0: 230f 44bc 9084 0dbd 8c9c 7b3d 2932 90bd
000002c0: 6877 65bd 1b04 e13c 27ea 90bd 8ddb 98bd
000002d0: 82a6 d4bd abd1 653b 2908 8e3d b8ce 9ebd
000002e0: 0de0 10bd 85b8 b1bd eec4 c8bd b9c8 6f3d
000002f0: 7b0c 363c 02ea afbd ba14 bebc 7adf 933d
00000300: 4531 e43d 87dd b9bd 2af1 063d e53a 45bd
00000310: bbe3 abbb 1ac4 843d 14de 983d dca8 37bd
00000320: 3ff2 aa3d e74f 1c3c 614f 9a3c 30eb e63c
00000330: 0729 b93c 500c 1abd 7e14 953d 6dfa f33c
00000340: aca5 bebc 5886 8c3b 6b47 9c3d c9c1 b83d
00000350: a411 67bd e3c8 d1bc 95f3 c9bc 9364 3a3d
00000360: d094 8e3c 68f1 9dbd a9c5 cb3d 14d1 fc3c
00000370: 0544 e0bc 31ce 3dbd eff3 913d 70d1 103d
00000380: 14da 45bd 08b1 9fbd d6df 8cbd eb5b 41bd
00000390: 50db 1b3d db4f 6e3d e410 18bc bad7 7bbd
000003a0: fd82 ce3d 0f0f 5f3c dcf4 84bd ca24 c63d
000003b0: c0a1 f6bc f725 8cbd dd4c 9cbd 637a 603d
000003c0: 95e0 1cbd 8c58 8bbd 7c1e 6dbd 7cca 98bd
000003d0: 65c1 b0bd faba 033e aafa abbd fd33 933d
000003e0: be9e 08be 5a7b b83d dd75 0fbd 852d 803d
000003f0: e92a aebd f8b8 79bc ca3f e93d a004 b33d

net.3.module.0.bias f4 [32]
-0.0021277473 -0.02404041 0.11962611 0.01278903 -0.0032398594 0.07050647 0.07960941 0.09429034
-0.0049992437 0.076411 -0.013975229 -0.0046293656 0.08912524 -0.09442403 -0.026366776 0.031700507
0.050074622 -0.03496936 0.016741652 0.09429748 -0.114505015 -0.07106304 0.07469833 -0.052987397
-0.0022953232 0.08021158 0.07685212 0.079546824 0.010819016 0.06862165 0.029435502 -0.035746094
00000000: ad71 0bbb 65f0 c4bc 89fe f43d 1489 513c
00000010: d253 54bb b265 903d 420a a33d 4b1b c13d
00000020: b2d0 a3bb 5f7d 9c3d 5cf8 64bc efb1 97bb
00000030: 4b87 b63d 6361 c1bd 23ff d7bc 64d8 013d
00000040: 0c1b 4d3d 083c 0fbd ca25 893c 0a1f c13d
00000050: 9b81 eabd 8089 91bd 70fb 983d 5009 59bd
00000060: 226d 16bb f845 a43d a564 9d3d 72e9 a23d
00000070: 3e42 313c 8289 8c3d b922 f13c 7f6a 12bd

net.4.module.0.weight f4 [32, 32, 3]
-0.035164252 0.07506707 -0.1237699 -0.05378598 -0.061375313 0.087234646 -0.043864682 0.047631472
0.044614118 0.076010816 -0.06640491 0.00681207 0.07297539 -0.11226178 -0.014480653 0.02750122
-0.063680366 -0.08512149 0.020291634 0.09264295 0.005476012 0.054680184 0.051467795 -0.023917982
-0.050298188 -0.022576278 0.055577558 -0.07694854 0.09930198 -0.003545904 -0.06423835 -0.038089525
0.07062668 -0.04979774 -0.011195403 0.012888004 -0.10406649 -0.09021745 -0.06337587 0.013185561
-0.049618606 0.0036371443 0.014009701 -0.08270712 -0.04385926 0.047794413 0.10206762 0.006692549
-0.004100003 -0.090836436 -0.12012405 0.07567488 0.11075349 -0.085982114 -0.048984487 0.07605305
0.06464245 0.039262764 0.008664796 0.07603963 0.006335275 0.048837498 -0.036930855 -0.10676645
0.0113066435 -0.10148808 0.055747263 0.06424918 -0.094109565 -0.058377836 -0.06929972 -0.0015535227
-0.020566262 -0.06625671 0.095341355 0.065880835 0.081824675 -0.00041891207 -0.02034796 -0.073523864
0.042323314 0.084405646 -0.052381285 0.0014124999 0.03967081 0.031254586 0.08309313 0.032110374
0.046052188 0.06776661 0.016498089 -0.018705409 -0.04689352 -0.107972875 -0.05524665 0.059399
-0.110242434 0.031790223 0.08253646 0.045031153 -0.059563607 0.053090274 -0.023975136 -0.030338734
-0.09615382 -0.026045857 -0.11832093 0.0047299885 -0.010513774 -0.00014195306 0.103898644 -0.087997824
-0.023464706 -0.016633596 -0.07163455 0.05135307 0.08762463 -0.028489944 0.028176088 0.11269966
-0.07267294 -0.042325333 0.031810082 -0.1303962 -0.00053893175 0.112765916 -0.08670728 0.0706879
-0.035747018 -0.053936847 -0.027474537 0.0903388 -0.07639907 -0.09387784 -0.046927944 -0.08008307
0.008039556 0.010044855 0.09269211 -0.046822745 0.0656375 0.10136527 0.05090231 -0.047716457
0.022122232 0.09505635 -0.07072485 -0.08171923 0.025688106 -0.01491227 0.0888656 -0.063288316
-0.0019870608 -0.118702725 -0.06777822 -0.10963032 0.08904916 -0.12361786 -0.020214947 0.014762071
-0.10125667 -0.089904495 -0.032026175 0.06810273 0.036667842 -0.06675327 -0.021977777 -0.054888643
-0.037680335 0.015126227 -0.043286968 -0.04818227 -0.02072792 0.06608644 0.081032686 0.068886526
0.02145727 -0.042216502 0.05385411 -0.05423546 0.039554276 -0.07482493 0.09429124 0.0787476
-0.10423261 0.11004829 -0.023016844 0.054991253 0.062980935 -0.033673603 0.063773274 -0.047946703
-0.010447028 -0.016516818 0.056097947 0.0068030516 -0.045057993 0.058805533 0.022179592 0.004610221
-0.058258858 -0.027092485 -0.08552096 0.05920065 -0.103476204 0.06588223 -0.04728109 -0.055048272
0.02534595 -0.049927376 0.052210633 0.089712106 0.09454958 0.055866107 0.10501622 0.09854509
-0.09741225 -0.06547338 0.019385895 0.01667272 -0.052987725 0.03315077 0.027002728 0.058440275
-0.09179005 0.052564353 -0.08586211 0.040412113 0.07704254 -0.10920138 0.009493782 -0.108457975
0.028456341 0.0396662 -0.065924235 0.0006296035 0.07327508 -0.001664413 0.072615534 0.058944207
0.08634157 -0.12109263 0.07504066 -0.05385638 -0.029908447 -0.06909979 0.034008972 0.0041591427
0.020982811 -0.12487287 -0.11510049 -0.043977723 0.016560132 0.05461179 -0.021966493 -0.08150583
00000000: 6408 10bd c4bc 993d 137b fdbd b04e 5cbd
00000010: ae64 7bbd 14a8 b23d 74ab 33bd 3819 433d
00000020: 4bbd 363d 8fab 9b3d 4cff 87bd c937 df3b
00000030: 1f74 953d 81e9 e5bd 4340 6dbc 3d4a e13c
00000040: da6a 82bd 2d54 aebd a43a a63c 96bb bd3d
00000050: 1e70 b33b 54f8 5f3d e5cf 523d a5ef c3bc
00000060: 7905 4ebd e3f1 b8bc 4ba5 633d 3297 9dbd
00000070: d65e cb3d 6662 68bb 658f 83bd c303 1cbd
00000080: b9a4 903d b7f8 4bbd ec6c 37bc 3528 533c
00000090: d020 d5bd edc3 b8bd 35cb 81bd 4008 583c
000000a0: e13c 4bbd 285d 6e3b f288 653c 5a62 a9bd
000000b0: c4a5 33bd 13c4 433d d408 d13d 2c4d db3b
000000c0: 5159 86bb 7408 babd 9903 f6bd 6efb 9a3d
000000d0: bad2 e23d 6417 b0bd f5a3 48bd b4c1 9b3d
000000e0: 4363 843d fed1 203d caf6 0d3c aaba 9b3d
000000f0: 2398 cf3b d409 483d cf44 17bd 5ea8 dabd
00000100: 803f 393c fcd8 cfbd 3e57 643d 1395 833d
00000110: 84bc c0bd 991d 6fbd 03ed 8dbd 929f cbba
00000120: 947a a8bc 99b1 87bd 5442 c33d 88ec 863d
00000130: b293 a73d 6da1 dbb9 c4b0 a6bc ae93 96bd
00000140: 365b 2d3d dedc ac3d c28d 56bd a223 b93a
00000150: dc7d 223d cf04 003d bb2c aa3d 2b86 033d
00000160: 38a1 3c3d 38c9 8a3d 0027 873c 163c 99bc
00000170: 6b13 40bd e220 ddbd 504a 62bd 5e4c 733d
00000180: c9c6 e1bd 7736 023d e008 a93d 9672 383d
00000190: f8f8 73bd 3075 593d 8167 c4bc f088 f8bc
000001a0: 4bec c4bd 1f5e d5bc 3e52 f2bd 05fe 9a3b
000001b0: f741 2cbc 3cd9 14b9 d0c8 d43d 3438 b4bd
000001c0: 0e39 c0bc 2e43 88bc 23b5 92bd 9957 523d
000001d0: 8b74 b33d be63 e9bc 8ad1 e63c 14cf e63d
000001e0: 8dd5 94bd 545d 2dbd 4a4b 023d 9586 05be
000001f0: 1947 0dba d1f1 e63d 9693 b1bd d1c4 903d
00000200: 776b 12bd e2ec 5cbd 4812 e1bc 8c03 b93d
00000210: 1e77 9cbd 0643 c0bd 8437 40bd 9802 a4bd
00000220: 58b8 033c 2d93 243c 5cd5 bd3d 35c9 3fbd
00000230: f46c 863d 9898 cf3d f17e 503d 5572 43bd
00000240: af39 b53c e7ac c23d 31d8 90bd 695c a7bd
00000250: dd6f d23c 9852 74bc 2bff b53d 4e9d 81bd
00000260: 5939 02bb 6a1a f3bd 4fcf 8abd dc85 e0bd
00000270: 685f b63d 5c2b fdbd d199 a5bc 9ddc 713c
00000280: a85f cfbd d91f b8bd e12d 03bd 7279 8b3d
00000290: 0531 163d f0b5 88bd bd0a b4bc ead2 60bd
000002a0: b256 1abd ffd3 773c ad4d 31bd c65a 45bd
000002b0: 99cd a9bc 5458 873d 77f4 a53d 6114 8d3d
000002c0: 28c7 af3c 36eb 2cbd 2196 5c3d 0026 5ebd
000002d0: aa03 223d d03d 99bd c41b c13d 6c46 a13d
000002e0: e877 d5bd ff60 e13d d28d bcbc 823e 613d
000002f0: 26fc 803d 55ed 09bd 909b 823d c363 44bd
00000300: 032a 2bbc 474e 87bc f6c6 653d 22ec de3b
00000310: bb8e 38bd 12de 703d fab1 b53c 5611 973b
00000320: d7a0 6ebd 0ff1 ddbc 9d25 afbd 617c 723d
00000330: 55eb d3bd 43ed 863d d1a9 41bd 4c7a 61bd
00000340: 4fa2 cf3c a680 4cbd d1da 553d fbba b73d
00000350: 36a3 c13d dcd3 643d be12 d73d 02d2 c93d
00000360: 1380 c7bd e816 86bd 2bcf 9e3c 3a95 883c
00000370: a809 59bd 1ac9 073d d334 dd3c 125f 6f3d
00000380: 6cfc bbbd b84d 573d 79d8 afbd 2c87 253d
00000390: 7bc8 9d3d f9a4 dfbd cf8b 1b3c 371f debd
000003a0: 461d e93c 0679 223d 4903 87bd fa0b 253a
000003b0: 3f11 963d 6f28 daba 74b7 943d 7b6f 713d
000003c0: d9d3 b03d 6aff f7bd ebae 993d 8298 5cbd
000003d0: 8f02 f5bc 3184 8dbd fe4c 0b3d 6b49 883b
000003e0: 25e4 ab3c 59bd ffbd ceb9 ebbd fc21 34bd
000003f0: 1da9 873c 9db0 5f3d 13f3 b3bc 87ec a6bd

net.4.module.0.bias f4 [32]
0.0703328 0.078074604 0.05376596 0.08433542 -0.117741175 0.031010453 -0.010280954 0.04025681
0.04148177 0.030039422 0.013578528 0.10162578 0.0136709 -0.057343278 0.09411269 -0.017172422
0.04524224 0.118612505 -0.0734873 0.07500937 -0.058631726 -0.019790629 -0.051238783 0.05968494
-0.007418785 0.0081922235 -0.049643967 0.0008708868 0.15682675 -0.029096639 -0.075217 -0.04229852
00000000: a50a 903d 94e5 9f3d b239 5c3d 0cb8 ac3d
00000010: 4922 f1bd a209 fe3c 7271 28bc 53e4 243d
00000020: cae8 293d 3c15 f63c 7978 5e3c 2d21 d03d
00000030: e9fb 5f3c c9e0 6abd 27be c03d 2ead 8cbc
00000040: ed4f 393d 1deb f23d 8280 96bd 839e 993d
00000050: d227 70bd f51f a2bc c2df 51bd 3278 743d
00000060: 4719 f3bb ad38 063c 7957 4bbd 394c 643a
00000070: 3197 203e 135c eebc 5f0b 9abd 3741 2dbd

net.5.weight f4 [32, 32, 3]
0.05661801 -0.07408314 0.053256936 -0.04071974 0.023798548 0.11969051 -0.12255819 0.038573828
0.058798146 -0.089854985 0.09256382 -0.0019908317 -0.10889047 -0.07048423 0.096767105 -0.03546516
0.004848785 -0.055097554 0.009790768 0.08730831 -0.049822062 0.0791552 -0.019343385 0.12762375
-0.04877743 -0.045945313 -0.012707489 0.030281125 -0.05127976 0.08803282 -0.060651604 0.13807246
-0.01629139 0.0713966 -0.027792336 0.11329472 0.043668013 0.052992377 -0.016723774 0.045766164
-0.027692104 0.017399631 -0.117719255 0.108733356 0.026763253 0.08453473 -0.032749422 0.052212328
0.08249975 0.08278149 -0.08362805 -0.012904748 -0.04734619 -0.013221791 0.12473118 0.031780742
-0.04691715 -0.08618265 -0.054586746 -0.09104216 0.02982038 -0.03822058 0.037361175 -0.070653245
0.055607673 -0.009720178 -0.07462609 0.08892637 0.021578437 -0.051235992 0.022456232 0.084499426
-0.03567417 0.0688372 0.03759892 -0.026450856 0.06314058 -0.05302585 -0.034095813 -0.009871693
-0.020997325 0.008238187 0.011547993 -0.093763895 -0.080185995 -0.04507704 -0.06936803 -0.028555773
-0.015061857 -0.024422713 0.09107493 -0.039991476 -0.03916323 -0.068058066 0.00862515 0.0054607894
-0.00096503814 -0.038489275 0.038879592 0.035921488 0.08272042 0.09001407 0.0944998 -0.0009240125
0.064743645 0.09820611 0.057147074 -0.03410009 0.10172867 -0.028775997 -0.09896191 0.066373535
-0.021476673 -0.06992896 -0.06350777 -0.0026614596 -0.090245955 -0.010146793 0.08430221 0.068516634
-0.109785475 -0.08936306 0.042577166 -0.031864822 -0.07849785 -0.07697007 0.085870534 0.005892852
-0.06436881 -0.061447326 0.11075476 -0.04845027 -0.0108465 -0.051012624 -0.08055779 -0.00972022
0.091111094 -0.037386227 -0.040347636 0.016255535 0.09132372 -0.06273039 0.003899174 -0.06424275
0.053216904 0.038488302 -0.013560931 -0.047632538 0.011406253 -0.071233295 -0.033575885 -0.0683365
-0.05536989 -0.0018473419 -0.011052642 -0.02626564 0.02926364 -0.046881713 -0.0225379 -0.014784304
0.08220318 0.017598165 -0.08311072 0.10713566 -0.05730562 0.047523264 -0.09568973 0.04950611
-0.09999349 -0.039706863 -0.069027804 -0.056812674 -0.09858788 0.049583007 0.0040991018 -0.006728751
-0.074288115 -0.004728187 -0.06457638 0.03164113 -0.020646118 -0.09508117 0.062035207 0.020730093
0.088229135 -0.08549339 -0.057675052 0.08831943 0.072406396 0.061063744 -0.103657745 0.071222305
-0.045957338 -0.035702303 0.057584777 -0.0060990076 0.009382034 0.005047436 0.05499048 -0.08658432
0.0030201236 -0.0334338 0.06760337 -0.07807616 0.10297347 -0.1100241 -0.06785822 -0.05386224
-0.06844101 -0.0117295375 0.022286424 -0.086569116 0.11052181 0.06285916 0.036982704 -0.01448929
0.0026291697 -0.043671142 -0.029008634 0.013350878 -0.037577253 0.013682147 0.058763806 -0.06835164
-0.042455878 0.027071511 0.108807825 0.007678138 0.020897398 -0.0036579387 -0.10134543 0.08045596
-0.048812415 -0.038962 0.09651075 0.040923525 0.06186917 0.07409731 -0.043975394 -0.07533644
-0.01537271 0.029654188 0.017714329 0.012114304 0.13278398 -0.07608295 0.10847999 0.09752192
0.11766804 0.012528799 -0.049734943 -0.060172196 0.025051182 -0.013668288 -0.08830937 0.020197872
00000000: 49e8 673d e7b8 97bd f223 5a3d bec9 26bd
00000010: 2cf5 c23c 4c20 f53d caff fabd 97ff 1d3d
00000020: 53d6 703d e405 b8bd 1a92 bd3d 9d78 02bb
00000030: f701 dfbd 095a 90bd d52d c63d ea43 11bd
00000040: 8fe2 9e3b f9ad 61bd 7569 203c b3ce b23d
00000050: 3812 4cbd 1f1c a23d 0576 9ebc cdaf 023e
00000060: d8ca 47bd 2731 3cbd 1233 50bc 1f10 f83c
00000070: ba0a 52bd 8d4a b43d d16d 78bd de62 0d3e
00000080: 8575 85bc 6138 923d c1ac e3bc 1007 e83d
00000090: 3bdd 323d 890e 593d 4c00 89bc 4d75 3b3d
000000a0: 8dda e2bc ac89 8e3c cb16 f1bd 98af de3d
000000b0: 9c3e db3c 8b20 ad3d 4224 06bd 98dc 553d
000000c0: a1f5 a83d 5889 a93d 2f45 abbd 706e 53bc
000000d0: 14ee 41bd 36a0 58bc 1073 ff3d 862c 023d
000000e0: 332c 40bd 8780 b0bd 5a96 5fbd 5074 babd
000000f0: df49 f43c 2f8d 1cbd 0808 193d a6b2 90bd
00000100: dfc4 633d 6241 1fbc 90d5 98bd 071f b63d
00000110: 43c5 b03c d5dc 51bd 22f6 b73c 090e ad3d
00000120: 141f 12bd 85fa 8c3d 5301 1a3d 77af d8bc
00000130: d94f 813d a231 59bd 0da8 0bbd e2bc 21bc
00000140: 9502 acbc 76f9 063c cb33 3d3c 4907 c0bd
00000150: 8e38 a4bd b4a2 38bd d310 8ebd cced e9bc
00000160: 02c6 76bc 2412 c8bc 7e85 ba3d 1ace 23bd
00000170: a069 20bd 0762 8bbd 8050 0d3c 6cf0 b23b
00000180: 9dfa 7cba eea6 1dbd 3540 1f3d 6922 133d
00000190: 5369 a93d 4c59 b83d 1c89 c13d 6e39 72ba
000001a0: 5198 843d 4920 c93d 0d13 6a3d 89ac 0bbd
000001b0: 1f57 d03d a4bb ebbc 8bac cabd d9ee 873d
000001c0: d9ef afbc ea36 8fbd 5d10 82bd e26b 2ebb
000001d0: dfd2 b8bd bc3e 26bc a3a6 ac3d 7352 8c3d
000001e0: 35d7 e0bd fb03 b7bd 6565 2e3d b084 02bd
000001f0: 7bc3 a0bd 7ca2 9dbd e4dc af3d d318 c13b
00000200: cbd3 83bd 31b0 7bbd 64d3 e23d ca73 46bd
00000210: 85b5 31bc 9df2 50bd 7cfb a4bd 8f41 1fbc
00000220: 7498 ba3d 4d22 19bd 9043 25bd 542a 853c
00000230: ee07 bb3d ca78 80bd 4989 7f3b b491 83bd
00000240: f8f9 593d e9a5 1d3d ab2e 5ebc 561a 43bd
00000250: 4be1 3a3c c3e2 91bd de86 09bd 02f4 8bbd
00000260: 8acb 62bd 8222 f2ba 2416 35bc 0a2b d7bc
00000270: 4dba ef3c 0a07 40bd 67a1 b8bc de39 72bc
00000280: 245a a83d 072a 903c f435 aabd f169 db3d
00000290: 4cb9 6abd c1a7 423d faf8 c3bd ebc6 4a3d
000002a0: 63c9 ccbd aaa3 22bd 735e 8dbd 68b4 68bd
000002b0: 71e8 c9bd 8d17 4b3d c251 863b db7c dcbb
000002c0: 5e24 98bd e8ee 9abb 9f40 84bd 219a 013d
000002d0: 0c22 a9bc ebb9 c2bd a118 7e3d 28d2 a93c
000002e0: 7ab1 b43d 2917 afbd ad3c 6cbd d1e0 b43d
000002f0: ce49 943d fa1d 7a3d 834a d4bd 00dd 913d
00000300: c33d 3cbd 943c 12bd 04de 6b3d 2fda c7bb
00000310: 1ab7 193c f664 a53b b33d 613d 1f53 b1bd
00000320: 44ed 453b e1f1 08bd a373 8a3d 65e6 9fbd
00000330: c1e3 d23d 5154 e1bd 40f9 8abd a79e 5cbd
00000340: cd2a 8cbd 3f2d 40bc 0592 b63c 264b b1bd
00000350: 4259 e23d 4ebc 803d 2d7b 173d 7d64 6dbc
00000360: 264e 2c3b 83e0 32bd 84a3 edbc a4bd 5a3c
00000370: 9bea 19bd 152b 603c 51b2 703d f2fb 8bbd
00000380: 37e6 2dbd 13c5 dd3c a3d6 de3d e498 fb3b
00000390: 0531 ab3c 07ba 6fbb 318e cfbd 18c6 a43d
000003a0: 87ef 47bd 9e96 1fbd 6ea7 c53d 6d9f 273d
000003b0: 876a 7d3d 55c0 973d 8b1f 34bd fe49 9abd
000003c0: d2dd 7bbc 57ed f23c a41d 913c 137b 463c
000003d0: 86f8 073e 61d1 9bbd c22a de3d 93b9 c73d
000003e0: f1fb f03d 9745 4d3c deb6 4bbd 1f77 76bd
000003f0: 2338 cd3c f4f0 5fbc 8bdb b4bd 0276 a53c

net.5.bias f4 [32]
-0.027941715 0.019729516 0.110993154 -0.11557952 -0.008388807 -0.070708655 0.011251704 0.002955303
-0.04065682 0.008069952 0.1197852 -0.063324355 -0.07319051 0.079769306 -0.023305561 -0.013138128
-0.029000109 -0.0263505 -0.0047111306 -0.075698875 0.059073653 -0.09011013 0.12245898 -0.04406458
0.022426618 -0.017630188 0.034162473 0.04732408 -0.060384937 -0.0005690772 0.060586855 -0.04059666
00000000: 06e6 e4bc cb9f a13c 6150 e33d f5b4 ecbd
00000010: 3571 09bc b3cf 90bd 1159 383c c2ad 413b
00000020: c487 26bd d537 043c f151 f53d 33b0 81bd
00000030: e8e4 95bd 175e a33d 4eeb bebc 4e41 57bc
00000040: a391 edbc 01dd d7bc d45f 9abb 0308 9bbd
00000050: 37f7 713d a98b b8bd c6cb fa3d 107d 34bd
00000060: 07b8 b73c 2f6d 90bc f3ed 0b3d e5d6 413d
00000070: 3256 77bd 202e 15ba ec29 783d af48 26bd

exp_avg f4 [32, 538, 2]
-0.00012826531 -0.00014838083 0.0006133533 -0.00013147012 -2.1546406e-05 4.843941e-05 -0.00013471176 6.571154e-06
0.00039386936 0.0005423173 0.00017288003 4.9026425e-05 0.00041794637 9.942574e-05 0.00045928973 0.00059982087
-2.4519513e-05 2.13332e-05 0.00043237497 0.00085579546 0.00015454277 2.045251e-05 9.7386595e-12 -9.186213e-07
-4.490798e-05 -0.0001943242 1.8803028e-05 1.273471e-05 -0.00042393524 -0.00020750334 -2.1748361e-05 -0.0011925166
-7.4379626e-05 1.1924849e-05 -1.2343922e-05 2.5904596e-06 -1.0057207e-05 2.3279176e-06 0.00023964277 0.00016847454
-0.0006787219 0.00028523937 0.00070425624 0.0011425411 2.0153639e-05 1.8200943e-05 0.000556657 0.0006924444
0.0005420502 0.0008854554 -1.6352187e-05 4.869393e-05 -0.00076971925 -0.00024045161 0.00028434704 0.00012051268
6.163547e-05 6.73137e-06 0.00019359757 0.00026704272 0.0006258288 0.00038900378 8.6693886e-05 2.9729948e-05
0.0001115811 -0.00013379485 4.0378944e-07 2.4869955e-06 2.3954635e-05 8.479671e-06 5.679913e-05 9.265037e-06
-6.403462e-05 -1.9383859e-05 -8.349251e-05 -5.10491e-05 0.00011797077 -8.368592e-06 0.00053532486 0.00044536122
1.01063115e-05 0.00011424873 0.0010741488 0.0012870606 -0.00060029194 -9.613418e-05 -2.9931878e-05 -0.00010722673
0.00040147244 0.00043323642 0.00019139524 0.00029588543 -2.6689115e-05 -1.697377e-05 -4.572528e-06 4.844508e-05
0.00014598327 0.00016729298 0.0 0.0 -6.1887567e-06 -9.8353994e-05 0.00020121434 0.00017887559
4.9182854e-06 0.0007687963 2.2266886e-05 -0.00015504687 0.0003746486 2.0751155e-05 8.4026484e-05 2.2375105e-05
0.00018593525 1.49521e-05 1.2387456e-05 5.5341174e-05 -1.1913215e-05 6.328437e-06 -3.8255595e-05 -0.00023327778
0.0007483633 -0.00023041415 0.00035294716 0.0005306193 0.00047030317 0.000679788 2.1401149e-05 -7.5374395e-05
0.00010949194 3.817323e-05 -0.00010271906 0.000111739646 1.5212558e-05 0.00031320777 -9.811754e-06 2.5150151e-05
5.097283e-05 -1.8114717e-05 0.00047843836 2.2763648e-05 0.00018368255 0.0004671841 0.0011874229 0.00057637657
0.00018505263 0.0005604148 0.00019281247 0.000117148986 9.393976e-05 -0.00010655432 0.0001133935 8.5380125e-06
0.00012731174 -0.00025444428 0.00070148625 -0.00011488097 -0.00021706757 0.00014321884 -0.0007143731 9.9897035e-05
-0.00017066183 -0.00017309023 -3.097706e-05 -0.00016385285 0.00065997813 -1.7910497e-05 -5.101491e-05 -0.0008762258
0.00046771704 0.00077240716 0.0004910998 -0.00031774383 0.0004940334 8.019166e-05 -4.5827925e-05 -0.00024832645
1.4825579e-05 -7.29595e-05 5.0019153e-05 1.2275386e-06 -6.7950736e-05 0.00047729717 0.00069381495 0.00014573763
0.00038300536 0.000109222296 0.00074105116 0.000951892 9.828026e-06 4.970061e-05 -4.0738094e-05 -6.919421e-06
-2.9224831e-05 -1.2842966e-05 -0.0006491131 0.0001359677 6.583929e-05 0.00023829148 7.9422825e-05 0.00031208302
8.527319e-05 -4.2847838e-05 9.365271e-06 -6.810689e-06 1.11187765e-05 0.0005662155 0.00022805633 0.00022848614
0.00084757793 0.00056025654 -0.00030940076 -0.00043199497 -7.67601e-05 0.00047960586 0.00015444294 0.00062470546
5.9862136e-06 -2.6954676e-06 2.9787421e-05 -0.00037738212 -0.0001597625 0.00079832197 0.0008061209 0.00018331961
0.001207737 -4.181097e-05 0.00064828 6.173739e-05 -2.8950126e-06 -9.736525e-05 0.0003114808 0.00013498204
0.00012833305 2.7027374e-05 0.00045949756 0.00015368055 0.00044618602 0.0010048378 9.2987604e-05 0.00025067246
6.826334e-05 1.2309058e-05 3.549108e-05 0.00011891448 1.0734348e-05 7.25248e-07 0.00092808984 0.00029247324
1.7718336e-05 -1.3262559e-05 -3.712217e-05 -1.7035789e-05 6.1780265e-06 5.883351e-06 6.4851236e-05 -0.00029897876
00000000: f57e 06b9 ad96 1bb9 71c9 203a 3edb 09b9
00000010: 8ebe b4b7 6c2b 4b38 6a41 0db9 c87d dc36
00000020: 4080 ce39 4c2a 0e3a 2147 3539 b9a1 4d38
00000030: d01f db39 ca82 d038 d3cc f039 4c3d 1d3a
00000040: 41af cdb7 b3f4 b237 63b0 e239 7657 603a
00000050: c20c 2239 6e91 ab37 0653 2b2d 2d97 76b5
00000060: 945b 3cb8 81c3 4bb9 32bb 9d37 2aa7 5537
00000070: a043 deb9 4195 59b9 4070 b6b7 384e 9cba
00000080: 42fc 9bb8 d610 4837 be18 4fb7 c2d7 2d36
00000090: 60bb 28b7 5239 1c36 9e48 7b39 8aa8 3039
000000a0: 41ec 31ba 2e8c 9539 d69d 383a 51c1 953a
000000b0: 9c0f a937 3aae 9837 9eec 113a 2885 353a
000000c0: 6018 0e3a e81d 683a 0e2c 89b7 b63c 4c38
000000d0: fcc6 49ba bd21 7cb9 6a14 9539 c1bb fc38
000000e0: 4a42 8138 07de e136 7400 4b39 de01 8c39
000000f0: a90e 243a 34f3 cb39 6dcf b538 9464 f937
00000100: a600 ea38 484b 0cb9 66c8 d834 42e6 2636
00000110: 30f2 c837 e943 0e37 9a3b 6e38 0871 1b37
00000120: 534a 86b8 859a a2b7 b318 afb8 8e1d 56b8
00000130: 1367 f738 d466 0cb7 0b55 0c3a 5f7f e939
00000140: 478e 2937 d298 ef38 74ca 8c3a 96b2 a83a
00000150: e95c 1dba a59b c9b8 3816 fbb7 eade e0b8
00000160: b87c d239 0224 e339 45b1 4839 1221 9b39
00000170: 70e2 dfb7 e562 8eb7 b76d 99b6 8231 4b38
00000180: 1613 1939 5e6b 2f39 0000 0000 0000 0000
00000190: 04a9 cfb6 6643 ceb8 10fd 5239 8d90 3b39
000001a0: c007 a536 0c89 493a c6c9 ba37 1494 22b9
000001b0: 7c6c c439 c412 ae37 6037 b038 2cb2 bb37
000001c0: 9df7 4239 c8da 7a37 b8d3 4f37 221e 6838
000001d0: dede 47b7 dc58 d436 a274 20b8 079c 74b9
000001e0: d02d 443a 549b 71b9 c40b b939 4219 0b3a
000001f0: 0693 f639 cd33 323a 9e86 b337 5212 9eb8
00000200: 0a9f e538 321c 2038 e06a d7b8 c455 ea38
00000210: 7039 7f37 0936 a439 2a9d 24b7 8af9 d237
00000220: a9cb 5538 0ff5 97b7 e9d6 fa39 90f4 be37
00000230: e99a 4039 63f0 f439 4da3 9b3a fa17 173a
00000240: b00a 4239 cde8 123a b42d 4a39 e2ad f538
00000250: 8601 c538 ea75 dfb8 accd ed38 7c3e 0f37
00000260: fc7e 0539 ef66 85b9 f2e3 373a 40ec f0b8
00000270: a29c 63b9 042d 1639 c444 3bba d07f d138
00000280: b0f3 32b9 8e7f 35b9 5ded 01b8 eacf 2bb9
00000290: 6202 2d3a 803e 96b7 d8f8 55b8 85b2 65ba
000002a0: eb37 f539 5e7b 4a3a 26bd 003a db96 a6b9
000002b0: 0582 013a 922c a838 5c37 40b8 d031 82b9
000002c0: 60bb 7837 d501 99b8 a8cb 5138 e8c1 a435
000002d0: c680 8eb8 be3d fa39 22e1 353a 26d1 1839
000002e0: 1cce c839 460e e538 1a43 423a 6488 793a
000002f0: 0de3 2437 a075 5038 32de 2ab8 602d e8b6
00000300: d927 f5b7 1e78 57b7 3e29 2aba 8d92 0e39
00000310: 3313 8a38 e2dd 7939 ce8f a638 139f a339
00000320: b2d4 b238 84b7 33b8 881f 1d37 5f87 e4b6
00000330: c88a 3a37 146e 143a 6822 6f39 c895 6f39
00000340: fe2f 5e3a 2ede 123a 1137 a2b9 627d e2b9
00000350: 44fa a0b8 9c73 fb39 f6f1 2139 46c3 233a
00000360: 2fdd c836 c8e3 34b6 00e0 f937 5fdb c5b9
00000370: eb85 27b9 7b46 513a dc51 533a 7c39 4039
00000380: ee4c 9e3a 305e 2fb8 56f1 293a 0279 8138
00000390: f047 42b6 9230 ccb8 3f4e a339 f789 0d39
000003a0: 2491 0639 d8b8 e237 b8e8 f039 4f25 2139
000003b0: 13ee e939 c3b4 833a 5702 c338 b06c 8339
000003c0: 9a28 8f38 0083 4e37 42dc 1438 ba61 f938
000003d0: ac17 3437 aaae 4235 0e4b 733a 1857 9939
000003e0: d6a1 9437 4282 5eb7 a0b3 1bb8 14e8 8eb7
000003f0: d84c cf36 9a69 c536 be00 8838 40c0 9cb9

exp_avg_sq f4 [32, 538, 2]
1.1304833e-05 1.4217543e-05 2.0506192e-05 2.2807133e-05 9.738649e-09 1.2651644e-08 1.5794029e-06 1.4706468e-06
2.3731518e-05 2.6604406e-05 1.8919343e-07 9.830017e-08 2.5393986e-06 3.2465682e-06 2.4025545e-05 1.9952193e-05
1.6311223e-08 2.0491695e-08 1.7901995e-05 2.0884152e-05 2.5119317e-07 2.2991878e-07 5.4215184e-11 1.934907e-10
9.233222e-07 9.3535e-07 6.366272e-09 5.243892e-09 8.831435e-06 9.314535e-06 1.06027965e-05 1.1442466e-05
1.6941632e-07 2.1075817e-07 5.6850213e-09 5.3151057e-09 1.0480278e-08 1.820327e-08 7.262063e-07 7.9963917e-07
1.6449561e-05 1.6350648e-05 4.2920623e-05 4.1569267e-05 1.0173889e-08 1.1746716e-08 2.2613718e-05 2.7651033e-05
3.1941567e-05 3.4155833e-05 1.2239991e-07 1.3349263e-07 9.187627e-06 1.021907e-05 1.8188777e-05 1.959519e-05
3.4781774e-08 3.4030002e-08 2.2640795e-06 2.2023362e-06 2.4544821e-05 2.4369197e-05 5.802603e-07 5.535117e-07
6.9557876e-07 7.765153e-07 2.1655858e-10 3.496765e-10 9.803754e-09 1.3885357e-08 3.0836524e-08 3.1050043e-08
1.0672264e-08 1.2090211e-08 5.849649e-07 8.5773326e-07 1.6133029e-07 6.043822e-08 2.1172193e-05 2.5428579e-05
4.7154174e-08 5.2365575e-08 6.178675e-05 5.7087527e-05 1.251137e-05 1.1986657e-05 1.220595e-05 1.1987974e-05
3.194125e-05 3.7180987e-05 9.564258e-06 1.1548479e-05 6.9099066e-08 6.547818e-08 8.859998e-09 1.6704258e-08
2.24508e-05 2.0900847e-05 0.0 0.0 2.875257e-07 2.987422e-07 1.1283167e-05 1.1483497e-05
1.4340909e-05 1.6921887e-05 2.596183e-07 3.176319e-07 5.1445886e-07 5.823509e-07 5.1085834e-07 5.985739e-07
5.6543456e-07 5.3351386e-07 3.649052e-07 3.069578e-07 1.9671406e-08 1.8788288e-08 3.0519445e-07 3.195296e-07
2.6654601e-05 2.3100723e-05 6.7908973e-06 8.147969e-06 2.9083105e-05 3.5469697e-05 2.8181867e-07 3.2588298e-07
2.4841754e-06 2.4364012e-06 9.922399e-06 9.010283e-06 8.655389e-06 8.678305e-06 4.0835648e-08 4.6561087e-08
1.04209654e-07 8.138192e-08 1.48873505e-05 1.2141506e-05 1.2871498e-05 1.5855474e-05 1.0066689e-05 9.294612e-06
5.443355e-06 6.1251017e-06 4.889587e-07 4.893949e-07 2.7541472e-07 3.5397068e-07 5.871545e-07 6.245094e-07
7.5688916e-07 6.167228e-07 3.172535e-05 3.066815e-05 9.1046405e-07 7.2076665e-07 2.776624e-05 2.8111896e-05
7.625272e-07 6.87821e-07 1.5415974e-06 1.6236114e-06 2.9807758e-05 3.1892505e-05 2.3167448e-05 2.4224588e-05
1.5647602e-05 1.6050994e-05 2.5915728e-05 1.997493e-05 3.113579e-05 3.8013324e-05 9.893802e-07 1.1875137e-06
4.044963e-07 3.220315e-07 7.795656e-09 8.056827e-09 5.9856966e-06 6.309067e-06 6.140884e-05 5.8789694e-05
1.1068823e-05 9.365207e-06 4.041672e-05 4.2973334e-05 2.534429e-08 2.9450339e-08 4.8662565e-07 5.364923e-07
2.6317565e-08 2.9355316e-08 1.8888952e-05 1.7285029e-05 1.0464264e-06 1.2465216e-06 3.289824e-06 2.8975546e-06
6.6496824e-07 6.910145e-07 2.1949074e-09 3.3289371e-09 1.5642805e-05 1.638771e-05 5.4347878e-05 5.664544e-05
2.6303594e-05 2.9539651e-05 9.051893e-06 1.0124828e-05 9.823071e-06 8.645253e-06 3.8472084e-05 4.517412e-05
4.2145203e-09 2.110418e-09 2.9163717e-05 2.669679e-05 4.9350834e-05 5.2882657e-05 1.6572569e-05 1.8121733e-05
1.4686218e-05 1.4388228e-05 9.14581e-06 9.401615e-06 1.3943352e-07 1.6962555e-07 2.1932094e-06 2.0111913e-06
3.1030345e-06 3.2307478e-06 5.1227776e-06 4.3824534e-06 2.8384795e-05 2.7685006e-05 3.128438e-06 3.549422e-06
3.6438774e-08 1.1456188e-08 1.4432437e-07 1.5880575e-07 5.542909e-09 6.491907e-09 2.9711802e-05 3.589851e-05
2.4868518e-08 2.2927786e-08 1.7613096e-06 1.8948241e-06 3.7122334e-08 4.421825e-08 5.39426e-06 4.5574807e-06
00000000: e3a9 3d37 e287 6e37 b604 ac37 f251 bf37
00000010: 084f 2732 855a 5932 dffb d335 0a63 c535
00000020: 0c13 c737 872c df37 1825 4b34 1719 d333
00000030: 896a 2a36 9edf 5936 778a c937 025f a737
00000040: c21c 8c32 b705 b032 3e2c 9637 6030 af37
00000050: badb 8634 98df 7634 df70 6e2e cabe 542f
00000060: 38da 7735 c314 7b35 52be da31 c32d b431
00000070: b92a 1437 a045 1c37 aae2 3137 04f9 3f37
00000080: cee8 3534 c44c 6234 fa55 c331 2aa0 b631
00000090: c00c 3432 6a5d 9c32 84f0 4235 c9a6 5635
000000a0: 2afd 8937 c028 8937 ab05 3438 a95a 2e38
000000b0: 3dc9 2e32 9ace 4932 97b2 bd37 24f4 e737
000000c0: fff8 0538 8c42 0f38 086d 0334 2d56 0f34
000000d0: 8f24 1a37 9272 2b37 1a94 9837 5a60 a437
000000e0: f762 1533 6228 1233 97f0 1736 d9cb 1336
000000f0: 9ae5 cd37 746c cc37 2fc3 1b35 0995 1435
00000100: cfb7 3a35 ba71 5035 d21b 6e2f 983c c02f
00000110: 5e6d 2832 728c 6e32 1e71 0433 e25b 0533
00000120: 1d59 3732 4fb5 4f32 7b06 1d35 fb3e 6635
00000130: 223a 2d34 43ca 8133 f09a b137 754f d537
00000140: 9086 4a33 8fe8 6033 8293 8138 4471 6f38
00000150: ede7 5137 4d1a 4937 28c8 4c37 f51f 4937
00000160: a8f8 0538 c8f2 1b38 2d76 2037 57c0 4137
00000170: 9d63 9433 039d 8c33 af36 1832 0d7d 8f32
00000180: ba54 bc37 3a54 af37 0000 0000 0000 0000
00000190: 3b5d 9a34 d162 a034 d54c 3d37 3ea9 4037
000001a0: bc99 7037 7af3 8d37 ab61 8b34 ff86 aa34
000001b0: 5819 0a35 d952 1c35 eb21 0935 afad 2035
000001c0: 5ec8 1735 cb36 0f35 30e8 c334 f5cb a434
000001d0: e1f9 a832 e263 a132 9bd9 a334 d08b ab34
000001e0: 5298 df37 6dc8 c137 5ddd e336 43b3 0837
000001f0: 7ef7 f337 4cc5 1438 dd4c 9734 04f5 ae34
00000200: cfb5 2636 0e81 2336 6178 2637 df2a 1737
00000210: 9d36 1137 0999 1137 4563 2f33 75fa 4733
00000220: ddc9 df33 2fc4 ae33 afc4 7937 5fb3 4b37
00000230: aaf2 5737 5f01 8537 1ae4 2837 0ef0 1b37
00000240: 10a6 b636 3986 cd36 fc40 0335 f65e 0335
00000250: b6dc 9334 5c09 be34 f39c 1d35 f6a3 2735
00000260: 072d 4b35 de8c 2535 d610 0538 ada1 0038
00000270: 9d66 7435 b57a 4135 8ceb e837 d6d1 eb37
00000280: 78b0 4c35 b3a2 3835 e2e8 ce35 ddea d935
00000290: ac0b fa37 51c4 0538 b757 c237 e835 cb37
000002a0: f842 8337 3fa5 8637 9a65 d937 d68f a737
000002b0: cd97 0238 7f70 1f38 d8ca 8435 a962 9f35
000002c0: 8c29 d934 ace3 ac34 a8ed 0532 4d6a 0a32
000002d0: bed8 c836 79b2 d336 9fc8 8038 f494 7638
000002e0: 3cb4 3937 421f 1d37 1f85 2938 443e 3438
000002f0: afb4 d932 fbf9 fc32 a9a0 0235 7803 1035
00000300: f010 e232 0629 fc32 b773 9e37 51ff 9037
00000310: f072 8c35 284e a735 bfc6 5c36 9c73 4236
00000320: 4580 3235 287e 3935 38d5 1631 48c3 6431
00000330: ab38 8337 5778 8937 97f3 6338 9496 6d38
00000340: 8aa6 dc37 ebcb f737 96dd 1737 cedd 2937
00000350: c5cd 2437 140b 1137 165d 2138 5879 3d38
00000360: 50cf 9031 de06 1131 9ba4 f437 ecf2 df37
00000370: 0efe 4e38 52ce 5d38 5205 8b37 2004 9837
00000380: d364 7637 f864 7137 f470 1937 a1bb 1d37
00000390: 32b7 1534 5122 3634 0d2f 1336 01f8 0636
000003a0: ba3d 5036 d3cf 5836 53e4 ab36 fd0c 9336
000003b0: e21b ee37 193d e837 28f2 5136 9b32 6e36
000003c0: db80 1c33 d9d0 4432 95f7 1a34 3184 2a34
000003d0: f173 be31 6b0f df31 9c3d f937 bb91 1638
000003e0: 739e d532 bcf2 c432 2366 ec35 a951 fe35
000003f0: 7070 1f33 7bea 3d33 5700 b536 76ec 9836

exp_avg f4 [32]
1.42436065e-05 2.9376344e-05 9.908237e-06 -9.672762e-06 -8.624549e-06 3.0109038e-07 5.1259693e-05 -5.0543645e-06
2.5369882e-05 -6.0530665e-06 -2.6009064e-05 -8.459436e-07 5.3162303e-06 -3.1827494e-06 3.699444e-05 -9.855405e-06
-3.0144265e-05 -2.3396891e-05 -2.157699e-05 -9.047951e-07 1.183689e-06 -3.2656848e-05 1.651824e-05 -6.023734e-06
-1.3864692e-05 1.5563015e-05 8.870089e-06 -1.4592942e-05 -1.4587338e-05 -1.0982963e-05 -2.0961124e-05 1.2786051e-05
00000000: d3f7 6e37 386d f637 8e3b 2637 3248 22b7
00000010: 28b2 10b7 8ca5 a134 adff 5638 a998 a9b6
00000020: 68d1 d437 721b cbb6 0a2e dab7 cd14 63b5
00000030: 1262 b236 3897 55b6 7a2a 1b38 a458 25b7
00000040: 51de fcb7 7144 c4b7 3c00 b5b7 0ce1 72b5
00000050: 3fdf 9e35 06f9 08b8 a690 8a37 7b1f cab6
00000060: 669c 68b7 528d 8237 bed0 1437 35d4 74b7
00000070: 24bc 74b7 7843 38b7 acd5 afb7 ac83 5637
